knn/models/pretrained-autoencoder/autoencoder-in_features180-latent_size15.pt (torch, 271567 bytes, 12 tensors)

weight f4 [135, 180]
0.043960594 -0.0126121435 -0.011208276 0.038697656 -0.0077205976 0.034896784 0.052370265 0.057075392
0.0061445083 0.0022725947 0.056767564 0.0103262495 -0.0016399338 0.007970879 0.05397616 -0.032626346
-0.003555389 -0.043558676 -0.041184865 -0.0050391736 -0.0051257666 -0.00777882 0.031111741 0.02214484
-0.056182742 -0.04055541 0.059899375 0.020514932 0.024227807 0.039512333 -0.027595017 0.03244858
-0.0108435005 0.042691942 -0.027330605 -0.032863416 -0.0346457 -0.009661029 -0.042859755 -0.005549208
-0.07629648 0.0512512 0.041436136 0.033737645 0.05815401 -0.028826647 -0.042334728 -0.013154025
-0.011768831 0.021849258 -0.042529944 0.013289078 0.03005755 0.02282544 -0.06515093 -0.023481265
0.07072132 0.064895086 -0.032847855 -0.009476385 0.026594281 -0.00029964984 -0.012492349 0.032924764
0.034386974 0.0012691023 0.055205196 0.07388303 0.07569878 0.11167018 0.08795 0.086653985
0.080685325 0.016277198 0.023722908 0.052748837 0.013289262 0.073007256 0.076016426 -0.01711441
-0.013220509 0.02602691 0.008940925 -0.06965313 0.010781947 0.044669572 -0.042910784 -0.026223896
0.0073442506 -0.08254702 -0.032263357 -0.088330634 -0.06846903 -0.025660137 -0.08380107 -0.07885396
-0.06918248 -0.05928192 -0.051895633 -0.09731775 -0.068171844 -0.05541366 -0.0673655 -0.03632184
-0.05885345 -0.050273318 -0.028469998 0.024097474 0.028879784 -0.053234484 -0.057079714 0.017992876
-0.077759475 -0.015229052 -0.0051518166 0.057859845 -0.031955928 0.046036415 0.065354906 0.055588845
0.0724393 0.072305955 -0.024715992 0.068330556 -0.029255057 0.017545553 0.0019605611 0.094920866
-0.014407242 0.03260019 0.06271641 0.051660188 -0.043695383 0.038561385 0.061859902 -0.047624145
0.06353877 0.027657466 0.06432045 0.088119425 -0.0032688817 0.0060427166 -0.009524264 -0.045473427
0.042070895 -0.002323758 -0.010772181 -0.020460099 -0.053973287 0.01138075 0.053483665 -0.04854941
0.004584184 -0.081455365 -0.050931297 -0.018702075 -0.033073615 -0.018018177 -0.036415864 -0.0024903598
-0.027860137 -0.0737216 -0.064764366 -0.0350953 0.026039358 -0.07850608 -0.035124857 0.026957866
-0.009245069 -0.026653353 0.017274922 0.017846907 -0.01611199 0.06393396 0.08662889 -0.04045666
0.04511606 0.022040952 0.07785931 0.05454792 -0.003364529 -0.02012964 0.059546914 0.021159368
-0.05516579 0.056075897 0.005062262 0.045271948 0.021540837 0.018126337 0.06248022 -0.030363107
-0.022979409 0.008988383 0.016020441 0.052879427 0.0531804 0.024227256 0.060328063 0.045288917
-0.0035712605 0.0102497265 0.029429227 -0.057863593 0.035014674 -0.0014620791 -0.03915955 -0.0032379322
-0.046000604 0.053340815 0.042778153 -0.014496611 0.031182067 -0.06905667 -0.004062558 0.029624932
0.037643503 0.029972935 0.0015820427 0.0345549 -0.04442082 0.0042251735 0.015339678 -0.057914577
-0.054826934 -0.0045624212 -0.032038257 -0.07190298 -0.09061865 -0.08962231 0.0072968057 -0.048122067
-0.09750299 -0.020044943 0.020676875 -0.0008585343 -0.043438144 -0.000969632 -0.07492599 0.022325162
-0.02631125 -0.062437642 0.0732358 -0.053605165 0.058806732 0.0062964507 -0.01784455 0.015126428
0.07954697 0.07723591 0.055763416 0.032122016 0.06819409 0.029028466 0.0090919705 0.07570192
00000000: 0610 343d 2aa3 4ebc eba2 37bc 6f81 1e3d
00000010: 11fd fcbb eeef 0e3d 3482 563d e3c7 693d
00000020: df57 c93b d0ef 143b 1b85 683d 6e2f 293c
00000030: 0cf3 d6ba 4a98 023c 1b16 5d3d 34a3 05bd
00000040: 8701 69bb 956a 32bd 76b1 28bd a71f a5bb
00000050: 0cf6 a7bb 79e5 febb 0dde fe3c 1869 b53c
00000060: e01f 66bd 6e1d 26bd 0c59 753d ee0e a83c
00000070: 6579 c63c afd7 213d f20e e2bc cde8 043d
00000080: f0a8 31bc bfdd 2e3d 6fe4 dfbc ca9b 06bd
00000090: a6e8 0dbd 4b49 1ebc b68d 2fbd 21d6 b5bb
000000a0: 5441 9cbd c7ec 513d f0b8 293d 7c30 0a3d
000000b0: e632 6e3d dc25 ecbc 2e67 2dbd fb83 57bc
000000c0: 0ed2 40bc 37fd b23c e133 2ebd 6fba 593c
000000d0: 403b f63c 6bfc ba3c da6d 85bd c85b c0bc
000000e0: 57d6 903d b7e7 843d 798b 06bd d742 1bbc
000000f0: 40dc d93c 521a 9db9 b6ac 4cbc 1edc 063d
00000100: 5bd9 0c3d 0258 a63a d81e 623d fc4f 973d
00000110: f607 9b3d 56b3 e43d 211f b43d a577 b13d
00000120: 593e a53d c257 853c 8b56 c23c 2a0f 583d
00000130: 34bb 593c d484 953d 80ae 9b3d 8533 8cbc
00000140: d59a 58bc 6336 d53c f57c 123c 4da6 8ebd
00000150: c3a6 303c 71f7 363d 38c3 2fbd 7fd3 d6bc
00000160: 0aa8 f03b 690e a9bd 9526 04bd b1e6 b4bd
00000170: 7e39 8cbd 3535 d2bc e59f abbd 2f7e a1bd
00000180: 8baf 8dbd 99d1 72bd 8490 54bd 874e c7bd
00000190: ae9d 8bbd 6ff9 62bd ecf6 89bd 36c6 14bd
000001a0: 5110 71bd 65eb 4dbd ea39 e9bc 1168 c53c
000001b0: 4c95 ec3c 670c 5abd 6bcc 69bd cc65 933c
000001c0: 5c40 9fbd 4683 79bc 92d0 a8bb 72fe 6c3d
000001d0: 38e4 02bd ae90 3c3d cbd8 853d 21b1 633d
000001e0: 0e5b 943d 2515 943d 3179 cabc e4f0 8b3d
000001f0: 4da8 efbc b1bb 8f3c c27c 003b df65 c23d
00000200: 5a0c 6cbc c787 053d 7671 803d a299 533d
00000210: eef9 32bd 8bf2 1d3d cf60 7d3d 8911 43bd
00000220: 9d20 823d e991 e23c 71ba 833d f577 b43d
00000230: bc3a 56bb fb01 c63b a90b 1cbc 5842 3abd
00000240: 8852 2c3d 314a 18bb cd7d 30bc f09b a7bc
00000250: 1813 5dbd 5376 3a3c b011 5b3d bfdb 46bd
00000260: ec36 963b 12d2 a6bd 569d 50bd 1835 99bc
00000270: 3378 07bd db9a 93bc cd28 15bd 4e35 23bb
00000280: f13a e4bc 5afb 96bd 2ea3 84bd 17c0 0fbd
00000290: 7e50 d53c ccc7 a0bd 15df 0fbd bed6 dc3c
000002a0: a178 17bc 2258 dabc 2384 8d3c ad33 923c
000002b0: 4bfd 83bc cfef 823d 7d6a b13d e2b5 25bd
000002c0: 9ecb 383d 3a8f b43c b474 9f3d a46d 5f3d
000002d0: 6e7f 5cbb eae6 a4bc 77e7 733d 6956 ad3c
000002e0: 86f5 61bd d7af 653d 55e1 a53b 146f 393d
000002f0: 6976 b03c af7d 943c 42eb 7f3d 0dbc f8bc
00000300: 503f bcbc 0344 133c 4d3d 833c 1998 583d
00000310: b1d3 593d 3d78 c63c 8f1a 773d df80 393d
00000320: cf0b 6abb 78ee 273c 9015 f13c 6002 6dbd
00000330: 8c6b 0f3d 3ca3 bfba c465 20bd 7d33 54bb
00000340: 216b 3cbd e67b 5a3d 2538 2f3d 3283 6dbc
00000350: 8971 ff3c 956d 8dbd 351f 85bb fcaf f23c
00000360: 1330 1a3d cd89 f53c 8b5c cf3a 7089 0d3d
00000370: 9bf2 35bd 5373 8a3b 4653 7b3c d637 6dbd
00000380: 3592 60bd 5d80 95bb 8c3a 03bd df41 93bd
00000390: 4596 b9bd e78b b7bd 0b1a ef3b a51b 45bd
000003a0: a6af c7bd 4b35 a4bc 8d62 a93c 430f 61ba
000003b0: 32ec 31bd e72e 7eba cc72 99bd 42e3 b63c
000003c0: b18a d7bc 9dbe 7fbd a7fc 953d 1791 5bbd
000003d0: 54df 703d 7552 ce3b bc2e 92bc d6d4 773c
000003e0: 86e9 a23d dc2d 9e3d 2e68 643d 6092 033d
000003f0: 58a9 8b3d 1bcd ed3c 7df6 143c 9c09 9b3d

bias f4 [135]
0.039265554 0.07774037 0.046499453 -0.10810977 -0.013818214 -0.01877442 0.028952675 -0.01930682
0.025733257 0.11458309 -0.032076426 0.040261954 0.019235367 -0.08077554 0.03023395 -0.068843536
0.080656976 0.023329573 -4.357526e-05 0.097473405 -0.047575057 0.09853311 0.021613989 0.004297145
-0.013144767 0.004414699 0.048856843 -0.043948572 0.028803123 -0.07870425 -0.023586288 0.1032433
0.08310655 0.027874896 -0.012484398 0.037791047 -0.00019770845 0.0061591887 0.057350945 0.039705142
0.07470331 0.028927518 -0.008076175 -0.022355095 -0.06746478 0.061517436 -0.06381817 0.04657156
0.03242586 0.047204114 -0.006775426 -0.036249243 -0.034492284 0.07058134 0.0756954 0.07168761
0.017611483 -0.0123425415 0.027513439 -0.035773724 0.049989894 -0.014509495 0.09872814 0.08978281
-0.010986626 0.10957318 0.0040781912 0.04068568 0.037459325 0.05532956 0.060496956 -0.012448162
-0.09557109 0.10536666 0.0105046 0.05957663 -0.041362252 -0.059631802 0.066469975 -0.05414159
0.025460588 -0.035181094 -0.07192097 -0.009722718 0.06599791 0.045469068 0.0019903213 0.10218883
0.070293926 0.057173986 0.084985465 0.050605796 -0.005472726 -0.008389701 -0.007541772 0.07178735
-0.098243475 -0.013650151 -0.011366919 0.05332454 0.061834432 0.023989199 0.011750895 0.031751297
0.010518034 -0.013016518 0.11073047 0.05093873 -0.030745946 0.06735239 -0.06875199 0.007844009
0.015336719 0.014612933 -0.0003905099 0.030409863 -0.10835451 -0.09875295 0.10122964 0.017641868
-0.0073620663 0.06509099 -0.031122398 0.014794078 0.08340586 -0.06754093 -0.0585306 -0.068387
-0.043505803 -0.0022710103 0.15192375 0.078632355 -0.061660904 -0.05293427 -0.100374885
00000000: ebd4 203d 5836 9f3d 3676 3e3d a868 ddbd
00000010: ca65 62bc d0cc 99bc 292e ed3c 5629 9ebc
00000020: 8dce d23c 8aaa ea3d 9262 03bd b8e9 243d
00000030: 7d93 9d3c a56d a5bd 30ad f73c d7fd 8cbd
00000040: 7c2f a53d a91d bf3c 94c4 36b8 23a0 c73d
00000050: 10de 42bd bacb c93d d20f b13c 11cf 8c3b
00000060: 265d 57bc 2ea9 903b 1d1e 483d 6b03 34bd
00000070: 87f4 eb3c b22f a1bd 0838 c1bc 3971 d33d
00000080: c433 aa3d e559 e43c 5c8b 4cbc c9ca 1a3d
00000090: f54f 4fb9 05d3 c93b d3e8 6a3d dca1 223d
000000a0: 0dfe 983d 67f9 ec3c ef51 04bc 0822 b7bc
000000b0: f92a 8abd b5f9 7b3d 1ab3 82bd d2c1 3e3d
000000c0: fbd0 043d 1a59 413d 6504 debb 167a 14bd
000000d0: c847 0dbd f38c 903d 3106 9b3d f4d0 923d
000000e0: f545 903c 5f38 4abc dd63 e13c 7887 12bd
000000f0: 34c2 4c3d 3cb9 6dbc fb31 ca3d 0de0 b73d
00000100: 4001 34bc e767 e03d 59a2 853b 07a6 263d
00000110: f36e 193d 40a1 623d a8cb 773d 60f3 4bbc
00000120: c7ba c3bd 7aca d73d 7c1b 2c3c a006 743d
00000130: 776b 29bd 7a40 74bd 6921 883d 92c3 5dbd
00000140: b992 d03c 0d1a 10bd 4d4b 93bd 094c 1fbc
00000150: ea29 873d c63d 3a3d 0d70 023b 6148 d13d
00000160: 43f6 8f3d 452f 6a3d dc0c ae3d 0648 4f3d
00000170: 8e54 b3bb f574 09bc f820 f7bb 3f05 933d
00000180: e033 c9bd e2a4 5fbc 503c 3abc d56a 5a3d
00000190: 1a46 7d3d ff84 c43c d386 403c a60d 023d
000001a0: d553 2c3c 3c43 55bc a8c6 e23d 21a5 503d
000001b0: ecde fbbc 0df0 893d d8cd 8cbd 2984 003c
000001c0: dd46 7b3c 156b 6f3c 5abd ccb9 1b1e f93c
000001d0: f8e8 ddbd fd3e cabd 7c51 cf3d ae85 903c
000001e0: 7d3d f1bb 6d4e 853d 66f4 febc dc62 723c
000001f0: b1d0 aa3d e652 8abd c8bd 6fbd 7c0e 8cbd
00000200: 2433 32bd 3bd5 14bb e691 1b3e 000a a13d
00000210: 2590 7cbd 9bd1 58bd 5991 cdbd

weight f4 [45, 135]
0.019219546 -0.05685537 0.088177666 -0.0923261 -0.054069374 -0.10782135 -0.010354135 0.08050394
0.0113988705 0.048422426 -0.008858105 0.079133354 0.04910948 0.044216122 -0.009142694 0.2127861
-0.02425973 0.0632582 -0.04618387 0.02842589 -0.03582949 -0.025282597 -0.0043999203 -0.06665866
0.02724594 -0.045328647 0.062083606 0.054682635 0.033025466 0.022927102 0.023695381 0.026980609
0.034347698 -0.011020907 -0.035215586 0.058843877 0.042565774 -0.015415578 0.031044023 0.036741033
0.049849134 0.056868892 -0.017395621 0.015827615 -0.056000218 -0.031175677 0.022857526 -0.031005833
0.20741314 0.011570504 0.118154384 0.019508181 -0.08011275 0.009842159 0.010898296 -0.084776774
0.08404476 -0.08632276 -0.050575532 0.00044616696 -0.04949779 0.0078775035 -0.0070709675 0.010080418
0.07376986 0.06368769 -0.00025861483 -0.08524795 -0.047928028 -0.08257593 -0.022941388 -0.09508555
0.004213288 0.003102037 -0.07838363 0.034176823 -0.01666658 0.15532497 0.14637578 -0.0021954388
-0.029387316 0.008030061 0.014336194 0.22835405 -0.043032553 0.042752445 -0.05342283 0.022115942
-0.055143997 -0.03598223 -0.045081772 0.027106974 -0.046510614 -0.02004734 -0.052433755 0.0043031513
0.0056614517 -0.033392064 0.0010851951 -0.024066238 0.014571069 0.023544686 -0.052830193 0.0833975
0.15462111 0.036931053 -0.03489924 0.008476887 0.10868093 -0.069107756 0.042294554 -0.01906128
0.03849135 0.07932939 0.08869211 0.029039355 0.0063876454 0.011094394 0.0055573713 0.018617764
-0.037108313 -0.026683496 -0.041077733 -0.032370884 -0.0066040084 0.12199203 0.023743747 0.0057675573
-0.103058726 -0.0062085 -0.026024522 -0.06093747 -0.060553927 0.0031677606 0.0039076186 -0.00012408552
-0.010317031 -0.052054703 0.008083616 -0.037979774 -0.026356712 -0.042366497 0.041086845 -0.023475809
0.14894721 0.11945323 -0.01863961 -0.012813107 0.11016118 -0.0787551 0.062458333 -0.01119344
0.11691933 0.031608734 -0.016703092 -0.092399776 0.025759151 0.05555449 -0.09028643 -0.043046106
-0.006025576 0.045295212 -0.02793999 -0.08164137 0.023611728 -0.02865984 0.04355227 -0.04205214
0.060958352 0.02346879 -0.044836923 -0.041518714 -0.062828325 0.0107204085 0.05610176 -0.054817986
0.046625167 -0.05177799 0.04871596 -0.017757941 -0.07855102 0.07030465 0.06547517 0.007893916
0.05246572 0.045188967 -0.08008184 0.02605142 -0.023899835 0.11065041 0.04635128 0.032949768
-0.053172294 0.02675113 -0.029191084 -0.056897208 -0.02069167 -0.01021167 -0.027544467 0.016134484
-0.07490775 -0.004585695 0.12809011 0.025659932 0.07449319 0.09558951 0.07615577 0.09379292
0.05535207 0.0010178959 0.0034334327 0.019271437 -0.04175609 0.07845161 -0.085406415 -0.07305339
0.21433775 0.041869428 -0.03845842 -0.111204356 0.07819348 0.034101274 0.037443426 0.09392472
0.06981263 -0.01865149 0.05003277 0.09008838 0.007783871 0.05705043 -0.055613913 0.05502732
0.06351522 -0.03238599 0.007085279 -0.06797327 -0.017041022 0.112875365 -0.04446572 0.0073697628
-0.058619425 -0.036733016 -0.027867038 0.13692008 -0.05315943 0.027561294 0.03527644 0.091510035
-0.013106533 0.00013233461 0.0011891288 0.021715192 0.06505061 0.035339218 -0.03047252 0.03841772
00000000: 4f72 9d3c 2de1 68bd 7e96 b43d 7715 bdbd
00000010: d977 5dbd 71d1 dcbd 64a4 29bc 40df a43d
00000020: 54c2 3a3c 9856 463d 9621 11bc ab10 a23d
00000030: 0627 493d f71b 353d 3dcb 15bc 99e4 593e
00000040: 57bc c6bc 848d 813d 4c2b 3dbd 69dd e83c
00000050: f1c1 12bd 731d cfbc 352d 90bb 5684 88bd
00000060: e132 df3c 88aa 39bd 614b 7e3d e6fa 5f3d
00000070: b645 073d 9ed1 bb3c d11c c23c 7006 dd3c
00000080: 2cb0 0c3d 0991 34bc 383e 10bd 4706 713d
00000090: 7359 2e3d 9f91 7cbc 0950 fe3c c47d 163d
000000a0: 9b2e 4c3d 5bef 683d 4381 8ebc eaa8 813c
000000b0: 7c60 65bd 2264 ffbc b53f bb3c f2ff fdbc
000000c0: 1c64 543e 3692 3d3c edfa f13d 9fcf 9f3c
000000d0: 2712 a4bd 0241 213c c48e 323c 729f adbd
000000e0: a91f ac3d fdc9 b0bd 4a28 4fbd 84eb e939
000000f0: 32be 4abd a510 013c 93b3 e7bb 5628 253c
00000100: a714 973d b16e 823d b296 87b9 7a96 aebd
00000110: 2e50 44bd 921d a9bd 94ef bbbc 36bc c2bd
00000120: 9f0f 8a3b 8b4b 4b3b 9987 a0bd fffc 0b3d
00000130: 5a88 88bc 820d 1f3e 88e3 153e 5ae1 0fbb
00000140: abbd f0bc 8490 033c 5be2 6a3c a5d5 693e
00000150: e742 30bd 301d 2f3d e6d1 5abd 7e2c b53c
00000160: acde 61bd 1a62 13bd aaa7 38bd 720f de3c
00000170: ea81 3ebd 523a a4bc c7c4 56bd 7301 8d3b
00000180: b383 b93b 1ec6 08bd 1b3d 8e3a 8f26 c5bc
00000190: 7ebb 6e3c c9e0 c03c 7964 58bd 4fcc aa3d
000001a0: ff54 1e3e 0445 173d 81f2 0ebd a4e2 0a3c
000001b0: 1c94 de3d 5e88 8dbd 0e3d 2d3d 6726 9cbc
000001c0: 1ba9 1d3d 7277 a23d 35a4 b53d f1e3 ed3c
000001d0: 744f d13b 43c5 353c 9c1a b63b 4884 983c
000001e0: e3fe 17bd 5997 dabc 2041 28bd 5597 04bd
000001f0: 7066 d8bb f5d6 f93d 3f82 c23c c7fd bc3b
00000200: 7410 d3bd ac70 cbbb 6131 d5bc 9299 79bd
00000210: 6507 78bd 349a 4f3b 7b0b 803b f41c 02b9
00000220: c408 29bc 5037 55bd 2571 043c ae90 1bbd
00000230: 08ea d7bc 7e88 2dbd ae4a 283d 5750 c0bc
00000240: 9e85 183e e5a3 f43d 18b2 98bc 11ee 51bc
00000250: 2f9c e13d 5b4a a1bd 4fd4 7f3d b164 37bc
00000260: 6773 ef3d 2978 013d ecd4 88bc 183c bdbd
00000270: db04 d33c 1b8d 633d 18e8 b8bd 1d51 30bd
00000280: 3272 c5bb 7987 393d 68e2 e4bc 9733 a7bd
00000290: 626d c13c 0ac8 eabc dd63 323d dd3e 2cbd
000002a0: 77af 793d 9f41 c03c eca6 37bd 870f 2abd
000002b0: 23ac 80bd a7a4 2f3c f6ca 653d d388 60bd
000002c0: 08fa 3e3d 2815 54bd 638a 473d 1a79 91bc
000002d0: 5bdf a0bd e2fb 8f3d d917 863d 7c55 013c
000002e0: 4be6 563d 1118 393d f301 a4bd ca69 d53c
000002f0: 96c9 c3bc af9c e23d d7da 3d3d 56f6 063d
00000300: 31cb 59bd 3025 db3c 2422 efbc 0c0d 69bd
00000310: 9481 a9bc d94e 27bc efa4 e1bc 772c 843c
00000320: 3c69 99bd 9943 96bb 0e2a 033e c734 d23c
00000330: e38f 983d 6fc4 c33d 8ef7 9b3d 8116 c03d
00000340: dab8 623d eb6a 853a 7103 613b 22df 9d3c
00000350: 6f08 2bbd 3dab a03d 8fe9 aebd 049d 95bd
00000360: 5b7b 5b3e 477f 2b3d 9486 1dbd 1cbf e3bd
00000370: e723 a03d c7ad 0b3d 475e 193d 9b5b c03d
00000380: edf9 8e3d 02cb 98bc 29ef 4c3d 4280 b83d
00000390: d80f ff3b b6ad 693d 6acb 63bd 5464 613d
000003a0: 4514 823d 2ca7 04bd a12b e83b 9235 8bbd
000003b0: 9d99 8bbc 332b e73d b021 36bd 0d7e f13b
000003c0: ec1a 70bd 5c75 16bd 6a49 e4bc c734 0c3e
000003d0: b4bd 59bd 39c8 e13c 077e 103d 9d69 bb3d
000003e0: c9bc 56bc 4dc3 0a39 8bdc 9b3a 0fe4 b13c
000003f0: 4139 853d dbbf 103d 82a1 f9bc e65b 1d3d

bias f4 [45]
0.03699378 -0.030683318 0.06512926 -0.010281033 0.02674499 0.06943018 -0.022507211 -0.0050762906
0.09351105 0.06833458 -0.013847308 0.045160227 0.04702326 0.03861924 0.05147498 0.022433013
0.029998982 0.070703536 -0.032308787 0.017970404 0.0477415 0.020250892 -0.04043111 -0.05902257
0.11555075 0.09288078 -0.08586991 0.110650845 -0.0038886226 0.057880998 -0.03606402 0.007977548
-0.06672767 0.023835622 0.09503526 -0.010372047 0.1551371 -0.0117551545 0.038766377 -0.006894728
0.0069085723 0.1282962 -0.059255354 0.12047225 0.13505375
00000000: ca86 173d 955b fbbc 7d62 853d c771 28bc
00000010: 4f18 db3c 6931 8e3d 0b61 b8bc 0357 a6bb
00000020: b982 bf3d 00f3 8b3d d2df 62bc eef9 383d
00000030: 769b 403d 352f 1e3d 6ed7 523d 70c5 b73c
00000040: 6dc0 f53c 04cd 903d 3856 04bd ab36 933c
00000050: 978c 433d 33e5 a53c 179b 25bd a6c1 71bd
00000060: dfa5 ec3d 4738 be3d 90dc afbd e99c e23d
00000070: 43d8 7ebb a014 6d3d deb7 13bd 43b4 023c
00000080: 84a8 88bd ec42 c33c d9a1 c23d 85ef 29bc
00000090: 43dc 1e3e b198 40bc 7ec9 1e3d 2ced e1bb
000000a0: 4e61 e23b 1460 033e beb5 72bd 28ba f63d
000000b0: 884b 0a3e

weight f4 [15, 45]
-0.13472812 0.13536005 -0.09266555 0.17883703 -0.113590114 -0.09317322 0.16945116 -0.16699213
0.12640414 -0.15706724 0.020322505 -0.023795774 -0.24082948 -0.22387204 -0.2719115 0.22950262
0.057415206 0.23723689 0.023865178 0.16619353 0.027454782 0.012677619 0.055406503 0.08509588
0.16160946 -0.039916083 -0.14458661 0.15680216 -0.22385885 0.045775846 -0.025850609 0.109306395
0.1718283 0.052409954 0.080175675 -0.20482875 0.32134306 0.21656685 0.21594001 -0.04807144
0.024217486 0.22571869 -0.20613772 0.13055767 -0.14050567 -0.01677867 0.1526792 0.04546402
-0.046323124 -0.10895022 -0.101984605 0.17537758 -0.066101685 -0.016423821 -0.20149893 0.09833004
-0.11051588 -0.10509428 -0.07781569 -0.029668014 0.13519123 0.010091346 -0.23081234 0.009816741
-0.24440528 -0.32887864 -0.26719853 -0.016593987 0.05285614 0.24729185 0.098294884 0.11929703
-0.13708712 0.008880888 0.29793516 -0.016661746 0.09923557 -0.031666808 0.14868765 0.09897726
0.15710407 0.09063047 0.031235397 -0.3457802 0.08323968 0.06211065 0.2124945 0.12018237
-0.00023146834 -0.14288554 0.2664591 0.07405693 0.014141383 0.063753925 0.19710258 0.11984373
-0.16078301 0.3782215 0.13433374 -0.30134013 0.016428478 -0.03607148 0.064697646 0.14318739
0.3712797 -0.4095524 -0.074370205 -0.042592485 -0.25230685 -0.06346168 -0.06254105 0.07157335
-0.13841414 -0.22782223 0.20040321 -0.103834614 0.013810572 0.14944568 0.17219329 0.20761728
0.022554405 -0.15482852 0.31069556 -0.05429436 -0.28667796 -0.12912153 0.067021206 0.19445643
0.11899354 -0.17613894 -0.0051920014 0.0083409175 0.043999366 0.2847891 -0.32566884 0.11330096
-0.07024117 -0.13676782 -0.26466537 0.16068816 -0.18833044 -0.12321874 0.2506315 -0.045743354
0.081437156 0.27556056 0.10575647 0.16466217 0.1341175 -0.27209577 -0.22115761 0.14564036
0.038370855 -0.0814948 -0.31858394 -0.026745634 -0.10319563 -0.1638835 -0.2972731 -0.009487996
0.17142978 0.024298802 -0.06612007 0.17935187 0.16265026 -0.05031985 -0.004618835 -0.013572105
-0.29911566 0.13976328 -0.016912136 0.10779251 -0.100090295 0.22153546 0.25922796 0.056066126
0.22717683 -0.09069828 -0.11584779 0.19137841 0.034933075 -0.27119026 0.147701 -0.1567507
-0.10419457 0.10312127 0.15429258 0.27387297 -0.13612078 0.23476464 -0.12080573 0.11772783
-0.08328893 0.009203307 -0.031138904 -0.24611335 0.20110264 -0.2300447 -0.2253678 0.12320612
-0.17328525 0.023901246 0.10071191 -0.07055589 0.038282678 0.3169985 0.13317537 0.15637995
-0.26958722 -0.14829354 0.27182117 0.075083345 0.25062662 0.12299437 -0.050067388 -0.056878824
-0.022820428 -0.19180998 0.17379421 0.013276433 -0.05997043 0.015268028 0.26921418 -0.13147156
0.06559917 -0.20596449 -0.029087644 -0.00729945 0.019501548 0.16109589 0.23835087 -0.046857595
-0.21784067 -0.068356276 0.020458044 0.06896669 -0.2248527 0.25664315 0.11952446 -0.15079203
0.08985221 0.27908963 0.033739693 0.015799573 -0.32376513 0.11176436 -0.011661137 0.016809722
0.047804058 -0.1263021 -0.22619736 0.1366667 0.14695854 0.044450488 -0.07506433 0.033770747
00000000: 2bf6 09be d39b 0a3e 70c7 bdbd 0e21 373e
00000010: efa1 e8bd 9ad1 bebd 9b84 2d3e fcff 2abe
00000020: 1670 013e 3cd6 20be 627b a63c 5bef c2bc
00000030: 019c 76be b63e 65be fc37 8bbe bc02 6b3e
00000040: 352c 6b3d 3aee 723e e880 c33c a32e 2a3e
00000050: dae8 e03c cab5 4f3c eef1 623d c046 ae3d
00000060: f37c 253e 0c7f 23bd 830e 14be bf90 203e
00000070: 413b 65be 747f 3b3d a8c4 d3bc 08dc df3d
00000080: c2f3 2f3e d2ab 563d 2533 a43d a1be 51be
00000090: 1487 a43e b3c3 5d3e 611f 5d3e 8fe6 44bd
000000a0: c063 c63c cd22 673e c415 53be e9b0 053e
000000b0: b8e0 0fbe 6c73 89bc f057 1c3e 7b38 3a3d
000000c0: 51bd 3dbd 4b21 dfbd 4edd d0bd 2e96 333e
000000d0: 5260 87bd 408b 86bc bc55 4ebe 4361 c93d
000000e0: 2656 e2bd ab3b d7bd d55d 9fbd 560a f3bc
000000f0: 926f 0a3e 2c56 253c 125a 6cbe 65d6 203c
00000100: 6145 7abe c862 a8be 3fce 88be 1df0 87bc
00000110: ae7f 583d 133a 7d3e d44e c93d 0052 f43d
00000120: 9160 0cbe 2581 113c f58a 983e 377e 88bc
00000130: 053c cb3d 0eb5 01bd 9341 183e 97b4 ca3d
00000140: e4df 203e 789c b93d 60e1 ff3c 1a0a b1be
00000150: 9179 aa3d bd67 7e3d 2998 593e 2d22 f63d
00000160: 4fb6 72b9 9650 12be 546d 883e 29ab 973d
00000170: 42b1 673c 6b91 823d 42d5 493e a170 f53d
00000180: 4da4 24be 40a6 c13e c98e 093e 4149 9abe
00000190: 0495 863c b0bf 13bd 3380 843d b79f 123e
000001a0: 5f18 be3e dab0 d1be 684f 98bd 7575 2ebd
000001b0: 5d2e 81be 33f8 81bd 8615 80bd 0c95 923d
000001c0: 70bc 0dbe 3b4a 69be 8036 4d3e 3ea7 d4bd
000001d0: bd45 623c 4a08 193e 7053 303e a099 543e
000001e0: 04c4 b83c 5e8b 1ebe 7d13 9f3e c363 5ebd
000001f0: 74c7 92be 6f38 04be 6a42 893d 961f 473e
00000200: e3b2 f33d c45d 34be aa21 aabb 58a8 083c
00000210: ae38 343d e0cf 913e 11be a6be 550a e83d
00000220: 9ada 8fbd dd0c 0cbe 3882 87be 708b 243e
00000230: b2d9 40be 1b5a fcbd c652 803e 625d 3bbd
00000240: 86c8 a63d 4616 8d3e d996 d83d 339d 283e
00000250: 1956 093e 2350 8bbe 2477 62be bf22 153e
00000260: c22a 1d3d bfe6 a6bd 6f1d a3be a919 dbbc
00000270: 3b58 d3bd 14d1 27be 2e34 98be 8a73 1bbc
00000280: 4a8b 2f3e 480e c73c f669 87bd 04a8 373e
00000290: ca8d 263e 301c 4ebd 9959 97bb 895d 5ebc
000002a0: b025 99be 1b1e 0f3e 528b 8abc 52c2 dc3d
000002b0: 24fc ccbd 31da 623e 87b9 843e 98a5 653d
000002c0: 0ba1 683e 05c0 b9bd 9b41 edbd b4f8 433e
000002d0: fc15 0f3d 73d9 8abe ee3e 173e 4183 20be
000002e0: f663 d5bd 3f31 d33d e0fe 1d3e 1439 8c3e
000002f0: 3f63 0bbe 2466 703e ff68 f7bd 4a1b f13d
00000300: 6393 aabd 78c9 163c 0417 ffbc 2305 7cbe
00000310: daed 4d3e d690 6bbe d1c6 66be 7e53 fc3d
00000320: b071 31be 8ccc c33c 0c42 ce3d 9b7f 90bd
00000330: 4cce 1c3d a14d a23e 205f 083e 1122 203e
00000340: 5607 8abe 43da 17be 252c 8b3e 4cc5 993d
00000350: 2252 803e 79e4 fb3d 7613 4dbd c5f9 68bd
00000360: e8f1 babc d669 44be 1cf7 313e 6585 593c
00000370: 8ea3 75bd c026 7a3c 71d6 893e 7ba0 06be
00000380: dc58 863d 5be8 52be 3649 eebc 3a30 efbb
00000390: b6c1 9f3c 52f6 243e 4012 743e c0ed 3fbd
000003a0: a011 5fbe 60fe 8bbd a197 a73c 683e 8d3d
000003b0: c93f 66be bb66 833e 3dc9 f43d 3a69 1abe
000003c0: 6f04 b83d d6e4 8e3e a232 0a3d 1b6e 813c
000003d0: 8bc4 a5be b6e4 e43d 5b0e 3fbc 8bb4 893c
000003e0: 30ce 433d 5655 01be 48a0 67be 5bf2 0b3e
000003f0: 4d7c 163e b711 363d 54bb 99bd 3253 0a3d

bias f4 [15]
0.13414861 -0.037584733 -0.03339334 0.0011311932 0.025008323 0.008031733 0.15011811 -0.078224696
-0.12587155 -0.07311304 -0.009139576 0.066114664 0.11894064 -0.04681212 -0.007231246
00000000: 415e 093e 73f2 19bd 74c7 08bd 8c44 943a
00000010: 41de cc3c 8897 033c 90b8 193e 4534 a0bd
00000020: 79e4 00be 4abc 95bd 29be 15bc 2067 873d
00000030: 2697 f33d 11be 3fbd 17f4 ecbb

weight f4 [45, 15]
0.08390143 0.18178765 -0.018608822 0.11040727 0.10615141 0.3342396 0.35972115 -0.12534194
-0.16075657 -0.116867945 -0.0086785965 -0.028865673 0.024656203 -0.061778456 -0.0791106 -0.23297186
-0.06488262 0.39788723 -0.0040565073 0.338517 -0.2040411 -0.028266525 0.023811566 0.022895318
-0.0191655 0.07314186 -0.06645043 -0.13664834 -0.2537466 0.21008956 0.34836137 0.022687169
0.054317694 0.02811259 0.277645 0.15358882 -0.069033705 0.06717398 -0.18625532 -0.2662537
-0.039639365 -0.036411304 0.28037328 -0.0023770446 -0.0795088 -0.11314655 -0.081920885 0.080348544
0.10677402 0.25138673 0.100676894 -0.07437433 0.22360681 0.019407138 -0.030619195 0.10256353
0.24583213 -0.113918 0.08406749 -0.18112518 0.13493957 -0.2251622 0.07435463 -0.1772762
-0.058801953 -0.08190501 0.12731937 0.12414502 0.03207244 0.06268094 0.33382493 0.15837553
-0.011342615 0.33212224 0.244632 -0.0887461 -0.15332483 0.03173942 -0.2126474 0.033083253
0.018875409 -0.08794407 0.17460194 0.08563841 0.09187661 -0.0005008522 0.11286789 0.20834301
-0.024592735 0.21715602 0.43634084 -0.1676351 0.1336034 0.25734156 -0.012737818 0.05458509
0.23682006 0.17980273 0.06049635 -0.14186135 0.010894641 0.15703472 0.058554005 -0.010652152
0.22089805 0.31238842 -0.1157797 0.113214806 0.20375958 0.19117862 0.25134027 -0.046028905
-0.36424088 -0.06371955 -0.12039985 -0.16962273 0.35164976 -0.08700199 0.21058671 0.22614025
0.10621613 0.13633962 -0.08632283 0.20875692 0.12123049 -0.072788544 0.106842086 0.18284592
-0.019890571 0.14412837 -0.14273645 -0.07080617 -0.15650214 -0.0802939 0.08619795 -0.048784547
-0.09660801 -0.18115607 0.1849038 0.16395217 0.014232023 0.17372647 0.11262351 -0.29355574
0.16149132 -0.16854273 -0.05546734 -0.17917502 0.050600555 -0.267636 -0.040439162 0.04895983
0.074219055 -0.017498413 -0.05277596 0.05478722 0.008318753 -0.07751294 -0.12868707 -0.12120483
0.076670885 -0.039086156 0.18432839 0.38889962 0.2695662 0.24606775 0.03891413 0.05227978
0.27455065 0.27729556 0.1064713 0.2411121 -0.24143742 0.005927348 0.060210686 0.080537304
0.00021954102 -0.21754257 0.2309989 -0.26668 0.21334498 0.105877206 0.13430816 -0.12265905
0.11978906 0.19016036 0.04107496 -0.05573233 -0.25565898 0.24028648 -0.09741761 -0.010436224
0.24429649 -0.020733044 0.15272486 0.2888496 -0.06762819 0.22304748 -0.031711612 0.028463164
-0.034165144 0.41118997 -0.22639231 -0.13489197 -0.07645916 -0.2904219 0.06319468 0.032150246
0.09977102 0.043063227 0.27810448 0.19426732 -0.40376967 -0.12401767 -0.22002256 0.14559756
-0.073171556 0.15492931 -0.096454136 -0.15866968 0.0042547835 0.18550521 0.030030916 0.038774315
-0.08943193 0.1565771 -0.037420455 0.10263576 -0.15562575 -0.08227865 0.09383554 -0.056692913
-0.1209314 0.0013215991 -0.060589325 -0.036427736 -0.11563545 -0.049311318 0.02173843 0.02777928
0.09125566 0.21941367 -0.13405453 -0.2729858 0.2924983 -0.16017117 0.13463268 0.15846643
0.17904207 -0.16418056 -0.19677447 0.021260943 -0.09905704 -0.004345015 -0.09582976 -0.21142587
00000000: 83d4 ab3d 8b26 3a3e 8771 98bc 351d e23d
00000010: e965 d93d 7421 ab3e 5f2d b83e a359 00be
00000020: 5f9d 24be 7658 efbd ac30 0ebc b477 ecbc
00000030: cefb c93c 680b 7dbd bd04 a2bd 2d90 6ebe
00000040: 2ee1 84bd e0b7 cb3e 73ec 84bb 1a52 ad3e
00000050: 26f0 50be 338f e7bc 7910 c33c f68e bb3c
00000060: f700 9dbc 66cb 953d 2a17 88bd 8bed 0bbe
00000070: 13eb 81be b821 573e 6c5c b23e 71da b93c
00000080: 3b7c 5e3d 604c e63c 7c27 8e3e 6346 1d3e
00000090: 8b61 8dbd 8392 893d b7b9 3ebe 6852 88be
000000a0: e35c 22bd 0524 15bd 168d 8f3e 31c8 1bbb
000000b0: 82d5 a2bd 61b9 e7bd 23c6 a7bd c78d a43d
000000c0: 56ac da3d c3b5 803e b02f ce3d 9251 98bd
000000d0: 2ff9 643e b8fb 9e3c 1bd5 fabc d40c d23d
000000e0: 6bbb 7b3e d74d e9bd 942b ac3d e178 39be
000000f0: 992d 0a3e eb90 66be 3e47 983d e487 35be
00000100: 51da 70bd d0bd a7bd 0260 023e bf3f fe3d
00000110: 645e 033d dd5e 803d 1aeb aa3e 322d 223e
00000120: 60d6 39bc ed0b aa3e d080 7a3e 84c0 b5bd
00000130: 2f01 1dbe 3201 023d 3dc0 59be 4e82 073d
00000140: 9aa0 9a3c 051c b4bd daca 323e 3163 af3d
00000150: ce29 bc3d 9f4b 03ba 4827 e73d df57 553e
00000160: b476 c9bc 265e 5e3e 1168 df3e 89a8 2bbe
00000170: 54cf 083e 46c2 833e 48b2 50bc 9e94 5f3d
00000180: f580 723e 351e 383e 05cb 773d 1a44 11be
00000190: 707f 323c b6cd 203e 53d6 6f3d 5d86 2ebc
000001a0: 1933 623e 60f1 9f3e e81d edbd 2add e73d
000001b0: 5aa6 503e 54c4 433e acaf 803e ce88 3cbd
000001c0: c87d babe 657f 82bd 3294 f6bd 95b1 2dbe
000001d0: 700b b43e 192e b2bd 0ba4 573e 4f91 673e
000001e0: d887 d93d 9d9c 0b3e 06ca b0bd 60c4 553e
000001f0: b147 f83d 2912 95bd 06d0 da3d f63b 3b3e
00000200: 8df1 a2bc 6396 133e 8129 12be d302 91bd
00000210: 1942 20be 2171 a4bd 8d88 b03d 4ed2 47bd
00000220: 6cda c5bd fa80 39be 6c57 3d3e 14e3 273e
00000230: 6e2d 693c 5ae5 313e 28a7 e63d f04c 96be
00000240: fb5d 253e 7796 2cbe b931 63bd a879 37be
00000250: 8742 4f3d 9607 89be 89a3 25bd 1a8a 483d
00000260: 2900 983d d558 8fbc 9b2b 58bd 9068 603d
00000270: 614b 083c 1bbf 9ebd 8bc6 03be 3d3a f8bd
00000280: a005 9d3d ce18 20bd 95c0 3c3e da1d c73e
00000290: 9504 8a3e 2ff9 7b3e 6c64 1f3d 5323 563d
000002a0: e791 8c3e aff9 8d3e a00d da3d 17e6 763e
000002b0: 5f3b 77be 333a c23b 7b9f 763d bef0 a43d
000002c0: 9834 6639 7bc3 5ebe fa8a 6c3e 488a 88be
000002d0: 1b77 5a3e 26d6 d83d 1488 093e ab34 fbbd
000002e0: f753 f53d 66b9 423e 383e 283d 9547 64bd
000002f0: bce5 82be a90d 763e e282 c7bd b2fc 2abc
00000300: dc28 7a3e 58d8 a9bc e863 1c3e 18e4 933e
00000310: a680 8abd 8f66 643e 09e4 01bd 952b e93c
00000320: c0f0 0bbd 7e87 d23e 63d3 67be 1f21 0abe
00000330: 9f96 9cbd 2eb2 94be 366c 813d faaf 033d
00000340: c054 cc3d 1163 303d b663 8e3e 03ee 463e
00000350: e6ba cebe fafc fdbd 984d 61be 8717 153e
00000360: f8da 95bd caa5 1e3e bf89 c5bd 4e7a 22be
00000370: b66b 8b3b 14f5 3d3e 6503 f63c d1d1 1e3d
00000380: 1628 b7bd bf55 203e 3146 19bd b332 d23d
00000390: 5b5c 1fbe b581 a8bd d92c c03d d436 68bd
000003a0: e2aa f7bd 8239 ad3a 832c 78bd 4035 15bd
000003b0: 47d2 ecbd aafa 49bd cb14 b23c 5f91 e33c
000003c0: 3fe4 ba3d faad 603e 9745 09be cbc4 8bbe
000003d0: 56c2 953e e903 24be 26dd 093e 0645 223e
000003e0: ce56 373e f31e 28be 3f7f 49be 6e2b ae3c
000003f0: 6bde cabd a160 8ebb 6542 c4bd 0680 58be

bias f4 [45]
0.24752152 0.28277546 0.008332697 0.10770263 0.40501967 0.07248837 0.32534412 0.16471851
-0.17713828 0.5451989 0.08948639 0.39126945 0.33281156 0.24470337 0.29397574 -0.06442584
0.34950027 0.017312393 0.34018695 0.07384395 -0.023665814 -0.01469436 -0.018276561 0.16187581
0.4211512 0.42616162 -0.10079114 0.18471657 0.34785795 -0.20992438 -0.08591332 0.030083349
0.06535939 -0.19921848 0.25115663 0.10513986 0.15208997 -0.26956114 0.008524908 0.08739973
0.058908287 -0.105019905 0.27416697 0.0155744525 -0.26625732
00000000: 4876 7d3e f2c7 903e dd85 083c 3293 dc3d
00000010: bd5e cf3e c874 943d 8193 a63e f8ab 283e
00000020: bd63 35be 2892 0b3f a444 b73d 7854 c83e
00000030: 4766 aa3e 8593 7a3e fd83 963e b2f1 83bd
00000040: b3f1 b23e b8d2 8d3c fc2c ae3e 7f3b 973d
00000050: cfde c1bc 9dc0 70bc bab8 95bc c6c2 253e
00000060: 21a1 d73e db31 da3e 966b cebd 5726 3d3e
00000070: 701a b23e 6bf6 56be 53f3 afbd 5b71 f63c
00000080: 25db 853d eeff 4bbe 9a97 803e 9153 d73d
00000090: 79bd 1b3e eb03 8abe 0eac 0b3c a1fe b23d
000000a0: d149 713d ad14 d7bd 9d5f 8c3e fd2b 7f3c
000000b0: e152 88be

weight f4 [135, 45]
0.031997126 0.1303284 -0.03907435 -0.067722104 -0.13483426 -0.08198827 0.019181559 -0.065362714
-0.13144262 -0.007840622 -0.13190088 -0.12972905 0.037426587 -0.05046687 0.08421589 -0.112499274
-0.1254274 0.105026856 0.08118272 -0.036556132 -0.03231545 0.035348546 0.06719181 -0.03576921
0.050751586 0.0022670017 0.04581677 -0.07619517 0.083663315 -0.0469619 -0.11183715 0.047852945
-0.1083748 -0.14064088 0.10084613 -0.011959317 -0.06460226 0.074729934 -0.09923513 -0.122583754
0.0107495235 0.09716356 -0.14588961 -0.018800855 -0.0075140563 -0.019514956 -0.033736095 -0.11717517
0.017042726 0.06476421 -0.07319486 -0.08898454 0.052679773 -0.12017404 -0.086926594 -0.052430023
-0.020352773 -0.14886886 0.026487233 -0.16664913 0.055101294 -0.009661097 0.13236551 0.07349414
-0.105787806 0.09929984 0.028770305 -0.062738635 -0.13596684 0.115195155 0.005916478 0.118312165
0.042625744 -0.14541875 0.12921861 -0.07674711 -0.16352877 -0.07855836 -0.09123381 -0.0778975
-0.08329785 0.012155049 0.016781442 -0.125531 -0.1547269 0.12905864 -0.053696353 -0.13857819
-0.024272677 0.08931654 -0.14749727 -0.053790405 0.15304993 0.04575035 -0.05940061 -0.07060997
-0.08025074 0.2556552 -0.039118566 0.0025094708 0.14587426 -0.088688344 0.2078052 0.037999988
0.061035167 -0.08636066 -0.10763398 0.030722817 0.049380906 -0.04031734 -0.07314977 -0.091651715
-0.029017102 -0.059901495 0.29624686 0.050823633 -0.14794499 -0.046010457 0.010617986 0.07719016
-0.08234951 -0.0046686735 0.054371443 -0.09680577 -0.04132286 0.099950016 -0.05446269 -0.1261698
0.14359586 -0.101422675 0.031716637 -0.06766375 0.14008406 0.13904816 -0.034128275 0.030330492
-0.06728696 0.07803968 -0.046449784 -0.0014570513 -0.11333078 0.18303597 0.18446673 -0.10212612
0.08996528 -0.10540149 -0.19519433 0.05804816 -0.051409923 0.08464821 0.03450644 -0.07715277
0.14727859 -0.09990633 -0.17862855 -0.09251588 0.09191295 -0.061478388 0.022071077 -0.0045710104
-0.0905765 0.0862089 0.08976414 0.032207415 -0.00074904185 -0.013870896 0.07255208 0.055962577
0.094528764 0.11849567 0.085497305 0.08546129 -0.09774953 0.0048074787 0.08590577 0.12739457
-0.009167941 0.07846848 0.18071432 -0.14032358 -0.0262313 -0.095577806 0.05244973 -0.013317355
0.02913536 -0.11838685 0.14007731 -0.005628947 0.070139304 -0.10271682 -0.04934777 0.22560304
-0.11976056 0.07309672 -0.0100516565 0.14399484 0.024447711 0.005374675 0.013410444 -0.049026567
0.047403242 -0.093798704 0.030245703 -0.034183647 0.2368638 0.18284187 -0.059020545 -0.08333397
-0.088610604 0.048157103 0.039284855 0.10888323 0.070567496 0.07572833 -0.083839744 -0.06536355
-0.032041218 -0.093478456 0.095780075 0.020594835 0.104718134 -0.105843134 -0.008331708 0.12111125
-0.07475688 0.030509012 0.11404125 0.10731671 0.03920506 -0.08572559 -0.05061049 -0.12722366
0.11168137 -0.060488682 0.030677075 0.03896587 0.07315791 -0.14762321 0.18409055 0.01958066
-0.0054804394 0.10304703 0.0014120266 -0.0020967617 0.08630516 0.18317772 0.17088479 -0.077631384
0.23320346 -0.15183294 0.07246254 -0.09566058 -0.023269722 -0.14746068 0.123973325 0.016135491
00000000: 6b0f 033d cf74 053e 6d0c 20bd e3b1 8abd
00000010: fe11 0abe 77e9 a7bd a522 9d3c e3dc 85bd
00000020: e598 06be f475 00bc 0611 07be b1d7 04be
00000030: 9f4c 193d 59b6 4ebd 6179 ac3d 0566 e6bd
00000040: 0a70 00be 5218 d73d 2043 a63d e2bb 15bd
00000050: 355d 04bd a3c9 103d dc9b 893d bc82 12bd
00000060: e5e0 4f3d fa91 143b 5eaa 3b3d 370c 9cbd
00000070: ac57 ab3d 1f5b 40bd e00a e5bd 7301 443d
00000080: 9bf3 ddbd 2a04 10be 6a88 ce3d 03f1 43bc
00000090: 314e 84bd 020c 993d ca3b cbbd 310d fbbd
000000a0: c51e 303c b0fd c63d 1664 15be 4004 9abc
000000b0: 7938 f6bb d4dd 9fbc dc2e 0abd 89f9 efbd
000000c0: 309d 8b3c 19a3 843d 30e7 95bd 873d b6bd
000000d0: bfc6 573d cf1d f6bd 9206 b2bd ddc0 56bd
000000e0: dcba a6bc 1471 18be c1fb d83c 12a6 2abe
000000f0: e5b1 613d 9449 1ebc d38a 073e 1884 963d
00000100: 47a7 d8bd b75d cb3d b4af eb3c 1d7d 80bd
00000110: e43a 0bbe 70eb eb3d 04df c13b a64d f23d
00000120: 5598 2e3d a7e8 14be e251 043e 972d 9dbd
00000130: 1674 27be 35e3 a0bd cbd8 babd b988 9fbd
00000140: 1098 aabd f825 473c 3c79 893c 338b 00be
00000150: ba70 1ebe f327 043e b5f0 5bbd 71e7 0dbe
00000160: 7ed7 c6bc 97eb b63d 8609 17be 5453 5cbd
00000170: 1fb9 1c3e b864 3b3d 0e4e 73bd f69b 90bd
00000180: 805a a4bd 3de5 823e ca3a 20bd ef75 243b
00000190: 1060 153e 3ca2 b5bd e3ca 543e e0a5 1b3d
000001a0: 0300 7a3d dcdd b0bd 346f dcbd 6bae fb3c
000001b0: a243 4a3d cc23 25bd 8ccf 95bd e5b3 bbbd
000001c0: 46b5 edbc 455b 75bd abad 973e 712c 503d
000001d0: e47e 17be 7675 3cbd 10f7 2d3c e015 9e3d
000001e0: dca6 a8bd acfb 98bb 97b4 5e3d 1b42 c6bd
000001f0: 2942 29bd 98b2 cc3d 4514 5fbd a832 01be
00000200: cb0a 133e b1b6 cfbd 4ee9 013d 4b93 8abd
00000210: 3272 0f3e a462 0e3e 17ca 0bbd a777 f83c
00000220: bfcd 89bd 45d3 9f3d 2142 3ebd 87fa beba
00000230: f819 e8bd c86d 3b3e d9e4 3c3e 8027 d1bd
00000240: b73f b83d bddc d7bd 06e1 47be e8c3 6d3d
00000250: 3693 52bd 0a5c ad3d a056 0d3d 4502 9ebd
00000260: 33d0 163e b19b ccbd 67ea 36be f778 bdbd
00000270: db3c bc3d c3d0 7bbd 67ce b43c 6ac8 95bb
00000280: 2c80 b9bd 4b8e b03d 43d6 b73d eceb 033d
00000290: 595b 44ba c142 63bc 2f96 943d 0439 653d
000002a0: 4c98 c13d dcad f23d 3619 af3d 5406 af3d
000002b0: e830 c8bd 0e88 9d3b 5def af3d b973 023e
000002c0: 2235 16bc 15b4 a03d 2d0d 393e fcb0 0fbe
000002d0: 06e3 d6bc 4cbe c3bd 87d5 563d 0931 5abc
000002e0: 47ad ee3c ce74 f2bd 6d70 0f3e 0873 b8bb
000002f0: 32a5 8f3d 325d d2bd e320 4abd 7c04 673e
00000300: 0645 f5bd bcb3 953d b4af 24bc 6273 133e
00000310: 9146 c83c 0b1e b03b 7bb7 5b3c 15d0 48bd
00000320: e729 423d 8919 c0bd d6c5 f73c 2704 0cbd
00000330: 6d8c 723e e63a 3b3e 87bf 71bd 00ab aabd
00000340: 7a79 b5bd 6240 453d 28e9 203d 2cfe de3d
00000350: b185 903d 7417 9b3d 2cb4 abbd 53dd 85bd
00000360: a73d 03bd a271 bfbd 5828 c43d 80b6 a83c
00000370: 7676 d63d 49c4 d8bd b781 08bc 2d09 f83d
00000380: 231a 99bd 09ee f93c 758e e93d ddc8 db3d
00000390: 7c95 203d e690 afbd f24c 4fbd eb46 02be
000003a0: 34b9 e43d fbc2 77bd 7d4e fb3c ad9a 1f3d
000003b0: d0d3 953d 8a2a 17be 3c82 3c3e 9f67 a03c
000003c0: 4295 b3bb 520a d33d c013 b93a d369 09bb
000003d0: c2c0 b03d f192 3b3e 6cfc 2e3e 34fd 9ebd
000003e0: e3cc 6e3e 187a 1bbe 3d67 943d b2e9 c3bd
000003f0: 25a0 bebc efff 16be bae5 fd3d 942e 843c

bias f4 [135]
0.020772003 -0.0049897726 0.09187412 0.0137289 0.03177722 0.017576832 0.16007501 -0.13466112
-0.007745993 -0.0037348375 0.22616014 0.07904049 -0.10154711 0.11971781 0.17121607 0.12485362
-0.038458828 0.37408644 -0.055521443 -0.096268706 0.08580452 0.14167377 0.12226949 0.036355983
-0.010062153 0.21090026 0.09714536 0.19421576 0.2572036 0.20063992 0.21645321 0.0030117144
0.276047 0.043736923 0.07324207 0.015380115 0.13234839 0.15234491 -0.0652434 0.14700666
-0.05485279 0.17407928 -0.09933977 0.16088331 -0.08751975 -0.12192363 0.02900433 0.086295545
0.07130905 0.021773105 0.016319538 0.07453474 0.10609935 -0.058839623 -0.05813112 0.053562053
-0.12683974 0.060480792 -0.11354307 0.06706989 -0.056856584 -0.15542881 0.0013214679 -0.07487026
0.012320638 -0.089004256 0.04404394 -0.06012352 0.093678154 0.0021189891 -0.017979134 -0.13984373
0.2153776 0.019568535 0.06016104 0.058501292 0.14892338 0.32220507 -0.08001427 0.07792413
-0.09703559 0.005356018 -0.04374785 0.29161245 -0.0741787 -0.0026358694 -0.08495857 -0.026510073
-0.14948377 0.12749398 0.0054906686 0.2077158 0.038588714 -0.090934664 0.050278284 0.19272873
-0.059297666 0.23688623 0.012686009 -0.05652404 0.21106884 0.16792443 -0.07747565 0.07900273
0.17558287 0.21984622 0.15176158 -0.05890633 0.20163263 -0.11074439 0.09854165 0.103438966
-0.027269395 -0.12063443 -0.09809129 -0.08096247 -0.061081775 0.042319607 0.15033637 0.021130648
0.0044112504 0.117460385 -0.15003724 0.030976193 0.032510594 -0.14418006 0.16120785 -0.1431235
0.07587828 0.1393892 -0.051718827 -0.009772301 0.048395224 -0.062026776 0.036795996
00000000: 0c2a aa3c 3f81 a3bb 8028 bc3d 2eef 603c
00000010: d528 023d 4afd 8f3c b4ea 233e 9be4 09be
00000020: 19d2 fdbb 2dc4 74bb 8696 673e fbdf a13d
00000030: eef7 cfbd 9c2e f53d 4453 2f3e 41b3 ff3d
00000040: 0187 1dbd 4288 bf3e 746a 63bd 8728 c5bd
00000050: 48ba af3d ee12 113e 6d68 fa3d 03ea 143d
00000060: bbdb 24bc 3df6 573e 26f4 c63d 7fe0 463e
00000070: 31b0 833e 8d74 4d3e e9a5 5d3e 2f60 453b
00000080: 0856 8d3e 7d25 333d f0ff 953d e1fc 7b3c
00000090: 5686 073e 4e00 1c3e 559e 85bd ea88 163e
000000a0: 52ad 60bd d741 323e a672 cbbd 98be 243e
000000b0: 8e3d b3bd 19b3 f9bd 7d9a ed3c b8bb b03d
000000c0: 7b0a 923d 835d b23c 8db0 853c aba5 983d
000000d0: 9e4a d93d d101 71bd e61a 6ebd e263 5b3d
000000e0: 47e2 01be b5ba 773d 4589 e8bd f05b 893d
000000f0: 73e2 68bd bb28 1fbe 1b35 ad3a 9455 99bd
00000100: 80dc 493c dd47 b6bd 6b67 343d 1544 76bd
00000110: 55da bf3d bdde 0a3b fa48 93bc 3233 0fbe
00000120: f28b 5c3e 314e a03c 6c6b 763d 0d9f 6f3d
00000130: 5f7f 183e 10f8 a43e 86de a3bd b096 9f3d
00000140: 98ba c6bd 8981 af3b f230 33bd 3a4e 953e
00000150: 01eb 97bd 8dbe 2cbb c2fe adbd a72b d9bc
00000160: 4612 19be c88d 023e 11eb b33b 73b3 543e
00000170: 330f 1e3d f43b babd 9af0 4d3d ae5a 453e
00000180: 1ce2 72bd 4e92 723e fad8 4f3c c085 67bd
00000190: 6e22 583e 62f4 2b3e 8eab 9ebd 2fcc a13d
000001a0: ffcb 333e 5e1f 613e 6367 1b3e c447 71bd
000001b0: c978 4e3e f4cd e2bd 34d0 c93d cfd7 d33d
000001c0: 1164 dfbc 2f0f f7bd 16e4 c8bd a7cf a5bd
000001d0: e230 7abd 5357 2d3d c7f1 193e 2e1a ad3c
000001e0: 408c 903b 128f f03d 5da3 19be c9c1 fd3c
000001f0: d429 053d f0a3 13be ac13 253e f78e 12be
00000200: 1266 9b3d 0bbc 0e3e 1fd7 53bd 001c 20bc
00000210: 123a 463d ca0f 7ebd 66b7 163d

weight f4 [180, 135]
-0.032566417 0.047223873 -0.051829573 -0.083449885 0.09773106 -0.044912066 -0.014634742 0.082810186
-0.0062817084 0.08286532 -0.061290313 -0.18218881 0.09272161 -0.117252186 -0.021711133 0.11525577
0.023610257 -0.15854451 -0.043140776 -0.015626078 0.114981815 0.029728461 -0.04029147 -0.14163332
-0.026615959 0.0025087527 -0.11717686 0.007371446 0.025986137 0.020852871 -0.07777611 0.039189152
-0.1516904 0.092696 0.012409892 -0.046440214 0.08879645 -0.009258385 -0.007160322 0.035576165
-0.090625554 -0.01794765 -0.050258152 0.11770574 -0.020461973 -0.013020977 -0.079122625 0.09926486
-0.025569376 0.0972683 0.09586707 0.13516402 -0.006310529 -0.06546753 0.05795724 0.1159871
-0.010641931 0.097840615 -0.019894905 0.0075271083 -0.09789537 0.009732679 -0.04463552 -0.011162463
-0.017719395 -0.031089025 0.004305112 -0.012834595 -0.01726789 0.021866908 0.031568144 0.026978355
0.11304853 -0.038706798 0.053838428 -0.004923479 -0.099446714 0.024715517 0.032111824 0.14584273
0.04943512 -0.021354107 -0.052109037 -0.12115227 -0.018364001 0.056175254 -0.11962093 0.09961119
0.044895884 0.11821758 -0.038741916 -0.02129498 -0.18281655 -0.076047204 -0.0899424 0.13469563
-0.071144626 0.11259193 -0.08811039 0.015440229 0.020568723 0.04368353 -0.0485114 -0.0110178515
0.09999868 0.03186317 -0.082180105 0.07218555 0.07851692 0.041566305 -0.017557083 -0.06929438
0.015732687 -0.099068396 -0.077216364 -0.074676715 0.06893618 -0.018908964 -0.11825754 0.048512913
0.0021214932 -0.035300337 -0.051774293 -0.08240989 -0.03555261 0.043798454 -0.02765543 -0.0769307
-0.1159328 0.10691811 0.07919162 0.011980628 0.05708667 -0.117363185 0.10193238 0.035593215
-0.07326766 -0.08351286 -0.10572637 0.09732598 0.061443124 0.05740905 0.025843183 -0.052618485
0.16253337 -0.06523668 -0.14114858 0.07954432 -0.07261947 -0.048316 0.15077704 0.07288656
-0.14281823 -0.03426198 0.073414855 0.12483551 -0.0468596 0.04858415 -0.02659523 0.047339782
-0.027747687 -0.09878214 -0.019032028 -0.015544171 -0.06871803 -0.050529093 -0.022344047 -0.074625604
0.0053880317 -0.006683954 -0.12736294 0.12862363 -0.010959816 0.027935714 -0.025013935 -0.063280486
-0.06737215 0.046813436 0.044464678 0.0042473567 -0.046589345 -0.07886717 0.09892845 -0.055619642
0.14133376 0.0030303728 0.08464936 -0.07861717 -0.0058510536 0.11520863 0.0774012 -0.08938248
0.09971757 0.038023423 0.06548127 -0.064444445 -0.04927975 -0.026264137 0.08091759 0.026385006
0.0062682326 -0.043130577 0.07646372 -0.08614345 0.043891873 -0.012840477 -0.014406407 0.07246599
-0.10643132 -0.05154395 -0.0023937577 -0.076079324 0.083490275 -0.04048326 0.11376573 -0.021120112
0.029091962 -0.0368079 -0.1557807 -0.0047938335 0.0019516962 -0.08236026 0.009753051 -0.05768736
0.10502223 -0.08854054 0.0117935 -0.11799292 -0.005858372 -0.047801264 0.13006692 -0.013216041
0.03534667 -0.01954665 -0.003145895 0.025320048 0.12230103 -0.078423426 0.018847985 0.0619037
-0.010929375 -0.062342837 0.081012435 0.09763147 0.035836156 -0.048052244 -0.092782706 0.0860869
-0.1156923 -0.025860837 0.02089038 0.11960097 -0.0099895345 -0.11742773 0.042357743 -0.066439345
00000000: 5d64 05bd d26d 413d 3f4b 54bd c6e7 aabd
00000010: 3927 c83d b7f5 37bd 8fc6 6fbc 6398 a93d
00000020: cad6 cdbb 4bb5 a93d 8d0b 7bbd b48f 3abe
00000030: d4e4 bd3d ea21 f0bd 8cdb b1bc 380b ec3d
00000040: 4c6a c13c 7e59 22be 62b4 30bd 4302 80bc
00000050: 967b eb3d 1a89 f33c ab08 25bd 5308 11be
00000060: b609 dabc e369 243b 6cfa efbd 2c8c f13b
00000070: e1e0 d43c a4d3 aa3c 1549 9fbd ce84 203d
00000080: ba54 1bbe 67d7 bd3d dc52 4b3c 1838 3ebd
00000090: eada b53d 7bb0 17bc 22a1 eabb 50b8 113d
000000a0: e499 b9bd f306 93bc 7edb 4dbd b50f f13d
000000b0: de9f a7bc f055 55bc 0b0b a2bd 604b cb3d
000000c0: de76 d1bc 9a34 c73d f455 c43d 7068 0a3e
000000d0: 8ec8 cebb d713 86bd 9264 6d3d a58a ed3d
000000e0: 7e5b 2ebc a960 c83d a4fa a2bc f6a5 f63b
000000f0: 5e7d c8bd d175 1f3c bcd3 36bd c3e2 36bc
00000100: 4428 91bc 69ae febc e611 8d3b 3148 52bc
00000110: 6475 8dbc 3b22 b33c 994d 013d b601 dd3c
00000120: fd85 e73d 058b 1ebd af85 5c3d 2355 a1bb
00000130: b8aa cbbd 3278 ca3c b087 033d cc57 153e
00000140: 7b7c 4a3d cfee aebc 4970 55bd ae1e f8bd
00000150: 1a70 96bc 0618 663d d1fb f4bd f400 cc3d
00000160: bfe4 373d 0f1c f23d d8af 1ebd cf72 aebc
00000170: 4334 3bbe a3be 9bbd b933 b8bd a7ed 093e
00000180: 46b4 91bd 9996 e63d 3873 b4bd 04f9 7c3c
00000190: bd7f a83c 80ed 323d e4b3 46bd 3884 34bc
000001a0: 1ccc cc3d f582 023d 0b4e a8bd 05d6 933d
000001b0: 7bcd a03d 6e41 2a3d dfd3 8fbc 36ea 8dbd
000001c0: d6e1 803c 5fe4 cabd 9d23 9ebd 1bf0 98bd
000001d0: 692e 8d3d f9e6 9abc 0231 f2bd 7ab5 463d
000001e0: c008 0b3b 1697 10bd 4811 54bd 84c6 a8bd
000001f0: 9d9f 11bd 0266 333d a48d e2bc d88d 9dbd
00000200: 2d6e edbd e2f7 da3d 372f a23d 654a 443c
00000210: b6d3 693d 1c5c f0bd ecc1 d03d 31ca 113d
00000220: 5b0d 96bd ca08 abbd 1187 d8bd d852 c73d
00000230: c9ab 7b3d c125 6b3d 15b5 d33c 7b86 57bd
00000240: 266f 263e cf9a 85bd 4189 10be 22e8 a23d
00000250: 84b9 94bd ffe6 45bd 4c65 1a3e 8c45 953d
00000260: f13e 12be 4a56 0cbd 875a 963d c3a9 ff3d
00000270: daef 3fbd 2c00 473d 3dde d9bc 5ce7 413d
00000280: 1e4f e3bc 4a4e cabd 0ee9 9bbc fbac 7ebc
00000290: 0abc 8cbd 98f7 4ebd dd0a b7bc 4fd5 98bd
000002a0: 168e b03b 1205 dbbb 6e6b 02be eab5 033e
000002b0: cd90 33bc 70d9 e43c 06ea ccbc 3399 81bd
000002c0: 69fa 89bd 72bf 3f3d 9820 363d 692d 8b3b
000002d0: 78d4 3ebd 1c85 a1bd 009b ca3d 6cd1 63bd
000002e0: ccb9 103e 3899 463b a55c ad3d 0a02 a1bd
000002f0: 32ba bfbb 81f2 eb3d 8584 9e3d 290e b7bd
00000300: ba38 cc3d 73be 1b3d 0b1b 863d 73fb 83bd
00000310: 90d9 49bd e327 d7bc 1fb8 a53d 5e25 d83c
00000320: bf65 cd3b b0a9 30bd 0399 9c3d fa6b b0bd
00000330: f7c7 333d dd60 52bc da08 6cbc 0d69 943d
00000340: aaf8 d9bd c01f 53bd 97e0 1cbb 7acf 9bbd
00000350: f3fc aa3d c6d1 25bd 02fe e83d 1604 adbc
00000360: 4452 ee3c e1c3 16bd fa84 1fbe 9715 9dbb
00000370: 0fd0 ff3a 7fac a8bd 43cb 1f3c 9549 6cbd
00000380: e515 d73d be54 b5bd 8639 413c 46a6 f1bd
00000390: 96f7 bfbb 42cb 43bd 4330 053e 1888 58bc
000003a0: abc7 103d 4c20 a0bc 5c2b 4ebb fd6b cf3c
000003b0: f678 fa3d 769c a0bd 1767 9a3c bc8e 7d3d
000003c0: 1f11 33bc 345b 7fbd d9e9 a53d 02f3 c73d
000003d0: efc8 123d 6ed2 44bd dc04 bebd 544e b03d
000003e0: 16f0 ecbd 1bda d3bc 4d22 ab3c 5af1 f43d
000003f0: 25ab 23bc f37d f0bd 507f 2d3d 5a11 88bd
