knn/models/pretrained-autoencoder/autoencoder-in_features90-latent_size10.pt (torch, 109948 bytes, 12 tensors)

weight f4 [90, 90]
0	0x3e12c53a	0.14333048
1	0x3dd7306c	0.105072826
2	0x3d993e06	0.07482533
3	0x3c9e6b4a	0.019338269
4	0x3d28df47	0.04122856
5	0x3d305f5d	0.043059696
6	0xbc712a53	-0.014719564
7	0x3b97aafa	0.0046285363
8	0xbd1d3a14	-0.038385466
9	0xbd2c294e	-0.04203158
10	0xbd49185c	-0.049095497
11	0x3d2d7eb1	0.04235715
12	0xbde162c5	-0.11005167
13	0xbc82507e	-0.015907522
14	0xbc90d05b	-0.017677477
15	0xbd8b15b5	-0.0679125
16	0xbd10b1e6	-0.035325907
17	0x3d240e66	0.040052794
18	0xbc22e811	-0.009943024
19	0x3d6a3ffb	0.057189923
20	0x3d7d8d0f	0.061902102
21	0xbd4a225e	-0.04934918
22	0x3c2aefa7	0.010433114
23	0xbcf1ee2d	-0.029532516
24	0x3bf4954f	0.007464088
25	0x3db75d4b	0.08953341
26	0xbcfbb200	-0.030724525
27	0x3a58cb48	0.00082700374
28	0xbd69605d	-0.056976665
29	0xbd56fafe	-0.05248546
30	0xbd23cd2e	-0.039990596
31	0xbdc42a4f	-0.09578382
32	0xbd329fc5	-0.0436094
33	0xbddad446	-0.10685019
34	0xbdbc010c	-0.09179887
35	0x3cb06dc2	0.021536712
36	0xbcc30219	-0.023804711
37	0xbc91dd9a	-0.017805863
38	0xbcf62554	-0.030047096
39	0xbc978a77	-0.018498642
40	0x3cc43c22	0.023954455
41	0x3d53cfcf	0.051711854
42	0x3da70e6a	0.08157046
43	0xbd0fee3e	-0.035139315
44	0xbbb63ddc	-0.0055615734
45	0xbcf47bd7	-0.029844208
46	0x3dbc1161	0.09183002
47	0x3dcecc2b	0.10097536
48	0x3ce58ea9	0.028022127
49	0x3d580dc9	0.05274752
50	0xbd07bade	-0.033137195
51	0x3b4ead72	0.0031536487
52	0xbd5a15c8	-0.05324343
53	0xbcfc98be	-0.030834552
54	0xbd852472	-0.06501092
55	0xbd210352	-0.039309807
56	0xbc60f760	-0.013730854
57	0xbdd1e3dc	-0.10248539
58	0xbd0a17af	-0.033713993
59	0x3d5219e5	0.051294226
60	0xbd0059cd	-0.03133564
61	0xbdea3ccf	-0.114373796
62	0x3d897aff	0.06712913
63	0xbca050ba	-0.019569743
64	0x3c0ae3ad	0.008477134
65	0xbdbc7b24	-0.09203175
66	0x3cab3adb	0.020902088
67	0x3d055929	0.032555733
68	0xbdaa239c	-0.08307573
69	0xbda6d767	-0.081465535
70	0xbda0c55f	-0.078501455
71	0x3d33d400	0.04390335
72	0xbd70556f	-0.058675226
73	0xbd73e48e	-0.05954414
74	0xbd9874ca	-0.07444151
75	0xbd951444	-0.07279256
76	0xbc103569	-0.0088017965
77	0xbd84685b	-0.06465217
78	0x3d48f3b5	0.049060542
79	0x3d6427b6	0.055701934
80	0xb9ac3b87	-0.00032850748
81	0x3d30c0ef	0.043152746
82	0x3bddc051	0.0067673107
83	0x3d58d1c5	0.052934427
84	0x3d8ac1e3	0.06775262
85	0x3dbfdc2e	0.09368168
86	0x3dc1ef55	0.09469477
87	0x3d8601f9	0.06543345
88	0x3db1b551	0.086771615
89	0x3d8380ab	0.06421026
90	0x3c84db89	0.016217964
91	0xbdb2819b	-0.087161265
92	0x3d3c24cb	0.045933526
93	0xbd35af2a	-0.044356503
94	0x3b73d7b2	0.0037207422
95	0x3ccc6ff0	0.02495572
96	0x3c10877c	0.0088213645
97	0x3c45a215	0.012062569
98	0xbd58fb0f	-0.052973803
99	0xbc31c24e	-0.0108495485
100	0xbc395f69	-0.011314251
101	0xbd80aabf	-0.06282567
102	0xbd821d44	-0.06353238
103	0xbd8313ec	-0.06400284
104	0xbdc59ea8	-0.09649402
105	0xbd70f535	-0.058827598
106	0xbd8a37f2	-0.06748952
107	0xbc2fd032	-0.01073079
108	0xbddcfbe4	-0.10790232
109	0x3d8dd322	0.06925036
110	0xbd939f16	-0.072080776
111	0xbd139553	-0.03603108
112	0xbcd49373	-0.025949216
113	0xbd848f95	-0.064726986
114	0x3b86f7e0	0.0041189045
115	0xbd7d3807	-0.06182101
116	0x3d29f694	0.04149492
117	0x3d0e4002	0.03472901
118	0xbd616d1f	-0.055035707
119	0x3caa847c	0.020815127
120	0x3d45939a	0.048236467
121	0x3cdd8420	0.027040541
122	0xbc735cfa	-0.01485371
123	0x3cd79af1	0.026318999
124	0x3e171bec	0.14756745
125	0xbd170231	-0.036867324
126	0x3e141e38	0.14464653
127	0x3dbb47f6	0.09144585
128	0x3dc23bc4	0.09484056
129	0x3bcaba5b	0.006186766
130	0x3d2ded30	0.042462528
131	0x3d7ebc65	0.062191386
132	0xbceeba58	-0.02914159
133	0x3a89aaf1	0.0010503215
134	0xbd54752a	-0.05186955
135	0xbdcc6a83	-0.09981253
136	0x3d37c85d	0.044868816
137	0xbdd2f881	-0.103013046
138	0xbda8b809	-0.08238227
139	0xbc3783f9	-0.011200898
140	0xbd1bb420	-0.038013577
141	0x3c1eec6c	0.009699922
142	0xbdd566dc	-0.104200095
143	0xbaeaf5f9	-0.0017926089
144	0xba512833	-0.00079787074
145	0x3da2fe87	0.079587035
146	0xbd9f7ff5	-0.07788078
147	0xbd4dcdf5	-0.050245244
148	0xbd327aaa	-0.043574013
149	0x3d7902ae	0.06079357
150	0x3d349243	0.0440848
151	0xbd02a1a6	-0.03189244
152	0xbd355e45	-0.044279356
153	0x3d6c6f6b	0.057723444
154	0x3b146738	0.002264453
155	0x3ac5ad21	0.0015081504
156	0x3d066f19	0.032820795
157	0xbd95699f	-0.07295536
158	0xbbc4d924	-0.0060073305
159	0x3d66d239	0.056352828
160	0x3b8cae94	0.0042932723
161	0x3d160c75	0.036632974
162	0xbda0d2c7	-0.078527026
163	0x3d764a53	0.060129475
164	0x3ca031c1	0.019554975
165	0x3d8a5669	0.06754763
166	0xbc8443e7	-0.01614566
167	0x3d08c6a6	0.03339257
168	0x3d88da53	0.06682267
169	0xbc8bd02c	-0.017067038
170	0xbbe037fd	-0.006842612
171	0xbc64cf21	-0.013965399
172	0xbc7f4ef6	-0.015582791
173	0x3d784d05	0.060620327
174	0x3cdb60b3	0.026779508
175	0x3d97a6d1	0.074048646
176	0xbda1783b	-0.0788426
177	0xbc8c063a	-0.017092813
178	0x3d00d37e	0.031451695
179	0xbd428427	-0.04748931
180	0x3da44443	0.080208324
181	0x3db1518e	0.086581334
182	0x3d574483	0.052555572
183	0x3d980036	0.07421915
184	0x3d853131	0.06503523
185	0x3de72676	0.11286633
186	0x3e17c113	0.14819746
187	0x3dc75a82	0.0973406
188	0x3dd97c1f	0.10619377
189	0x3c4e77b1	0.012601779
190	0x3bcba9ea	0.0062153237
191	0xbc0c3732	-0.008558081
192	0x3d10bf02	0.03533841
193	0x3d6a81a9	0.05725256
194	0xbdb8e3d2	-0.09027828
195	0xbda3c374	-0.07996264
196	0x3d10de66	0.035368346
197	0xbe156121	-0.14587833
198	0xbd98c8d2	-0.074601784
199	0xbde66f82	-0.11251737
200	0xbdab5c58	-0.083672225
201	0xbd80de17	-0.0629236
202	0xbde8f845	-0.11375479
203	0xbd699a94	-0.057032183
204	0xbd1b0a8b	-0.03785185
205	0xbc0f48c7	-0.008745379
206	0xbdc98d71	-0.09841431
207	0x3b82492b	0.0039760075
208	0xbc88dce3	-0.01670689
209	0xbbc2c93a	-0.005944398
210	0xbcaae732	-0.020862196
211	0x3c75831b	0.014984871
212	0x3d8028f2	0.0625781
213	0x3d7d7f60	0.061889052
214	0xbd1abffc	-0.037780747
215	0x3d9953a2	0.07486655
216	0x3daa3066	0.083100125
217	0xbc2523eb	-0.010079364
218	0x3db6e672	0.08930673
219	0x3d6e5d5f	0.058194514
220	0x3d71983c	0.058983073
221	0xbc22bb07	-0.009932286
222	0x3b7a9e28	0.003824124
223	0x3c82738d	0.01592424
224	0xbd1d01b4	-0.038331702
225	0x3c071677	0.008245102
226	0xbb7cf2f1	-0.0038596953
227	0x3c166ad1	0.00918074
228	0xbd2b0f21	-0.041762475
229	0x3db4c3cc	0.08826408
230	0x3c3ed6bd	0.011647877
231	0x3d11dfbc	0.03561376
232	0x3d6d6c46	0.057964586
233	0x3d8da776	0.06916706
234	0xbac9053b	-0.0015336642
235	0x3caa3582	0.020777468
236	0xbd747b31	-0.059687797
237	0x3db5e1ae	0.088809356
238	0x3c096948	0.008386917
239	0xbc139cc4	-0.009009544
240	0x3bcc55b5	0.006235803
241	0x3ca7102e	0.020393457
242	0xbd13b588	-0.036061794
243	0x3d3c134e	0.045916848
244	0x3cbac852	0.022800598
245	0xbcc6ebd0	-0.024282366
246	0xbd24fe1d	-0.040281404
247	0x3c73d52e	0.014882369
248	0xbd67a297	-0.056551542
249	0xbb67153a	-0.0035260455
250	0xbd9783d5	-0.07398192
251	0x3b9263e6	0.004467475
252	0x3d365e2f	0.044523414
253	0x3c7e74a9	0.015530744
254	0xbdc3ca80	-0.09560108
255	0xbcca6383	-0.024705654

bias f4 [90]
0	0xbdd239dc	-0.10264942
1	0x3dba6de6	0.09102993
2	0x3d73d870	0.059532583
3	0xbc09dda7	-0.008414662
4	0x3c97b223	0.01851756
5	0xbdb2632f	-0.08710324
6	0xbd46e254	-0.048555687
7	0x3d90c7bc	0.07069346
8	0x3d4c6052	0.049896546
9	0x3d7b2c39	0.06132147
10	0x3d4646fd	0.048407543
11	0xbd444231	-0.047914688
12	0xbe188de6	-0.1489788
13	0x3e3879f1	0.18015267
14	0xbd06fb25	-0.032954354
15	0xbde9e4d1	-0.114205964
16	0x3dcd414d	0.10022221
17	0x3dcfa7fd	0.10139463
18	0x3d7eb284	0.062181965
19	0xbccca376	-0.024980288
20	0x3e58fbf7	0.21189867
21	0xbe05c34b	-0.1306278
22	0xbd079f77	-0.033111062
23	0x3957f826	0.0002059644
24	0x3dc52058	0.0962531
25	0xbd964120	-0.0733664
26	0xbdd6e07a	-0.10492034
27	0x3d0f381c	0.03496562
28	0x3de72cab	0.112878166
29	0x3dbc293f	0.091875546
30	0x3e67f1c5	0.22650822
31	0x3e0118e0	0.12607145
32	0x3e91437e	0.28371805
33	0xbd849d71	-0.06475342
34	0xbdaeb895	-0.085313
35	0x3d162d49	0.03666428
36	0xbd2de103	-0.042450916
37	0xbcf6f1ac	-0.030144535
38	0x3d8d8a3a	0.0691113
39	0xbd489957	-0.04897436
40	0xbcc96a7b	-0.024586907
41	0xbcb9bd52	-0.022673283
42	0x3cf9be67	0.030486299
43	0x3d80dd76	0.0629224
44	0x3d169194	0.036759928
45	0xbd976a6e	-0.07393347
46	0x3dc42893	0.095780514
47	0xbdd32919	-0.10310573
48	0xbc785500	-0.015156984
49	0x3cb2cb74	0.02182553
50	0x3de0a566	0.10969047
51	0x3e51558d	0.20442791
52	0x3cf54e96	0.0299447
53	0xba3d0391	-0.0007210309
54	0xbddfddac	-0.109309524
55	0x3da27273	0.07931986
56	0xbb54740e	-0.0032417807
57	0x3dbda459	0.092598625
58	0xbdc3f4f0	-0.095682025
59	0x3d44e2c0	0.04806781
60	0xbdd2738c	-0.10275945
61	0xbd3b61a8	-0.04574743
62	0x3e4b774d	0.19869728
63	0xbc189a2a	-0.009314099
64	0xbd2b9e26	-0.04189887
65	0x3c6c78dc	0.014433112
66	0x3d13ed6f	0.036115106
67	0x3a9c2022	0.0011911432
68	0x3cf129ca	0.029438872
69	0xbd2f3f97	-0.042785253
70	0x3d9654fb	0.073404275
71	0x3e797892	0.243624
72	0x3bc108d3	0.0058909445
73	0xbceb53c7	-0.028726472
74	0xbd83da5a	-0.06438132
75	0x3cb35d3b	0.021895042
76	0x3e2c9fe3	0.16857867
77	0xbdb7cad6	-0.08974235
78	0x3db286d5	0.087171234
79	0xbd35b44c	-0.044361398
80	0xbca57f97	-0.020202441
81	0xbca8f49d	-0.020624453
82	0x3d82eaeb	0.06392463
83	0x3d84730e	0.064672574
84	0x3d631d81	0.05544806
85	0x3d7b149d	0.061298955
86	0xbd3f4e9a	-0.04670582
87	0xbd69e448	-0.05710247
88	0xbdb3556d	-0.08756528
89	0x3d4f7159	0.050645206

weight f4 [30, 90]
0	0x3d8b5418	0.06803149
1	0x3d39a2ee	0.045321397
2	0xbd0d1f20	-0.03445351
3	0xbd859cae	-0.06524025
4	0x3e1599f6	0.14609513
5	0x3d708b1d	0.05872642
6	0x3db236f5	0.087018885
7	0x3da30dd1	0.0796162
8	0x3d5c2bcd	0.05375271
9	0xbd7b25c1	-0.0613153
10	0xbc7b1536	-0.015324881
11	0x3e0cf4b8	0.13765228
12	0x3cf54187	0.029938472
13	0x3e7389c5	0.23783024
14	0xbd11b8ac	-0.035576507
15	0x3e164f81	0.14678766
16	0x3e2227ba	0.15835467
17	0xbdcc4b1c	-0.099752635
18	0x3d987039	0.0744328
19	0x3da13cf4	0.07872954
20	0x3d954247	0.07288032
21	0xbc939a8a	-0.018018026
22	0x3def17f3	0.1167449
23	0x3e14e6b3	0.1454113
24	0xbdd04d97	-0.10171049
25	0x3ddd702b	0.1081241
26	0x3dd5a7e2	0.10432412
27	0x3cc210ce	0.023689654
28	0x3c6ac947	0.014330215
29	0x3dafefde	0.08590673
30	0x3d9ce1c6	0.0766025
31	0x3d4fedae	0.05076378
32	0x3d1e1c83	0.03860141
33	0xbd89228d	-0.06696043
34	0x3df6e0c2	0.12054588
35	0xbbabc38c	-0.005241817
36	0xbd04a31c	-0.032382116
37	0xbd2fe83f	-0.042946097
38	0x3caa7104	0.020805843
39	0x3d45cbda	0.04829011
40	0xbd7d256a	-0.06180326
41	0x3e097672	0.1342409
42	0x3dedfab5	0.11620084
43	0xbcfa1fde	-0.030532774
44	0xbc0d262f	-0.008615061
45	0xbc060391	-0.008179561
46	0x3cd0f900	0.025509357
47	0xbade921b	-0.0016980799
48	0x3e0f375f	0.13985966
49	0xbd6a39a6	-0.057183884
50	0x3dad976f	0.08476149
51	0x3e5d8afd	0.21635051
52	0x3e8ded06	0.27719897
53	0xbda4e5a9	-0.08051617
54	0x3dcf428e	0.10120116
55	0xbd2c0cb1	-0.04200429
56	0x3db6d1d7	0.089267425
57	0x3d13b623	0.03606237
58	0xbd937b67	-0.072012715
59	0xbd85f7f7	-0.06541436
60	0x3bdb13ab	0.006685694
61	0xbd853393	-0.065039776
62	0x3d02c297	0.031923857
63	0x3d38dad1	0.045130555
64	0x3e21c660	0.1579833
65	0xbd994bb9	-0.07485146
66	0xbd55d927	-0.052209046
67	0xbcb23733	-0.021754837
68	0xbd5b32c7	-0.053515222
69	0xbcdf4e17	-0.027258916
70	0xbcc9accd	-0.02461853
71	0x3d31a477	0.043369737
72	0x3d8d3dc7	0.06896549
73	0x3d09d2ce	0.033648305
74	0xbd0e8581	-0.034795288
75	0x3c8f6d7d	0.017508263
76	0x3dca4d54	0.098780304
77	0x3ce0c2bb	0.027436605
78	0x3c78d8d9	0.015188419
79	0x3c619355	0.013768037
80	0x3e39db28	0.18150008
81	0x3cfa042d	0.03051957
82	0x3e459a97	0.19297253
83	0xbbab570e	-0.0052288836
84	0xbd82ac5f	-0.063805334
85	0xbe075c86	-0.13218889
86	0xbd84157c	-0.0644941
87	0x3e54e22f	0.20789407
88	0xbd4fabfc	-0.050701126
89	0xbc8d6364	-0.017259307
90	0x3de06e26	0.10958509
91	0x3d518155	0.05114873
92	0xbd4fa1ed	-0.050691534
93	0xbb9ee2a8	-0.004848797
94	0xbc50edec	-0.0127520375
95	0x3d2718d7	0.040795173
96	0x3dc4f62e	0.096172675
97	0x3b8d4ecd	0.0043123723
98	0x3e10bba2	0.14134076
99	0x3e1f65bb	0.15566151
100	0xbcbcdaaf	-0.023053495
101	0x3d89ecea	0.06734641
102	0xbd5251ee	-0.051347665
103	0xbceaeb27	-0.028676583
104	0x3d0ac85d	0.033882488
105	0x3da6ccbf	0.08144521
106	0x3d6f9d42	0.058499582
107	0x3dfa5633	0.122234724
108	0x3d9741bc	0.07385585
109	0x3de4e2dd	0.11176083
110	0x3dc31068	0.095246136
111	0x3cd45efd	0.0259242
112	0x3d9cd894	0.076584965
113	0xbd1dbd00	-0.038510323
114	0xbd668d4f	-0.056287106
115	0xbd337787	-0.043815162
116	0x3c7cc92e	0.015428824
117	0x3d4f54d8	0.050618023
118	0x3d8ee2e8	0.06976873
119	0xbdb0ba9c	-0.08629343
120	0xbcfcc23f	-0.030854343
121	0x3dd50942	0.104021564
122	0xbd8bac12	-0.06819929
123	0x3a1a0b99	0.0005876362
124	0x3d84df0f	0.064878576
125	0x3e121e0b	0.14269273
126	0xbcdcedeb	-0.026968917
127	0x3d547a5b	0.0518745
128	0xbd94b43c	-0.072609395
129	0x3cdff527	0.027338577
130	0xbd8208a2	-0.06349303
131	0xbd0a050d	-0.033696223
132	0xbc27c083	-0.010238769
133	0xbd84d627	-0.06486159
134	0xbcdf3cde	-0.027250703
135	0xbc9e8aa4	-0.019353218
136	0x3d278d6a	0.040906347
137	0xbd7c75ca	-0.06163577
138	0x3d925224	0.07144573
139	0xbd7cef8a	-0.06175188
140	0xbd70c0c7	-0.058777597
141	0x3db561c2	0.088565364
142	0x3de43e6e	0.1114472
143	0xbc334312	-0.010941284
144	0x3db23644	0.087017566
145	0x3d8d4c9d	0.068993784
146	0xbc14cd18	-0.009082101
147	0xbddab99d	-0.10679934
148	0x3d2932f8	0.041308373
149	0xbc7cc237	-0.015427164
150	0x3d0a4574	0.033757642
151	0x3b495d8d	0.0030725927
152	0xbd3b47fc	-0.045722947
153	0x3c8c401e	0.017120417
154	0x3d89bd4a	0.06725557
155	0x3d6926be	0.056921713
156	0x3db98d80	0.09060192
157	0xb94bdaec	-0.00019441143
158	0x3e2c5f88	0.16833317
159	0x3dbd3f9e	0.0924065
160	0x3b83c8a8	0.004021723
161	0xbd48313c	-0.04887508
162	0x3cf9e97d	0.030506844
163	0x3dce1d35	0.100641645
164	0x3b22c3b5	0.0024835889
165	0x3ce770df	0.028252063
166	0x3d0f420b	0.034975093
167	0x3d33c6c9	0.04389075
168	0xbc46c79d	-0.012132552
169	0xbd110022	-0.035400517
170	0x3d78f110	0.06077677
171	0x3e0d28e2	0.13785127
172	0x3aead618	0.0017916588
173	0xbcf8e024	-0.030380316
174	0xbcb9205a	-0.022598434
175	0x3d971711	0.073774464
176	0xbc617c2f	-0.013762518
177	0x3d28c912	0.04120738
178	0xbd57e1ab	-0.052705448
179	0x3d43949c	0.047749147
180	0x3cc3b2e0	0.023889005
181	0x3c6ad90b	0.014333974
182	0x3e0047ca	0.12527385
183	0x3e058fb0	0.13043094
184	0x3d491d67	0.049100306
185	0x3df2197e	0.118212685
186	0xbc4d3618	-0.012525104
187	0xbb8e1504	-0.0043360014
188	0x3d93153d	0.07181785
189	0x3d257389	0.040393386
190	0x3e564b98	0.20927274
191	0x3d0063b1	0.031345073
192	0x3c7237c6	0.014783805
193	0x3c95d42f	0.018289654
194	0x3d505239	0.050859664
195	0xbd16ead1	-0.036845032
196	0x3cb48392	0.022035394
197	0xbcc4c4e1	-0.02401966
198	0xbdbcfa54	-0.09227434
199	0xbd648167	-0.05578747
200	0x3df6989e	0.12040828
201	0x3d932450	0.071846604
202	0xbdf50dd9	-0.11965532
203	0x3d56c14b	0.052430432
204	0x3e6226ba	0.22085086
205	0xbc868c6b	-0.016424378
206	0xbcb00b58	-0.021489784
207	0x3ce6c8f5	0.028171996
208	0x3d99fbec	0.075187534
209	0x3e2714fc	0.16316599
210	0x3df748c8	0.12074429
211	0x3d521909	0.051293407
212	0x3e283018	0.16424596
213	0xbd8f3dde	-0.06994222
214	0x3d8a22de	0.06744932
215	0x3d2002f7	0.039065327
216	0x3cfbe089	0.030746715
217	0x3dbd2820	0.09236169
218	0x3e139de6	0.14415702
219	0x3ca71a1d	0.020398194
220	0x3c83980d	0.016063714
221	0x3ce08b80	0.027410269
222	0x3d0b6930	0.03403586
223	0x3d3944d8	0.04523167
224	0x3cab74bb	0.020929685
225	0x3da7f19f	0.082003824
226	0x3df2780d	0.11839304
227	0x3b2b94e5	0.0026181277
228	0xbd48902c	-0.048965618
229	0x3e49b3f1	0.19697548
230	0x3e6bcf4b	0.23028295
231	0x3da85786	0.08219819
232	0x3e3c847b	0.18409912
233	0xbce15aa1	-0.027509036
234	0xbd541c8b	-0.051785033
235	0xbd295c70	-0.04134792
236	0x3d6d4794	0.05792959
237	0x3cbb2e1b	0.022849133
238	0x3dbf1056	0.09329288
239	0x3e104f31	0.14092709
240	0xbd935512	-0.0719396
241	0xbd101bd6	-0.035182796
242	0x3d916129	0.0709861
243	0x3d14665c	0.03623043
244	0x3dc6174f	0.096724145
245	0xbc81b346	-0.015832555
246	0x3cee2eaa	0.029074986
247	0xbda8d0d2	-0.08242954
248	0x3c9a18c5	0.01881064
249	0x3dd8e50b	0.105905615
250	0x3e5b2a23	0.21402793
251	0x3e2f68e6	0.1712986
252	0x3de6db01	0.112722404
253	0xbe0195ab	-0.1265475
254	0xbc8c384d	-0.01711669
255	0xbcc9dcef	-0.024641482

bias f4 [30]
0	0x3d1ad8e1	0.037804488
1	0xbd98ef6c	-0.07467541
2	0x3e6dbd78	0.23216808
3	0x3d64d92d	0.055871177
4	0x3c4ff1fa	0.012691969
5	0x3dc72752	0.09724297
6	0x3d59f7b2	0.053214736
7	0x3e00793c	0.12546247
8	0xbd5e09b5	-0.054208476
9	0xbd64242a	-0.05569855
10	0xbdc58de3	-0.09646203
11	0x3e3c8bc7	0.18412696
12	0x3c7a2e8e	0.015269889
13	0x3d93cd18	0.07216853
14	0xbdcc62ff	-0.099798195
15	0xbdb25607	-0.08707815
16	0xbdaf41b8	-0.08557457
17	0xbdf4af9a	-0.11947556
18	0xbbebc7cf	-0.00719545
19	0xbcaeb3b6	-0.021325927
20	0x3cfa4e9a	0.030555058
21	0x3c877c76	0.01653884
22	0xbde2e868	-0.11079484
23	0x3ddeddbf	0.108821385
24	0x3e06187d	0.13095279
25	0x3d99859f	0.07496189
26	0x3ddfe8f0	0.10933101
27	0x3c95a299	0.01826601
28	0xbdc021f5	-0.09381477
29	0x3db9a9b4	0.090655714

weight f4 [10, 30]
0	0xbe9d113b	-0.30677208
1	0xbde9b729	-0.11411888
2	0xbdb99633	-0.09061851
3	0xbda85912	-0.08220114
4	0x3e736b3b	0.23771374
5	0x3e8ba993	0.27277812
6	0xbd80d192	-0.06289972
7	0x3dbb4980	0.091448784
8	0x3d78487c	0.060616
9	0xbe16cb4d	-0.1472599
10	0x3decaf29	0.11556847
11	0x3da8d274	0.08243266
12	0xbdb1ce43	-0.086819194
13	0x3e2bb9e3	0.16770129
14	0x3e2d4530	0.16920924
15	0x3c8840c7	0.01663245
16	0xbe55d16a	-0.20880666
17	0x3e52e520	0.20595217
18	0x3d0d96c7	0.03456762
19	0xbe529f9f	-0.20568703
20	0xbdd0890b	-0.10182389
21	0xbde8d8b3	-0.11369457
22	0xbdad709f	-0.084687464
23	0xbc1b7ff5	-0.009490957
24	0xbefb789d	-0.49115458
25	0x3bc5089a	0.0060129883
26	0x3f0e8c7a	0.556831
27	0x3e1a6b7e	0.15080068
28	0xbeb5b415	-0.35488954
29	0xbe561bef	-0.20909093
30	0x3ebe9afa	0.37227613
31	0x3e8132a0	0.25233936
32	0xbe2dd6da	-0.1697649
33	0xbdcf3842	-0.10118152
34	0xbe58ed55	-0.21184285
35	0xbe8c4255	-0.27394357
36	0xbef0e665	-0.47050777
37	0xbe24f3a5	-0.16108568
38	0x3ead66e9	0.33867577
39	0x3e88a66e	0.26689476
40	0xbcdb27ad	-0.026752317
41	0xbe52c07a	-0.20581236
42	0xbe4cd8f6	-0.20004639
43	0xbce34e16	-0.027747195
44	0x3e290b4c	0.16508216
45	0x3da23916	0.079210445
46	0x3e0f7643	0.14009957
47	0xbe54021b	-0.20703928
48	0x3c2ba643	0.010476652
49	0x3e6de023	0.23230033
50	0x3de083d6	0.10962646
51	0x3d921556	0.07132976
52	0xbe5c41f0	-0.21509528
53	0xbe86aef6	-0.2630536
54	0xbdb55587	-0.08854204
55	0xbc35bbfa	-0.01109218
56	0x3cdc1ac8	0.026868239
57	0x3dfd33f1	0.12363423
58	0xbdc44b07	-0.09584623
59	0xbe3edaec	-0.186382
60	0xbe5a2761	-0.21304084
61	0xbd68831e	-0.056765668
62	0xbe69d93f	-0.22836779
63	0xbe9ac99d	-0.30231944
64	0xbd584b2e	-0.052806072
65	0x3e777d91	0.24168994
66	0x3d209a2d	0.039209533
67	0xbcb68f1d	-0.022285039
68	0x3e958634	0.2920395
69	0x3e2c5a99	0.16831435
70	0xbdfaeb45	-0.12251905
71	0x3ec63d51	0.38718656
72	0xb82c5bd0	-4.1093503e-05
73	0xbcb95be4	-0.022626825
74	0x3d8c5b0b	0.068533026
75	0xbda5698c	-0.08076772
76	0x3ddc997e	0.10771464
77	0xbe633065	-0.2218643
78	0xbda1e430	-0.079048514
79	0xbd1df6c6	-0.03856542
80	0xbdda5d07	-0.10662275
81	0x3d865da1	0.06560827
82	0x3e449452	0.19197205
83	0xbe69bd2f	-0.22826074
84	0x3ecd79a9	0.40131882
85	0xbd8aaa99	-0.0677082
86	0xbd8c3b32	-0.06847228
87	0xbe56fd16	-0.20994982
88	0x3d069032	0.03285236
89	0xbec10a68	-0.37703252
90	0x3e2c68bd	0.1683683
91	0xbcc2abc6	-0.023763549
92	0x3e705f0a	0.23473755
93	0x3ef8c578	0.48588157
94	0x3e0b8621	0.13625385
95	0x3e116c2d	0.14201422
96	0x3e9fc4f6	0.31204957
97	0xbed291a0	-0.41126728
98	0x3e3bb503	0.18330769
99	0x3c6d8527	0.014497078
100	0xbd5df3aa	-0.054187454
101	0x3ea2d819	0.31805494
102	0xbeb9ce67	-0.36290285
103	0xbb468ea3	-0.003029742
104	0xbe0076bb	-0.12545292
105	0x3e80e03d	0.2517108
106	0xbe80e522	-0.25174814
107	0x3c90ed1c	0.017691188
108	0xbdf5cb39	-0.12001652
109	0x3d743eeb	0.059630316
110	0x3eb4229c	0.35182655
111	0x3e17411f	0.14770935
112	0xbe87bb24	-0.26509964
113	0xbda7277b	-0.08161827
114	0xbc6a81dd	-0.014313188
115	0x3e0f8b68	0.14018023
116	0xbe3ef3df	-0.18647717
117	0x3d3acad1	0.045603577
118	0xbda33796	-0.079695866
119	0xbde7a0f2	-0.11309995
120	0x3e617860	0.22018576
121	0x3ceaf42b	0.028680881
122	0x3eda54a9	0.42642716
123	0xbeb1d470	-0.3473239
124	0x3cf23d7c	0.029570334
125	0x3ecf0c66	0.40439147
126	0xbece47d4	-0.40289176
127	0x3c59418f	0.013260259
128	0x3e1fb582	0.15596583
129	0xbd70686f	-0.058693346
130	0xbdc2dbc3	-0.095145725
131	0xbe05c798	-0.1306442
132	0x3cd0dc6d	0.025495732
133	0x3d9447e2	0.07240273
134	0xbe8b4fb0	-0.27209234
135	0x3e02202e	0.12707588
136	0xbdacbced	-0.08434472
137	0x3e8a4eac	0.27013147
138	0xbcac5d05	-0.021040449
139	0xbe9de321	-0.30837348
140	0xbbfb9df1	-0.00767874
141	0x3dd12644	0.10212377
142	0x3dac01b5	0.08398763
143	0x3cb65ebe	0.022261973
144	0x3ea673d1	0.32510236
145	0xbda1bd93	-0.078974865
146	0x3c0c1d0e	0.008551849
147	0x3edca03e	0.43091005
148	0xbe8e4fdb	-0.277953
149	0x3df2d527	0.11857062
150	0xbe76d63c	-0.24105161
151	0x3d9d4abc	0.0768027
152	0xbe72e09d	-0.23718496
153	0xbdbf3c41	-0.093376644
154	0x3eeb5cb5	0.45969167
155	0xbe26f1c5	-0.16303165
156	0x3de30ae7	0.11086064
157	0xbe5efd46	-0.21776304
158	0xbd802ec1	-0.062589176
159	0x3e504610	0.20339227
160	0x3d8a18e9	0.067430325
161	0xbdcdf3f8	-0.10056299
162	0x3c45985d	0.012060252
163	0xbe86abd0	-0.26302958
164	0xbec57b6b	-0.38570723
165	0x3eb98c79	0.36239985
166	0xbeea6cfb	-0.4578627
167	0xbe9e793d	-0.30951872
168	0xbe87ca09	-0.26521328
169	0x3eb7d2f7	0.3590314
170	0xbe4be4db	-0.1991152
171	0x3d3271f5	0.04356571
172	0x3ea8180b	0.32830843
173	0x3e8920ff	0.26782987
174	0x3df01877	0.11723416
175	0xbe34d797	-0.17660366
176	0x3dc77593	0.097392224
177	0x3d999a99	0.0750019
178	0xbe0e390f	-0.13888954
179	0x3e966c8a	0.29379684
180	0xbeeadd2a	-0.4587186
181	0xbb2b38ed	-0.002612646
182	0x3eee46b5	0.4653832
183	0xbe112aa2	-0.1417642
184	0xbdc4d5f7	-0.09611123
185	0xbea50cd8	-0.32236362
186	0xbc8f2cb3	-0.017477369
187	0x3d7ad537	0.061238494
188	0x3c951154	0.01819674
189	0xbe252b7b	-0.16129868
190	0x3d1e1545	0.038594503
191	0x3e017e29	0.12645783
192	0xbe861b5c	-0.2619275
193	0x3e1da5aa	0.15395227
194	0xbde0e27f	-0.10980701
195	0xbe894955	-0.2681376
196	0x3e7cd193	0.24689321
197	0xbdf7c9de	-0.1209905
198	0x3e3b6f32	0.18304136
199	0x3ea7f1a1	0.32801536
200	0xbdf3579b	-0.11881944
201	0x3d8fc2ca	0.07019575
202	0xbe27277d	-0.16323657
203	0xbe2f0276	-0.17090783
204	0xbe45178e	-0.19247267
205	0xbd5eeeac	-0.054426834
206	0xbe4c4ac9	-0.19950403
207	0x3d23d18a	0.039994754
208	0xbdd83fa4	-0.105590135
209	0x3de31fc2	0.11090042
210	0xbdd81794	-0.10551372
211	0xbd855987	-0.065112166
212	0xbe0fbbda	-0.14036503
213	0xbe38ad1b	-0.18034784
214	0xbe9f9474	-0.31167948
215	0xbd8495e8	-0.06473905
216	0x3d563fb4	0.052306846
217	0xbe485ccc	-0.19566649
218	0xbcaaad02	-0.02083445
219	0x3e2950fe	0.16534802
220	0x3c711cce	0.01471634
221	0x3d9df6f5	0.07713119
222	0xbe8a6866	-0.27032775
223	0x3ed8cc5a	0.42343408
224	0xbe4429e0	-0.19156599
225	0xbe508e3c	-0.20366758
226	0x3e8e40ce	0.27783817
227	0xbe0f69f6	-0.14005265
228	0x3d940c91	0.07228959
229	0x3d8ce02e	0.068786964
230	0x3ed6905c	0.41907012
231	0xbd7a4dee	-0.061109476
232	0x3e808ac3	0.25105867
233	0x3e0072e2	0.12543824
234	0x3e08e9c3	0.13370423
235	0xbd89bc7b	-0.06725403
236	0x3edc9e65	0.43089595
237	0xbe69f8dc	-0.22848839
238	0x3e28728f	0.1644995
239	0x3e923de4	0.28562844
240	0x3dc7a110	0.09747517
241	0xbe69773c	-0.2279939
242	0x3e994466	0.29934996
243	0x3db341b2	0.08752765
244	0xbdbde3b7	-0.09271949
245	0x3e500f25	0.20318277
246	0xbbf2f9cf	-0.0074150334
247	0xbe0b8e85	-0.13628586
248	0xbdc3cd20	-0.09560609
249	0x3eb31afb	0.34981522
250	0xbe0c9832	-0.13729933
251	0x3d37df63	0.044890773
252	0x3e88651e	0.26639646
253	0xbe47b0bf	-0.19501017
254	0x3e1335b0	0.14375949
255	0x3d0ba88b	0.034096282

bias f4 [10]
0	0x3dcc6ed2	0.09982075
1	0xbd7f0a36	-0.062265597
2	0x3d887dca	0.06664617
3	0xbe3ad34e	-0.18244669
4	0x3ea21ee6	0.316642
5	0x3e7b519d	0.24542852
6	0x3e0d05b1	0.13771702
7	0xbdcaca94	-0.0990192
8	0x3e16a05d	0.14709611
9	0x3da6305d	0.08114693

weight f4 [30, 10]
0	0xbe016205	-0.12635048
1	0x3db155cd	0.08658943
2	0x3dd6a3e0	0.104804754
3	0x3dabb411	0.08383954
4	0xbde673e7	-0.11252575
5	0xbe0ca80d	-0.13735981
6	0xbe4ded95	-0.20110162
7	0x3da7763b	0.081768475
8	0xbdc42b7f	-0.09578609
9	0xbca446cf	-0.020053295
10	0xbe3d3622	-0.18477681
11	0xbd66fa93	-0.05639131
12	0xbe0afadf	-0.13572262
13	0xbde6282d	-0.11238132
14	0x3d9b8026	0.07592802
15	0xbc4ca8e3	-0.012491438
16	0xbe964f2b	-0.29357275
17	0xbd9df9ab	-0.07713636
18	0xbe383297	-0.17988048
19	0x3e5fd31d	0.21857877
20	0xbea84dcb	-0.3287185
21	0xbed65451	-0.41861203
22	0xbdbe5255	-0.09293047
23	0xbb9c8799	-0.0047769067
24	0x3ea6cc9c	0.3257798
25	0xbebffa42	-0.3749562
26	0x3e2a77ef	0.16647314
27	0x3da69445	0.08133749
28	0x3e573ae5	0.2101856
29	0x3ebda1c5	0.37037483
30	0x3d8a2d67	0.06746941
31	0xbd99f881	-0.075181015
32	0x3e7253bc	0.23664755
33	0x3e984e13	0.29747066
34	0x3c198032	0.009368943
35	0xbd8442cc	-0.06458053
36	0xbd4899f4	-0.048974946
37	0x3c2ee55d	0.010674802
38	0xbe202d0d	-0.15642186
39	0xbdb2ca09	-0.087299414
40	0xbe191400	-0.14949036
41	0x3dd38774	0.1032857
42	0x3cf2d38d	0.02964189
43	0xbe372efc	-0.17889017
44	0xbe73774a	-0.23775974
45	0xbd73c0d5	-0.05951007
46	0xbe4c664d	-0.199609
47	0xbe5e5f59	-0.2171606
48	0xbe0dd0a4	-0.13849121
49	0x3d38c217	0.045106973
50	0xbe23a7db	-0.15982
51	0xbea9f506	-0.3319475
52	0xbd210f30	-0.039321125
53	0x3e899146	0.26868647
54	0x3e30e6ab	0.17275493
55	0xbe5fced4	-0.21856242
56	0x3d832688	0.06403834
57	0x3c8508cc	0.016239546
58	0x3e215ea3	0.15758757
59	0x3e095ea7	0.13415013
60	0x3c38e7f6	0.011285773
61	0x3cc87c49	0.024473326
62	0x3dc2cff5	0.09512321
63	0x3d996b68	0.07491189
64	0x3e2ec230	0.17066264
65	0xbc8ac12a	-0.01693781
66	0xbdc878d2	-0.0978867
67	0x3db5a16f	0.08868682
68	0xbe13831d	-0.14405484
69	0x3e0a3f2b	0.13500659
70	0x3e912c7e	0.28354257
71	0x3b849c0c	0.0040469225
72	0x3dc00fca	0.093780115
73	0x3d95bb36	0.07311098
74	0xbe546f11	-0.20745493
75	0xbe3c8ebd	-0.18413825
76	0x3e7b8047	0.24560653
77	0xbc9c3b1f	-0.01907116
78	0x3ebcec3a	0.36898977
79	0x3ddc032f	0.10742795
80	0xbe8dddc0	-0.27708244
81	0xbeb2ae0a	-0.34898406
82	0x3e820b92	0.25399452
83	0x3ed7f582	0.42179495
84	0x3e29b43f	0.16572665
85	0xbd9d8675	-0.07691661
86	0xbd1fc8ed	-0.039009977
87	0x3e30d8f3	0.1727026
88	0xbe33d374	-0.17561132
89	0x3d15f722	0.036612637
90	0x3e4dfdc9	0.20116343
91	0xbc2ee248	-0.010674067
92	0xbe46d105	-0.19415672
93	0xbc27c341	-0.010239423
94	0x3e11c5ff	0.14235686
95	0xbe4cdad3	-0.2000535
96	0xbeece9e1	-0.46272185
97	0x3f1627a5	0.5865424
98	0x3d0d7f24	0.03454508
99	0x3e400b31	0.18754269
100	0x3daf8cbb	0.08571764
101	0x3d5221d1	0.05130178
102	0x3d454545	0.048161764
103	0x3d2c3d65	0.042050738
104	0xbe409ffe	-0.18811032
105	0xbdb2f560	-0.08738208
106	0xbd0b5f78	-0.034026593
107	0x3e36e182	0.17859462
108	0xbe00d935	-0.12582858
109	0xbdda972e	-0.106733665
110	0x3e4e00a2	0.20117429
111	0x3e0fbc5c	0.14036697
112	0x3e7c23cf	0.24623035
113	0xbd3193c4	-0.04335381
114	0xbe45c03e	-0.19311616
115	0xbe1803d3	-0.14845209
116	0xbe86cda5	-0.2632877
117	0xbdf03065	-0.117279805
118	0xbe9812e8	-0.29701924
119	0x3dd18c39	0.102318235
120	0x3dc050c8	0.09390408
121	0x3e2b8156	0.16748556
122	0x3e25bf5b	0.16186278
123	0xbd215fbd	-0.039397944
124	0xbe6c3719	-0.23067893
125	0xbd6c41e9	-0.057680044
126	0xbe8dcd0f	-0.2769551
127	0xbe53bcda	-0.2067751
128	0xbe7b7f52	-0.24560288
129	0xbdb8b203	-0.09018328
130	0xbe9aaf56	-0.30211896
131	0x3eb2eca9	0.34946182
132	0x3e439412	0.19099453
133	0x3df29bca	0.11846121
134	0xbdbb7347	-0.09152847
135	0xbe6af0c3	-0.22943406
136	0xbecab2a8	-0.3958943
137	0x3dad33a5	0.08457116
138	0x3e6ea698	0.23305738
139	0xbe74df71	-0.23913361
140	0x3daef182	0.08542158
141	0x3e7e00d6	0.24805006
142	0xbd92347a	-0.07138915
143	0x3eace8c2	0.3377133
144	0xbc0494f7	-0.008092157
145	0x3d648ec5	0.055800218
146	0x3e766ba5	0.240645
147	0x3e67a7d6	0.22622618
148	0xbe967a50	-0.29390192
149	0x3d7b31c9	0.061326776
150	0xbe95c535	-0.2925202
151	0xbd31d1c7	-0.04341295
152	0xbe42ece8	-0.19035685
153	0xbcc094b4	-0.023508407
154	0x3e9ee926	0.31037253
155	0x3d7927c1	0.060828928
156	0x3d49a8cc	0.049233243
157	0x3de11538	0.10990375
158	0x3eb539b3	0.35395584
159	0x3e1df291	0.15424563
160	0x3da5371a	0.080671504
161	0xbb23f013	-0.0025014922
162	0xbcb01603	-0.021494871
163	0x3dde5849	0.10856683
164	0xbd8558af	-0.06511056
165	0xbdcb3c72	-0.099236384
166	0xbdb6f468	-0.089333355
167	0x3e34a649	0.17641558
168	0xbe1ecc60	-0.1550765
169	0x3cb73def	0.0223684
170	0xbdd96b0e	-0.10616122
171	0xbeb270a6	-0.3485157
172	0x3d97b346	0.074072406
173	0x3dbbccc0	0.09169912
174	0xbd862320	-0.06549668
175	0xbddbb675	-0.1072816
176	0xbe9e6ac1	-0.30940822
177	0xbc63f551	-0.013913468
178	0x3e521411	0.20515467
179	0xbc63ff2f	-0.013915821
180	0xbd459333	-0.048236083
181	0xbe0d4c1a	-0.13798562
182	0x3e2581f3	0.16162853
183	0x3e32fb4b	0.17478673
184	0x3ecfd43f	0.40591618
185	0x3da4ce46	0.08047156
186	0x3e0a0144	0.13477045
187	0x3eb8cdff	0.36094663
188	0x3ea1a748	0.31572938
189	0x3cb7bbcc	0.022428416
190	0x3be91418	0.007112991
191	0xbdf2fac2	-0.118642345
192	0xbe667070	-0.22503829
193	0x3ef765ef	0.48319957
194	0x3e7d778f	0.24752639
195	0xbd1641c2	-0.036683805
196	0x3e16ff0c	0.1474573
197	0x3e41f0df	0.18939541
198	0x3ea6b4ae	0.32559723
199	0xbe3c370d	-0.18380375
200	0xbe1ce29f	-0.15320824
201	0xbe1bcb47	-0.15214263
202	0x3d0a03b5	0.03369494
203	0xbe94bc67	-0.2904999
204	0x3c00e073	0.007866013
205	0xbda590a6	-0.0808423
206	0x3e70695e	0.23477694
207	0x3e70ac7e	0.235033
208	0x3e08feb5	0.13378413
209	0xbe741fe5	-0.23840292
210	0x3e91d4c1	0.2848263
211	0xbead57a8	-0.3385594
212	0xbe54ecbe	-0.20793435
213	0xbdf9fb2d	-0.12206111
214	0x3dbbaad9	0.09163446
215	0x3e60e6af	0.21962999
216	0x3eb0e970	0.345531
217	0xbd7315d8	-0.059347004
218	0xbe5e4bdf	-0.2170863
219	0x3e69d95e	0.22836825
220	0xbdb55efd	-0.08856008
221	0xbe04289d	-0.12906118
222	0x3ebf6d24	0.37387955
223	0xbd8b6b27	-0.06807547
224	0xbe9217eb	-0.28533873
225	0x3dba9265	0.09109954
226	0x3d4a3ede	0.04937636
227	0x3e51e0b0	0.20495868
228	0xbd0c23cc	-0.034213826
229	0x3e61d3ac	0.22053403
230	0xbe38a419	-0.18031348
231	0xbec9ae99	-0.3939102
232	0xbea99adb	-0.33125958
233	0x3e33f36c	0.17573327
234	0xbd18edfc	-0.037336335
235	0xbc4f3420	-0.012646705
236	0xbd6f4e1a	-0.058424093
237	0x3ea7fe90	0.32811403
238	0x3eacab54	0.33724463
239	0x3d7b16b2	0.06130094
240	0xbe916de4	-0.28404152
241	0x3c9421c1	0.018082501
242	0xbd54690f	-0.051858004
243	0xbd8a6db5	-0.06759206
244	0x3e7af24c	0.24506491
245	0x3e6a74a9	0.22896065
246	0xbe344208	-0.17603314
247	0xbccc6497	-0.024950309
248	0xbebc196e	-0.3673815
249	0xbe137462	-0.14399865
250	0x3e491f7f	0.19640921
251	0x3e4c04cd	0.19923706
252	0xbce3a7a5	-0.0277899
253	0x3ea948be	0.3306331
254	0xbcdb9fdd	-0.026809627
255	0x3dd5273f	0.10407876

bias f4 [30]
0	0x3da5e2ea	0.08099921
1	0x3e198808	0.14993298
2	0x3f0ba451	0.545476
3	0xbc8dc093	-0.01730374
4	0xbdba9e22	-0.09112193
5	0x3b8d4999	0.004311752
6	0x3edf426f	0.43605372
7	0x3e86bd57	0.2631633
8	0x3ee243e3	0.44192418
9	0x3eb89b6a	0.36056072
10	0xbd8885fb	-0.0666618
11	0x3d1ac7e3	0.037788283
12	0xbeb1f3b9	-0.34756258
13	0xbe10966b	-0.1411988
14	0x3e7b9094	0.24566871
15	0x3f283092	0.6569911
16	0x3e9d6f22	0.3074885
17	0x3ef392ad	0.47572842
18	0x3d132b0b	0.03592972
19	0x3c7c5510	0.01540114
20	0x3e16d2c4	0.14728838
21	0x3d8edad3	0.06975331
22	0x3d29ee06	0.041486762
23	0x3f140ee3	0.57835215
24	0xbdec5837	-0.11540263
25	0x3cfee7f9	0.031116473
26	0xbd090817	-0.03345498
27	0x3f2aa9bd	0.6666525
28	0x3d845a4b	0.064625345
29	0x3e866d92	0.2625547

weight f4 [90, 30]
0	0x3c6043be	0.013688026
1	0x3df27853	0.11839356
2	0x3e456ed1	0.19280554
3	0x3e30da98	0.17270887
4	0xbd535646	-0.05159595
5	0xbd619a12	-0.055078574
6	0xbcf59660	-0.029978931
7	0xbd96b630	-0.07358968
8	0x3d6ad642	0.05733324
9	0x3ca0d29b	0.019631675
10	0x3dcb9c2c	0.09941897
11	0x3dee2402	0.11627962
12	0xbe283118	-0.16424978
13	0xbd111f9b	-0.035430532
14	0xbd7a7348	-0.061145097
15	0xbdb59d22	-0.08867861
16	0xbe15dd85	-0.14635284
17	0xbd9ccfd0	-0.076568246
18	0xbe2384e3	-0.15968661
19	0x3cc271c3	0.023735886
20	0xbcd9d309	-0.026589887
21	0x3db0bdf6	0.08629982
22	0xbd4571d9	-0.048204277
23	0xbc32e99b	-0.010919954
24	0xbd32cc4a	-0.043651856
25	0x3c9e5a2a	0.019330103
26	0x3e0dedc3	0.1386023
27	0x3d1befe2	0.038070567
28	0x3e11fb8a	0.14256111
29	0xbdba03d1	-0.09082759
30	0x3cd011ee	0.025399175
31	0x3d843a11	0.06456388
32	0xbde2aabe	-0.11067723
33	0x3c3bbe7a	0.011458987
34	0x3d3c4905	0.045968074
35	0xbe085de1	-0.13317062
36	0x3ce115d1	0.027476223
37	0xbe1d230b	-0.15345399
38	0x3de88e45	0.11355261
39	0x3e27ca99	0.16385879
40	0x3ca37349	0.019952433
41	0xbe27994d	-0.16367073
42	0x3bc6ffec	0.0060729887
43	0x3dece1a8	0.11566478
44	0x3e79002f	0.24316476
45	0x3e86ffe7	0.26367113
46	0x3d974b93	0.073874615
47	0xbe60808d	-0.21924038
48	0x3eb0f8ba	0.34564763
49	0x3e39c82d	0.18142767
50	0xbd71b00d	-0.059005786
51	0xbe127303	-0.14301686
52	0xbdba967d	-0.091107346
53	0x3db7ceee	0.089750156
54	0x3e8b0cb8	0.2715814
55	0x3d945a72	0.072438136
56	0xbe4306d7	-0.19045578
57	0xbb2fa844	-0.0026803175
58	0x3d652a08	0.055948287
59	0xbd10ccce	-0.035351567
60	0xbe06ab93	-0.13151388
61	0xbd031512	-0.032002516
62	0xbe568b1b	-0.20951502
63	0xbcf91b54	-0.030408539
64	0x3d84edb7	0.06490653
65	0xbe30c275	-0.1726168
66	0xbe2bed21	-0.16789676
67	0xbe47503a	-0.19464198
68	0x3dac1ee3	0.08404329
69	0x3cccdeca	0.025008578
70	0x3d623904	0.055230156
71	0x3dd253d0	0.10269892
72	0xbbbbab0e	-0.0057271784
73	0x3dfd0626	0.12354688
74	0xbd8b63b8	-0.06806129
75	0x3e5bb9ae	0.2145755
76	0xbe29e20a	-0.16590133
77	0x3dc60199	0.096682735
78	0x3e4c0e09	0.19927229
79	0x3e0a13db	0.13484137
80	0x3e0ae93a	0.13565531
81	0x3cbf6864	0.023365207
82	0xbdb20e0a	-0.08694084
83	0x3e74708e	0.23871061
84	0x3e098fe6	0.13433799
85	0xbdd31b89	-0.10307986
86	0xbd9d3db1	-0.07677782
87	0x3d53a04f	0.051666554
88	0x3da5d88e	0.08097945
89	0xbd400b90	-0.046886027
90	0x3df08eb6	0.1174597
91	0x3e0597fc	0.13046259
92	0xbd9a6982	-0.07539655
93	0xbdd8b8a1	-0.1058209
94	0xbe2e9ff0	-0.17053199
95	0x3932b202	0.00017041716
96	0x3dbc5cfd	0.091974236
97	0xbdd915b0	-0.1059984
98	0x3e02a731	0.12759091
99	0xbdb5a786	-0.08869843
100	0x3d926486	0.071480796
101	0x3e21e9a3	0.15811782
102	0x3d6d9835	0.058006484
103	0xbe30bfd7	-0.17260681
104	0x3c547a6e	0.012968643
105	0x3d159b8f	0.036525305
106	0xbd127085	-0.03575184
107	0xbd928db2	-0.071559325
108	0xbe19527e	-0.14972875
109	0x3d5ef06d	0.054428507
110	0x3c93e15a	0.018051792
111	0xbba522be	-0.005039542
112	0xbd8ce7ca	-0.06880148
113	0xbdf2f510	-0.11863148
114	0x3d091473	0.033466768
115	0xbde6633b	-0.112493955
116	0xbd2b970e	-0.041892104
117	0xbd1f2e85	-0.038862724
118	0xbe3c875e	-0.18411013
119	0xbe0c5dfb	-0.13707726
120	0x3daefbcb	0.085441194
121	0xbd11637a	-0.03549526
122	0x3e059f56	0.13049063
123	0xbd8e7619	-0.06956119
124	0x3dd3da76	0.103444025
125	0xbd0c5886	-0.03426411
126	0x3ca23045	0.019798407
127	0x3db8ee99	0.09029884
128	0x3debc254	0.115116745
129	0xbd86d2bb	-0.065831624
130	0xbd799b40	-0.060939074
131	0xbd7e9e73	-0.062162828
132	0xbdc9d44d	-0.09854946
133	0x3d6367d1	0.05551893
134	0x3c243dc6	0.010024494
135	0xbe155b9e	-0.1458573
136	0x3e6f2850	0.23355222
137	0xbe3e050d	-0.18556614
138	0xbcdeb4a3	-0.027185744
139	0x3e2b6856	0.1673902
140	0x3df2f095	0.11862294
141	0x3d2aaa59	0.041666362
142	0x3db094a6	0.086221024
143	0x3e1180a4	0.14209229
144	0xbe067ee9	-0.1313435
145	0xbd6b5f6a	-0.05746404
146	0xbe4de768	-0.20107806
147	0xbc1287a9	-0.008943477
148	0x3dc35cd1	0.09539188
149	0xbe3f5e7c	-0.18688387
150	0x3d5ff2d4	0.05467494
151	0x3da76748	0.08173996
152	0xbe1f6595	-0.15566094
153	0xbc5fd725	-0.013662134
154	0x3e044d68	0.12920153
155	0xbd948060	-0.07251048
156	0xbcbc1e39	-0.02296363
157	0x3d5d087b	0.053963166
158	0xbdd83567	-0.10557061
159	0xbe12b548	-0.14326966
160	0xbcb0c70c	-0.021579288
161	0xbe0a0210	-0.1347735
162	0xbe07d3bc	-0.13264364
163	0x3e076e48	0.13225663
164	0xbc466939	-0.012110048
165	0xbd8e2bb1	-0.06941927
166	0x3da3642f	0.07978093
167	0xbe56b8b7	-0.209689
168	0xbe18b01f	-0.14910935
169	0xbda15be7	-0.07878857
170	0x3d27ba9a	0.04094944
171	0x3da166f2	0.078809634
172	0x3da3c32a	0.07996209
173	0x3d404ace	0.04694634
174	0xbc918017	-0.017761273
175	0x3bd1a1d3	0.006397465
176	0x3d0355f1	0.032064382
177	0x3c7c1816	0.015386602
178	0x3b3008fe	0.0026860829
179	0x3dac11ba	0.084018186
180	0xbc362ba8	-0.011118807
181	0x3c82f346	0.015985142
182	0xbe3ecef2	-0.18633631
183	0x3cb372ff	0.02190542
184	0x3c806d54	0.015677132
185	0xbdcf8b26	-0.10133962
186	0xbcb08c23	-0.021551197
187	0xbd87e1c7	-0.066348605
188	0x3e1d5567	0.1536461
189	0x3e17c0c4	0.14819628
190	0x3d009b44	0.031398073
191	0xbd22bbba	-0.03972981
192	0x3d99af18	0.075040996
193	0x3ec5cf6a	0.38634807
194	0x3dc6e354	0.09711328
195	0x3ea7103e	0.3262958
196	0xbdab1f02	-0.08355524
197	0xbce784ec	-0.028261624
198	0x3e306deb	0.1722943
199	0x3de3edfa	0.11129375
200	0xbca8b8dd	-0.020595962
201	0xbe4bc3e3	-0.19898944
202	0x3da8b62f	0.08237874
203	0xbdd09069	-0.10183794
204	0x3e39ba62	0.18137506
205	0x3d982885	0.074296035
206	0xbd8c6d44	-0.06856778
207	0xbce2553d	-0.027628535
208	0x3e7a0963	0.24417643
209	0xbe32c7d6	-0.17459044
210	0xbd4b4916	-0.049630247
211	0x3dec1581	0.11527539
212	0xbe19fc39	-0.15037622
213	0xbe1a92fa	-0.1509513
214	0x3c65e5bb	0.014031823
215	0xbdbab762	-0.09117009
216	0xbe166c47	-0.14689742
217	0xbd577d6f	-0.052609857
218	0xbdf2d502	-0.11857034
219	0x3d26306b	0.04057352
220	0xbe0521c6	-0.13001165
221	0xbd958a53	-0.07301774
222	0xbc16f301	-0.00921321
223	0xbe1d79a4	-0.15378433
224	0xbc88831a	-0.016664077
225	0xbe53c9ea	-0.20682493
226	0x3db39e5b	0.08770438
227	0x3db68b4d	0.08913288
228	0x3d84e7e9	0.06489546
229	0xbd7f21f3	-0.062288236
230	0xbe26fd6c	-0.1630761
231	0xbd288a9e	-0.04114782
232	0xbd80f148	-0.06296021
233	0xbe222020	-0.15832567
234	0x3de02f5c	0.10946533
235	0x3e08b1c6	0.13349065
236	0x3e2b7ecf	0.16747592
237	0xbe0362e7	-0.12830697
238	0x3d827c86	0.06371407
239	0xbc09c4e0	-0.008408755
240	0xbd8c7f18	-0.06860179
241	0x3d03a334	0.032138065
242	0xbe0d8ca6	-0.13823184
243	0x3d8d5dd9	0.06902666
244	0x3da9581c	0.08268759
245	0xbdfdb6e9	-0.12388403
246	0x3deea5c9	0.11652715
247	0x3dd32a64	0.1031082
248	0x3d744d5a	0.05964408
249	0xbdbc8565	-0.092051305
250	0x3dfd53dc	0.123695105
251	0xbdfd86f7	-0.12379258
252	0xbd5d6106	-0.054047607
253	0x3d9041c6	0.07043795
254	0x3da282b3	0.07935085
255	0x3e384a11	0.17997004

bias f4 [90]
0	0xbd0f529e	-0.0349909
1	0x3bc22abb	0.005925504
2	0x3e22b353	0.1588872
3	0xbd9248db	-0.07142802
4	0x3e837a3a	0.2567919
5	0xbe21906c	-0.15777749
6	0x3e4c1165	0.1992851
7	0x3e12e81c	0.14346355
8	0xb65adc1c	-3.2612652e-06
9	0xbe4680e1	-0.19385101
10	0xbe1ae82c	-0.15127629
11	0x3d604f4c	0.054763123
12	0xbd7d95c3	-0.061910402
13	0xbd17d28d	-0.03706603
14	0x3beb8560	0.0071875304
15	0x3d954851	0.07289184
16	0x3e95f5fc	0.29289234
17	0x3e1f801a	0.1557621
18	0x3dfb2f4a	0.12264879
19	0xbdb6fabd	-0.08934543
20	0x3e1d8416	0.15382418
21	0xbe5214c5	-0.20515735
22	0xbd851524	-0.06498173
23	0x3e80f8c5	0.25189796
24	0x3e0c726b	0.13715522
25	0x3e6f33e7	0.23359643
26	0xbe1a3269	-0.15058292
27	0xbe074b0d	-0.13212223
28	0x3e3f41aa	0.18677393
29	0x3d3d3ee6	0.046202563
30	0x39d9eb13	0.0004156461
31	0xbe50a0d6	-0.20373854
32	0xbe0e7402	-0.13911441
33	0xbd2f636b	-0.04281942
34	0x3e93f4a9	0.28897598
35	0xbd0262c0	-0.031832457
36	0x3e4d31c9	0.20038523
37	0xbe6a2eb1	-0.22869374
38	0x3e9e8db1	0.30967477
39	0x3e85b4ce	0.26114506
40	0x3edb7f90	0.4287076
41	0x3d3518c8	0.044213086
42	0xbdf44068	-0.11926347
43	0x3ec3c092	0.38232857
44	0x3c19761d	0.009366539
45	0xbddc195a	-0.10747023
46	0xbc82a05c	-0.015945606
47	0xbcbc897a	-0.023014773
48	0x3e29ac20	0.16569567
49	0xbd6658f5	-0.05623718
50	0x3e35941b	0.17732279
51	0x3e25a808	0.1617738
52	0xbc511229	-0.012760677
53	0x3e52448b	0.2053396
54	0xbe20efaa	-0.15716425
55	0x3e7c41f0	0.24634528
56	0xba805de2	-0.0009793604
57	0xbd95932f	-0.07303464
58	0x3ed22868	0.41046453
59	0x3d7312f4	0.059344247
60	0x3e7e7391	0.24848773
61	0xbd15ba6c	-0.03655474
62	0x3e78f2a2	0.24311307
63	0xbe8d5091	-0.2760053
64	0xbbc03685	-0.0058658742
65	0x3e608240	0.21924686
66	0x3e594892	0.2121909
67	0x3e5ebf88	0.21752751
68	0xbdf4a6a7	-0.11945849
69	0x3e9ef252	0.3104425
70	0x3d31542b	0.04329316
71	0x3d6fd7d8	0.058555454
72	0x3dfebad4	0.124379784
73	0xbe1005e0	-0.14064741
74	0xbd0c4e01	-0.034254078
75	0x3d43a1ed	0.047761846
76	0xbe344099	-0.17602767
77	0xbe2aad5d	-0.16667695
78	0x3e9de469	0.30838326
79	0x3db5647f	0.08857059
80	0x3d950c41	0.07277728
81	0xbc2346a0	-0.009965569
82	0x3d388816	0.045051657
83	0xbd860ac2	-0.06545021
84	0x3bb0c79b	0.0053948886
85	0x3bde7b93	0.0067896335
86	0x3d559ea3	0.05215324
87	0xbe118424	-0.14210564
88	0x3e24e594	0.16103202
89	0x3de4f654	0.11179796

weight f4 [90, 90]
0	0xbd0abd36	-0.03387185
1	0x3c8bae43	0.017050868
2	0x3e42288f	0.18960784
3	0xbd3296d1	-0.04360086
4	0x3dd1132f	0.10208737
5	0x3d8c2434	0.06842843
6	0xbd81e2f8	-0.06342119
7	0x3cf63ebf	0.030059217
8	0x3dc1abb2	0.094565764
9	0xbcdcb41f	-0.026941357
10	0xbdc02632	-0.09382285
11	0xbcdb69f8	-0.026783928
12	0x3db81001	0.089874275
13	0xbe26379d	-0.16232152
14	0xbcee55f9	-0.02909373
15	0xbe2adced	-0.16685839
16	0x3e0c2def	0.13689397
17	0x3d36397c	0.044488415
18	0x3dcd46c7	0.10023265
19	0xbde5dea2	-0.112241045
20	0xbe0df569	-0.13863148
21	0xbe7d5c72	-0.24742296
22	0x3d5f0321	0.054446343
23	0xbdac22b0	-0.084050536
24	0x3de0e770	0.10981643
25	0x3e06fce8	0.13182414
26	0xbd104078	-0.035217732
27	0x3d32a638	0.04361555
28	0x3da70f91	0.08157266
29	0x3d587caf	0.052853283
30	0xbb1b9e7f	-0.0023745594
31	0x3d85a463	0.06525495
32	0x3e004446	0.12526044
33	0x3e0ae711	0.13564707
34	0xbddd91a2	-0.10818793
35	0xbdc193cc	-0.09452018
36	0x3c5c3338	0.013439946
37	0x3d7d2230	0.061800182
38	0xbe440d36	-0.19145665
39	0xbd72563e	-0.05916428
40	0xbdaa7b4a	-0.08324297
41	0xbdb3b120	-0.08774018
42	0xbe23792f	-0.15964197
43	0x3e2e9597	0.17049251
44	0x3e192b41	0.14957906
45	0x3c1cdc2c	0.009573977
46	0xbbf496bd	-0.0074642585
47	0x3db94d50	0.09047949
48	0xbdaaf7ea	-0.08348067
49	0xbd14775d	-0.036246646
50	0x3e729e5b	0.2369322
51	0xbda1fb57	-0.079092674
52	0x3df95c76	0.12175839
53	0xbe588dec	-0.21147889
54	0xbd194280	-0.037416935
55	0x3e2082a2	0.15674832
56	0xbd6d3f75	-0.057921845
57	0x3c8d08fe	0.017216202
58	0xbdc1ebc9	-0.094688006
59	0xbdbcbe9d	-0.09216044
60	0x3e8b898a	0.2725337
61	0x3cf2c0c2	0.02963293
62	0x3e39176d	0.18075342
63	0xbd35b7c0	-0.04436469
64	0xbd3ff591	-0.04686505
65	0xbe27d6f7	-0.16390596
66	0xbca8f0f0	-0.0206227
67	0xbe2469fc	-0.16056055
68	0xbe480a95	-0.19535287
69	0xbcf60e2e	-0.030036058
70	0xbd8a8d26	-0.06765203
71	0x3e23454f	0.15944408
72	0xbe32112a	-0.1738936
73	0xbd32d8f5	-0.043663938
74	0x3d883d45	0.06652311
75	0x3cd68f2a	0.026191313
76	0xbccc5ffd	-0.024948115
77	0xbd339ab0	-0.043848693
78	0x3ce53bce	0.027982619
79	0xbe26eaa2	-0.16300443
80	0xbd0926db	-0.03348432
81	0x3d42f95c	0.04760109
82	0x3d49ad87	0.049237754
83	0x3e0dc761	0.13845588
84	0x3cf6bb7a	0.030118693
85	0x3cf53d53	0.029936468
86	0x3d3d837c	0.04626797
87	0x3da6bfd2	0.081420556
88	0xbdcf0977	-0.10109227
89	0xbd2cdd09	-0.042202983
90	0xbcc955dc	-0.024577074
91	0x3da9968e	0.08280669
92	0x3e035a98	0.12827528
93	0x3dcb7650	0.09934676
94	0x3df77bd7	0.120841675
95	0xbcb71476	-0.022348624
96	0xbce9ba3e	-0.02853119
97	0xbc81d43e	-0.015848275
98	0x3deac3b2	0.11463107
99	0x3dabb1b1	0.08383501
100	0x3d9b6fb5	0.07589666
101	0x3b77f580	0.0037835538
102	0x3de185fc	0.110118836
103	0xbdf96a20	-0.12178445
104	0xbd9fa0ed	-0.07794366
105	0xbde2cd52	-0.11074318
106	0x3e052e8a	0.13006034
107	0xbd507f49	-0.05090264
108	0x3de88653	0.11353745
109	0x3ca3591b	0.01993995
110	0xbd5a4344	-0.053286806
111	0xbe5295de	-0.20564982
112	0xbdc856b2	-0.09782161
113	0xbdd104ae	-0.10205971
114	0x3db22e15	0.08700196
115	0x3e426973	0.18985538
116	0xbc09b20a	-0.008404264
117	0xbc9a3ce0	-0.018827856
118	0x3db7c012	0.089721814
119	0x3c74d716	0.014943859
120	0xbb0fc9b9	-0.0021940304
121	0x3dd973a7	0.10617762
122	0x3db4a50f	0.08820545
123	0x3d94c771	0.07264603
124	0xbe19785f	-0.14987324
125	0x3dc1d06f	0.09463584
126	0x3d98f97e	0.07469462
127	0xbc0577e3	-0.008146259
128	0xbe775a0c	-0.24155444
129	0xbd835f88	-0.064147055
130	0xbd48c596	-0.049016558
131	0xbd1dd80d	-0.03853612
132	0xbda36a9d	-0.07979319
133	0x3e1526bf	0.14565562
134	0x3d48aa66	0.04899063
135	0x3d696715	0.056983072
136	0x3c96c4e5	0.018404434
137	0x3dbffdc2	0.09374572
138	0xbdfe2bc4	-0.124106914
139	0x3debfb7f	0.115225784
140	0x3e3b39bd	0.18283744
141	0xbe2041b5	-0.15650065
142	0x3db00dbb	0.08596369
143	0xbddbcd64	-0.107325345
144	0x3d8bef66	0.06832771
145	0x3dffc0a7	0.124879174
146	0xbda3418e	-0.07971488
147	0xbc3ea519	-0.011636042
148	0xbe04296d	-0.12906428
149	0x3b7b5f89	0.0038356504
150	0x3e309835	0.17245562
151	0xbdc7d64e	-0.09757672
152	0x3e3cb4c1	0.18428327
153	0xbda50784	-0.08058074
154	0xbdfeda23	-0.1244395
155	0xbe2e2154	-0.17004901
156	0xbdf1e1da	-0.11810656
157	0xbe6be01f	-0.23034714
158	0xbe84185e	-0.2579984
159	0xbdbbbca4	-0.0916684
160	0xbdac7c38	-0.0842213
161	0x3def7199	0.11691589
162	0xbd589554	-0.052876785
163	0xbdb85dc7	-0.090022616
164	0x3d1e397e	0.038629048
165	0xbd1751e4	-0.03694333
166	0xbd856ed1	-0.06515277
167	0x3dedfc7c	0.11620423
168	0x3d0a92a9	0.033831272
169	0xbda3851a	-0.079843715
170	0x3d821f96	0.06353681
171	0x3ceb7cc8	0.028746024
172	0xbcd1ed05	-0.025625715
173	0x3e4b5f73	0.1986063
174	0x3d50da0f	0.050989207
175	0x3ddba9dc	0.107257575
176	0x3dae8469	0.08521349
177	0x3d9e7f39	0.077391095
178	0xbe049c82	-0.12950328
179	0x3caed1d8	0.021340296
180	0xb81d3291	-3.747881e-05
181	0x3c1d2016	0.009590169
182	0x3e1cc182	0.15308192
183	0x3dad266c	0.08454594
184	0x3daa6d33	0.08321609
185	0x3d21c62f	0.039495643
186	0xbd5b4126	-0.053528927
187	0xbba9910c	-0.0051747616
188	0x3d9cbfad	0.07653747
189	0x3d10a59a	0.03531418
190	0xbadd5999	-0.0016887664
191	0x3cdc983a	0.026928056
192	0x3d907a7c	0.07054612
193	0xbe07fa56	-0.1327909
194	0x3cb47c46	0.022031914
195	0xbe116d2d	-0.14201804
196	0x3ded5049	0.11587579
197	0xb95be354	-0.00020970154
198	0x3d8f03db	0.06983157
199	0xbd4cba74	-0.049982503
200	0x3b805665	0.003916549
201	0xbe5db96f	-0.21652769
202	0xbd9930c8	-0.074800074
203	0xbd981db8	-0.074275434
204	0x3d582975	0.05277391
205	0x3e30cfe6	0.17266807
206	0x3bf0b059	0.007345241
207	0x3b369a0c	0.0027862815
208	0x3e15007a	0.14550963
209	0x3d89f35d	0.06735871
210	0xbd2a4289	-0.04156736
211	0x3d835c56	0.06414096
212	0x3da0b672	0.07847299
213	0x3dd67dd3	0.10473218
214	0xbd9af68b	-0.075665556
215	0xbd93cc25	-0.07216672
216	0xbc9eb15a	-0.019371677
217	0x3c9f6f6c	0.01946231
218	0xbe74d315	-0.23908646
219	0xbcb045bf	-0.021517633
220	0xbe1463a2	-0.14491132
221	0xbca71be1	-0.020399036
222	0xbdb11b70	-0.086478114
223	0x3e0b43fc	0.13600153
224	0x3ce95305	0.02848197
225	0x3d930154	0.07177988
226	0xbdab03fd	-0.0835037
227	0x3d2acb38	0.04169771
228	0xbe163383	-0.14668088
229	0x3d8a415d	0.06750748
230	0x3e71f837	0.23629843
231	0xbe0b8b0a	-0.13627258
232	0x3d6d278d	0.057899047
233	0xbe232fbf	-0.15936182
234	0x3ce9b31e	0.028527793
235	0x3dc7750f	0.09739124
236	0x3c67c4c2	0.014146032
237	0xbd64eb77	-0.05588862
238	0xbdccdda7	-0.10003214
239	0x3d477c6b	0.04870264
240	0x3e56391c	0.20920223
241	0xbcb47c37	-0.022031887
242	0x3dea25cb	0.1143299
243	0xbd1e718e	-0.038682513
244	0xbd47a803	-0.048744213
245	0xbe404979	-0.18778028
246	0xbc8bc23a	-0.017060388
247	0xbe532f3a	-0.20623484
248	0xbe0bcb02	-0.1365166
249	0xbd67a8b1	-0.05655736
250	0xbcd066ad	-0.025439585
251	0x3e327b3e	0.17429826
252	0xbdfd40ab	-0.1236585
253	0xbb6e2aca	-0.0036341422
254	0xbd8edbd6	-0.06975524
255	0x3d2d7bd5	0.042354424

bias f4 [90]
0	0x3d983d6e	0.07433592
1	0x3e142439	0.14466943
2	0x3d225c7c	0.03963898
3	0x3d1f9d90	0.038968623
4	0x3dcaa946	0.098955676
5	0x3db709f9	0.08937449
6	0xbc650ff1	-0.0139808515
7	0xbdcb198a	-0.099169806
8	0xbabf1bec	-0.0014580465
9	0x3c6520af	0.013984843
10	0x3d5a5e10	0.05331236
11	0x3c8dd00a	0.017311115
12	0x3db7c980	0.0897398
13	0x3d8c6c08	0.06856543
14	0x3e56f28e	0.20990965
15	0x3e14e2b1	0.14539601
16	0x3e8d9275	0.276508
17	0x3e70fb2b	0.23533313
18	0x3e490986	0.19632539
19	0x3e33e664	0.17568356
20	0x3ddddfc7	0.10833698
21	0x3dce457f	0.10071849
22	0x3c25f8e0	0.010130137
23	0xbb74ae93	-0.00373355
24	0xbdb0cf09	-0.08633239
25	0xbe4c2d32	-0.19939116
26	0xbe211d7e	-0.15733907
27	0xbe33feb4	-0.1757763
28	0xbe3097d0	-0.17245412
29	0xbe0807dd	-0.1328425
30	0xbde0216b	-0.10943874
31	0xbda995d5	-0.08280531
32	0xbb642296	-0.0034810654
33	0xbcc7fb3b	-0.024411788
34	0x3da37860	0.07981944
35	0x3deca13d	0.11554191
36	0x3e1ac7ae	0.15115234
37	0x3e50dbdb	0.20396368
38	0x3e0b94fe	0.13631055
39	0x3e1bad09	0.15202726
40	0x3e1c032a	0.15235582
41	0x3d484cbd	0.04890131
42	0x3d679dd7	0.056547012
43	0x3d705655	0.058676083
44	0x3d123342	0.035693415
45	0xbe2cf2c8	-0.16889489
46	0xbe061e95	-0.13097604
47	0xbe869d21	-0.26291755
48	0xbe4bf6e4	-0.199184
49	0xbe92250a	-0.28543884
50	0xbe73f5e6	-0.23824272
51	0xbe63ebb8	-0.22257888
52	0xbe614c0c	-0.22001666
53	0xbdc45e6d	-0.09588323
54	0xbd7655e3	-0.0601405
55	0xbce36d62	-0.027762119
56	0xbc6feb6a	-0.014643529
57	0x3c7ad678	0.015309922
58	0xbd220720	-0.039557576
59	0xbd0f0c53	-0.034923863
60	0x3be38146	0.006942901
61	0xbcf09c62	-0.029371444
62	0xbc9521b9	-0.018204557
63	0xbd44a604	-0.048009887
64	0xbcd1a8da	-0.02559321
65	0xbd747143	-0.059678327
66	0x3c68f9af	0.014219685
67	0xbc3713aa	-0.011174122
68	0x3c3d260c	0.011544716
69	0xbce905d0	-0.028445154
70	0xbd3cfa0d	-0.046136905
71	0x3badff49	0.0053099734
72	0x3c1b1f0c	0.009467851
73	0xbdcba5f9	-0.09943766
74	0x3c3ac1ba	0.011398727
75	0xbdb3e90a	-0.08784683
76	0x3d957f5c	0.072996825
77	0xbd043f57	-0.032286968
78	0x3d439297	0.04774722
79	0x3de3fa85	0.11131767
80	0xbcd5f87a	-0.02611946
81	0x3daa32b8	0.08310455
82	0x3d11eaf7	0.03562447
83	0x3caf7533	0.02141819
84	0xba1f6b49	-0.00060813554
85	0x3c76ca9a	0.015062952
86	0x3d203c64	0.039120093
87	0x3dc26810	0.094925046
88	0x3d880844	0.066422015
89	0x3d6081ed	0.054811407
