knn/models/pretrained-autoencoder/autoencoder-in_features120-latent_size3.pt (torch, 49890 bytes, 12 tensors)

weight f4 [27, 120]
000000 29 58 b4 bd 72 67 09 be 2d d0 e5 bd 8d ba 5c bd
       -0.08805878 -0.13418368 -0.11221347 -0.053888846
000010 55 0e 7d bd 99 06 07 be 1b 05 22 bd 68 4d bf bd
       -0.061781246 -0.1318611 -0.03955565 -0.09340936
000020 e7 2c c5 bd d3 30 eb bd 7c 74 30 bd 92 16 6c bd
       -0.09627705 -0.11483922 -0.04307984 -0.057638712
000030 96 2b d2 bd 4d af 9d bc 0b a4 17 bc b0 ab 05 bd
       -0.102622196 -0.019248629 -0.0092554195 -0.032634437
000040 61 93 a3 bd 4f d3 8a 3b d3 79 cd bd 18 a6 e9 bc
       -0.07987095 0.0042366157 -0.10033002 -0.028521582
000050 35 65 7d 3c 0b a1 d5 bd 21 10 ad bc 66 d0 ff 3c
       0.015466024 -0.10431107 -0.021125855 0.031227302
000060 6c fc dd bc c2 b6 15 bc fc f4 1e 3d 01 ce 89 bc
       -0.027097903 -0.009137811 0.038807854 -0.016821863
000070 16 4c 1c bd 75 d0 64 3d 12 a3 4c 3d d3 5c 0d bc
       -0.0381585 0.055862863 0.049960203 -0.008628088
000080 5e 88 17 3c f2 57 20 3d ae 0c 90 3d ec 4c 82 bc
       0.009248821 0.03914637 0.070336685 -0.01590582
000090 6f 11 29 3d 69 b6 35 3d 9d 5a 07 3d 9c b1 68 3d
       0.04127639 0.044363413 0.0330454 0.056810006
0000a0 55 c5 8b 3d d1 9d 4c 3d 9a f9 4b 3d 49 8c d2 3c
       0.068247475 0.049955193 0.049798585 0.025701659
0000b0 78 14 b2 3d 1f 53 90 3d c3 11 b8 3d 90 82 47 3d
       0.0869531 0.07047104 0.08987763 0.0487085
0000c0 e0 62 26 3d 51 9e 28 3d 18 d1 c3 3c e8 9a cc 3d
       0.04062164 0.041166607 0.023903415 0.099904835
0000d0 5f cf ba 3d ee 2c 79 3d fc b5 a1 3d d4 f6 5e bc
       0.09121584 0.060833864 0.07896039 -0.013608653
0000e0 c1 c5 d6 3d eb e6 f4 3c 36 58 1f 3d dc 64 af 3d
       0.10486937 0.029895267 0.038902484 0.08564159
0000f0 13 71 08 3d 1e e4 66 3c 26 f8 ae 3d bd 3f d4 3d
       0.03331096 0.014092473 0.08543424 0.103637196
000100 83 49 11 3d 50 8f c7 3c c9 d8 4e 3d 43 7c 2a 3d
       0.035470497 0.024360329 0.05049971 0.04162241
000110 a1 66 3d 3d 76 46 e6 bc 09 42 4e 3c bf 8b dc 3c
       0.046240453 -0.02810977 0.012588986 0.026922105
000120 32 66 86 3d fd be 4a 3b 49 6c f5 3c 66 a9 f9 bb
       0.06562461 0.0030936592 0.029958861 -0.007619071
000130 4f 88 ec 3c 3d bf ca bc 13 c4 f4 3c 69 4e c1 ba
       0.02887359 -0.024749393 0.029878652 -0.00147481
000140 6c d7 5f 3c 59 9e f6 3c ff 18 82 bd 25 2f 87 3c
       0.0136622 0.030104803 -0.06352424 0.016501972
000150 2c 4a 9c 3b 81 80 5e bc 98 92 71 bb 79 1b 65 3c
       0.004769584 -0.013580442 -0.0036861058 0.013983601
000160 6f 33 1a bd 2d 3a 90 3c ae 55 f2 bc c2 d6 0d 3d
       -0.037646707 0.017605865 -0.02958187 0.034628637
000170 c2 00 27 bd 6c ba c4 3c 47 96 79 bd 0a ec 2f bc
       -0.040772207 0.024014674 -0.06093433 -0.010737428
000180 8f a0 85 bc 95 0a 9f 3c 5a a1 1d 3d f7 28 0d bd
       -0.016311912 0.019414226 0.038483955 -0.034462895
000190 64 bf 03 bd 27 3a 9b bc a6 ba b0 3c 69 b0 1f bb
       -0.032164946 -0.018948628 0.021573376 -0.0024366623
0001a0 78 b4 8f bb bf 44 0b 3d a9 79 13 bd 8c 11 1b 3d
       -0.004385527 0.03400111 -0.036004696 0.03785853
0001b0 48 3f b8 3c a5 15 46 3c 48 22 48 bc 4e cf 5a bc
       0.022491112 0.012090121 -0.012215205 -0.013355089
0001c0 3a 6a 84 3c 46 83 46 3d e1 6d 8f 3d 61 8f 9f 3c
       0.016163934 0.048465036 0.070033796 0.019477548
0001d0 fc 37 0e bc ef 0b 34 3d 4e f9 59 bc 77 41 55 3d
       -0.00868034 0.043956693 -0.013304068 0.052064385
0001e0 b8 84 e9 bd 68 12 ba bd 10 6f d3 bd 86 70 b1 bd
       -0.11402267 -0.09085542 -0.10323918 -0.0866404
0001f0 88 58 c4 bd 8f 38 41 bd ff 57 e7 bb a4 a5 00 be
       -0.095871985 -0.04717308 -0.0070600505 -0.12563187
000200 a1 fa a4 bd f5 52 a0 bd 93 17 09 3c c0 24 28 bc
       -0.08055616 -0.07828323 0.008367437 -0.010262668
000210 37 cb 6c bd 3a 21 e5 ba 40 85 0c bc 6c 0a 92 bd
       -0.05781099 -0.0017481216 -0.008576691 -0.07130894
000220 3f b8 ed 3c 3d c5 cc 3c bc 3e ac 3c 28 87 ef bb
       0.02901852 0.024996394 0.021026008 -0.007309813
000230 ad b7 99 3d 70 0a 76 bb e6 64 64 3d ba bd 59 3c
       0.075057365 -0.0037542842 0.055760287 0.013289863
000240 9b 15 13 3d 17 29 93 3d 3a d1 e1 3d 97 7a 8d 3c
       0.035909276 0.07185572 0.11026235 0.01727037
000250 77 f7 b8 3d b7 33 26 3d 97 bb 97 3d 3a 19 ae 3d
       0.09031575 0.040576663 0.07408827 0.08500905
000260 a3 11 f5 3c 44 48 a3 3d 6c 75 dd 3d 02 8a bf 3d
       0.029915636 0.07972768 0.10813412 0.09352495
000270 68 f2 ad 3d 53 31 ce 3d 72 38 96 3d a7 4b c6 3d
       0.08493501 0.100680016 0.07334985 0.09682398
000280 b2 d1 98 3d 81 03 f9 3d 12 f3 8f 3d ba d4 c1 3c
       0.07461871 0.121588714 0.07028784 0.023661006
000290 0b c2 c3 3d 10 ba ef 3d 50 a3 9c 3c c0 1d 7d 3d
       0.09558495 0.117054105 0.019120842 0.06179595
0002a0 a2 27 c3 3d f9 18 e8 3c ef fa 8f 3d 7d 3c cf 3c
       0.09529044 0.02833222 0.07030284 0.025297398
0002b0 0b be 6f 3d 0f 1c bf bc b7 c8 9b 3d 14 75 e6 3c
       0.05853085 -0.023328809 0.07606643 0.028132
0002c0 a9 ac 89 bd db 7f 48 3c 3f 84 45 bc df f2 71 3b
       -0.067223854 0.012237514 -0.012055456 0.0036918444
0002d0 86 2d 88 bc f1 54 cd bc ee 70 c8 bd e5 4b 87 bc
       -0.01662327 -0.025064917 -0.09787165 -0.016515682
0002e0 23 f2 72 3c a4 53 99 bd bf 59 c0 bc 62 18 86 3b
       0.014828238 -0.07486656 -0.023480294 0.004092262
0002f0 a5 dc f6 bb bd 7b 20 bd b1 91 1a bd 0f 7b 0a bd
       -0.007533627 -0.039180506 -0.0377366 -0.033808764
000300 d1 e5 1a be 72 9e d7 bd 33 d3 18 bc 19 b7 36 bd
       -0.1512673 -0.10528268 -0.009327698 -0.04460821
000310 e5 8f bb bd df dd 27 bd e7 20 fc bd 7f e4 e2 bd
       -0.09158305 -0.040983077 -0.12310963 -0.110787384
000320 bb c7 13 bc 41 39 ad bd f7 e5 56 bd 33 f9 8e bd
       -0.009019787 -0.08458186 -0.052465405 -0.06981125
000330 fb ee 6f bd 1f 94 51 bd ce 7c b2 bd 58 94 9a bd
       -0.05857752 -0.05116665 -0.08715211 -0.075478256
000340 16 d1 99 bc fb 3f ed bd e4 cb de bc 95 64 57 bc
       -0.018776458 -0.11584469 -0.027196832 -0.013146539
000350 ce 74 be bd cf 11 5a bd 66 8e 98 3c 20 cf 13 bd
       -0.092996225 -0.05323964 0.018622588 -0.0360862
000360 2e 85 dc 3c b9 f6 a2 3c 5a c6 9f bd 9b 3a d1 bc
       0.026918974 0.019893037 -0.078015044 -0.02554064
000370 c5 a0 3f 3c 42 ad c1 bc 19 54 c2 3c c3 fd 8f 3c
       0.011696045 -0.023642186 0.023721742 0.017577058
000380 dd 60 e0 bc ab 79 62 3c 03 d4 1c 3d ba 95 ae bb
       -0.027389938 0.013822953 0.038288128 -0.0053279074
000390 27 56 fa 3c b9 fe ad 3d 61 31 83 bc f3 35 39 3d
       0.030558659 0.0849585 -0.016014757 0.045217466
0003a0 29 d1 00 bd d9 5f c1 3d dc e7 2e bb f7 ae 0d bb
       -0.03144947 0.094421096 -0.0026688492 -0.002161918
0003b0 d2 46 02 3d b4 f4 d4 3d 3c 89 93 3d 46 83 29 3d
       0.03180582 0.10398236 0.0720391 0.041384958
0003c0 43 5d af 3b b2 1c 01 3d 03 ba 56 bd 62 9d 85 3d
       0.005351694 0.031521507 -0.05242349 0.06524159
0003d0 c9 97 3d bd 8b f3 35 bc db 6c 51 3d 2a 1d 73 bc
       -0.04628733 -0.011105428 0.051129203 -0.014838496
0003e0 77 e5 6b bb 67 59 35 3d dd 4b 40 bd 89 41 47 bc
       -0.0035994926 0.044274714 -0.04694735 -0.012161621
0003f0 2a fe f4 bc eb c8 74 3c a4 88 d8 3c 0b cc bb 3c
       -0.029906351 0.014940481 0.026432343 0.022924444

bias f4 [27]
000000 f6 8a b0 3e f7 4e cb bd 53 8a 53 3e ee e2 d9 3e
       0.3448102 -0.09927171 0.20658235 0.42555946
000010 96 10 b3 3c ec a1 a9 3e da e0 50 bd e6 ae 89 3e
       0.021858495 0.3313135 -0.050995685 0.2689125
000020 5b 29 fb 3e b8 ba 88 3e 41 8e 03 3e 04 7a ef bd
       0.4905499 0.26704955 0.12847234 -0.116931945
000030 91 dd e5 bd 3f da da 3d d1 38 db 3e 25 3b a5 be
       -0.11223901 0.106861584 0.42816785 -0.32271686
000040 35 73 9c 3e 64 1d 35 be ed 68 d0 3c 56 1f d8 3e
       0.30556646 -0.17686993 0.025440658 0.42211407
000050 fa 41 2d be 4c d0 1f bc 1c 82 ce bb 33 a0 f8 3e
       -0.169197 -0.009754252 -0.0063021313 0.48559722
000060 58 6c 49 3f f1 8c c9 3e a7 3d 3b bd
       0.78680944 0.39365342 -0.045713093

weight f4 [9, 27]
000000 61 66 a2 be be e2 0e bc 03 b5 4f be cf 2b 2b 3c
       -0.31718734 -0.008721052 -0.20283894 0.0104474565
000010 26 78 ea bd dc bc e4 3c 73 c8 0a be db 28 65 3e
       -0.11448698 0.027922086 -0.13553028 0.22378866
000020 15 4e 07 be 2d 67 04 3e 26 f5 f7 3d 2c fc 16 bd
       -0.1321338 0.12929983 0.12107305 -0.036861584
000030 69 79 58 be 57 3a 7d 3d 82 bc 47 be 99 fc c4 bd
       -0.21140064 0.061823215 -0.19505504 -0.09618492
000040 16 39 0b 3d 04 c8 ed 3d f9 f8 3a bd 77 0e 12 3e
       0.03398999 0.116104156 -0.045647595 0.1426333
000050 8d 6b 9c bc 05 f0 43 bd 51 c8 14 3e 28 15 68 3e
       -0.019094253 -0.047836322 0.1452954 0.2266432
000060 df 3b 63 3d 1a 06 93 3d cf c6 c7 bc da 47 88 3e
       0.05547702 0.07178898 -0.024386792 0.26617318
000070 6d e6 4e be 04 e6 a7 bd 9a 8a d7 bd 55 f0 52 3e
       -0.20205088 -0.08198169 -0.10524483 0.20599492
000080 c7 c2 ad 3d 49 bd ce bc 07 b8 15 bd ab 00 fb 3d
       0.084844165 -0.025236743 -0.036552455 0.12255987
000090 00 a8 aa 3c 43 d3 fb bd ba 15 35 bd d8 aa aa 3c
       0.020832062 -0.12296154 -0.044210173 0.020833418
0000a0 2f 5c 47 3d 41 d5 24 be 36 de 37 3d c3 af 85 3e
       0.048671898 -0.16096975 0.04488965 0.26110658
0000b0 3b e0 66 3e b6 67 11 3e 5d 36 96 3d 5b 96 1f be
       0.22546475 0.14199719 0.07334588 -0.155847
0000c0 c7 6a ce bd 6f 50 0a bd 99 02 1c 3e ce 3f 8b 3c
       -0.1007896 -0.033768114 0.15235366 0.016998198
0000d0 b1 b4 9e 3e ca 15 67 be 42 e7 f9 3d cd 51 10 be
       0.30997232 -0.22566906 0.12202312 -0.14093705
0000e0 40 89 98 bd 5f a3 24 be 94 96 8b 3d 5f a6 f7 bd
       -0.07448053 -0.16077946 0.0681583 -0.1209228
0000f0 69 fe c4 3d d9 e6 ca bd 70 f6 62 3e 46 33 93 bd
       0.096188374 -0.09907312 0.22164321 -0.07187514
000100 0c 51 28 bd 71 da ae bd a2 ff d2 3d c9 dd e7 3d
       -0.041092917 -0.08537758 0.10302664 0.11321599
000110 57 de 6e be 3e d5 41 3d 98 09 91 be 38 2c 90 bd
       -0.23327003 0.047322504 -0.28327632 -0.07039684
000120 96 2b 01 be 24 a0 dc 3d 35 ab a4 bd 3d 13 0b 3c
       -0.12614283 0.10772732 -0.08040468 0.0084884735
000130 fd 8f d5 bd bf 14 4d 3e 88 c4 e5 3d 18 ce 3a 3e
       -0.10427854 0.20027445 0.11219126 0.18242681
000140 f3 e8 63 bd 6e a7 80 3c 18 7b 19 3e bf 95 ee 3d
       -0.05564208 0.015704837 0.14988363 0.116496556
000150 ea 5d 57 3d 96 26 3b 3d 0e 56 19 3d cd bf 73 be
       0.052579798 0.045691095 0.037435584 -0.23803635
000160 09 9e 59 be 2b b9 61 3e fa 30 ab 3c 10 fb 1a be
       -0.21251692 0.22043292 0.020897377 -0.15134835
000170 c1 a8 2c be 6c 72 e4 3c 3c 3b 5e 3d 15 a5 37 bd
       -0.1686125 0.027886592 0.05425571 -0.04483517
000180 8e 8b 94 be 10 77 12 bb cb 19 90 be 9d f0 97 bc
       -0.29012722 -0.0022348799 -0.28144678 -0.01854735
000190 8c 12 1e 3e a0 97 3c be fc 49 b6 bc 84 12 40 be
       0.15436763 -0.18417215 -0.022252075 -0.18757063
0001a0 ce bf 28 3e b0 00 2a 3e fa 90 63 3d 9b a7 94 3d
       0.16479418 0.16601825 0.055558182 0.07258531
0001b0 1f 02 20 be e4 e4 94 be 1e 01 16 3e be 28 c0 be
       -0.15625809 -0.2908088 0.14648864 -0.37531084
0001c0 04 d6 17 be 85 7a 5b 3e 4f 23 4d 3d 94 2e 79 3d
       -0.14827734 0.21433456 0.0500825 0.060835436
0001d0 28 5d 38 bd e2 76 6c 3e 37 94 2a be dc 02 ea bd
       -0.045010716 0.23092225 -0.16658102 -0.11426327
0001e0 c9 6e 02 bf b8 a7 72 3d 4b c0 f3 3c 30 bb 49 be
       -0.50950295 0.05924198 0.029754778 -0.19700313
0001f0 3b 04 b1 3d 3e 61 91 bd fd 3b 3c be 62 5f c9 3d
       0.08643385 -0.070986256 -0.18382259 0.09832646
000200 04 d0 8e be 09 7b 4c be d5 9e 3a be 20 d7 1d 3e
       -0.27893078 -0.19968809 -0.18224652 0.15414095
000210 76 67 17 3e 13 d4 a2 3d 34 9e ee be 04 e9 9a 3c
       0.14785561 0.07950606 -0.46605074 0.018909939
000220 21 5a 76 bd ce 67 cb 3b ac e3 06 3d 9a cf 07 be
       -0.060144547 0.006207443 0.03293197 -0.13262787
000230 69 18 2e 3d a7 b8 ba bd 8e ce e9 bd ab 8c 3b 3e
       0.042503748 -0.09117251 -0.1141635 0.1831538
000240 60 dd 7d be cb 64 ad bc 85 22 3e be 40 80 8c bd
       -0.24791479 -0.021166226 -0.18567856 -0.06860399
000250 6a 74 37 3d 17 5f cd 3d 32 c1 77 be d0 b1 7c be
       0.044788755 0.100279026 -0.24194792 -0.24677205
000260 2d 30 03 bf bb 57 ff bd da f3 10 3e a3 ad e3 bd
       -0.51245385 -0.12467905 0.14155522 -0.11117103
000270 be 35 84 3d d0 63 d5 3c 75 31 01 3e 0d 56 11 3f
       0.06455563 0.02604857 0.12616523 0.5677193
000280 0e b2 cc bd 8b 28 8a 3d 41 96 97 bd 7f f0 76 3e
       -0.09994899 0.06746014 -0.074017055 0.2411518
000290 7a 8b cd bd 9e cd 59 bd 84 ce 5f be 42 81 7d 3e
       -0.10036369 -0.053174607 -0.21856123 0.24756339
0002a0 df 9e 37 bd 7c dd ac bd 69 96 37 bd 6f f3 79 be
       -0.044829246 -0.08440682 -0.044821177 -0.24409269
0002b0 d4 d3 f2 3b 79 9a 06 be 9b 06 a5 bd ad 27 25 3e
       0.007410506 -0.13144864 -0.080579005 0.16128416
0002c0 2c 5d 66 be 29 a6 ab be 30 0e 41 3e 88 36 c9 3d
       -0.2249648 -0.33525208 0.18853068 0.09824854
0002d0 7f 73 1d be 84 52 69 3e 84 74 8c be f8 15 ce bd
       -0.1537609 0.22785383 -0.27432644 -0.10062784
0002e0 ce 3c e1 bd f1 35 3b 3e e9 bf 35 3e 3d 03 e6 3d
       -0.10997926 0.18282296 0.17748989 0.112310864
0002f0 b9 f3 48 3d 9a 68 4c 3e 8b c0 35 3d 8a 13 23 3e
       0.049060557 0.19961777 0.044373076 0.15925422
000300 26 47 45 be e9 f7 35 3d 07 54 d1 bd 33 a4 28 bd
       -0.19265422 0.04442588 -0.10221105 -0.041172218
000310 c6 44 1c bd 72 a7 76 3e b1 26 2b 3e d7 c3 65 be
       -0.038151525 0.24087313 0.16713978 -0.22437988
000320 de 32 39 be 81 60 25 3c 97 1f d0 3d c7 30 61 3e
       -0.1808581 0.010093809 0.10162275 0.21991263
000330 d9 46 0c bd 79 7d 56 be 64 67 93 bd 3c 48 63 3d
       -0.034247253 -0.20946302 -0.071974546 0.05548881
000340 a4 8b 1d 3e 4b 09 01 bd 1e 17 b5 3a fa b7 0a 3d
       0.153853 -0.031503003 0.0013816094 0.03386686
000350 77 e1 27 3e 24 00 9c 3e f1 f4 d2 bc f4 13 e6 bd
       0.16394602 0.30468857 -0.025751563 -0.112342745
000360 0c 33 23 be 72 2a 00 3e bf cc c7 3d 99 4e 1f be
       -0.15937442 0.12516192 0.09755849 -0.15557326
000370 a2 36 09 be 0d e4 00 3e 94 16 2a 3e 3d fd 96 3e
       -0.13399747 0.12586994 0.16610175 0.2949008
000380 db 71 e4 bd 14 71 78 3d 18 e2 17 3e 8d 71 08 3e
       -0.11154529 0.060654715 0.14832342 0.13324566
000390 80 b7 65 bc 77 1d 96 3d 8f ba e4 3c 88 bd 22 be
       -0.014020801 0.07329839 0.02792099 -0.15892613
0003a0 16 28 cf bd c9 99 1b be 3b 6f b7 3d 60 04 06 3e
       -0.10115068 -0.15195383 0.089567624 0.13087606
0003b0 df d8 58 bd 06 87 1a bc 67 a5 1e 3e 19 45 4a bc
       -0.0529412 -0.009431606 0.15492783 -0.012345576
0003c0 cd 5b 67 3e 63 85 ef bd 7e f6 23 bc
       0.22593613 -0.116953634 -0.010007499

bias f4 [9]
000000 4d a9 e9 3e 0c 30 73 3e 08 30 b3 3e d8 23 bc 3e
       0.4563698 0.23748797 0.34997582 0.36746097
000010 26 f9 84 3f 8f f2 17 3f 02 b0 39 3f b0 cf e5 3e
       1.0388534 0.5935449 0.7253419 0.44885015
000020 1f d5 bf 3e
       0.37467286

weight f4 [3, 9]
000000 be 47 31 bf 3f 6f 7b 3e 82 b6 b1 3e 11 dc 8a 3e
       -0.69250095 0.24554156 0.34709555 0.27121022
000010 e0 a9 d2 3e bd fd 76 bb f2 32 49 bf 53 12 42 3f
       0.4114523 -0.003768786 -0.7859336 0.7580921
000020 f1 bd b6 be f8 73 6a be 4f b6 55 bc 19 d5 d4 bd
       -0.3569179 -0.22895801 -0.013043954 -0.10392208
000030 fe bd f4 3e cc fc a6 bf 12 5d 67 3f e9 31 8f 3e
       0.47801203 -1.3045897 0.9037639 0.27967766
000040 92 fd 8c bc 18 f9 b4 bd 80 37 12 be 8d 49 1d 3f
       -0.017210755 -0.08836573 -0.14278984 0.61440355
000050 20 a1 f2 3e 89 19 02 3f a9 06 04 3b b1 3f cf be
       0.47388554 0.50820214 0.0020145571 -0.4047828
000060 35 fc 30 3f 18 d3 05 bf d4 bf 26 bf
       0.6913484 -0.5227523 -0.65136456

bias f4 [3]
000000 74 81 9e bc 68 37 1e 3f 15 d2 fa 3d
       -0.019348837 0.61803293 0.12247101

weight f4 [9, 3]
000000 89 4d e0 3e 00 22 fd be c4 06 2f bf fd 52 a4 be
       0.43809155 -0.49440002 -0.683697 -0.32094565
000010 95 6a 51 bf f2 4d 0b 3f 50 22 f6 be 2a bb 8c 3f
       -0.81803256 0.5441581 -0.48073053 1.0994618
000020 69 be 80 3e 7f 1f 8a 3e e3 c1 c3 3e a0 ad b9 be
       0.2514527 0.26977155 0.3823386 -0.36265278
000030 fc 93 49 bf 54 d9 10 bc f3 c8 04 bf 0d 35 86 3e
       -0.7874143 -0.008840878 -0.51869124 0.2621235
000040 dd 45 1c bf 1d 42 a1 be ad 8c 79 3e 98 73 13 3f
       -0.610441 -0.31495753 0.2437007 0.5759826
000050 44 e8 ba be d6 f4 90 bd db 90 93 3e 05 5d 52 3e
       -0.3650533 -0.07077949 0.28821453 0.20543297
000060 b9 a4 51 3f be f8 56 3e 80 4c f6 3e
       0.8189197 0.20993325 0.4810524

bias f4 [9]
000000 ee 32 28 bf 1c 48 38 3f 8e ec ad be 76 01 21 3f
       -0.6570271 0.7198503 -0.3396954 0.62892854
000010 55 ba 2b 3f fb df 7c 3f c7 80 b3 3d a4 94 c1 3f
       0.67081195 0.9877927 0.08764797 1.5123487
000020 3e 4a 6b 3e
       0.2297754

weight f4 [27, 9]
000000 3c 91 f1 3c 15 15 98 bd e5 bc 1f be 66 e6 f4 bc
       0.029488198 -0.07425896 -0.15599401 -0.029895019
000010 25 c5 52 be e0 0d 12 bd e6 33 4b 3c a1 b0 dd 3d
       -0.20583017 -0.035657763 0.01240251 0.10824705
000020 c8 ac b0 3d b1 ea e4 be db e6 2f be d6 f1 ad be
       0.086267054 -0.44710305 -0.17177908 -0.3397357
000030 71 f2 92 3e a1 68 a3 be 1e 8c f4 3e b8 25 70 be
       0.28700593 -0.31915763 0.4776315 -0.23451889
000040 42 01 de 3d 88 2b c2 bd 15 f1 60 be 9f c3 85 3d
       0.10840084 -0.09480959 -0.21966965 0.065314524
000050 92 a2 34 3e d5 f8 5e be 65 ee f3 bd d2 56 0c bc
       0.1764014 -0.2177461 -0.119107045 -0.008565621
000060 a9 3c 1c 3e af bb ec bd 95 00 02 be e3 b4 b1 bd
       0.15257515 -0.11559235 -0.12695535 -0.086770795
000070 b5 97 de be 08 51 26 be 19 65 41 3e fc 37 ba be
       -0.43475118 -0.16241848 0.18886222 -0.36370838
000080 be d2 df be c3 a5 63 bd 5b 08 0d 3f 17 94 9c be
       -0.4371547 -0.055578005 0.55090874 -0.30581734
000090 84 38 00 bf 78 b9 a3 be 81 a3 22 bf 24 28 52 3d
       -0.50086236 -0.3197744 -0.6353074 0.051307812
0000a0 bc 50 fd be ef ca d9 3e e4 c1 c6 ba 5a ce e1 3e
       -0.49475658 0.4253764 -0.0015163985 0.44102746
0000b0 8e d9 90 3e ae 31 74 be c7 ba 96 3d 70 7f 81 be
       0.2829098 -0.23847076 0.07359844 -0.2529254
0000c0 8c 1e dc be 08 46 b1 3e f3 1e 03 3f 5e 79 93 3d
       -0.42992055 0.34623742 0.512191 0.07200883
0000d0 a7 bc 85 3e 5d d6 ef bd 46 eb e8 3d 10 7f 93 3d
       0.26120493 -0.117108084 0.11373 0.072019696
0000e0 8c 57 21 3e db 83 f7 3e 0e 27 62 3e 32 5b ab be
       0.15756053 0.48342785 0.2208521 -0.33468014
0000f0 d0 6a 10 be 40 7c 71 3e 31 e4 47 3e 2f 63 eb be
       -0.14103246 0.23582554 0.19520642 -0.4597411
000100 e3 c9 08 bf d1 2d 00 bf bc c9 d0 3c eb 34 b3 be
       -0.53433055 -0.5006991 0.02548682 -0.3500131
000110 f9 d6 99 bd 69 b9 94 be 4e 88 01 3f ea b7 e8 be
       -0.07511706 -0.29047707 0.5059861 -0.45452815
000120 bc 1b b9 be 7d f7 2d be dd f3 8d be 40 3d ab be
       -0.36153972 -0.1698894 -0.27725115 -0.33445168
000130 68 2e af 3e ee 71 c4 3c c5 c3 ce be 22 3c 05 3f
       0.34215093 0.023980107 -0.40383735 0.5204488
000140 65 ab c1 be be 18 9c 3e 4a 18 07 3f 8f ba b5 3e
       -0.37826076 0.30487627 0.5277144 0.35493895
000150 76 84 e7 3d 35 d8 fc 3e a9 19 8a 3d 36 a7 56 3e
       0.11304562 0.49383703 0.067431755 0.20962223
000160 4c cd 35 be 22 9b f6 3e c0 fe 60 3c 38 a4 2a 3e
       -0.17754096 0.48165232 0.013732612 0.16664207
000170 3d 57 97 3d 38 05 ae bd ea 93 4d be 03 b0 cc bd
       0.07389686 -0.08497089 -0.20075956 -0.09994509
000180 36 96 c7 bd 82 9d 49 3e e9 89 20 3e 87 c2 78 be
       -0.09745447 0.1968899 0.15677609 -0.24292956
000190 ae ad ec bd c0 47 99 be bc f4 ea be 5c bc bf be
       -0.11556564 -0.29937553 -0.45889843 -0.37448394
0001a0 52 7b f2 3c 81 ab 9e be c2 91 39 3f 5a 57 37 be
       0.02959982 -0.30990222 0.72488034 -0.17904416
0001b0 12 e3 82 3e 60 ae 08 3f f3 f3 e2 3e 41 70 6a 3e
       0.25563866 0.53391075 0.44326743 0.22894384
0001c0 b5 f2 80 3e 00 19 82 3e 92 10 4c 3d 8a 6a 4a be
       0.2518517 0.25409698 0.04982049 -0.19767204
0001d0 d1 2e 19 3e da 04 47 be a9 55 63 be a2 45 39 be
       0.14959265 -0.19435444 -0.22200646 -0.18092969
0001e0 6e 04 48 3e 1c 9f 4e bd 2f 57 9d 3e ea d2 57 3d
       0.1953294 -0.050444707 0.30730578 0.052691378
0001f0 21 ac db 3b 39 e7 32 be 1e 14 8a 3e 4e af f1 3e
       0.006703869 -0.17471017 0.26968473 0.4720406
000200 fd bb e8 3e a5 f9 48 3e 4b 70 95 3e 7f 13 cb 3e
       0.45455924 0.19626482 0.29187235 0.39663312
000210 62 3b f8 3e 7c d1 96 be a6 e8 ba 3e 84 31 d0 37
       0.48482805 -0.294567 0.36505622 2.481859e-05
000220 88 79 72 be 71 03 e3 3c 3c 31 fa 3d f8 a2 c3 bd
       -0.23679173 0.027711602 0.12216422 -0.09552568
000230 7c 0e 71 bb fe 19 15 bd b1 97 a8 be 62 4e 4a 3c
       -0.0036782315 -0.03640174 -0.3292823 0.0123477895
000240 da ee 48 3d 3c 61 68 be 32 e0 ef bd 4d eb 2e 3e
       0.04905591 -0.22693342 -0.11712684 0.17081948
000250 13 e8 e4 bd fb 0b 95 be f6 5b 44 bc 83 ab cb 3e
       -0.11177077 -0.29110703 -0.011984816 0.3977929
000260 6f 3f bd bd 5a ba cb bd 92 e7 ca 3e 37 bb 97 3e
       -0.092406146 -0.09947653 0.396298 0.2963502
000270 1a e5 91 be 59 b2 27 bc ca cc b0 3e 6c aa 3a be
       -0.28495103 -0.0102353925 0.34531242 -0.18229073
000280 c6 83 aa 3e ea d3 96 3b 50 bd f1 bd 2a bc 17 bd
       0.3330366 0.004602899 -0.118036866 -0.03704468
000290 32 a0 9d bd a4 9e 2b 3e f9 b7 5c 3d 52 ae cc 3c
       -0.076965705 0.16759735 0.053886387 0.024985466
0002a0 5d ce 54 be 8f ed b8 3d af 9c 66 be bd 59 41 3e
       -0.20781846 0.09029686 -0.22520708 0.18881889
0002b0 36 e1 c2 bd fb 85 8c be 72 84 68 be 66 24 d2 bd
       -0.09515612 -0.2744597 -0.22706774 -0.10260849
0002c0 ed 54 85 3c dc 6b a9 be 99 7f 89 3e 85 59 98 be
       0.016275847 -0.33090103 0.26855162 -0.29755798
0002d0 4f df 03 be e1 f2 a5 be 33 f8 e9 bc 17 fa a8 3d
       -0.12878154 -0.32411864 -0.028560733 0.08250826
0002e0 87 10 bd bd 7d 65 33 bd 3f e5 21 be e7 7c 62 3c
       -0.09231668 -0.04379796 -0.15810107 0.013823724
0002f0 51 48 87 3d 08 6d 2d be b6 8d d5 be 8a 43 40 3d
       0.0660559 -0.16936123 -0.4170968 0.04693941
000300 a7 38 00 3f 68 fc e9 bd 73 79 09 3f ec ac c3 3e
       0.50086445 -0.11425096 0.5370094 0.38217866
000310 a5 d7 30 3e 34 4c 52 be d8 f1 09 bf c1 8d 64 be
       0.17269762 -0.20536882 -0.5388465 -0.223197
000320 88 11 d3 be 62 91 fa 3e de f8 b3 3e 62 31 14 3f
       -0.41224313 0.48939043 0.35150808 0.5788785
000330 a4 05 11 bd 1e 1e 1a 3e 49 a3 da be 0d c6 96 be
       -0.03540577 0.15050551 -0.42702702 -0.29447976
000340 fd e3 ac bd 7a 37 98 be 29 a7 33 3d 7b 62 40 be
       -0.08441923 -0.29729825 0.04386059 -0.18787567
000350 c6 89 95 be 65 58 a9 3b 45 28 89 3d 72 70 f9 bd
       -0.29206675 0.005168008 0.06697134 -0.1217965
000360 13 7c a3 bd 83 4f b3 be 64 84 13 be be 53 48 3e
       -0.0798265 -0.350216 -0.14405972 0.19563195
000370 14 05 64 3e 01 60 d4 be dc d2 ce bd cb 9f 0d 3f
       0.22267562 -0.41479495 -0.10098812 0.5532195
000380 74 aa e3 be a4 66 e0 bd 13 96 fa 3d 1f fa 01 bd
       -0.44465983 -0.10957077 0.12235656 -0.031732675
000390 0d 39 9d bd d5 e9 fd be 25 bd 89 be 5f 36 47 be
       -0.07676897 -0.49592462 -0.26902118 -0.19454335
0003a0 b3 4f 0b 3f ec a5 df 3d d5 bc 34 be 4a c1 55 be
       0.54418486 0.10920319 -0.17650159 -0.20874515
0003b0 19 ea 42 be 91 e2 91 be a1 ed 58 3c bf 25 2a 3e
       -0.19034614 -0.2849317 0.013240249 0.16615961
0003c0 75 b9 ba be e9 16 6c 3d 05 ec 31 be
       -0.36469617 0.057639036 -0.1737519

bias f4 [27]
000000 5f d7 9e 3d 40 36 14 3f 43 50 82 be d5 2e 58 3f
       0.077559225 0.5789528 -0.2545186 0.8444646
000010 6c b1 56 3f 4a 96 71 3e 7b a1 6c be 91 fe db 3f
       0.83864474 0.23592487 -0.23108475 1.7187063
000020 6d f7 67 3f 0e 00 99 bf af 31 8f 3e 9d 39 77 3f
       0.90611917 -1.1953142 0.27967593 0.96572286
000030 69 91 40 bf 43 f3 18 3f dd 05 93 bf 4a 53 96 be
       -0.7522188 0.5974619 -1.1486164 -0.2936042
000040 75 1a 33 3e 12 1e 31 be ec db 65 3d ee 7c 16 be
       0.17490561 -0.17296627 0.056117937 -0.14696094
000050 6b 25 aa be a3 e5 dd 3d a0 82 00 3f f6 d4 6c bd
       -0.33231673 0.10834815 0.5019932 -0.057820283
000060 b1 ce 4d 3f fd 49 2e 3f 50 19 9c be
       0.8039351 0.6808165 -0.30488062

weight f4 [120, 27]
000000 8b f0 37 be 8f c2 15 3e f2 6e 2a be 41 0b 80 be
       -0.17962854 0.14625 -0.16643885 -0.25008586
000010 5e d4 01 be ac c3 48 3e e4 4d ce bd d2 2e ab 3e
       -0.12678668 0.19605893 -0.1007345 0.3343416
000020 d0 41 a1 3e 87 a4 c5 be 9f 54 a7 be 81 a7 71 3d
       0.31495523 -0.38602087 -0.32681748 0.058997635
000030 7e f2 12 be 21 d3 80 3e 67 63 78 be 8b 62 f2 bd
       -0.14350316 0.2516108 -0.24256669 -0.11835202
000040 96 d5 48 be ef af c7 3b cb 14 87 bd 33 83 02 bd
       -0.19612727 0.006093971 -0.06595763 -0.031863403
000050 28 e7 91 3d 41 a8 b4 bd 09 14 7e 3e 2a c8 2e 3e
       0.07124168 -0.088211544 0.2481233 0.17068544
000060 bc 98 d0 3d af 2e 97 be 7e 73 4e 3e c4 70 00 be
       0.10185382 -0.29527804 0.20161244 -0.12543017
000070 ca 9c 9d 3d 87 0e f2 bd 7b 5c 6c be aa 9f 4b bd
       0.07695921 -0.11819177 -0.23082153 -0.049712814
000080 50 05 19 3d 9b 9f 71 be 69 59 70 3e d6 f5 e2 3e
       0.037358582 -0.23596041 0.23471607 0.44328183
000090 ce 21 e6 be 4c e7 f0 3b 3f 00 a3 bc af b1 9f bc
       -0.44947666 0.0073517915 -0.019897578 -0.019493906
0000a0 08 06 49 3e e0 7e ab be c4 6e f8 bd a7 f8 53 be
       0.19631207 -0.33495235 -0.12130502 -0.20700322
0000b0 1a cd 33 3c 97 40 c1 3d 96 c6 1b be 76 d9 34 bd
       0.010974193 0.09436148 -0.15212473 -0.0441527
0000c0 c2 1f 85 bb 3a 1b 9f 3e 84 11 1c 3d 8a bf ee 3d
       -0.0040626237 0.3107546 0.03810264 0.11657627
0000d0 64 81 c7 be 5a 81 e4 3c 36 29 5c be df 39 5d 3e
       -0.38965905 0.02789371 -0.21500096 0.21604107
0000e0 bd 41 d9 bc f8 05 1e be 0f aa 08 be d9 99 38 3e
       -0.026520604 -0.15431964 -0.13346122 0.18027438
0000f0 72 52 e7 bd 61 61 93 3e eb fd 9d 3e c8 3b b9 be
       -0.11295022 0.28785232 0.30857787 -0.36178422
000100 1e 4c 4a be 49 22 82 3d b1 26 0b be 43 8d 7b 3c
       -0.19755599 0.063541956 -0.13588978 0.015353504
000110 10 f4 86 be ae f9 0e be 98 43 67 be 9d 75 e0 bb
       -0.2635808 -0.13962433 -0.22584379 -0.006849958
000120 c0 59 ca 3d df 79 2d bc 12 01 c1 bd b5 46 c6 bc
       0.098804 -0.010588138 -0.09424032 -0.024203638
000130 12 bc aa 3e 10 31 ef bd 26 d5 88 3d 01 83 ae be
       0.3334661 -0.1167928 0.0668128 -0.34084323
000140 b6 95 b7 3d ab 56 81 bc 87 d1 ca 3d 25 d0 a2 3d
       0.08964102 -0.015788397 0.099032454 0.07949857
000150 f7 41 60 be 60 f8 6f bd 43 25 d4 3d 9a a9 93 be
       -0.21900164 -0.05858648 0.103586696 -0.28840333
000160 f4 f6 69 3e 12 b8 d6 3e 5f 8d e4 be f8 3e 3d be
       0.22848111 0.4193731 -0.44639108 -0.18481052
000170 11 58 fa bd 65 6f b4 3d 55 bb 10 3e c1 c7 a6 be
       -0.122238286 0.08810309 0.14133961 -0.32574275
000180 9c 99 22 3e 65 d5 50 bc 19 75 70 bb e5 2d 39 bc
       0.1587891 -0.01274619 -0.003669089 -0.011302446
000190 c9 66 01 3e 98 be 18 3e 97 63 32 bd 64 37 b8 3e
       0.12636866 0.14916456 -0.043552008 0.3597976
0001a0 b1 40 3e be 52 16 06 3e 64 89 39 be 80 68 24 3e
       -0.18579365 0.13094452 -0.18118817 0.16055489
0001b0 8d bc bb 3d 76 60 aa 3d 35 68 af 3d 6d 49 56 be
       0.091668226 0.0831918 0.08564798 -0.20926447
0001c0 ab c0 14 be 12 42 0b 3e c7 52 d0 bd 92 19 a3 3e
       -0.14526622 0.13599423 -0.101720385 0.31855446
0001d0 d0 8b 9d 3e 62 1e d7 be 9d fc 4f bc 59 cb e6 bd
       0.3077073 -0.42015368 -0.012694505 -0.11269254
0001e0 c3 f7 49 3c e6 d2 f3 3d dd cb b6 be 99 24 8c bc
       0.012327137 0.1190546 -0.3570241 -0.017107295
0001f0 2e 2e 30 be b1 99 66 3d 2a ab 02 3e 9e 2e b6 3d
       -0.17205116 0.056298915 0.12760606 0.0889561
000200 0e df f4 bd 33 8f 61 bb da 46 a9 3e 74 b6 8d 3c
       -0.11956607 -0.0034417629 0.33061868 0.017298914
000210 e4 1a 00 3d 8b 67 bd be f5 74 c7 3c 6a de 1f be
       0.031275645 -0.3699306 0.024347762 -0.15612188
000220 1b ed 33 3e c6 c9 ca 3c 11 c6 b2 bd d4 68 2b be
       0.17570917 0.024754416 -0.087291844 -0.16739208
000230 02 14 87 3e fa 0f 4e be 0e a6 4b 3e 1f 96 a4 3e
       0.26382452 -0.20123282 0.19887564 0.32145783
000240 15 b3 9a be 3b 2f 68 be 09 f6 0f 3b d1 49 28 be
       -0.30214754 -0.22674267 0.0021966717 -0.16434409
000250 ff 83 c9 3d 48 89 3b be 8f da 45 3d 54 dc b5 bd
       0.098396294 -0.18314087 0.048304137 -0.08879915
000260 aa a1 40 bd 0e 99 ca 3d e5 b6 38 3e a1 84 0a be
       -0.047029175 0.09892474 0.18038519 -0.13527156
000270 17 83 a8 bc 6e 26 8d 3e 6a 93 2c bd 75 ad ae 3d
       -0.020570321 0.27568382 -0.042132773 0.08529178
000280 7c 85 64 be 50 50 b4 3d c1 d0 2e bd 1a 87 23 3e
       -0.22316545 0.08804381 -0.042679552 0.15969506
000290 39 9c 23 3d 5a 93 55 be 3e 04 47 be c5 42 8b 3e
       0.039943907 -0.20856991 -0.19435212 0.2719938
0002a0 b7 62 39 be 52 a2 1a 3e e0 fb 91 3e 16 12 c0 be
       -0.18104063 0.15100983 0.28512478 -0.37513798
0002b0 18 82 0b bd eb 19 67 bc 90 2a 5a be 4c c2 1e 3e
       -0.034059614 -0.0141053 -0.21305299 0.15503806
0002c0 3d 9b 0a be 0e f1 2f be 29 da da 3c 94 c2 64 bc
       -0.13535781 -0.17181799 0.026715355 -0.013962407
0002d0 bf 31 e5 bd 4f 8c 1c 3e 29 11 a5 bd dc e3 22 bd
       -0.11191129 0.15287898 -0.08059914 -0.039768085
0002e0 b4 ae 8f 3e 0d 6e 38 be ee c3 1c 3e a6 3b 9d be
       0.28062975 -0.18010731 0.15309116 -0.3070957
0002f0 b2 80 3a 3d d4 73 9c bc 1e 7d 06 3e 76 0d 09 be
       0.04553289 -0.0190982 0.13133666 -0.13384041
000300 2e c4 a3 bd 80 f7 09 be 29 d7 61 3e 35 0b 45 be
       -0.07996403 -0.1347332 0.22054733 -0.19242556
000310 29 b6 3a 3e 8c 91 5a 3e 58 41 a3 be ab f1 f6 bd
       0.18233551 0.21344584 -0.3188579 -0.12057813
000320 26 83 da bd 30 51 dd 3c 60 7c cc bc 94 7e 87 be
       -0.10669546 0.027016252 -0.02496165 -0.2646376
000330 14 97 9b 3d 46 ce eb bd 49 bf 00 bc 84 3b d6 3d
       0.07597175 -0.11513953 -0.007858106 0.104605705
000340 92 c9 21 3d 13 b9 83 bd 18 3d d2 bc 62 4c c0 3e
       0.039498873 -0.064317845 -0.025663897 0.37558275
000350 e0 18 81 3d a8 23 0b 3e 73 07 66 be 04 f4 cc 3d
       0.06303573 0.1358782 -0.22463779 0.1000748
000360 82 af 0f be cb 7b b1 3d 5c a9 2c be e4 e0 ab bd
       -0.14031795 0.0866619 -0.1686148 -0.08392504
000370 c3 3e 12 be f9 a6 4e 3e fb 3c 52 be 0c e3 ec 3d
       -0.14281754 0.20180883 -0.20531075 0.11566743
000380 46 c3 92 3e d2 d4 4a be 44 dc 08 be ef 46 d2 bd
       0.28664607 -0.19807747 -0.13365275 -0.10267436
000390 79 63 33 be 8e 30 35 3e 12 c7 50 be 4f 1e fd bd
       -0.17518415 0.17694303 -0.2038844 -0.123592965
0003a0 4c b1 d2 bc f8 24 b8 3d 77 9d 20 3e be 3d 22 3d
       -0.025719307 0.08991426 0.15685068 0.039609663
0003b0 97 a2 49 be 17 45 9e 3c c8 b7 96 3e ad 83 c2 bd
       -0.1969093 0.019320054 0.2943709 -0.094977714
0003c0 6d ae c6 3d 79 ea 70 be 90 35 b9 3c ef 62 a2 bc
       0.09701238 -0.23526944 0.022608548 -0.019822566
0003d0 5c ee 93 3c 2a 66 0e bd 81 aa d5 bd 80 fd 28 be
       0.018057995 -0.0347654 -0.10432912 -0.16502953
0003e0 e8 04 32 3e 78 61 3e be 9b f4 09 3e 88 0a a7 3e
       0.17384684 -0.18591869 0.13472216 0.32625222
0003f0 04 51 35 be 3d 3a 60 bd 17 92 f2 bd d6 4e 21 be
       -0.17706686 -0.05474304 -0.11844271 -0.1575273

bias f4 [120]
000000 07 36 be 3e 56 06 a5 3e c4 f3 a2 3e 72 96 3f 3e
       0.37150595 0.32231396 0.31826603 0.18709734
000010 61 6d a5 3e d8 a8 74 3e 27 51 75 3e 9e 23 36 3e
       0.32310012 0.23892534 0.23956738 0.17787024
000020 b8 bb d3 3d cc 95 f0 3d 2b ca 6a bd b5 a0 97 3c
       0.10338539 0.117473215 -0.05732171 0.018509248
000030 31 70 0f 3d 3c cd 0d 3d 7c cc b8 bc ac f8 83 bc
       0.035019103 0.034619555 -0.022558443 -0.016109787
000040 ba 4c 25 be 80 45 a4 bd 8d 82 47 be d9 e0 0b be
       -0.1614255 -0.080210686 -0.19483395 -0.13659991
000050 40 7b 5f be 28 7e 96 bd 08 9e 84 be be df b7 be
       -0.2182436 -0.07348281 -0.25901818 -0.3591289
000060 b0 a9 c6 be fb 36 bf be c3 70 f5 be b3 f9 be be
       -0.38801336 -0.37346634 -0.47937593 -0.3729988
000070 9a 42 83 be 19 e2 76 be da c5 9e be 0c a9 88 be
       -0.2563675 -0.24109687 -0.31010324 -0.26691473
000080 d9 3d a4 be 0e de b4 be 0c a7 7d be d3 87 6d be
       -0.32078436 -0.35325664 -0.24770755 -0.23196344
000090 02 be 3a be 07 b6 9e be ba d8 85 be a2 6d 27 be
       -0.18236545 -0.3099825 -0.26141912 -0.16350415
0000a0 3d 69 4c be 93 87 89 be 59 e5 bc bd c1 17 0e 3d
       -0.1996202 -0.26861247 -0.09223432 0.034690622
0000b0 72 5b 07 3c 35 07 9a bd 05 69 a3 3b 2f 54 83 3d
       0.008261548 -0.07520906 0.0049868845 0.06412541
0000c0 9b 2e 00 3d c8 1d 12 3e 1f d6 6c 3d 22 cd 58 3d
       0.031294446 0.14269173 0.05782139 0.052930005
0000d0 f6 62 e6 3d 5a 82 f3 3d ae 24 24 3e ff 3b 38 3e
       0.11249344 0.11890097 0.16029617 0.17991637
0000e0 ce c4 8d 3e eb 30 8a 3e 2c b2 82 3e a5 ad 97 3e
       0.27689213 0.26990446 0.2552656 0.29624668
0000f0 a7 43 60 3e cb 19 b5 3e 87 8e 4f 3e 4e 3f 4f 3e
       0.21900807 0.3537124 0.20269214 0.20238993
000100 53 24 15 3e 7f 55 7b 3e e9 5a aa 3d bc 3b 1f 3d
       0.14564638 0.24544333 0.08318121 0.038875327
000110 46 df 1c 3e b4 80 c6 3d af 97 15 3d a6 70 e3 3d
       0.15319547 0.09692517 0.03652161 0.1110547
000120 d0 fa 9b bd f2 c5 74 bd f8 96 a8 bb 49 73 ac bd
       -0.07616198 -0.059759088 -0.00514495 -0.084204264
000130 e5 f9 f6 bd e4 bb 82 bd 5a 79 88 bb d4 50 14 3d
       -0.12059382 -0.063834935 -0.004164857 0.036209896
000140 2b 74 27 be 62 d9 ff bd 67 c5 13 be 23 66 c3 bc
       -0.16352908 -0.12492634 -0.14430772 -0.023852414
000150 30 c6 3a bd e2 d8 69 be 2e 3b 30 be 14 65 1c be
       -0.045599163 -0.2283664 -0.17210075 -0.15272933
000160 02 cf ed bc 84 0c d9 bd 7a 9e 67 be 78 da 4c be
       -0.029029373 -0.1059809 -0.22619048 -0.20005214
000170 b5 ec 18 be 28 e0 af bb c6 bc 34 be 8f c7 28 be
       -0.14934047 -0.0053672977 -0.17650136 -0.16482376
000180 19 55 ee bd e4 6a 86 bd 03 a6 08 be 3f 6a 74 be
       -0.11637325 -0.065633565 -0.13344578 -0.23868655
000190 f8 25 7e bd 26 15 dc bb 43 02 ae 3c c2 63 83 bc
       -0.06204793 -0.0067163883 0.021241313 -0.01603878
0001a0 a9 15 81 3d ed 6a 8a bd f5 9b 0d bc e7 f7 1a 3e
       0.063029595 -0.06758676 -0.00864314 0.1513363
0001b0 2b ee 83 3d 21 aa 24 3e ac 54 76 3e 89 26 61 3e
       0.06441911 0.16080524 0.24055737 0.21987356
0001c0 12 a2 5b 3e eb d3 95 3e 5d f8 bd 3e 7c f5 cc 3e
       0.21448544 0.29263243 0.3710355 0.4003104
0001d0 95 2b a0 3e 43 78 8a 3e bd 3d ad 3e f8 b8 75 3e
       0.3128325 0.27044877 0.33836165 0.23996341
