knn/models/pretrained-autoencoder/autoencoder-in_features120-latent_size8.pt (torch, 106606 bytes, 12 tensors)

weight f4 [72, 120]
00000000: 3a7b 023d 4816 cb3d 130d 78bc 07b5 ce3d
00000010: b4eb 963d 675e 813d b979 9c3d 4e5e d73c
00000020: 9413 5d3d 0c7e bc3d 46eb 463d b1ec 2d3d
00000030: 9f67 9f3d 7b1d 863d d1e7 3f3d 44e9 423c
00000040: 6a04 cf3d 577c 0f3d 3748 af3c af05 19bd
00000050: f96d 8b3b f534 903d 9e5d 18bc 7ec6 2f3d
00000060: 823f db3c 4a4c f83b ac38 81bc 5b82 37bd
00000070: 8886 0d3d 7eba 1cbd 3b61 1bbd c077 28bd
00000080: b617 12bd 385c ad3c 4d61 30bc 51ed e53c
00000090: cf90 113b 834e 41bd f234 0b3d 5aa1 533b
000000a0: 7eff 0b3d 10bf 173c c866 1c3d 8740 523d
000000b0: f71a 863d 8590 803c d510 e43d 2b38 0fbc
000000c0: d9c8 833c 7993 793d 838f 8b3c 45bb e73d
000000d0: bfe7 903d 9367 5bbc f21f 093d b96a ae3d
000000e0: 772c 953d d3ab 843d ed02 0dbc 9946 75bc
000000f0: 5f11 613d 7377 28bb ebf4 6d3d 1c84 20bc
00000100: 2c1e 2c3d 05c6 803b 6714 f23b e38b e3bb
00000110: 2b37 cdbc 5a83 52bc 9735 20bd a0b6 0ebd
00000120: d7c4 f6bc a458 283d 84ff 1a3d 5b3f 11bd
00000130: 89e0 13bd 08d7 48bd eb8d ab3d fa4f 6bbd
00000140: 4f9f fd3c 52db bebc bccb 27bd a685 daba
00000150: 1806 8b3d 7839 f3bb d0e7 f9bb d390 90bc
00000160: 0cdd 513b 0bf2 423d 1975 103d e8fe 01bd
00000170: c2d4 96bc 6ab3 edbc 0c73 4ebd f15c c93b
00000180: 3736 8dbb 751a 0dbd fdc0 10bd b6d7 4fbb
00000190: ddbc b3bc c1d1 93bd 0703 30b9 0c04 c0bd
000001a0: 8606 15bd a45d e6bd a6a2 aebd 1a04 91bc
000001b0: a0eb 13bd aa0d a4bd 0e7a bbbd eb78 d4bd
000001c0: 5d0f 25bd 7bde debd 7b33 43bc a372 e8bd
000001d0: 0588 85bd 32d8 b7bd c9e0 90bd 41c0 d5bd
000001e0: 641e c2bd d72a 313c b93f acbd a847 ddbc
000001f0: c017 09bd 8100 0cbd 8031 cc3b 4be1 45bd
00000200: 0159 67bc a8d6 6f3c aae4 73bd 4c3e 443b
00000210: 97e6 bdbd c7d3 4d3c e767 26bc 21a1 21bd
00000220: 958e d4bb 2f13 23bd 4ef6 f03b 6f34 8c3d
00000230: 977d 21ba 85fe 58bc 6f8a 91bd 661b 543d
00000240: 63b7 a03c 94fa 613c fd07 853d 7a54 473d
00000250: bbd4 013d 26e5 25bc e4d7 983a 8cd9 a43d
00000260: dd79 853d 1e73 2cbd 7658 1fbc 1eff 2b3d
00000270: a699 913d 340e 1fbc 133a 323d f8ea df3c
00000280: 311d 373c ddba 64bc 463a 853d 39dd 7fbb
00000290: 720c efbc 6586 a8bd eea5 893c cf61 41bc
000002a0: 7af9 b2bd ffc5 e9bc 044e c2bd 0092 48bd
000002b0: ae64 06be 1da6 2bbc 948b efbd 995c 98bd
000002c0: bd63 ebbd 6b7d 03be 197c acbc 77a0 00be
000002d0: d68e 45bd 9877 8abd 9579 aebd d5e4 96bd
000002e0: 5e11 34bd 202b 68bd 2bad c7bb 07bc 11bd
000002f0: 86a7 78bd 09eb ef3c 719f 05bd 8541 5ebc
00000300: 46b3 fe3c 3285 883d 8a1f 803d 76ac ab3d
00000310: 83c5 163c 1df9 9b3d 226c 703d 9f81 913c
00000320: 50f3 093d a601 be3d 8e16 063d 367b a93d
00000330: 053d 5dbc 8ae0 8a3d eeed c43d c08d 94bc
00000340: b0b4 b63d bc59 f6bc 6561 3d3c 0021 5b3d
00000350: a7b4 6f3d a2a9 cd3c 2f04 d33c ab20 f03b
00000360: 2552 053d 6ce6 233d a5c9 743d d234 fa3c
00000370: ae08 893d 3d82 f6bc d852 af3d 059a 203d
00000380: 7805 8c3c 2fcb 433d f4f4 f6bc 853a 803d
00000390: 3e8d 653c be7c 813c 4ee3 f13c 2282 873c
000003a0: fef4 213d 7868 6eba fc45 fd3c 0a21 18bc
000003b0: f5db 82bc 47ec 3cbb ad1b 40bd 5e04 3bbc
000003c0: 6999 fb3c 3212 d33d c1fb d03d bfdc 283c
000003d0: e447 823d 10f8 1f3d 4dea d63b 6fa3 5a3d
000003e0: 8102 b03d d426 0abd f19d 3a3d 4412 46bd
000003f0: d9ff c93d 5ee0 30bd 49df 0b3b ccb3 703c
0.0318558 0.09916359 -0.015139836 0.10093122 0.073691756 0.06316834 0.07640404 0.026290085
0.05397375 0.09203729 0.048564218 0.042462055 0.07783436 0.06548592 0.046851937 0.011896435
0.10108264 0.03503069 0.02139674 -0.037358936 0.004255053 0.07041351 -0.009299664 0.042913906
0.026763681 0.0075774537 -0.015774094 -0.04480205 0.034552127 -0.03826379 -0.037934523 -0.041129827
-0.035667144 0.021162137 -0.010765386 0.028067263 0.0022211557 -0.047194015 0.03398604 0.0032292218
0.034179203 0.009261861 0.038183957 0.05133107 0.06548112 0.015693912 0.11136023 -0.008741419
0.016086983 0.060931657 0.017036205 0.11315016 0.07075452 -0.013391393 0.03347773 0.085164495
0.072838716 0.06478085 -0.008606655 -0.014970445 0.054948207 -0.0025705963 0.0580949 -0.009797122
0.04202096 0.003929856 0.007387686 -0.006944166 -0.02505072 -0.012848699 -0.039113607 -0.034842134
-0.030123157 0.04110016 0.037841335 -0.03546081 -0.036102805 -0.049033195 0.08376678 -0.05744932
0.030959753 -0.02329794 -0.04096578 -0.001667191 0.06788272 -0.0074226223 -0.007626511 -0.017647183
0.0032022623 0.04759411 0.035267923 -0.03173724 -0.018411998 -0.029016215 -0.050402686 0.0061451127
-0.0043094414 -0.03444906 -0.035340298 -0.0031714267 -0.021940643 -0.07217742 -0.00016785796 -0.09375772
-0.036383174 -0.11248329 -0.085271165 -0.017702151 -0.03611338 -0.08010419 -0.091541395 -0.10374626
-0.040297855 -0.108822785 -0.011914129 -0.1134999 -0.06520084 -0.08976783 -0.07074124 -0.1043706
-0.09478453 0.0108134365 -0.08410592 -0.027011707 -0.033469915 -0.034180168 0.006231487 -0.04831056
-0.014120341 0.01463858 -0.059544243 0.0029944358 -0.09272497 0.012562699 -0.010156608 -0.039460305
-0.0064867237 -0.039813217 0.0073535806 0.068459384 -0.0006160377 -0.013244276 -0.07106482 0.05178394
0.019618696 0.013792653 0.06495664 0.048664548 0.031697016 -0.010125434 0.001166102 0.08049306
0.06517384 -0.04210197 -0.009725681 0.041991346 0.07109384 -0.009707976 0.043512415 0.027333722
0.011176393 -0.013960567 0.065052554 -0.003904177 -0.02918074 -0.08228759 0.016802754 -0.011803105
-0.0873899 -0.028536795 -0.094875365 -0.04896736 -0.13124344 -0.010476616 -0.11696544 -0.074395366
-0.11493633 -0.12840812 -0.021055268 -0.12561212 -0.048231922 -0.06761092 -0.08519284 -0.07367865
-0.043961875 -0.056681752 -0.0060936413 -0.035579707 -0.060706638 0.029286878 -0.03262276 -0.013565426
0.031091344 0.0666603 0.062560156 0.08382504 0.009202364 0.07615874 0.058696873 0.017762003
0.033679307 0.09277658 0.032736354 0.08275454 -0.013503318 0.06781109 0.09615694 -0.018133998
0.08921182 -0.030072086 0.011558865 0.053498268 0.058521893 0.025105301 0.02575883 0.007328113
0.032549042 0.04001467 0.059762616 0.030542765 0.06691109 -0.0300914 0.08560723 0.039209384
0.017092451 0.047801193 -0.0301461 0.06261162 0.014010726 0.015806552 0.029527333 0.016541544
0.039540283 -0.00090945465 0.03091716 -0.009285221 -0.015974024 -0.0028827356 -0.046901394 -0.011414615
0.0307128 0.10306205 0.10204268 0.010306536 0.06361368 0.03905493 0.0065586925 0.05337852
0.085942276 -0.033728436 0.04556078 -0.048357263 0.09863252 -0.043182723 0.0021342805 0.014691304

bias f4 [72]
00000000: e6ef 10be f2bf bd3d b1bb b9bd 628e 3ebd
00000010: fc58 5dbb 2f55 293e 2abf 63bd 776a 65bd
00000020: ecef a93a e36c e9bc a7b7 e0bd 0b3d 843d
00000030: 90d4 ad3d 3fc5 ec3d add5 04bd 5148 c6bd
00000040: 2f16 d93c 4ac4 bdbd 4ebf 4dbd 8222 033e
00000050: 74e0 b83d f055 02bd 2fdd debb 3dd4 8cbd
00000060: d4de b7bc 758f 89bd b57b 9abc bf71 dfbd
00000070: 8542 44bd ee39 0f3e d1dd de3d 794f da3d
00000080: 8bd9 ecbb e7d2 1ebd 7aaf e0bd 6ba0 20bd
00000090: 4ee1 5cbd 8f4b f3bb c132 ccbc f858 fa3b
000000a0: acea f2bc 4588 7bbd 5964 4f3a 3146 72bd
000000b0: 23f7 283c 2663 443d 90ee 713e 12fa b9bd
000000c0: 0b93 683d 087c 9d3b 9c51 843d 0d36 a7bc
000000d0: 1dd0 1c3d 094f 9fbd 6ec4 42bd 99a8 98bb
000000e0: 1014 1c3d 34a9 96bd d376 85be 05b0 a83d
000000f0: 6b17 123e 838c 50be dc32 063d d9d6 9ebc
00000100: a3fa 4dbd ef60 3d3c 5ff9 49bc 22f2 023d
00000110: d854 b03d b4f1 8f3d 37fe 753d 638c 0a3c
-0.14154014 0.09265126 -0.090690024 -0.046522506 -0.0033774963 0.16536401 -0.05560223 -0.056009736
0.0012965179 -0.028494304 -0.10972529 0.064569555 0.08487809 0.11561059 -0.03243034 -0.09681762
0.026499836 -0.09265955 -0.05023127 0.12806132 0.09027186 -0.031820238 -0.0068012695 -0.06876419
-0.02244512 -0.067168154 -0.018857816 -0.10910367 -0.047915 0.13986942 0.10882152 0.106596895
-0.0072280816 -0.03877535 -0.109709695 -0.039215486 -0.053925805 -0.007424779 -0.024926545 0.0076400004
-0.029652916 -0.061409254 0.00079113763 -0.05914897 0.010312828 0.047946118 0.2362616 -0.090809
0.056780856 0.0048060454 0.06460878 -0.020411516 0.03828441 -0.07778747 -0.04755061 -0.0046587703
0.03810507 -0.07356492 -0.26067218 0.08236698 0.14266746 -0.20366101 0.032763347 -0.019389557
-0.050287854 0.011558755 -0.012327521 0.031969197 0.08609933 0.07028523 0.06005689 0.008456322

weight f4 [24, 72]
00000000: 3a43 82bd fc3f c13d df6d 25bb 433d 29bc
00000010: cd80 c83d 9ae6 e03d da7b b7bb a6b3 49bd
00000020: ab57 b7bc dd86 993c 2012 0e3d dd87 df3c
00000030: 46ca b83d 29e6 29bc 2959 e23d b4db 87bd
00000040: 7c67 9d3d 1220 983d ff24 a13d c9f0 4c3e
00000050: 5820 823c e30f 413d 906c 9c3c c839 3b3d
00000060: 8fa3 8d3a 2468 9f3d 234e 793d 8a65 92bd
00000070: 3e0d f43c 717c 443e abc9 c73c 7117 bc3b
00000080: 1eb0 e83c 0d36 9abd 217b 1f3d 02a6 c13d
00000090: 7c9b ba3d 9745 4d3e d56b 5abc 911a 02bd
000000a0: 2975 0e3c 575c f93d eece a33d 70cb 543d
000000b0: 6f4b 873d 5309 243d bc0c 093e 93eb 933d
000000c0: 75c1 313e 0806 af3d 7c10 99bd fc07 813e
000000d0: 30dc 41bd 8720 913d feed 35bc a54d dd3c
000000e0: 064e 11bd bd6c 1cbc a59a e7bc f2ff 6c3d
000000f0: 89af 313c 1cb2 3dbb c4bc ecbd 28a0 bebd
00000100: 8843 833a 3a79 a83d 3a5e 823c 3f42 093e
00000110: d86d ea3b 837a 203e b883 f83c 0971 83bd
00000120: 73c1 ecbc 33ae 353e c06d cdbc 8479 f0bd
00000130: b8a1 cd3d 6ca3 0c3e 8e5f b23d d0fc 8cbc
00000140: 3a12 833d 4a45 53bd 685e 80bc f891 3a3d
00000150: e97a 2e3e fa8b 003e fcbc 1ebd 4d31 16bd
00000160: 3ca6 723d 6375 193d 5474 083c a314 d03a
00000170: 4229 173e fca8 8abc c03b 8c3d dd8c 71bd
00000180: 016f 6d3d 1e39 ccbd 0cff 93bd dc3a e73d
00000190: 4049 4f3d 4561 e13d 8d16 e63d 52ce b23d
000001a0: feff 57bd 22c8 0a3d 2c4c 8d3c 8c9d 25be
000001b0: f0ea 4abd 7a08 d0bd dfe7 91bc 0c7c 603c
000001c0: 4b3e a8bc 41c9 aa3c d0ff 06bd 8312 c8bc
000001d0: 7db5 c33d 6c4b f73d 372f 873d 206d b03c
000001e0: 1884 0fbc 2e50 d7bb df76 abbc e851 5e3e
000001f0: 36f8 a9bd 990a 25bc a359 123d 7783 6d3c
00000200: 1fcb 373e d019 c03d cd0c 203c 05b6 cb3d
00000210: 73ce 293e df9b 8a3c 2e40 d7bd 0a6e 903d
00000220: 5800 16bd 90dd cb3d 3455 bcbd bf96 233c
00000230: f948 283e 07c0 e73b 572c c73d 4e28 9d3d
00000240: c4e3 0a3c 18b3 d23b 2dce b4bc 0118 053e
00000250: a52b 01bd 30a8 7fbb 9e11 9d3b 8711 11bd
00000260: 1130 fcbc ddb3 7dbd eced 1fbc 4d17 82bd
00000270: d73d 2dbd 9ca7 7abd e008 113e ca83 39bd
00000280: 0024 863c da1a 833c f8f2 853d b426 203e
00000290: 53ca 17be 8220 06bc 00a7 8fb9 3a6e c5bd
000002a0: 32b9 753c bc92 d03d 9ade 223d 5250 1ebc
000002b0: 94fa f6bc d7cb 6b3e 120f b1bd d67e f53c
000002c0: ce0f 29bd 68e3 1abb 9116 1abd a5bf 2ebb
000002d0: c387 41bd d13a 5bbd 60bc 2cbd 279b 4ebd
000002e0: ab94 0c3e 7208 af3c 2ad8 a53d a5e0 ff3d
000002f0: 3152 903d 63eb b8bc 3042 aebd 0ce8 023e
00000300: 3986 6dbc 32df 1f3d 8b1b 8bbd 5e39 693d
00000310: 333c f9bb e793 863c c1f2 cc3d 0f11 f53c
00000320: 7355 f0bd 4017 bb3c 0e63 f6bd 7fb4 f2bd
00000330: 2d12 45bd 1023 dd3d d209 d4bc 2e12 a83d
00000340: a498 aabd 962d 523d 11fb 913d da76 f7bd
00000350: b4a7 183e f8a9 9b3c c15f 12bd 793d 15bb
00000360: 2c62 5c3d fc52 973d ddc9 89bd 62da 5a3d
00000370: b0ff 263e 187a 9a3e 5643 92bc dc01 15bc
00000380: b628 353e 4555 e23c 29b4 b2bd 7704 bf3d
00000390: 6282 273e 4afb 543e 578e cd3c 6286 b23d
000003a0: 33d7 5c3d da63 693d 8d03 0c3e 5e5d 0b3e
000003b0: c8aa a63d 4e90 73bd 8fb1 ce3d 5f6b a5bc
000003c0: 00d8 833c d809 e7bd f288 76bd d871 123e
000003d0: 2c9b 3e3e 8c82 043e d05a 0c3e 42f7 ce3c
000003e0: bcd5 243e ec57 203e 562a f33d 6366 493d
000003f0: ef97 07bd 888e dc3d 5570 ba3c 477f 183e
-0.06360479 0.09436032 -0.002524249 -0.010329547 0.09790192 0.10981484 -0.005599481 -0.04924359
-0.02238067 0.018741066 0.034685254 0.027286464 0.090229556 -0.010369816 0.11052162 -0.06633702
0.07685754 0.07427992 0.078683846 0.20013727 0.015884563 0.04713429 0.019094735 0.0457094
0.001080619 0.07783535 0.060865533 -0.07148273 0.02979147 0.19188096 0.024388155 0.005740099
0.028404292 -0.075298406 0.038935784 0.094554916 0.091116875 0.20046078 -0.013331373 -0.031763617
0.008694925 0.121758156 0.07998453 0.051951826 0.06606185 0.040047955 0.13383764 0.072226666
0.17358954 0.08546072 -0.07473847 0.25201404 -0.047329128 0.07086282 -0.011104105 0.027014563
-0.0354748 -0.00954741 -0.028271982 0.057861276 0.0108450735 -0.0028945273 -0.11559442 -0.09307891
0.0010014633 0.08226247 0.015914071 0.13404177 0.0071542077 0.15671735 0.030336246 -0.06418044
-0.028900838 0.17742233 -0.025076747 -0.11741927 0.10040611 0.13734215 0.08709632 -0.017210394
0.06399961 -0.05157975 -0.015670016 0.045549363 0.17039074 0.12553397 -0.03875445 -0.03666811
0.059240565 0.037465464 0.008328516 0.0015875291 0.14761832 -0.016926281 0.06847334 -0.05897223
0.05796719 -0.09971832 -0.07226381 0.112905234 0.050606966 0.11004881 0.1123477 0.08730759
-0.052734368 0.033882268 0.017248236 -0.1617338 -0.04954046 -0.10157867 -0.01781076 0.01370145
-0.020537516 0.020847918 -0.032958806 -0.02442289 0.095561005 0.120749325 0.066008024 0.02153641
-0.008759521 -0.0065708375 -0.020930706 0.21710932 -0.082992956 -0.010073327 0.035730015 0.014496676
0.17948578 0.09379923 0.009768677 0.09946827 0.1658266 0.016920028 -0.10510288 0.07052238
-0.03662142 0.09954369 -0.09195939 0.009984671 0.16434087 0.007072452 0.09725254 0.07673703
0.008477155 0.006430041 -0.022070969 0.12997438 -0.031535763 -0.003901016 0.00479336 -0.035417106
-0.030784639 -0.06193911 -0.009761315 -0.063521005 -0.042295303 -0.061195 0.14163542 -0.0452917
0.016374588 0.016004015 0.06540483 0.15639764 -0.14823274 -0.008186461 -0.0002739951 -0.09640165
0.014997767 0.10184237 0.03976307 -0.009662705 -0.030148782 0.23026977 -0.086454526 0.029967707
-0.04127484 -0.002363408 -0.037619177 -0.0026664522 -0.047248613 -0.05352289 -0.042171836 -0.050440934
0.13728587 0.021366332 0.08097871 0.124940194 0.07046927 -0.022573179 -0.08508718 0.12783831
-0.014497333 0.039031215 -0.06792363 0.056939475 -0.0076060533 0.016427947 0.10007239 0.02991536
-0.11735048 0.022838235 -0.12030612 -0.11850833 -0.048113037 0.10797703 -0.025883589 0.082065925
-0.08329895 0.051313005 0.07127965 -0.12083216 0.14907724 0.019001946 -0.03573585 -0.0022772236
0.05380456 0.07388875 -0.067279555 0.053430922 0.16308475 0.30171275 -0.017854374 -0.009094682
0.17691311 0.02762855 -0.08725769 0.093270235 0.16358331 0.20798984 0.025092287 0.08717038
0.053916167 0.05697999 0.1367323 0.13609836 0.08138043 -0.05946379 0.1009246 -0.0201928
0.016094208 -0.112811744 -0.060189195 0.1430124 0.18613881 0.12940425 0.13706517 0.025264386
0.16097158 0.1565854 0.11873309 0.04916991 -0.03310388 0.10769373 0.022758642 0.14892302

bias f4 [24]
00000000: 97e9 953e 05ed a73e 2a5b 6fbd ac52 1c3e
00000010: dcb1 833d 6efa 883e cb5a e83d 7b79 2bbe
00000020: f585 183d 925c 473d 3299 7dbb 7046 553e
00000030: cddc b3bd 2fdc 6abe 2e4e b63d 224a 14be
00000040: 7e7a b7bc b98d bbbd 9300 8cbd f4c2 373e
00000050: 6fc0 a13c 29f8 8b3d fcc4 e03d b545 093e
0.29279777 0.3279802 -0.05843655 0.15265912 0.06430408 0.26753563 0.113454424 -0.1674556
0.037237126 0.048672266 -0.0038696048 0.20827651 -0.08782349 -0.22935556 0.0890163 -0.14481404
-0.022397276 -0.09157891 -0.06836047 0.17945462 0.01974508 0.06834442 0.10975072 0.13405497

weight f4 [8, 24]
00000000: c968 deba 0f0f 77bd 0440 943e 59a3 31bf
00000010: 15ca 173e 01a0 43be e4a4 f13d 4ab2 88be
00000020: 1256 c53e 7340 a4be 72f8 8bbc 5e10 67be
00000030: b204 8fbe e19f b7be 0c79 68be d72a b43e
00000040: fe28 603d abaa 3f3e 421a 993d 1353 24be
00000050: 4d36 b13c 617c 173c 8b6a 473e 4b6e c43e
00000060: a856 88be d0c0 dd3d 9f08 85be b7dc d2bb
00000070: 6a15 dbbe 045e e6bd de6a f33d a3c8 d93e
00000080: e803 4c3d 8ce6 693d ecf9 2fbe 9d54 763e
00000090: 0351 b53e a00a 6ebe 1fad 88bd 95d5 b33d
000000a0: 3c7e 953e 9487 eb3c b21a 7cbe 42fd 50be
000000b0: 197d 093e d418 e2bd 8067 923e 2127 233f
000000c0: d8fe 24bc bd6b eabe 498a edbd f2f1 923d
000000d0: 1883 77be a9a1 90be eff4 963d 7a20 673e
000000e0: 312a ff3d 7e95 ffbd adf3 bdbe 0446 f9bd
000000f0: f766 8bbe e8c0 993e 30c5 2ebc dd34 71be
00000100: 7c94 023f 836e 153d 3f78 5bbe 8591 1a3e
00000110: 9169 ae3e 33b1 05be 334f 09be 01de 5fbe
00000120: df36 6abd 43ab 88be 82e3 f2ba 94e1 75be
00000130: 7c80 5ebe 818d 9fbe b1cc ccbe 561c 763e
00000140: f4ca 763e 2fd3 043c c6f0 aa3e afe3 073e
00000150: a374 d73d 7cc6 82be 953d 21be 64b3 803e
00000160: a627 83be cb03 323e fd15 9fbe cd6b eb3e
00000170: a788 143e a5b5 b43d 3578 d6bd fdef d3bd
00000180: e757 cbbd 02bf 51be 80ad af3e 2618 f73e
00000190: e94a 1a3e d68a c23e 3d2d e9be ccf7 8cbe
000001a0: 0b84 97b9 3c46 90bd 0192 0cbe 1e13 96be
000001b0: f9b8 8d3e 2606 0dbe 24e1 04be a046 043e
000001c0: 2d9b 393d 0221 8a3e 3160 b83d 1f87 a4bc
000001d0: 3f48 42be 4f4c 08bf 9d78 9e3d 8ca6 72bd
000001e0: f72f 6b3d 30cd c0bd 5a21 a6bd 6529 143f
000001f0: 6d29 863e 913c edbd 0d77 1bbe faa2 58be
00000200: 14d1 eb3e 4028 4a3e 3466 29be 7356 6a3e
00000210: 3509 a6be f21d f2be a75c 573e 7978 b73e
00000220: 04da a5bd df05 5abd d6b2 56be 7061 06be
00000230: 27b0 af3d 681f 963e 4f77 4bbe f85c 12be
00000240: 0634 e63e 5254 32bd 21b9 39bc 3ff4 5d3d
00000250: 98d2 1b3e 32c3 15be c54d cfbe ef82 85be
00000260: 59c1 84be 3f1a 383d 6ccc 3fbe 54e4 cd3e
00000270: ae78 473e f68c 7b3e 138c 3fbe b342 50be
00000280: b43c 0c3e 7768 debd bf94 a83d 7430 acbe
00000290: 7cfa 74bd 3f5a 013e 3a03 ebbe ee99 403e
000002a0: 43c5 b7be 5f02 7ebe 9ca9 9fbd a134 f6bd
000002b0: e5ed d23c 2541 dabe 24f5 9fbd 279b 0fbd
000002c0: 1ce9 58be 291d 2abd 2936 d23d 500b 8fbe
000002d0: be91 563e 3f7e 8c3e 721f 3a3c a012 3ebe
000002e0: 8502 c0bd ce66 813e d468 283e 4aed 96be
000002f0: a815 2b3e fd9d a33e eb4f 863c 30be 53bd
-0.0016968484 -0.060317095 0.2895509 -0.69389874 0.14823182 -0.19104005 0.117990285 -0.26698524
0.3854223 -0.3208042 -0.017086241 -0.22564837 -0.2793327 -0.35864165 -0.22702426 0.35188934
0.054726593 0.18717448 0.074757114 -0.16047315 0.021632338 0.009245963 0.19474237 0.38365397
-0.26628613 0.10827792 -0.2598314 -0.0064350027 -0.42789775 -0.11248401 0.11885618 0.42535886
0.049808413 0.057104632 -0.17185181 0.24055715 0.3541337 -0.2324624 -0.06673645 0.08780972
0.29197872 0.028751172 -0.24619558 -0.2040911 0.13426627 -0.11039892 0.2859459 0.6373158
-0.010070525 -0.45785323 -0.115986414 0.07175054 -0.24171102 -0.28248337 0.07370936 0.22570983
0.12459219 -0.12479685 -0.37099972 -0.121715575 -0.27226993 0.30029988 -0.01066713 -0.23555322
0.5100782 0.036482345 -0.21432589 0.15094574 0.34064916 -0.13055877 -0.13409118 -0.21862032
-0.057181235 -0.26693162 -0.0018530937 -0.24011832 -0.217287 -0.31162646 -0.39999917 0.24034247
0.24100858 0.008106991 0.3338682 0.13270448 0.105202936 -0.25542057 -0.15746148 0.25136864
-0.25616187 0.1738426 -0.31071463 0.45980683 0.14505254 0.088237084 -0.104721464 -0.103485085
-0.099288754 -0.2048302 0.34312057 0.4826061 0.15067638 0.37996548 -0.45542327 -0.27532804
-0.00028899344 -0.07044646 -0.13727571 -0.2931146 0.27680185 -0.13771877 -0.1297651 0.12917566
0.045314003 0.26978308 0.09002722 -0.020083962 -0.18972872 -0.5324144 0.07737849 -0.059240863
0.05741879 -0.094141364 -0.0811183 0.57875663 0.2620348 -0.11583818 -0.15182133 -0.2115592
0.4605795 0.19741917 -0.16542894 0.2288454 -0.324289 -0.4728847 0.21031438 0.358341
-0.08098224 -0.053228255 -0.20966658 -0.13123107 0.0857852 0.29320836 -0.19869731 -0.14293277
0.44961566 -0.043537445 -0.011335642 0.05418801 0.15217054 -0.14625242 -0.4048902 -0.26076457
-0.25928763 0.044946905 -0.18730325 0.40213263 0.1947963 0.24565491 -0.18705778 -0.20337944
0.13695031 -0.10859769 0.08231496 -0.33630717 -0.059809193 0.12632082 -0.459009 0.1880872
-0.35892686 -0.24805592 -0.07796022 -0.12021757 0.025748203 -0.42627826 -0.07810429 -0.035060074
-0.21182674 -0.041531716 0.102642365 -0.27938318 0.20954034 0.27440068 0.011360036 -0.18561792
-0.093754806 0.25273746 0.16446239 -0.29477912 0.1670748 0.31956473 0.01639553 -0.05169505

bias f4 [8]
00000000: d87e 0fbe 889b 10be 004f a53d ea5e cebb
00000010: c7bb 17be 61cd babd c08b f53c f21c e4bd
-0.14013231 -0.1412183 0.08071709 -0.0062979357 -0.14817725 -0.09121204 0.029973865 -0.111383334

weight f4 [24, 8]
00000000: fd68 93be 42af a23e 33a6 cdbe 1f0e 33be
00000010: 30ec 53be efd4 fa3d d1c7 ef3d d81b a8be
00000020: 3012 1dbe f7f5 45bc f450 7ebd ffaf 94be
00000030: 9dda 28be dc21 f5bd 0033 92be 3f31 90be
00000040: 8b00 c5bd 8f6f 6d3d 9a93 113e 9f75 203e
00000050: 51a2 5abe 3990 693e 1264 bb3e c5e0 1fbd
00000060: 8e7e b2be 3efb f43d a983 d4bd 3589 903e
00000070: 69aa 833e 345b 1ebe 9298 84be 8139 9bbe
00000080: e510 5e3e 22f0 ed3d 5ab4 0c3b 532e 19be
00000090: 503c 9c3c 35d3 8b3d fc2e 58bd 97fb 903e
000000a0: eaef 4abd 7a22 653e aa66 513e dfab 56bd
000000b0: 4301 bdbe 11ff 7dbd c17a 8ebe 920a de3b
000000c0: a32e e8bc a438 a03d 6ba6 3abe c394 d2be
000000d0: 6535 9ebd 3a81 11be 5361 26be 1b4f 0fbf
000000e0: 3f9e d3be 2d1d 8b3d 9e60 9dbe 8bc2 89be
000000f0: 4b3c 18be 747d a83e 14fd 2bbd 0c44 b8bc
00000100: 6d82 8c3b 5cdc 433d b3d6 cebd 8448 14be
00000110: f7b4 babe 708b 32bc d66d 363d 27d4 19bd
00000120: 5d95 d7be 83a9 333e 3a57 52bd 8429 eebd
00000130: 7396 b73d ff95 4c3e f685 51be 2e69 6fbe
00000140: 4c90 4abe 3eaa c63d 925f b1be 4b77 fb3d
00000150: 45ae 273d 56c4 1abe cb3c 363e 4277 4abe
00000160: 7278 5f3e f0af 7a3e 82ec 193e 9ad1 c0bc
00000170: b10f 873e 92ea 3e3e 6b63 123e d54d 09be
00000180: cd73 33be 8e83 c63e 7a1b bdbe 26da 3fbe
00000190: 8669 96bd 457a 3f3d 40cf 91bd 709d 89bb
000001a0: 6e09 a53e 7442 be3c 66dd 41be b853 933e
000001b0: e4da 30be 7a5e 893e 3ac7 1bbe 4cfe 4ebe
000001c0: 03ef 88be 0312 2abe b9c4 a3be 3ddb f83d
000001d0: efdd 9ebe a239 64be 636e 3ebe 4b40 93be
000001e0: 3145 16be e14e e7bd 7e9b 693d e526 cdbd
000001f0: a26b 27bc cc04 8ebe 4b21 113e 46ae cb3c
00000200: 9bbe 23be 99c2 423e 1b07 b7bd bae7 af3c
00000210: fb59 16be 3b2e 18be 2b19 2c3e abad 0cbf
00000220: fbf1 82be 8e40 ebbc 1ebf 5e3e af33 62be
00000230: 49a1 553e 64fc 71be 3c5a 103e 504e 8c3e
00000240: 424f b1bd f416 9bbe ef57 3fbd de10 43bc
00000250: 53cc c73e f36e 443e 3c21 043e fcf4 38bd
00000260: 949d a7be 59f6 fa3d 3a54 7abe 385f bdbe
00000270: 6c23 8abc f9fc d83e 2b6c 8ebe a1d2 103e
00000280: 4da9 6dbe 6729 32be f55d 043d d25d 1cbe
00000290: 22d1 a3be 55db 4cbd 8515 f6bc fe46 45bf
000002a0: 523f 403e 3853 6fbe c56c 1dbe 97ec 56be
000002b0: 022d f83d eca4 c43d 7b08 7f3e e4f4 b5bd
000002c0: 3581 d63e dab3 0dbe c88b 0b3e ea39 a8be
000002d0: 4b3f 94be 58a3 293e bd9c 963e bdbc ae3e
000002e0: 65ed 3fbe e18e 31be 64ef cdbd 6f1c 7dbc
000002f0: 2363 3ebe fca2 e7bd cb30 05be 9d2c 003e
-0.28791037 0.31774336 -0.40165862 -0.17485856 -0.20695567 0.12247645 0.11708034 -0.32833743
-0.15338969 -0.012082568 -0.06208892 -0.29040524 -0.16489644 -0.11969349 -0.28554535 -0.28162572
-0.09619244 0.05796772 0.14216462 0.15669869 -0.21350981 0.22808923 0.36599785 -0.039032716
-0.3486218 0.11961983 -0.10376675 0.2822968 0.2571595 -0.15464479 -0.25897652 -0.3031731
0.21686132 0.11618067 0.0021469803 -0.14959078 0.019071728 0.06827394 -0.052779183 0.28316948
-0.049545206 0.22376433 0.2044932 -0.052410003 -0.36915025 -0.06201083 -0.2782803 0.0067761624
-0.02834255 0.07823303 -0.18227546 -0.4112912 -0.07725028 -0.14209452 -0.16248064 -0.5598008
-0.4133167 0.06792674 -0.30737776 -0.26906237 -0.1486675 0.32908213 -0.0419894 -0.022493385
0.004288009 0.047817573 -0.100995444 -0.14480788 -0.3646619 -0.010897502 0.04453834 -0.03755584
-0.42106143 0.17545132 -0.051352717 -0.11629012 0.08964243 0.19979094 -0.20461258 -0.23379967
-0.19781607 0.0970044 -0.34643227 0.12278613 0.04093768 -0.15113959 0.17796628 -0.19772056
0.2182329 0.24481177 0.15031627 -0.023537446 0.2637916 0.18644169 0.14295737 -0.13408597
-0.17524643 0.38772243 -0.36935025 -0.18735561 -0.07344346 0.046747465 -0.07119608 -0.004199676
0.32233757 0.023225047 -0.18932113 0.2877481 -0.17271 0.26829892 -0.15212718 -0.20214194
-0.2674485 -0.16608433 -0.31986025 0.121511914 -0.31028697 -0.2228761 -0.18596797 -0.2875999
-0.14674832 -0.11294342 0.057033055 -0.10017184 -0.010218533 -0.27738035 0.14172857 0.024863373
-0.15990679 0.19019546 -0.08936902 0.0214728 -0.14682762 -0.14861386 0.16806476 -0.54952496
-0.2557524 -0.028717306 0.21752593 -0.22090028 0.20862307 -0.23631436 0.14096922 0.27403498
-0.08657695 -0.3029095 -0.04671472 -0.011905877 0.39023075 0.19182949 0.12903303 -0.04515551
-0.3273741 0.12254018 -0.24446192 -0.3698671 -0.016862594 0.42380503 -0.278169 0.14142849
-0.23209114 -0.17398606 0.032316167 -0.15270165 -0.31995493 -0.05001386 -0.030039558 -0.7706145
0.18774155 -0.23371589 -0.15373524 -0.2098869 0.121179596 0.09601769 0.24905579 -0.088846
0.41895452 -0.13838139 0.13627541 -0.32856685 -0.2895454 0.16566217 0.29416457 0.3412837
-0.18742903 -0.1733966 -0.10055426 -0.015448674 -0.18592505 -0.11310384 -0.13006894 0.12517019

bias f4 [24]
00000000: 9e04 57be 3f0e 4e3e d6cf cc3c e5bb 7c3e
00000010: 7808 82be 0d2e f23b db83 ae3e 39f1 e43d
00000020: f91e b03e 0a30 803e f6ab 023f 8bfe b63e
00000030: 91eb 1b3e 3622 3f3e 8906 1a3f 4b3c 9c3d
00000040: 52cf 923e 3f12 df3e 8e84 203e a0c1 4a3e
00000050: 4f90 5e3e b5f9 bb3d 1699 15be 28d0 86be
-0.20997855 0.20122622 0.025001448 0.24681051 -0.25397086 0.0073907436 0.34084973 0.11178822
0.3439863 0.2503665 0.5104364 0.35741076 0.1522658 0.18665394 0.6016622 0.076286875
0.28673798 0.43568608 0.15675566 0.19800425 0.21734737 0.09178487 -0.14609179 -0.26330686

weight f4 [72, 24]
00000000: 9f27 95be 1b7f dd3d 8696 033e 04c7 523d
00000010: 4343 f23d f0f3 4d3d d554 4d3e 7e06 c83d
00000020: 06e3 56bd 507b e7bd d2db a33e 0a81 bfbd
00000030: 5067 a3bc 462a 6b3d fc11 833e 50e3 c7bc
00000040: f512 723d 6c3a 1dbe ef07 6e3e fb58 5bbe
00000050: 3333 0dbe 4e63 3b3e af50 fd3d 17ca 123e
00000060: cdb5 5e3e 8a73 56bd a6f8 e1bd a500 6d3e
00000070: 25ca 5e3d ff98 9bbd 7b1d a83b eb98 773b
00000080: ac3a da3d d92a 353e d876 053e baa2 b63c
00000090: 7d39 fe3d 4089 43bc cf50 fcbc 0d84 ccbc
000000a0: 66a8 f43d e7f4 89bd efd1 ddbd 8ee6 ab3c
000000b0: e4e6 ac3d 0fb7 87bb 7f8f 39be 0a47 9a3c
000000c0: 8a57 033e 03fe 093e 1d2c 963d 8186 75be
000000d0: b5ba 483d d388 a83b f266 843d e2cb ba3e
000000e0: 67d0 a93e d43a 1ebe 01e6 a03d ed51 9a3d
000000f0: f910 6d3c 6fad ef3d 10e8 693e 68bc 443e
00000100: aba4 e8bb 3719 07be cf40 0ebe 9a39 18bd
00000110: 7b97 823d d006 ed3d 4fe9 ee3e 8845 b4bc
00000120: fded 8dbd c06e 50bd 3e75 1e3e 5223 983d
00000130: 2c7f 183e f1d7 c83d bbd7 fd3d 1f1a df3c
00000140: dd5f 56bd e2d5 b73d f8b2 733d c6cd 743e
00000150: 2e17 6d3c eed9 c33d fb38 86be 68c9 f03d
00000160: b5ec 53bd 0b16 10be c0a5 e1bc 85fe 023e
00000170: 2420 313e 18ba 6d3b 5a92 0dbc 103b 15be
00000180: ea66 47be ac63 333e d222 3d3e 24fc 063e
00000190: 6e4d d83d 4236 6b3e 8fde 6dbe 279f 323d
000001a0: c750 ab3e 04a9 10b9 299a 563e e334 5cbd
000001b0: c17e 833c ce59 87bd ae8f 9c3d a354 c93e
000001c0: 7e6a f6bd 19d9 cc3e 67b9 a9bd 6923 c13d
000001d0: 7985 68bd 58d0 503c d657 143e 213d 923e
000001e0: 8bcb b3bd 8cb4 f53d 0e80 093d a1f8 23bd
000001f0: e2aa a0bc 0c26 bb3c 34d3 983e fa8d debc
00000200: 6546 54bd 3362 3abd 6662 23bd bea2 883b
00000210: 025b 99bd 7ff9 fb3d 7910 d33d fa1c e7bd
00000220: 3da6 573d 89a8 3bbd 6583 103e 7d9a c4bd
00000230: ba48 c0bc 3d34 7dbd 5e49 0abe c5ce 943d
00000240: 04a3 52be 22aa 673d dc60 ab3b 498b 4cbc
00000250: 4e9c ec3b 4579 db3d 9b7d 99bc da7c b63d
00000260: e3d7 1fbd 3817 7cbd fc7c 113e 8be3 443e
00000270: 8b97 48be a170 b1bc d05e 84bd 45bc f3bc
00000280: 6eb4 82bb 3f2a 47be 2774 8fbd e06c 0e3e
00000290: 1d04 22be da01 bbbd 0b65 ffbd 64a2 29be
000002a0: 8f1f 27bc 34c9 703e 233c c93d e79e 8dbd
000002b0: 9cb5 f03d ca03 da3d 5e6d ac3d 401d 273e
000002c0: a730 22bd d5fc 7d3e 2755 0abe b861 84bc
000002d0: 3776 593b 3321 f73b 045e 9bbe 8a98 8fbd
000002e0: 1fff 55bc a9c0 7c3e 3c9f fcbd 0976 3a3e
000002f0: 165d 7fbc 9fa9 7a3d 489f 283c 538c 7f3d
00000300: a489 2f3e 99ad 0bbe 3da3 d7bd ec24 41be
00000310: 792e c7bd e6b3 143c d533 a93c c331 e33d
00000320: 8604 ec3d aa92 45be d4a6 16be e89c 2dbe
00000330: 4de7 783d dedf c5bd 3743 d2bd 9e2b bc3d
00000340: 1a37 0bbe 4e71 813d 2a3b 8cbd 4084 9b3c
00000350: d48c 853d 50b1 563d a515 bdbd 2cce 1ebe
00000360: 24d7 e5bd 8228 1e3e 1990 603d 0526 383c
00000370: 2b45 f2bd 9736 4bbe 4149 b9bd 3932 033e
00000380: c239 b8bd 092c 38be b0ab 16be d6b8 9abd
00000390: c3d7 063e 76f0 05be df7b 37be 7088 92bd
000003a0: c67b 81bb e346 54bc 9423 dcbd 9a7e 2e3e
000003b0: ed3c 07bd e4f2 2cbe 2aa7 3c3e 830a b43d
000003c0: 5e3f 19be 6fb2 15bc 416c 7a3d 77bb fc3b
000003d0: 5ebe 2c3d 3fb0 413e 7064 353e a948 22be
000003e0: 81b5 263e ee1b abbd 65e3 103e d372 163e
000003f0: 18b6 17be dc81 92bc 9787 a23d 8076 df3d
-0.2913179 0.10815259 0.12850389 0.051459327 0.118292354 0.050281465 0.20051892 0.09766863
-0.0524626 -0.11302817 0.32003647 -0.09350784 -0.019946724 0.057413362 0.25599658 -0.024400383
0.05910011 -0.15354317 0.23245214 -0.21420662 -0.13789062 0.182996 0.12368905 0.14334904
0.21749039 -0.05235628 -0.11033754 0.23144777 0.054392 -0.07597541 0.0051304675 0.0037780355
0.10655722 0.17692126 0.13033617 0.022294391 0.12413309 -0.011934578 -0.030800251 -0.02496531
0.11946182 -0.067361645 -0.10831057 0.02098396 0.084424764 -0.0041416953 -0.18121146 0.018832702
0.12826362 0.13475804 0.07332633 -0.2397709 0.049006183 0.005143264 0.06464948 0.36483675
0.3316681 -0.15452129 0.0785637 0.07535157 0.014469379 0.11703002 0.22842431 0.19212496
-0.007099708 -0.13193212 -0.1389191 -0.037164308 0.06376549 0.11573565 0.46662375 -0.022005811
-0.06930158 -0.05088687 0.15474412 0.07428612 0.14892262 0.098068126 0.12394663 0.027234135
-0.052337516 0.08976342 0.05949685 0.23906621 0.0144708585 0.09563051 -0.26215348 0.11757165
-0.051739413 -0.14070909 -0.027544856 0.12792404 0.17297417 0.003627425 -0.00864085 -0.14573312
-0.19472852 0.1751849 0.18470314 0.13182122 0.105616435 0.22969916 -0.2322943 0.04360881
0.33460066 -0.00013795873 0.20957245 -0.053761374 0.016051652 -0.06608926 0.07644592 0.39322385
-0.120320305 0.40009382 -0.08287316 0.09430582 -0.056767914 0.0127449855 0.14486632 0.28562263
-0.08779057 0.11997327 0.033569388 -0.040032033 -0.019612733 0.02284529 0.29848635 -0.02716731
-0.051824946 -0.045503806 -0.039888762 0.004169791 -0.074880615 0.12303447 0.10305876 -0.11284824
0.05264877 -0.045815025 0.14112623 -0.09599779 -0.023472179 -0.061817396 -0.1350455 0.07266001
-0.20569998 0.056558736 0.0052300524 -0.01248438 0.0072207814 0.1071649 -0.018736651 0.08910532
-0.039024245 -0.06154558 0.14207834 0.19227426 -0.19589059 -0.021660151 -0.064633965 -0.02975286
-0.003988794 -0.1944971 -0.07004576 0.1390872 -0.15821882 -0.091312125 -0.12470444 -0.16565853
-0.010200395 0.23514253 0.09825923 -0.06915074 0.11753389 0.10645254 0.08419298 0.16319752
-0.03959718 0.24803479 -0.13509046 -0.016159877 0.0033182034 0.0075417995 -0.30345166 -0.070115164
-0.013061314 0.24682869 -0.12335059 0.1820909 -0.015586158 0.06119692 0.010291882 0.062389683
0.1714235 -0.13640441 -0.10529182 -0.18861741 -0.09725661 0.009076094 0.020654598 0.11093476
0.115243 -0.19294229 -0.14712077 -0.16954386 0.06076746 -0.0966184 -0.102667265 0.09188007
-0.13595238 0.06320439 -0.06847222 0.01898396 0.065210015 0.052415192 -0.09232644 -0.15508336
-0.112226754 0.1544514 0.054824922 0.011239533 -0.11829599 -0.19845043 -0.09047175 0.12812127
-0.089953914 -0.17985548 -0.14713931 -0.07554786 0.13168244 -0.1308001 -0.17918347 -0.0715493
-0.0039515225 -0.012956354 -0.107489735 0.17040482 -0.033017088 -0.1688953 0.18423143 0.087910675
-0.14965579 -0.00913678 0.061138395 0.0077127772 0.042173736 0.18914889 0.17714095 -0.1584803
0.16280176 -0.083549365 0.14149244 0.1469224 -0.14815557 -0.017884187 0.07936018 0.10911274

bias f4 [72]
00000000: e8bd 683e ee78 8bbe ee5a ffbd fe27 ae3b
00000010: fa89 043f d934 b73d 1ce3 12be e89f 943e
00000020: 1a0c fbbd a0d7 703d 0c43 3fbd f80d c93e
00000030: 1054 9d3e c378 79bd db0f 1b3e f605 ab3d
00000040: 1edb 2cbe dd4c b03e a173 1c3f 9a29 8b3e
00000050: dc7a d6bd 4ecd 9c3c 019f ad3d 4666 fbbd
00000060: 165d d1bc d5c8 4a3d 130b 6abd 5042 563e
00000070: 1b7b 3c3d 2067 8c3e df7b 763e ee85 40be
00000080: 2e57 223d 9b75 6bbe 4085 e2bd 429b 963d
00000090: 21b2 a8be f9ff 213d ad51 5139 6675 08be
000000a0: 75cf 223e 5f3e 6bbd 63fb 18be 4719 3b3c
000000b0: 74e8 a23e dab6 a8bc 1c79 c03e 5e1e febd
000000c0: f026 933e 0c20 adbd 0e83 42be 0c29 73bd
000000d0: 5607 21bd 5fe6 a2bc f61a 593d 843b 673e
000000e0: d24e 3c3e 0dd7 2bbe f633 5e3e 816e 99bd
000000f0: 69b9 e43d 8f97 24be 9caa 9cbd defd 4d3e
00000100: a9e3 21be e498 10bd 71dc a53e d17f 833e
00000110: 47d0 bf3e e245 323e d8da 66be d063 ad3e
0.22728693 -0.272407 -0.12468515 0.005314826 0.51773036 0.08945627 -0.14344448 0.2902825
-0.122581676 0.058799386 -0.0466948 0.3926847 0.30728197 -0.060906183 0.15142767 0.08350746
-0.16880462 0.34433642 0.61113936 0.27180177 -0.10472652 0.019140866 0.08477593 -0.122753665
-0.025557082 0.049507935 -0.057139467 0.20923734 0.04601584 0.27422428 0.2407069 -0.1880109
0.039633922 -0.22994082 -0.11060572 0.07353832 -0.32948402 0.039550755 0.0001996222 -0.13326034
0.15899451 -0.05743253 -0.14939646 0.011419601 0.31817973 -0.020595003 0.375924 -0.12408136
0.28740644 -0.08453378 -0.18995306 -0.059365317 -0.039313637 -0.01988524 0.053004228 0.22581297
0.18389443 -0.16781254 0.21699509 -0.0749178 0.11168177 -0.1607344 -0.07649729 0.20116374
-0.15809502 -0.035302058 0.32394746 0.25683454 0.3746359 0.1740947 -0.2254442 0.33865213

weight f4 [120, 72]
00000000: 26df 6a3b 35ac 133d 2a76 2cbe 6fe7 aebd
00000010: b596 a73d 9ec6 f33c 13fc 2d3d 357d 8cbd
00000020: a8b9 b8bc 3abb e2bd 3c63 813c edd6 2c3e
00000030: 49d8 27be 3cf2 a8bd 86fe 683d 822d b43d
00000040: c753 a23d 0ea6 103e 9f5e 28ba 02d1 a6be
00000050: ff3e aa3d ed1d f3bb b6d5 36be 83ee 963d
00000060: 90dd 7bbc 5673 e73d e31c debd 339a babc
00000070: 4223 98be 4ac2 3cbe b7cf 303e b25e 423d
00000080: 9bb1 023d 12b0 ae3d d13b d63d 8c6f eebc
00000090: 4b3a b83d b751 69bd 8671 4abe 731c 20bd
000000a0: e744 833d f415 583e 24d9 37be a108 703d
000000b0: c1d5 b63d b367 79bd b1c5 8d3c 3460 c5bd
000000c0: 7571 59bd 59b4 1abd c30f 41bc 7908 e8bc
000000d0: c67e 143e d501 2d3e f810 8c3d 9c08 c93d
000000e0: e65b 7abd 63e0 c4bd 54ed ddbd c36c f43d
000000f0: 6a6c 43bd 3a38 983d 8bc0 2e3d addd a0bb
00000100: a003 95bc f877 a0bd 11f2 283d 5d8a cabd
00000110: b3a8 e8bd 0310 e83d eab2 1d3e c35b 693e
00000120: 40c0 373d 551b b33d 1049 1bbe e80d 91bc
00000130: 87d7 353d 154f 0ebc 859f a2bd 26e7 a4bc
00000140: 2b5e 013d 052c 823d 796a ad3d 6609 ec3d
00000150: 3d1a 2cbe 3ac6 44bc 43d8 083e 998c 1a3d
00000160: b4f1 85bc bb05 fb3d 985c 083c dc55 94be
00000170: 4cb5 a6bd 0b09 63bd 5e65 09be f8bd 9cbd
00000180: 17f6 6abd 6ff8 3a3e 0e73 b5bd 086b 3d3d
00000190: cc0c 90be c6f4 1dbe a3a6 853e 5854 cc3c
000001a0: 62f8 0ebc f98e 9dbd 476e e73d a986 f2bd
000001b0: 253e 053d fec5 9ebd 2dc1 c9bd 7218 b53d
000001c0: 22b9 043e a585 1a3e dc60 38be 1bae 963d
000001d0: 7a4b f43d 41b5 babc a6f1 8e3b c466 81bc
000001e0: 6313 08be c5a2 563d 3d01 a8bd 0ec5 f13d
000001f0: 12eb 0f3e 5c27 193e 17cf 063e 044c 4b3d
00000200: dd2e f0bd 3e1d de3d 4dd5 0cbe e675 823d
00000210: c7ad 2bbd 7294 1d3d 3b91 9c3d 1a50 553d
00000220: 59d8 a1bd c65d 553d e4b9 d33d 0076 5ebe
00000230: 0bf9 a6bd ea7e cf3d 3d5a f23d 100a 513e
00000240: a1ef 6d3d 1613 b03d d809 4fbe 550a e6bd
00000250: 41ca 503d f50f 333d 38f7 87bd d1e7 c8bd
00000260: f8de a03d 669b c03d 91cc 5f3d f7ec 833d
00000270: 7e65 42be 01ca c3bc 7dd5 853d 3059 02bd
00000280: fe25 b8bd e02c be3d 7e00 213d fe94 a1be
00000290: 5604 563d aca7 f6bd 32b9 82bd d4f2 083c
000002a0: feac c73d e289 ec3d 69d4 9b3c 38bc 74bd
000002b0: 362f 4bbe 048d f1bc 2e20 193e d9a1 b4bd
000002c0: 2704 ea3d 9bc0 2abb 9436 b9bd 019e d43d
000002d0: ec4d e23d a933 0bbd c107 e6bd 6b37 78bd
000002e0: 2ede 563d 6395 233e 4190 2fbe dfff aabb
000002f0: 9add 283e 5afe 753c da1a 483d 2e51 283d
00000300: d106 86bd 0d4d 8b3c 5d4d c1bd 0e27 f23c
00000310: 62f2 f13d f2b5 623e 28f1 6a3d b0b1 f03d
00000320: 7ce1 1bbd d6bf 64bd fa34 83be d733 483d
00000330: 2c53 09bd 2ae1 bc3d 271f 193d f91e 49bc
00000340: 71b4 2bbd 5d6d a4bd 9a06 bf3d 9de8 80bd
00000350: a45e 73bd a19a 593d 7dac cc3d eb9c 683e
00000360: 120f 913d 0e52 003e 33ce 3bbe ad53 acbc
00000370: cc5d ce3c 89a6 e53d 8494 a23d 9638 12bc
00000380: 8be6 be3b 3e5e 99bd e2c1 dcbc 4b0f ee3d
00000390: 7c9a 2dbe a4be 29bb 36aa 96ba bf53 5d3c
000003a0: 2469 1abd 86b4 e43d c258 913c 919f 7cbe
000003b0: 4278 babd 4a26 85bd dc1e 28be 44e2 9fbd
000003c0: 335f 363d 9d93 8e3d e5b4 b83d 941d 47bd
000003d0: a9fc 73be a9a6 ecbd 5386 4d3e 55a4 f93d
000003e0: a71f 163c 87b3 5d3d dcb2 bebd 18d3 57bd
000003f0: 303d c73d c8d8 d7bc 0417 0fbe 53e8 4b3d
0.0035838573 0.0360529 -0.16841951 -0.08540236 0.08183042 0.029757794 0.042476725 -0.06859819
-0.022549465 -0.11070867 0.015794389 0.16878863 -0.163911 -0.082493275 0.056883357 0.087977424
0.079261355 0.14125845 -0.0006422791 -0.32581335 0.08312797 -0.007419339 -0.17854962 0.07369711
-0.015372649 0.113012955 -0.108453535 -0.022778606 -0.297144 -0.1843349 0.17266737 0.04745359
0.03190766 0.085296765 0.10460628 -0.029105924 0.089954935 -0.056962695 -0.19769868 -0.03908963
0.064096265 0.21102124 -0.17953926 0.05860198 0.08927489 -0.06088991 0.01730618 -0.0963749
-0.053086717 -0.03776965 -0.011783543 -0.028324353 0.14501485 0.1689523 0.06839174 0.09816095
-0.061122797 -0.09613111 -0.10836282 0.11934807 -0.047710814 0.07432599 0.042664092 -0.0049092383
-0.018190205 -0.07835382 0.041246478 -0.09889672 -0.11360302 0.11331179 0.15400282 0.2278891
0.04486108 0.087454475 -0.1516459 -0.017706826 0.044394996 -0.008685847 -0.07940582 -0.020129751
0.031583946 0.06356052 0.08467574 0.1152523 -0.16806884 -0.0120101515 0.13363747 0.03773174
-0.016350605 0.122569524 0.008322857 -0.28971756 -0.081400484 -0.055428546 -0.13417575 -0.07653421
-0.057363596 0.18258832 -0.088598356 0.04624465 -0.28134763 -0.15425405 0.26103696 0.024942562
-0.008726211 -0.076932855 0.113003306 -0.11842091 0.03252997 -0.07752608 -0.098512985 0.08842553
0.12961248 0.15090044 -0.18005699 0.07357427 0.119284585 -0.022791507 0.004362303 -0.015796073
-0.13288645 0.052401323 -0.08203361 0.11805163 0.14054516 0.1495642 0.13164936 0.04963304
-0.117276885 0.10845421 -0.13753243 0.063701436 -0.041913774 0.038471647 0.07644888 0.052078344
-0.07902593 0.052091382 0.1033819 -0.21724701 -0.0815297 0.10131629 0.11833618 0.20413995
0.058089856 0.0859739 -0.20218599 -0.112324394 0.050974134 0.04371639 -0.0663895 -0.098098405
0.07855028 0.0940464 0.05463845 0.06441682 -0.18984029 -0.023900034 0.0653486 -0.031823337
-0.089916214 0.09285903 0.03930711 -0.31558985 0.05225023 -0.120436996 -0.063829795 0.008358676
0.097497925 0.115497366 0.019022183 -0.059749812 -0.19842228 -0.029486187 0.14953682 -0.088199325
0.11426573 -0.0026054743 -0.09043613 0.10381699 0.11050019 -0.033984814 -0.11231948 -0.060599726
0.05245798 0.15974955 -0.17144872 -0.0052184905 0.16490784 0.015014255 0.048853733 0.041093044
-0.06544269 0.017004514 -0.09438584 0.029559638 0.11813809 0.22139719 0.05735889 0.11752641
-0.038056836 -0.05584701 -0.25626355 0.048877563 -0.033526585 0.09222634 0.037383225 -0.012275451
-0.04192013 -0.08028672 0.09327431 -0.062943675 -0.05941643 0.05312598 0.09993837 0.2271611
0.070829526 0.12531301 -0.18340378 -0.021035993 0.02519121 0.11213405 0.07938483 -0.008924624
0.0058258227 -0.074886784 -0.02694792 0.11624011 -0.16953462 -0.0025900984 -0.0011494819 0.013508736
-0.037697926 0.111672446 0.017742518 -0.24670245 -0.091049686 -0.06501444 -0.16418022 -0.078068286
0.044524383 0.06961749 0.09018878 -0.048612192 -0.23826851 -0.115552254 0.20070772 0.12189547
0.00916282 0.05412629 -0.093114585 -0.05269155 0.097284675 -0.026348487 -0.13973624 0.04978211

bias f4 [120]
00000000: df73 47bd 6b16 b4bd ed8c e9bc a53a 533c
00000010: 28c5 0a3d 6351 b03d 9cd0 41bc 05cb fbbc
00000020: 07d2 32bd b820 1e3d e5bc e83d aeca 843d
00000030: 2bf7 ec3c 68fc 403d 0d06 cb3d 3996 0c3e
00000040: e59d e43c 43f8 2a3e 7f3f 2a3e 0ce1 183e
00000050: 045e bb3d 35f1 0b3e c0ed 163e a7de 983d
00000060: 6112 0e3e 1a04 773d 87fd 023e 9b45 923d
00000070: 5103 cc3d 07ad 283d 866c 973d f584 0d3d
00000080: 6877 d4bb 16be 4cbd 95aa 55bd 9991 9cbd
00000090: 4e16 8dbd 5350 b6bd 5c9a 2bbe 06df 3dbe
000000a0: 3eb8 17be 08fa 39be c335 49be 5ef4 08be
000000b0: 1f62 0bbe 777c ddbd 9e61 5f3a 2c98 59bd
000000c0: 23c0 0abd 859a 7d3b 8fb1 9a3d 6bcb 223c
000000d0: 95aa e83d 1a55 cf3d ba75 a53d 1f28 4f3e
000000e0: e770 0f3e c7c8 0d3e 19d6 cf3d 228d 663e
000000f0: 8ccf 193e ad15 d73d 815b ab3d d027 003d
00000100: 981e 5fbd 54f3 9c3c d4ee fa3c bea6 a53b
00000110: d55f 93bd e36d 00be 7f00 23bd 3bf7 2cbe
00000120: ec94 30be 27cf 4fbe bdf1 4bbe 1d51 fabd
00000130: f514 0cbe 5a81 69be 7085 e7bd af79 24be
00000140: 5e82 103d aabe fcbc d7c0 1d3c f959 943c
00000150: a65a 62bd c752 c13d 0dbe 773d 9680 413d
00000160: e64c c53d 9e58 743c c750 c83c 25a3 0a3d
00000170: 0611 1f3d 3a45 453d b68c 2f3d e049 e03c
00000180: 82f2 08bd 5cdb e0bc c4da 32bd f2b4 8ebd
00000190: 88fa f8bd 777c 3fbe a62f e1bd 53f2 f5bd
000001a0: e9c0 97bd 704d d4bd b4c9 0fbe 1160 d2bd
000001b0: 8548 cabd 80c1 c1bd f752 b4bd 1408 bfbc
000001c0: 8b0a e33c 5f8f 9d3d 1081 6d3d d223 b23d
000001d0: a623 2a3e 7bb7 7d3e c2aa 693e 26ef 563e
-0.048694488 -0.087933384 -0.028509581 0.0128924 0.03387943 0.08609273 -0.0118295215 -0.030736456
-0.04365733 0.03860542 0.11364154 0.064839706 0.028926453 0.047115713 0.099132635 0.1372918
0.027907321 0.16696267 0.16625784 0.14929599 0.091487914 0.13666232 0.14739132 0.074643426
0.13874198 0.060306646 0.12792026 0.071421824 0.0996157 0.041180637 0.07393746 0.034550626
-0.006483961 -0.049985968 -0.052164633 -0.07644958 -0.0688902 -0.089020394 -0.16758102 -0.18542108
-0.14816377 -0.18161786 -0.19649415 -0.13374469 -0.13611649 -0.108147554 0.0008521321 -0.053123638
-0.033874642 0.0038696837 0.07553398 0.009936194 0.11360661 0.10123654 0.08079095 0.20230149
0.14007913 0.13846122 0.10148258 0.22514775 0.15020579 0.10502181 0.08367062 0.03128797
-0.054472536 0.019158997 0.03063146 0.0050552776 -0.07196013 -0.12541918 -0.039795395 -0.16891186
-0.17244309 -0.20293866 -0.19916435 -0.122225024 -0.1367987 -0.2280325 -0.11304748 -0.16062044
0.035280578 -0.030852634 0.009628496 0.018109309 -0.05526223 0.09439617 0.06048398 0.04724177
0.09633808 0.014913706 0.02445258 0.033846993 0.038834594 0.048161723 0.0428588 0.027378976
-0.0334344 -0.027448349 -0.043665662 -0.06968106 -0.1215716 -0.18699823 -0.10995416 -0.1200911
-0.074098416 -0.103663325 -0.14041787 -0.102722295 -0.09877113 -0.09460735 -0.08804887 -0.023319282
0.027714988 0.076933615 0.05798441 0.086982384 0.16615161 0.24777023 0.22819045 0.20989665
