knn/models/pretrained-autoencoder/autoencoder-in_features30-latent_size8.pt (torch, 54273 bytes, 12 tensors)

weight f4 [72, 30]
0.0110107865 0.08778215 0.04262294 0.041439395 0.06420825 -0.046897136 -0.120958075 0.088223904
0.07677247 0.13688444 0.062502295 -0.06705676 0.101773106 -0.08132548 -0.093965285 -0.025531726
-0.048665024 0.16461152 0.04826207 -0.10267512 0.033792723 -0.020079065 -0.022962654 -0.03192729
-0.13020293 0.054795913 0.016480435 -0.022294873 -0.05791778 -0.18048905 -0.24446402 -0.13469242
-0.014457571 -0.067840256 0.054811075 0.010946405 -0.008121599 -0.06469701 -0.1543297 -0.12897675
-0.06469221 0.011301378 0.12941962 0.105277576 0.13323955 0.15434821 0.05379158 0.13591988
-0.010789881 0.0668766 0.0714489 -0.038933463 0.0637324 -0.04526495 0.068969294 -0.007083606
-0.027947878 -0.030108076 0.00021002172 -0.07444198 0.09849007 0.14022586 0.021331122 -0.0047722026
-0.067994505 -0.19523041 -0.19297172 -0.22571099 -0.19937609 -0.008548301 -0.07146384 -0.04038553
0.061367385 0.054983553 0.03114022 0.100225724 0.12781079 0.087232746 0.10566173 0.060377065
0.0146012725 0.07654222 0.06512013 0.065051325 -0.03274888 0.01201086 0.0033789051 -0.060392044
-0.09405252 -0.124335684 -0.23865521 -0.21609405 -0.097926944 -0.15539664 0.07516574 -0.049008198
0.11643668 -0.018434871 0.056466714 0.02487549 0.062204797 0.043220125 0.003287402 -0.10570068
-0.019502025 -0.092962034 -0.031281482 0.022714505 -0.13198763 -0.018278083 -0.09685306 -0.09818205
0.037928414 -0.028198816 0.14584623 0.23088084 0.19198251 0.06177964 -0.018025773 -0.13361734
-0.016903536 -0.10861274 0.13218412 0.106597595 0.039817546 -0.04764777 0.04949534 0.10672228
-0.14631635 0.009227442 0.08346432 0.058429293 0.049946837 -0.048141472 0.058721565 0.028769935
-0.16189548 -0.04223988 0.1082082 -0.012699761 0.17928067 -0.08902612 0.046393428 -0.0562208
0.0995298 0.015897304 0.036018185 -0.020580955 0.11262263 -0.09655794 0.010400868 0.021461004
0.0315597 0.017521078 0.04458675 0.0030179033 0.02722477 0.02040964 -0.0008314665 0.12002638
0.07746281 0.15251246 0.11072898 0.05774741 0.120865345 0.08974278 0.12924926 0.13316935
0.053445686 0.05063475 -0.076574005 -0.06731371 -0.117858596 -0.14453302 -0.08283383 -0.16593589
-0.07051106 -0.10460661 -0.026230734 -0.060024716 -0.047309447 -0.115436874 -0.027728902 0.076480314
0.09271969 0.027520346 -0.012978653 -0.12906611 -0.029334715 -0.05896319 -0.095463425 0.0011487686
0.08714302 -0.018395754 -0.07980052 -0.13121162 0.02603866 0.052372795 0.101081215 0.042393826
-0.051602606 -0.04816316 -0.07537506 -0.0084526185 -0.1163675 0.10543789 0.047266297 -0.009217582
-0.08089728 -0.04905874 -0.0694941 0.0918064 0.15419103 0.08153149 0.20582533 0.14234151
0.1883953 0.055976365 -0.020022813 -0.15450215 -0.09230415 -0.14604732 -0.18238741 -0.12827903
-0.106923856 -0.09307798 0.076906346 -0.041496333 -0.0547822 0.011182756 0.041202936 -0.022718696
-0.095881596 -0.13034263 -0.09426634 -0.002393628 -0.13902931 -0.09341444 -0.16728522 -0.10914508
-0.23892528 -0.18691227 0.0052700764 0.13363644 0.048552833 0.06917885 0.013029753 -0.04004339
-0.037100974 -0.16156481 -0.077609345 -0.082609124 -0.04967883 0.16203678 0.10154055 0.15436585
00000000: 9666 343c 21c7 b33d 6495 2e3d 5bbc 293d
00000010: 9d7f 833d 3617 40bd deb8 f7bd bcae b43d
00000020: e23a 9d3d 6f2b 0c3e 3401 803d 0e55 89bd
00000030: 6b6e d03d f98d a6bd df70 c0bd e927 d1bc
00000040: fa54 47bd ec8f 283e 73ae 453d 5547 d2bd
00000050: 3d6a 0a3d da7c a4bc 2d1c bcbc 31c6 02bd
00000060: eb53 05be ae71 603d fa01 873c bda3 b6bc
00000070: 323b 6dbd 1fd2 38be c754 7abe cfec 09be
00000080: 73df 6cbc d5ef 8abd 9481 603d 8d58 333c
00000090: 7510 05bc de7f 84bd 9b08 1ebe 7b12 04be
000000a0: 597d 84bd 6a29 393c 9486 043e c59b d73d
000000b0: f36f 083e 750d 1e3e 8f54 5c3d 952e 0b3e
000000c0: 0bc8 30bc 99f6 883d cd53 923d b278 1fbd
000000d0: 2286 823d bd67 39bd c63f 8d3d 981d e8bb
000000e0: f3f2 e4bc 36a5 f6bc 4739 5c39 0975 98bd
000000f0: 29b5 c93d 5e97 0f3e 9bbe ae3c 2360 9cbb
00000100: b440 8bbd 7bea 47be 619a 45be c820 67be
00000110: 3f29 4cbe 2c0e 0cbc a25b 92bd 4c6b 25bd
00000120: 5e5c 7b3d 6f36 613d c619 ff3c 2543 cd3d
00000130: d5e0 023e 15a7 b23d 2d65 d83d f14d 773d
00000140: 2d3a 6f3c 2bc2 9c3d b45d 853d a139 853d
00000150: b123 06bd 33c9 443c 9f70 5d3b a65d 77bd
00000160: 9c9e c0bd b5a3 febd 0862 74be c247 5dbe
00000170: ec8d c8bd 4c20 1fbe 7ff0 993d d2bc 48bd
00000180: 5b76 ee3d ba04 97bc a449 673d afc7 cb3c
00000190: 75ca 7e3d 9607 313d 7471 573b 9979 d8bd
000001a0: b6c2 9fbc e162 bebd 0321 00bd c513 ba3c
000001b0: c427 07be ebbb 95bc e65a c6bd ac13 c9bd
000001c0: d35a 1b3d 3401 e7bc b758 153e 076c 6c3e
000001d0: 1097 443e a60c 7d3d c9aa 93bc fcd2 08be
000001e0: 4979 8abc 5b70 debd 465b 073e d74f da3d
000001f0: b917 233d 4f2a 43bd a0bb 4a3d 3691 da3d
00000200: f4d3 15be b22e 173c 57ef aa3d 8e53 6f3d
00000210: 0e95 4c3d fe2f 45bd 0686 703d edae eb3c
00000220: eec7 25be b903 2dbd 439c dd3d a912 50bc
00000230: 5a95 373e 5453 b6bd 0907 3e3d c847 66bd
00000240: 48d6 cb3d 103b 823c ce87 133d 6499 a8bc
00000250: b2a6 e63d 2bc0 c5bd 6768 2a3c fdce af3c
00000260: be44 013d 5d88 8f3c 99a0 363d 04c8 453b
00000270: 7b06 df3c 1e32 a73c c6f6 59ba 64d0 f53d
00000280: d2a4 9e3d 3a2c 1c3e e0c5 e23d 8c88 6c3d
00000290: 4088 f73d 10cb b73d eb59 043e 8c5d 083e
000002a0: dde9 5a3d 6266 4f3d d5d2 9cbd c5db 89bd
000002b0: d95f f1bd 7700 14be c8a4 a9bd 19eb 29be
000002c0: 1a68 90bd fe3b d6bd d6e1 d6bc 7adc 75bd
000002d0: 8dc7 41bd 2b6a ecbd b927 e3bc b6a1 9c3d
000002e0: d2e3 bd3d 5972 e13c 6ba4 54bc e829 04be
000002f0: 5b4f f0bc 6383 71bd 5482 c3bd 4792 963a
00000300: 0a78 b23d b1b2 96bc 746e a3bd 575c 06be
00000310: 074f d53c db84 563d ab03 cf3d 26a5 2d3d
00000320: 415d 53bd bc46 45bd 3d5e 9abd da7c 0abc
00000330: 1552 eebd d2ef d73d 4e9a 413d 5705 17bc
00000340: 79ad a5bd d1f1 48bd ec52 8ebd fe04 bc3d
00000350: 41e4 1d3e fbf9 a63d e0c3 523e f9c1 113e
00000360: b3ea 403e 7947 653d e206 a4bc d035 1ebe
00000370: f509 bdbd 6e8d 15be c4c3 3abe 945b 03be
00000380: e5fa dabd ab9f bebd 1381 9d3d 0ff8 29bd
00000390: 4d63 60bd e137 373c 69c4 283d 8f1c babc
000003a0: 925d c4bd 8a78 05be b60e c1bd 6ade 1cbb
000003b0: b35d 0ebe 1250 bfbd d14c 2bbe 7587 dfbd
000003c0: d4a8 74be ee65 3fbe 9bb0 ac3b fed7 083e
000003d0: 56df 463d a4ad 8d3d bf7a 553c 8a04 24bd
000003e0: 31f7 17bd 3f71 25be a6f1 9ebd f92e a9bd
000003f0: 077c 4bbd f8ec 253e 7ef4 cf3d 1512 1e3e

bias f4 [72]
-0.14444849 -0.10139902 0.052907743 -0.016088333 0.4388447 0.040896524 0.60337406 -0.1335049
-0.1728445 0.12442481 0.04987528 0.3199491 0.1320016 0.22992668 0.19252604 -0.09908915
-0.0972074 0.1607623 0.37210628 -0.055882093 -0.1626489 0.40876094 0.10399232 0.124123104
0.17809606 0.14104351 -0.052917115 -0.05868877 -0.049202926 0.0010720878 -0.039410282 -0.013224761
-0.13700233 0.13948843 -0.16013576 0.1537088 0.049195938 0.09265763 0.07037375 -0.10487614
0.16270916 -0.08923552 0.044796545 0.09982451 -0.02019226 -0.127071 0.32266536 0.43121433
0.10783713 0.05411592 0.04773366 -0.16957568 -0.22599635 -0.077023715 0.05910728 0.028910743
-0.062296804 -0.03150134 0.23877613 0.118891545 -0.023725212 0.07109633 0.29818788 0.4401404
0.14353862 -0.051735952 -0.21421462 0.19727024 -0.10456267 0.019817203 -0.11912066 0.024082407
00000000: 4eea 13be 4aaa cfbd cab5 583d aecb 83bc
00000010: 41b0 e03e 1d83 273d b976 1a3f 82b5 08be
00000020: 26fe 30be 6fd2 fe3d 064a 4c3d 5ed0 a33e
00000030: 6d2b 073e e671 6b3e 8c25 453e 41ef cabd
00000040: ac14 c7bd df9e 243e b784 be3e 9fe4 64bd
00000050: 6f8d 26be 1d49 d13e edf9 d43d 4134 fe3d
00000060: d05e 363e b66d 103e 9ebf 58bd a363 70bd
00000070: 0289 49bd 4c85 8c3a ad6c 21bd abac 58bc
00000080: 574a 0cbe 0ed6 0e3e a1fa 23be d765 1d3e
00000090: ae81 493d 49c3 bd3d 1d20 903d 4dc9 d6bd
000000a0: 3b9d 263e 1dc1 b6bd 957c 373d cb70 cc3d
000000b0: 3d6a a5bc e61e 02be 6534 a53e 20c8 dc3e
000000c0: b7d9 dc3d a8a8 5d3d 5f84 433d 3fa5 2dbe
000000d0: 966b 67be 9cbe 9dbd 7a1a 723d 39d6 ec3c
000000e0: ef2a 7fbd 8d07 01bd bb81 743e 697d f33d
000000f0: 605b c2bc f49a 913d 15ac 983e 155a e13e
00000100: cafb 123e 14e9 53bd 145b 5bbe 3601 4a3e
00000110: f424 d6bd b057 a23c 88f5 f3bd 7848 c53c

weight f4 [24, 72]
0.017999891 0.08040248 0.03558825 -0.065737434 0.03879925 0.07669908 -0.045819327 -0.025634503
0.07769948 0.38376886 0.38262376 -0.014226822 0.01615123 0.12592174 -0.095555805 -0.020416768
0.07489138 -0.11609921 -0.047986828 0.020400371 -0.0012110642 0.034330614 -0.12783715 0.055445705
-0.014877425 0.11999658 -0.10149791 0.14793248 -0.035823297 -0.07799953 -0.11032449 -0.007439364
-0.017034821 -0.18581983 0.052751265 -0.023507878 -0.0599773 -0.01863755 -0.051609717 -0.1574507
-0.040962107 0.011034326 0.017278863 -0.07289641 -0.12148739 0.10940795 0.042482562 0.0050196066
-0.033659387 -0.012687891 -0.020235816 0.034544915 -0.07364267 0.04939439 0.020244714 0.064668335
-0.030443175 0.023055626 -0.014518916 -0.01669921 0.25127462 0.054689508 -0.0129508665 -0.032799494
-0.034886565 0.17157121 -0.098330624 0.17023265 -0.04026155 -0.07239583 -0.006695351 0.061085176
0.019530807 -0.010319581 -0.106446676 0.042412903 -0.06989675 -0.022038622 0.08258323 0.0051926835
-0.0910743 0.15737647 0.096975 -0.09003674 -0.039839394 0.041046172 -0.013076037 -0.113127805
0.011536087 -0.01385851 0.01025098 -0.02256062 0.08845025 0.07090566 0.0018846919 0.0013922058
0.008982837 -0.09076007 -0.040188484 -0.1134004 -0.06078519 0.09026446 -0.059846357 0.07267846
0.024164556 0.09608581 -0.062417377 0.041776013 -0.002703713 -0.009989656 0.015548645 -0.043379676
-0.013582681 0.06646793 0.05476291 -0.025244763 0.046887245 -0.063427284 -0.07354603 -0.053086955
-0.10821806 -0.080148414 -0.016893063 0.112141654 -0.08987169 -0.015087271 -0.09038041 0.029168002
-0.06643666 -0.06281359 0.082755424 0.05847233 0.06366476 -0.0733288 -0.033149786 0.04159064
-0.096059926 -0.094709665 -0.08010493 0.0906977 -0.02849277 -0.10777489 -0.087416776 -0.014419662
0.041802406 0.2504214 0.09094457 0.14946109 0.059760623 0.070253275 0.090458445 0.030622186
0.008825946 -0.05735252 0.06677805 0.04466922 -0.041591384 0.029056234 -0.024638671 -0.059351582
-0.09313721 -0.03601229 0.03602683 -0.018829234 -0.015837876 0.14087886 -0.10976061 0.04353747
0.09883511 0.02092191 0.03208669 0.03743487 0.062449887 -0.035906576 -0.027243994 0.17874366
0.0612776 0.41122234 -0.09002676 0.014713543 -0.1017355 0.1131449 0.096955135 0.121961206
0.08412776 0.03537442 -0.057420626 0.003600484 0.0066759503 -0.043933377 -0.0061046015 0.012681158
0.36834088 0.17652267 0.09368588 0.029881211 0.18111907 0.0324236 -0.029877437 0.017759029
-0.10971682 -0.008233327 0.022440078 -0.019202057 0.068284355 0.06387584 0.039828304 0.018254923
0.017939426 0.31760332 -0.003755801 0.1108051 -0.0635896 -0.018205706 -0.0035217395 -0.0360808
0.042857606 -0.038628597 0.011023349 -0.04371461 -0.083266735 -0.07337488 -0.025953501 -0.032046724
0.0010398615 -0.008942693 -0.10471312 -0.024183318 -0.059164446 -0.06885522 0.09713303 -0.08921419
0.017660929 -0.07650051 -0.025774991 -0.029540157 -0.03404554 0.020176226 -0.06449282 -0.0397526
-0.14650014 0.15608065 0.022178944 -0.1300404 -0.14580488 -0.08611227 0.08373871 -0.11320424
0.011034262 -0.021342391 -0.059462894 -0.06307721 0.11467511 0.0008979277 0.009076755 -0.061881527
00000000: 8274 933c 0eaa a43d fcc4 113d 59a1 86bd
00000010: f6eb 1e3d 6814 9d3d 0cad 3bbd 73ff d1bc
00000020: e820 9f3d 5a7d c43e 43e7 c33e 9e17 69bc
00000030: 964f 843c a1f1 003e c3b2 c3bd 1141 a7bc
00000040: a760 993d 6cc5 edbd d68d 44bd ae1e a73c
00000050: 92bc 9eba 429e 0c3d bee7 02be 091b 633d
00000060: 71c0 73bc c4c0 f53d 23de cfbd 9d7b 173e
00000070: 73bb 12bd 38be 9fbd cef1 e1bd e9c5 f3bb
00000080: 9c8c 8bbc 8e47 3ebe b611 583d 9893 c0bc
00000090: c2aa 75bd c6ad 98bc b664 53bd c23a 21be
000000a0: e2c7 27bd 51c9 343c 678c 8d3c b74a 95bd
000000b0: 61ce f8bd 4611 e03d 3202 2e3d 837b a43b
000000c0: 6dde 09bd dfe0 4fbc 95c5 a5bc f87e 0d3d
000000d0: f8d1 96bd c651 4a3d 3ed8 a53c d570 843d
000000e0: f763 f9bc 27df bc3c bfe0 6dbc c8cc 88bc
000000f0: 11a7 803e 1b02 603d df2f 54bc c358 06bd
00000100: 37e5 0ebd 5db0 2f3e 9161 c9bd 7851 2e3e
00000110: 4ce9 24bd 4444 94bd ad64 dbbb 7334 7a3d
00000120: 12ff 9f3c 7613 29bc b700 dabd 27b9 2d3d
00000130: 0726 8fbd 578a b4bc 6621 a93d 6327 aa3b
00000140: 2a85 babd 4c27 213e d49a c63d 2f65 b8bd
00000150: a22e 23bd 0820 283d e03c 56bc 8daf e7bd
00000160: db01 3d3c ce0e 63bc baf3 273c 0dd1 b8bc
00000170: 6825 b53d fd36 913d c407 f73a ad7a b63a
00000180: c02c 133c 6ae0 b9bd ae9c 24bd 783e e8bd
00000190: e4f9 78bd 93dc b83d 7421 75bd 72d8 943d
000001a0: bff4 c53c a3c8 c43d 5da9 7fbd 531d 2b3d
000001b0: c730 31bb a7ab 23bc bebf 7e3c e3ae 31bd
000001c0: e589 5ebc 5720 883d 134f 603d 1bce cebc
000001d0: d70c 403d 2ae6 81bd 4d9f 96bd b571 59bd
000001e0: 6ea1 ddbd da24 a4bd 5263 8abc 86aa e53d
000001f0: a60e b8bd 9a30 77bc 5d19 b9bd bcf1 ee3c
00000200: f20f 88bd 69a4 80bd ad7b a93d af80 6f3d
00000210: ab62 823d 692d 96bd 12c8 07bd f25a 2a3d
00000220: 11bb c4bd 24f7 c1bd 0e0e a4bd b7bf b93d
00000230: ab69 e9bc 15b9 dcbd 9107 b3bd 7240 6cbc
00000240: 0039 2b3d 3c37 803e 2641 ba3d 540c 193e
00000250: 8ec7 743d f3e0 8f3d 4742 b93d 61db fa3c
00000260: b39a 103c 7aea 6abd eec2 883d 12f7 363d
00000270: ba5b 2abd 5707 ee3c 0ad7 c9bc a51a 73bd
00000280: b9be bebd 9f81 13bd df90 133d c43f 9abc
00000290: 6fbe 81bc 8c42 103e 2cca e0bd 5954 323d
000002a0: 106a ca3d 6d64 ab3c 556d 033d 4e55 193d
000002b0: 74cb 7f3d c612 13bd cc2e dfbc 9408 373e
000002c0: 38fe 7a3d bc8b d23e f35f b8bd 1211 713c
000002d0: b45a d0bd 83b8 e73d 6a90 c63d ccc6 f93d
000002e0: 2d4b ac3d c5e4 103d e431 6bbd 19f6 6b3b
000002f0: eec1 da3b 7cf3 33bd 1c09 c8bb a2c4 4f3c
00000300: 2d97 bc3e 5cc2 343e 62de bf3d 71c9 f43c
00000310: 4777 393e 9cce 043d 87c1 f4bc 627b 913c
00000320: 36b3 e0bd 14e5 06bc 41d4 b73c a24d 9dbc
00000330: abd8 8b3d 56d1 823d 0123 233d 598b 953c
00000340: b4f5 923c e79c a23e e223 76bb c9ed e23d
00000350: 443b 82bd 2224 95bc fccc 66bb 76c9 13bd
00000360: 758b 2f3d 0539 1ebd 479b 343c 170e 33bd
00000370: c087 aabd 9245 96bd 709c d4bc 6d43 03bd
00000380: f64b 883a 5f84 12bc d573 d6bd 181c c6bc
00000390: 6b56 72bd f703 8dbd afed c63d eeb5 b6bd
000003a0: a7ad 903c 4dac 9cbd 1326 d3bc 33fe f1bc
000003b0: 5673 0bbd 9d48 a53c d014 84bd 9fd3 22bd
000003c0: 2204 16be 9bd3 1f3e 9eb0 b53c 5029 05be
000003d0: e04d 15be a15b b0bd 337f ab3d a0d7 e7bd
000003e0: 0dc9 343c 3dd6 aebc 5d8f 73bd a02e 81bd
000003f0: c9da ea3d e862 6b3a abb6 143c 7c77 7dbd

bias f4 [24]
-0.05332305 -0.09759207 0.08191347 -0.11552606 -0.008055307 -0.14916706 0.24777916 0.24075057
0.039859723 -0.12117484 0.1876405 0.04966083 0.1462863 -0.06725358 0.36918074 -0.040154614
-0.20479411 0.081869625 0.029190274 0.19525337 0.16494909 0.053595684 0.11989464 0.10653263
00000000: 4569 5abd 5ade c7bd 40c2 a73d ed98 ecbd
00000010: 68fa 03bc 40bf 18be d2b9 7d3e 5187 763e
00000020: f343 233d 842a f8bd d524 403e 2869 4b3d
00000030: 13cc 153e 3fbc 89bd 4205 bd3e 2a79 24bd
00000040: 8cb5 51be 43ab a73d 7120 ef3c 80f0 473e
00000050: 6ae8 283e 2687 5b3d 528b f53d c82d da3d

weight f4 [8, 24]
0.40221283 0.051864836 0.37840745 -0.0018525128 0.12304081 -0.4819858 0.1198435 0.5489552
0.08010399 -0.10004697 -0.0075227953 0.22415209 -0.38284263 -0.053540684 -0.09055316 0.019814592
-0.570414 0.3166097 -0.24044576 0.32944095 0.03897132 -0.06988659 0.18702315 -0.4960329
0.110044 0.05600605 -0.26462787 0.08443683 -0.07295289 -0.37092802 -0.59410477 0.09197027
-0.5173762 -0.16833472 0.22882967 -0.2833496 0.00043871903 -0.29372048 0.08479968 0.18449311
0.46905646 0.42261738 -0.23306678 0.42331654 0.3327805 -0.0059808544 -0.2737548 0.13043234
-0.2558403 -0.030041274 -0.1542656 0.27326676 0.105375364 0.28002557 -0.0018502312 0.19000521
-0.018375276 0.12852478 0.002083874 -0.19860569 0.05601894 -0.37457415 -0.31786737 0.4525699
0.22981437 0.10203344 -0.30981573 -0.2304816 -0.18456529 0.29942375 -0.110794745 -0.4650183
0.32518497 0.1723058 -0.17799717 -0.15566896 0.37917468 -0.47372255 0.16224477 -0.27934402
-0.21801765 0.14854932 -0.40896586 0.040473025 -0.15042564 0.0925849 -0.03685194 0.20234782
0.27341515 0.48554796 0.5458121 0.07925152 -0.23173805 0.26077604 -0.2951105 -0.137447
-0.17301437 -0.11122923 0.014824829 -0.041375395 0.19081602 0.21730724 0.21384893 0.17624198
-0.22823705 -0.18021633 -0.38928998 -0.1271407 -0.24954303 0.36479607 -0.43534628 -0.27949202
0.26094475 -0.07920443 0.081877336 -0.06370075 0.43493196 -0.25773 -0.24817261 -0.11750966
0.19269498 -0.11278044 -0.52950376 0.074637435 0.16039975 -0.07132857 -0.47756755 -0.07944254
0.006638728 -0.11450817 0.06699383 0.30245107 -0.225892 0.06791305 -0.23236506 -0.30509537
-0.10012052 0.03592638 -0.0729554 -0.26471016 0.17492653 0.32949412 0.54784065 0.118123785
0.12027603 0.05206405 0.54294163 -0.111925445 -0.08672139 -0.0605043 -0.499962 -0.4868696
0.029674973 -0.11947337 0.33627105 0.29942393 0.24037358 0.18204276 -0.4584259 0.24075672
-0.044031736 -0.15865804 0.21706183 0.010325078 -0.16868058 -0.32773772 -0.00885582 -0.07110482
-0.34710526 -0.0660873 -0.04045416 -0.15155654 0.4846507 0.38550675 -0.22421068 0.03872797
-0.119834624 -0.088357165 0.3025101 -0.009953424 -0.4461675 0.38597307 0.24753913 -0.24876322
0.13682412 -0.19069754 -0.17755602 0.372628 -0.38651147 -0.20115122 -0.01229775 -0.21059847
00000000: d7ee cd3e 3970 543d 9fbe c13e 04d0 f2ba
00000010: d2fc fb3d d8c6 f6be 8270 f53d 5488 0c3f
00000020: 900d a43d 6de5 ccbd c881 f6bb 2088 653e
00000030: f303 c4be 7a4d 5bbd ef73 b9bd 3652 a23c
00000040: a706 12bf ab1a a23e 6a37 76be 7cac a83e
00000050: 64a0 1f3d b320 8fbd ff82 3f3e 06f8 fdbe
00000060: c05e e13d 9a66 653d 4e7d 87be 37ed ac3d
00000070: 5368 95bd 47ea bdbe 4017 18bf e95a bc3d
00000080: c472 04bf f05f 2cbe 5352 6a3e 3313 91be
00000090: df03 e639 8862 96be 74ab ad3d c3eb 3c3e
000000a0: 2b28 f03e 4e61 d83e 0fa9 6ebe f2bc d83e
000000b0: 3562 aa3e 0bfb c3bb 9729 8cbe 0e90 053e
000000c0: 80fd 82be 1e19 f6bc cdf7 1dbe 9fe9 8b3e
000000d0: 0acf d73d 835f 8f3e 7583 f2ba ba90 423e
000000e0: bf87 96bc 009c 033e 9b91 083b 4a5f 4bbe
000000f0: 1e74 653d 2fc8 bfbe 83bf a2be 3eb7 e73e
00000100: 7554 6b3e e8f6 d03d 2ba0 9ebe 5e03 6cbe
00000110: affe 3cbe 124e 993e 5be8 e2bd e116 eebe
00000120: a57e a63e ee70 303e e444 36be af67 1fbe
00000130: 2f23 c23e c38b f2be 7e23 263e 2e06 8fbe
00000140: 0540 5fbe 501d 183e f963 d1be 0bc7 253d
00000150: 2e09 1abe 279d bd3d 0ff2 16bd 4434 4f3e
00000160: 12fd 8b3e be99 f83e 57ba 0b3f 9f4e a23d
00000170: bd4c 6dbe 7084 853e b918 97be e8be 0cbe
00000180: ae2a 31be 27cc e3bd d7e3 723c 3f79 29bd
00000190: 4665 433e ca85 5e3e 37fb 5a3e c778 343e
000001a0: f9b6 69be a18a 38be 0451 c7be 2c31 02be
000001b0: 3588 7fbe 8dc6 ba3e b5e5 debe 9419 8fbe
000001c0: 8d9a 853e ef35 a2bd 4eaf a73d 8a75 82bd
000001d0: 67af de3e 30f5 83be f620 7ebe e8a8 f0bd
000001e0: d551 453e 6ef9 e6bd 8f8d 07bf 83db 983d
000001f0: d53f 243e b714 92bd bc83 f4be c5b2 a2bd
00000200: b089 d93b 4283 eabd 1034 893d deda 9a3e
00000210: 3c50 67be ff15 8b3d 1bf1 6dbe 7635 9cbe
00000220: fd0b cdbd 8a27 133d a469 95bd 1788 87be
00000230: f11f 333e 74b3 a83e 493f 0c3f e2ea f13d
00000240: 4753 f63d 1d41 553d 39fe 0a3f 2b39 e5bd
00000250: fc9a b1bd 5bd3 77bd 05fb ffbe f946 f9be
00000260: ee18 f33c 74ae f4bd b82b ac3e 184e 993e
00000270: 7e24 763e 6b69 3a3e cdb6 eabe ee88 763e
00000280: 9f5a 34bd 4177 22be 7545 5e3e 842a 293c
00000290: 9aba 2cbe 3dcd a7be 0018 11bc 679f 91bd
000002a0: c8b7 b1be c758 87bd 43b3 25bd a331 1bbe
000002b0: 2324 f83e 2461 c53e 7c97 65be 38a1 1e3d
000002c0: db6b f5bd 9af4 b4bd 9be2 9a3e b013 23bc
000002d0: 1170 e4be 439e c53e e67a 7d3e c9bb 7ebe
000002e0: 9f1b 0c3e 3746 43be 3fd1 35be 19c9 be3e
000002f0: d5e4 c5be 96fa 4dbe 817c 49bc 20a7 57be

bias f4 [8]
-0.2285764 0.15012021 -0.073856555 -0.15320376 -0.12119882 -0.04733517 -0.0042689918 0.06387886
00000000: ef0f 6abe 1db9 193e 1b42 97bd 72e1 1cbe
00000010: 1637 f8bd 86e2 41bd e6e2 8bbb ebd2 823d

weight f4 [24, 8]
0.055758186 -0.21720272 0.017387351 0.08503795 -0.023570986 -0.1778464 -0.05861842 0.017050186
0.018201021 0.06491307 0.23308462 -0.19613639 -0.069062375 0.064135924 -0.016160546 -0.113121495
0.3596121 -0.11621096 0.06640582 -0.29564938 0.063728265 0.15792854 -0.1346323 0.21423443
-0.103162296 -0.017366698 -0.035048228 -0.04264174 -0.3617192 -0.34804696 -0.1750757 0.18269585
0.27232772 0.16067436 0.18424731 0.34425882 0.07852394 -0.101702265 -0.33208668 0.18660323
0.27336958 0.5002508 -0.1302753 0.1305503 -0.027656721 -0.045445897 0.38021186 0.0035982113
0.042310342 -0.023625083 -0.36606017 -0.0879921 -0.22369461 -0.16503786 -0.035980407 -0.12196683
-0.31382823 -0.18108658 -0.22007866 -0.40256295 -0.10157858 0.120871834 0.38053983 -0.20000063
-0.042062555 0.17292525 -0.37052915 -0.09902788 -0.31106684 -0.018195054 -0.2547921 0.15805992
-0.14874929 -0.006809585 -0.1586825 0.1380931 -0.1259162 0.30903205 -0.21859811 0.09475222
-0.009877017 0.15222329 -0.5090598 -0.20764866 0.16045116 0.013553699 -0.42124447 -0.25497878
0.07075392 -0.08801606 0.32185033 -0.13582993 -0.2932453 -0.0033076894 -0.19178095 -0.46259665
0.12683076 0.06354518 -0.28154117 -0.29454917 0.21168076 -0.5100381 -0.12800278 -0.14150558
-0.102493666 -0.15543921 -0.048396897 0.14047042 -0.12811233 -0.045899484 -0.028479392 -0.16874282
0.162938 -0.1783437 -0.0211497 0.14482649 -0.060108267 -0.047637884 0.019293776 -0.041969385
-0.24019325 -0.42436585 0.12758999 -0.10279512 0.0032273924 0.022890836 -0.31128538 0.0044259587
-0.068537146 0.08105921 -0.2999858 0.10191571 0.28719318 -0.0046087657 0.16337979 0.3939274
0.30347097 -0.18093003 0.093979895 -0.081151485 -0.018695574 0.16880274 -0.19528623 0.06544001
-0.22120178 0.06361606 0.052926276 -0.2107216 0.0014610661 0.19960381 0.13815516 -0.14900096
-0.23935997 0.32860547 0.17763717 -0.097444445 0.3120598 -0.13589035 -0.20069626 0.16041324
0.025276005 0.04904331 0.0067363856 -0.03618935 -0.24411453 -0.19017416 -0.08216039 0.15821066
-0.04703301 -0.18023257 -0.30951747 0.18641685 -0.25545064 -0.114407375 -0.2666739 0.16197677
-0.06953393 -0.05899606 -0.25950846 -0.044311825 0.268102 -0.18653785 -0.0698813 -0.13986476
-0.3327068 0.121610716 -0.034358248 0.27413592 -0.06327754 -0.1165474 0.15156165 -0.179597
00000000: b262 643d 646a 5ebe eb6f 8e3c 6028 ae3d
00000010: f117 c1bc 5e1d 36be de19 70bd d5ac 8b3c
00000020: 4f1a 953c 25f1 843d bcad 6e3e fad7 48be
00000030: 9370 8dbd b259 833d 1f63 84bc 3eac e7bd
00000040: 141f b83e 0300 eebd c6ff 873d 5b5f 97be
00000050: f783 823d 05b8 213e 0ddd 09be 4560 5b3e
00000060: c146 d3bd 9b44 8ebc bb8e 0fbd 1ba9 2ebd
00000070: 4233 b9be 3633 b2be 0b47 33be 9f14 3b3e
00000080: 8a6e 8b3e d287 243e 54ab 3c3e b142 b03e
00000090: 29d1 a03d 4749 d0bd 4407 aabe eb14 3f3e
000000a0: 19f7 8b3e 7010 003f e366 05be faae 053e
000000b0: 5990 e2bc 7a25 3abd 21ab c23e f8cf 6b3b
000000c0: 9c4d 2d3d 6489 c1bc 3d6c bbbe 3435 b4bd
000000d0: 3310 65be afff 28be 3160 13bd bfc9 f9bd
000000e0: 18ae a0be c36e 39be 4d5c 61be bb1c cebe
000000f0: 6e08 d0bd a78b f73d 1ed6 c23e f7cc 4cbe
00000100: c949 2cbd 5113 313e ffb5 bdbe 21cf cabd
00000110: 2744 9fbe cb0d 95bc 1c74 82be 76da 213e
00000120: bc51 18be f022 dfbb aa7d 22be 4768 0d3e
00000130: 2df0 00be 7339 9e3e 2fd8 5fbe 740d c23d
00000140: 36d3 21bc 6ce0 1b3e be51 02bf daa1 54be
00000150: 4f4d 243e 5510 5e3c 5bad d7be 948c 82be
00000160: 6ee7 903d c441 b4bd 91c9 a43e 0017 0bbe
00000170: 3f24 96be d2c5 58bb 3a62 44be 78d9 ecbe
00000180: ecdf 013e fa23 823d 2a26 90be 26cf 96be
00000190: d7c2 583e db91 02bf 2913 03be d7e6 10be
000001a0: 33e8 d1bd 752b 1fbe d33b 46bd 7ad7 0f3e
000001b0: e12f 03be 1901 3cbd 9d4d e9bc ebca 2cbe
000001c0: 38d9 263e bb9f 36be 2342 adbc 654d 143e
000001d0: 1634 76bd f11f 43bd fb0d 9e3c 17e8 2bbd
000001e0: 38f5 75be 7b46 d9be f3a6 023e 3f86 d2bd
000001f0: a982 533b 9085 bb3c cc60 9fbe a207 913b
00000200: 345d 8cbd 5f02 a63d bd97 99be 2fb9 d03d
00000210: fc0a 933e 2105 97bb 084d 273e dab0 c93e
00000220: 8c60 9b3e b945 39be 8878 c03d c032 a6bd
00000230: 7627 99bc a0da 2c3e 1df9 47be 6905 863d
00000240: b882 62be 2349 823d 39c9 583d 67c7 57be
00000250: 3e81 bf3a f164 4c3e 8c78 0d3e b593 18be
00000260: c81a 75be fa3e a83e 85e6 353e f490 c7bd
00000270: 4dc6 9f3e d726 0bbe 5283 4dbe 5e43 243e
00000280: a00f cf3c a3e1 483d e6bc dc3b 493b 14bd
00000290: 29f9 79be 04bd 42be b543 a8bd fa01 223e
000002a0: afa5 40bd e38e 38be 1379 9ebe 0fe4 3e3e
000002b0: 6dca 82be 6a4e eabd 7b89 88be 3ddd 253e
000002c0: ce67 8ebd daa5 71bd 4bde 84be 5180 35bd
000002d0: aa44 893e c703 3fbe ed1d 8fbd b538 0fbe
000002e0: 8c58 aabe 0a0f f93d 3cbb 0cbd 8b5b 8c3e
000002f0: a897 81bd 67b0 eebd fa32 1b3e 47e8 37be

bias f4 [24]
0.43478784 0.28128722 0.069522195 0.48159122 0.14771284 0.08388841 0.12067283 -0.19426346
0.27346233 -0.077603534 0.3930318 -0.37676644 0.35152853 0.60100454 0.37072492 -0.034956038
0.32784307 0.14190109 0.20912133 0.08128792 0.44855413 0.45001367 0.4615643 0.054992873
00000000: 839c de3e e104 903e a761 8e3d 2093 f63e
00000010: 0942 173e b0cd ab3d 5123 f73d 00ed 46be
00000020: 4103 8c3e 9aee 9ebd 773b c93e 88e7 c0be
00000030: 8cfb b33e 6fdb 193f a8cf bd3e 102e 0fbd
00000040: 0cdb a73e 854e 113e e723 563e 487a a63d
00000050: e3a8 e53e 3168 e63e 2852 ec3e 3540 613d

weight f4 [72, 24]
-0.10644597 0.113473825 0.029144054 -0.08625483 -0.1477273 -0.11568786 0.18887523 0.40317345
-0.12659582 0.032820154 -0.06530728 0.010161099 -0.0079387035 0.08067375 -0.08686325 0.15608476
-0.029939407 -0.1705547 0.21300623 -0.13309728 0.0048893313 -0.019996554 0.1209607 -0.04466938
0.01857903 -0.08993005 0.094267264 0.014293589 -0.019422784 0.018630017 -0.019750375 -0.16628595
-0.099399745 0.08678976 0.19952224 -0.08654638 -0.1661997 -0.15480494 0.115887515 -0.022971436
-0.1821445 0.10686198 -0.1516613 -0.18594168 -0.16847888 -0.058926888 -0.056129955 -0.101697706
0.17940466 0.16766697 -0.048109453 0.4076727 -0.06914145 0.004606519 0.11981051 0.08479076
-0.12887065 -0.13892171 0.07174832 -0.07469641 0.14000653 0.15996268 -0.13566448 0.13015804
0.034013994 0.058956858 0.056917533 0.047939487 0.05589216 -0.10707772 -0.100356504 -0.070367314
0.11618527 0.1666408 0.16690081 0.06308271 -0.09618286 -0.09348598 0.10649522 -0.10936144
0.1605192 0.04851854 -0.06838128 -0.011054321 -0.0032966821 -0.12965739 0.060412563 -0.017471895
-0.16645652 -0.01684341 -0.2709631 -0.0934088 0.0855988 0.16964553 -0.13286763 -0.008970255
-0.076287135 0.16922176 -0.100595 -0.06821446 0.08374354 -0.115358256 -0.009979453 -0.17765464
-0.010281149 0.007738847 0.0031219237 0.06314498 -0.018948853 0.24743995 0.09581246 0.2163704
0.040031325 -0.07280905 0.12891193 0.37194327 -0.16606528 -0.18203264 0.28911367 0.27186668
0.14809194 0.07487417 0.08909501 0.16639264 -0.1567599 -0.01039706 0.088059425 0.40438572
-0.010734938 -0.10139781 -0.1264712 -0.1852595 -0.0055929683 -0.026627691 -0.009874349 0.11768287
0.18169884 0.010062691 0.04773082 -0.1889642 -0.03221803 -0.10765844 0.0029179733 0.0088489475
0.0024088114 -0.011826952 -0.19002396 -0.04802708 0.27740788 0.12110965 0.021051068 -0.17317498
-2.8944305e-05 -0.13061503 -0.102787465 -0.06885986 0.02785912 0.11800601 0.1449523 -0.1277093
0.11174097 0.07046819 -0.05210777 -0.0684968 -0.09309928 0.22854547 0.1669607 0.17931776
0.2446598 -0.11233307 -0.21074167 0.22171433 0.12991664 -0.033821583 -0.09013829 -0.10287452
-0.049176976 -0.046519093 0.038010973 -0.20578547 0.008452046 -0.12199795 0.1864451 0.19349402
0.061053507 -0.13805881 -0.16133362 0.028707046 -0.08974373 0.04328633 0.334733 0.14883554
-0.15025976 -0.022764016 -0.04858108 -0.045094483 0.26206648 0.21079735 -0.056452967 -0.11861466
0.16237068 -0.15821096 -0.04440791 0.050241224 0.019363817 0.20598021 0.01865365 0.05258984
-0.12379368 -0.14882518 -0.12328653 -0.04522867 0.1324299 0.18966836 -0.021742888 0.16231759
-0.073552676 -0.0050903885 0.12174441 -0.15635076 0.10773761 0.13895768 0.18526784 0.090660855
-0.102568224 -0.08005432 -0.022251638 0.014640356 0.0077552567 -0.03000001 -0.07235765 -0.049395178
0.08590985 -0.17450099 0.16850035 0.06811594 0.065762915 0.056419987 -0.10504515 0.013707916
-0.11105181 0.10687766 -0.0008348103 -0.18904708 -0.029725298 0.5407437 0.06427329 -0.07312539
-0.032345995 0.03498504 0.056923363 -0.081631176 0.0025188832 0.06708229 0.28496173 -0.036571573
00000000: 5800 dabd f764 e83d 83bf ee3c 5fa6 b0bd
00000010: d345 17be c2ed ecbd 8268 413e c06c ce3e
00000020: 56a2 01be 6d6e 063d d3bf 85bd bd7a 263c
00000030: 5611 02bc 4738 a53d 5ce5 b1bd afd4 1f3e
00000040: 7d43 f5bc e4a5 2ebe 4e1e 5a3e a74a 08be
00000050: af36 a03b d0cf a3bc 3eba f73d 3df7 36bd
00000060: 0d33 983c 3f2d b8bd 320f c13d a82f 6a3c
00000070: 881c 9fbc fa9d 983c 8acb a1bc dd46 2abe
00000080: 1892 cbbd d4be b13d 8f4f 4c3e 3a3f b1bd
00000090: 4130 2abe 3085 1ebe 6f56 ed3d 982e bcbc
000000a0: 1684 3abe 74da da3d 1a4d 1bbe 7f67 3ebe
000000b0: ba85 2cbe 525d 71bd 86e8 65bd e346 d0bd
000000c0: dbb5 373e e4b0 2b3e 6b0e 45bd 7aba d03e
000000d0: 089a 8dbd 48f2 963b 365f f53d c7a6 ad3d
000000e0: abf6 03be 7e41 0ebe c8f0 923d 6efa 98bd
000000f0: df5d 0f3e 42cd 233e a1eb 0abe 2648 053e
00000100: 4252 0b3d bf7c 713d 5c22 693d 325c 443d
00000110: 2def 643d 904b dbbd b687 cdbd bd1c 90bd
00000120: 8bf2 ed3d e3a3 2a3e 0ce8 2a3e 8231 813d
00000130: 85fb c4bd 9475 bfbd 2a1a da3d e4f8 dfbd
00000140: 255f 243e 60bb 463d 7c0b 8cbd 2f1d 35bc
00000150: 260d 58bb e8c4 04be 2a73 773d 3821 8fbc
00000160: 9473 2abe 31fb 89bc adbb 8abe 1d4d bfbd
00000170: 6c4e af3d 8fb7 2d3e 740e 08be faf7 12bc
00000180: 6e3c 9cbd 7848 2d3e c004 cebd 06b4 8bbd
00000190: bc81 ab3d f340 ecbd dc80 23bc 19eb 35be
000001a0: 4472 28bc 2796 fd3b 3099 4c3b 2852 813d
000001b0: a03a 9bbc e660 7d3e 5339 c43d 3490 5d3e
000001c0: e3f7 233d e91c 95bd 7d01 043e 596f be3e
000001d0: 040d 2abe c466 3abe b506 943e 1c32 8b3e
000001e0: 6aa5 173e a157 993d 7277 b63d d562 2a3e
000001f0: ab85 20be 6e58 2abc 8058 b43d a50b cf3e
00000200: 98e1 2fbc a8a9 cfbd ab81 01be abb4 3dbe
00000210: 3845 b7bb 5122 dabc 06c8 21bc b703 f13d
00000220: 430f 3a3e fcdd 243c 6481 433d d57f 41be
00000230: 0ef7 03bd 077c dcbd 783b 3f3b 2dfb 103c
00000240: 26dd 1d3b d5c5 41bc a495 42be 0bb8 44bd
00000250: 6808 8e3e 5608 f83d 4a73 ac3c c854 31be
00000260: 6ccd f2b7 f2bf 05be 3c82 d2bd 6606 8dbd
00000270: cf38 e43c 23ad f13d 606e 143e 3ac6 02be
00000280: 73d8 e43d a051 903d f56e 55bd 0d48 8cbd
00000290: d6aa bebd d307 6a3e bff7 2a3e 139f 373e
000002a0: 1988 7a3e e10e e6bd aacc 57be 1509 633e
000002b0: de08 053e 8088 0abd 6c9a b8bd e0af d2bd
000002c0: cc6d 49bd ce8a 3ebd 65b1 1b3d 6db9 52be
000002d0: 737a 0a3c 10da f9bd 77eb 3e3e 4c23 463e
000002e0: 3e13 7a3d 4a5f 0dbe a434 25be 0a2b eb3c
000002f0: 90cb b7bd 024d 313d 2062 ab3e 5868 183e
00000300: b2dd 19be 9a7b babc f4fc 46bd feb4 38bd
00000310: 942d 863e 43db 573e 3a3b 67bd 3eec f2bd
00000320: 8044 263e 0e02 22be 12e5 35bd bec9 4d3d
00000330: dea0 9e3c 7aec 523e 8acf 983c 7268 573d
00000340: 8a87 fdbd a165 18be a67d fcbd b341 39bd
00000350: b49b 073e 6c38 423e 241e b2bc 9536 263e
00000360: c9a2 96bd 46cd a6bb 2255 f93d 6a1a 20be
00000370: 89a5 dc3d ec4a 0e3e dab6 3d3e 66ac b93d
00000380: 4a0f d2bd 85f3 a3bd 1149 b6bc 1bde 6f3c
00000390: cf1f fe3b 95c2 f5bc 3f30 94bd 9952 4abd
000003a0: 81f1 af3d 63b0 32be 5b8b 2c3e 5f80 8b3d
000003b0: b5ae 863d a518 673d e921 d7bd 2b97 603c
000003c0: 226f e3bd ade2 da3d 2cd7 5aba 8f95 41be
000003d0: 7882 f3bc 2e6e 0a3f b7a1 833d c4c2 95bd
000003e0: 3c7d 04bd 794c 0f3d 7928 693d 3f2e a7bd
000003f0: d913 253b 7162 893d 81e6 913e 13cc 15bd

bias f4 [72]
0.32225922 -0.022758204 -0.120825306 0.33914402 0.1862083 0.30062136 -0.020359086 -0.2765573
-0.027605817 -0.17854697 0.23799506 -0.42922282 0.11014662 -0.05829003 0.3143502 0.16975848
0.30935028 -0.5714488 -0.005190669 -0.19402045 -0.17286555 -0.13504757 0.046611123 -0.30524182
0.03455597 0.26390484 -0.057664044 0.23131588 -0.016324699 -0.015124056 0.12394562 0.3622711
0.31847546 0.31381297 0.19935358 -0.02813568 -0.11750186 -0.06532825 -0.084073596 -0.119125046
-0.023446152 -0.29947683 0.15032923 0.19879523 -0.08333821 -0.22885135 -0.09834176 -0.041577466
-0.06697595 0.23800117 0.30312324 -0.08277201 -0.18737994 -0.11390601 0.006874053 -0.13207549
0.048570246 0.1947284 -0.037936714 -0.13222936 -0.21849814 -0.011835074 -0.17073385 0.012249758
0.041338876 0.40433002 -0.25505888 0.020766024 -0.1683197 -0.11885948 0.19521563 -0.11065132
00000000: 29ff a43e 6a6f babc 4273 f7bd 49a4 ad3e
00000010: 63ad 3e3e 0beb 993e 19c8 a6bc eb98 8dbe
00000020: 9825 e2bc 04d5 36be fab4 733e 18c3 dbbe
00000030: 8d94 e13d 87c1 6ebd 82f2 a03e 2bd5 2d3e
00000040: 2963 9e3e 784a 12bf 7d16 aabb 4cad 46be
00000050: ab03 31be e949 0abe 4eeb 3e3d a848 9cbe
00000060: 908a 0d3d 891e 873e 2231 6cbd 12de 6c3e
00000070: 60bb 85bc e3ca 77bc 34d7 fd3d 997b b93e
00000080: 370f a33e 18ac a03e 5823 4c3e cc7c e6bc
00000090: d1a4 f0bd d1ca 85bd c72e acbd d5f7 f3bd
000000a0: 2512 c0bc 0755 99be e8ef 193e fa90 4b3e
000000b0: 39ad aabd 0258 6abe 6867 c9bd 224d 2abd
000000c0: b02a 89bd 94b6 733e f832 9b3e 5f84 a9bd
000000d0: 87e0 3fbe 8e47 e9bd bc3f e13b cc3e 07be
000000e0: 98f1 463d e266 473e 8763 1bbd 2267 07be
000000f0: fabd 5fbe e6e7 41bc dbd4 2ebe 35b3 483c
00000100: f452 293d 5804 cf3e 1497 82be 821d aa3c
00000110: 005c 2cbe 996c f3bd 9be6 473e 299d e2bd

weight f4 [30, 72]
-0.2921916 -0.07785168 0.11922859 0.08669156 -0.04284191 -0.25543806 -0.21210577 -0.13532005
0.15273672 -0.020008115 -0.030632481 -0.3451127 -0.015753679 0.019742617 -0.19562571 0.22987814
0.22606522 0.12966837 -0.12585182 0.025812183 -0.07807745 0.20656268 0.35595295 -0.026723295
0.08177864 0.42598003 0.28973925 0.07443827 0.032959875 -0.061584856 -0.36823076 0.3308689
-0.03193492 -0.24796861 -0.2327839 -0.11113425 0.1310061 -0.11319246 0.0425587 -0.10613303
0.12328835 -0.05784826 -0.0041863937 -0.039873324 0.23491532 -0.0892436 0.11780406 0.011809383
0.07444132 -0.041213565 -0.023178363 -0.24527453 -0.035234895 0.10899319 -0.25077257 -0.12181228
-0.054995503 0.06271138 -0.07062861 -0.02867031 -0.14088877 -0.29914996 0.046403803 0.018493386
-0.035091177 -0.19122304 -0.3162903 -0.046765704 0.05933332 -0.060071982 0.100069724 -0.06714438
-0.18018329 0.049751714 -0.0040794434 0.06631181 0.11240576 -0.23953393 -0.18160279 -0.07290115
0.07907288 0.00896185 -0.033951502 -0.251332 -0.03876088 -0.025376812 -0.16011907 0.2043614
0.1840827 0.1632971 -0.013341084 -0.01397219 -0.09433535 0.13149194 0.26712376 -0.016298879
-0.06527899 0.34188503 0.2625043 0.03419063 -0.0845605 -0.05605652 -0.36227846 0.32391727
0.11322181 -0.08359095 -0.1440457 -0.15108678 0.1528885 0.019341867 0.080275655 0.080053076
0.1020394 -0.06818577 -0.01949084 0.03327929 0.15986194 -0.13248774 -0.013214988 0.017507931
0.04863274 0.036613137 -0.044169296 -0.19399482 0.053054266 -0.04684049 -0.19343358 -0.1065266
0.017945716 0.018262682 0.032901123 -0.013305151 -0.018902095 -0.2286038 0.036453202 0.11226907
0.0934514 -0.046026077 -0.20564033 0.087544754 -0.025371369 0.0031671834 0.04904255 -0.14235839
-0.11609083 0.072818905 -0.0026091605 -0.11720625 0.2894654 -0.22437102 -0.09999373 0.012600677
-0.024241045 0.06232853 -0.08715289 -0.11312681 -0.059153866 0.039195117 -0.23714818 0.14688823
0.20225851 0.18174757 0.13012367 0.026663838 -0.08969924 0.06554937 0.045583867 -0.0030306326
-0.024616214 0.22649422 0.13101807 0.07531964 -0.13293996 0.015725264 -0.2651038 0.24236958
0.044674516 -0.0073723597 -0.062707394 -0.015899358 0.15966259 -0.093063 0.09827646 0.0067301253
0.053770453 -0.08900073 -0.029366475 0.0444662 0.10246099 -0.18213552 -0.13258769 0.12187796
0.105438374 0.083474904 -0.09398131 -0.035011146 0.08661615 0.0015979927 0.04195018 -0.039035663
-0.073863134 0.010842647 0.0642735 0.016190603 0.08475157 -0.14999838 -0.01678417 -0.047765315
-0.10687617 0.08183378 -0.09489501 -0.017318733 0.013352745 0.091110684 -0.06631372 -0.11997842
-0.0077395444 0.11872025 -0.13056296 -0.21497296 0.40389305 -0.22171034 -0.04250923 0.08764011
-0.05680802 0.017035479 -0.09200305 -0.056821935 -0.056547444 -0.035728816 -0.18243788 0.11396454
0.12867914 0.13339143 0.22236487 0.027637063 0.06583232 -0.03535566 -0.15902661 0.11806346
-0.050238755 0.076077804 0.032869034 0.11602354 -0.1680361 0.1043223 -0.20716085 0.22380227
0.0016680496 0.034986887 0.023484053 -0.0055069965 0.18857011 -0.058563914 0.0684548 -0.053182673
00000000: 239a 95be b470 9fbd 1e2e f43d 588b b13d
00000010: 007b 2fbd c7c8 82be 4132 59be 5791 0abe
00000020: 0467 1c3e 0fe8 a3bc f8f0 fabc 9db2 b0be
00000030: dc0d 81bc 45bb a13c 1b52 48be 2d65 6b3e
00000040: a47d 673e c9c7 043e 4ddf 00be 1274 d33c
00000050: 12e7 9fbd 2b85 533e 773f b63e d0ea dabc
00000060: 8f7b a73d 0e1a da3e b458 943e 1773 983d
00000070: ef00 073d 6740 7cbd be88 bcbe a667 a93e
00000080: 31ce 02bd 7ceb 7dbe e75e 6ebe 5b9a e3bd
00000090: 7726 063e 73d1 e7bd 0852 2e3d 465c d9bd
000000a0: 9a7e fc3d 4cf2 6cbd 042e 89bb 3652 23bd
000000b0: a48d 703e 59c5 b6bd 4143 f13d 247c 413c
000000c0: b174 983d 8ecf 28bd 8de0 bdbc 3f29 7bbe
000000d0: 7752 10bd d237 df3d 4365 80be b778 f9bd
000000e0: f742 61bd d36e 803d bca5 90bd ffdd eabc
000000f0: 2545 10be 2f2a 99be ea11 3e3d 717f 973c
00000100: c4bb 0fbd f9cf 43be cdf0 a1be 658d 3fbd
00000110: 7f07 733d 0a0e 76bd 5bf1 cc3d fe82 89bd
00000120: f881 38be 74c8 4b3d daac 85bb 7cce 873d
00000130: fe34 e63d 6248 75be 15f6 39be 334d 95bd
00000140: f6f0 a13d b9d4 123c bb10 0bbd 97ae 80be
00000150: bac3 1ebd 08e3 cfbc 41f6 23be 1d44 513e
00000160: 2d80 3c3e 5b37 273e 9094 5abc 9deb 64bc
00000170: e432 c1bd d3a5 063e 72c4 883e 3a85 85bc
00000180: feb0 85bd 8e0b af3e f766 863e 790b 0c3d
00000190: 0e2e adbd 869b 65bd 907c b9be 7cd8 a53e
000001a0: d6e0 e73d bb31 abbd b780 13be 7eb6 1abe
000001b0: ce8e 1c3e d672 9e3c 9067 a43d def2 a33d
000001c0: 08fa d03d fba4 8bbd 41ab 9fbc dd4f 083d
000001d0: d9b2 233e deaa 07be ad83 58bc cb6c 8f3c
000001e0: 2033 473d a8f7 153d ddea 34bd 94a6 46be
000001f0: 6e4f 593d d0db 3fbd 7413 46be 9e2a dabd
00000200: e502 933c 9f9b 953c 54c3 063d d9fd 59bc
00000210: 91d8 9abc 1d17 6abe f44f 153d 54ed e53d
00000220: 7363 bf3d d785 3cbd 6193 52be aa4a b33d
00000230: 9ed7 cfbc 8590 4f3b d7e0 483d 66c6 11be
00000240: 07c1 edbd 1422 953d 73fe 2abb d509 f0bd
00000250: cf34 943e 84c1 65be 83c9 ccbd 1273 4e3c
00000260: 2895 c6bc 334c 7f3d 377d b2bd 07af e7bd
00000270: 534b 72bd 0f8b 203d f9d6 72be de69 163e
00000280: db1c 4f3e 091c 3a3e 243f 053e 1f6e da3c
00000290: 3cb4 b7bd c03e 863d 26b6 3a3d 949d 46bb
000002a0: f1a7 c9bc 1aee 673e 9a29 063e 2f41 9a3d
000002b0: 6a21 08be 45d2 803c afbb 87be bb2f 783e
000002c0: a0fc 363d d693 f1bb bc6c 80bd 5f3f 82bc
000002d0: 977e 233e d097 bebd 2b45 c93d 6288 dc3b
000002e0: 683e 5c3d 0446 b6bd f691 f0bc 3122 363d
000002f0: 11d7 d13d bc81 3abe 11c5 07be 279b f93d
00000300: 13f0 d73d e4f4 aa3d 4679 c0bd d967 0fbd
00000310: cf63 b13d bd73 d13a f4d3 2b3d dce3 1fbd
00000320: 8e45 97bd 5ca5 313c d3a1 833d 28a2 843c
00000330: 3b92 ad3d 2d99 19be f57e 89bc 90a5 43bd
00000340: e5e1 dabd 7898 a73d 5158 c2bd 04e0 8dbc
00000350: 79c5 5a3c 3d98 ba3d 7dcf 87bd 3fb7 f5bd
00000360: 019c fdbb 9a23 f33d 4cb2 05be df21 5cbe
00000370: 12cb ce3e 0908 63be 291e 2ebd a87c b33d
00000380: 87af 68bd fd8d 8b3c 186c bcbd 1ebe 68bd
00000390: 4b9e 67bd 6158 12bd ffd0 3abe 3e66 e93d
000003a0: 77c4 033e c397 083e 9eb3 633e 1f67 e23c
000003b0: 18d3 863d 19d1 10bd dfd7 22be 41cb f13d
000003c0: 27c7 4dbd aece 9b3d aea1 063d c09d ed3d
000003d0: a811 2cbe eea6 d53d f921 54be 6c2c 653e
000003e0: 75a2 da3a 694e 0f3d a161 c03c 0974 b4bb
000003f0: 8618 413e b7e0 6fbd 0832 8c3d 13d6 59bd

bias f4 [30]
0.48863828 0.0608316 -0.20448333 -0.32753596 -0.108786926 0.16809243 0.46872562 0.39190772
0.14811923 -0.19135888 -0.54702425 -0.5924721 -0.19254936 0.25659588 0.5025888 0.3977346
-0.08278956 -0.49580404 -0.7027716 -0.4367248 0.031997327 0.44885537 0.6724173 0.4421671
-0.048706837 -0.6347085 -0.7677477 -0.4404512 0.27543166 0.9989425
00000000: cc2e fa3e 8e2a 793d 1464 51be cbb2 a7be
00000010: aecb debd 6c20 2c3e cefc ef3e 21a8 c83e
00000020: 91ac 173e 95f3 43be c809 0cbf 40ac 17bf
00000030: a92b 45be 8960 833e a9a9 003f dfa3 cb3e
00000040: 938d a9bd 07da fdbe d7e8 33bf 659a dfbe
00000050: a10f 033d 5fd0 e53e 8a23 2c3f ba63 e23e
00000060: d280 47bd 427c 22bf 1d8b 44bf d282 e1be
00000070: 6105 8d3e b2ba 7f3f
