knn/models/pretrained-autoencoder/autoencoder-in_features90-latent_size15.pt (torch, 173926 bytes, 12 tensors)

weight f4 [135, 90]
000000 ee a0 15 3c 55 c9 b7 bd a3 ad 10 3d d3 61 a8 bd
       0.009132607 -0.08973948 0.035321843 -0.082217835
000010 6c d0 bb bd 28 34 0b bd c7 52 fa bd 27 48 80 bd
       -0.09170613 -0.033985287 -0.1222282 -0.06263762
000020 0c 1f 0f 3d cc 69 82 3d 33 76 99 3c fb 43 95 bd
       0.034941718 0.063678354 0.01873312 -0.07288357
000030 82 40 ee 3d 7e 09 dd 3d cd 84 43 bc ac 65 8f bb
       0.11633398 0.10792826 -0.011933518 -0.004376134
000040 34 e3 a1 3d 54 75 2a 3d bb f3 13 bc c6 d8 19 3d
       0.07904664 0.0416158 -0.009030278 0.037560247
000050 dd ab 8f bd 64 a9 23 bd dc da 4c ba 86 24 cf bd
       -0.07015202 -0.039956465 -0.0007814595 -0.10114388
000060 9f db d7 bd e0 d8 96 bd 56 1f 0c bd f4 38 73 bd
       -0.10539936 -0.073655844 -0.03420957 -0.059380487
000070 b1 81 7d 3d 2f 56 7c 3c 1c d3 a5 bd df 3e b7 bd
       0.06189126 0.015401407 -0.080969065 -0.089475386
000080 1f b8 06 bd 75 e9 3e 3d d4 5b 2c 3d 51 6f 62 3d
       -0.032890435 0.04660936 0.04207976 0.05528194
000090 6d 0f 19 bd 12 7c 8f bd 85 a3 59 3d 94 f2 21 3d
       -0.037368227 -0.070060864 0.05313446 0.03953798
0000a0 68 8d 07 3d 8f 5d 8d 3d 5b b2 98 3c 31 d5 b3 3d
       0.03309384 0.069026105 0.018639734 0.087808974
0000b0 20 dd 08 bd 84 97 d6 3d b6 50 0c bc 19 b8 50 bd
       -0.033414006 0.10478118 -0.008564165 -0.05095682
0000c0 cd be e9 ba 72 e2 af 3d 8d 2b 94 3d 77 af a6 bd
       -0.0017833352 0.08588113 0.07234869 -0.08138936
0000d0 c7 d4 82 bd e8 70 61 bd 0f 81 e1 3b da 70 6a 3d
       -0.0638824 -0.055039316 0.00688184 0.05723653
0000e0 46 be 82 3c 27 cc 17 bd 34 f1 e9 ba 6c 5e d8 bb
       0.01595987 -0.03705993 -0.0017848373 -0.006603053
0000f0 bd 68 d0 ba 9d 31 17 bd ce d4 a4 3b c7 dd a8 3d
       -0.0015900355 -0.03691255 0.005030251 0.08245426
000100 29 6d 34 bd 55 8e 91 3b a1 b4 33 3c c2 58 a1 bd
       -0.044049416 0.004442016 0.010968358 -0.07878257
000110 a1 e4 9e bd 43 f5 6b bd fb b8 77 bd 9f cd 55 bd
       -0.07758451 -0.057606947 -0.060479145 -0.05219805
000120 2f ac 2f bd 69 f5 9b bd df dc 04 bd 40 75 76 3c
       -0.042888816 -0.07615168 -0.0324372 0.015042603
000130 cd e0 45 bd 8f bd 9a 3d b3 31 09 3d 5a 8d 37 3d
       -0.04831009 0.07555687 0.033494662 0.044812538
000140 cb 9e 0a 3c 8f 3e d5 3c 07 50 79 ba 7a 40 89 bd
       0.008460711 0.026030807 -0.0009510521 -0.06701751
000150 de bd 2d bd 5a aa 8d bd ec f3 99 bd 11 b6 f8 bd
       -0.0424174 -0.069172576 -0.075172275 -0.121441014
000160 fe b9 a9 bd e0 48 c0 bd a5 e2 76 bd 44 b0 32 3c
       -0.08287428 -0.093889 -0.06027474 0.010906283
000170 eb dc dd bd 8f ed 95 bd 89 5b 90 3a 32 c9 5d 3d
       -0.108331524 -0.07320701 0.0011013608 0.054146953
000180 76 bf 2f 3d 00 82 0c bd 97 92 17 bc 0a c5 a0 3c
       0.0429072 -0.034303665 -0.009251258 0.019625206
000190 f0 6e 38 bc 61 a9 b6 bc 3d 6c 76 bd 74 71 47 bb
       -0.011256918 -0.022297563 -0.060161818 -0.0030432614
0001a0 76 27 8d bd 32 d0 c7 bd 95 5e b3 3d 2b ab 1d 3d
       -0.06892292 -0.09756507 0.087582745 0.038493317
0001b0 6a 36 98 3d 40 ee 42 bd 30 fa f5 3d 11 69 7e 3a
       0.07432254 -0.047590494 0.1201061 0.0009704987
0001c0 91 f7 2c 3d 9e ce 4e 3d 79 f3 2e 3d 0e 7e 08 3d
       0.042228285 0.050490014 0.042712662 0.03332334
0001d0 93 1a 19 bd 03 5e 3d 3c 99 87 b9 3b 74 f7 d1 3d
       -0.03737886 0.011558059 0.0056619165 0.10252276
0001e0 65 19 dc bb 8b 76 f0 3a 8a 35 43 3c 3c 96 05 3d
       -0.0067168945 0.0018345875 0.01191462 0.032613978
0001f0 d8 ae 29 bc 47 19 1e bd b7 0f 15 3d 0a 14 3c bd
       -0.010356627 -0.038598325 0.03639194 -0.04591755
000200 f7 2d db bd d5 e6 c3 bd c2 99 2d 3d 7b 7f 4a bd
       -0.107021265 -0.09565512 0.042382963 -0.04943798
000210 f4 9b c7 bd c1 69 79 bd c7 34 5d bd 24 80 ad bd
       -0.097465426 -0.06089187 -0.05400541 -0.084717065
000220 be 7e b1 3c 36 1c 25 bd 5d 82 55 bb b1 6a da 3c
       0.02166688 -0.040310107 -0.0032578923 0.026662203
000230 ae b0 cd bc 2a 01 28 bb 3a 75 09 bd 0d e8 b3 bc
       -0.025108662 -0.002563546 -0.03355906 -0.021961236
000240 85 40 f7 bd 45 c3 64 3d 58 de aa 3b 02 f7 b7 3c
       -0.12072853 0.055850286 0.0052144937 0.02245665
000250 8e e4 be bd e7 48 96 3c 47 20 82 bd 25 2c 1e 3c
       -0.09320937 0.01834531 -0.06353813 0.00965408
000260 41 30 a0 bd e2 9d 1b bd b3 ca 99 bd d7 66 99 3d
       -0.07821704 -0.037992366 -0.07509365 0.07490318
000270 33 b0 94 3d 8a f8 c3 3d a1 50 74 3c 99 aa 67 3d
       0.0726017 0.095688894 0.014911802 0.05655918
000280 11 ba 75 3d b9 ea c7 3d e2 00 bd 3d 79 fd 77 3d
       0.0599919 0.09761567 0.09228684 0.060544465
000290 65 ae 89 3d f5 e0 08 bc c4 ad 9f 3d e8 28 44 3d
       0.06722716 -0.008354415 0.07796815 0.047890574
0002a0 05 71 cf 3c ac ee 14 bd 90 30 ba bd 8f 08 c8 bd
       0.025322447 -0.036360428 -0.09091294 -0.097672574
0002b0 5f c2 b4 bc 42 d4 05 bd b8 64 20 be b5 ee f4 bc
       -0.02206534 -0.032673128 -0.15663421 -0.02989898
0002c0 6c 6f 72 bd 1c 2b c4 38 2f 8e a8 3d ee 67 0c 3d
       -0.05918829 9.354038e-05 0.08230244 0.034278803
0002d0 c7 db d5 bd 70 0e b3 bc 3c 5f 44 bd 99 15 36 3c
       -0.1044231 -0.02185747 -0.047942385 0.011113548
0002e0 4f 0f 85 3c 8d 3f c5 3d bc 78 ba 3d 93 2c 5f 3d
       0.016242651 0.09631262 0.091050595 0.05448587
0002f0 03 55 9a 3d 5d 18 64 3d 7a 89 45 3d 92 54 97 3d
       0.07535746 0.055687297 0.04822681 0.073891774
000300 ed 20 8e bd 25 f6 b6 bc 2e 5c 37 3b ee cf a2 bd
       -0.06939874 -0.022334168 0.0027978527 -0.07949816
000310 41 19 b4 bc ef 82 83 3c eb 41 d0 bd ca 1b 11 bd
       -0.021984698 0.016053645 -0.10168823 -0.035426892
000320 c9 75 34 bc 63 89 34 3d c2 70 5a 3d 94 17 85 bd
       -0.01101441 0.044076335 0.05333019 -0.06498638
000330 91 17 e8 3c 10 5a a2 3d 18 ae 14 3d 2f 7b a3 bc
       0.02833155 0.07927334 0.03629884 -0.0199562
000340 72 75 f0 bb 6d 8b 6a bd d6 79 22 3c f6 79 b8 3c
       -0.0073382193 -0.057261873 0.009916743 0.022519093
000350 de 66 2d 3d 03 f5 90 bd 37 56 9f bb 16 e4 6f bd
       0.04233443 -0.07077982 -0.0048625725 -0.05856713
000360 11 86 87 3d c1 30 c0 3d 2d 4b d8 bc 56 5a d6 3c
       0.06617368 0.09384299 -0.026403034 0.026166122
000370 1c 3a 95 3c 67 3e 0a 3e fe 49 13 3e 6f cd fb 3c
       0.018216185 0.13500367 0.14383695 0.030737607
000380 6f ff 5f 3c c3 4e 3b 3d 3e 89 11 3c bb f7 88 3d
       0.01367174 0.04572941 0.008882819 0.06687876
000390 20 cf 8b bd 32 9e 23 bd cf f7 8c bd bc 3f c6 bd
       -0.06826615 -0.03994579 -0.06883203 -0.09680125
0003a0 96 50 a1 bd 21 b7 80 bd 1e 92 45 bd 69 eb 0e bd
       -0.07876699 -0.06284929 -0.04823505 -0.034892473
0003b0 e4 9f ec bc f1 f3 10 3d e3 58 fb bd 10 42 ae 3d
       -0.028884836 0.03538889 -0.12272813 0.08508694
0003c0 3d 9e ad 38 b4 40 d1 bb 52 50 3e bc e7 c1 7a bd
       8.278757e-05 -0.006385887 -0.01161583 -0.061220076
0003d0 c3 19 71 3d 5d 86 ae 39 b0 40 6e bd 05 5b 4d bd
       0.05886246 0.00033287975 -0.05816716 -0.05013563
0003e0 44 44 62 bd 17 bf a3 bd ed 50 86 bd 97 b1 5c bd
       -0.055240884 -0.07995432 -0.06558404 -0.0538803
0003f0 4b d2 05 bd ab e2 03 be 82 5d dc bd a3 f9 b9 bc
       -0.032671254 -0.12879436 -0.10760023 -0.022702044

bias f4 [135]
000000 5c 6e 83 3d c6 d5 fe 3d 58 c6 a6 3d df 28 5b 3d
       0.06417534 0.12443118 0.081433 0.053505775
000010 9d 57 86 3b 16 45 8f 3d 6b 16 a9 3b ad f5 d7 3d
       0.0040998 0.06995599 0.005160143 0.10544906
000020 2a 31 0b 3e e7 e2 10 bd c7 30 0c bc a4 92 64 3c
       0.13592973 -0.03537264 -0.008556551 0.0139509775
000030 ac 99 54 bd f1 35 83 3d 92 f2 c7 bc 23 27 76 3d
       -0.051904365 0.06406773 -0.024407659 0.060095917
000040 b8 e3 9b 3d 84 73 c3 38 6c 05 fd 3d c8 98 9e 3d
       0.07611793 9.319841e-05 0.1235455 0.077439845
000050 2c 2d a4 3c ae b8 ab 3d d0 21 0a bd bf f2 aa bb
       0.02004107 0.08384834 -0.033723652 -0.005216926
000060 38 b7 30 3e bc 50 4c bd bc 6b a9 bc e1 27 40 bd
       0.17257392 -0.04988168 -0.020681255 -0.04691303
000070 b2 72 eb bc 50 fc 18 3e 14 11 e2 bd 97 1f 80 3d
       -0.028741214 0.1494 -0.11038414 0.06256025
000080 b6 ed 6e bc 09 53 47 bd 1c 38 92 3d 0c f3 82 bd
       -0.014583042 -0.048663173 0.07139608 -0.06394014
000090 3b d8 ed 3d 67 dd 20 bb 7a cf 90 3c cd fe bb bd
       0.11613508 -0.0024546029 0.017677058 -0.09179459
0000a0 8b 5c b0 3d 41 94 6a 3d 83 ad 51 bc 07 b9 28 bd
       0.08611401 0.057270292 -0.012797716 -0.04119208
0000b0 a2 df 90 3d 66 f6 b9 3d 66 c6 26 3d f5 ab 1f 3d
       0.070739046 0.090802 0.04071655 0.03898235
0000c0 f5 18 db bd 23 bb 06 bd 0e 5f 53 bd 3d b1 9b 3d
       -0.106981196 -0.03289331 -0.051604323 0.07602165
0000d0 11 0f ce 3b 60 28 1f bd 8b 43 43 bc 1e 79 34 3d
       0.006288417 -0.038856864 -0.011917959 0.04406082
0000e0 f3 79 a7 3d d9 75 8c 3d f2 98 79 3d b7 9d 8d bd
       0.08177557 0.06858415 0.060936876 -0.06914847
0000f0 08 2f 17 bd b0 be 35 3c c2 4b 1a 3d 08 77 d3 bd
       -0.036910087 0.011092827 0.037669905 -0.10325438
000100 b0 f4 d2 3c 97 d7 d7 bd e9 4d 91 3d 6f e7 bf bd
       0.025751442 -0.105391674 0.07094938 -0.09370314
000110 12 ad cb 3c 89 59 04 bc 3f c4 22 3d 7f e3 83 bd
       0.0248628 -0.0080779875 0.039737936 -0.06439876
000120 f1 bc 1d 3d 38 4d e5 3c 25 2a 84 3d 6f 2f 1a 3c
       0.038510267 0.027990922 0.06453351 0.009410723
000130 9d 14 09 be 5e c5 e4 3d 3c 8f 04 3e 6c 15 9f 3c
       -0.1338677 0.11170457 0.12945265 0.019419394
000140 b7 7b 03 3e db a6 fa ba 5a 8e aa bd bd 92 dc 3d
       0.12840162 -0.0019123213 -0.08327933 0.107701756
000150 cf 7a 87 3c bd 9d 89 bc 41 ab 8b 3d 0b ee 9b 3d
       0.016538052 -0.016798848 0.068197735 0.076137625
000160 4d ae d0 3c 9c 1d c2 3d 14 88 05 3e 35 58 93 3d
       0.025473738 0.09478304 0.13040191 0.071945585
000170 20 18 ae 3d 29 a1 1a 3e c8 0f a6 bc fe 7a 8d 3c
       0.08500695 0.1510054 -0.020271197 0.017270561
000180 b5 9c 00 3d 19 27 5e 3d 31 7e f2 3d f9 e8 a2 3d
       0.031399447 0.054236505 0.11840475 0.07954592
000190 46 38 a7 bc a3 23 12 be e5 c7 ff bb 58 69 75 bc
       -0.020412575 -0.14271407 -0.0078058117 -0.014978729
0001a0 51 d3 e6 bb cf dc 92 3d 26 8e c6 bc a9 ab 46 3d
       -0.007044234 0.07171022 -0.024237704 0.04850355
0001b0 f4 c0 2f 3e cb 89 1f 3b 0c 93 57 3d f4 db 73 3c
       0.1716345 0.0024343606 0.05263047 0.014883984
0001c0 4a b6 05 3e 3f 3d df 3d bd 89 a0 3d 4b 03 aa 3d
       0.13057819 0.10900354 0.078387715 0.08301409
0001d0 b0 c8 f1 3c 79 a4 f2 3d 77 be 48 bd 58 c7 08 bd
       0.02951464 0.11847777 -0.049009766 -0.033393234
0001e0 67 44 a8 bd df 22 00 be 3f 70 9a bd 5a 40 9d 3d
       -0.08216172 -0.12513302 -0.075409405 0.0767829
0001f0 1b a4 1d 3e 47 9e ba 3d 20 3d b8 3d 8e 69 e4 3d
       0.15394633 0.0911222 0.08996034 0.111529455
000200 88 0c cb bd 4d 7d a5 bb 90 65 5d 3d 42 c9 52 3d
       -0.099144995 -0.0050503374 0.054051936 0.051461466
000210 7f 61 51 3d 50 02 d8 3d 67 94 a8 3e
       0.05111837 0.10547316 0.32925722

weight f4 [45, 135]
000000 08 72 1e 3d ad 94 20 3c f8 f3 13 bd cb f3 a8 3c
       0.038682967 0.009801072 -0.03612134 0.020624062
000010 63 ce f2 bc cb a1 c0 3d ca 8e 14 3c 49 8a 78 bd
       -0.029639428 0.094058596 0.009067247 -0.060678754
000020 1f 65 e1 3d 68 c6 41 bd 2b d8 09 3e ce 39 e3 3c
       0.110056154 -0.047308356 0.13461368 0.027737524
000030 ac 11 ad 3c 3d 3d a0 bb ed e4 c7 3d d6 cc 97 3d
       0.02112659 -0.0048901127 0.09760461 0.07412116
000040 e1 63 01 bd 04 cf 35 3d 73 c1 08 bd e5 9d bd 3d
       -0.031589393 0.04438688 -0.033387613 0.092586316
000050 27 7a 87 bc 02 f1 0d bd 4e ef 65 bd b6 5b 61 3d
       -0.016537739 -0.03465367 -0.05613642 0.055019103
000060 02 d2 44 bd 9c 7e 22 3d ae 5a a4 bc b3 35 33 3d
       -0.04805184 0.039671525 -0.02006277 0.043752383
000070 fb 21 59 3d 83 45 73 3d 23 86 e8 3c b2 42 a6 3b
       0.053010922 0.059392463 0.028384274 0.0050738687
000080 dd 17 ac 3b 72 67 32 bc f6 56 3d 3c 99 9c 39 bb
       0.005251868 -0.010888921 0.011556378 -0.00283221
000090 65 f2 96 bd 8d d5 d8 3b 54 55 8f bd 41 67 d9 bc
       -0.07370452 0.006617254 -0.06998697 -0.026538493
0000a0 cb 10 55 3d fb b2 b6 bc ba 8e c1 bd 36 5a 84 bd
       0.05201797 -0.022302141 -0.09451051 -0.06462519
0000b0 a8 90 1b bd 70 9c 06 3d 9a 24 44 ba 6a a1 0c 3c
       -0.03797975 0.032864034 -0.00074822607 0.008583406
0000c0 b1 c4 1b 3b 79 1e 7b bd 00 64 2c 3d 5e 07 a9 3c
       0.002376836 -0.061308358 0.042087555 0.020633396
0000d0 8c 3a 89 3d 29 c2 c3 3d 6f 7d e0 3d ef d3 11 3d
       0.0670062 0.095585175 0.109614246 0.035602506
0000e0 43 d9 13 3d 00 e6 8f 3c 18 10 ee 3c 9b 38 2c 3e
       0.03609587 0.017565727 0.029060408 0.16818468
0000f0 b7 3b e0 bc 5b fe 56 3d ae 19 54 3b be d0 ce 3c
       -0.027372224 0.052488666 0.003236394 0.02524602
000100 c4 69 83 3d 11 b9 10 3e 78 87 08 bc 6a b9 bc bc
       0.064166576 0.14133097 -0.0083330795 -0.023037631
000110 3b 27 e3 3d 45 ed ed bb a7 cc 5d 3d 20 7b 1f 3e
       0.11091467 -0.0072609507 0.05415025 0.15574312
000120 64 af ae 3b 14 2b 85 3d 46 fb 68 bc e0 d0 04 bd
       0.005330967 0.06502357 -0.0142200645 -0.03242576
000130 cf a9 c0 3c 15 99 73 3c f4 ea ac bd 40 f0 94 3d
       0.023518471 0.014868041 -0.08443251 0.072723866
000140 be bd 7b 3d eb d3 a4 3d 11 34 42 bd c0 d0 4b 3d
       0.06146025 0.08048233 -0.047412936 0.049759626
000150 1c f6 9f bd 11 2f 9c 3c 3b 88 56 3d 37 e9 2a 3d
       -0.078106135 0.019065412 0.052376013 0.041726317
000160 5f c0 3d bc 27 60 80 3d ee 2f a1 3d f5 b3 f1 3d
       -0.011581509 0.062683396 0.0787047 0.11801902
000170 44 f3 68 bd 59 a5 49 bd db e1 c0 bc d5 6a d1 3c
       -0.05687262 -0.049229953 -0.023545196 0.025563637
000180 ac 88 cd 3c 1e 0b 4c bd 8c 2d 8b bd 5f 6f 70 bd
       0.025089584 -0.04981529 -0.06795797 -0.05869996
000190 5e 0e 95 bd 27 a8 14 3e 6a 06 bf 3c 62 65 08 3e
       -0.07278131 0.1451727 0.023318488 0.13319924
0001a0 f8 88 da 3c b8 28 91 bc 62 a5 a2 bd de 33 3c 3c
       0.02667664 -0.017719612 -0.079417005 0.0114869755
0001b0 c3 ee 5e bc e6 89 93 3d 99 c6 02 3e 20 54 c3 bd
       -0.01360673 0.072040364 0.12771071 -0.0953753
0001c0 78 39 96 3b f8 7d 84 bd 8c 88 19 ba da ad 8d bc
       0.0045844875 -0.06469339 -0.0005856834 -0.017294813
0001d0 16 15 bb 3c f8 b0 8c bd ec 14 d9 3c 33 59 23 bd
       0.022837203 -0.068696916 0.026499234 -0.03987999
0001e0 5c 7d f0 bb db 2c 4e 3c 1f 27 24 3d a4 eb 92 3d
       -0.0073391628 0.012583937 0.04007637 0.07173851
0001f0 ab 42 e3 bd e0 02 05 bd 4d c4 b4 bc 1a bb 1f 3d
       -0.110967 -0.032473445 -0.02206626 0.038996793
000200 08 31 ce bd da e2 35 bd ed 5d 99 3c 4b 6c 0a bd
       -0.10067946 -0.044405796 0.018721545 -0.033794682
000210 f5 ce 73 3d 11 2f b4 bd f3 e1 1f 3d 35 0e 91 3c
       0.05952354 -0.0879804 0.03903384 0.01770697
000220 ed 39 8f 3c 9b 4e bf bb c9 eb 53 bd f3 11 0c bd
       0.017483676 -0.005838228 -0.051738534 -0.034196805
000230 86 27 0d 3d bb c8 75 bc 2a 5e 25 3d fe e6 9d 3b
       0.03446152 -0.015001471 0.040373005 0.004818796
000240 30 56 2c bd fe a0 2f 3e 9a d1 75 bc 26 dd 01 bc
       -0.042074382 0.17151257 -0.015003586 -0.007926261
000250 8e 1a 78 3d a5 0c ff bb 6f 05 c4 bc 38 f9 db 3d
       0.0605722 -0.00778349 -0.023928372 0.10740894
000260 38 7c d2 bc bf d9 77 3b 86 58 ad bc f5 4d 20 3e
       -0.025693998 0.0037818996 -0.021160375 0.15654738
000270 13 23 01 3d 80 64 e2 bc 05 e4 09 3e 74 ab 06 3e
       0.03152759 -0.027635813 0.13465889 0.13151342
000280 a9 ab 90 bc f9 59 88 bd 91 ce a1 3c 93 78 4c 3d
       -0.017659979 -0.06657786 0.019751819 0.049919676
000290 1a 46 33 bc 6a c0 9e bc 70 c0 91 3d da fc 12 3d
       -0.0109420065 -0.01937886 0.07116783 0.03588567
0002a0 3f e8 1d bd 51 08 43 bd 39 03 e5 bc 2a 7f 40 3c
       -0.038551565 -0.047615353 -0.027955638 0.011749068
0002b0 0a e2 09 bd 3d a6 c9 3c c6 56 15 3c 91 93 c4 bd
       -0.033662833 0.024615401 0.009114927 -0.095984586
0002c0 f2 4d 48 bd fe bb 85 bb 2f 63 eb 3d f8 be 7e bc
       -0.04890246 -0.0040812483 0.11493527 -0.01554846
0002d0 c2 36 d7 3d ef 0c 13 3d a9 ab 88 3c 93 fe 43 3e
       0.10508491 0.035901006 0.016683416 0.19140081
0002e0 ae 5b 6d bd fc 39 63 bd dc 44 36 3d 60 d5 dd bc
       -0.05794876 -0.05547522 0.044499263 -0.027079284
0002f0 23 c4 14 bd 05 d3 b5 bd 21 9d 65 bd ad c4 bb 3d
       -0.036319863 -0.088781394 -0.056058053 0.09168372
000300 0c 16 f3 3c c5 04 e5 bd 3e 89 7e 3c f3 ab a5 3c
       0.029673599 -0.1118255 0.015535651 0.020223593
000310 f8 4d ee bc 29 76 37 bd 72 61 08 3d e5 4e 32 bd
       -0.029089913 -0.04479042 0.033296056 -0.04353227
000320 58 af 47 bd bb fb 69 3d ac d5 2b bd 20 4c 52 bd
       -0.048751205 0.057124835 -0.04195182 -0.05134213
000330 94 6a c3 bc d1 87 99 3c 10 24 77 3c 2e 6c cc 3d
       -0.023854531 0.01874152 0.015084282 0.09981571
000340 75 4e 33 3e 56 84 ae bd 36 a7 12 bd be 30 30 3c
       0.17510398 -0.08521335 -0.035803996 0.010753809
000350 3f ab 05 3c aa b3 9e 3c 3e 88 99 bd 4d 7e 29 3d
       0.008158504 0.01937278 -0.07496689 0.041380215
000360 6a 14 89 bc db 29 28 3d 57 cc de 3a ca 5f 4b 3d
       -0.016733367 0.04105554 0.0016998154 0.0496519
000370 c9 70 a1 3c f3 e8 90 3d b7 77 b4 3d d3 13 1a bb
       0.0197071 0.070756815 0.08811896 -0.0023510351
000380 b9 63 4b 3c 02 26 a5 bb de b5 8a 3d 9d 71 72 3a
       0.012413912 -0.0050399313 0.0677297 0.0009248497
000390 54 56 0e bd ba da cb 3c 44 58 a0 3d c6 22 21 3c
       -0.034750298 0.02488457 0.07829335 0.009834951
0003a0 ad 49 e8 3a bb b4 c7 3c 6b dd a9 bd 5f 0c 8e bc
       0.0017722152 0.024378171 -0.08294185 -0.017339883
0003b0 bb e0 37 bd 1f 5b 39 bd 47 48 12 bd b5 23 47 bd
       -0.044892054 -0.045252915 -0.03571346 -0.048618037
0003c0 84 99 02 3c 82 a5 57 3c fb 70 cc 3b d1 d1 9c 3d
       0.007971171 0.013162019 0.0062390543 0.07657207
0003d0 8b 49 23 3e 03 b4 4f 3d cb 0f 08 3d 34 4b 19 bd
       0.15946023 0.050708782 0.033218186 -0.037425235
0003e0 e5 e5 4d bc b9 d7 c4 3c 63 15 d4 3d 4a fa 73 3d
       -0.012567018 0.024028646 0.10355642 0.059564866
0003f0 05 73 95 3d bd 8e 46 3d b7 69 3b 3b 48 6c a7 bd
       0.07297329 0.04847597 0.0028596947 -0.0817495

bias f4 [45]
000000 12 8e cf bc 95 6b 91 3c c8 75 15 3d b3 dd 67 3d
       -0.0253363 0.017751494 0.036489278 0.056607913
000010 2f 5b 5b bd b8 36 4d 3c de 5f 0b 3d 0c dd 8b bd
       -0.053553756 0.012525253 0.034026973 -0.06829271
000020 a0 22 84 3b 49 0c 91 3d 68 90 4a bd f3 cc 13 bd
       0.004032448 0.07082421 -0.049454123 -0.036084127
000030 53 d5 06 3e 26 9e 7c bd 46 50 a7 3d 56 fe 43 3d
       0.13167314 -0.06167426 0.08169608 0.047849976
000040 60 a3 ce bb 92 c1 37 bd ee ae 12 3e c9 ff 38 bd
       -0.006306097 -0.044862337 0.14324543 -0.04516581
000050 c4 00 22 3d c0 0c d2 3c ab 25 0a bc b3 97 51 3d
       0.03955151 0.025640845 -0.008431832 0.051170062
000060 63 b7 05 3d b0 38 7e 3c f2 d7 34 bb a2 bc bd bc
       0.032645594 0.015516445 -0.0027594534 -0.023161236
000070 a3 82 9e bd 38 46 96 3d 61 65 25 bd f6 99 d7 3d
       -0.07739761 0.07337612 -0.040379886 0.105274126
000080 95 db ab bd 4e fe 12 3e 54 d2 c1 bc 50 9f b0 3d
       -0.08391491 0.14354822 -0.023659863 0.086241364
000090 c7 1b 17 bb fb 9f 4a bd 6f a5 a9 bd 84 39 1b bd
       -0.0023057328 -0.049468976 -0.08283507 -0.037896648
0000a0 28 41 84 3d eb 75 fc 3b 0c b9 d3 bc b6 18 48 3c
       0.0645774 0.0077044866 -0.025845073 0.012212923
0000b0 1d 1f ae bd
       -0.08502028

weight f4 [15, 45]
000000 d0 72 4f 3c 86 81 65 be 36 39 b3 bd 9e 57 ed bd
       0.012661651 -0.2241269 -0.087511465 -0.11588977
000010 e9 22 27 3e 79 35 04 3e a8 24 be 3e 58 58 91 be
       0.16321911 0.12911023 0.37137341 -0.28387713
000020 46 5d f9 bd a7 13 49 be d3 ba e5 bd 11 14 ea 3b
       -0.121759936 -0.19636403 -0.112172745 0.0071435054
000030 2a 41 d8 bd 9a e9 93 bc dc d9 48 3e c4 b2 02 3e
       -0.10559304 -0.018055726 0.19614357 0.12763506
000040 16 c2 c8 bd 22 a8 8a 3c 4c 05 cc 3d ac 61 51 3d
       -0.09802644 0.016925875 0.09961948 0.051118538
000050 c6 af 6b 3e 73 7f 60 3c 41 97 99 bd 01 e3 5b bd
       0.23016271 0.013702261 -0.074995525 -0.053683285
000060 3c d9 a6 3d b7 21 71 bd e8 73 21 3d 67 6a 69 3d
       0.08146903 -0.058870044 0.039417177 0.05698624
000070 f1 81 16 bb e0 d4 47 be 64 09 85 3e 0d dd ca bc
       -0.0022965635 -0.19514799 0.25983727 -0.024763608
000080 6f ef 18 3e d9 05 4f be 2d fd 31 be b4 4f 4f 3e
       0.14935087 -0.20217074 -0.17381735 0.20245248
000090 72 15 cf 3c 55 bb 10 be cc c2 16 be b2 a1 7b 3e
       0.02527878 -0.14133961 -0.14722747 0.245734
0000a0 21 00 a7 bd 1c 62 9c be 78 62 46 ba 18 77 49 bb
       -0.081543215 -0.30543602 -0.00075677736 -0.0030741151
0000b0 8b 26 bd bd 8d d4 4d 3d 13 cc e2 bc d9 a3 0d 3d
       -0.09235867 0.050251532 -0.0276852 0.034580085
0000c0 3d 67 1f 3e 10 4d 13 bd 22 73 dc 3c ac c2 6b 3e
       0.15566726 -0.035962164 0.026910368 0.2302348
0000d0 e6 86 72 3d e4 07 46 bd bd 2f aa bd 59 84 75 be
       0.05921068 -0.04834737 -0.083098866 -0.23976268
0000e0 1a d9 3f be 20 ba cd 3d fe 45 b4 3d 3c 1c 3a 3e
       -0.18735161 0.10045266 0.088024125 0.18174833
0000f0 3f 85 13 bc 1d d3 9b bd e5 98 54 3d 96 9b a1 3e
       -0.009003936 -0.07608626 0.051903624 0.31564015
000100 bd 96 cb bd fe 1c b4 3d 90 8f cf be 2d db 98 3e
       -0.099408604 0.08794592 -0.40539217 0.29854718
000110 37 05 44 be 77 c4 9a bc f0 a0 6e 3e b7 0e d4 3d
       -0.19142614 -0.01889251 0.2330358 0.10354369
000120 d0 c9 0e be 49 f0 08 bd b7 94 85 3d 59 3f 3f be
       -0.13944173 -0.03343228 0.06522506 -0.18676509
000130 71 89 10 3e a6 5f 05 3e 55 a0 d2 bd b3 dc 0b 3e
       0.1411493 0.13024768 -0.10284487 0.13658409
000140 4d d2 b1 3e 52 21 a2 bd b3 19 65 3c 54 d4 cd be
       0.3473076 -0.079165116 0.013983178 -0.40201056
000150 69 b6 b1 3c fa d4 29 be b2 bc a4 bc 55 61 44 be
       0.021693425 -0.1658515 -0.020109508 -0.19177754
000160 59 b8 0e 3d bf 92 a6 bd fa 9d 6e 3e a4 86 e5 3d
       0.034843776 -0.08133458 0.23302451 0.11207321
000170 ca e5 56 be 84 f9 87 be da 2a 36 3b b1 b8 bb bc
       -0.20986095 -0.26557553 0.0027796538 -0.022915216
000180 42 6d 2f be b3 b3 1c 3d d4 7f 71 bd 86 a1 89 be
       -0.17131522 0.038257312 -0.058959797 -0.26881045
000190 cc f5 30 be 9b 27 05 3e 17 32 8f bd 82 71 89 be
       -0.17281264 0.1300339 -0.06991976 -0.26844412
0001a0 8b cb 85 3d ff 5a 2c be 47 3a 8c 3d 99 2f 0a 3e
       0.06532963 -0.16831587 0.06847053 0.1349472
0001b0 6b 3c 73 be 0d 17 2e bd 62 20 e0 bd 07 f2 96 3c
       -0.23753516 -0.04250245 -0.109436765 0.018425955
0001c0 97 b6 96 3e 56 e7 23 3e 15 0d a8 be 44 97 dd 3c
       0.2943618 0.16006216 -0.3282248 0.027049668
0001d0 95 d3 89 3e 13 2a 3c bd 55 a7 e2 bd 59 be 9c 3d
       0.26919237 -0.045938563 -0.11067072 0.076534934
0001e0 9c 8c 4c bd 4e 52 7d 3d b7 09 2f be 51 0b 3c be
       -0.049938783 0.06184607 -0.1709355 -0.18363692
0001f0 19 61 7e 3e 1b 23 2a 3e b6 34 24 3c 14 be 4f 3d
       0.24841727 0.16614954 0.010022333 0.050718382
000200 6d 29 ce 3d 47 55 bc 3d e0 80 0f 3e a3 20 88 bd
       0.10066495 0.09195953 0.14014006 -0.0664685
000210 9b 4f 80 be 73 ec ae bd 5b 63 82 3d ec c6 5e bd
       -0.25060734 -0.08541193 0.06366607 -0.054388925
000220 46 f8 4b be 8c cc 84 3d 30 49 62 3e 4d de 15 be
       -0.19918928 0.06484327 0.22098231 -0.14635582
000230 b3 4a 56 3e 4c e7 eb 3d 89 e4 89 be 3d a1 9d 3d
       0.20926933 0.11518726 -0.2693217 0.076967694
000240 19 3d 09 3c 0c 65 de bd fe 19 da 3a ca 10 10 be
       0.008376383 -0.10859117 0.0016639826 -0.14068905
000250 c5 76 30 3e c9 30 86 3d e6 2b 47 bd 80 90 63 be
       0.17232807 0.06552274 -0.04862585 -0.22223091
000260 76 03 ab bd 2e 8b c4 be d9 48 d0 bd c2 d2 50 3e
       -0.083502695 -0.38387436 -0.101701446 0.20392898
000270 bb 5f 76 bd ad 03 16 3e d9 c3 01 be 72 02 83 bd
       -0.06014989 0.1464984 -0.12672366 -0.06396951
000280 1f 30 cc 3d 1b 5a 52 be 33 76 74 bd 73 f3 fd bd
       0.09970116 -0.20542185 -0.059683036 -0.1239995
000290 74 34 2a 3d c2 c5 65 bc 00 31 23 be ef 02 02 bd
       0.04155393 -0.0140242 -0.15936661 -0.03174108
0002a0 56 a6 37 3e a3 14 00 be c2 ab 96 3d 5d 6c 24 be
       0.17934546 -0.12507872 0.07356979 -0.16056962
0002b0 71 9d f6 3c 32 a7 df 3d 87 a5 71 3e 7a b0 35 3c
       0.03010437 0.10920562 0.235983 0.011089439
0002c0 b3 03 74 be 2c 85 43 3d ae 64 60 3e 96 96 ac 3d
       -0.23829536 0.047734424 0.21913406 0.084271595
0002d0 a1 51 8a bd 8a d8 ed 3c b0 54 b2 3d 38 ea 28 bd
       -0.06753851 0.029033918 0.08707559 -0.041238993
0002e0 1e b9 8d be 56 8a f5 3d 17 56 89 3d 63 58 f7 bc
       -0.27680296 0.11989276 0.067058735 -0.030193513
0002f0 04 5f 76 3e 1f 9f 15 be fe 8e 86 3e 0a 97 ef 3c
       0.24059683 -0.14611481 0.2628097 0.029246826
000300 a4 55 03 be e5 ee 21 3e 9b 01 4d be 44 21 96 bd
       -0.12825638 0.15813787 -0.20020144 -0.07330564
000310 cc 4c 9a 3e 7e 21 b5 3d 6d c5 73 3c 7a ef bc bd
       0.30136716 0.08844279 0.014878613 -0.09225364
000320 22 e5 ab bd 77 05 08 be 48 13 05 be 74 5d 48 be
       -0.08393313 -0.13283335 -0.12995636 -0.195669
000330 1d 67 18 3e 73 c0 0d be a5 9f 84 3e 43 7c 94 bd
       0.14883085 -0.13842945 0.2590305 -0.072502635
000340 cb 8a b9 bd f8 32 48 be e0 f9 1a 3e af 3e c3 bb
       -0.09059676 -0.19550693 0.15134382 -0.0059584
000350 b6 db 58 3e 1e 68 63 be 1c 0e 0f be ae 2c 68 be
       0.21177563 -0.22207686 -0.13970226 -0.22673294
000360 4a 1d 45 be ad 59 4d 3e 36 52 8b 3e 74 ef 64 be
       -0.19249454 0.2005374 0.2721116 -0.22356969
000370 f5 15 cc bd 2e f5 db 3d 06 cd 7b 3c f2 15 88 3e
       -0.099651255 0.10740124 0.015368706 0.26579243
000380 23 4b 40 3d e9 72 69 3d 03 90 c2 bc 8a a1 6a be
       0.046946656 0.056994352 -0.02375031 -0.22913185
000390 c6 f4 1d be b5 0d 2e be 08 5b 0b 3e 37 bc dc 3a
       -0.15425405 -0.16997416 0.13608944 0.001684076
0003a0 1c 32 e7 3b bf be 01 3e 16 56 a4 be cb b1 99 3e
       0.007055534 0.1267042 -0.32096928 0.30018458
0003b0 7e 9b cb 3c e4 8b 33 be d3 12 9f 3c bf 31 22 be
       0.024854418 -0.17533833 0.019418156 -0.15839289
0003c0 d4 d7 f1 3c 22 eb 07 3d b2 ef 61 be f5 50 25 3e
       0.02952186 0.033183224 -0.22064093 0.16144164
0003d0 7b 9e d1 bd d5 6d 15 be 47 5e 72 be 08 b3 d1 3d
       -0.10235306 -0.14592679 -0.23668776 0.102392256
0003e0 8b cf ad be af 69 2c be 28 ef d8 3d 77 cf 54 be
       -0.33947405 -0.1683719 0.105924904 -0.20782267
0003f0 02 bb 8c 3d 25 86 04 3e 97 1f a5 3e 70 f0 31 bd
       0.068716064 0.12941797 0.32250664 -0.04344219

bias f4 [15]
000000 f7 66 4a be 15 35 3a be 79 c4 51 3c 40 9a 10 3c
       -0.1976584 -0.18184312 0.01280319 0.008825839
000010 9b af 20 be c5 8c 4a be ca 97 2a 3d 27 e8 4f 3d
       -0.15691988 -0.19780262 0.041648664 0.050758507
000020 44 49 30 bd f0 e7 fb 3c 71 fb 9d 3d de af 21 3c
       -0.04303862 0.030750245 0.07713974 0.00986859
000030 bf cd 48 be 27 72 ae 3d cf 33 4c bd
       -0.19609736 0.085178666 -0.049854096

weight f4 [45, 15]
000000 9c 0c 08 bd d2 00 e1 3d 13 1b 37 3e 74 7c 5f bd
       -0.03321515 0.109864846 0.17881422 -0.054562047
000010 f5 96 f7 3d c6 2d e6 3d a1 c6 99 3d dd 2b f2 bc
       0.1208934 0.11239199 0.075085886 -0.029561931
000020 11 81 10 3e 41 6c 09 be 8d 11 98 bd 06 2d 6d 3d
       0.14111735 -0.13420202 -0.074252225 0.057904266
000030 17 e8 bb bd 04 72 ba 3d 3e b7 50 be 54 bd 39 be
       -0.09175127 0.09103778 -0.20382401 -0.18138629
000040 26 3f 95 bc 99 c1 a8 bd 27 13 0b 3e ca 87 bc 3d
       -0.018218588 -0.08240051 0.13581525 0.09205587
000050 ff 9c 2e bb d2 40 6a 3e fa 56 07 be 44 1e 52 be
       -0.002664387 0.2287629 -0.13216773 -0.20519358
000060 74 36 19 3e cd dd a9 bd 1e 46 5f 3c 5c 6e 55 be
       0.14962178 -0.08294258 0.013627557 -0.2084288
000070 42 95 d7 3d 20 88 71 3d d0 10 90 be ce 5d 27 3d
       0.105265155 0.05896771 -0.28137827 0.040860943
000080 0d 46 b9 be c3 b8 88 bb bc f1 c8 be 91 97 5d bd
       -0.36186257 -0.004172416 -0.3924693 -0.054099623
000090 7e 35 1a be 86 2c 05 3e 9f 72 23 be 6f fe cb bd
       -0.15059468 0.13005266 -0.15961693 -0.09960639
0000a0 f4 5c f6 bc 6f f1 2a bd a2 f6 38 3b 57 90 67 be
       -0.03007362 -0.041734155 0.0028223176 -0.22613655
0000b0 7b 1d 15 3e f7 9c 7b bc 60 a1 0e be 3f d0 3b be
       0.14562027 -0.015357248 -0.13928747 -0.18341158
0000c0 97 3d c2 bd 1e 98 25 3d 38 c7 87 3e 6c 93 17 be
       -0.094844036 0.040428273 0.2651918 -0.1480233
0000d0 90 61 8a 3e 73 f0 b2 bd 20 f8 c6 3d cb 37 cf 3d
       0.2702756 -0.08737268 0.09715295 0.101180635
0000e0 68 57 65 be 48 5c 2f 3c c9 ca 33 3e e5 31 0c 3c
       -0.22396624 0.010703154 0.17557825 0.008556818
0000f0 e4 89 8a bd 1d 3e f3 3c 6c 35 31 be 11 36 88 be
       -0.06764582 0.029692704 -0.17305535 -0.2660375
000100 ee 71 1c be e1 0f 38 bd 2b a4 a4 bc db 68 21 be
       -0.15277836 -0.04493702 -0.020097813 -0.15762655
000110 4f 33 40 3e 11 71 cc bc c2 7e 13 3e 25 e2 ed bd
       0.18769573 -0.024956258 0.14403823 -0.11615399
000120 3f e3 81 3e 0d e5 9e 3d 6f 39 15 be cc 7a fa 3c
       0.25368688 0.07758532 -0.1457269 0.030576132
000130 c7 58 f4 bd 0f 42 69 3e db ce 03 be 14 e2 e1 3b
       -0.119309954 0.22779106 -0.12871878 0.0068934057
000140 1d bc 10 be af 0d cd 3d cb 21 d0 3d f6 64 6a bd
       -0.1413426 0.100123756 0.101626955 -0.05722519
000150 a6 b5 ac 3d d5 7e 3b 3e 7c 09 58 bd 7c 8f 34 be
       0.08433084 0.18310101 -0.05274342 -0.1763286
000160 e1 2b 4d bd 47 66 00 be 87 89 4b 3e 30 67 0a be
       -0.050090674 -0.12539016 0.19876681 -0.13515925
000170 67 d7 3b 3e f4 d7 97 3d d6 5c 42 bd 67 2b 2e be
       0.18343888 0.07414237 -0.047451816 -0.17008744
000180 22 96 73 bd 79 29 d6 bd 3a f0 64 3d 49 9f bc bd
       -0.05946935 -0.10457129 0.05589316 -0.09210069
000190 34 06 76 3d 32 0d 47 3e d8 83 2b bd 6e 75 58 be
       0.06006451 0.19438627 -0.041873783 -0.21138546
0001a0 e0 fd 2f 3e 59 32 b8 bd 0b 38 c0 3d 83 98 15 3e
       0.1718669 -0.08993978 0.09385689 0.1460896
0001b0 33 ad 07 be a0 2b 37 3d 29 ba 90 3e f1 a6 35 bd
       -0.13249664 0.04471934 0.2826703 -0.04434866
0001c0 34 67 b7 3d 1c 63 80 3e 12 81 01 3e 09 a1 c8 3d
       0.08955231 0.25075614 0.12646893 0.0979634
0001d0 b8 b6 a2 3d 39 e2 8b bc 1a cb 44 3e 73 9e fb bd
       0.07945007 -0.017075645 0.19218102 -0.12286081
0001e0 ef 2a 06 3e 3f 45 43 ba 2a bc 9d be 10 47 5d bc
       0.13102315 -0.0007448978 -0.3080762 -0.013505712
0001f0 2b 62 30 be 1d 2c 00 3e f0 59 97 bc d2 30 7f 3d
       -0.17224948 0.12516828 -0.018475503 0.062302418
000200 fa 80 35 3e c4 3e 15 be 14 ee 23 3e c6 29 c4 3c
       0.17724982 -0.14574724 0.16008788 0.0239457
000210 71 96 b5 be 07 0d 8a be 0f 62 b0 3d 3f c7 a1 bd
       -0.3546634 -0.26963064 0.08612453 -0.07899331
000220 79 7f f6 3b 3d 81 f0 bd b4 65 01 be bb dd 00 be
       0.00752252 -0.117434 -0.12636453 -0.12584583
000230 08 9c d0 3d 63 4c 50 be 5a ed 27 bd 56 87 6c be
       0.101860106 -0.20341639 -0.04099784 -0.23098502
000240 e9 b9 1c be 64 e6 53 be ca 2a 1c 3e 36 c5 99 be
       -0.15305294 -0.20693356 0.15250698 -0.30033273
000250 5a 27 0f 3e bd 91 71 3e 2e c2 58 bd 5f c7 d9 bd
       0.13979855 0.23590751 -0.05291956 -0.1063373
000260 61 bb 35 be 97 34 94 3e 5b 10 01 bc ff d9 e6 bd
       -0.1774726 0.28946373 -0.007877435 -0.11272048
000270 93 c7 56 bd 23 69 0d 3e 7d 2e ac bd f8 1f 46 3d
       -0.052436423 0.13809638 -0.084073044 0.04837033
000280 0f 19 5e bc 91 75 67 bd 4b 66 9d be 5d d8 99 be
       -0.013555779 -0.056508604 -0.30742106 -0.30047885
000290 35 8a 5d 3e 12 70 df bc 08 21 39 3e 0a b9 f9 3d
       0.21634753 -0.027275119 0.18079007 0.121934965
0002a0 4f 07 8f 3e 6c 86 db 3d 8d 46 26 3e ee 26 6f be
       0.27935264 0.10718998 0.1623785 -0.23354694
0002b0 3f 98 05 bb 77 6a 3a bd ca d4 5b bd 52 68 3a bd
       -0.0020384935 -0.04551169 -0.05366973 -0.045509644
0002c0 c0 e1 5e be 8e 34 9d 3d 90 37 92 be 68 cc 62 be
       -0.21765804 0.0767604 -0.28558016 -0.22148287
0002d0 53 a1 03 3e bd 8e f3 bd 33 dc 41 bd d3 9c 0b be
       0.12854509 -0.118924595 -0.04732914 -0.13634042
0002e0 25 b6 a7 bd 41 8f 6a be 10 8b 8c 3e 67 1d 3c be
       -0.08189038 -0.2290621 0.27449846 -0.18370591
0002f0 af 23 42 be 28 ad bd bd 1c f9 06 be d3 01 32 be
       -0.18958925 -0.092615426 -0.13180965 -0.17383508
000300 4f d9 0d be 35 a8 b2 be 52 4f 1c 3e 85 95 6f 3b
       -0.13852428 -0.34893957 0.15264633 0.0036557626
000310 22 ae d8 bd 18 9b 83 3a 9d 23 3f bd 6e 4e 36 bd
       -0.10580088 0.0010040728 -0.046664823 -0.04450839
000320 05 8d 69 3e 90 1d 2c 3e d1 78 3b be 8a f8 e2 3d
       0.22807701 0.16808152 -0.18307807 0.11082561
000330 7c c4 df 3d 21 17 3f be 5e 80 2d 3d fe a4 57 bc
       0.10926148 -0.18661167 0.04235875 -0.013161896
000340 13 b6 9b bd 26 df 07 3e 9e 0d ed 3d 53 11 87 3e
       -0.07603087 0.13268718 0.11574863 0.26380405
000350 01 7e 40 be 3e 73 81 be 46 f7 83 3c 0c be bc 3d
       -0.18798067 -0.25283235 0.01610912 0.09215936
000360 c8 56 44 bc bb 94 06 3e 33 02 89 bd 7f 09 3b 3e
       -0.011983581 0.13142674 -0.066898726 0.18265341
000370 96 bc 48 be a5 52 11 3d 01 e5 9d bd fd 1c 06 be
       -0.1960319 0.035479207 -0.07709695 -0.13096996
000380 a3 a9 1f be 49 6b cc 3d e4 6a 4b 3d 42 ae 97 3d
       -0.15592055 0.099814005 0.049662486 0.07406284
000390 c8 74 32 bd 29 74 22 be e7 72 0f be 7a ab 45 be
       -0.043568403 -0.15864624 -0.14008676 -0.19303694
0003a0 42 bd 66 3c 8d 4e 4c 3d ca f5 66 3e 47 a9 72 bd
       0.0140832085 0.0498796 0.22554699 -0.059243467
0003b0 cb 07 e0 bd 1a 3f 75 bd 52 4a 07 be 13 0e 24 3e
       -0.109389864 -0.05987463 -0.13211945 0.16020994
0003c0 32 47 d0 bd b0 48 8b 3e cd 9f 84 3c c1 ed a7 bd
       -0.101698294 0.27203894 0.01618948 -0.08199645
0003d0 63 8f 07 be 80 ed cd 3d ea 1b 0b bc 68 f1 80 3c
       -0.13238291 0.10055065 -0.008490542 0.015740111
0003e0 48 ad 1c bb 4f 57 f5 bd 4e f7 3c 3c 94 91 48 be
       -0.0023906995 -0.119795434 0.011533571 -0.19586784
0003f0 ba 0c 00 be 34 bc 16 3e 77 9d 09 3e 70 d9 14 3e
       -0.12504855 0.14720231 0.13438974 0.14536071

bias f4 [45]
000000 5c 6c 12 3e 7c 26 b0 3e e0 ee 35 3e 3d de a3 3e
       0.14299148 0.3440436 0.17766905 0.32005492
000010 dc 36 70 bd d6 20 e0 3e 47 b8 71 3e 73 00 82 3e
       -0.058646068 0.43775052 0.23605452 0.25390968
000020 a9 3c ce 3e 50 61 49 be 99 36 65 3e 7f 42 e5 bd
       0.40280655 -0.19666028 0.22384109 -0.11194324
000030 a9 b7 cd 3e e5 36 90 3e fb 64 ca bb f1 05 7a be
       0.40179184 0.2816688 -0.0061765886 -0.24416329
000040 18 78 4f 3e c0 c0 8f 3d 7d 20 8d 3d de c3 d2 3e
       0.20260656 0.07019186 0.06890962 0.4116506
000050 e7 c6 b0 3e d0 e7 70 bd 2b f5 d2 3c 66 76 1e 3e
       0.3452675 -0.058814824 0.02575167 0.15474853
000060 ea eb 46 3e 9c aa a4 3c a6 a4 73 3e 75 7a a6 3d
       0.19425932 0.020100884 0.23793277 0.081288256
000070 c5 17 b7 3d c6 25 eb bc a4 18 e8 3e e9 8f fe bd
       0.089400806 -0.028704535 0.453313 -0.124297924
000080 73 34 c7 3d 2a 22 e0 3d b2 e0 42 be 69 c9 7f 3e
       0.09726801 0.10944016 -0.19031027 0.24979176
000090 6a a5 3b bd 5c 4d aa 3e f6 08 c6 3d 23 e6 54 be
       -0.045812048 0.33262146 0.09669678 -0.20790915
0000a0 54 c0 c0 3e 37 d5 f3 3d 1a da 72 3e 9b 33 a8 3e
       0.37646735 0.11905902 0.23716012 0.32851872
0000b0 7d 3b 89 3e
       0.26803198

weight f4 [135, 45]
000000 57 c2 98 3d dd b5 84 bd 4e cb 31 3e ae e1 f7 3c
       0.074589424 -0.0648 0.17362711 0.03025898
000010 56 27 9b 3d 78 dc 29 3d 50 20 01 3e c9 05 53 bd
       0.07575862 0.04147002 0.12609982 -0.05151919
000020 4c e6 51 bd 02 c6 14 be 9e d0 02 be e6 e3 15 bd
       -0.05124502 -0.14528659 -0.12774894 -0.036594294
000030 d3 cb 04 3e f4 f5 2d 3d 45 11 87 3d 8b 89 8e 3b
       0.12968378 0.042470887 0.06595091 0.0043498925
000040 83 11 9c bd 92 6d 0b 3d 61 e1 f5 bc 69 46 4a bd
       -0.076205276 0.03404004 -0.030014696 -0.049383555
000050 0f 7d 97 bc 71 75 a4 bc 52 2e 05 3e d6 33 35 bd
       -0.01849225 -0.020075532 0.13005951 -0.044238888
000060 cb 9a a8 bc 3e aa ba bd 66 3f da 3b 61 ab 44 3e
       -0.020581624 -0.09114502 0.0066603897 0.19206001
000070 22 9c 36 3e 07 63 ae 3d ef f5 a0 3a fa e7 14 3e
       0.17832997 0.08514982 0.0012280325 0.14541617
000080 79 e0 b9 3d a2 9c 35 3d 92 43 1d 3e 01 13 d7 bd
       0.09076018 0.04433883 0.15357807 -0.105016716
000090 bd 5c 33 be 5e f1 23 3e c8 44 91 3d 53 37 1e 3e
       -0.17515846 0.16010043 0.07093197 0.15450792
0000a0 33 23 9e 3c 75 d4 c9 bd 59 54 3c be 0e d4 92 3b
       0.019303894 -0.09854976 -0.18391551 0.0044808453
0000b0 17 97 58 3d b6 02 5b bd 7f 84 bf 3c d6 ae 07 be
       0.052878466 -0.053469382 0.023378609 -0.13250288
0000c0 9b ec fc bc 42 df ae bd af 1f 64 3e 18 25 9f 3d
       -0.030874541 -0.08538677 0.22277711 0.07770747
0000d0 f0 31 3e 3e 71 16 75 3e dc 5c 93 3d 4c 7c 94 bc
       0.18573737 0.23934342 0.07195446 -0.018125676
0000e0 7e 45 5f bc 6e 6d a1 bd a9 0e 8a bd 34 9d a5 3d
       -0.013627408 -0.078822 -0.067410775 0.08086625
0000f0 67 a6 f4 3d 56 c0 82 3d 4b cf 77 bd 61 af 17 bc
       0.11945801 0.063843414 -0.060500424 -0.009258122
000100 5f d4 26 3e 92 93 98 bd 43 d1 d0 3d ea cd db bb
       0.1629195 -0.07450022 0.101961635 -0.0067078965
000110 e3 e5 32 be c7 55 47 3d 37 a9 a2 3d 7e f9 dc 3d
       -0.17470507 0.048665788 0.079424314 0.10789774
000120 96 84 c7 bd e8 7c 87 3d d1 7f 7a 3e 47 13 2c bd
       -0.09742086 0.06615621 0.2446282 -0.04201057
000130 ac 71 14 be d1 8b 7c bd af 73 af 3d f4 b6 b0 bd
       -0.14496487 -0.061656777 0.08566987 -0.086286455
000140 33 f1 2a 3d 7a 9e a8 3d ab 22 58 3d 1b a7 d7 3d
       0.04173393 0.08233352 0.052767437 0.1052992
000150 23 28 70 bc a9 6c a9 bb 39 e1 b4 3d b5 84 0e 3e
       -0.014658007 -0.005170424 0.0883202 0.13917811
000160 50 2f b8 bd 1f 51 2f be b3 0e 66 bc ab 40 b2 3d
       -0.08993399 -0.17120789 -0.0140415905 0.08703741
000170 ee 71 83 bd 85 bc e2 3d 23 a7 53 bd db 7d 85 3e
       -0.06418215 0.110711135 -0.051673066 0.26072583
000180 0f 50 eb 3d 3f 71 93 3d a7 57 30 3b 50 82 da bd
       0.11489879 0.07199334 0.0026907714 -0.106693864
000190 11 fb 22 3e 89 e5 22 bc 91 b5 81 3d 06 3f 35 bd
       0.15916087 -0.009942421 0.06333459 -0.044249557
0001a0 64 1e 38 bd e0 8c 11 3e a5 46 b6 bc 76 39 8e 3d
       -0.044950858 0.14213896 -0.022250483 0.069445536
0001b0 e6 15 0d 3d 15 ad c8 3b ac 60 cb bc fd 6b 78 bd
       0.034444712 0.0061241486 -0.02482637 -0.06064986
0001c0 53 d1 52 bd 53 ae 90 3d 66 e5 20 3e a9 f1 21 bc
       -0.05146916 0.070645 0.15712509 -0.009884276
0001d0 ad dc 9f bc 65 41 19 3d 0b 10 05 3e 5c 9a 06 be
       -0.019514406 0.03741588 0.12994401 -0.13144821
0001e0 77 93 09 3e 11 96 cc bd 67 f4 70 3c aa 86 8c 3d
       0.1343516 -0.099895604 0.014706708 0.06861623
0001f0 5f d6 ea bb 83 d7 9c bd 4c 88 87 bd 90 73 67 3e
       -0.0071666683 -0.07658293 -0.066177934 0.22602677
000200 47 bd 17 be a9 77 54 3d 91 35 22 be 7f a9 28 3e
       -0.14818297 0.05187193 -0.15840746 0.16470908
000210 cc d7 a8 3d 90 27 25 3d ce 35 bd bd 6e 4b ef 3d
       0.08244285 0.040320933 -0.09238778 0.11684309
000220 70 75 db 3d 5c a4 c2 3d 8e fd 40 bd 17 26 aa 3d
       0.10715759 0.09504005 -0.04711681 0.08308046
000230 69 28 a3 3d 1b 16 78 bc 1c 3a 81 bd 61 c7 f8 bd
       0.07966692 -0.015141989 -0.063099116 -0.121474035
000240 a6 10 b6 3d 2a d0 24 bd a3 35 03 be 7c 4d 9f 3d
       0.08889894 -0.040237583 -0.1281343 0.07778451
000250 86 bb 33 be f8 50 d3 3a ee ba 86 3d 7f 9a 49 3e
       -0.17552003 0.0016122153 0.06578623 0.19687842
000260 df 5a 44 3e 8d 16 2d 3e 31 4b c0 3d 0c 2b 14 3c
       0.1917529 0.16903134 0.093893416 0.009043466
000270 93 0b 67 3d a3 b7 32 bd f5 f7 52 3e 15 e3 f0 3c
       0.056407522 -0.04363216 0.206024 0.029405156
000280 9a f9 95 ba 9d 02 04 be fc 59 92 3c 63 9e 0f be
       -0.0011442185 -0.12891622 0.017865174 -0.14025263
000290 39 34 f7 bd a1 9b d0 bc 21 fd 61 3d b8 ac 63 bc
       -0.120705076 -0.025464835 0.055173043 -0.01389616
0002a0 1f b6 0b 3e 8c 37 2e bd 0f 1d c0 3d ed 17 be bd
       0.13643692 -0.042533442 0.093805425 -0.09281907
0002b0 13 92 cf bd cd 07 9d bd 57 39 2b 3c 94 ae f2 3d
       -0.10135283 -0.076675035 0.010450683 0.118497044
0002c0 5b 2f 53 bd 24 68 8f 3d 5b f5 c4 3d 00 03 4b bd
       -0.051558834 0.07002285 0.0961711 -0.049563408
0002d0 c4 af 1e bd 54 aa 7b 3d d7 ea b5 bd c8 1c bb bd
       -0.038741842 0.061441734 -0.08882683 -0.09136349
0002e0 30 48 db 39 d6 f7 62 bd 24 18 5e 3d 06 79 ec 3d
       0.0004182472 -0.055412136 0.05422224 0.11546521
0002f0 03 3f a3 3c 11 b9 c2 3b 53 88 1a bd 12 39 db 3d
       0.019927507 0.005942472 -0.037727665 0.10704245
000300 5e b5 d5 3c 70 12 a7 3c d2 ea ae 3c 29 df f5 bc
       0.02608746 0.020394534 0.021352205 -0.030013638
000310 bc b3 be 3d e2 d0 d1 3d 3b 8f 20 bc 1c 1f 7d 3d
       0.09311625 0.10244919 -0.009799774 0.061797246
000320 40 03 a1 bd f9 b4 d8 bc 2b 09 bc bd 0a 37 bc bd
       -0.07861948 -0.026453482 -0.09181436 -0.09190185
000330 5b 21 03 3e cb 48 87 bd a6 35 df bb 5c bf 85 3c
       0.12805693 -0.06605681 -0.0068118153 0.016326599
000340 20 f2 2c 3d 91 28 88 bd e5 26 af 3d 5a bc 70 3d
       0.042223096 -0.066483624 0.085523404 0.058773376
000350 60 de 81 bd 5b d3 fb bd ac 98 e2 3d d0 85 ce 3d
       -0.06341243 -0.12296172 0.11064276 0.100841165
000360 81 de 93 3d 95 e5 ca bd 3e d9 8b bd 76 50 18 bd
       0.072201736 -0.099070705 -0.06828545 -0.03718611
000370 11 c8 09 3e 45 d4 48 bd 88 9e 19 3e 6b 9e 0d 3e
       0.13455226 -0.04903056 0.15001881 0.13829963
000380 87 5f 83 bd 54 b9 4f 3d d1 76 10 3e 97 34 09 3e
       -0.06414705 0.050713852 0.14107825 0.13398968
000390 0e c1 dc 3c 10 db e5 bb 07 50 6d bd 5e e6 c0 bd
       0.026947524 -0.0070146397 -0.05793765 -0.09418939
0003a0 89 18 cb 3c 3b 71 15 be 06 72 3d bd 35 1b fb bd
       0.024791973 -0.14593975 -0.04625132 -0.12261049
0003b0 41 d5 09 bc 81 de 38 3d 20 0d 47 bd 60 0c fd bc
       -0.00841266 0.04513407 -0.0485965 -0.03088969
0003c0 9d 80 fd 3c 90 15 0e 3e d9 47 63 bd 03 36 93 3d
       0.030945117 0.13875413 -0.05548844 0.07188036
0003d0 06 a7 31 3e 92 14 20 3c 17 1f 81 bd ec ba f5 3d
       0.1734887 0.009770529 -0.06304758 0.11998543
0003e0 04 62 0a 3d 3d d9 07 3e d4 c0 0a 3e fe 08 24 3d
       0.03378488 0.13266464 0.1355012 0.040047638
0003f0 f8 e6 05 3e 00 f2 54 bd 50 16 ab 3d f7 73 1b bd
       0.13076389 -0.0519886 0.08353865 -0.03795239

bias f4 [135]
000000 72 26 8d 3d 5a a1 66 3c ff 38 00 3d 87 db 0d 3e
       0.068920985 0.014076555 0.031304356 0.13853274
000010 23 0f 9d bd e0 f7 fe 3d 0c 8f 6c 3d d7 fd 42 3d
       -0.07668903 0.12449622 0.057753608 0.04760536
000020 ff 49 5c bd 10 09 8a 3e e2 ca 00 3e a6 6d ad bd
       -0.053781506 0.2696004 0.12577394 -0.084681794
000030 93 19 95 3e 78 3c e0 bd e3 90 84 bd 4c 3e 87 3d
       0.29121074 -0.109490335 -0.064729474 0.06603679
000040 4f 8e c6 3d 6a 36 00 3d 0b 93 ed 3d b4 f5 7d bd
       0.09695112 0.031301893 0.11600312 -0.0620019
000050 e3 8b 9a bc c1 a7 14 3e 1c bc 1f be 22 50 06 3e
       -0.018865531 0.14517118 -0.15599102 0.13116506
000060 5f 53 ac 3b 1d 8e ad bd 00 5c b8 3d d4 cb 1d 3e
       0.005258962 -0.084743716 0.090019226 0.15409786
000070 6e ac a3 3d ce 33 45 3e d0 7b 7f 3e cc 72 16 3e
       0.07991873 0.19258043 0.24949574 0.14692229
000080 57 ce 35 3e 51 a6 1a bc 28 7e 27 3e f2 47 b0 bc
       0.17754494 -0.009439067 0.16356719 -0.021518681
000090 4b 27 06 bd 27 de ca 3d 7a 1a a1 bd 57 34 c2 bd
       -0.032752316 0.099056534 -0.07866378 -0.09482639
0000a0 f6 f5 c6 3d f7 7c 6d 3c 64 f0 d6 bd d2 0b 06 3e
       0.09714882 0.014495126 -0.104950696 0.13090447
0000b0 8b 1e 97 bd 30 fa 05 3e e7 19 97 bd 95 00 fe 3d
       -0.073788725 0.1308372 -0.07377987 0.12402455
0000c0 bb ec 3a 3e 73 8e 96 bd 6b 8b 63 bc f7 ae f6 bd
       0.18254368 -0.07351389 -0.01388822 -0.12045091
0000d0 42 d3 5a 3e 47 19 5f 3b b9 8a e1 bd 5d 9c e0 bd
       0.21369651 0.0034042166 -0.11012787 -0.10967324
0000e0 20 19 e7 bc 9a 52 06 bc 24 24 43 3d c7 8c f3 3d
       -0.028210223 -0.008198405 0.04764189 0.118920855
0000f0 d9 3a b0 bd 79 f4 d8 bd de a6 4f 3c 0f 9c bc 3d
       -0.08604974 -0.105935045 0.012674062 0.09209453
000100 06 ec 56 bd de 2f db bd a6 9c ae bd 49 79 03 3d
       -0.052471183 -0.10702489 -0.08525972 0.03209809
000110 4b 51 58 3e 61 b4 b9 3d 08 46 d2 bc f8 93 89 3a
       0.21124761 0.09067608 -0.02566816 0.0010496369
000120 f1 19 de 3d 72 cb 13 be a2 c8 2f bd 66 20 a6 bd
       0.10844792 -0.14433077 -0.042915948 -0.08111648
000130 26 27 cc 3d 9d bf 60 bc 75 37 79 3e c9 68 19 be
       0.099684045 -0.013717559 0.24337561 -0.14981379
000140 fd 87 ca bd 4c 93 53 3e 20 31 eb 3d 6f 55 f4 3d
       -0.09889219 0.20661658 0.11483979 0.11930358
000150 e0 1f 11 3e c4 31 8a 3e 73 ce 9e 3d 78 96 c3 3d
       0.14172316 0.26991093 0.07754221 0.09550184
000160 6a 7a 23 bd 62 68 ac bc 9a b1 96 3d f0 85 24 3e
       -0.039911665 -0.021045867 0.073580936 0.16066718
000170 90 02 b7 3d d7 a1 90 bd d9 b8 02 be b6 ca fb bd
       0.08936036 -0.070621185 -0.12765826 -0.122945234
000180 6f e2 81 3e ef 4d 34 3c 8e a5 64 3e 58 d7 13 be
       0.25368068 0.011004909 0.22328779 -0.14437616
000190 22 db 79 3d 5b 8b b5 3c 68 90 25 3e 24 ca c0 bc
       0.060999997 0.022161176 0.16168368 -0.023533888
0001a0 f5 4a de 3c 4c 61 34 3e e1 eb d6 bd 00 a7 01 be
       0.027135352 0.17615241 -0.10494209 -0.12661362
0001b0 82 e5 54 3d 52 79 a9 3d f4 0c 37 3e c2 7e 99 bd
       0.05197669 0.08275093 0.17876035 -0.0749488
0001c0 9a 77 aa 3d 56 8d ec 3c c3 3e 9e bd 7b 60 5f 3e
       0.083235934 0.028875988 -0.077268146 0.21814148
0001d0 0e da 6d bd 1b 1f 2a be a3 db 43 3e c9 4a 1e bd
       -0.05806928 -0.16613428 0.19126754 -0.03864554
0001e0 e0 3e 33 be bb f9 02 be 00 7a 0f 3e 25 75 93 3d
       -0.17504454 -0.12790577 0.14011383 0.07200078
0001f0 64 dc 0c bd 5e 5b 28 be af 44 92 bb 1d f2 cb bd
       -0.03438987 -0.16441104 -0.004463754 -0.09958289
000200 ea c1 cd 3d d5 bb e4 3d 7e 0f 29 3e 72 1e e3 bc
       0.10046752 0.111686386 0.16509816 -0.027724478
000210 13 38 99 3c 55 01 29 3e ec 1f e3 bd
       0.018703496 0.16504414 -0.11090073
