knn/models/pretrained-autoencoder/autoencoder-in_features90-latent_size8.pt (torch, 89089 bytes, 12 tensors)

weight f4 [72, 90]
0.13518487 -0.020790126 0.064744875 -0.006056378 0.036741484 0.118718706 0.10614048 0.021512404
0.069246456 0.09165884 0.013938524 0.03951457 0.05696031 0.047653936 0.02882899 0.053118665
0.08653596 -0.027295342 0.025357645 0.041324534 0.07517665 -0.030829841 -0.026987521 0.043496035
-0.05127802 0.071499296 0.02053192 0.0008694613 -0.027607284 0.050365537 -0.06405663 -0.037266288
-0.008976938 0.035303634 0.0010821995 0.03249475 0.032946486 -0.020657713 0.0036356589 0.04128899
-0.007514158 0.09158936 -0.030334398 0.040105496 0.04115387 0.08702942 -0.0037386224 -0.036405362
-0.025209563 0.020215824 -0.018968267 0.030930808 -0.027411915 -0.062163115 -0.10561329 -0.001169119
-0.034778267 -0.08506825 -0.037413206 -0.051049937 -0.13669878 -0.08839005 -0.11320727 -0.073610306
0.01802247 -0.10635323 -0.04632655 -0.024998756 -0.07701757 -0.10567251 0.042657707 -0.04400794
0.008986778 -0.008097837 -0.0126674995 0.018490972 0.017638363 0.095758185 0.054856095 -0.024899242
0.0195903 -0.024427267 0.0016227295 0.022829864 0.0069406983 0.07475864 0.07225782 -0.063973226
0.046141695 0.034482587 -0.017145388 -0.028270684 -0.042469878 0.034005053 -0.00016881134 6.3978994e-05
-0.0701753 0.008521888 0.057247434 -0.06090949 -0.022492394 -0.042265527 0.09452418 -0.057887614
-0.03459792 0.009449958 0.046933036 -0.037947804 0.07345551 0.046543468 -0.03710614 0.051554218
0.077442974 0.08275542 0.07996731 0.07224241 -0.0745479 0.035397023 0.06437572 -0.0033051565
-0.032415293 -0.041169006 0.008098026 0.06774115 -0.03311939 -0.030876359 -0.002362848 -0.022649948
0.044090167 -0.012485437 0.058152575 0.08303284 -0.031131584 -0.0062962095 0.113384366 0.05496092
-0.070145786 0.105532974 -0.0349963 0.0013713621 -0.061390627 0.04010487 -0.01916057 -0.044048596
-0.015378407 -0.09179838 -0.11575931 -0.017099902 -0.07800825 -0.005554949 -0.049280778 -0.03671852
-0.06811505 0.037848882 0.07940409 0.025479287 0.059511393 0.018110167 -0.03105599 0.09340453
0.03862436 0.095322825 -0.06417143 0.0060745603 0.0015300931 -0.057267845 -0.12466192 -0.07464828
-0.056684118 -0.028833842 -0.0640979 -0.15334032 -0.08311189 -0.11984956 -0.09707968 0.0018257652
0.008211528 -0.015502516 -0.056754984 0.035493627 0.05518621 0.038867205 -0.011907037 0.048100766
0.07188179 -0.04887778 0.015879527 0.041178692 0.021408325 -0.013442181 -0.015338327 -0.049871616
0.069863744 0.0071102185 0.030843096 -0.017149862 0.110295765 0.10824835 0.046851512 0.08810871
0.08600181 0.09887323 0.12785064 0.031106848 0.056541942 0.1269365 0.054147754 0.047198914
0.08069415 0.07279725 -0.031583145 -0.0009628292 -0.028047616 -0.024779202 -0.10492011 -0.08932832
-0.04215315 -0.069096975 -0.06579615 -0.10349679 -0.052279387 -0.070711 -0.034255847 -0.071630694
-0.0795143 0.0022250137 0.05275468 0.029887885 -0.0047520585 -0.016408278 0.018364882 0.018796105
0.059410635 0.06581779 -0.020616002 -0.00522264 -0.089301854 -0.043326847 0.04024185 -0.06385839
-0.07537322 -0.029819228 -0.034969583 -0.13652532 -0.04903504 -0.042881336 -0.1001293 -0.044458337
-0.1384049 0.009579019 -0.067212455 0.03133346 -0.03746445 0.014064394 0.06655272 0.019054318
00000000: e76d 0a3e 0e50 aabc f698 843d 9574 c6bb
00000010: 3d7e 163d cb22 f33d 2e60 d93d c83a b03c
00000020: 16d1 8d3d a1b7 bb3d 685e 643c 08da 213d
00000030: 374f 693d c630 433d c62a ec3c f592 593d
00000040: c439 b13d 7b9a dfbc d6ba cf3c ea43 293d
00000050: 37f6 993d dd8e fcbc ef14 ddbc e628 323d
00000060: e708 52bd 396e 923d 8f32 a83c 8fec 633a
00000070: ac28 e2bc 184c 4e3d 1f30 83bd 89a4 18bd
00000080: 0214 13bc 8b9a 103d 97d8 8d3a 3719 053d
00000090: e5f2 063d 5d3a a9bc 3c44 6e3b a51e 293d
000000a0: 5339 f6bb 3493 bb3d d87f f8bc a945 243d
000000b0: f690 283d 7b3c b23d ad03 75bb ca1d 15bd
000000c0: 4984 cebc a89b a53c 5763 9bbc 9b62 fd3c
000000d0: f48e e0bc c09e 7ebd c84b d8bd 203d 99ba
000000e0: a873 0ebd 4338 aebd 973e 19bd bd19 51bd
000000f0: c4fa 0bbe d805 b5bd 37d9 e7bd 00c1 96bd
00000100: dca3 933c b9cf d9bd e9c0 3dbd 31ca ccbc
00000110: 63bb 9dbd d46a d8bd d9b9 2e3d ab41 34bd
00000120: 473d 133c caac 04bc 588b 4fbc 617a 973c
00000130: 547e 903c de1c c43d c9b0 603d 7ff9 cbbc
00000140: d67b a03c b11b c8bc c4b1 d43a b205 bb3c
00000150: cc6e e33b 0f1b 993d e8fb 933d 6504 83bd
00000160: 13ff 3c3d 9d3d 0d3d 7c74 8cbc ec97 e7bc
00000170: e5f4 2dbd e248 0b3d f302 31b9 762c 8638
00000180: 11b8 8fbd 649f 0b3c 497c 6a3d 3b7c 79bd
00000190: f841 b8bc 9e1e 2dbd e595 c13d 901b 6dbd
000001a0: 8cb6 0dbd ffd3 1a3c db3c 403d 286f 1bbd
000001b0: d86f 963d 5da4 3e3d 9cfc 17bd 842a 533d
000001c0: 6c9a 9e3d ac7b a93d e7c5 a33d d4f3 933d
000001d0: 92ac 98bd 78fc 103d 6bd7 833d 539b 58bb
000001e0: e6c5 04bd d5a0 28bd 95ad 043c dfbb 8a3d
000001f0: 33a8 07bd 6bf0 fcbc 03da 1abb 628c b9bc
00000200: e497 343d b88f 4cbc 6531 6e3d 1f0d aa3d
00000210: aa07 ffbc 6f50 cebb 1036 e83d b41e 613d
00000220: 98a8 8fbd ac21 d83d 4858 0fbd 47bf b33a
00000230: bd74 7bbd 0145 243d a1f6 9cbc 4d6c 34bd
00000240: b7f5 7bbc ca00 bcbd 3813 edbd 1815 8cbc
00000250: cac2 9fbd 4a06 b6bb a4da 49bd 2966 16bd
00000260: e77f 8bbd 6e07 1b3d 9d9e a23d f0b9 d03c
00000270: 38c2 733d c65b 943c 2269 febc e04a bf3d
00000280: 9434 1e3d 9d38 c33d 506c 83bd 1b0d c73b
00000290: 688d c83a b091 6abd c04e ffbd 33e1 98bd
000002a0: 9b2d 68bd f334 ecbc c345 83bd 3f05 1dbe
000002b0: 9136 aabd b073 f5bd b6d1 c6bd 844e ef3a
000002c0: a589 063c 44fe 7dbc ea77 68bd c461 113d
000002d0: ef0a 623d 3833 1f3d bc15 43bc 4f05 453d
000002e0: c336 933d 1134 48bd c815 823c fdaa 283d
000002f0: 8360 af3c 983c 5cbc 9b4d 7bbc 2e46 4cbd
00000300: b914 8f3d d6fc e83b a9aa fc3c de7d 8cbc
00000310: bfe2 e13d 50b1 dd3d 5fe7 3f3d 5772 b43d
00000320: b821 b03d 0c7e ca3d 47eb 023e cad3 fe3c
00000330: 8698 673d a4fb 013e 09ca 5d3d a653 413d
00000340: f942 a53d b916 953d 545d 01bd 6066 7cba
00000350: 1dc4 e5bc c1fd cabc 5be0 d6bd c4f1 b6bd
00000360: c8a8 2cbd b782 8dbd 22c0 86bd 20f6 d3bd
00000370: e922 56bd eed0 90bd dc4f 0cbd 1db3 92bd
00000380: 65d8 a2bd 89d1 113b 4b15 583d 70d7 f43c
00000390: 28b7 9bbb a76a 86bc f371 963c 4afa 993c
000003a0: 9158 733d 7acb 863d e4e2 a8bc ae22 abbb
000003b0: e4e3 b6bd 7e77 31bd a3d4 243d 30c8 82bd
000003c0: 465d 9abd 7447 f4bc 443c 0fbd 4bcd 0bbe
000003d0: f7d8 48bd 57a4 2fbd 9710 cdbd f219 36bd
000003e0: 04ba 0dbe 51f1 1c3c afa6 89bd 8457 003d
000003f0: 5374 19bd 586e 663c cb4c 883d cd17 9c3c

bias f4 [72]
-0.14785016 0.16744788 0.057856537 -0.04924961 0.11173782 0.1462113 -0.0040159207 0.039137807
-0.067148976 0.018274268 0.02008923 0.02628976 -0.10743901 -0.10657022 -0.056128476 0.23564301
0.008676923 -0.013822714 -0.021324683 -0.119129635 0.07353388 -0.04528976 0.01138151 0.042144977
-0.0791192 -0.06929196 -0.09124451 0.1830038 0.039246894 0.06212237 -0.00065764633 0.09272477
0.037922263 0.08325805 0.1503546 -0.018793952 0.008941357 0.05367851 0.13313232 0.070968084
0.06752181 0.024203157 0.030499127 0.32792637 -0.12965928 0.022679495 -0.09413524 -0.045882594
-0.023217084 0.07208803 0.056627396 0.06800516 0.03480423 -0.057249088 0.04774106 -0.037560057
0.07410055 -0.061945137 -0.056283783 -0.109468386 0.04806569 0.008326559 0.1673908 -0.025625074
-0.013255243 0.11827372 0.09874077 0.019379813 0.13808545 -0.13834338 -0.15866809 -0.015696794
00000000: 0866 17be 7577 2b3e fafa 6c3d f6b9 49bd
00000010: ccd6 e43d 6ab8 153e fc97 83bb f74e 203d
00000020: 6785 89bd ebb3 953c 2b92 a43c 9f5d d73c
00000030: fc08 dcbd 7d41 dabd f9e6 65bd 674c 713e
00000040: a729 0e3c aa78 62bc 1ab1 aebc 3dfa f3bd
00000050: ee98 963d c181 39bd 8379 3a3c 36a0 2c3d
00000060: 3f09 a2bd f1e8 8dbd 67de babd 5965 3b3e
00000070: 5ac1 203d 0774 7e3d e665 2cba 7ce6 bd3d
00000080: 6054 1b3d 3283 aa3d 8ef6 193e c6f5 99bc
00000090: c57e 123c ffdd 5b3d d753 083e b757 913d
000000a0: e048 8a3d b345 c63c 4ed9 f93c f7e5 a73e
000000b0: 67c5 04be 59ca b93c fac9 c0bd 63ef 3bbd
000000c0: c131 bebc e4a2 933d 21f2 673d 4a46 8b3d
000000d0: e18e 0e3d 057e 6abd 218c 433d 93d8 19bd
000000e0: 07c2 973d 2fba 7dbd d389 66bd f630 e0bd
000000f0: 87e0 443d 1f6c 083c 7e68 2b3e adeb d1bc
00000100: 852c 59bc 7e39 f23d 9a38 ca3d 6ac2 9e3c
00000110: 4666 0d3e e3a9 0dbe e379 22be 9096 80bc

weight f4 [24, 72]
0.010824137 0.010199412 0.047451667 -0.025033936 -0.016586576 0.3226544 0.115373544 0.07795147
-0.031005342 0.06851432 0.001871601 0.17046256 0.039544232 -0.03275825 0.14329116 0.021118768
0.08192762 -0.05227742 0.008003145 0.054063436 0.016685352 -0.08172915 0.01573817 0.040592737
0.14322078 0.046970863 0.063899636 0.23625824 0.13828546 0.015612635 0.021688662 0.1442244
-0.03607903 0.07340575 0.069763064 0.027349388 -0.09017391 0.07460614 0.16772914 0.026459724
0.036000744 -0.07863276 -0.01660933 0.17750068 -0.010981192 0.09154129 -0.0416435 -0.07466476
0.008584488 -0.053800657 0.11924212 -0.038333032 0.16216414 -0.0082382 -0.020440957 -0.028085735
0.043090068 0.008464751 -0.059643637 0.063944094 0.07101752 0.031153487 0.031223986 -0.053930625
0.12194462 0.10278881 0.09832592 0.037849396 -0.037273217 -0.025681714 0.0018742902 0.11171756
-0.071219295 -0.112733364 -0.040968604 -0.03764443 -0.07235345 -0.13743503 0.25641444 0.07926078
0.034197886 0.14558014 0.18768498 0.110810965 -0.022838412 -0.071731776 0.25034937 0.037506755
0.06316992 -0.005799608 -0.11377456 -0.100857854 0.006890462 -0.016773658 -0.060738444 -0.038502052
-0.01878795 -0.07679593 0.12580924 0.07209316 -0.15981278 -0.10041319 0.17107883 -0.07740624
-0.11824025 0.017577266 0.034569357 -0.0777827 0.16706027 0.14236443 0.006964867 0.037497085
-0.027299754 0.4213737 -0.020792462 0.061362986 -0.059340365 -0.020134514 0.08962775 -0.0108849825
-0.034812942 -0.028773341 0.1427252 0.1185519 0.069974616 -0.021650452 -0.11076996 -0.14503342
0.14034781 0.046059262 -0.07203679 -0.0037311818 0.28166354 -0.050015368 -0.08008537 0.17841473
0.0124623785 0.068389684 0.022803476 0.05819425 -0.17147666 0.1327824 -0.098438725 0.120505415
0.008225023 -0.012962164 -0.10763977 -0.14870535 0.0003532881 0.013177727 0.09450976 0.07118584
-0.02118508 0.04727667 -0.012468617 0.046579618 -0.014296315 -0.006342637 0.026570875 -0.018340163
0.2012165 0.018896129 0.10710903 -0.03247948 0.034538537 -0.020402186 0.017454622 -0.0477574
-0.08265501 -0.046944328 -0.1198068 0.055625815 -0.014033873 0.0073955385 -0.15013653 -0.09504057
0.07150017 -0.025550608 -0.048354108 0.04542548 -0.0040135365 0.18761148 0.03758499 0.049631525
0.26560795 0.031319126 0.11196104 -0.05468936 -0.009970711 -0.10646892 -0.07954392 0.053901613
-0.053539813 0.14600423 0.10156468 0.12157446 -0.006285084 0.062866025 0.0019159594 -0.04512112
-0.119960286 -0.06746625 0.0087559875 -0.07737947 0.11443905 -0.09285297 -0.040115353 0.066440225
-0.012942976 0.086241044 -0.08829251 0.061946813 -0.018111657 0.044820987 -0.006946463 0.08816402
-0.043098353 -0.025135774 -0.078393444 -0.022952788 0.15631631 0.033768862 0.03548168 0.017113911
0.28462344 -0.018651813 -0.038064163 -0.05854645 -0.07378196 -0.06952143 0.037395176 -0.07032563
-0.03803574 -0.04193601 -0.09559303 -0.045230884 -0.046896257 0.0061876057 0.04050245 0.0752787
0.08513936 0.1551658 0.23634511 0.0069565447 0.10013679 0.10618277 0.06374681 -0.11386654
0.039393686 -0.088200234 -0.037603717 0.24079958 -0.057178218 -0.061732747 -0.06789165 0.033690274
00000000: b957 313c 6f1b 273c ae5c 423d f813 cdbc
00000010: 92e0 87bc f532 a53e f748 ec3d 05a5 9f3d
00000020: eafe fdbc 3c51 8c3d 8250 f53a bd8d 2e3e
00000030: 22f9 213d 842d 06bd ebba 123e 4401 ad3c
00000040: abc9 a73d d920 56bd a01f 033c 9f71 5d3d
00000050: b8af 883c 9d61 a7bd 56ed 803c 9244 263d
00000060: 78a8 123e 8564 403d d0dd 823d aeed 713e
00000070: b49a 0d3e 23cc 7f3c 6cac b13c 90af 133e
00000080: 9bc7 13bd c155 963d f0df 8e3d d30b e03c
00000090: 19ad b8bd 1bcb 983d 30c1 2b3e 10c2 d83c
000000a0: 8475 133d 360a a1bd 4a10 88bc bdc2 353e
000000b0: 75ea 33bc 007a bb3d 6092 2abd d6e9 98bd
000000c0: f4a5 0c3c 145e 5cbd 3635 f43d 1903 1dbd
000000d0: 5b0e 263e 84f9 06bc cb73 a7bc 0e14 e6bc
000000e0: 367f 303d bdaf 0a3c e34c 74bd 1ff5 823d
000000f0: a271 913d 9935 ff3c 72c9 ff3c 5ce6 5cbd
00000100: 1abe f93d f182 d23d 1a5f c93d f807 1b3d
00000110: cdab 18bd 7562 d2bc beaa f53a 2dcc e43d
00000120: 6cdb 91bd c0e0 e6bd b2ce 27bd 0c31 1abd
00000130: 0c2e 94bd c5bb 0cbe c148 833e 7a53 a23d
00000140: 1513 0c3d f612 153e 7e30 403e dcf0 e23d
00000150: 9f17 bbbc 1ce8 92bd cb2d 803e afa0 193d
00000160: 3b5f 813d a30a bebb a302 e9bd 908e cebd
00000170: 62c9 e13b e968 89bc e0c8 78bd 54b4 1dbd
00000180: 30e9 99bc 2f47 9dbd 23d4 003e 94a5 933d
00000190: f6a5 23be 6ea5 cdbd 4a2f 2f3e 2a87 9ebd
000001a0: f227 f2bd 33fe 8f3c 9998 0d3d 894c 9fbd
000001b0: d911 2b3e fbc7 113e 8a39 e43b 8b96 193d
000001c0: bca3 dfbc 4bbe d73e f454 aabc c157 7b3d
000001d0: e20e 73bd 23f1 a4bc c18e b73d ed56 32bc
000001e0: 0498 0ebd 12b6 ebbc 8e26 123e 57cb f23d
000001f0: da4e 8f3d 4a5c b1bc 5cdb e2bd a483 14be
00000200: 56b7 0f3e a3a8 3c3d 0688 93bd d886 74bb
00000210: 3436 903e eadc 4cbd cc03 a4bd 5ab2 363e
00000220: 012f 4c3c e40f 8c3d 5bce ba3c 185d 6e3d
00000230: 9497 2fbe 1cf8 073e 3e9a c9bd 8bcb f63d
00000240: 3fc2 063c 425f 54bc 3d72 dcbd 3746 18be
00000250: 8739 b939 65e7 573c 558e c13d e2c9 913d
00000260: 558c adbc 2ea5 413d 2c49 4cbc 45ca 3e3d
00000270: 173b 6abc e5d5 cfbb 2aab d93c 1c3e 96bc
00000280: b30b 4e3e 0ecc 9a3c fb5b db3d 3409 05bd
00000290: 4878 0d3d 7c22 a7bc fffc 8e3c 439d 43bd
000002a0: 0847 a9bd b248 40bd 445d f5bd e5d7 633d
000002b0: 54ee 65bc 4656 f23b 64bd 19be a1a4 c2bd
000002c0: ae6e 923d 824f d1bc f50e 46bd 1110 3a3d
000002d0: fc83 83bb 391d 403e b8f2 193d 6d4a 4b3d
000002e0: c4fd 873e 7c48 003d d44b e53d f301 60bd
000002f0: 315c 23bc 610c dabd ece7 a2bd f0c7 5c3d
00000300: 904c 5bbd 2282 153e 2501 d03d 08fc f83d
00000310: 1bf3 cdbb e7bf 803d ee20 fb3a ecd0 38bd
00000320: bdad f5bd bf2b 8abd 4675 0f3c 2179 9ebd
00000330: 055f ea3d b329 bebd ff4f 24bd d011 883d
00000340: c70e 54bc 259f b03d b4d2 b4bd f1bb 7d3d
00000350: e65e 94bc 3696 373d 289f e3bb 568f b43d
00000360: e687 30bd 8ae9 cdbc be8c a0bd 7c07 bcbc
00000370: 6211 203e 3851 0a3d 3d55 113d 7932 8c3c
00000380: 2aba 913e b0cb 98bc 2be9 1bbd 67ce 6fbd
00000390: ff1a 97bd 4061 8ebd af2b 193d e206 90bd
000003a0: 5dcb 1bbd 18c5 2bbd 47c6 c3bd 0544 39bd
000003b0: 4a16 40bd 66c1 ca3b e6e5 253d b82b 9a3d
000003c0: 8b5d ae3d c9e3 1e3e 7404 723e baf3 e33b
000003d0: 8414 cd3d 5a76 d93d b08d 823d dc32 e9bd
000003e0: 465b 213d 53a2 b4bd 5b06 1abd 2a94 763e
000003f0: b533 6abd 7adb 7cbd c70a 8bbd d0fe 093d

bias f4 [24]
0.111626066 -0.14307399 -0.055062342 -0.08304789 -0.048460662 0.051703267 -0.09386927 -0.04215228
-0.03504274 0.02938766 0.14966036 -0.037573837 -0.08366412 0.26111123 0.19682272 0.15492018
-0.007690162 0.16137151 0.14167358 0.12951298 0.059046376 -0.008197329 0.03352829 -0.19164357
00000000: 359c e43d fd81 12be 0d89 61bd 0315 aabd
00000010: b07e 46bd cec6 533d 883e c0bd dfa7 2cbd
00000020: fa88 0fbd 64be f03c 9140 193e 06e7 19bd
00000030: 1858 abbd 5fb0 853e e58b 493e 65a3 1e3e
00000040: c1fd fbbb 933e 253e e112 113e 0d9f 043e
00000050: 9dda 713d 174e 06bc f654 093d 363e 44be

weight f4 [8, 24]
-0.062563136 0.47760636 0.0046787863 0.22123455 0.17443538 0.29015723 0.12790185 0.02908841
-0.0963191 0.021807998 -0.09152753 -0.118080646 -0.17882155 -0.47699937 0.17793521 -0.41550338
0.3093211 0.07507574 -0.099701695 -0.14624193 -0.31104404 0.04279531 -0.2882678 -0.20823503
0.050931174 0.47836137 -0.04753673 -0.07972369 0.30952537 0.04402927 -0.14826745 -0.17348805
0.2863225 0.07743631 0.29130554 0.0531511 -0.06167321 0.18662904 -0.62904847 0.13476662
0.14335991 -0.1964805 0.13693714 -0.37819436 0.093563296 0.14886451 -0.26509568 -0.44619298
-0.080727875 -0.50416577 -0.05470754 0.0950172 0.11977867 0.06689709 -0.04865259 -0.15913448
-0.2906256 0.36464483 -0.2526842 0.39245588 0.03733621 -0.030639328 -0.21248674 -0.05110003
0.16995242 -0.5167251 -0.26773953 0.002297477 0.28383252 0.07149969 -0.09779782 0.38949624
0.00919044 -0.26273102 -0.24888644 -0.25167218 -0.06374645 -0.09974415 -0.15857808 0.41852972
0.40885982 -0.15931937 0.2937382 0.2922287 0.13417792 0.08218263 -0.4820226 -0.20924833
0.35059172 0.10777697 -0.24301678 0.17842892 -0.115044825 -0.25660318 -0.05962926 0.20227957
0.04430389 0.2505417 0.13633704 -0.28619343 -0.2889635 -0.14638256 -0.0334235 0.14598262
0.43446213 -0.104985975 -0.1044863 -0.12356273 0.33903486 -0.29412898 0.13095884 -0.41332057
-0.42483848 -0.15909253 -0.37187326 0.07681363 0.10264482 0.45459953 0.50232965 -0.1218468
-0.40472555 -0.27320215 -0.27949116 0.15227151 -0.09057463 -0.18649045 -0.1403987 0.19043183
-0.09409252 -0.17614947 -0.0049520414 0.41431066 -0.04255656 0.0919524 0.070459105 -0.10836832
-0.31044638 0.29848707 0.29314753 -0.4672379 -0.26914677 0.32568863 0.052306123 0.092788674
0.33291873 0.04672547 -0.15667577 0.39065987 -0.17635377 0.41170546 0.03924526 0.20466034
-0.33661473 -0.355272 0.27763972 -0.120764956 -0.3571625 -0.110978015 -0.3042817 0.3864243
-0.25626424 -0.40491056 -0.16633229 0.06293844 -0.013210364 0.18767625 0.3612912 -0.07471013
0.38258728 -0.2910711 0.04630681 -0.16361904 0.06351454 -0.0674085 -0.17622904 -0.09669885
0.3592518 -0.37264755 0.35173562 0.143048 0.036962297 -0.44380614 0.17241798 0.15957253
0.09729269 -0.121881016 0.124038585 -0.30183935 0.2969153 0.2718759 -0.38828394 0.30842748
00000000: 1a21 80bd d288 f43e 8150 993b 4f8b 623e
00000010: 309f 323e 7d8f 943e b4f8 023e d14a ee3c
00000020: f342 c5bd b0a6 b23c c972 bbbd 44d4 f1bd
00000030: ff1c 37be 4339 f4be a634 363e dcbc d4be
00000040: 565f 9e3e 4fc1 993d 6730 ccbd 72c0 15be
00000050: 2a41 9fbe 234a 2f3d d697 93be 903b 55be
00000060: 359d 503d c8eb f43e e0b5 42bd 2d46 a3bd
00000070: 1c7a 9e3e 0958 343d 6cd3 17be daa6 31be
00000080: dd98 923e ee96 9e3d 0026 953e f8b4 593d
00000090: 0c9d 7cbd af1b 3f3e 5209 21bf 4300 0a3e
000000a0: f1cc 123e 2f32 49be 4039 0c3e b1a2 c1be
000000b0: 1d9e bf3d f06f 183e 9fba 87be 6873 e4be
000000c0: a854 a5bd 0211 01bf 0315 60bd 6198 c23d
000000d0: 854e f53d 5701 893d f047 47bd 26f4 22be
000000e0: e1cc 94be bab2 ba3e d35f 81be faef c83e
000000f0: dbed 183d 54ff fabc 2096 59be 444e 51bd
00000100: 0208 2e3e 1948 04bf 2815 89be 4591 163b
00000110: 7f52 913e 6e6e 923d 394a c8bd 0d6c c73e
00000120: 8093 163c ae84 86be 16dc 7ebe 2ddb 80be
00000130: 808d 82bd a946 ccbd 4b62 22be 8749 d63e
00000140: 1356 d13e 9e24 23be da64 963e 009f 953e
00000150: f065 093e 5e4f a83d abcb f6be 3245 56be
00000160: c280 b33e 2cba dc3d 64d9 78be 12b6 363e
00000170: 9f9c ebbd 7e61 83be d03d 74bd 6022 4f3e
00000180: ff77 353d 0047 803e f09b 0b3e f287 92be
00000190: 06f3 93be 4fe5 15be 14e7 08bd 787c 153e
000001a0: d271 de3e e302 d7bd eafc d5bd 750e fdbd
000001b0: fa95 ad3e 1398 96be 131a 063e c19e d3be
000001c0: 6e84 d9be 27e9 22be 2c66 bebe 7750 9d3d
000001d0: 7337 d23d 45c1 e83e ad98 003f d18a f9bd
000001e0: 3038 cfbe 27e1 8bbe 7719 8fbe 10ed 1b3e
000001f0: 317f b9bd 5af7 3ebe adc4 0fbe 9000 433e
00000200: 94b3 c0bd 8760 34be bc44 a2bb 8720 d43e
00000210: ca4f 2ebd 8a51 bc3d dd4c 903d 36f0 ddbd
00000220: d4f2 9ebe 4cd3 983e 6f17 963e ce39 efbe
00000230: 9bcd 89be a9c0 a63e f23e 563d fd07 be3d
00000240: 5374 aa3e 3563 3f3d 9d6f 20be 9204 c83e
00000250: 1596 34be 0fcb d23e a3bf 203d 7b92 513e
00000260: c458 acbe 36e6 b5be cb26 8e3e 9e53 f7bd
00000270: 01de b6be 7148 e3bd d0ca 9bbe 68d9 c53e
00000280: 1135 83be 7050 cfbe 0353 2abe dee5 803d
00000290: 4870 58bc 342e 403e 29fb b83e a001 99bd
000002a0: 7be2 c33e 4507 95be 36ac 3d3d c08b 27be
000002b0: e913 823d 780d 8abd 6375 34be 0c0a c6bd
000002c0: daef b73e a9cb bebe b116 b43e 2d7b 123e
000002d0: c765 173d 8f3a e3be 578e 303e fb66 233e
000002e0: 6441 c73d c19c f9bd f107 fe3d b08a 9abe
000002f0: 4805 983e 5133 8b3e 27cd c6be 35ea 9d3e

bias f4 [8]
-0.124555156 0.025035515 -0.23693134 -0.26392487 -0.093304805 -0.17334653 -0.14886194 0.1538915
00000000: c616 ffbd 4817 cd3c 219e 72be 2921 87be
00000010: 9716 bfbd c181 31be 446f 18be bc95 1d3e

weight f4 [24, 8]
-0.34169522 -0.45993152 -0.59922737 -0.22555277 -0.43252087 -0.12023051 -0.00047808394 0.15534598
0.32491797 -0.19126478 0.1543497 -0.27309674 0.10276805 -0.056512106 -0.11489493 0.12892711
-0.10918628 -0.16588566 -0.07022389 -0.3033397 -0.039979946 0.032129142 -0.14782743 0.2111449
-0.7850826 0.18895121 -0.27240327 -0.33562422 -0.063512184 -0.13062845 -0.13967739 -0.18424691
-0.012576007 0.04715529 -0.057024743 0.34621137 -0.17455252 0.22955339 0.2528538 -0.10493195
-0.29842767 -0.25455454 -0.25172004 0.15530984 -0.27734077 -0.33718076 0.19061917 -0.13495263
-0.23367624 0.06421887 -0.43573064 0.11223313 -0.1655145 0.050895944 -0.042852007 0.07278668
0.12534924 -0.022100234 -0.20753749 -0.32625932 0.22376847 0.069206566 0.17149308 -0.2653379
-0.094543286 -0.27845496 -0.39086366 -0.068823464 -0.118522964 -0.27504236 -0.13483405 0.17858097
0.2139 -0.013324244 -0.10914846 -0.20339088 -0.26077658 0.18105695 -0.2043336 0.21617916
0.06726867 -0.18303631 -0.37336558 0.21888018 0.051586043 0.40166482 -0.22695011 -0.38217077
-0.08526959 0.14388344 0.28508237 -0.19403243 -0.047900584 -0.32737726 0.1616439 0.2815077
0.11250408 -0.05705139 -0.21274483 -0.11587509 0.025561199 0.2901699 0.08186705 0.21700978
0.24021439 0.31736222 -0.2500188 0.08551998 -0.08860194 -0.048641276 0.06832381 -0.196119
-0.07146512 -0.14921026 -0.09038414 0.10477596 0.22318001 0.1823578 0.48376778 0.2034038
-0.3448278 0.08477323 -0.32253647 -0.2428152 -0.30120942 -0.16275011 0.061239794 0.31997204
-0.27713293 -0.21027447 0.2770354 -0.014538278 0.084415905 0.17118505 -0.064513534 0.10610703
0.22093265 -0.1767532 -0.0015963414 -0.101546116 0.3273884 -0.3628645 -0.07124883 0.18224825
-0.09737724 0.032463275 0.23663259 0.33751357 -0.20235273 -0.052557163 -0.17332026 0.25845096
0.04687964 0.15089741 0.08466845 -0.10362537 -0.19717644 -0.16379306 -0.4474639 -0.20355156
0.017353928 -0.18820967 0.27227896 -0.40454435 -0.25500914 0.1414901 0.21530016 -0.32981446
0.020953787 0.27690032 0.3744214 -0.06313234 0.10226556 0.2924536 0.12849686 -0.12274566
-0.18078804 0.16351967 0.019501504 0.10036029 -0.2734171 0.32645097 0.06528316 -0.17163429
-0.23679307 -0.03737906 -0.13797371 0.1164755 0.086875185 -0.19007033 -0.006961341 0.015394416
00000000: adf2 aebe 257c ebbe f766 19bf 4ef7 66be
00000010: 6073 ddbe 6a3b f6bd 57a7 fab9 0413 1f3e
00000020: a65b a63e eada 43be d90d 1e3e 56d3 8bbe
00000030: 0e78 d23d 3d79 67bd 084e ebbd 7805 043e
00000040: 0e9d dfbd eedd 29be 8bd1 8fbd 574f 9bbe
00000050: 03c2 23bd d999 033d 1360 17be 5e36 583e
00000060: 2cfb 48bf 6d7c 413e 7178 8bbe f0d6 abbe
00000070: ad12 82bd 77c3 05be 9707 0fbe 39ab 3cbe
00000080: 990b 4ebc e825 413d c792 69bd 9e42 b13e
00000090: e5bd 32be 0b10 6b3e 0e76 813e 90e6 d6bd
000000a0: 83cb 98be f954 82be 73e1 80be 8b09 1f3e
000000b0: 9cff 8dbe f5a2 acbe ac31 433e 0631 0abe
000000c0: d348 6fbe 2f85 833d 1618 dfbe 7cda e53d
000000d0: a27c 29be 4478 503d 9685 2fbd 2f11 953d
000000e0: 8d5b 003e 8d0b b5bc b584 54be 760b a7be
000000f0: 9023 653e 2cbc 8d3d e29b 2f3e 5fda 87be
00000100: e99f c1bd a691 8ebe 481f c8be 51f3 8cbd
00000110: 2bbc f2bd 5ad2 8cbe f011 0abe eedd 363e
00000120: 9a08 5b3e ee4d 5abc 3a89 dfbd b345 50be
00000130: 8284 85be fe66 393e d43c 51be 125e 5d3e
00000140: 28c4 893d df6d 3bbe c629 bfbe 2022 603e
00000150: e34b 533d 03a7 cd3e 9c65 68be e3ab c3be
00000160: d3a1 aebd 2e56 133e 51f6 913e 70b0 46be
00000170: 6733 44bd fe9d a7be fb85 253e c721 903e
00000180: 8a68 e63d b8ae 69bd c8d9 59be eb4f edbd
00000190: b865 d13c 2691 943e e9a9 a73d d037 5e3e
000001a0: c3fa 753e 4d7d a23e 7702 80be 1925 af3d
000001b0: ef74 b5bd 133c 47bd 5bed 8b3d 6bd3 48be
000001c0: 4e5c 92bd 93ca 18be 521b b9bd c794 d63d
000001d0: 4d89 643e 01bc 3a3e 69b0 f73e 1649 503e
000001e0: 458d b0be 969d ad3d 8023 a5be 8ca4 78be
000001f0: 1f38 9abe f7a7 26be 94d6 7a3d 60d3 a33e
00000200: 5ee4 8dbe 3152 57be 95d7 8d3e f531 6ebc
00000210: 3fe2 ac3d 224b 2f3e ac1f 84bd a44e d93d
00000220: 2b3c 623e cafe 34be 543c d1ba 69f7 cfbd
00000230: 749f a73e 60c9 b9be e8ea 91bd 499f 3a3e
00000240: b86d c7bd 36f8 043d d04f 723e 94ce ac3e
00000250: 8e35 4fbe 2e46 57bd de7a 31be af53 843e
00000260: de04 403d da84 1a3e a766 ad3d 8a39 d4bd
00000270: 9fe8 49be 5eb9 27be fd19 e5be d26f 50be
00000280: d329 8e3c 09ba 40be 2668 8b3e 7020 cfbe
00000290: 8f90 82be c8e2 103e a577 5c3e 71dd a8be
000002a0: 47a7 ab3c e1c5 8d3e 29b4 bf3e 874b 81bd
000002b0: 9b70 d13d 7abc 953e ae94 033e 1462 fbbd
000002c0: 8020 39be b371 273e 9ec1 9f3c b289 cd3d
000002d0: 53fd 8bbe 9524 a73e 2db3 853d e6c0 2fbe
000002e0: e279 72be c91a 19bd fb48 0dbe b58a ee3d
000002f0: 9eeb b13d cca1 42be f61b e4bb dc38 7c3c

bias f4 [24]
-0.28944987 -0.24195348 0.76004523 0.16903047 -0.044347253 0.5395794 0.44066772 0.19052413
0.103835724 -0.12676771 -0.21975987 -0.0014556743 -0.10436241 0.25637195 -0.065610215 0.37479082
0.14645807 -0.082721874 -0.009083984 0.060080912 -0.20810911 -0.30279145 0.18462361 0.3620162
00000000: c632 94be a7c2 77be 5392 423f 5316 2d3e
00000010: 77a5 35bd e021 0a3f 339f e13e c218 433e
00000020: d3a7 d43d 65cf 01be bb08 61be 53cc beba
00000030: f6bb d5bd 2f43 833e a65e 86bd 95e4 bf3e
00000040: 1bf9 153e 166a a9bd fed4 14bc 6717 763d
00000050: 8e1a 55be 7b07 9bbe f90d 3d3e 305a b93e

weight f4 [72, 24]
0.55080545 -0.14555566 0.25666326 0.01360255 -0.089945674 0.086618245 0.08498188 0.11636253
0.34791562 -0.07088576 0.20238017 -0.18827534 0.116046056 -0.09001174 -0.09271668 -0.16370147
0.18190694 -0.15881447 -0.12225616 0.111201055 -0.10982669 -0.064178936 0.098154746 0.044502676
0.044859592 -0.19824772 -0.0016397798 0.07612394 -0.15863903 -0.07663933 -0.0048470614 -0.17225884
-0.20540658 0.17140748 -0.11490387 -0.15190122 -0.058539115 -0.11551483 0.088498145 0.07868483
-0.1647375 -0.10385779 -0.17242953 -0.013547903 0.047143184 0.031895116 0.0070851827 0.12816659
0.15954797 0.05608478 -0.20389892 -0.012821668 0.17949854 0.07308148 -0.0135076195 0.10542418
0.1685648 -0.05457192 0.15431967 0.036471974 -0.015166758 0.2595915 -0.057888072 -0.17848884
0.014954707 0.023445865 -0.14202942 0.14469391 -0.05233939 -0.07861731 -0.0034167583 0.15377897
-0.04400582 -0.13290869 -0.0058675776 -0.04238942 0.09429758 -0.028528506 0.2990812 0.093350105
0.070226066 -0.042672522 0.20287994 -0.017134007 0.14540046 -0.06536154 0.19089751 -0.034835815
-0.004587443 0.03287922 -0.0753382 0.0014418872 -0.013499444 0.09895619 -0.124746524 0.04055221
0.16732974 0.16213991 0.15386797 0.14057142 -0.12640165 0.09592067 -0.11058211 0.18185109
0.12528154 0.027184438 0.13331233 -0.12538491 -0.03280281 -0.14835274 0.19783005 -0.15072587
0.09817737 0.34815568 -0.14848302 -0.06862445 0.11448083 -0.108636744 -0.06564941 0.3049112
0.022929003 -0.08356138 -0.13271776 -0.11417506 -0.04197918 0.13722643 -0.06791262 0.1570192
-0.020279346 -0.13043256 -0.014208799 -0.020963438 0.048829783 0.18496907 -0.14542203 0.18035091
-0.00025907106 0.16307622 -0.045710657 0.065201774 -0.044045195 -0.1021132 -0.12163422 0.03415935
-0.055627614 0.04129825 -0.1383687 -0.11516886 0.1943553 0.052315716 -0.14732428 -0.19527367
0.11386015 0.041996386 0.026743628 0.097144835 -0.13854292 0.06335469 -0.19614826 0.03829408
0.12663083 0.10139908 -0.027861988 -0.18512063 0.07902137 -0.029122459 -0.12119049 -0.060256954
-0.20297162 -0.10707359 0.093208045 -0.11331068 -0.014768726 0.029066285 0.09157376 0.3265947
0.14211757 0.16904923 0.0328072 0.103054196 0.24550761 0.41919214 -0.1853899 0.14233343
0.052842807 0.20053405 -0.23866911 0.062981725 -0.050803583 -0.13780892 -0.030122157 -0.028911434
-0.07983525 -0.15569815 -0.16374336 -0.12340081 -0.031161876 0.1261531 -0.04466863 0.054639142
-0.17804453 -0.17523302 0.048826527 -0.07744969 0.0168784 -0.09840588 -0.13343664 0.11550818
-0.12423901 0.07186025 0.092154786 -0.05300052 0.0940708 0.035160944 -0.18337376 -0.058052808
0.009890014 0.18574136 0.039484512 -0.11199383 0.1075399 -0.16945912 -0.19786367 0.0940975
-0.059657205 -0.1968521 0.07600813 -0.020307876 0.16672528 -0.15793549 -0.12516676 -0.098924614
-0.048523065 -0.04681227 -0.16499554 0.0651146 -0.17368557 0.14696032 0.09970411 -0.0059304503
0.23114596 0.03954717 0.18779266 0.20276444 -0.14851804 -0.13564144 0.08320879 -0.013834539
0.11354207 0.21513483 -0.022872258 -0.16599393 0.0397815 -0.02353337 -0.09957696 0.15110478
00000000: 9601 0d3f 8b0c 15be 5e69 833e 3bdd 5e3c
00000010: 7035 b8bd e864 b13d fb0a ae3d 7a4f ee3d
00000020: ff21 b23e 8e2c 91bd bf3c 4f3e 40cb 40be
00000030: 8ea9 ed3d 1358 b8bd 3ee2 bdbd 5ca1 27be
00000040: d045 3a3e 43a0 22be 7061 fabd 61bd e33d
00000050: d1ec e0bd 3f70 83bd 5b05 c93d 7048 363d
00000060: b1be 373d 7301 4bbe e1ed d6ba dee6 9b3d
00000070: 4572 22be 15f5 9cbd 19d4 9ebb 9f64 30be
00000080: 1a56 52be 7185 2f3e b852 ebbd fe8b 1bbe
00000090: b6c6 6fbd 0a93 ecbd 843e b53d 8325 a13d
000000a0: f2b0 28be 65b3 d4bd 5e91 30be 06f8 5dbc
000000b0: 3619 413d 74a4 023d d22a e83b 1a3e 033e
000000c0: 8b60 233e 27b9 653d e1ca 50be f911 52bc
000000d0: 77ce 373e beab 953d 104f 5dbc a2e8 d73d
000000e0: 409c 2c3e ce86 5fbd fa05 1e3e a363 153d
000000f0: fe7d 78bc 2de9 843e 0b1c 6dbd c7c5 36be
00000100: 9604 753c 8b11 c03c 2970 11be a42a 143e
00000110: d461 56bd 1d02 a1bd b1eb 5fbb 3c78 1d3e
00000120: 723f 34bd 3719 08be cf44 c0bb 87a0 2dbd
00000130: 171f c13d 9db4 e9bc 2c21 993e 572e bf3d
00000140: afd2 8f3d 62c9 2ebd c2bf 4f3e 9e5c 8cbc
00000150: dce3 143e 45dc 85bd a37a 433e 00b0 0ebd
00000160: 4352 96bb 5cac 063d ea4a 9abd b5fd bc3a
00000170: c62c 5dbc 8ba9 ca3d 1b7b ffbd 131a 263d
00000180: 7d58 2b3e 0108 263e 918f 1d3e f4f1 0f3e
00000190: 6f6f 01be 0e72 c43d e078 e2bd 2c37 3a3e
000001a0: ce49 003e e6b1 de3c 0783 083e e764 00be
000001b0: 3d5c 06bd c8e9 17be f693 4a3e e257 1abe
000001c0: 3811 c93d 7641 b23e ef0b 18be fa8a 8cbd
000001d0: ed74 ea3d f17c debd 3373 86bd 521d 9c3e
000001e0: 9bd5 bb3c 3b22 abbd 2ae7 07be 9dd4 e9bd
000001f0: 5cf2 2bbd 1685 0c3e c615 8bbd a4c9 203e
00000200: df20 a6bc 1d90 05be 06cc 68bc 84bb abbc
00000210: bd01 483d 8868 3d3e 83e9 14be e9ad 383e
00000220: eed3 87b9 74fd 263e 193b 3bbd 8288 853d
00000230: bc68 34bd ba20 d1bd 5d1b f9bd adea 0b3d
00000240: c8d9 63bd 5b28 293d 86b0 0dbe a7dd ebbd
00000250: 1305 473e 0149 563d 2ddc 16be d2f5 47be
00000260: 832f e93d 6704 2c3d 7415 db3c dff3 c63d
00000270: 32de 0dbe 1bc0 813d 17db 48be 41da 1c3d
00000280: 83ab 013e 52aa cf3d d33e e4bc 4390 3dbe
00000290: f5d5 a13d 3992 eebc b832 f8bd ffcf 76bd
000002a0: cbd7 4fbe 6649 dbbd dce3 be3d 6e0f e8bd
000002b0: 87f8 71bc 6b1c ee3c 068b bb3d 6c37 a73e
000002c0: 4587 113e 3e1b 2d3e d860 063d 140e d33d
000002d0: 5966 7b3e 5aa0 d63e dad6 3dbe dbbf 113e
000002e0: b371 583d cc58 4d3e ad65 74be 90fc 803d
000002f0: 6b17 50bd c81d 0dbe bec2 f6bc acd7 ecbc
00000300: aa80 a3bd 566f 1fbe 57ac 27be 90b9 fcbd
00000310: 3147 ffbc 472e 013e 74f6 36bd 4bcd 5f3d
00000320: 4e51 36be 4970 33be 53fe 473d f19d 9ebd
00000330: 9244 8a3c 0689 c9bd 9da3 08be 8d8f ec3d
00000340: 0671 febd 772b 933d a6bb bc3d 1317 59bd
00000350: 31a8 c03d ec04 103d 55c6 3bbe c8c8 6dbd
00000360: ba09 223c fc32 3e3e 83ba 213d 055d e5bd
00000370: e13d dc3d b186 2dbe c69c 4abe 31b6 c03d
00000380: 1d5b 74bd 9993 49be 27aa 9b3d b45c a6bc
00000390: 08ba 2a3e d7b9 21be b72b 00be fd98 cabd
000003a0: 1fc0 46bd 39be 3fbd 97f4 28be ce5a 853d
000003b0: a1da 31be c47c 163e ab31 cc3d 3954 c2bb
000003c0: 87b1 6c3e 37fc 213d b84c 403e 7ba1 4f3e
000003d0: 1d15 18be 97e5 0abe 5f69 aa3d 43aa 62bc
000003e0: bf88 e83d 4e4c 5c3e 9a5e bbbc 50fa 29be
000003f0: edf1 223d 0ec9 c0bc 01ef cbbd 36bb 1a3e

bias f4 [72]
-0.16245912 -0.21693964 0.2369314 0.16236274 0.24164575 0.26721096 -0.063925885 0.50800914
0.14882544 -0.012811136 -0.11023362 -0.008243072 0.20294395 -0.30273515 -0.16172701 -0.09602177
0.4089965 0.20345287 -0.12585129 0.0076672994 -0.009371894 0.3349836 0.016714206 0.33386073
0.04228273 -0.1138018 -0.028994972 0.19723392 -0.19727306 0.4366029 -0.06676574 -0.09397012
-0.01946172 -0.07882518 -0.16872886 -0.108147964 0.18908998 -0.09106216 0.17793179 0.1456347
-0.093568526 0.066854306 -0.25515956 0.39979413 0.10239129 -0.22441047 0.058285024 0.12801605
-0.18949969 -0.23112535 0.27990046 -0.026671447 0.31064558 0.010731451 0.09999782 0.061055057
0.28361577 -0.16760932 0.1090245 -0.17918755 0.1482578 -0.02647662 -0.055503473 0.11606018
0.23894648 0.35552287 -0.14700256 -0.06233642 0.23309723 0.032356385 0.12394009 -0.113225624
00000000: af5b 26be 6d25 5ebe 259e 723e 6b42 263e
00000010: fc71 773e e0cf 883e 93eb 82bd e30c 023f
00000020: b265 183e cde5 51bc 2ac2 e1bd f30d 07bc
00000030: 8ad0 4f3e 1a00 9bbe c49b 25be 10a7 c4bd
00000040: fd67 d13e f355 503e 29df 00be f83d fb3b
00000050: 938c 19bc f882 ab3e 3bec 883c cbef aa3e
00000060: a830 2d3d eb10 e9bd dd86 edbc b0f7 493e
00000070: f301 4abe 6a8a df3e 7abc 88bd 6873 c0bd
00000080: 2f6e 9fbc 196f a1bd 42c7 2cbe ae7c ddbd
00000090: cea0 413e cc7e babd c033 363e 4321 153e
000000a0: dba0 bfbd e9ea 883d 46a4 82be d1b1 cc3e
000000b0: 86b2 d13d dccb 65be 47bc 6e3d a416 033e
000000c0: 350c 42be 20ac 6cbe 1d4f 8f3e 147e dabc
000000d0: f00c 9f3e f8d2 2f3c a8cb cc3d de14 7a3d
000000e0: 1636 913e c7a1 2bbe 3d48 df3d f17c 37be
000000f0: e5d0 173e 7fe5 d8bc 9c57 63bd f6b0 ed3d
00000100: 63ae 743e 1807 b63e d787 16be 7954 7fbd
00000110: 0ab1 6e3e 2188 043d 4dd4 fd3d d6e2 e7bd

weight f4 [90, 72]
0.328396 0.04465602 0.013378268 0.09515087 0.25263727 -0.070756584 0.07952713 -0.29476675
-0.02948675 -0.06465506 0.016416585 -0.078174084 0.22627288 -0.017388236 -0.100078724 -0.2740161
0.047704995 -0.15472792 0.04193385 -0.03267906 -0.1687026 0.08077935 -0.025643945 0.0022137049
-0.0740351 -0.18546489 -0.10367186 0.033413656 -0.008934246 -0.20614721 -0.01715773 -0.10734913
0.051149737 0.01933777 -0.007911101 -0.22460231 -0.16275482 -0.035245493 0.1604758 -0.09357436
0.21224444 0.10447511 0.061791614 0.010329649 -0.023367131 -0.010762982 0.058965944 -0.09736119
-0.025821038 -0.005492651 -0.048342843 0.07012465 0.08375946 0.045144256 -0.023882242 0.062901385
-0.09013653 -0.08479801 -0.14589213 0.0014223314 -0.19325389 0.11905236 0.030798363 0.015163628
-0.15468998 -0.06892503 0.047276802 0.08964631 -0.15448236 0.18637608 0.13263413 -0.0076198913
0.24586055 -0.06624359 0.047702983 0.11114127 0.2491434 -0.10663917 -0.088636085 -0.22566298
-0.08599667 -0.109889224 0.047514655 -0.12890695 0.26329654 -0.0029243021 0.019401694 -0.24567704
-0.05544012 -0.13327298 0.037902217 0.06330355 -0.04884053 0.10943672 -0.09836385 0.038311202
0.010846385 -0.15035449 -0.050994877 0.023513852 0.010526955 -0.1772452 -0.084176585 -0.13273376
0.023916448 0.10489885 0.025119027 -0.17229228 -0.17870818 -0.0073023285 0.15006733 -0.15645401
0.147546 -0.0988269 -0.006893464 0.10123658 -0.013727916 -0.038591478 -0.019732082 0.02101044
0.09545327 0.054840658 -0.036740623 -0.012144539 0.060730517 0.08518584 0.018860014 -0.07626967
-0.104571484 0.11337722 -0.15041564 -0.12043647 -0.28297266 0.10316817 0.00057584414 0.033267368
-0.1413393 -0.05572834 0.052780047 -0.06914036 -0.09300747 0.16923428 0.15595822 0.07069395
0.22748742 0.02243343 0.06619255 0.10761625 0.18898311 -0.0956471 -0.015009716 -0.26097214
-0.15679401 0.042650316 0.030824047 -0.06718139 0.29062045 -0.010818668 0.042419903 -0.24725406
-0.009458163 -0.09795866 0.0123094935 -0.069414765 -0.12019673 0.1628185 0.08452269 -0.014414432
-0.04186143 -0.1817487 -0.088636294 0.078704864 -0.031372897 -0.19467105 -0.06819755 -0.054321814
0.07612413 0.114834204 0.07727227 -0.21695545 -0.11585159 -0.027290316 0.115002416 -0.12784857
0.10239443 0.066270426 0.09766104 0.0151790995 -0.06427194 -0.033351358 -0.06041778 -0.032865077
0.014292976 0.088847704 -0.03669746 -0.07653274 0.123943105 0.04915199 0.014470931 0.0015527683
-0.041704375 0.09151772 -0.13950798 -0.06126628 -0.17115185 0.023428248 -0.05836932 0.09339386
-0.1354568 -0.09306262 -0.05318106 -0.019384623 -0.05061883 0.11312902 0.14355598 0.05414842
0.18585755 0.09911167 0.06909326 0.14625919 0.25228578 -0.0155896135 0.032608278 -0.21279438
-0.0838605 0.06864148 0.06965988 -0.114806846 0.19301446 0.004145174 -0.102193095 -0.22417971
-0.020421758 -0.13958359 0.014087001 -0.104027666 -0.08312607 0.10223383 -0.04429556 -0.042101618
0.059214853 -0.16707057 -0.058137313 0.030982668 0.053150937 -0.15722087 -0.095232 -0.06961669
0.10339999 0.0018637488 -0.010267541 -0.17199934 -0.14740397 -0.08038404 0.12527068 -0.044931818
00000000: 8523 a83e 3be9 363d 8630 5b3c 76de c23d
00000010: ac59 813e d4e8 90bd 1fdf a23d abeb 96be
00000020: 328e f1bc df69 84bd 137c 863c bc19 a0bd
00000030: 14b4 673e c671 8ebc 13f6 ccbd d74b 8cbe
00000040: 5066 433d ff70 1ebe d4c2 2b3d 7ada 05bd
00000050: 60c0 2cbe a56f a53d 4013 d2bc ce13 113b
00000060: b79f 97bd 82ea 3dbe ea51 d4bd c2dc 083d
00000070: f260 12bc 4118 53be 5e8e 8cbc dcd9 dbbd
00000080: 6382 513d 3e6a 9e3c 909d 01bc 26fe 65be
00000090: 33a9 26be 945d 10bd c553 243e eaa3 bfbd
000000a0: 9b56 593e 0cf7 d53d 3419 7d3d b03d 293c
000000b0: 6d6c bfbc 3857 30bc 4686 713d 4e65 c7bd
000000c0: a486 d3bc b2fb b3bb 2503 46bd 839d 8f3d
000000d0: 148a ab3d 2fe9 383d b1a4 c3bc 71d2 803d
000000e0: 8099 b8bd 94aa adbd bf64 15be 866d ba3a
000000f0: 59e4 45be b9d1 f33d d94c fc3c de70 783c
00000100: 0d67 1ebe 9128 8dbd 52a5 413d 7c98 b73d
00000110: a030 1ebe 5fd9 3e3e 3ed1 073e 48b0 f9bb
00000120: dec2 7b3e b8aa 87bd 3464 433d 099e e33d
00000130: 731f 7f3e a365 dabd d686 b5bd 3214 67be
00000140: 061f b0bd 9a0d e1bd ba9e 423d 2f00 04be
00000150: cece 863e a6a5 3fbb 4df0 9e3c c392 7bbe
00000160: 2e15 63bd b678 08be 5b3f 1b3d 4ba5 813d
00000170: 020d 48bd 5c20 e03d fc72 c9bd 35ec 1c3d
00000180: 09b5 313c 87f6 19be 01e0 50bd 1fa0 c03c
00000190: 4079 2c3c c47f 35be c664 acbd 5ceb 07be
000001a0: 6dec c33c 35d5 d63d 6bc6 cd3c 636d 30be
000001b0: 47ff 36be 5f48 efbb 40ab 193e 7b35 20be
000001c0: 4c16 173e c265 cabd 91e2 e1bb 2055 cf3d
000001d0: 0eeb 60bc 1912 1ebd 2da5 a1bc 161e ac3c
000001e0: 017d c33d 99a0 603d 567d 16bd e3f9 46bc
000001f0: 90c0 783d ea75 ae3d 5180 9a3c 4633 9cbd
00000200: 9329 d6bd 5132 e83d 8f06 1abe 65a7 f6bd
00000210: cbe1 90be d549 d33d 3ff4 163a 5d43 083d
00000220: 40bb 10be 6643 64bd e42f 583d 7699 8dbd
00000230: b37a bebd c04b 2d3e 83b3 1f3e fdc7 903d
00000240: 76f2 683e 50c6 b73c f68f 873d e965 dc3d
00000250: ca84 413e a0e2 c3bd 50eb 75bc 249e 85be
00000260: 9c8e 20be 19b2 2e3d b682 fc3c 6696 89bd
00000270: 34cc 943e c840 31bc 7ec0 2d3d 2b30 7dbe
00000280: 69f6 1abc 8d9e c8bd c2ad 493c 5429 8ebd
00000290: b429 f6bd e5b9 263e 3b1a ad3d 832a 6cbc
000002a0: e476 2bbd 551c 3abe f286 b5bd 0430 a13d
000002b0: de80 00bd d957 47be 28ab 8bbd 8d80 5ebd
000002c0: f8e6 9b3d 322e eb3d ed40 9e3d 9229 5ebe
000002d0: 9943 edbd f18f dfbc 6386 eb3d bcea 02be
000002e0: 2cb4 d13d cab8 873d 8302 c83d c2b1 783c
000002f0: 02a1 83bd 6f9b 08bd a278 77bd 889d 06bd
00000300: 162d 6a3c c9f5 b53d 1350 16bd 32bd 9cbd
00000310: e2d5 fd3d 9953 493d 7c17 6d3c 4286 cb3a
00000320: 35d2 2abd a46d bb3d 2edb 0ebe 5af2 7abd
00000330: 6e42 2fbe 99ec bf3c ab14 6fbd 4845 bf3d
00000340: 30b5 0abe 9d97 bebd 62d4 59bd 80cc 9ebc
00000350: b155 4fbd 30b0 e73d 5700 133e bcca 5d3d
00000360: 7151 3e3e 0ffb ca3d c480 8d3d f8c4 153e
00000370: 9a2b 813e 946b 7fbc 4290 053d c5e6 59be
00000380: 0ebf abbd e793 8c3d d7a9 8e3d da1f ebbd
00000390: 95a5 453e 3dd4 873b 9d4a d1bd 5e8f 65be
000003a0: 884b a7bc 00ef 0ebe 2acd 663c 750c d5bd
000003b0: 003e aabd f85f d13d 436f 35bd bf72 2cbd
000003c0: 468b 723d 8c14 2bbe 6421 6ebd 5dcf fd3c
000003d0: ccb4 593d 82fe 20be ff08 c3bd 3293 8ebd
000003e0: 60c3 d33d 0849 f43a 3039 28bc 9820 30be
000003f0: 11f1 16be 63a0 a4bd f546 003e 6d0a 38bd

bias f4 [90]
0.07783805 -0.03848427 0.014514638 -0.03076071 0.031127559 -0.032503895 -0.041229427 0.07634871
0.034307092 0.07242898 0.027204756 -0.0020618688 0.034996256 -0.12287705 -0.11943963 -0.021288516
-0.089434765 -0.041694183 -0.102627665 -0.05047532 -0.17953137 -0.12842447 -0.13468958 -0.06415249
-0.055849895 -0.046378564 -0.11573615 -0.059761472 0.023374492 0.027868586 -0.010730701 -0.026209325
0.054188278 -0.029843302 0.05042218 0.08025466 0.09120449 0.09184869 0.084295 0.0757331
0.06111126 0.015280396 0.005607627 0.0019927304 -0.052330192 -0.039125495 -0.059726905 -0.17819925
-0.15400676 -0.09621765 -0.14852889 -0.10577795 -0.10721535 -0.13367736 -0.054574456 0.0048267674
0.13432586 0.09687362 0.18514849 0.21150814 0.17613018 0.17549214 0.19779195 0.17230226
0.1599175 0.04530435 0.07851302 0.026634915 -0.06950263 -0.14102416 -0.12330959 -0.13648844
-0.16746418 -0.1522574 -0.08642388 -0.041063458 0.009091998 0.12550357 0.07549806 0.16856155
0.045157462 0.15915708 0.14829671 0.078779325 0.13039075 0.011846199 0.04970817 0.04504662
-0.01206113 -0.044912715
00000000: 8e69 9f3d afa1 1dbd cece 6d3c e2fd fbbc
00000010: 39ff fe3c ce22 05bd 30e0 28bd b65c 9c3d
00000020: 9885 0c3d a555 943d 82dc de3c 6b20 07bb
00000030: 3c58 0f3d f6a6 fbbd c49c f4bd 4165 aebc
00000040: 9329 b7bd 85c7 2abd 742e d2bd 36bf 4ebd
00000050: 12d7 37be b481 03be 11ec 09be 6162 83bd
00000060: dcc2 64bd 73f7 3dbd 1307 edbd 72c8 74bd
00000070: dd7b bf3c a94c e43c d2cf 2fbc f0b4 d6bc
00000080: 87f4 5d3d f179 f4bc 7d87 4e3d 8e5c a43d
00000090: 6bc9 ba3d 2a1b bc3d dba2 ac3d f519 9b3d
000000a0: cd4f 7a3d a05a 7a3c 2fc0 b73b 7898 023b
000000b0: 2f58 56bd 0e42 20bd 33a4 74bd dd79 36be
000000c0: f3b3 1dbe c20d c5bd f517 18be 1ca2 d8bd
000000d0: b993 dbbd b8e2 08be 7789 5fbd dc29 9e3b
000000e0: b88c 093e ad65 c63d 9197 3d3e 9795 583e
000000f0: 785b 343e 36b4 333e f989 4a3e 0170 303e
00000100: 6ac1 233e 0e91 393d 6fcb a03d 7731 da3c
00000110: 6557 8ebd a368 10be bd89 fcbd a0c3 0bbe
00000120: bb7b 2bbe 5de9 1bbe 01ff b0bd 2832 28bd
00000130: 9bf6 143c 0284 003e ba9e 9a3d 669b 2c3e
00000140: 08f7 383d 13fa 223e 18db 173e 0e57 a13d
00000150: 2785 053e 8f16 423c cb9a 4b3d ce82 383d
00000160: 0c9c 45bc 65f6 37bd
