knn/models/pretrained-autoencoder/autoencoder-in_features60-latent_size12.pt (torch, 107500 bytes, 12 tensors)

weight f4 [108, 60]
0	0x3d337bce	0.04381924
1	0x3c213ee5	0.009841655
2	0x3dfa49c0	0.12221098
3	0x3e003919	0.12521781
4	0x3dee9d54	0.11651102
5	0x3d9909e0	0.07472587
6	0x3da8415e	0.08215593
7	0x3ce79f50	0.028274208
8	0x3d9a4a1d	0.07533667
9	0x3e08fafc	0.13376993
10	0xbcffa0d3	-0.031204617
11	0xbdd62483	-0.10456183
12	0xbd09a0c4	-0.033600584
13	0xbe00a420	-0.12562609
14	0xbe0798cb	-0.1324188
15	0xbdc51a46	-0.09624152
16	0xbd783f81	-0.060607437
17	0x3c9b9f9f	0.018997012
18	0xbcb9b0f3	-0.022667384
19	0x3d32ad57	0.04362234
20	0x3cffc7f1	0.03122327
21	0x3d09885f	0.03357732
22	0x3dd0780b	0.101791464
23	0x3d92c610	0.07166684
24	0x3d48c859	0.04901919
25	0x3d2727e2	0.04080952
26	0xbdf7eb71	-0.12105454
27	0xbd88dbeb	-0.06682571
28	0xbdb7c9a0	-0.08974004
29	0xbe003a5c	-0.12522262
30	0xbe0cfa43	-0.13767342
31	0x3d1505ae	0.03638237
32	0xbdb9a870	-0.0906533
33	0x3c9b1522	0.018930975
34	0x3bd0956f	0.00636547
35	0x3df059e5	0.11735896
36	0x3c258b4d	0.010104013
37	0x3ddf8ac9	0.10915143
38	0xbb9b58b5	-0.0047407993
39	0xbc528bf7	-0.012850753
40	0xbc2d39d5	-0.01057287
41	0x3b2b46d1	0.002613474
42	0xbe02f075	-0.1278704
43	0xbd231f31	-0.03982467
44	0xbda5f9ba	-0.08104272
45	0x3b316488	0.0027067978
46	0x3d9817c2	0.074264064
47	0x3dbe44b4	0.09290448
48	0x3d56bc66	0.052425765
49	0x3db11cfc	0.086481065
50	0x3dc6989e	0.09697078
51	0xbce3602a	-0.027755816
52	0x3d6af9af	0.057367023
53	0x3d173fcc	0.036926076
54	0xbd2bd603	-0.041952144
55	0xbded7e6c	-0.11596379
56	0xbd1d0442	-0.03833414
57	0xbd701eb6	-0.05862304
58	0xbdb30ef7	-0.08743089
59	0xbc43ca49	-0.011950084
60	0xbd5f0882	-0.054451473
61	0xbdb60758	-0.088881195
62	0xbd436adf	-0.047709342
63	0xbe2348b1	-0.15945698
64	0xbd8faa55	-0.0701491
65	0xbddd04dd	-0.10791943
66	0xbdcc8ada	-0.09987421
67	0xbdcea6a1	-0.10090376
68	0xb643eb40	-2.9194198e-06
69	0x3dc0cfe0	0.09414649
70	0xbd6325de	-0.055456035
71	0x3d474212	0.048646994
72	0x3d8ec37a	0.06970878
73	0x3d9f199b	0.07768556
74	0xbdcdb38e	-0.10044013
75	0xbc63706d	-0.013881785
76	0xbd38c537	-0.045109954
77	0xbd99c384	-0.07507995
78	0xbe0a0409	-0.13478102
79	0xbd338bfb	-0.043834668
80	0xbc12ab8b	-0.008952032
81	0xbcb0576c	-0.021526061
82	0x3d256471	0.04037899
83	0xbbfed175	-0.007776434
84	0x3de7af03	0.11312678
85	0x3d669a06	0.056299232
86	0x3c91c151	0.017792376
87	0x3db4d67f	0.088299744
88	0x3d9cd2f7	0.07657426
89	0xbd9d5e07	-0.0768395
90	0xbe035348	-0.12824738
91	0x3bfc64a6	0.007702428
92	0x3c3d3fda	0.011550868
93	0x3dad1f33	0.084532164
94	0x3d69ee8f	0.057112273
95	0x3a76efd4	0.00094198924
96	0x3dc66f74	0.09689227
97	0x3dc53ad1	0.09630359
98	0x3c6298e7	0.0138304
99	0xbd3bdea9	-0.045866642
100	0xbd84c2c8	-0.06482464
101	0xbca463ae	-0.020067062
102	0x3bed6bf2	0.007245534
103	0xbd57ce87	-0.052687194
104	0xbe0ec32c	-0.1394164
105	0xbd25fcb3	-0.040524196
106	0x3d3c6c71	0.046001855
107	0x3d618f34	0.05506821
108	0xbd427374	-0.047473386
109	0x3e0c55b7	0.13704573
110	0xbca324bc	-0.019914977
111	0xbd1d2de6	-0.03837385
112	0x3dd45279	0.10367293
113	0x3d21dedc	0.039519176
114	0xbd71a68a	-0.058996715
115	0x3d08dafc	0.033411965
116	0xbd7eb110	-0.06218058
117	0x3d1ff2cc	0.03904991
118	0x3c473239	0.01215797
119	0x3ce74f93	0.028236186
120	0xbe0ef47a	-0.13960448
121	0xbd415d40	-0.04720807
122	0xbdd30944	-0.10304502
123	0xbd476c1a	-0.048687078
124	0x3d98615b	0.07440444
125	0x3cde146a	0.027109344
126	0x3b36938d	0.0027858943
127	0x3d8a2266	0.06744842
128	0xbd395b5f	-0.045253154
129	0xbd444ecc	-0.04792671
130	0xbda3571a	-0.07975598
131	0xbdafc1d9	-0.085818954
132	0xbd9de911	-0.077104695
133	0xbd0f71ab	-0.03502051
134	0x3c9ed3cc	0.019388102
135	0xbd4baad8	-0.049723476
136	0x3e05e184	0.13074309
137	0x3deca78a	0.11555393
138	0x3d525c06	0.05135729
139	0x3db01845	0.08598379
140	0x3e290ca7	0.16508733
141	0x3c20db6e	0.009817941
142	0xbad2c0c9	-0.0016079183
143	0x3dc693b9	0.096961446
144	0xbdb9b362	-0.09067418
145	0xbd84c206	-0.064823195
146	0xbe185932	-0.14877775
147	0xbd1ec8c6	-0.03876569
148	0xbdcbefef	-0.09957873
149	0xbe25be66	-0.16185912
150	0x3c9e2db8	0.01930891
151	0xbdb0e9d9	-0.08638353
152	0x3c293881	0.010328413
153	0x3cb94e2f	0.022620289
154	0x3b00f934	0.0019679787
155	0xbcb3a944	-0.021931298
156	0x3da2e992	0.07954706
157	0x3d8aefe3	0.06784036
158	0x3d4b9caa	0.049709953
159	0x3d1389a3	0.036019932
160	0xbd968246	-0.073490664
161	0xbcda9c94	-0.02668599
162	0xbd87ed2f	-0.06637036
163	0x3cede5b4	0.029040195
164	0x3c092566	0.008370733
165	0x3c4709a6	0.012148296
166	0xbcd6f31b	-0.026238969
167	0xbdf4d770	-0.11955154
168	0xbb4c284a	-0.0031151944
169	0xbcf139bf	-0.02944648
170	0x3c53ca4d	0.01292665
171	0x3de97c80	0.114006996
172	0x3c46f807	0.012144095
173	0xbc09ee6f	-0.008418663
174	0x3d758b54	0.059947327
175	0x3dcc657f	0.09980296
176	0x3d959a86	0.07304864
177	0x3dce43ad	0.10071502
178	0x3dff515a	0.124666885
179	0x3df9e645	0.122021236
180	0xbd900e5c	-0.07033989
181	0x3ceb2323	0.028703278
182	0xbe1afc8f	-0.15135406
183	0xbdad8ea3	-0.084744714
184	0xbd5d356b	-0.05400602
185	0xbde8ce46	-0.113674685
186	0xbde3e54e	-0.11127721
187	0xbd90f8ea	-0.070787266
188	0xbdc7ff05	-0.09765438
189	0xbcea5116	-0.028603118
190	0xbd2621ef	-0.040559705
191	0x3daddc72	0.08489312
192	0x3dede879	0.11616606
193	0x3dcde925	0.100542344
194	0x3d89732d	0.06711421
195	0x3df08654	0.11744371
196	0x3df3104f	0.11868345
197	0x3cf9c2b2	0.030488346
198	0xbc317f67	-0.010833598
199	0x3d35768e	0.044302516
200	0xbd1e7209	-0.03868297
201	0xbd62e085	-0.0553899
202	0xbdadb955	-0.08482615
203	0xbd905e8e	-0.07049285
204	0xbd11816e	-0.035523824
205	0xbd15b12f	-0.03654593
206	0x3df30dd5	0.118678726
207	0x3d9975f1	0.07493199
208	0x3dd6e8d1	0.10493625
209	0x3e02da24	0.12778527
210	0x3cb32bf1	0.021871539
211	0x3da3e353	0.08002343
212	0x3d02b186	0.03190758
213	0x3cf4ba03	0.029873854
214	0xbc891152	-0.016731892
215	0xbe33e06c	-0.17566079
216	0xbbac8c27	-0.005265731
217	0xbdcc400e	-0.09973155
218	0x3d9fc6fb	0.078016244
219	0xbc77c675	-0.015122999
220	0x3d36e2bc	0.044649825
221	0x3d90332e	0.07041012
222	0x3db85c92	0.090020314
223	0x3dccf4ff	0.10007667
224	0x3d9720e9	0.07379324
225	0x3d18d02f	0.037307914
226	0x3ca4d277	0.020119889
227	0xbd4cf31e	-0.050036542
228	0xbd26a226	-0.04068198
229	0xbd3e8c4e	-0.046520524
230	0xbdba2b36	-0.09090273
231	0xbdabf8d5	-0.0839707
232	0x3caeabdc	0.021322183
233	0xbdbfa98b	-0.0935851
234	0x3cda6905	0.026661405
235	0x3d5a9aef	0.053370412
236	0x3d88299b	0.066485606
237	0x3d9da9fc	0.076984376
238	0x3df7f6fd	0.12107656
239	0x3d397f92	0.045287676
240	0xbd2d8553	-0.042363476
241	0xbcf7146f	-0.03016111
242	0xbdba41c1	-0.09094573
243	0x3cb72213	0.022355115
244	0xbdc2da6a	-0.095143154
245	0x3c7743f8	0.015091889
246	0x3d713190	0.058885157
247	0x3d6c7fc0	0.05773902
248	0x3da562c4	0.08075479
249	0x3d7bca86	0.06147244
250	0xbd314c82	-0.043285854
251	0x3d8dedcd	0.069301225
252	0x3d4c0c15	0.04981621
253	0x3d2a3090	0.04155022
254	0xbd5f5385	-0.05452301
255	0xbd1479aa	-0.03624884

bias f4 [108]
0	0x3b1b32cb	0.0023681398
1	0xbdbbb30c	-0.0916501
2	0x3da296d3	0.07938924
3	0x3d499335	0.049212653
4	0x3e1826a9	0.14858498
5	0xbe14ebab	-0.14543025
6	0x3e0085f1	0.12551095
7	0xbcd21f3a	-0.025649656
8	0xbe078c70	-0.13237166
9	0x3da5e0be	0.08099507
10	0xbdb237f6	-0.0870208
11	0xbc787a32	-0.015165852
12	0x3e0dce8d	0.13848324
13	0x3c612a4e	0.013742996
14	0xbdd971dc	-0.1061742
15	0xbdb4d2b7	-0.08829253
16	0x3b29c7ef	0.0025906523
17	0xbdbf27e9	-0.09333784
18	0x3d5daf42	0.054122217
19	0x3ceefd7e	0.029173609
20	0xbcf9eb96	-0.030507844
21	0xbc557475	-0.013028254
22	0xbd4d5867	-0.050133135
23	0x3dc566cb	0.09638747
24	0x3db6d496	0.08927266
25	0x3e7fdb48	0.24985993
26	0x3cd1807b	0.02557396
27	0xbabe4ef4	-0.001451938
28	0xbc9185f6	-0.017764073
29	0xbd9eb33f	-0.07749032
30	0x3cecd94d	0.02891221
31	0x3d9c0872	0.07618798
32	0xbda886e8	-0.08228856
33	0x3dc382c2	0.095464244
34	0xbbe8e5a3	-0.007107453
35	0x3dc1fb41	0.09471751
36	0xbd90806a	-0.07055743
37	0xbb5242ba	-0.003208323
38	0x3d51648d	0.051121283
39	0x3e0372fd	0.12836833
40	0x3e2838b2	0.16427878
41	0x3db942ac	0.0904592
42	0x3d9cc737	0.07655185
43	0xbbcbc56a	-0.006218602
44	0x3e1202c1	0.14258863
45	0x3b0a3ccd	0.002109337
46	0x3cbccfcd	0.023048306
47	0xbe02eba5	-0.12785204
48	0x3cf75c9b	0.030195525
49	0xbcc9e1a8	-0.024643734
50	0x3d2ee85e	0.04270207
51	0x3db2bb6c	0.08727154
52	0x3d3702dc	0.04468046
53	0xbd721f83	-0.059112083
54	0x3e1d3900	0.15353775
55	0x3e159871	0.14608933
56	0x3dd30c01	0.10305024
57	0x3c4cda9d	0.012503293
58	0x3ddf248c	0.10895643
59	0xbd77f022	-0.060531743
60	0x3d842a84	0.06453422
61	0x3b3fa148	0.0029240418
62	0x3ddcd3e4	0.107826024
63	0xbc2e0a84	-0.010622624
64	0x3d6daadf	0.058024283
65	0x3dae3814	0.0850679
66	0xbd030f00	-0.031996727
67	0xbd2f34b3	-0.042774867
68	0x3dce145e	0.100624785
69	0xbc5150d3	-0.012775618
70	0x3daff82d	0.08592258
71	0xbe3479cc	-0.17624587
72	0x3d1189dc	0.035531864
73	0x3d1feab6	0.039042197
74	0x3bdc3e65	0.006721305
75	0xbe2f9659	-0.17147197
76	0x3def0fc1	0.11672927
77	0x3dfcc0c4	0.123414546
78	0x3ddb5313	0.107092045
79	0x3dc9eb18	0.09859294
80	0x3db8642d	0.09003482
81	0xbd0306fe	-0.03198909
82	0x3d9e99f1	0.07744206
83	0x3ccf78c3	0.025326138
84	0x3c3ef2b9	0.011654549
85	0x3e884d8f	0.26621673
86	0x3d9bf0c4	0.07614282
87	0xbb47bc3d	-0.003047719
88	0x3e2de72d	0.16982718
89	0x3da06e8d	0.07833586
90	0x3ccda6c8	0.025103942
91	0x3d6982be	0.05700945
92	0xbe085bd8	-0.13316286
93	0xbd54faac	-0.05199687
94	0xbcf663b4	-0.030076839
95	0x3d4e7eb5	0.050413806
96	0x3d047685	0.03233959
97	0x3e6f9ca7	0.23399602
98	0xbd9ddfea	-0.07708724
99	0x3d9692f6	0.07352249
100	0x3c9bb7f1	0.019008609
101	0xbd35d529	-0.04439274
102	0x3bb54754	0.0055321846
103	0x3dba6def	0.091029994
104	0xbd53d299	-0.051714513
105	0x3df53cca	0.11974485
106	0x3d3304a9	0.043705616
107	0xbca827c0	-0.020526767

weight f4 [36, 108]
0	0xbdc1aed6	-0.094571754
1	0x3d89a2f1	0.06720532
2	0xbdbc6b64	-0.09200171
3	0x3dfe5d59	0.124201484
4	0x3cda2175	0.026627282
5	0x3c63b6eb	0.0138985915
6	0x3e0351ef	0.12824224
7	0xbd89dd82	-0.067317024
8	0xbcca066c	-0.024661265
9	0xbde73a18	-0.112903774
10	0xbdd19515	-0.10233513
11	0x3c2fcae6	0.010729527
12	0x3b1b40ff	0.0023689864
13	0x3dd84612	0.1056024
14	0xbc579910	-0.013159052
15	0x3d7b765e	0.06139218
16	0x3c93dc17	0.018049283
17	0x3db61ec4	0.08892587
18	0x3da9e6e2	0.082959905
19	0x3d73ddbb	0.05953763
20	0xba34a3dc	-0.0006890872
21	0x3df66293	0.1203052
22	0xbd6bcadc	-0.05756651
23	0x3da93c96	0.08263509
24	0x3d62cfec	0.05537407
25	0x3da829a3	0.082110666
26	0x3d9ee56b	0.07758602
27	0xbbcbc1f8	-0.0062181912
28	0x3da2c1a1	0.07947088
29	0xbc83f965	-0.016110132
30	0xbc41846b	-0.011811356
31	0x3df03a0c	0.117298216
32	0xbd2cbc53	-0.042171787
33	0xbda7f4ec	-0.08201012
34	0xbcf2de5a	-0.029647041
35	0xbd331d5b	-0.043729167
36	0x3d6fb2c1	0.058520082
37	0xbd3e6729	-0.0464851
38	0x3d8b63a6	0.06806116
39	0x3b866593	0.004101464
40	0x3e598b77	0.21244608
41	0x3d3e6788	0.046485454
42	0xbd09642b	-0.033542793
43	0x3dcc8674	0.099865824
44	0x3c962571	0.0183284
45	0x3dacdbf0	0.08440387
46	0x3cf1e408	0.02952768
47	0x3c233c94	0.009963173
48	0x389a5834	7.359721e-05
49	0xbcc55f81	-0.024093391
50	0x3daef9ee	0.08543764
51	0x3e133b8e	0.14378187
52	0x3bcd90a0	0.006273344
53	0x3c98172c	0.018565737
54	0xbe052778	-0.13003337
55	0x3e12ed6f	0.14348386
56	0x3e1dea41	0.15421392
57	0x3d4173d9	0.04722962
58	0xbdd00f79	-0.10159201
59	0xbd76410d	-0.06012063
60	0x3def8ac6	0.11696391
61	0xbd3d3a3b	-0.04619811
62	0x3d6b94d4	0.05751498
63	0x3d0e088c	0.03467612
64	0x3d054981	0.032540802
65	0xbc89f37e	-0.016839739
66	0xbbabee67	-0.0052469256
67	0xbd5e8041	-0.05432153
68	0x3e164fcc	0.14678878
69	0x3e10a262	0.14124444
70	0x3c78bc93	0.015181678
71	0x3bb524fc	0.0055280905
72	0x3db89a0b	0.09013756
73	0x3d90f343	0.070776485
74	0x3da7d3fa	0.08194728
75	0x3dc17914	0.09446922
76	0x3d28b0de	0.0411843
77	0x3e0f4d8a	0.13994423
78	0x3e0e7ed1	0.13915564
79	0xbd45d461	-0.048298243
80	0x3c849284	0.016183145
81	0xbcaf1452	-0.021371994
82	0xbb9fb5e7	-0.0048739794
83	0xbc8006a1	-0.01562816
84	0x3d319785	0.04335739
85	0x3de6f3af	0.11276948
86	0x3be8910d	0.0070973695
87	0x3cf67b8a	0.030088205
88	0x3dbeffb2	0.09326114
89	0x3c7da9d8	0.015482388
90	0xbd046b79	-0.032329056
91	0x3d6675f0	0.056264818
92	0xbd461cfa	-0.048367478
93	0xbc7b777d	-0.015348312
94	0xbc988625	-0.018618653
95	0x3dccdfcb	0.100036226
96	0xbd9d5cb5	-0.07683698
97	0x3e3a3ea2	0.18187955
98	0x3d59199c	0.05300294
99	0x3e0b828e	0.13624021
100	0x3e0493a3	0.12946944
101	0x3d8dfe3e	0.069332585
102	0xbc903bec	-0.017606698
103	0x3e407fe2	0.18798783
104	0x3cfa029e	0.030518826
105	0x3d44f00c	0.04808049
106	0x3e11a123	0.14221625
107	0xbccdfc74	-0.025144793
108	0x3dced7e0	0.10099769
109	0xbd28c28f	-0.04120117
110	0x3c31db64	0.010855529
111	0xbd068fc0	-0.032851934
112	0x3d5930ad	0.053024936
113	0x3dddb70f	0.10825931
114	0x3deb4ac9	0.114888735
115	0x3d87e196	0.06634824
116	0xbcf47f0e	-0.02984574
117	0x3e0a159e	0.13484809
118	0xbd2b958f	-0.041890677
119	0x3cc079f0	0.023495644
120	0x3e240745	0.16018398
121	0xbb581215	-0.0032969762
122	0x3b4cf6ca	0.0031275027
123	0xbd8a6d77	-0.0675916
124	0xbb013d87	-0.001972051
125	0x3d0ec176	0.034852467
126	0x3c3de422	0.011590036
127	0xbd396d5c	-0.04527031
128	0x3e0b44b9	0.13600434
129	0xbcd3c583	-0.025851017
130	0xbd86cc42	-0.06581928
131	0x3dd8726e	0.10568701
132	0x3d550edc	0.052016124
133	0x3c6f5cec	0.014609557
134	0xbd4a6f83	-0.049422752
135	0xbd285bcb	-0.041103166
136	0xbd575e6f	-0.052580293
137	0xbce06ee9	-0.027396636
138	0xbbe93001	-0.007116318
139	0x3d0748a3	0.033028256
140	0x3dfe9083	0.12429907
141	0x3d99aa12	0.075031415
142	0x3e2fb111	0.17157389
143	0xbd167e70	-0.036741674
144	0x3c50d377	0.01274573
145	0xbd132d40	-0.035931826
146	0x3cf75ea0	0.030196488
147	0x3e004b24	0.12528664
148	0x3db0e1cd	0.08636818
149	0x3d558586	0.05212929
150	0x3da21070	0.079132915
151	0x3d9ac69e	0.075574145
152	0xbba2c844	-0.004967721
153	0xbd7817b4	-0.06056948
154	0x3d4cbe25	0.049986023
155	0xbd70a89c	-0.05875455
156	0x3e3adb45	0.18247707
157	0xbc86450f	-0.016390352
158	0x3ac17e66	0.0014762401
159	0xbc2faf42	-0.010722937
160	0xbd3ae936	-0.045632564
161	0xbc4d71b4	-0.012539316
162	0x3dc64959	0.09681959
163	0xbcb370ad	-0.021904314
164	0x3e59eedd	0.21282525
165	0x3dc8e9fd	0.09810255
166	0x3e19d201	0.15021516
167	0x3bab1eb6	0.005222167
168	0x3d4645a1	0.048406247
169	0xbcd99cb6	-0.026563983
170	0x3c7338cb	0.0148450835
171	0x3def3ffa	0.116821244
172	0x3e01c220	0.12671709
173	0xbbb0d264	-0.0053961743
174	0xbd7d3dc1	-0.06182647
175	0x3d5c3cf7	0.053769078
176	0x3ebce579	0.36893824
177	0xbb922a06	-0.004460576
178	0xbd44dfe3	-0.048065078
179	0x3c1e5c75	0.009665598
180	0x3d892243	0.06695988
181	0x3d0fc33d	0.035098303
182	0xbd8486fc	-0.06471059
183	0x3da0def2	0.078550234
184	0x3e2d399e	0.1691651
185	0xbdab2451	-0.08356536
186	0x3cf95037	0.030433757
187	0xbdafcfaf	-0.085845344
188	0xbd23381d	-0.039848436
189	0x3c08b86c	0.008344751
190	0x3ce8d231	0.02842054
191	0xbce12ac1	-0.027486207
192	0xbd145070	-0.036209524
193	0x3b8d19c8	0.004306052
194	0x3e5a684b	0.21328847
195	0xbaac40d3	-0.0013141878
196	0xbd38fcc1	-0.04516292
197	0xbd4a1f82	-0.049346454
198	0xbc11211b	-0.008857991
199	0x3c0dbf77	0.008651606
200	0xbccfb07c	-0.025352709
201	0xbd288f96	-0.04115256
202	0x3bff344d	0.007788217
203	0xbccbb238	-0.024865255
204	0x3ba70006	0.0050964383
205	0x3d69ecc7	0.057110574
206	0xbda43c79	-0.08019347
207	0xbcf5dff4	-0.030014016
208	0x3d0ae152	0.03390629
209	0x3cc5aa53	0.024129068
210	0xbc6660a7	-0.01406113
211	0x3d0ad934	0.033898547
212	0x3d952dab	0.07284101
213	0x3ca48880	0.02008462
214	0xbdb252aa	-0.08707173
215	0x3d9068f8	0.07051271
216	0xbd7fce19	-0.06245241
217	0xbc93a5a5	-0.018023321
218	0xbd457dfa	-0.048215844
219	0x3d74c872	0.059761472
220	0x3d9f73d2	0.07785763
221	0xbd330ac6	-0.043711446
222	0xbcb9064a	-0.022586007
223	0xbdee2861	-0.116287954
224	0xbc1e7af7	-0.009672872
225	0x3d3830d9	0.04496846
226	0x3b375339	0.0027973189
227	0x3e123ba6	0.14280567
228	0x3e33230b	0.17493837
229	0x3c46d207	0.012135035
230	0x3964d6f4	0.0002182385
231	0x3c098a3d	0.008394775
232	0xbd44b344	-0.048022524
233	0x3c82e73f	0.015979407
234	0xbd62a641	-0.055334333
235	0x3cbec891	0.023288997
236	0x3d91436f	0.0709294
237	0x3cf9883d	0.030460471
238	0x3cc16f47	0.023612631
239	0x3d266b09	0.04062942
240	0x3d37a517	0.044835176
241	0x3cec612b	0.028854927
242	0x3e1962a8	0.1497904
243	0x3d89f507	0.067361884
244	0xbd33a6dc	-0.0438603
245	0x3d70ba4d	0.05877142
246	0x3d201732	0.03908462
247	0xbcd3a662	-0.025836173
248	0xbbe2c361	-0.0069202636
249	0x3d5ee2f9	0.054415677
250	0xbd02e96c	-0.03196089
251	0xbca51079	-0.020149456
252	0xbcc3733d	-0.02385866
253	0x3d8d69c6	0.0690494
254	0xbc2a61cc	-0.010399293
255	0x3e0a8cbe	0.13530251

bias f4 [36]
0	0x3dc3d010	0.09561169
1	0xbda18fb9	-0.07888741
2	0x3d786909	0.060647044
3	0xbd928d26	-0.07155828
4	0xbcee587f	-0.029094933
5	0x3d0228f9	0.031777356
6	0x3df75b02	0.12077905
7	0xbc945b7e	-0.018110033
8	0x3ddbaac0	0.10725927
9	0xbdc62fe2	-0.09677102
10	0xbc583703	-0.01319671
11	0x3daf0e51	0.085476525
12	0x3d0ac41e	0.03387844
13	0xbd2d9719	-0.042380426
14	0x3e1d503e	0.15362641
15	0x3d275cf9	0.04086015
16	0xbcfac778	-0.030612692
17	0xbda7b10f	-0.08188068
18	0xbda1dab9	-0.07903046
19	0x3d2f048a	0.04272894
20	0x3d05be2b	0.03265206
21	0x3d1269e2	0.03574551
22	0x3d926397	0.071479015
23	0x3e0ca2bb	0.13733952
24	0x3e1bec7a	0.15226927
25	0xbd12e725	-0.035864968
26	0xbcd2c947	-0.025730742
27	0x3e0eb2ce	0.13935396
28	0x3cd07fa0	0.025451481
29	0x3d96b887	0.073594145
30	0xbd071973	-0.032983255
31	0xbce78e97	-0.028266234
32	0xbaa3a260	-0.0012484305
33	0x3d17febf	0.03710818
34	0xbd98f9c9	-0.07469518
35	0xbde8744b	-0.11350306

weight f4 [12, 36]
0	0xbec6617f	-0.3874626
1	0x3e7f6ec5	0.24944599
2	0xbe073a87	-0.1320592
3	0x3e1e7530	0.15474391
4	0xbe65930f	-0.2241938
5	0x3d18737d	0.037219513
6	0x3e184621	0.14870502
7	0x3ddc3120	0.10751557
8	0xbd012a38	-0.031534404
9	0x3d365f58	0.04452452
10	0xbdade642	-0.08491184
11	0x3e251eb4	0.16124994
12	0x3ea809a7	0.32819864
13	0x3e6ba639	0.23012628
14	0xbcfaf3d3	-0.030633843
15	0x3db34315	0.08753029
16	0xbed41a9a	-0.41426545
17	0xbe1a6596	-0.15077814
18	0x3e6c06bf	0.23049448
19	0x3df5cc9a	0.12001915
20	0xbdea84fd	-0.11451147
21	0x3e5dc221	0.21656086
22	0xbd0bccf9	-0.034131024
23	0x3e4d1292	0.20026615
24	0xbd7d083f	-0.061775442
25	0x3e2bc749	0.1677524
26	0xbd6b4d0f	-0.057446536
27	0x3ea6cbd6	0.3257739
28	0x3de7e993	0.113238476
29	0xbcbf7c50	-0.023374707
30	0xbec2b8f9	-0.38031748
31	0xbe20bfb0	-0.15698123
32	0xbe2306d7	-0.15920578
33	0xbd9fc868	-0.07801896
34	0xbd59e31a	-0.053195097
35	0xbe9a6015	-0.3015143
36	0xbe019f55	-0.12658437
37	0xbe8475f4	-0.2587124
38	0xbe5ece7b	-0.21758454
39	0x3d8dec86	0.06929879
40	0xbe742f76	-0.2384623
41	0xbd921f23	-0.07134845
42	0xbe53d035	-0.20684893
43	0xbd2c17e8	-0.042014986
44	0xbe8ad284	-0.27113736
45	0x3b89bede	0.0042036613
46	0xbe1d8dfd	-0.15386195
47	0x3ea51cad	0.3224844
48	0xbddb296b	-0.10701259
49	0xbe83963c	-0.25700557
50	0xbede15ab	-0.43375906
51	0x3ebb1a98	0.36543727
52	0x3e661ccd	0.22471924
53	0x3df956b1	0.12174738
54	0x3d1420c5	0.036164064
55	0xbe928aca	-0.28621513
56	0x3d4c330c	0.04985337
57	0x3e9efd66	0.31052703
58	0x3ceba250	0.02876392
59	0x3e456912	0.19278362
60	0x3e55d689	0.2088262
61	0xbe472eaf	-0.19451402
62	0x3e6c3b04	0.23069388
63	0x3e0ffa97	0.14060436
64	0x3e90d1a7	0.28284952
65	0xbe7a9dae	-0.24474213
66	0xbd88870a	-0.06666382
67	0xbc813d70	-0.015776366
68	0xbe50d7b0	-0.20394778
69	0x3ced3bca	0.028959174
70	0xbd88eb94	-0.06685558
71	0x3ed2e8bf	0.41193196
72	0x3ddf8650	0.1091429
73	0xbd80e8dd	-0.06294415
74	0xbd88b69b	-0.06675454
75	0xbe136961	-0.14395668
76	0x3ce1e04e	0.027572777
77	0xbe8d6e1a	-0.27623063
78	0xbd8cfe5c	-0.06884453
79	0xbd60c4a3	-0.054875027
80	0x3eb5531a	0.35414964
81	0xbded1ab1	-0.115773566
82	0x3b954bb5	0.004556144
83	0xbdc29548	-0.095011294
84	0x3e8bd52d	0.27311078
85	0x3c213097	0.009838245
86	0xbd31e189	-0.043427978
87	0x3e80b927	0.2514126
88	0x3d1af2d7	0.037829246
89	0x3dd7ec0d	0.1054307
90	0x3d47751d	0.048695672
91	0x3e325ef3	0.17419033
92	0xbe1357d2	-0.1438897
93	0x3d9a0177	0.07519811
94	0xbe0460f4	-0.1292761
95	0x3d70fe3a	0.0588362
96	0x3dd949b0	0.10609758
97	0x3d09c899	0.03363857
98	0xbe12dfbe	-0.14343163
99	0x3e8c9f2f	0.27465197
100	0x3e249460	0.16072226
101	0xbe9afe09	-0.30271938
102	0x3e89dc38	0.26925826
103	0xbe9da2c6	-0.3078825
104	0x3e5f6fc7	0.21819983
105	0x3dfbc5f5	0.12293617
106	0x3dd12eed	0.102140285
107	0x3df9c5ff	0.12195968
108	0xbe53b320	-0.206738
109	0xbe2911cb	-0.16510694
110	0xbdc346bb	-0.09534975
111	0xbea531e4	-0.32264626
112	0x3db2289d	0.086991526
113	0xbe5bcd8d	-0.2146513
114	0xbeb2e186	-0.34937686
115	0x3d53eedc	0.051741466
116	0xbd4bd86c	-0.049766943
117	0xbd5d20c6	-0.053986333
118	0x3d410cff	0.047131535
119	0xbc1c2789	-0.00953091
120	0x3e23eb5e	0.16007754
121	0x3e131bdc	0.14366096
122	0x3e3abc41	0.18235876
123	0x3e420eca	0.18950954
124	0xbe993f95	-0.29931322
125	0x3c512bf0	0.012766823
126	0xbe1aa9f0	-0.15103889
127	0x3dd7a0d7	0.10528725
128	0x3e129808	0.14315808
129	0xbeaf271a	-0.3420952
130	0xbe3c65cd	-0.18398209
131	0xbe7695f5	-0.24080642
132	0xbe17a5ac	-0.14809293
133	0x3cc07e0b	0.023497602
134	0x3d914f7b	0.07095238
135	0x3ea1b3c1	0.31582454
136	0xbe9610ea	-0.2930978
137	0x3dbae4d2	0.09125675
138	0x3ea3b020	0.3197031
139	0x3d15d4bb	0.03657983
140	0xbd4fb5ba	-0.050710417
141	0x3d1e53a9	0.038654003
142	0x3dbef044	0.09323171
143	0xbd19ee33	-0.03758068
144	0x3e262a2c	0.16227025
145	0x3eb4781d	0.3524789
146	0xbe4071a9	-0.18793358
147	0xbda93813	-0.082626484
148	0xbdb66dab	-0.08907636
149	0xbd44aac6	-0.048014425
150	0xbe9279fa	-0.28608686
151	0xbe062c88	-0.13102925
152	0x3caf502e	0.021400537
153	0x3e05f7b9	0.1308278
154	0x3da51676	0.08060925
155	0x3d727396	0.059192263
156	0xbe552219	-0.20813788
157	0x3e6d5914	0.23178512
158	0xbe42b55d	-0.19014497
159	0x3e6a221b	0.22864573
160	0xbe1291f2	-0.14313486
161	0x3dfc17dc	0.12309238
162	0x3dc213fa	0.094764665
163	0xbd82fcf8	-0.06395906
164	0x3e9121e6	0.28346175
165	0xbe22c938	-0.15897071
166	0x3e277d25	0.16356333
167	0xbdc88181	-0.09790326
168	0x3e9c6ecb	0.30553278
169	0x3de68204	0.11255267
170	0x3d605043	0.054764044
171	0xbe88f945	-0.26752678
172	0x3dbf95c1	0.09354735
173	0x3e3f10fb	0.18658821
174	0x3e1e1f65	0.15441664
175	0x3d049512	0.032368727
176	0x3d5c3267	0.053759005
177	0x3e39146a	0.18074194
178	0x3c991717	0.018687768
179	0xbeaeedf5	-0.34165922
180	0xbd59d1c3	-0.05317856
181	0xbd85d255	-0.06534258
182	0x3dcddead	0.10052238
183	0x3e01f505	0.12691124
184	0x3d6cb81c	0.057792768
185	0xbe8c2dab	-0.27378592
186	0x3d2d74be	0.042347662
187	0xbebe3fbb	-0.37157997
188	0x3d1d2691	0.038366858
189	0xbdf0fca1	-0.11766935
190	0xbe15620e	-0.14588186
191	0xbe8aff0d	-0.27147713
192	0xbe2e2747	-0.1700717
193	0xbe28f167	-0.16498338
194	0x3c814097	0.01577787
195	0xbb51dabe	-0.003202125
196	0xbe5fbf4e	-0.2185032
197	0x3ef53b5d	0.47896853
198	0xbd37a1af	-0.044831928
199	0xbea4dcc0	-0.3219967
200	0xbe7371be	-0.23773858
201	0x3da4adff	0.080409996
202	0xbc96679d	-0.018359954
203	0xbe89e6ca	-0.2693389
204	0x3eba4133	0.36377868
205	0xbdb4d309	-0.08829314
206	0xbe536e0b	-0.20647447
207	0x3d918f12	0.071073666
208	0x3e2a768f	0.16646789
209	0x3e573651	0.21016814
210	0xbe2cb6eb	-0.16866653
211	0xbe046487	-0.12928973
212	0x3e5f7ec2	0.21825698
213	0xbe0a1127	-0.13483106
214	0xbe1ff528	-0.15620863
215	0x3e31775b	0.17330687
216	0xbeada637	-0.33915874
217	0x3e47a450	0.19496274
218	0x3e31af8c	0.17352122
219	0xbcd2b4c5	-0.025720963
220	0xbd985bce	-0.07439385
221	0xbd2bc829	-0.041938934
222	0xbe424c21	-0.18974353
223	0xbe9e48ba	-0.3091486
224	0x3d8d731d	0.06906722
225	0x3dd38a96	0.103291675
226	0xbdd1d94e	-0.10246526
227	0xbd1c7bcd	-0.038204003
228	0x3dddea8f	0.10835754
229	0xbe3d9942	-0.18515494
230	0xbe801b01	-0.25020602
231	0x3d8869e4	0.06660822
232	0x3d8f9f6e	0.07012831
233	0x3e9337f4	0.28753626
234	0x3de6fc07	0.11278539
235	0xbbef254b	-0.007298147
236	0x3ca21226	0.019784044
237	0xbdbd1563	-0.09232595
238	0x3e6935e0	0.22774458
239	0xbec1743d	-0.37783995
240	0xbe6b9de2	-0.23009446
241	0x3e9b2335	0.30300298
242	0x3ea16279	0.3152044
243	0x3c0e7e11	0.008697049
244	0xbd960af0	-0.07326305
245	0x3d6efa1c	0.05834399
246	0x3ea1bb49	0.315882
247	0x3ddd1ff4	0.1079711
248	0x3e51fa2f	0.20505594
249	0xbe18caad	-0.14921065
250	0x3b9ff262	0.004881189
251	0x3e4949b7	0.19657026
252	0x3e94cc45	0.29062095
253	0x3db4d4d9	0.0882966
254	0x3eaae66f	0.33378932
255	0x3ebc0653	0.36723575

bias f4 [12]
0	0xbe5a6151	-0.21326186
1	0x3c5aef54	0.013362724
2	0x3bfc5d08	0.00770152
3	0x3c7c53e8	0.015400864
4	0xbe333bc0	-0.17503262
5	0xbdf98211	-0.12183011
6	0x3bfb657c	0.00767201
7	0xbe292f54	-0.1652196
8	0x3e0afedd	0.13573785
9	0xbe20a969	-0.15689625
10	0x3e2b5acc	0.16733855
11	0xbccc53b6	-0.02494226

weight f4 [36, 12]
0	0xbd4c0961	-0.049813632
1	0xbd9220b6	-0.07135145
2	0xba82f74d	-0.0009991914
3	0x3df13b03	0.11778834
4	0x3e111622	0.14168599
5	0xbeba1de2	-0.36350924
6	0x3ea75942	0.32685286
7	0x3cbe5826	0.023235392
8	0x3eb69d0c	0.35666692
9	0x3d059cc1	0.032620195
10	0xbd7e8a0c	-0.06214337
11	0xbd03d993	-0.032189917
12	0xbe212175	-0.15735419
13	0xbe8e3000	-0.27770996
14	0x3e4733ea	0.19453397
15	0xbeb71db9	-0.35764864
16	0x3e6e5f40	0.23278522
17	0x3da92bc1	0.082602985
18	0xbe027495	-0.12739785
19	0xbddc4f11	-0.10757268
20	0x3e37572c	0.17904347
21	0x3eecc51f	0.4624414
22	0xbdcbdcb3	-0.099542044
23	0xbc80ab58	-0.015706703
24	0xbe7ec0fd	-0.24878307
25	0xbdcc46d2	-0.099744454
26	0x3edb991a	0.42890245
27	0xbdb6d24f	-0.08926832
28	0x3ea83ac8	0.32857347
29	0xbda27dd3	-0.07934155
30	0xbd3fbc99	-0.04681072
31	0xbd2ff6bc	-0.042959914
32	0x3dc1439e	0.09436725
33	0xbda1cee0	-0.079007864
34	0x3d63f3b7	0.055652346
35	0x3dfc4ee7	0.12319737
36	0x3e5d64cd	0.21620484
37	0xbe333a90	-0.17502809
38	0x3cdce711	0.02696565
39	0x3c80fa7a	0.015744437
40	0xbe1faf1b	-0.15594141
41	0xbe685666	-0.22689208
42	0x3d6c2923	0.05765642
43	0xbd0258ea	-0.031823076
44	0xbd8ac112	-0.067751065
45	0xbdb0ee83	-0.086392425
46	0x3e8dc0c4	0.2768613
47	0x3e330140	0.17480946
48	0x3e83b4de	0.25723928
49	0x3dd4f019	0.103973575
50	0xbe6ee81a	-0.23330727
51	0xbcecca47	-0.028905047
52	0xbe43b648	-0.19112504
53	0x3d0533f9	0.032520268
54	0x3e4f540e	0.20246908
55	0xbe1a7836	-0.1508492
56	0xbe142957	-0.14468895
57	0x3aedac62	0.0018133039
58	0x3d75f2e2	0.060046084
59	0x3da7991b	0.081834994
60	0x3e54979e	0.20760962
61	0x3e0811a6	0.13287982
62	0x3eacfa0a	0.33784515
63	0x3e379596	0.17928156
64	0x3c4846b7	0.012223891
65	0x3d7f25ee	0.062292032
66	0x3d95da49	0.07317025
67	0xbe72fd30	-0.23729396
68	0xbdb43834	-0.087997824
69	0xbd6323aa	-0.055453934
70	0x3d06b53c	0.032887682
71	0xbe1cb643	-0.15303902
72	0xbbc40628	-0.005982179
73	0xbe276d4f	-0.16350292
74	0x3f323ae4	0.6962111
75	0x3d52084e	0.05127745
76	0x3dc629d1	0.096759446
77	0xbe587c1b	-0.21141092
78	0xbe3ccfbe	-0.18438622
79	0x3dc680e0	0.0969255
80	0x3d9f60da	0.07782145
81	0x3ee91bf8	0.4552915
82	0xbe877726	-0.2645809
83	0x3dc81539	0.09769673
84	0x3e12a492	0.14320591
85	0x3e755d40	0.23961353
86	0xbe9b44a5	-0.3032581
87	0x3e02416c	0.12720269
88	0xbd5517d0	-0.052024662
89	0x3e5ce28d	0.21570797
90	0xbe32c147	-0.17456542
91	0x3dae37b3	0.085067175
92	0xbe63b56c	-0.22237176
93	0xbe859d95	-0.26096788
94	0xbe303643	-0.17208199
95	0x3e4e0e2d	0.20122595
96	0xbe50b24e	-0.20380518
97	0xbe254fe7	-0.16143762
98	0xbebd6a2b	-0.36995062
99	0xbe8fd29c	-0.2809037
100	0xbe461214	-0.19342834
101	0xbdd6cdaf	-0.1048845
102	0x3e06760a	0.13130966
103	0x3e568feb	0.20953338
104	0xbdd50e29	-0.104030915
105	0x3d645b0e	0.0557509
106	0xbdf6fa21	-0.12059427
107	0x3dc2e8e7	0.09517079
108	0xbece257b	-0.4026297
109	0x3bfd5efd	0.0077322708
110	0x3ecb8c6c	0.3975557
111	0xbe6a219a	-0.2286438
112	0x3aa76c80	0.0012773424
113	0xbeb02d4b	-0.34409556
114	0x3b5ab1f7	0.0033370235
115	0x3e60745a	0.21919385
116	0xbe13570e	-0.14388677
117	0xbd34722a	-0.044054188
118	0xbe04d6f8	-0.12972629
119	0x3d66e9d5	0.056375343
120	0x3e1280ca	0.14306942
121	0xbdabb954	-0.08384958
122	0x3dd55e25	0.10418347
123	0xbd9e0360	-0.077154875
124	0x3de089f4	0.109638125
125	0x3e205674	0.15657979
126	0x3e6fece6	0.23430213
127	0x3c3fc18f	0.011703863
128	0xbdce0f51	-0.10061515
129	0x3e95e179	0.29273584
130	0x3d00a28e	0.031405024
131	0x3d353b3c	0.044245943
132	0xbc60eaba	-0.013727838
133	0xbdbb63ce	-0.091498956
134	0x3ba5c963	0.0050594076
135	0xbdd7d20a	-0.10538109
136	0xbd4e3696	-0.050345026
137	0xbd978c11	-0.073997624
138	0xbdd8a98f	-0.10579216
139	0x3c19acf0	0.00937961
140	0xba0c8330	-0.00053601246
141	0x3baba633	0.0052383184
142	0xbdd91f70	-0.10601699
143	0x3d5abfa1	0.053405408
144	0x3d1ea439	0.038730834
145	0xbc3123f5	-0.0108117955
146	0x3eb93ad3	0.36177692
147	0xbe537f93	-0.20654134
148	0x3e12de4d	0.14342614
149	0xbd4edd9a	-0.050504304
150	0x3e2daf0a	0.16961303
151	0x3e2f8fe7	0.17144738
152	0xbde672b3	-0.11252346
153	0xbc51e832	-0.012811707
154	0xbe2445da	-0.16042271
155	0xbd8a3dd4	-0.06750074
156	0x3d4e37b2	0.050346084
157	0x3e5e4495	0.2170585
158	0x3e746e30	0.23870158
159	0xbd30c1cc	-0.04315357
160	0x3e6f748a	0.233843
161	0xbe90f141	-0.28309062
162	0xbdedbad6	-0.11607902
163	0xbc7e45f4	-0.015519608
164	0x3c7174b5	0.014737298
165	0x3ea7ec25	0.3279735
166	0xbe03e5b9	-0.12880601
167	0xbdb49962	-0.08818318
168	0x3e665abc	0.2249555
169	0x3d743abf	0.059626337
170	0x3e9f8016	0.3115241
171	0xbec7b41c	-0.390046
172	0x3e3e807c	0.186037
173	0xbe49bc3c	-0.19700712
174	0x3d5d6d52	0.054059334
175	0xbda6102f	-0.081085555
176	0xbe202adf	-0.15641354
177	0x3dadf3e6	0.084937856
178	0x3d73cfc2	0.059524305
179	0x3ed29c6b	0.41134962
180	0x3c483c5e	0.012221424
181	0xbe383fa5	-0.17993028
182	0xbd93ad1f	-0.072107546
183	0xbdaaeadd	-0.08345578
184	0x3eb73dde	0.35789388
185	0xbe3a6dad	-0.182059
186	0xbda034cc	-0.0782257
187	0xbc9a2272	-0.018815253
188	0xbeadd69a	-0.3395279
189	0xbe46b4e8	-0.19404948
190	0xbe3bdfa2	-0.18347028
191	0xbe49ab91	-0.19694354
192	0xbd7b41db	-0.0613421
193	0xbc493334	-0.012280274
194	0xbda7d408	-0.081947386
195	0x3e38db9a	0.18052521
196	0x3c2bad30	0.010478303
197	0x3e85a93d	0.2610568
198	0xbe075561	-0.13216163
199	0xbdc00358	-0.09375638
200	0xbe101a51	-0.14072539
201	0xbd23275f	-0.03983247
202	0xbe745698	-0.23861158
203	0x3d076dcd	0.0330637
204	0x3e8ce7a4	0.27520478
205	0xbe4608d6	-0.19339308
206	0x3cd52c2b	0.026022037
207	0xbe17331c	-0.1476559
208	0xbd5f0b06	-0.054453872
209	0xbe03af10	-0.1285975
210	0x3e02d909	0.12778105
211	0x3d4ad470	0.049519002
212	0x3e25fb19	0.16209067
213	0x3dd12b7e	0.102133736
214	0x3d9fc6ff	0.07801627
215	0xbcaa716c	-0.020806037
216	0xbe6d7737	-0.23190008
217	0x3db73d68	0.08947259
218	0xbe5e646e	-0.21717998
219	0xbde51822	-0.111862436
220	0xbc94245a	-0.01808374
221	0xbda03b6e	-0.07823835
222	0xbe3571dd	-0.17719217
223	0xbe3f4251	-0.18677641
224	0x3c17a988	0.009256728
225	0x3e2e3329	0.17011704
226	0xbdad3021	-0.084564455
227	0x3da04faa	0.07827695
228	0xbd69ef70	-0.05711311
229	0xbda6a453	-0.08136811
230	0x3e96f684	0.29484951
231	0xbe88835e	-0.26662725
232	0x3e613b6f	0.21995328
233	0xbe9c9676	-0.30583543
234	0x3d608540	0.054814577
235	0x3c892124	0.016739435
236	0x3e18165e	0.14852282
237	0xbd99a7e7	-0.07502728
238	0x3e142995	0.14468987
239	0xbe5dc14f	-0.21655773
240	0xbe27aeaa	-0.16375223
241	0xbe53658a	-0.20644203
242	0x3ea6863f	0.32524297
243	0xbe8fad85	-0.28062072
244	0xbe53ad54	-0.20671588
245	0xbdf8f011	-0.12155164
246	0xbdac57b5	-0.08415166
247	0x3dc1d195	0.09463803
248	0x3d0edd96	0.03487929
249	0x3b9b7209	0.0047438187
250	0x3da6a8ab	0.081376396
251	0x3ba0b985	0.004904928
252	0xbe051119	-0.12994803
253	0x3defb18e	0.11703788
254	0xbd856d6b	-0.065150104
255	0xbe1605cf	-0.14650653

bias f4 [36]
0	0x3dcf13b2	0.101111785
1	0xbd425fb9	-0.04745457
2	0x3f104a76	0.5636362
3	0x3dc1e8b9	0.094682164
4	0xbe3ab373	-0.18232517
5	0xbb8d8d25	-0.0043198043
6	0x3ceafc3a	0.028684724
7	0xbe45f628	-0.19332182
8	0xbd3d27d7	-0.046180572
9	0xbdabfe87	-0.083981566
10	0x3ebf0ebd	0.37315932
11	0x3e9d8568	0.30765843
12	0x3eb2de5b	0.3493527
13	0x3eaa019f	0.33204362
14	0x3eddd35d	0.4332532
15	0xbd01e747	-0.031714704
16	0xbe7c728e	-0.24653074
17	0x3ee5d310	0.4488759
18	0x3e0de599	0.13857116
19	0x3defbdbe	0.11706112
20	0x3e8d7ae9	0.27632836
21	0xbe5b7468	-0.21431124
22	0xbe4462b9	-0.19178285
23	0x3e4dfdcf	0.20116352
24	0x3d035ea4	0.03207268
25	0xbdf44d8f	-0.11928856
26	0xbe0f0284	-0.13965803
27	0xbc22d2e3	-0.009937975
28	0x3eaedf4b	0.34154734
29	0x3e59cb79	0.21269025
30	0xbe00e605	-0.12587745
31	0xbcfd760e	-0.030940082
32	0xbe40825a	-0.18799725
33	0x3ee7b4a1	0.45254996
34	0x3e81184f	0.25213858
35	0xbe6997e3	-0.22811846

weight f4 [108, 36]
0	0x3e1c94db	0.15291159
1	0x3e657eb5	0.22411616
2	0x3d785f61	0.060637835
3	0xbb7ec602	-0.0038875346
4	0x3d8fe1b6	0.07025473
5	0xbcdca45a	-0.026933838
6	0x3cf351ba	0.029702056
7	0xbd57224a	-0.052522935
8	0xbe2083cb	-0.15675275
9	0x3da7e04d	0.08197079
10	0xbe0db35b	-0.1383795
11	0x3db64ee3	0.08901765
12	0xbce3327c	-0.027734034
13	0x3d8c1de0	0.06841636
14	0xbe7f92f8	-0.24958408
15	0xbd9111ca	-0.07083471
16	0x3c1c4887	0.009538776
17	0x3e47121e	0.19440505
18	0xbd5d2d53	-0.053998303
19	0x3e3ad18f	0.18244003
20	0xbc3d3d49	-0.011550256
21	0x3d202fd8	0.039108127
22	0x3d46ebaf	0.04856461
23	0x3ce00637	0.027346713
24	0xbdf572bd	-0.11984775
25	0xbdc71d6d	-0.097224094
26	0xbd5f42fd	-0.054507244
27	0xbd35216d	-0.04422133
28	0x3bb77bdb	0.0055994815
29	0x3e1d0fab	0.15338008
30	0xbe24d4dd	-0.16096826
31	0x3d92f1b8	0.071750104
32	0xbd8590b9	-0.06521744
33	0x3ddf37a3	0.10899284
34	0x3e34e3ad	0.17664976
35	0xbdb6c5c5	-0.0892444
36	0xbcf77d14	-0.03021101
37	0x3df455ae	0.119304046
38	0x3c84325f	0.0161373
39	0x3e524cbe	0.20537087
40	0x3e068ed1	0.13140418
41	0x3cefa9fd	0.029255861
42	0xbd4df8da	-0.05028615
43	0xbd58d4b4	-0.052937225
44	0x3d94a4bc	0.07257983
45	0xbe2c941e	-0.16853377
46	0x3d2e7295	0.042589743
47	0x3c9c4ba1	0.019079031
48	0xbe63aa14	-0.22232848
49	0xbd78796b	-0.06066267
50	0x3dc0a125	0.09405736
51	0x3dd44ce9	0.10366232
52	0xbd3969a9	-0.04526678
53	0xbc2ae2b6	-0.010430029
54	0xbe1e61ae	-0.1546695
55	0xbd7f1441	-0.062275175
56	0x3e44af41	0.19207479
57	0x3d95e6f4	0.073194414
58	0xbbee4c65	-0.0072722905
59	0xbdb76150	-0.08954108
60	0xbd3333e4	-0.04375066
61	0x3dd043be	0.10169171
62	0x3d5e1e34	0.054228023
63	0x3d4cdbbd	0.050014246
64	0xbd2c1812	-0.042015143
65	0x3bae16ba	0.005312768
66	0x3e9dfe72	0.3085819
67	0x3e86dd0b	0.26340517
68	0xbe02bab1	-0.1276653
69	0x3d98a55a	0.07453413
70	0xbe3b0b5a	-0.18266049
71	0xbe128a58	-0.14310586
72	0x3dfa6858	0.12226933
73	0xbdf3316b	-0.1187466
74	0x3d326702	0.043555267
75	0x3e1a3e5b	0.15062849
76	0x3e26f915	0.16305955
77	0x3e2f7cb5	0.17137416
78	0xbe4b8eb3	-0.19878654
79	0xbdaa85c2	-0.083262935
80	0x3dd298fb	0.10283085
81	0xbe1e63f8	-0.15467823
82	0xbd03a7ea	-0.032142557
83	0xbda55b97	-0.0807411
84	0xbd6436ac	-0.0557162
85	0x3e903c69	0.2817109
86	0xbdfd8908	-0.12379652
87	0xbd232ab9	-0.039835665
88	0x3dd969b4	0.106158644
89	0x3e49556a	0.19661489
90	0xbc121f2a	-0.008918563
91	0x3dc80c12	0.09767927
92	0xbe14cd9d	-0.1453156
93	0x3d95c98c	0.07313833
94	0x3dc28aaa	0.09499104
95	0xbe171c53	-0.14756899
96	0xbdd9d494	-0.10636249
97	0xbd749b65	-0.05971851
98	0xbc82ca45	-0.01596559
99	0x3be35274	0.0069373194
100	0xbd2c9fa3	-0.04214443
101	0x3e1a0f3b	0.15044872
102	0x3da586ee	0.080823764
103	0x3cf2f897	0.029659552
104	0x3c824e81	0.015906574
105	0x3cfa0fe1	0.03052515
106	0x3b94f6fc	0.0045460444
107	0xbd1823eb	-0.03714363
108	0x3e357adf	0.17722653
109	0x3e40bf30	0.18822932
110	0xbe27b548	-0.16377747
111	0xbdfe5022	-0.12417628
112	0x3e2bc1a8	0.16773093
113	0xbe3deb3a	-0.18546763
114	0x3db6d245	0.089268245
115	0xbd5b728e	-0.053576045
116	0x3c6ec413	0.014573115
117	0xbe1c0f18	-0.15240133
118	0xbc25206b	-0.01007853
119	0x3defc0ac	0.11706671
120	0x3e825c73	0.25461158
121	0x3dd30ec1	0.103055485
122	0xbe2d8e2f	-0.1694877
123	0xbe022098	-0.12707746
124	0x3d9d0eac	0.07668814
125	0x3c9b544a	0.01896109
126	0x3dc9b132	0.098482504
127	0xbd4adb30	-0.04952544
128	0xbb8d2cb3	-0.004308307
129	0x3e5d8ada	0.21634999
130	0xbd292928	-0.041299015
131	0x3eb36e27	0.35044977
132	0x3c157f6e	0.00912462
133	0x3c725600	0.014791012
134	0x3d6a1bb4	0.057155326
135	0x3e057adb	0.13035147
136	0xbdb20ffe	-0.086944565
137	0xbd0a0b4d	-0.033702184
138	0xbe2d5ffc	-0.16931146
139	0xbe3f11fb	-0.18659203
140	0x3d84f452	0.06491913
141	0x3daa6161	0.08319355
142	0x3e0b9a23	0.13633017
143	0xbdd9b4af	-0.10630166
144	0x3ccbcab3	0.024876928
145	0xbc6413a2	-0.013920696
146	0x3d5068d6	0.05088123
147	0xbc928165	-0.017883966
148	0x3d9b09af	0.075702064
149	0x3e7d48a7	0.24734746
150	0x3d9921f3	0.074771784
151	0x3e02482b	0.12722842
152	0xbda27f68	-0.07934457
153	0xbdfa5550	-0.12223303
154	0x3dfe9b63	0.124319814
155	0xbda139e7	-0.07872372
156	0x3e7f8149	0.24951662
157	0xbc4b9ba3	-0.012427243
158	0x3de9d6bf	0.11417913
159	0x3e71985b	0.23593275
160	0xbd5bef77	-0.05369517
161	0x3e4a92d2	0.1978257
162	0xbdf7ad43	-0.12093594
163	0x3cc768ef	0.024342028
164	0xbd9ec14d	-0.07751713
165	0xbd48ec45	-0.04905345
166	0x3d3c2fd2	0.045944043
167	0xbd6557d0	-0.055991948
168	0xbe43d5ea	-0.1912457
169	0xbc6a64f5	-0.014306297
170	0x3e3f8c7e	0.18705937
171	0x3bcb6484	0.0062070508
172	0xbdabda4e	-0.08391248
173	0x3e758e63	0.23980097
174	0x3d8cb8c2	0.06871177
175	0xbc1b29d1	-0.009470419
176	0x3cbb282d	0.022846306
177	0xbdd11c89	-0.10210521
178	0xbd3f2613	-0.04666717
179	0xbdcba168	-0.09942895
180	0xbd85ba7a	-0.06529708
181	0x3e2fa474	0.17152578
182	0xbdcb40cd	-0.09924469
183	0xbd8c0043	-0.068359874
184	0xbdc59208	-0.09646994
185	0x3e340e57	0.17583595
186	0x3df36e66	0.11886291
187	0xbdf15cc5	-0.117852725
188	0xbdb37255	-0.087620415
189	0xbdaeb41c	-0.08530447
190	0x3e0b299d	0.13590093
191	0x3da82943	0.08210995
192	0xbda2430b	-0.07922944
193	0xbd57e112	-0.05270488
194	0xbdbdecca	-0.092736796
195	0x3d15d397	0.03657874
196	0xbe0dbc83	-0.13841443
197	0x3de6694a	0.11250551
198	0xbdd729e0	-0.10506034
199	0x3abe490a	0.0014517617
200	0xbb08e8a4	-0.0020890618
201	0xbd41dca9	-0.04732958
202	0x3dcc8a19	0.099872775
203	0x3c2f3dd7	0.010695896
204	0xbdab691b	-0.08369657
205	0xbd955cf5	-0.07293121
206	0x3e0afefb	0.1357383
207	0xbd853ff8	-0.06506342
208	0xbdee91bb	-0.1164889
209	0x3ca391be	0.019966956
210	0x3d84ec5e	0.06490396
211	0x3d41610e	0.0472117
212	0xbb6776ce	-0.0035318616
213	0x3e74c259	0.23902263
214	0x3de958c7	0.11393886
215	0x3ddbfea3	0.107419275
216	0xbe11a20c	-0.14221972
217	0xbe1ce4c8	-0.15321648
218	0xbe0568da	-0.13028279
219	0x3e09c5ab	0.1345431
220	0xbc939508	-0.0180154
221	0x3c1579d7	0.009123287
222	0x3de995d4	0.114055306
223	0xbe21e2cf	-0.15809177
224	0xbe382a2a	-0.17984834
225	0x3da2aeb9	0.07943482
226	0xbe02be9a	-0.12768021
227	0xbc96c379	-0.018403756
228	0x3d28d769	0.041221056
229	0x3db4f9e2	0.08836724
230	0x3e0e00c1	0.13867475
231	0x3c2c605f	0.0105210235
232	0xbd80aa4b	-0.06282481
233	0x3d8071db	0.06271716
234	0xbd1c0991	-0.03809506
235	0x3e164a1e	0.14676711
236	0xbda1f2a9	-0.07907612
237	0xbd6b8dca	-0.057508267
238	0xbccdee6b	-0.0251381
239	0x3da625ec	0.08112702
240	0x3e32db13	0.17466383
241	0x3de2fd2f	0.11083447
242	0xbc8602fc	-0.016358845
243	0x3c2d7baf	0.0105885705
244	0x3daea4e6	0.08527546
245	0xbd6e1ec0	-0.058134794
246	0x3e14bdc1	0.1452551
247	0x3e763efc	0.24047464
248	0x3cd96106	0.026535522
249	0x3e893a3a	0.26802236
250	0xbe03a189	-0.1285459
251	0xbe05a8a1	-0.13052608
252	0xbd04acc4	-0.032391325
253	0x3e4e242d	0.20130987
254	0x3dc4876c	0.09596142
255	0x3d35a17c	0.044343457

bias f4 [108]
0	0xbdb38659	-0.08765859
1	0x3caeb4b7	0.021326406
2	0x3e636ebf	0.22210215
3	0xbd067816	-0.032829367
4	0xbc82e2e4	-0.01597733
5	0xbcff24fe	-0.031145569
6	0xbe046025	-0.12927301
7	0xbe16c048	-0.14721787
8	0x3e0193d0	0.12654042
9	0xbd82d4ac	-0.0638822
10	0xbd076099	-0.033051107
11	0xbd6ad3f3	-0.057331037
12	0x3dc54142	0.096315876
13	0x3e0edc9e	0.13951346
14	0x3e82c113	0.2553793
15	0x3d3f56a0	0.04671347
16	0xbd2bbaa5	-0.041926045
17	0x3c910d99	0.01770668
18	0x3e500ec9	0.2031814
19	0x39c1fc85	0.0003699997
20	0x3bd03d4f	0.006354965
21	0xbe3363c0	-0.1751852
22	0xbbfe612d	-0.007763049
23	0xbd25e71b	-0.040503602
24	0xbdd26af0	-0.10274303
25	0x3eb75642	0.35807997
26	0x3e2ec079	0.1706561
27	0x3e64232d	0.22279043
28	0x3e371d2c	0.17882222
29	0xbd09d9ea	-0.033655085
30	0xbd3d7fca	-0.046264447
31	0xbb408637	-0.0029376873
32	0xbd03a8c3	-0.032143366
33	0x3e2c12e2	0.16804078
34	0xbd85bbb8	-0.06529945
35	0xba9bb366	-0.0011879026
36	0x3e239911	0.15976359
37	0x3dcf509b	0.10122796
38	0x3d1023bd	0.035190333
39	0xbddea306	-0.10870938
40	0x3e8d0db9	0.27549532
41	0xbde696e3	-0.11259248
42	0x3ec53345	0.38515678
43	0x3e0734da	0.13203755
44	0xbd01bd7e	-0.031674854
45	0x3d810536	0.06299822
46	0x3d52a97d	0.051431168
47	0xbdaeaf3e	-0.085295185
48	0xbe3e450c	-0.18581027
49	0x3e1f4393	0.15553121
50	0x3e20652e	0.15663597
51	0x3e236aac	0.15958661
52	0x3c849e8b	0.01618888
53	0x3e01eafa	0.12687293
54	0x3dc681d2	0.0969273
55	0xbd3eab2d	-0.046549965
56	0xbbec08dc	-0.0072032046
57	0xbd9f98b1	-0.077927954
58	0xbbf21a3c	-0.0073883813
59	0xbe04164d	-0.12899132
60	0x3e4e0e21	0.20122577
61	0x3dcd9e4e	0.1003996
62	0x3e520bcc	0.20512313
63	0xbe140461	-0.14454795
64	0xbd53c0af	-0.05169743
65	0xbccf37fd	-0.025295252
66	0x3b148ec0	0.0022668093
67	0xbd901493	-0.07035174
68	0x3e2025b2	0.1563938
69	0x3da582b7	0.080815725
70	0x397f18e0	0.00024327962
71	0x3c5c49ff	0.013445376
72	0x3e19e25b	0.15027754
73	0xbdd5e50e	-0.10444079
74	0xbdd768a7	-0.10518008
75	0x3be038db	0.006842715
76	0x3ddf5e64	0.109066755
77	0x3d68cda8	0.056836754
78	0x3e4c16c0	0.19930553
79	0x3e041edf	0.12902401
80	0x3db216c5	0.08695749
81	0xbe207c4f	-0.1567242
82	0x3b87aa5a	0.0041401805
83	0xbdda0c90	-0.10646927
84	0xbd4271a7	-0.04747167
85	0xbd48abf1	-0.0489921
86	0x3cc81b10	0.024426967
87	0xbdf75193	-0.12076106
88	0xbe025694	-0.1272834
89	0xbd8e6422	-0.069526926
90	0xbe39acd4	-0.18132335
91	0x3ddc2e7e	0.10751055
92	0xbd864388	-0.06555849
93	0xbd6bcec1	-0.057570223
94	0x3e1641c6	0.14673528
95	0x3e1558f6	0.14584717
96	0xbdeea8b6	-0.11653273
97	0x3dc23e9e	0.094845995
98	0x3e2dbe7a	0.16967192
99	0x3e0c3ae5	0.13694341
100	0xbe14c040	-0.14526463
101	0x3dcb99d1	0.099414475
102	0xbdc8208c	-0.09771833
103	0x3e127732	0.14303282
104	0xbc83dae5	-0.016095588
105	0x3e551d9a	0.20812073
106	0xbd5f144b	-0.054462712
107	0x3c5e9428	0.013585128

weight f4 [60, 108]
0	0x3d78b3cf	0.060718354
1	0xbe1602ef	-0.14649557
2	0xbd0fd990	-0.035119593
3	0x3e00f6a2	0.12594083
4	0x3e67a053	0.22619753
5	0x3d6f73fa	0.058460213
6	0xbd24a2d1	-0.040194336
7	0x3bc20258	0.0059206896
8	0x3e11bcb5	0.14232142
9	0x3af67b18	0.0018804995
10	0xbdb74cd4	-0.08950201
11	0x3c9c8ce3	0.019110149
12	0x3e1efa61	0.155252
13	0xbe357ae1	-0.17722656
14	0xbd610743	-0.054938566
15	0xbc3a8dc0	-0.011386335
16	0x3bfe83a4	0.0077671576
17	0x3e065206	0.13117227
18	0xbd2bff7d	-0.0419917
19	0xbd7ca6d3	-0.061682533
20	0xbcad9496	-0.021189015
21	0x3dc0294b	0.09382876
22	0x3cfac0f3	0.030609583
23	0xbd5bbed3	-0.05364878
24	0xbb026bb3	-0.001990062
25	0xbe399d67	-0.1812645
26	0xbe0437ef	-0.12911962
27	0xbe1e666a	-0.15468755
28	0xbe409786	-0.18807802
29	0xbe1970dd	-0.1498446
30	0xbe242255	-0.16028722
31	0x3e5022ae	0.20325729
32	0xbe2db3f5	-0.1696318
33	0xbd682736	-0.05667802
34	0xbe0bb3a9	-0.13642754
35	0xbce77dda	-0.028258253
36	0x3d96b548	0.073587954
37	0x3e589bcb	0.2115318
38	0x3c9e8e96	0.0193551
39	0xbd914009	-0.07092292
40	0xbe59f4db	-0.21284811
41	0x3d365a0b	0.044519465
42	0xbe386e0a	-0.18010727
43	0x3c207891	0.00979437
44	0xbdaabb77	-0.08336537
45	0x3ca830ad	0.020531023
46	0xbc2bde3b	-0.010489996
47	0xbe5d7a07	-0.21628581
48	0x3d4664b0	0.048435867
49	0x3e1133f8	0.14179981
50	0xbd976d8d	-0.07393942
51	0x3cb1802a	0.021667559
52	0xbe1459a2	-0.14487317
53	0x3e86fa5f	0.26362893
54	0x3e51086f	0.20413373
55	0x3db2bfdd	0.08728001
56	0x3ceb6dfc	0.028738968
57	0x3d8b80be	0.06811665
58	0x3c5bf2bb	0.013424571
59	0x3c8ea70f	0.017413644
60	0x3d195443	0.037433874
61	0x3afc4e8b	0.0019249482
62	0xbdb21e76	-0.08697216
63	0x3d72939b	0.0592228
64	0xbe318031	-0.17334057
65	0xbd3f50df	-0.046707984
66	0xbc2ba5a2	-0.010476502
67	0xbd85f18b	-0.06540211
68	0x3db0bf89	0.086302824
69	0x3d30e8a1	0.043190602
70	0x3dc6e29b	0.0971119
71	0x3e6275fb	0.22115318
72	0xbd9b4ee3	-0.07583406
73	0xbe1299de	-0.14316508
74	0x3d4748cf	0.04865342
75	0x3d265f5a	0.040618278
76	0x3c06e83b	0.008234079
77	0xbe210d4f	-0.15727733
78	0x3e54ecc7	0.20793448
79	0xbd8e04a2	-0.069344774
80	0x3c6f8d31	0.014621065
81	0x3da5cc0b	0.08095559
82	0x3bf214af	0.0073877196
83	0xbd8afdb3	-0.067866705
84	0xbe0baff8	-0.13641346
85	0xbd841192	-0.06448664
86	0x3dcb496a	0.09926112
87	0x3d173d72	0.036923833
88	0x3c17b1a4	0.009258661
89	0xbd312c53	-0.04325516
90	0x3cd89369	0.026437478
91	0x3df3ba68	0.119007885
92	0x3d956930	0.072954535
93	0xbd084dec	-0.033277437
94	0xbe44796a	-0.19186941
95	0x3d8ef432	0.0698017
96	0xbd1d5181	-0.038407806
97	0x3d38f4d5	0.045155365
98	0x3dcb7379	0.09934134
99	0xbd372e00	-0.044721603
100	0x3d7f9374	0.06239648
101	0x3d43b3f3	0.047779035
102	0x3d67dde2	0.05660809
103	0x3df3d4b7	0.119058065
104	0xbdc46626	-0.09589796
105	0xbe1ef89d	-0.15524526
106	0xbcd3bbb4	-0.02584634
107	0xbd6dca8e	-0.0580545
108	0xbcda81e3	-0.026673263
109	0xbe063dd7	-0.13109528
110	0x3d324be3	0.043529402
111	0x3e0e0f16	0.13872942
112	0x3e49a698	0.19692457
113	0x3d45816d	0.048219133
114	0xbd2970ed	-0.04136746
115	0x3d504bc2	0.0508535
116	0x3dce33fb	0.10068508
117	0x3d04227b	0.032259446
118	0xbd7fc40c	-0.062442824
119	0x3dd394f1	0.10331143
120	0x3de23f21	0.11047197
121	0xbe26d947	-0.16293822
122	0xbccbcff6	-0.024879437
123	0x3de58afe	0.11208151
124	0x3cd32a4f	0.02577701
125	0x3dbb7209	0.0915261
126	0xbcb227f8	-0.021747574
127	0xbdb57cd3	-0.08861699
128	0xbc3fed17	-0.0117142415
129	0xbd430b01	-0.047617916
130	0xbd269568	-0.04066983
131	0x3d11cf8f	0.035598334
132	0xbccc9d58	-0.024977371
133	0xbe0fca9d	-0.14042135
134	0xbdf574af	-0.11985146
135	0xbe21e7b0	-0.15811038
136	0xbe2b21b8	-0.16712081
137	0xbe3984ae	-0.1811702
138	0xbdef3381	-0.116797455
139	0x3e3c08a3	0.1836267
140	0xbe3b85b8	-0.18312728
141	0xbde2eb63	-0.11080053
142	0xbd202590	-0.039098322
143	0x3bd0ac65	0.0063682073
144	0x3ccb67b5	0.024829725
145	0x3e53ec21	0.20695545
146	0x3c85ce90	0.016333848
147	0xbcdb2b5b	-0.026754072
148	0xbe300750	-0.1719029
149	0x3d2867f9	0.04111478
150	0xbdcb882a	-0.099380806
151	0x3c8063a8	0.01567252
152	0x3db02599	0.08600921
153	0x3d52336f	0.051318582
154	0xba3f96d4	-0.0007308547
155	0xbe2d2d87	-0.16911899
156	0xbd896454	-0.06708589
157	0x3d084c16	0.033275686
158	0xbde6e001	-0.11273194
159	0x3d6c7f3a	0.05773852
160	0xbe31c83f	-0.17361544
161	0x3e617c3d	0.2202005
162	0x3e396e51	0.18108489
163	0xbda231a3	-0.07919624
164	0xbc5ef98f	-0.013609304
165	0x3d2c79fb	0.042108517
166	0x3d978f2f	0.07400357
167	0x3cefab17	0.029256387
168	0x3c22b4e7	0.009930826
169	0xbd1955f7	-0.037435498
170	0xbda8495e	-0.08217119
171	0xbd7c5d26	-0.06161227
172	0xbddafb67	-0.106924824
173	0xbd6d821b	-0.057985406
174	0xbdc4b37f	-0.09604549
175	0x3d1a4a79	0.03766868
176	0x3d9ba50a	0.07599838
177	0x3dd9181d	0.10600302
178	0x3e08c13d	0.13354965
179	0x3e620721	0.22073032
180	0xbcaedd8f	-0.021345882
181	0xbdeb1d21	-0.11480165
182	0x3dc0539a	0.09390946
183	0xbd3bf950	-0.04589206
184	0x3cdb7efc	0.02679395
185	0xbe16ae93	-0.14715032
186	0x3e546934	0.20743257
187	0xbe035d3b	-0.12828533
188	0xbb902cde	-0.00439988
189	0x3d146c51	0.03623611
190	0x3d86421f	0.0655558
191	0xbb321e77	-0.0027178803
192	0xbdf3d237	-0.1190533
193	0xbdcf00df	-0.10107588
194	0x3e011206	0.12604532
195	0xbd868adc	-0.06569454
196	0xbd93e8b8	-0.07222122
197	0xbdab599c	-0.08366701
198	0x3d9a2170	0.07525909
199	0x3d631464	0.055439368
200	0x3d82d565	0.06388358
201	0x3c2deda5	0.010615741
202	0xbe18413d	-0.14868636
203	0x3d8296db	0.0637643
204	0x3da220e2	0.07916428
205	0xbbe1f48c	-0.0068956073
206	0x3dd37fe0	0.103271246
207	0x3b92419c	0.0044633877
208	0x3c80a09c	0.015701585
209	0x3c18b091	0.00931944
210	0x3d62fdb5	0.055417735
211	0x3e0f9633	0.1402214
212	0xbdb36c79	-0.08760924
213	0xbe190d09	-0.14946379
214	0x3d5a35e8	0.053274065
215	0xbd4b7a65	-0.04967727
216	0x3da36cce	0.07979737
217	0xbe018224	-0.12647301
218	0x3d91e7d3	0.07124295
219	0x3e1eea72	0.15519121
220	0x3e21cb75	0.15800269
221	0xbd37de62	-0.044889815
222	0xbdbc113c	-0.09182975
223	0x3d45a830	0.0482561
224	0x3e0a33a5	0.13496263
225	0x3dbafc9c	0.09130213
226	0xbd9bbf2f	-0.07604825
227	0x3d074d11	0.03303248
228	0x3d9943b0	0.074836135
229	0xbbd98407	-0.0066380533
230	0x3d09856b	0.033574503
231	0x3db69e9a	0.089169696
232	0x3c0a4463	0.008439156
233	0x3d2700f8	0.04077241
234	0xbcb078c6	-0.021541964
235	0xbc47d688	-0.012197144
236	0xbc6c4f27	-0.014423168
237	0xbbcd8de3	-0.0062730177
238	0xbcd29373	-0.025705075
239	0x3db08493	0.086190365
240	0xbd47767e	-0.048696987
241	0xbdacda45	-0.08440069
242	0xbda395ba	-0.079875425
243	0xbd383c0b	-0.044979136
244	0xbe16a288	-0.14710438
245	0xbe0df7e4	-0.13864094
246	0xbe0ec2bd	-0.13941474
247	0x3e2898cc	0.16464537
248	0xbe44783a	-0.19186488
249	0xbd32a1bb	-0.04361127
250	0xbc84103a	-0.016121019
251	0xbd789f69	-0.0606989
252	0xbc4af76f	-0.012388094
253	0x3e308745	0.17239101
254	0x3ac315d8	0.0014883829
255	0x3d518332	0.05115051

bias f4 [60]
0	0xbd7039c2	-0.058648832
1	0xbd661fc3	-0.056182634
2	0xbd0d9286	-0.034563564
3	0x3bc736fe	0.0060795536
4	0x3d0226dc	0.03177534
5	0x3da4cb92	0.080466405
6	0x3df4ac0c	0.11946878
7	0x3d998d60	0.07497668
8	0xbd3bc262	-0.045839675
9	0x3b749d66	0.0037325262
10	0xbd1d8311	-0.038455073
11	0xbdcd3202	-0.10019304
12	0xbdba0bc2	-0.09084274
13	0xbdf37194	-0.11886898
14	0xbdc07818	-0.09397906
15	0x3d742280	0.059603214
16	0x3a94e670	0.001136018
17	0x3d685d91	0.056729857
18	0x3d96e336	0.07367556
19	0x3e2d6d93	0.1693633
20	0x3e478b60	0.19486761
21	0x3e32dda0	0.17467356
22	0x3d643f7a	0.0557246
23	0xbd98f255	-0.07468096
24	0xbdfe82b2	-0.12427272
25	0xbda1e02f	-0.07904088
26	0xbc7e6792	-0.015527623
27	0xbcbdeae8	-0.023183301
28	0x3ad3d271	0.0016160739
29	0xbce0c60f	-0.027438192
30	0x3d16f945	0.036858816
31	0x3e068bb6	0.13139233
32	0x3e0b388a	0.13595787
33	0x3ddf5931	0.10905684
34	0x3e2b7671	0.167444
35	0x3def36b4	0.11680356
36	0x3e059a14	0.13047057
37	0xbc06883c	-0.008211192
38	0x3bf39ac0	0.007434219
39	0xbdf698d8	-0.120408714
40	0xbde3adee	-0.11117159
41	0xbe072f28	-0.13201582
42	0xbdf99afe	-0.121877655
43	0xbd53f8eb	-0.05175106
44	0x3c9d839a	0.019227792
45	0xbcec1e6d	-0.028823102
46	0xbbe5760e	-0.0070025986
47	0xbd30283a	-0.043007113
48	0xbd28a6ce	-0.041174702
49	0xbdaf8e72	-0.08572091
50	0xbe2ccb86	-0.16874513
51	0xbdba70c9	-0.09103543
52	0xbd8303b7	-0.06397193
53	0x3cd3a382	0.025834803
54	0x3cf6ecc6	0.0301422
55	0x3d0d3dea	0.034482874
56	0x3b782f82	0.0037870114
57	0x3b8d94f6	0.004320736
58	0x3d0a56dd	0.033774246
59	0x3dae6673	0.085156344
