knn/models/pretrained-autoencoder/autoencoder-in_features90-latent_size30.pt (torch, 432334 bytes, 12 tensors)

weight f4 [270, 90]
00000000: 652e 37bd f9e7 013d 4423 f2bb 9277 3cbc
00000010: f105 2d3d 5780 0fbd 8c61 96bd 79cb c8bd
00000020: 8fe8 0fbe 2f65 1ebd f91f ddbd 2966 68bd
00000030: 0f67 8e3c e318 b43d a0b8 f43c 54a1 693d
00000040: b617 8d3d 2c20 fbbc 48c6 193c f450 bdbc
00000050: 5d9b 51bd d5c3 9e3d 4001 cabd 6924 afbc
00000060: 6916 fa3c 0548 573d 2d84 e2bb 8c73 cdbd
00000070: 40fb 73bc 2517 4bbc 2ec7 ad3c 6263 473d
00000080: 925d 8cbd 0462 9b3d aa9e e1bc 709b 033d
00000090: 51ff cd3d ae78 3d3d 74a2 823d 844f d63d
000000a0: ba96 6f3d d538 263c 8362 993c f084 b53d
000000b0: c97d 793c 9f57 cd3c ebd1 d63d 7967 99bd
000000c0: 70a4 353b 3380 01bd 2640 87bd 40f7 3d3d
000000d0: 7f04 603d 436f adbc d3d9 d5bc f05d a9bd
000000e0: f6eb c3bd 073c f83c 7e07 8bbd 57b2 c3bd
000000f0: d931 843d 2b54 943c 315a 0d3e cb3a 33bc
00000100: 110c 0f3d c928 90bd cc90 bc3c 5a1a 56bc
00000110: 9de3 e7bd 74a4 bb3d 24ba efbc 8806 4dbd
00000120: f7be 24bd ece4 923d 3323 a53d f12c 02bc
00000130: 8b3c 94bc 3b90 93bd b64d cabb 77ad 653d
00000140: a254 c8bb 9e78 4a3d caa4 9bbd 701f bfbd
00000150: 2d9d 7cbd 4eed 6a3d 4eb2 7f3c 14fc 40bc
00000160: 5197 333b 617a c53d bef2 c4bd 4688 363d
00000170: 72ce 87bd 1438 7dbd edee 893c b56c 94bd
00000180: 9c59 62bd 5bf6 9e3d b20f aabd 4cc9 1e3d
00000190: c72a 9ebd bd9c 443d 5434 6bbc 1389 b93d
000001a0: cabd 9dbd 5277 a1bd c9e5 e9bd a080 e4bd
000001b0: d849 633c 1ff2 60bc aa42 873c 5ca9 1cbd
000001c0: ee5d 80bd 6a53 873c 6582 7ebd d7b1 c4bc
000001d0: 17df 0cbd 72e7 cd3d c3b3 043e b830 0c3e
000001e0: 9016 9e3d a3bb 033e 9d5e 5fbd 227a 413d
000001f0: dc13 ebbc 28ca 42bd d4a9 023d 5acb b93d
00000200: a649 893c 075a 6b3d 3653 05be 94ee 6ebd
00000210: 37c8 d1bd 8789 083d 7b64 f3bd 75b4 e3bd
00000220: 1ce0 33bd 3733 c0bd fcbc d1bd 3caf 5f3c
00000230: 3efc d03b 5d32 e43c c154 3f3d ac1b fbbc
00000240: 63aa 813d 3132 483d c599 8cbc 33ad 0a3d
00000250: 961f 4abb 8530 1039 3e37 953c 2aa4 c6bc
00000260: 8643 023d 9d82 01bc 1ef2 fc3c b4bd a6bd
00000270: 2b10 c13d c0a0 4ebc 9ecd 493d ac7f dcbc
00000280: 98ba 7d3c 8839 3a3b 7271 a5bd bf2a 993d
00000290: db54 9abd 77ca ee3b 88f3 3fbc 6b93 78bd
000002a0: 711e ae3c 48d7 de3d 4bf3 893d c25f c0bc
000002b0: 6675 c5bd e2a9 92bd 9af1 f0bb 5b06 493c
000002c0: 3d71 d03d 97c2 a83d f3d0 b93d a379 1d3d
000002d0: 892c d23d 83fd 7f3d 9621 5c3d 7463 cdbd
000002e0: 9410 ccbd b5d3 863d f081 cbbd a6da bf3d
000002f0: cba3 47bd faae 54bd 9eca 25bb 6295 5ebc
00000300: ec61 693d aaaf dfbb ecfa 17be ca69 babc
00000310: c6d3 1bbd 37cc febd 300d a63c da44 b4bb
00000320: 3945 57bd aa77 c93d b4e0 94bc 9701 3abd
00000330: 58b9 8a3d 22b5 6b3c 08c8 983d 471b 5dbd
00000340: cb3a 193c 5ffc e9bb efe9 a03c 8323 1dbd
00000350: f5e2 e43d 4f1f f53b ab4a 953d 7f75 013e
00000360: 181e f13b 8941 d93b 6e36 a73d 4a3f 50bd
00000370: 2171 533d bfc6 d0bc 187c 3dbd f112 a9bd
00000380: 0546 d5bd 855e ccbd 542c b6bd 6bea c13c
00000390: c218 903d 8590 e9bc 5a92 10bd 5b99 a6bd
000003a0: 6043 7c3d ce06 2b3d 3734 d1bd 5313 17bd
000003b0: 57d3 1439 f20a e83b 6680 a63d fe00 4e3d
000003c0: a37c 5d3d 958a b4bd 0530 10bd 445e bd3d
000003d0: 46c2 27bb c90d 583d 27c7 183d 7539 ca3d
000003e0: 906d 453d 8a07 ca3d 0ec9 7d3d 25a9 173d
000003f0: 3d3b 253b 0ab0 873d fd4a 60bd 34b5 773d
-0.04472198 0.031715367 -0.007389458 -0.011503117 0.042241994 -0.035034504 -0.07342824 -0.09804434
-0.14053558 -0.038670715 -0.10797114 -0.056738053 0.017383127 0.08793809 0.029873192 0.05703862
0.06889288 -0.03065499 0.009385653 -0.02310989 -0.051173557 0.07752196 -0.0986352 -0.021379666
0.030528264 0.052558918 -0.0069127292 -0.100318044 -0.014891446 -0.012395655 0.02121314 0.048678763
-0.068537846 0.07587054 -0.027541477 0.03213066 0.10058463 0.046257667 0.06378642 0.10464385
0.058493353 0.010145386 0.018723732 0.088632464 0.015227743 0.025066195 0.104892574 -0.07490439
0.002771642 -0.0316164 -0.06604032 0.046378374 0.054691788 -0.021171218 -0.026104843 -0.0826987
-0.0956649 0.03030206 -0.067885384 -0.095555 0.0645482 0.01810654 0.13803937 -0.01093931
0.034923617 -0.07039029 0.023018263 -0.013067806 -0.11322711 0.09162226 -0.029263563 -0.050055057
-0.04022118 0.0717257 0.08063354 -0.007945285 -0.018095275 -0.07205244 -0.0061738146 0.056073632
-0.0061136046 0.049431436 -0.075997904 -0.09332168 -0.061673332 0.057355218 0.015606476 -0.01177885
0.0027403424 0.096424825 -0.09616612 0.044563554 -0.06631173 -0.06182106 0.016837562 -0.07247297
-0.05526124 0.07761832 -0.08303775 0.03876619 -0.07723003 0.04800104 -0.014355738 0.09059348
-0.07702215 -0.07884087 -0.11420781 -0.11157346 0.013872586 -0.013729601 0.01651128 -0.03824745
-0.06267916 0.016519267 -0.062136073 -0.024010582 -0.034392443 0.1005391 0.12959199 0.1369046
0.07719147 0.12864546 -0.05453359 0.047235616 -0.028695993 -0.047556072 0.031900242 0.09071989
0.016758751 0.057458904 -0.13020024 -0.058332995 -0.10243266 0.03333428 -0.118843995 -0.11118404
-0.0439149 -0.093847685 -0.10241124 0.013652619 0.006377726 0.027856046 0.046711687 -0.030652843
0.06331327 0.04887599 -0.017163167 0.033856582 -0.003084158 0.00013750985 0.018214818 -0.024248201
0.031802677 -0.007904676 0.03087717 -0.08141652 0.09426912 -0.012611568 0.049268357 -0.026916347
0.015486382 0.002841564 -0.080782786 0.07478856 -0.07535716 0.0072873193 -0.011715777 -0.060687464
0.02125475 0.108809054 0.067358576 -0.02348316 -0.096415326 -0.07161309 -0.00735302 0.012269582
0.101778485 0.0824024 0.09073057 0.03844608 0.10262401 0.062497627 0.053742968 -0.10028735
-0.099640995 0.06583349 -0.09936893 0.09367876 -0.04874019 -0.051924683 -0.0025297771 -0.01358542
0.05697815 -0.0068263607 -0.14841813 -0.022755522 -0.03804376 -0.12441295 0.02026996 -0.005501372
-0.05255625 0.09837277 -0.018173553 -0.045411672 0.06773633 0.014386447 0.07460028 -0.05398109
0.009352396 -0.0071406807 0.019642798 -0.038363945 0.11176101 0.007480539 0.072896324 0.12642477
0.007358324 0.006630127 0.081646785 -0.050841607 0.05162156 -0.025485395 -0.046260923 -0.08255566
-0.10413746 -0.09978966 -0.08895174 0.02367135 0.07035972 -0.028511295 -0.03529582 -0.08134719
0.06158769 0.041754536 -0.10215037 -0.036883663 0.0001419311 0.007081383 0.08129959 0.050293915
0.05407394 -0.08815495 -0.035202045 0.09246495 -0.0025597974 0.05274752 0.0372993 0.0987424
0.04820019 0.09864719 0.06195932 0.037026543 0.002521231 0.06625374 -0.054759014 0.060475543

bias f4 [270]
00000000: ac8f be3d 8189 82bd 6be3 793c 0a93 13bd
00000010: 8732 583b 40d0 f23d b496 fcbb 9a5c 963d
00000020: 4622 c1bc e369 aa3c a1bf a2bd 9b79 883d
00000030: ca27 0d3d c8b3 7d3d 5f54 a93d 46d7 f9bb
00000040: 2258 2e3d de07 273e 9644 df3c 025f d83d
00000050: 344a 133e 0b35 d2bd 218c 84bb 975d c83d
00000060: 8ef8 75bd 9d0f 993d b33f a33d 0497 e6bc
00000070: 4401 ee3c f084 e9bb 5881 d2bc 35cb 143e
00000080: 1168 103b 3eee 333b c89c 1c3e b5b5 bdbd
00000090: 8ea4 b13b afcc 4c3e f39d d6bc 1d75 8a3d
000000a0: c245 bc3d 7d8a 383c ffb8 fd3c a4fb 653d
000000b0: 00f2 c3bc 9a64 2b3e 4ed6 02bd a95e 333d
000000c0: 6ade 34bd 8aab 22bd 9226 8cbd fd41 38bb
000000d0: dab2 be3d d5e8 c5bc 5fc7 943d c75f 46bd
000000e0: 4c37 2e3e 229e d03c 958b 63bd c08c a23d
000000f0: 3368 32bc 565d 1b3e 3d85 013e c91c c63d
00000100: 3abe 9b3d 64a5 59bd 39b5 173d 8ee0 da3c
00000110: 8e09 b83d 0b5a 643d 8493 f2bc 27c6 753d
00000120: 9a8d f6bb 28f2 9e3c d4d6 113e a9c3 d43d
00000130: fe82 ff3d ea67 003e 3bcd 88bd b234 4e3d
00000140: e056 c3bb 62e7 e7bc 2d17 833d dad8 2abd
00000150: 6d06 663d 8e0c 80bc 6e3c e23d c1e8 1c3e
00000160: 80a2 f43c e008 dc3c d625 b13d f8c4 4abd
00000170: b7a9 9b3c 1098 5ebd 7773 13bc 8ef2 91bd
00000180: ba55 d73d 8c55 2fbd 0a50 c93d 4665 85bd
00000190: d3fc 8e3d eedd 663c ad33 a6bd b6cf 673d
000001a0: 15ea 83bc 14ad 02bc cb9d e83d 64b3 b73d
000001b0: 78b1 d23d 5215 053d df0c e93b afd0 adbd
000001c0: 4290 013e d888 a3bd 2a4f a93d 4315 003e
000001d0: ebd9 6a3d c183 0e3d 4bcb 09bc 947a 193e
000001e0: 93ab ed3c e44d 65bd d7d6 8d3c 356a 473c
000001f0: b724 903c e3f0 103d f68c 6fbd 0bb0 fa3c
00000200: ac83 1c3d 57ce 6e3d e122 50bd c20c 8b3d
00000210: 8f90 27bd fabd 8fbb 5ac8 d83d e95c fabc
00000220: 5c88 c93d d515 0d3d 5907 c43d fab7 c0bc
00000230: 4052 9a3c a8dc ae3c 449b f33c f372 d83d
00000240: 617e 093d d96c f6bc ce0a 9bbd 54f6 7c3c
00000250: c922 db3d 0131 d03d fed2 8f3d 2cfe 1abd
00000260: 574e dc3d a4bf a83d 7026 d93d 829d babc
00000270: 1431 37bc d738 05bd 8a66 e33d 1493 21bd
00000280: 8b3b 563d 1660 c63c 79ac b13d 27dd 0ebc
00000290: 7aa2 d03d afa2 77bc ac56 2f3d 7f21 e6bd
000002a0: 391b 9d3b 7e45 0e3d 97cb 6c3d c647 803d
000002b0: be04 a6ba b9a7 81bd b35c 8dbd 1b9f 8f3d
000002c0: 22c3 853d 40fb 463d 1dbb 9f3d eeaf ec3c
000002d0: 75e5 4c3e 9133 393d 3367 b4bc ac7e 6c3d
000002e0: 5479 5eb9 d69c 66bd 9670 94bc f1a8 b93d
000002f0: fb6b b53d d636 123e 34cd a83d 5c2f d43c
00000300: 7998 073e ffe6 dcbc 93be 9abd 61a1 6c3d
00000310: abe7 17bd b5fb 543d 82bd 853c c054 923d
00000320: 48ec aebd e206 743d c782 0cbb 06ad 853d
00000330: d9df 79bc 2b93 b53d 88a9 0c3d 395e 3a3d
00000340: 5d35 273d 7c49 703d 8f98 3cbc 7e4b 2f3e
00000350: 9350 abbd 0082 18bd b228 343d be75 0c3b
00000360: 23f2 9c3d 46a7 75bb 1072 7fbd 1b33 673d
00000370: c5ea 5e3d e150 643c de20 ebbc 16bc 293e
00000380: a1ee e73d adf6 c83d bb4d c23d a480 893d
00000390: bb33 b93d f4b7 4b3d 855b 5a3d 311d 7a3c
000003a0: d200 a33d 0535 5e3d 3c26 1cbd 42a4 b9bc
000003b0: 1cdc 93bd 009f 823c 908b 66bc 94d0 a43d
000003c0: 1df9 473d b412 413e 110e 213e 3cd6 24bd
000003d0: 3d1e c5bc d05d 1d3d 0727 21bd c1c7 bb3b
000003e0: bcda 833d f73d 1fbb 8211 c33d 5844 333e
000003f0: fa13 563d 8533 e9bc 1c70 9bbc 285f 4bbd
0.09304747 -0.06373883 0.015251975 -0.0360289 0.00329891 0.11856127 -0.007708395 0.07341881
-0.023575913 0.020802444 -0.079467066 0.066638194 0.034461774 0.06193903 0.08268046 -0.0076245395
0.04256452 0.16311595 0.027254384 0.10564996 0.14383775 -0.102640234 -0.004045025 0.09783476
-0.060051493 0.07473681 0.07971134 -0.028148182 0.029053338 -0.007126443 -0.025696442 0.14530642
0.0022034685 0.0027455236 0.15294182 -0.092631735 0.005421228 0.19999956 -0.026198363 0.06760619
0.09192993 0.011263487 0.030972002 0.056148186 -0.023919106 0.16737595 -0.031942658 0.043791447
-0.044157423 -0.039714374 -0.06843294 -0.0028115504 0.09311457 -0.024158875 0.072645895 -0.048431184
0.17013282 0.025466029 -0.055553038 0.07937002 -0.010889101 0.15172324 0.12648483 0.09673459
0.07604642 -0.053136244 0.03703806 0.026718404 0.089861974 0.055749934 -0.029611357 0.060003426
-0.0075242044 0.019402578 0.14242107 0.10388882 0.12476157 0.1253964 -0.066797696 0.050343223
-0.005961284 -0.028308574 0.06400905 -0.041710712 0.05615847 -0.015630987 0.11046682 0.15323164
0.029862642 0.0268597 0.08649795 -0.04950425 0.019001825 -0.054344237 -0.008999697 -0.07126342
0.10514398 -0.042806193 0.09829719 -0.06513457 0.06981816 0.014090998 -0.08115325 0.056594573
-0.01610283 -0.007975835 0.113582216 0.08969763 0.10287756 0.032491036 0.00711213 -0.08487069
0.12652686 -0.07985085 0.082670525 0.1250811 0.05733673 0.03479362 -0.008410285 0.14988166
0.029012477 -0.055982485 0.017314358 0.012171318 0.017595632 0.035385977 -0.05848404 0.030601522
0.03821151 0.05830225 -0.050814513 0.06789543 -0.040909346 -0.0043866606 0.10585089 -0.030561881
0.098404616 0.03444465 0.09571714 -0.023525227 0.018838048 0.021345451 0.029737122 0.105688
0.03356779 -0.0300812 -0.0757042 0.015439589 0.10699994 0.10165597 0.070226654 -0.037840053
0.1075713 0.082396775 0.106030345 -0.022780184 -0.011181135 -0.03252491 0.11103542 -0.039446905
0.05230288 0.02421574 0.08675475 -0.008719719 0.1018724 -0.01511447 0.042807266 -0.112368576
0.004794505 0.03473424 0.057811346 0.0626369 -0.0012666208 -0.06330819 -0.069024466 0.07012769
0.06531359 0.048579454 0.07799361 0.028892484 0.20009406 0.045215193 -0.022021865 0.05773799
-0.00021216768 -0.056301914 -0.018120091 0.09065426 0.08858486 0.14278731 0.082422644 0.025901489
0.13241757 -0.026965616 -0.075558804 0.05777109 -0.03708617 0.05199786 0.016325716 0.07145071
-0.08541161 0.059576876 -0.0021440254 0.06527142 -0.015251123 0.08865961 0.034341365 0.045500014
0.040822376 0.05866383 -0.011510982 0.17118642 -0.08364978 -0.037233353 0.043984123 0.0021432485
0.076633714 -0.0037483736 -0.062364638 0.056445222 0.054423112 0.013935299 -0.028702196 0.16575655
0.11324812 0.09812675 0.09487482 0.067139894 0.0904307 0.04973598 0.053309936 0.015265749
0.07959141 0.054249782 -0.0381224 -0.022661332 -0.07219717 0.015944958 -0.01407136 0.080475956
0.048821557 0.18854791 0.15728022 -0.040243372 -0.02406227 0.038419545 -0.03934386 0.0057305996
0.06438205 -0.0024298409 0.09524824 0.1750654 0.052265145 -0.02846695 -0.018974356 -0.049651295

weight f4 [90, 270]
00000000: 0a59 f53d a239 a1ba bfdf 373d 9e33 863d
00000010: c79a 8f3d 649a 56bd de2f 903d 0c9d ebbc
00000020: d74c a93d 1f63 0e3d 49a1 84bd 5277 2dbc
00000030: 43b2 9dbc e30d d23d 4641 0cbb 1fa6 48bd
00000040: 1bb8 0b3d 80db ee3d c997 91bd e001 323d
00000050: c5a1 d13d 7b99 25bd bec4 b23d 7053 623c
00000060: 9156 1bbd 8e40 883d cde1 1abd fd93 7e3d
00000070: 1b36 9b3d 45fe d0bc 8641 6abd 6542 6a3d
00000080: 43c2 37bb 084e cdbc 8005 f7bc ac7d 483d
00000090: b6e6 82bc 1985 1c3d d4c6 2a3e 8d83 dfbb
000000a0: 8d10 c5bc 8789 d73c 831a 00bc 1aa1 78bc
000000b0: a97c 003c 51d9 5abd 3ff1 833c 0cbe 7c3c
000000c0: ec8e e4bc c70a 8a3b c863 103d 2739 17bc
000000d0: 56cd 50bb 1116 ba3c 8486 12bd 618f 3d3d
000000e0: 30ea 53bc 285f 543c 1a9e 5a3d 2f04 b43c
000000f0: 9484 2e3c f606 d0bc 0605 e73c dda9 433d
00000100: 8b59 493d 2dad a2bb 3f2f f039 402b 793b
00000110: b7ad 9b3c 50a5 1fbc 2d55 723d 7a94 78bc
00000120: 4e6d 233d 7c3b e63d 6751 50bd 947c c63c
00000130: 59a4 85bd 2f56 1bbc 2127 5c3d 8f09 1f3c
00000140: 1200 07bd f08e 5dbc 35f8 cf3c e090 3f3d
00000150: 0357 f9bc d92b e9bc d2bf 7a3d 3c37 f33c
00000160: 90a8 d3bc 06cc 973d 5ec9 c33c 1bac 9dbb
00000170: fda2 ac3d 12b2 c23c 6dac b33b cb6e 78bd
00000180: 7cd4 5a3d ec57 23bd 4d73 e13c 1fa3 d53b
00000190: 8515 193b f681 183d d032 023d 02a0 643d
000001a0: 672e d53c 11d8 823d b118 2e3c 5cdc 3d3c
000001b0: 2f59 8b3d a0f0 02bd 530b 583c 0dc8 e43b
000001c0: 3a13 253d 4ad3 b73c 45cf 57b9 a1ad 01bc
000001d0: 8448 663d 6cd8 65bb ff48 f5bb 64fd 1fbd
000001e0: 1b32 f0bb ce74 64bb cbfd 4bbd d6eb c73c
000001f0: 8095 ae3b ec3b 6c3c e298 f0ba 78c3 87bd
00000200: 67ac ec3c d3c5 2c3d e4ae a9bd 6eee c5bc
00000210: d2fe d63c edc6 673d 055a 4bbb f4aa a2bb
00000220: fe0e 9b3c f809 9b3c e7ec 083e cfa3 adbc
00000230: 83dd 533d aec5 24bd 04ab 153d c937 423d
00000240: 301d 723d cad0 34bd 4f62 1f3c 7e5c 983d
00000250: 0bc9 9f3d ea9b 993d 7bca c0bc 2049 1f3d
00000260: 756e 953d 1cbb 09bd c3cd 1f3d 25d8 db3d
00000270: 9200 12bd 28dd bfbd d628 8fbd 4549 273d
00000280: 1f96 03bd 1ae8 ae3c c68c 86bd b583 1bbd
00000290: f415 283d 2ed8 9dbc aad7 59bd 7729 8dbd
000002a0: f663 6d3c c207 ba3c 449d da3c e4c3 a0b9
000002b0: 2c19 5bbb 7c29 883d d370 e2bc 5cbe 833c
000002c0: bea7 693d 44bd 93bc 2dad e7bc cd4c 7cbc
000002d0: 28da d23d 7260 74bc 0875 23bc fbbb 3ebc
000002e0: 389d 203d 1c11 613d f64f 223c d74a 693c
000002f0: 71b4 4b3c 7ae3 87bd ad90 c7bc cab7 823b
00000300: 2b6f 613d af62 c33c 1fbc 3fbd 4d29 873d
00000310: 0c8a 5cbd 6e21 1a3c 5d7e a83d 13fc cabb
00000320: e98e 853d 60f0 16bb 14a0 5d3c 9bb0 823d
00000330: ed2b 553d c22e c23b 6682 94bc a225 083d
00000340: 4231 71bd 198c 9ebc 69ba 6aba 5c5d 013d
00000350: 8636 493d f69b 18bc 7afa 313d 883b 46bd
00000360: c2b7 de3c eb0d d63c 70e7 dbbc 3c8e 5a3d
00000370: d5be aebc c76f 623d be88 4d3d d44a bdbb
00000380: 0149 873d 5342 b43d 8e22 aeba 5008 3cbc
00000390: 7523 063d 82cf 083d f6bf 9ebc f53f b33b
000003a0: 85af 61bd 9a08 27bd 024a 813d 5b70 0bbd
000003b0: 61c4 14bd edfd 523c f0e1 1abb d86f 6cbd
000003c0: a0bd 9a3c 2e21 0ebd 53bb 873c d28c 6a3d
000003d0: 45c7 4a3c 7342 bdbc 025b 35bd e235 673d
000003e0: e129 f73c 65c0 f23d 8a57 f5bc 3566 ca3b
000003f0: 5894 203e 5c9e dd3c 05ba 853d 6137 943d
0.119798735 -0.0012300501 0.044891115 0.06552814 0.07011943 -0.052393332 0.0704038 -0.02876141
0.08266609 0.034762498 -0.06476075 -0.01058753 -0.01925004 0.10256555 -0.002140121 -0.04898655
0.034111124 0.1166296 -0.07109029 0.04345882 0.10235933 -0.040429574 0.08728932 0.013813838
-0.037924353 0.06652938 -0.037812997 0.06215285 0.07578679 -0.02551187 -0.057191394 0.057192225
-0.0028039373 -0.025061622 -0.03015399 0.048947975 -0.015979152 0.03821287 0.1667741 -0.006821102
-0.024055744 0.026310695 -0.007818821 -0.015175128 0.007842221 -0.053429905 0.016106246 0.01542617
-0.027900182 0.0042127105 0.03525141 -0.009229935 -0.003186067 0.0227156 -0.035772815 0.046279315
-0.012934253 0.01296214 0.053373434 0.021974651 0.010651726 -0.025393944 0.028200638 0.047769416
0.04915766 -0.004964492 0.00045811568 0.0038020164 0.019003732 -0.009744003 0.05916326 -0.015172118
0.039899163 0.112418145 -0.05085888 0.024229325 -0.065254875 -0.009480997 0.053748254 0.009706869
-0.03295905 -0.0135228485 0.025386909 0.046769023 -0.030436998 -0.028463291 0.06121809 0.029689424
-0.025837213 0.07411961 0.02389973 -0.0048117763 0.08429525 0.023766551 0.0054832012 -0.060652535
0.053425297 -0.03987877 0.0275208 0.0065196897 0.0023358774 0.037233315 0.03178674 0.055816658
0.026023103 0.06388868 0.010626004 0.011588182 0.0680412 -0.03196776 0.013186294 0.0069818557
0.04030154 0.022439618 -0.00020581212 -0.0079149315 0.0562215 -0.0035071624 -0.0074855085 -0.03906001
-0.007330192 -0.003485966 -0.049802583 0.024404448 0.0053278804 0.014418583 -0.001835611 -0.066290796
0.028890802 0.042180847 -0.08285311 -0.024161544 0.026244555 0.056586195 -0.0031028998 -0.004964227
0.018928047 0.018925652 0.13371621 -0.021196274 0.051724922 -0.040227585 0.036540046 0.047416482
0.059109867 -0.04414443 0.009728028 0.074395165 0.07802018 0.07500441 -0.02353405 0.038888097
0.07296459 -0.033625707 0.03901459 0.10734586 -0.035645075 -0.09368354 -0.06990211 0.04084136
-0.03212559 0.021350909 -0.06569819 -0.037967402 0.04103656 -0.019268122 -0.05318419 -0.068926744
0.014489165 0.022708777 0.026686318 -0.00030663528 -0.0033431752 0.066485375 -0.02764169 0.016081981
0.057044737 -0.018034585 -0.028280819 -0.01539917 0.10295516 -0.0149155725 -0.009976633 -0.011641498
0.039212435 0.054947957 0.0099067595 0.014239035 0.012433157 -0.066351846 -0.024360979 0.0039891945
0.05503766 0.023850767 -0.046810266 0.065996744 -0.05384259 0.009407384 0.08227227 -0.0061946004
0.065213986 -0.0023031458 0.013526935 0.06381341 0.052043844 0.005925984 -0.018128585 0.033239014
-0.058884867 -0.019353913 -0.0008954169 0.031583175 0.049124263 -0.009314528 0.043451764 -0.048396617
0.027187232 0.026129683 -0.026843756 0.0533583 -0.02133123 0.05528238 0.050179236 -0.0057767425
0.06605721 0.08801713 -0.0013285445 -0.011476591 0.03274866 0.03340102 -0.019378643 0.0054702708
-0.05509903 -0.040779687 0.06312944 -0.034042697 -0.036320094 0.012877923 -0.0023633204 -0.05772385
0.018889248 -0.03469961 0.016568815 0.057263203 0.012376611 -0.023102975 -0.044276245 0.05644787
0.030171337 0.118531026 -0.029948968 0.006176735 0.15681589 0.02705305 0.06529621 0.07237125

bias f4 [90]
00000000: 0352 853d 3435 ffbc 75de 53bd 6de3 aa3b
00000010: f5e8 e8bc d5a9 95bc 6e5a c43d 47a8 413d
00000020: d0ee 093d ff82 1c3c 277d 613d 8248 1b3c
00000030: 0c5e d53d 00c3 243c f924 0e3c 8231 9f3d
00000040: 09b1 a33c c6d8 53bb 9997 663d e1b1 0dbd
00000050: 8f95 263d 828b 6a3c 95ed 9b3d da2c db3c
00000060: 0c31 a63d 5747 11bd 2ae6 733c e57e c23c
00000070: b856 43ba 024d 9e3c 434a 733d e7c6 223d
00000080: 0074 f3bb 1477 bcbc 2ba2 cf3c 4808 e3bc
00000090: 0b4f e53c 6f9b 13bd 2436 d43c d308 b6bb
000000a0: 3985 243d 4ef4 e63c c656 dd3b 579c d33a
000000b0: 015a 723d 34d7 163d 4309 093d acc0 303d
000000c0: e92f 613d f957 9d3c d35d 403d d949 0f3d
000000d0: 6e60 973d ae98 fe3c 1353 27ba 1e07 f63b
000000e0: 3c02 743c 05a0 d63b f262 a93d 005b ae3c
000000f0: 6ec5 2e3d 6486 ffbb e728 4f3d d150 a63d
00000100: 3ce3 113c 4236 35bb 88df 763d 198b 393d
00000110: 6fbd d73c 4d1f a43d 780b 5e3d c66d 643c
00000120: 204a 583d 46ea 0b3d 2874 433d 7b78 2a3d
00000130: 78d0 1f3d 8564 653d b222 96bc f538 543d
00000140: 1c1f 37bc ada4 f2bc e797 7ebb 5d7d b63d
00000150: d347 aabc bc81 803d 53e8 9c3d 8640 213c
00000160: 8ab5 3fbc 90dd e6bc
0.06509783 -0.031153299 -0.051725823 0.0052150995 -0.028431395 -0.018269459 0.095875606 0.047279622
0.033675015 0.009552716 0.055050995 0.009477736 0.10418329 0.010056257 0.008675807 0.07773115
0.019981878 -0.0032325252 0.05629692 -0.034593467 0.040669974 0.014315488 0.076136746 0.026754785
0.08114824 -0.035468426 0.014886418 0.023742149 -0.0007451582 0.01932383 0.059396993 0.03974047
-0.0074295998 -0.023006 0.025345882 -0.02771391 0.027991792 -0.036036905 0.025904723 -0.005555251
0.040166114 0.028192665 0.006754729 0.0016144615 0.059167866 0.036826327 0.0334561 0.043152496
0.05497733 0.019206988 0.046964478 0.034982536 0.073914394 0.031078663 -0.00063829235 0.0075081727
0.014893111 0.0065498375 0.082708254 0.021283627 0.042668752 -0.007798003 0.050576117 0.08120883
0.008904275 -0.0027650748 0.06027177 0.04529867 0.026335446 0.08013783 0.054210156 0.013942188
0.052805066 0.034158967 0.047718197 0.041618805 0.03901717 0.056004066 -0.01832709 0.05181213
-0.011176851 -0.02961954 -0.0038847865 0.0891063 -0.020786202 0.06274745 0.076615 0.009842044
-0.011700997 -0.028181821

weight f4 [30, 90]
00000000: 554e 0a3d bf43 96bc a90d 82bd 806e ec3d
00000010: f9cf 033d fd0e 78bd bd3b 753c 5dae ec3d
00000020: 2440 183e 2b5a 173e 20f5 a43d 7817 2bbd
00000030: 5f24 8cbd 04a8 853d 668c b63d 04df d8bd
00000040: 0e2d ad3d e122 1ebd 6450 4e3d e992 723d
00000050: 7184 563d 2bd3 0e3d 951c 503e 1200 44be
00000060: 4944 0e3d 6662 a53d d7e5 8ebd 209c 0cbd
00000070: 10ec 42be 87e3 5c3c 2b1f 5ebd d6c4 d73d
00000080: 79bb e83d 49c3 523d 0009 00bc d65c 0a3d
00000090: 3e93 16be 2e50 323b 3df7 d4bd 1317 923c
000000a0: e2ae e4bc e568 86be 4945 06be ed12 723d
000000b0: 8a0f ecbd d1dd 45bb 29b6 f3bd 6cd0 dbbc
000000c0: 7e85 b9bc 8d32 1ebe 2331 823d 566d f93d
000000d0: a3b7 203e b65a 193e db4a b13d ed54 1dbe
000000e0: 665c 97bc af59 233d 9ab7 acbd d143 e2bd
000000f0: 3046 23be 64e1 4ebd 311a 1bbd 3b9c e6bc
00000100: 9077 a63d 9e89 0e3e ae93 673d e025 23bd
00000110: a4a4 d0bd adfd a33d 1d6a 0a3e 007e e3bc
00000120: 201d bf3c e8d0 dfbd 7747 7e3d 7294 173e
00000130: 0dad 9c3d c819 a2bd 17dd 893d 4093 343d
00000140: 0566 aabd bf4e e73d c8b4 243c 5b0e 143e
00000150: 9e7d 853c 4abf ba3d 8b62 14be d4ec bd3d
00000160: 9e97 f03d b317 26be 24e6 d2bc 557a a83c
00000170: 0bfc c93d 73e9 3d3e a4c8 83bd 9cac 99bc
00000180: 4a8e 413e e596 dbbd b123 d83d b888 0c3e
00000190: c735 1a3e 541f 4dbe f24f cbbd fdf2 ffbc
000001a0: cd3e 8c3c fa85 a5bd 41ed 1e3e 34ee f73d
000001b0: 94e6 df3d 6774 f23c b552 63bd 8ce0 cdbc
000001c0: 6164 0abe c39b dfbd 72c4 1b3e f935 89bd
000001d0: 5cfe d33d 72ab f33d b264 683e 4c02 3abe
000001e0: 4143 813c aa9c e93d 9ad4 debd 3e1d 3b3d
000001f0: 1204 20bb 6beb b93c 037d 8a3e 8af2 d63c
00000200: c766 85bc 5e28 26be 72e4 fabc a5ea 96bd
00000210: f3a6 c73c d11b 4a3d ee8b f2bc 6326 e7bd
00000220: 404f 09bd fee5 b33d cc65 fb3b 1ad7 4abe
00000230: dcd9 53bd 5c64 c1bc ac17 09bd 61e0 bc3d
00000240: 6cee e83c b069 10be f6e4 513b a2d4 8abd
00000250: c341 e6bd e5d4 2b3e 78dc 8ebc 39d1 6a3e
00000260: fba4 21be 66c5 993d fc74 003e bb23 8bbd
00000270: 0609 83bd 2700 ffbd 9450 113c 01d2 0cbe
00000280: d747 c6bd 47e7 90bc 0c92 b23d edcb a8bc
00000290: 42f6 93be 8c6a 20be a396 493c 6e2e 2bbe
000002a0: 9186 f03a d84a 99bc 27a9 41bd 577c 05bd
000002b0: 1534 523e 17dc 88bd e1b6 73bd 96a2 cebd
000002c0: 843b 6a3e 9987 a33d f66b 4d3e fe77 5c3e
000002d0: 8fbb d63d c52d 23bd c9e7 f5bc 3e80 97bd
000002e0: b5ce 903d 096f de3d 09ff 943c 4ac6 aabd
000002f0: ea62 fbbd 8805 0dbe 3b64 87bc 2d29 0bbe
00000300: 85a1 ae3d 1af1 953d 1e38 43bd a13a ab3c
00000310: 6d9a 333e aeae 3f3d 1cf3 9a3d 41ba b3bc
00000320: 3fc1 293e 3e4f c93d d84d 0c3e bbda 013d
00000330: 5048 60bd d9aa 2e3e 9af9 733e 90b2 38be
00000340: a36f 3fbd 84ed e7bd 19cb 263e 8b72 15be
00000350: 06a1 08be a7d5 20bc 2d7a 40bd dc5b 453d
00000360: 47bb 5f3e 0591 813d 30de 6cbe 7d11 163d
00000370: 6cb3 0a3e 74d8 3cbd 089b 57bd bb4e efbd
00000380: ec45 633b 61dc 00be 208a a2bd b44f babd
00000390: 3189 aabd 46dd 243e f8d8 5bbd 2574 a43d
000003a0: 7e29 87bd c666 833d 7b6c 2f3e ba10 863d
000003b0: b479 8ebe b83b b23d 296f 3d3d 9f8f 033e
000003c0: e049 25be 10df 38bd 6e00 293d 6c81 7ebd
000003d0: 4ec3 4dbe 3ed0 16bd 1772 9bbc a687 8f3c
000003e0: e65f 403e 0a4c 27be 934d 383e e9ff de3d
000003f0: a0f1 fe3d dfa2 91bd 6854 efbd 7909 0bbe
0.03376611 -0.01834285 -0.06350262 0.11544514 0.03218076 -0.06056117 0.014967856 0.11556695
0.14868218 0.1478049 0.080545664 -0.04177043 -0.06842875 0.06526187 0.089134976 -0.10589412
0.08455859 -0.038607482 0.050369635 0.059222136 0.0523724 0.034869354 0.20323403 -0.19140652
0.03473309 0.08075409 -0.06977432 -0.03432858 -0.19035363 0.013481981 -0.054228943 0.1053559
0.113638826 0.05145577 -0.007814646 0.03377994 -0.14704606 0.0027208435 -0.103987195 0.017833268
-0.027915422 -0.26251903 -0.13112368 0.05910008 -0.11526401 -0.0030192027 -0.11899979 -0.026832782
-0.022646662 -0.15448971 0.06357028 0.12179057 0.15695052 0.1497601 0.08656856 -0.15364428
-0.018476676 0.03988045 -0.08433457 -0.11048091 -0.15944743 -0.050507918 -0.037866775 -0.028150668
0.081282735 0.13919684 0.056537323 -0.039831042 -0.10187653 0.08007369 0.13517042 -0.027770042
0.023329318 -0.109285176 0.062079873 0.14802721 0.07650194 -0.07915074 0.06731623 0.04408574
-0.0832024 0.112943165 0.010052867 0.14458601 0.01629525 0.09118517 -0.14490716 0.09273687
0.11747669 -0.16219978 -0.025744505 0.020566145 0.098625265 0.18546085 -0.064347535 -0.018759064
0.18901935 -0.1072214 0.105536826 0.13724029 0.15059577 -0.20031482 -0.09927358 -0.031243796
0.01711979 -0.080821946 0.15520193 0.121059805 0.10932651 0.02959652 -0.055498797 -0.025131486
-0.13514854 -0.10918381 0.15211657 -0.066997476 0.103512496 0.11897935 0.22694662 -0.18164939
0.01577914 0.114068344 -0.10880394 0.045682184 -0.0024416489 0.022695264 0.270485 0.026238699
-0.01628436 -0.16226336 -0.03062651 -0.07368974 0.0243716 0.049342934 -0.02960774 -0.112866186
-0.033522844 0.08784102 0.0076720472 -0.19808617 -0.05172144 -0.023607425 -0.03346984 0.092224844
0.028434 -0.14102817 0.003202734 -0.06778838 -0.11243012 0.16780432 -0.017439112 0.22931375
-0.15785591 0.07508354 0.12544626 -0.067939244 -0.063982055 -0.12451201 0.008869309 -0.13751985
-0.09681671 -0.017688407 0.087192625 -0.020605052 -0.28898817 -0.15665644 0.012303981 -0.1671693
0.0018350651 -0.018712446 -0.047280457 -0.032589283 0.2052768 -0.06682604 -0.05950058 -0.100896046
0.22874266 0.079848476 0.20060715 0.21530148 0.10484993 -0.03983857 -0.03001775 -0.07397507
0.07070676 0.10861022 0.018188016 -0.08338602 -0.12274726 -0.13771641 -0.016527286 -0.13589926
0.08526901 0.07321377 -0.04766094 0.02090198 0.17539378 0.046797447 0.07565901 -0.021939399
0.16577624 0.098295674 0.1370157 0.03170274 -0.054756463 0.1705736 0.23825684 -0.18036866
-0.046737324 -0.113245994 0.16288413 -0.14594476 -0.13342676 -0.009816564 -0.046991516 0.048183307
0.21848784 0.063264884 -0.23131633 0.036637772 0.13545007 -0.046104863 -0.052638084 -0.116849385
0.0034679128 -0.12584068 -0.079365015 -0.090972334 -0.083269484 0.16100034 -0.053673714 0.08029965
-0.06599711 0.06416087 0.17131226 0.06546159 -0.27827227 0.08702797 0.04624859 0.12847756
-0.16141462 -0.045134604 0.041260175 -0.062135145 -0.20094034 -0.03681969 -0.0189753 0.017520737
0.18786582 -0.163376 0.17998342 0.10888655 0.1244843 -0.07111143 -0.11686021 -0.13577832

bias f4 [30]
00000000: f0e3 3dbb 1f67 113e 5bd2 843d 6405 3f3d
00000010: 0b03 863c b20e 42bd 3fa1 31bc 6eb6 fbba
00000020: 6ef0 6fbd 7028 eabc ec73 323d e502 1a3d
00000030: 0af2 2abd 44b6 89bd 4d3f d83c 7a75 0e3c
00000040: 1bd7 59bd e40a 243d 14eb b1bd cd2f 283d
00000050: 7e8f aabd e888 12be 684b b2bb eec6 4e3d
00000060: b027 b8bd e7b6 df3d 309d 963b abdc b93d
00000070: 4881 183e f61f e8ba
-0.0028974973 0.14199494 0.064854346 0.046636 0.016358873 -0.047377296 -0.010841667 -0.0019204149
-0.0585789 -0.028583735 0.043567583 0.037600417 -0.041734733 -0.067242175 0.026397372 0.008695001
-0.053183656 0.04004945 -0.08687416 0.04106121 -0.0832815 -0.14310038 -0.005441118 0.050482683
-0.08991945 0.10923558 0.004596375 0.09075292 0.14893067 -0.001770972

weight f4 [90, 30]
00000000: 7b4d e43d e89a 8f3d 559f 453e 409b 823d
00000010: 3d43 0a3e 323d e93d 90d7 1b3e 7e95 1cbe
00000020: 2b09 d6bd 0f79 89bd 43f0 bc3d b5ed 7f3e
00000030: c6f0 463e 4383 533c 93ff bf3d 6547 12bd
00000040: adc6 b03d 680b b83d b1f8 ad3d 7c9b ec3d
00000050: db29 1c3c fb57 bfbd 4ecd 17be 73a4 f2bd
00000060: 3949 67bd e378 bc3d 3eb1 2c3e 0c3c d23d
00000070: 6a99 703d 8b6c 2e3d b335 1c3e a4dd 0abe
00000080: 943f 7f3d 5702 09bd e333 46be f25e 253d
00000090: 2a70 0fbe 62b8 9f3c 0bbe 083e 8d0a d0bd
000000a0: 0d25 0b3c 6509 06be 42aa f53d 0197 e1bd
000000b0: 375f a93d c7ae 62bd 1c74 bf3d 31f4 123c
000000c0: 86d5 cf3d 77f8 f2bc e66b 0bbe 1ac1 373d
000000d0: 4cc7 fdbd 70e3 3c3d b1a1 9cbc 7fc5 343d
000000e0: 4e5d ce3b 1f95 1b3e 615d 15be 8550 8bbd
000000f0: 91f5 c0bd 5c37 593e ba08 81bd fbdb f13c
00000100: 8f65 b5bd 6a98 90bd 1177 f9bd c18e 78bd
00000110: d3f9 4dbd 55b1 063e e6ee bb3c c5a9 87bd
00000120: ccd9 26be 1639 0abc 4ea6 2f3e 27ed f73d
00000130: 804b e83d 6a36 16bd b5bf 223e e5d0 0a3e
00000140: f644 cfbc db35 103d 3b59 013e a831 06be
00000150: b6bc 823d 90f4 bfbd 3c9b 00be e64a fdbd
00000160: a6e1 813d aefc 143e 2547 9b3d 3885 353d
00000170: a860 1b3e df7f 1dbe 3e65 ddbd 5e99 3abd
00000180: 7f64 46bd c59a 1d3e 8961 cf3d 3861 c9bc
00000190: c08a 633d 0c97 31bd deb0 143e b0ab be3c
000001a0: e2c5 fd3d 34c8 38be 2716 4ebd f7ad 5a3d
000001b0: e121 1ebd 7ad2 da3d 3bd0 483d 90ba aa3d
000001c0: b793 b53d 6b47 1f3e e44e 133e 6592 ee3d
000001d0: 2f8b 0cbd 26bd 623c 3b29 47be e7e9 353d
000001e0: c9f1 b03d 7bef 3a3d 8cc4 88bd dbc4 2e3d
000001f0: f143 21be c820 1b3d 71b2 1bbe 0992 8a3d
00000200: dd8f 05bd e3e6 3c3e 409f 99bd 9ad5 253c
00000210: 7d59 36be 3668 13be 4d86 4cbe ca80 24be
00000220: be66 033e 2256 0cbe 2409 d33c 741c d53d
00000230: 9286 edbd c7b4 94bc 79d5 f9bc e121 643d
00000240: b13e 7cbd ac11 3fbe 20e0 083e 52c2 8dbb
00000250: efb7 353d c947 173c 18c0 fe3c 0dd9 d33d
00000260: 9226 9fbd 5537 6cbc 0aed 05be 6a69 053e
00000270: 747c b0bc e1ad 403e fd3e 94bd 00e5 a83d
00000280: ee54 643d db56 fd3d 6720 d0bd 2bff 0cbd
00000290: 3a3d e73d a6bc 2a3e 6590 d9bc 0571 313d
000002a0: 0d2a 883d 71aa f2bb 9a77 0cbc d527 21be
000002b0: 4aea f73c 9e54 1d3d bd36 f53a 8d62 b0bd
000002c0: a0d4 dbbd 789f 153d a0d7 f6bd 34df f23d
000002d0: 3d30 893d 2894 373e 7da5 2cbd 9b89 29be
000002e0: 6f5c a0bd 084c c4b9 552b 2abe 1d0e 64be
000002f0: e95a 74bd dd62 dcbc 9bec ac3d d6f5 ec3d
00000300: a615 93bc 82d4 94bd 0a9d 1fbc 0bdb 06bc
00000310: 3713 29be f4c3 fabd d544 913d d32a 05be
00000320: 2503 293e fd79 993d 5f0f cf3b 7251 d8bd
00000330: dcdd e43d 3eff 9f3c b840 193e bb46 c03d
00000340: 726e 083e 84e0 d13d 466c 8bbd 7605 ac3d
00000350: 43ea 1a3e 19f7 a03c 1e1b 78bd 4a80 2e3e
00000360: 7434 7dbd 1e3b 0b3e 7261 43bd 639b 323e
00000370: 37ce 103e 6ebd 8abd c635 cd3d 7d86 8bbd
00000380: 7aaa 25be 334b 073e 0cad f5bd 4fdc 383e
00000390: ad0a 403e 3a6f 07be 9a59 563b 0e8e f3bd
000003a0: dd7b 663d 65ef b03d 26ad 3dbe c6a2 e53d
000003b0: 518d 47be 866e 18be 28dd 023e aa1c 3ebe
000003c0: 2465 43bb beb3 cd3a b3d1 6a3d 197b 763d
000003d0: c69b 4abe f7fa 023e 97d2 5c3e ba14 d1bd
000003e0: 0e54 013c b9a1 bfbd 86d9 48be 040c 11bd
000003f0: 9184 083d 5197 633c e012 d1bd 0292 093d
0.11147591 0.07011968 0.19299062 0.06377268 0.13502212 0.11388625 0.1521895 -0.15291402
-0.104509674 -0.06712543 0.09225514 0.24993022 0.19427785 0.012909713 0.09374919 -0.03571262
0.086316444 0.089865506 0.084947 0.11553094 0.0095314635 -0.09342953 -0.14824411 -0.118477724
-0.056466315 0.09202745 0.16864488 0.10265359 0.058740057 0.042583983 0.1525486 -0.13561112
0.062316492 -0.033449497 -0.1935573 0.04037375 -0.14007631 0.0194971 0.13353746 -0.101582624
0.00849272 -0.13089521 0.11995365 -0.1101513 0.08270114 -0.055342462 0.09348318 0.008969353
0.10148148 -0.029659493 -0.13615379 0.04486189 -0.123915285 0.04611534 -0.01912007 0.04413366
0.006297744 0.15193604 -0.14586402 -0.06802467 -0.09421838 0.21212524 -0.063004926 0.02952384
-0.088572614 -0.07060321 -0.12180913 -0.060683016 -0.05028708 0.13153584 0.022941064 -0.06624178
-0.1629402 -0.008436462 0.17153284 0.1210578 0.113425255 -0.036672987 0.15893443 0.1355625
-0.025301438 0.03520761 0.12631695 -0.1310488 0.0638365 -0.093728185 -0.12559217 -0.12367801
0.06341867 0.14549515 0.07581929 0.0443165 0.1517359 -0.1538081 -0.10810326 -0.04555642
-0.048435684 0.15391071 0.10126025 -0.02458249 0.055552244 -0.04335694 0.14520594 0.023275226
0.12391259 -0.18045121 -0.050314095 0.053388562 -0.03860653 0.106846765 0.04902671 0.08336365
0.08866065 0.15554588 0.14385563 0.11649016 -0.034312423 0.013839042 -0.19449322 0.04441252
0.08639867 0.045638543 -0.06678113 0.042668205 -0.15748574 0.03787306 -0.15204789 0.06766135
-0.0326079 0.18447451 -0.07501078 0.010121727 -0.17807575 -0.14395222 -0.19973107 -0.16064754
0.12832162 -0.13704732 0.025761195 0.10405818 -0.11597933 -0.018152608 -0.0304973 0.055696372
-0.061583225 -0.18659085 0.13366747 -0.0043261433 0.044364866 0.0092334235 0.031097457 0.103441335
-0.077710286 -0.014417489 -0.13078704 0.13028494 -0.021543719 0.1881633 -0.072385766 0.08246803
0.055745058 0.12370082 -0.1016243 -0.034423035 0.11290975 0.16673526 -0.02655811 0.043320674
0.066486456 -0.007405572 -0.008573437 -0.15737851 0.030263085 0.038410775 0.001870833 -0.08612547
-0.107339144 0.036529034 -0.12052846 0.11858979 0.06698654 0.17927611 -0.04215001 -0.16556399
-0.0783013 -0.0003744068 -0.16618092 -0.22271009 -0.05965701 -0.02690261 0.084435664 0.11570327
-0.017954659 -0.07267095 -0.009742031 -0.008230935 -0.16511236 -0.12244406 0.07093207 -0.13004617
0.16505106 0.074939705 0.006318971 -0.105624095 0.11175129 0.019530889 0.14966094 0.09388491
0.13323382 0.10247901 -0.06807761 0.08399479 0.15128426 0.019649075 -0.060572736 0.17041126
-0.0618176 0.1359677 -0.047700353 0.17442088 0.14141165 -0.06774412 0.10020022 -0.06812761
-0.16178313 0.1321228 -0.11995897 0.18052791 0.18754072 -0.13226023 0.0032707215 -0.11892329
0.05627047 0.08639411 -0.18523082 0.11212687 -0.19487502 -0.14885911 0.12779677 -0.18565622
-0.0029814923 0.0015693826 0.05732889 0.06017599 -0.19785985 0.12791048 0.21564709 -0.102090314
0.007893575 -0.09357018 -0.19614229 -0.03541185 0.03332955 0.013891057 -0.10208678 0.03358651

bias f4 [90]
00000000: 7c58 1f3e 9f4f 8ebd 2c1b 883e 8e31 523d
00000010: de95 973d d7dd 1dbe 4fe4 bbbd e1d9 973e
00000020: 3b9a c33e b599 dc3d 6a2f 28be a1cc 453d
00000030: ffd2 9f3c 9093 2e3e d7de 0b3e a229 0e3e
00000040: f415 6bbc 8546 533e 20be a53d f58a 7c3e
00000050: 223e 9d3e 0a27 95bd fc98 ecbb 45b6 0cbe
00000060: 7938 5a3e dfb8 47bc a6df 3a3a a8ce 173e
00000070: 8095 bb3d 4ad9 97bb c1b4 aa3d 57e5 f03d
00000080: 1c32 a93c 5c2e 1b3e 1263 0d3e 59e9 ee3d
00000090: ef9e da3d 2d5c a53d 7f5d f1bc 3eec f4bc
000000a0: 4e76 423e e17b 173d 253c f4bd c510 453e
000000b0: fd16 15be 4c44 b7bd 4b66 343b 684b 713d
000000c0: 8af2 953e eb70 2dbd be85 3d3d 7072 f1bd
000000d0: 62b5 d43d 3e46 903e 0796 423b 42d7 d13d
000000e0: 711b 1b3e 6059 1d3e 920e e0bd 4821 02be
000000f0: 7a57 123e 8cc6 2bbd 4725 57bd 27db 36be
00000100: 7662 003e 16ea e6bd e6a1 603d caed 583d
00000110: b4b0 303c 236a 083e 922c 753e 9be9 403e
00000120: d173 31be 4f53 803e 6c0d b43e 7886 0bbe
00000130: b448 1fbe 4616 873e 2ccd 023e 9bf3 b9bd
00000140: b0c2 51bd 15e0 7d3e b820 21ba b9b4 ebbd
00000150: 7193 dd3d f15f dcbc 2648 4f3e b6d5 bd3e
00000160: 614d 373e 2319 babd
0.15561098 -0.0694878 0.2658323 0.05131679 0.07401632 -0.15416656 -0.09174406 0.29658416
0.38203606 0.10771505 -0.16424337 0.048290852 0.01950979 0.17048478 0.13659225 0.13883069
-0.014348496 0.2063237 0.08092904 0.24662383 0.30711466 -0.07282837 -0.0072203856 -0.13741405
0.21310605 -0.012190073 0.0007128663 0.14824927 0.09159374 -0.004634057 0.08335257 0.11762493
0.020653777 0.15154403 0.13807324 0.11665601 0.106748454 0.08074222 -0.029463528 -0.029897805
0.18990442 0.036983375 -0.11925534 0.19244678 -0.1455955 -0.089485735 0.0027526792 0.058909804
0.29286605 -0.042344015 0.046270125 -0.11789405 0.103861585 0.2817859 0.0029691474 0.10246135
0.15147187 0.15366125 -0.10940279 -0.12708008 0.14291182 -0.041937396 -0.052525785 -0.17857037
0.1253756 -0.11275117 0.0548419 0.05296115 0.010784317 0.13321738 0.23942783 0.18839113
-0.17329337 0.2506356 0.3516649 -0.13625515 -0.15555078 0.2638418 0.1277358 -0.09079667
-0.05121106 0.24792512 -0.0006146538 -0.115090795 0.10819138 -0.026901217 0.20242366 0.3707711
0.17900611 -0.09086826

weight f4 [270, 90]
00000000: a939 aebd 3825 753d 77cf 013d 4ec2 433d
00000010: 268f bb3d 415c 5c3c 2344 6abd 3fa7 61bd
00000020: 659a e1bc 491c a8bd 6956 d53d 310a d8bc
00000030: 6b9a 84bd 3494 9c3c 2150 1d3c 707d 63bd
00000040: 517b 86bb 392d 9d3c b9d0 bdbd 0afc dfbc
00000050: b5c4 26bc d979 803c 1db4 c4bd 849c 2f3d
00000060: f371 c7bc e22f c8bd 8d3b cfbd a4f3 88bd
00000070: 98e7 9d3c 0e7b 003d 030d b5bc aa54 1fbd
00000080: f0fb df3c fe49 783c 9aa4 863c 6f01 79bd
00000090: 3192 bebd 9c4a 773d 7273 3e3d e356 96bd
000000a0: 0f4d 49bd c6ed 973d effc 33bc cb13 4b3c
000000b0: c59f 7e3d 890c c7bc 8b71 db3c 81f0 05bd
000000c0: d9d3 c8bd ea66 453d 4ee8 40bc 5326 733d
000000d0: a796 e8bc d33e 84bc 669f 313d f065 51bd
000000e0: f230 7b3d 9eda b03d 30a7 06bd 2967 a5bd
000000f0: e90d a6bd cac1 32bd cc1e af3d ef98 c6bc
00000100: 3d4c a1bd ca63 23bd 2ff9 e63a 4e88 66bd
00000110: c89b d03c 5657 81bd 8364 26bd 5fbf 913d
00000120: d78a b1bd b4ef c6bc 9aae 2c3c 1db5 a93d
00000130: dfd7 213d 8860 adbd c406 23bc c9cd fa3c
00000140: a48b d43b 6ffd a0bd b9f5 563d 2bfd 9e3d
00000150: 05ee 963d 6aa8 bb3b bdbb 8abd bfd4 9abd
00000160: f547 ba3d 4424 3ebd e905 4e3d e80b d1bd
00000170: b47e c53b 0d03 3d3c a674 8b3d db9a d2bd
00000180: 9188 96bd 0003 53bd f98a 67bd 5c19 01be
00000190: 76d6 89bc 9121 b0bd 5efa 4ebd 2d05 1d3d
000001a0: 767a 143d 4e6d a13d 1e43 d3bd 0dfa 9abd
000001b0: 492c 9ebd 6e73 e23d fa3e 983c 1c59 c5bd
000001c0: 5720 22bd b37c 9dbd 5e1e edbd 2d6b cd3d
000001d0: 93e7 973c 36ae 0fbd 6bde 893d 1b4e 143e
000001e0: d31b 243d 15ce 8bbc ded9 8e3b 7ec5 76bd
000001f0: 6735 c33b 43c2 07bd 21c9 b0bc 47a6 ba3c
00000200: 4952 093c 3542 9ebc 879f ba3d 08e2 d83b
00000210: 15a6 e43c 13ed 723d e8ac b83d 12cd cf3d
00000220: dafc ff3d 5f57 18bd 28ae e53d 0403 903d
00000230: 6f86 cbbc 4e1d c13d 280a 07be 1f50 d5bc
00000240: 4ecb f5bd 3f0d c73b eec7 e2bc 9c0c 113e
00000250: 60e0 1f3d c694 c23d 7c92 8a3d cec9 b43d
00000260: 0c3a cebb 6ef7 a13d 172d d0bd bfb7 f8bd
00000270: 6844 dc3d ca87 84bb 29c2 183e ffa8 223d
00000280: 66b5 80bd 026d abbc 31ee 88bd 3149 8c3d
00000290: 8071 7a3d 1252 e6bc 9e72 06bd 88d8 31bc
000002a0: 1206 f33c 19e3 cc3d a4d4 953d 2e30 e63d
000002b0: 5e42 ff3b 0a7a c53c c228 943d 5a21 2b3c
000002c0: bbda 0d3d b758 2f3d 6c06 723d 535b a7bd
000002d0: 5ec8 0c3d da42 3f3b 8790 9f3b ff42 4dbb
000002e0: 70a0 803d f0a3 b0bc 5d5d 2d3c 0a69 76bd
000002f0: 0576 013b 8aff 93bd 1f14 c33d 4ce1 adbd
00000300: 0436 58bd edcc 913d 566e cabd 88b1 81bd
00000310: ad79 83bd 64d5 c83c de82 bebc f294 28bd
00000320: e0c3 373c 325f d93b bd3c 013d d29f 04bd
00000330: 02db 283e a45d 733d 2b55 b5bd 2714 f83c
00000340: d9b3 d43d a845 59bd 2245 af3c cdb5 5c3c
00000350: dc42 68bd 71cc 6b3d 0c55 acbd dfb6 043e
00000360: ad45 88bc 7b1b 3bbd 3a99 b83d 68f2 063d
00000370: 418f 2ebd 393f bc3c aee2 aebd b992 503d
00000380: 2936 913d 4406 74bd 96f5 8e3d 0942 2cbd
00000390: 22b3 b43d c410 40bd 154a 923c 094c e1bd
000003a0: ceae a4bd 1714 a53d 4c10 aabc 4819 ae3d
000003b0: de7d 023e 2c60 26bc e390 03bd 708d 12bd
000003c0: f1e3 ab3d 6a12 333d 429f 003d 5f04 b3bc
000003d0: 3936 ac3d 2b00 053d 267c 52bd c028 e03c
000003e0: dacf adbd 25b0 db3b 8b6a 963d 0e7a 9dbd
000003f0: 8d21 09bd f50f b4bd b5e2 d63d 7903 ac3d
-0.085070916 0.059849948 0.031691995 0.047792725 0.09158163 0.013449729 -0.057193886 -0.05509114
-0.027539441 -0.0820852 0.10416872 -0.026372047 -0.064747654 0.019113638 0.009601624 -0.05553955
-0.004104056 0.019186603 -0.09268326 -0.027341861 -0.010178735 0.015683101 -0.096046664 0.042873874
-0.024346327 -0.09774758 -0.1011878 -0.06687096 0.019275472 0.031367354 -0.022100931 -0.0388991
0.027341813 0.01515436 0.01643591 -0.060792383 -0.093052275 0.060373887 0.046496816 -0.07340791
-0.049145754 0.074183986 -0.010985597 0.012394856 0.062164087 -0.02429797 0.02678754 -0.032700066
-0.09806032 0.04819385 -0.011774136 0.05936272 -0.02839215 -0.016143238 0.043364905 -0.051122606
0.061325975 0.08635448 -0.032874286 -0.08076317 -0.08108122 -0.043641843 0.08550796 -0.024242846
-0.078758694 -0.03989009 0.001762187 -0.056282334 0.025464907 -0.06315486 -0.0406232 0.07116579
-0.0866906 -0.024284221 0.010539675 0.08286498 0.03951251 -0.084656775 -0.0099503435 0.030615704
0.006486373 -0.078608386 0.052480433 0.07763132 0.073696174 0.0057268636 -0.067740895 -0.07560109
0.09095756 -0.046421304 0.050298605 -0.10207349 0.006027067 0.011536372 0.06809358 -0.102834426
-0.07350267 -0.051516533 -0.05652902 -0.1260733 -0.016825896 -0.08600152 -0.050531738 0.038335014
0.0362496 0.07882176 -0.10315536 -0.07567225 -0.077232905 0.11057173 0.018584717 -0.09636137
-0.039581623 -0.076898 -0.11578058 0.10030208 0.01854304 -0.03507825 0.06731876 0.1448292
0.040065598 -0.017066041 0.004359468 -0.060246937 0.005957294 -0.033144247 -0.02158028 0.022784365
0.008381435 -0.01931868 0.09112459 0.006618742 0.027911225 0.059308123 0.09017354 0.10146536
0.124993995 -0.0371927 0.11214858 0.07031825 -0.024844376 0.094294176 -0.13187468 -0.026039181
-0.12001668 0.006074577 -0.027683225 0.14164966 0.03903234 0.095010325 0.06766221 0.08827554
-0.006293541 0.079085216 -0.1016485 -0.12144422 0.10755235 -0.0040445076 0.14917816 0.03971195
-0.06284599 -0.020926002 -0.066860564 0.06849898 0.0611434 -0.028115306 -0.03282415 -0.010854848
0.02966598 0.10004253 0.073159486 0.11239658 0.007789894 0.024106044 0.072343364 0.010444963
0.034632426 0.042809214 0.059088156 -0.081717156 0.034370773 0.0029184134 0.004869524 -0.003132045
0.06280601 -0.021562546 0.010581342 -0.060158767 0.0019754183 -0.072264746 0.09525322 -0.084902376
-0.05278589 0.071191646 -0.09884326 -0.063326895 -0.06419692 0.024515815 -0.023255762 -0.04115767
0.011216134 0.0066336626 0.031552065 -0.03237898 0.16489795 0.059415475 -0.08854135 0.030283047
0.10385866 -0.053044945 0.02139527 0.013471079 -0.056704387 0.057568017 -0.08414659 0.12960385
-0.016634787 -0.045680504 0.09013601 0.03294602 -0.042617086 0.022979366 -0.085393295 0.050921176
0.07090408 -0.059576288 0.069804356 -0.042055164 0.08823229 -0.04689099 0.01785759 -0.11000831
-0.08041154 0.080604725 -0.020759724 0.08500916 0.12743327 -0.010154765 -0.032120597 -0.035779417
0.08393086 0.043718733 0.03140188 -0.02185267 0.0840878 0.032470863 -0.05138793 0.027363181
-0.0848691 0.0067043477 0.0734454 -0.07689296 -0.033479262 -0.08792106 0.1049246 0.083991

bias f4 [270]
00000000: 40c4 27bd beaf 8f3c 50fd 0dbc 0919 d2bc
00000010: 45c7 afbb acf6 e43d ac4a fb3d 8127 f23d
00000020: 22a5 9c3d 21e7 7e3b 0f5d b2bc 60f0 b1bd
00000030: 6854 bbbd 2384 d53d 6887 b6bd 1bde 1b3d
00000040: 0cee 3d3d 15ba 0ebd ac03 d5bd 370a 12bd
00000050: ac93 c53b 6eb2 e9ba 8444 ec3d 19ed 1dbd
00000060: 3b68 973d b085 e03c fcc1 8c3d f463 763d
00000070: 2308 cb3d b46d 5abb 466c e8bd d1c4 a33d
00000080: b964 86bd c470 ce3b 4e6a 493d 3a4d fc3d
00000090: 3b29 c33d da28 10bd 6503 8e3b 0ffd 94bd
000000a0: c861 163e 8b48 8c3d 8a47 d039 5436 6d3d
000000b0: f7d2 f23d 2ea6 fbbc 102b d4bd 7939 5c3d
000000c0: 4a20 c43d 79e0 e93c 4929 053e e0eb c83d
000000d0: a141 403e 7c5b 443e 22a0 e63b 2246 043e
000000e0: d0b5 b73d 53ec 753c 9a53 a9bb b429 cdbd
000000f0: a0bb 203d 3336 69bd 44e0 5fbd b058 03bd
00000100: 1d24 acbd 4c30 153e 4565 293d e4d1 cebc
00000110: 3ac5 a93d 95bb 6e3d 96a1 1fbd 612c 003e
00000120: 32ff 39bc e2fe e13d 4b09 d93d 53e6 ff3c
00000130: f60b fc3d 49c2 40bd d758 e53c ae5b 193d
00000140: c3b8 793a df5c 0e3e fa19 3d3d 2e4f 123c
00000150: 95d9 263e 886f 813d 755d c73b a5b3 70bc
00000160: f8ee b33c 9f30 79bd 73b8 d5bd faf5 833d
00000170: ce19 5a3d d897 49bc be67 223d cdbc 3ebd
00000180: 9625 013e db00 e63d d2cf 97bd f2d0 3cbb
00000190: 5327 49bd a295 ef3d 7802 0e3e 2b8e 563d
000001a0: 5b81 6f3b a78e 96bc 3efb 0d3b 1ac5 edbc
000001b0: af99 96bc 71d6 51bd 32da df3b 0cc4 70bd
000001c0: 7c25 3c3c f364 26bd c990 173d c7fd 973d
000001d0: fe74 83bd a86d 803d 20b9 833d 468e ea3d
000001e0: 5fba 8fbc 129c 603e 5c12 f93d 63d7 e9bc
000001f0: e8ab 22bd c797 aa3c bf4e 5e3d 5447 8bbd
00000200: 0dfb 6cbd f984 ff3b 5fb4 bcbd c4ef 493e
00000210: 2fe5 66bc 56dc 4d3d 86f8 063c 7f9f eabd
00000220: b08f 3b3c 6215 88bc 5d5b aa3d a93c d23d
00000230: d2b7 423d d26a cb3d 6dc3 103e 95b2 a73d
00000240: e4b4 853d cb42 e53d a385 04be c273 5dbd
00000250: 5b17 9abd a6ce 9cbc 1665 793d fdce 08bc
00000260: 9852 c0bd f89c 633d fd44 513e 7071 cc3c
00000270: c314 d03d ae33 a33d 118f 85bd 591e 78bc
00000280: 4a32 b6bd be58 4b3c 2b58 cdbc 72f0 303d
00000290: c2f0 023e 3113 8fbd 985a 6bbd 44f9 ae3b
000002a0: 602f 663d 2504 a6bc 0d96 64bc a2f3 8dbd
000002b0: 8e0a 35bc a7cf 95bc dee3 3fbd e1e7 b43d
000002c0: ce4d fa3d 540f 103e 3d9e 843d c379 0e3e
000002d0: 3637 863d 535e 9dbd 7910 02bd 5ae9 a6bc
000002e0: 2a4e edbc e400 9f3d 732f 353d c43d 973d
000002f0: 4ca9 ddba acf0 b0bd 5600 13bd f661 dbbd
00000300: de88 943d 22a0 c33c 48bc f03d be16 20bd
00000310: 5990 e73c c979 2fbd 2b96 483d 46f8 2e3d
00000320: 2f8f 1f3e ffc6 ccbd 9acc 2d3d a70c 9dbd
00000330: 20d9 bdba 0332 b23c cdfa 213e 17cb b13d
00000340: 08cf e03d 2e4d ae3d 7a7a 42bd e5e3 7bbd
00000350: 4867 903d b941 203d 569e 903c f9be 313d
00000360: ad23 913d 8fce 59bc 396b dbbd 0ff5 e3bc
00000370: 036d a73c d4eb b2bd 0bab 0f3e 3e26 3f3c
00000380: 72b6 463e 4717 953d 2470 be3d dc70 6c3d
00000390: 592b a1bd 7411 583d 7d9a aabd e2be 1b3e
000003a0: 3219 a03d 4bae 343e 8ce3 e43d 57fc ac3c
000003b0: 5dcb 31bc ddaf 413d 79c7 bb3d 0a04 063e
000003c0: 8151 76bd cd51 88bd f927 5cbd be90 49bd
000003d0: 8478 f63d 65eb 3f3b 6df6 483d e958 93bd
000003e0: 6232 253e 9b36 da3d 214c c8bd 1b86 ea3d
000003f0: 4ae3 7c3c 0552 063d fed2 3f3c 93b5 ad3d
-0.040958643 0.017539855 -0.008666351 -0.025646703 -0.005364331 0.111798614 0.12270102 0.11823941
0.07648684 0.0038895088 -0.02177289 -0.08688426 -0.091469586 0.10425594 -0.089125454 0.038053613
0.046369597 -0.03484543 -0.10401091 -0.035654273 0.0060295667 -0.0017829665 0.11536506 -0.038556192
0.07392927 0.027407497 0.06872937 0.060153916 0.09913661 -0.0033329548 -0.113487765 0.07996524
-0.0656218 0.006300064 0.049173646 0.12319417 0.095293485 -0.03519521 0.0043339008 -0.072748296
0.14685738 0.06849774 0.00039726152 0.05791314 0.118566446 -0.03071889 -0.10359776 0.053765748
0.09576471 0.02854942 0.1300403 0.098106146 0.18775035 0.19175524 0.0070381323 0.12917379
0.08970225 0.015009957 -0.005167437 -0.1001772 0.039241433 -0.056936454 -0.054657236 -0.032067
-0.084053256 0.14569205 0.041356344 -0.025246568 0.08289571 0.05828436 -0.03897246 0.12516929
-0.011352347 0.11034943 0.105974756 0.031237757 0.12306969 -0.047060285 0.027996464 0.03744095
0.0009526128 0.13902615 0.04616735 0.008930011 0.16293938 0.06320101 0.006084139 -0.014691268
0.021964535 -0.060837384 -0.104355715 0.06443401 0.053247266 -0.012304269 0.039649718 -0.046566773
0.12611994 0.11230632 -0.074126855 -0.0028811065 -0.049109768 0.11698462 0.13868129 0.052381676
0.0036545608 -0.018378569 0.0021664645 -0.02902465 -0.018383829 -0.051229898 0.006831431 -0.058780715
0.011483546 -0.040623616 0.037003312 0.07421451 -0.06418799 0.06270915 0.06431794 0.11452918
-0.017544923 0.21934536 0.12161705 -0.028545087 -0.039714724 0.020824326 0.054274317 -0.06800714
-0.05785661 0.007797834 -0.092140906 0.1972037 -0.014092728 0.050258957 0.008237964 -0.11456203
0.011447832 -0.016611759 0.083182074 0.10265476 0.047538586 0.09932484 0.14137049 0.08188359
0.06528643 0.111943804 -0.12941603 -0.054065473 -0.07523986 -0.019141506 0.06088742 -0.008350131
-0.093907535 0.05556962 0.20436473 0.024956435 0.1016021 0.079688415 -0.065214284 -0.015143954
-0.088963106 0.0124112945 -0.025066456 0.043198057 0.12787154 -0.06986082 -0.057459444 0.0053397734
0.056197524 -0.020265648 -0.0139517905 -0.06931235 -0.01104988 -0.018287493 -0.04684817 0.0883329
0.12221871 0.14068347 0.06475494 0.13913636 0.065534994 -0.076840065 -0.03175399 -0.020374943
-0.028967936 0.07763842 0.044234704 0.07384828 -0.0016911416 -0.086396545 -0.035888992 -0.10712044
0.07252668 0.023880068 0.11754662 -0.03908419 0.028267073 -0.042840753 0.048971336 0.04271724
0.15581964 -0.09998893 0.04243145 -0.07668429 -0.0014484264 0.021752363 0.15818329 0.086813144
0.10976988 0.085108146 -0.047480084 -0.061496634 0.07050949 0.039125178 0.017653625 0.043395016
0.07086883 -0.013293876 -0.107138105 -0.027826814 0.020437723 -0.08736387 0.14030091 0.0116668325
0.19405535 0.072798304 0.09298733 0.05772482 -0.07869596 0.05275102 -0.083302476 0.15209535
0.078173056 0.17644612 0.111762136 0.021116419 -0.010851708 0.047286857 0.09168906 0.13087478
-0.060136322 -0.06656227 -0.05374906 -0.049210303 0.12034705 0.0029284593 0.049063135 -0.07194693
0.16132501 0.106549464 -0.097801454 0.1145136 0.015435049 0.032793064 0.011708019 0.08481898
