knn/models/pretrained-autoencoder/autoencoder-in_features30-latent_size2.pt (torch, 45769 bytes, 16 tensors)

weight f4 [54, 30]
0.13761051 -0.1477347 -0.024226451 -0.09780868 -0.14827804 0.08827304 0.17027362 0.15877445
-0.065180875 0.05765281 -0.12482989 -0.11947791 0.020491466 0.107360385 -0.021027947 0.1279663
-0.17218146 0.027802147 0.07246614 -0.075217195 0.12839422 -0.087088875 -0.015528036 -0.05013703
0.1701319 -0.16276404 -0.12176363 0.07009827 -0.03690877 -0.059144966 -0.15940134 -0.016928175
-0.042390894 0.020347277 -0.12606725 0.05500854 -0.0050752573 -0.1269776 0.024943741 0.018744154
-0.015001295 -0.0007873768 0.15018995 0.025378289 -0.06641022 0.059997708 -0.008761655 -0.08314052
-0.0894302 0.15330254 -0.042639155 -0.120505445 0.09886092 0.05490265 -0.05567757 -0.042963106
0.07513478 0.030661562 -0.13004358 -0.06275596 -0.17660986 -0.0043599065 -0.009001488 0.12893
0.0026100317 -0.027384471 -0.018789124 -0.16285184 0.0483539 -0.037799668 -0.11457029 -0.19344723
-0.02595829 -0.16516748 -0.09284828 0.08863583 0.026550576 -0.1311333 0.018895486 0.008464701
0.121026844 0.1674001 0.10001092 -0.021399943 -0.12864295 0.026904816 0.093996786 0.061647628
0.14136297 0.029211437 -0.058910728 -0.046035193 -0.07309679 0.18243255 -0.10578106 0.124555364
0.15264364 0.17287444 0.10895214 0.16220161 -0.07216949 0.1682253 -0.0070824707 -0.0038807227
-0.030351656 -0.11527138 -0.16407618 -0.05813604 0.006160562 -0.03610941 0.14019233 0.15328972
0.109732315 0.16156259 0.08669158 0.0289165 -0.15459412 -0.14786465 0.18755583 -0.05205296
0.046741333 -0.13049757 0.07293069 -0.04889564 -0.16520405 0.06473737 -0.038532436 -0.051743556
-0.14299 -0.16026677 -0.076367036 0.0494509 -0.106895484 0.07475334 -0.117991686 -0.1407193
0.07956814 -0.06635137 0.04026369 0.03131397 -0.05041773 0.075547926 0.029098894 0.1475696
0.16198613 0.14046665 0.16162291 -0.039655812 0.054775592 0.22899474 0.0929046 -0.02948866
-0.1304437 0.09798313 -0.10822437 -0.074009456 0.07419413 -0.17525107 -0.032937013 0.07234236
-0.09585517 -0.06965124 0.04725283 -0.06657723 -0.084667675 -0.04483588 -0.007434052 0.0693949
-0.12777051 0.07444656 -0.08078121 -0.14148474 0.15709372 -0.05895764 0.17563672 0.09914465
0.0186399 0.21395211 -0.07049652 0.21432328 -0.21275498 -0.027673611 -0.0034973777 -0.11915905
-0.13749976 -0.13484523 -0.013555204 -0.1623349 0.023226745 -0.038905684 -0.019946048 -0.1716711
0.09030486 0.027832095 0.17502828 -0.047205847 -0.032364666 -0.08800022 0.07546853 0.005477142
0.19415376 0.22709523 -0.0096350415 0.13355324 0.10454256 0.2731024 0.18034385 0.16874069
0.19152834 0.07377764 -0.00046833872 -0.14524871 -0.07570722 0.027879303 0.16020402 0.11437325
0.052395403 -0.08466619 0.17593226 -0.061346345 -0.002941718 -0.12910166 0.10726584 -0.11492413
0.005325495 0.05467028 0.104422554 0.14225732 0.05216199 -0.114441946 -0.00956943 -0.02387301
0.09364794 0.101020694 -0.17568031 -0.17732497 -0.12724802 -0.1314854 -0.040200077 -0.04997384
-0.15595116 -0.15982397 -0.03863125 -0.028687423 0.047487758 -0.15578751 0.15933983 -0.06245992
0.1210724 0.027194714 -0.08637018 0.034085117 -0.056334183 0.08473519 0.14673097 0.04444812
00000000: c5e9 0c3e c447 17be 8d76 c6bc eb4f c8bd
00000010: 33d6 17be 7fc8 b43d 355c 2e3e c595 223e
00000020: 8d7d 85bd 5a25 6c3d d0a6 ffbd d6b0 f4bd
00000030: b8dd a73c c3df db3d cd42 acbc 9909 033e
00000040: 5650 30be 54c1 e33c 2169 943d 790b 9abd
00000050: c679 033e a75b b2bd 4e69 7ebc 7d5c 4dbd
00000060: 0f37 2e3e 9eab 26be 365f f9bd af8f 8f3d
00000070: a72d 17bd fe41 72bd 1b3a 23be f5ac 8abc
00000080: 13a2 2dbd 55af a63c c617 01be a350 613d
00000090: 584e a6bb 6a06 02be d156 cc3c 578d 993c
000000a0: fec7 75bc f667 4eba 65cb 193e 21e6 cf3c
000000b0: 1502 88bd 28c0 753d 0b8d 0fbc 9445 aabd
000000c0: 2e27 b7bd 57fb 1c3e 65a6 2ebd 8fcb f6bd
000000d0: 9877 ca3d 9ae1 603d 2a0e 64bd 15fa 2fbd
000000e0: 43e0 993d f52d fb3c 252a 05be 3286 80bd
000000f0: 37d9 34be 8cdd 8ebb fa7a 13bc 3a06 043e
00000100: 110d 2b3b 6655 e0bc a6eb 99bc a2c2 26be
00000110: bd0e 463d d3d3 1abd d4a3 eabd 0817 46be
00000120: 7ba6 d4bc aa21 29be 3d27 bebd b486 b53d
00000130: 9880 d93c cf47 06be b5ca 9a3c 87af 0a3c
00000140: ecdc f73d ef6a 2b3e 86d2 cc3d ef4e afbc
00000150: faba 03be 7d67 dc3c 6381 c03d 3982 7c3d
00000160: 74c1 103e d34c ef3c 604c 71bd 668f 3cbd
00000170: c5b3 95bd 99cf 3a3e bea3 d8bd e216 ff3d
00000180: 9d4e 1c3e ff05 313e 4d22 df3d 2e18 263e
00000190: 99cd 93bd 4143 2c3e 1214 e8bb b953 7ebb
000001a0: 09a4 f8bc 6713 ecbd 9603 28be 0e20 6ebd
000001b0: 8ade c93b 76e7 13bd 948e 0f3e fbf7 1c3e
000001c0: 56bb e03d aa70 253e 5b8b b13d 4ce2 ec3c
000001d0: ec4d 1ebe d569 17be a30e 403e 7c35 55bd
000001e0: d773 3f3d 28a1 05be b05c 953d cb46 48bd
000001f0: 402b 29be 0795 843d 30d4 1dbd 0df1 53bd
00000200: f86b 12be f91c 24be 5266 9cbd 078d 4a3d
00000210: 05ec dabd 4718 993d a0a5 f1bd b818 10be
00000220: 9ff4 a23d 3ae3 87bd 8aeb 243d 1443 003d
00000230: d282 4ebd dfb8 9a3d ce60 ee3c 7c1c 173e
00000240: b1df 253e 7dd6 0f3e 7a80 253e 226e 22bd
00000250: 5f5c 603d 997d 6a3e c444 be3d 3492 f1bc
00000260: 0993 05be 61ab c83d bda4 ddbd 4592 97bd
00000270: 18f3 973d 0475 33be f6e8 06bd 3b28 943d
00000280: b74f c4bd 4fa5 8ebd 2f8c 413d a559 88bd
00000290: 3f66 adbd d4a5 37bd 5999 f3bb ea1e 8e3d
000002a0: 46d6 02be 7077 983d 9e70 a5bd 60e1 10be
000002b0: 2ddd 203e 917d 71bd 1dda 333e 5a0c cb3d
000002c0: b4b2 983c 4316 5b3e 7b60 90bd 9077 5b3e
000002d0: 71dc 59be c5b3 e2bc 4334 65bb a909 f4bd
000002e0: bdcc 0cbe de14 0abe a516 5ebc 1f3b 26be
000002f0: 0446 be3c 915b 1fbd e565 a3bc 8dca 2fbe
00000300: c1f1 b83d 2200 e43c 9d3a 333e eb5a 41bd
00000310: d090 04bd 7639 b4bd 3f8f 9a3d 9979 b33b
00000320: 3ed0 463e a78b 683e 4bdc 1dbc 2ec2 083e
00000330: 691a d63d 14d4 8b3e 0fac 383e 5cca 2c3e
00000340: 0120 443e bb18 973d 5c8b f5b9 14bc 14be
00000350: 630c 9bbd 2363 e43c 860c 243e 863c ea3d
00000360: 909c 563d 7865 adbd 9627 343e 4e46 7bbd
00000370: d7c9 40bb 3a33 04be 31ae db3d 585d ebbd
00000380: 7d81 ae3b f2ed 5f3d 7edb d53d e7ab 113e
00000390: d0a7 553d 8a60 eabd 19c9 1cbc 5591 c3bc
000003a0: 7eca bf3d f0e3 ce3d 8ae5 33be ad94 35be
000003b0: 4e4d 02be 1ca4 06be d6a8 24bd 5fb1 4cbd
000003c0: a9b1 1fbe e5a8 23be cd3b 1ebd e301 ebbc
000003d0: 8682 423d c386 1fbe fb29 233e f9d5 7fbd
000003e0: cef4 f73d 73c7 de3c d9e2 b0bd d69c 0b3d
000003f0: acbe 66bd a589 ad3d a540 163e 3b0f 363d

bias f4 [54]
-0.055115487 0.25071827 0.010127326 -0.19739631 0.09425344 0.11930784 -0.1330208 -0.12704049
0.19796135 -0.055448044 -0.12934677 -0.18210547 -0.045440942 0.19251089 0.040294975 0.112123445
0.084257856 0.18586373 0.06291029 -0.14260207 0.010267589 -0.013542835 -0.012042082 0.028672496
-0.038544405 -0.13857484 -0.09413924 -0.045235567 -0.042703085 -0.016491061 -0.049104393 0.11070255
-0.08736978 -0.06218219 0.10011733 -0.060939312 0.036538135 0.061521955 0.13183202 0.09616441
-0.00072366575 0.19041546 0.11837668 -0.050837215 -0.054602254 0.21097292 0.05372308 0.10779033
0.23357756 -0.06270748 0.16353828 -0.18087389 -0.11222545 0.0038193008
00000000: c7c0 61bd 255e 803e 15ed 253c 4222 4abe
00000010: f307 c13d ab57 f43d 9b36 08be e716 02be
00000020: 61b6 4a3e 7d1d 63bd 7b73 04be db79 3abe
00000030: 4820 3abd 9321 453e 580c 253d faa0 e53d
00000040: 628f ac3d 1053 3e3e 1cd7 803d 4706 12be
00000050: 6439 283c c4e2 5dbc 274c 45bc 95e2 ea3c
00000060: bde0 1dbd 90e6 0dbe 13cc c0bd ee48 39bd
00000070: 6ee9 2ebd 4318 87bc b021 49bd 05b8 e23d
00000080: edee b2bd c1b2 7ebd 510a cd3d 809b 79bd
00000090: 03a9 153d 72fe 7b3d f9fe 063e d9f1 c43d
000000a0: 63b4 3dba 45fc 423e 796f f23d af3a 50bd
000000b0: 9da6 5fbd 4909 583e bb0c 5c3d 2dc1 dc3d
000000c0: f52e 6f3e c76c 80bd 9476 273e 0137 39be
000000d0: 75d6 e5bd 3c4d 7a3b

weight f4 [18, 54]
-0.029910855 -0.10523548 -0.09734718 -0.047502086 0.12114927 -0.083407156 -0.021867419 0.100003354
0.058607653 0.0828373 -0.003335315 -0.09024899 -0.11184693 0.0037134397 -0.07703635 0.0816315
-0.13127987 -0.07159851 -0.06305035 -0.104958974 -0.06979777 -0.02281729 0.048610717 0.08702311
0.10654066 0.13659514 0.018715378 -0.042884387 0.03935296 -0.008879749 -0.014744477 0.1426727
0.07866031 -0.07329428 -0.073092476 -0.059282247 -0.13176772 0.10083443 -0.12369125 0.07148292
0.05909425 -0.024902273 0.03601045 -0.06936623 0.11729021 0.020259103 -0.08124689 -0.11411051
-0.1310623 0.13224548 -0.037480887 0.046989806 -0.10194107 -0.054880906 -0.04407467 -0.043349415
0.0074259136 -0.05410416 0.25418684 0.1620067 0.32898474 -0.03979766 0.058288407 0.10487689
-0.07036322 -0.009908951 0.028020304 -0.021510553 -0.042793367 0.011389171 0.0655715 -1.6171716e-05
0.0616358 0.013421043 0.08973979 -0.053530358 0.032695755 0.19674566 -0.09071769 0.052213505
0.05397665 0.13354303 -0.015144442 0.01937206 -0.0013304872 -0.008987009 -0.052412648 -0.0013926334
0.06029516 0.1339889 0.048044063 0.10345649 0.08307487 0.08246674 0.112114556 -0.01696579
0.060494535 0.02998245 0.07086793 0.025555769 0.013786793 -0.06742705 0.07548806 -0.085329436
0.122219935 -0.11621278 0.27152896 0.025837079 0.036521975 -0.1638959 -0.039180785 0.06815264
0.038828306 0.023205817 0.03726993 -0.06611702 0.014063917 -0.09191105 0.24513505 0.093679644
-0.027110156 -0.027237212 -0.022186814 0.107065655 0.09648574 0.056104843 0.2303201 -0.12943919
0.100317605 -0.014102625 0.093144655 -0.079292364 -0.045420077 -0.0503486 -0.13487096 -0.12917766
-0.038399618 0.09734247 0.02684026 -0.013066908 -0.08222441 0.06363226 0.022423841 0.08514637
-0.04489275 0.043765012 0.055888776 -0.077849664 0.0073266183 0.017244425 -0.09733762 0.00860642
0.006038249 -0.06699059 -0.062449515 0.17998728 -0.04810754 -0.02133872 -0.031216932 -0.0896427
-0.019676019 0.011041609 0.04415115 -0.043144267 -0.05468427 -0.11465806 0.0871483 -0.06375549
-0.11418044 -0.04824442 0.056844227 -0.11378481 -0.12903449 0.05962816 -0.057419132 -0.0019133637
0.007581088 -0.08005529 0.0048708017 -0.10303129 0.08021734 -0.12572576 -0.06403676 -0.13209166
-0.038304918 0.011699576 -0.10820605 -0.107091434 -0.08064766 0.10218061 -0.09015688 0.007925282
-0.009289792 -0.0566457 0.0974683 -0.035358362 0.057074174 0.049678087 -0.10940012 0.010373973
-0.10024262 -0.046507962 0.020751853 -0.10684315 0.09228621 0.045557354 -0.043624006 0.067415684
-0.10207502 -0.039751403 -0.028218012 0.063731 -0.03251084 -0.06573565 -0.00752869 -0.031244714
-0.096500374 0.063229635 -0.048314735 -0.014447047 0.026753552 0.13899975 0.055104647 0.09702555
0.020567339 -0.12705503 0.0129679125 0.0037322484 -0.041706085 0.14564806 0.072695844 -0.039476193
0.032825854 0.07271812 0.083877824 -0.07755733 -0.11376223 -0.110499784 0.082715586 0.0012495006
-0.03274094 -0.074894585 -0.10868227 0.12511435 -0.094161466 -0.019842155 -0.08647009 -0.075556904
0.072811 0.121637315 -0.037311394 0.027196862 0.07288181 -0.16239497 -0.060226522 0.13550846
00000000: 9c07 f5bc b385 d7bd f55d c7bd 8c91 42bd
00000010: 1c1d f83d 5fd1 aabd 4d23 b3bc 8fce cc3d
00000020: 940e 703d 9aa6 a93d 4d95 5abb 76d4 b8bd
00000030: 0110 e5bd 2e5d 733b 3cc5 9dbd 6a2e a73d
00000040: 3b6e 06be 3da2 92bd 8b20 81bd bbf4 d6bd
00000050: 22f2 8ebd 53eb babc 081c 473d 2c39 b23d
00000060: fd31 da3d 99df 0b3e fe50 993c 8aa7 2fbd
00000070: 9230 213d 5e7c 11bc d292 71bc cb18 123e
00000080: a818 a13d 501b 96bd 82b1 95bd f1d1 72bd
00000090: 1eee 06be 4882 ce3d d751 fdbd a365 923d
000000a0: d00c 723d daff cbbc b27f 133d e20f 8ebd
000000b0: da35 f03d 6bf6 a53c c564 a6bd c5b2 e9bd
000000c0: 3235 06be 5c6b 073e 8f85 19bd 6278 403d
000000d0: 7bc6 d0bd cdca 60bd a487 34bd 288f 31bd
000000e0: 1455 f33b 539c 5dbd c724 823e 16e5 253e
000000f0: b070 a83e df02 23bd d3bf 6e3d b2c9 d63d
00000100: 981a 90bd 2759 22bc d68a e53c e636 b0bc
00000110: 1948 2fbd a599 3a3c 5a4a 863d 7fa8 87b7
00000120: d275 7c3d efe3 5b3c 7fc9 b73d a642 5bbd
00000130: fceb 053d b277 493e 32ca b9bd d4dd 553d
00000140: 9f16 5d3d 81bf 083e 6520 78bc 28b2 9e3c
00000150: be63 aeba 3f3e 13bc a5ae 56bd 0689 b6ba
00000160: 0ff8 763d 6334 093e dac9 443d ffe0 d33d
00000170: 2823 aa3d 52e4 a83d 519c e53d d7fb 8abc
00000180: 1ec9 773d c19d f53c 3523 913d 555a d13c
00000190: 00e2 613c 3117 8abd 7c99 9a3d 33c1 aebd
000001a0: 724e fa3d f700 eebd d805 8b3e 48a8 d33c
000001b0: 1198 153d 54d4 27be 087c 20bd 9c93 8b3d
000001c0: 6e0a 1f3d 201a be3c 5ba8 183d 5c68 87bd
000001d0: 586c 663c dc3b bcbd af04 7b3e 1ddb bf3d
000001e0: 1e16 debc 9320 dfbc 1fc1 b5bc 3d45 db3d
000001f0: 519a c53d 31ce 653d 08d9 6b3e b58b 04be
00000200: 5173 cd3d b20e 67bc a0c2 be3d 0964 a2bd
00000210: 670a 3abd 553a 4ebd 9d1b 0abe 2647 04be
00000220: eb48 1dbd 7d5b c73d 1be0 db3c 9616 56bc
00000230: 4565 a8bd a151 823d 34b2 b73c 3861 ae3d
00000240: 76e1 37bd f142 333d a1eb 643d a56f 9fbd
00000250: 2114 f03b 2e44 8d3c f258 c7bd f101 0d3c
00000260: 81dc c53b 5d32 89bd 10cb 7fbd 964e 383e
00000270: 690c 45bd 8ace aebc a7ba ffbc 9896 b7bd
00000280: 9a2f a1bc dde7 343c d6d7 343d 0bb8 30bd
00000290: 9dfc 5fbd d8d1 eabd cf7a b23d 3d92 82bd
000002a0: 6fd7 e9bd f19b 45bd 7ed5 683d 0308 e9bd
000002b0: 9e21 04be a83c 743d 5330 6bbd d5c9 faba
000002c0: c76a f83b 07f4 a3bd 3f9b 9f3b 1202 d3bd
000002d0: fd48 a43d 41be 00be b425 83bd 0943 07be
000002e0: 9ee5 1cbd 94af 3f3c 229b ddbd c152 dbbd
000002f0: 9a2a a5bd 1144 d13d 2ca4 b8bd 0bd9 013c
00000300: 3634 18bc 5205 68bd 769d c73d eed3 10bd
00000310: 9cc6 693d 407b 4b3d 2c0d e0bd 99f7 293c
00000320: 014c cdbd 227f 3ebd caff a93c 95d0 dabd
00000330: 8d00 bd3d 599a 3a3d 16af 32bd 3c11 8a3d
00000340: b50c d1bd 5ed2 22bd 7629 e7bc 6685 823d
00000350: 162a 05bd 6aa0 86bd 3bb3 f6bb eaf4 ffbc
00000360: fda1 c5bd 8a7e 813d ace5 45bd 4fb3 6cbc
00000370: 442a db3c f355 0e3e 69b5 613d 55b5 c63d
00000380: d67c a83c b71a 02be 5e77 543c bd98 743b
00000390: 00d4 2abd c424 153e 8fe1 943d cab1 21bd
000003a0: 6774 063d 3ded 943d 23c8 ab3d 61d6 9ebd
000003b0: 2cfc e8bd b64d e2bd ca66 a93d 48c6 a33a
000003c0: 5d1b 06bd 5562 99bd cf94 debd fa1d 003e
000003d0: bad7 c0bd 048c a2bc 3b17 b1bd 94bd 9abd
000003e0: ef1d 953d fc1c f93d d5d3 18bd f4cb de3c
000003f0: 0f43 953d de4a 26be 16b0 76bd bbc2 0a3e

bias f4 [18]
0.1485179 0.19480224 0.016296314 0.020177716 -0.024450062 0.14515875 0.03867141 0.29883757
0.029808315 0.039132167 -0.11046018 -0.06074395 -0.00790429 -0.06825973 -0.05094305 0.45273915
0.20538361 -0.11133338
00000000: 1415 183e 3d7a 473e d97f 853c bd4b a53c
00000010: 7f4b c8bc 7fa4 143e ea65 1e3d 3d01 993e
00000020: 9130 f43c 0d49 203d f238 e2bd a6ce 78bd
00000030: ff80 01bc c2cb 8bbd a9a9 50bd 6dcd e73e
00000040: 1550 523e c102 e4bd

weight f4 [6, 18]
0.11897497 0.23090102 -0.17232653 0.0095828865 -0.17962147 0.04700091 0.0048229583 0.061903775
-0.10311634 0.010843855 -0.18002702 -0.06442961 0.01889963 -0.16378072 -0.042472832 0.49894363
0.3673677 0.0022381977 -0.08129335 -0.13148814 -0.038397316 0.06449312 0.17679064 -0.20812556
-0.16482864 -0.04981582 0.08491731 0.19911128 0.0371008 -0.14421803 -0.23180841 0.057023887
0.06378537 -0.12217908 -0.07688584 -0.1702729 0.13884415 -0.108787164 0.1788192 -0.12494803
-0.14776643 0.14000294 0.11525209 0.45386884 -0.037302047 0.01432509 -0.052177377 -0.1797614
0.067883335 0.31221607 0.076381184 0.44544202 0.0860545 -0.042575646 -0.015680157 0.3646366
-0.1839562 0.06266975 -0.14984986 0.24017869 0.17087992 -0.22704321 0.13899642 0.17724267
0.2039168 -0.0032982398 -0.016051807 0.15231569 0.034954272 0.19064417 0.16417718 0.20012723
-0.04908476 0.3878023 0.013133214 0.0022682028 0.0008509728 -0.20606847 -0.06394923 -0.020233812
-0.098630235 0.16504441 -0.08595131 0.22533844 -0.1329318 -0.18486352 -0.09512993 -0.15344138
0.2051548 0.20028588 0.059962362 0.041966077 -0.17656924 0.0019472386 0.06372466 -0.002800811
0.112108104 -0.17990962 -0.11967687 -0.015701856 -0.23512308 0.103111446 0.2096759 -0.21588153
-0.06271268 -0.017071841 0.08032474 -0.122451015
00000000: 26a9 f33d 5171 6c3e 5e76 30be 8a01 1d3c
00000010: b1ee 37be 0784 403d e809 9e3b d08e 7d3d
00000020: a92e d3bd 6daa 313c 0159 38be acf3 83bd
00000030: 66d3 9a3c 22b6 27be fef7 2dbd 8a75 ff3e
00000040: 9f17 bc3e baae 123b 217d a6bd d4a4 06be
00000050: 8146 1dbd f814 843d 9b08 353e de1e 55be
00000060: d7c8 28be ac0b 4cbd 20e9 ad3d d4e3 4b3e
00000070: 02f7 173d e4ad 13be 2f5f 6dbe e191 693d
00000080: e7a1 823d 0739 fabd 5376 9dbd 055c 2ebe
00000090: 292d 0e3e cecb debd 611c 373e c1e4 ffbd
000000a0: 1550 17be ee5c 0f3e 4a09 ec3d 7f61 e83e
000000b0: 08ca 18bd c8b3 6a3c f2b7 55bd 5f13 38be
000000c0: 6b06 8b3d c9da 9f3e bd6d 9c3d fa10 e43e
000000d0: 573d b03d cd63 2ebd ac73 80bc a6b1 ba3e
000000e0: 045f 3cbe ff58 803d 3e72 19be 67f1 753e
000000f0: 25fb 2e3e 047e 68be 1455 0e3e 1a7f 353e
00000100: 91cf 503e 4827 58bb 147f 83bc a5f8 1b3e
00000110: 362c 0f3d 3a38 433e 101e 283e 27ee 4c3e
00000120: 1a0d 49bd 068e c63e b12c 573c 21a6 143b
00000130: d113 5f3a 9d03 53be d0f7 82bd 61c1 a5bc
00000140: a6fe c9bd 6701 293e 3e07 b0bd 1fbf 663e
00000150: 461f 08be dd4c 3dbe 7bd3 c2bd bd1f 1dbe
00000160: 1a14 523e be17 4d3e 189b 753d 9fe4 2b3d
00000170: 91ce 34be 7c3a ff3a 1382 823d d08d 37bb
00000180: ef98 e53d 3a3a 38be 2619 f5bd 2ea1 80bc
00000190: 1bc4 70be 182c d33d 47b5 563e 0c10 5dbe
000001a0: 816f 80bd 3fda 8bbc 4c81 a43d 99c7 fabd

bias f4 [6]
0.5342104 -0.011070587 0.3106514 0.29412648 -0.12415715 0.09455435
00000000: 03c2 083f 6861 35bc b30d 9f3e bf97 963e
00000010: 1b46 febd b6a5 c13d

weight f4 [2, 6]
-0.60074085 -0.34202918 -0.634237 0.13308261 0.35839587 -0.02142071 -0.74941576 0.23665783
0.49260104 -0.5695205 -0.38974464 -0.11747145
00000000: 27ca 19bf 731e afbe 5b5d 22bf cf46 083e
00000010: aa7f b73e 7c7a afbc b6d9 3fbf 6e56 723e
00000020: 3436 fc3e 18cc 11bf 9c8c c7be df94 f0bd

bias f4 [2]
0.15025672 -0.056931928
00000000: e6dc 193e 7431 69bd

weight f4 [6, 2]
0.4859349 -0.18311173 0.08243568 -0.83126116 -0.7796322 -0.1732775 -0.85209084 -0.53558797
-0.57809037 -0.6849641 0.45643592 -0.14277053
00000000: 76cc f83e a481 3bbe 0ad4 a83d 88cd 54bf
00000010: fa95 47bf a86f 31be a022 5abf 4b1c 09bf
00000020: bbfd 13bf cf59 2fbf f8b1 e93e 7032 12be

bias f4 [6]
-0.5681474 0.8252816 -0.18773429 -0.36842623 0.30436 -0.2981034
00000000: 1c72 11bf a845 533f 6b3d 40be 5da2 bcbe
00000010: 13d5 9b3e 02a1 98be

weight f4 [18, 6]
-0.15206313 -0.15253755 -0.1454025 -0.12789543 0.2992906 0.07633195 -0.26755387 -0.11698057
0.30777362 0.31943145 -0.088401005 -0.3135026 0.026761383 0.20033546 -0.16730696 -0.27729747
-0.2247712 0.18066731 -0.118545145 -0.36843905 0.4463703 0.2993811 -0.01192187 0.18761115
-0.36779392 -0.18909289 -0.18518655 -0.2878646 -0.35112387 0.0092488825 0.2847666 -0.15567912
0.34197533 0.27203175 -0.2865669 -0.05029738 0.02516362 -0.16891003 -0.26161987 -0.37178686
0.0066476166 0.22058958 0.120114386 0.52835757 -0.21677244 -0.049278583 0.21613564 -0.008028155
-0.07112998 0.34054127 -0.41690925 0.035085674 0.26281008 -0.3285973 0.36599725 0.24764751
0.25853792 -0.20748028 0.46857315 0.15605673 -0.26743 -0.0649686 0.257981 -0.15735546
-0.1535334 -0.29995495 -0.17172371 -0.411433 0.12600474 -0.11412063 0.11401782 0.30898887
0.07174522 -0.21094391 -0.06399146 -0.39035213 0.40618074 0.005808562 0.325135 -0.15320155
0.4908026 0.50130755 0.48790687 0.22215837 -0.011939555 0.30868512 0.17975879 -0.53587687
-0.07724797 -0.4007441 0.27949458 -0.43815058 0.40146285 -0.26514438 -0.1048109 -0.048199743
-0.124456495 0.04024455 0.2231319 -0.18803659 -0.3726189 -0.36660713 0.28377062 0.59638363
-0.28506294 -0.1582608 0.51927316 -0.28890097
00000000: 70b6 1bbe ce32 1cbe 65e4 14be 05f7 02be
00000010: 9e3c 993e ed53 9c3d d2fc 88be 8293 efbd
00000020: 8194 9d3e 858c a33e 960b b5bd 6a83 a0be
00000030: b03a db3c bd24 4d3e 8452 2bbe eff9 8dbe
00000040: 6c2a 66be da00 393e ccc7 f2bd 0ba4 bcbe
00000050: a68a e43e 7b48 993e f253 43bc 231d 403e
00000060: 7c4f bcbe 91a1 41be 8ba1 3dbe fd62 93be
00000070: 82c6 b3be a088 173c eecc 913e 596a 1fbe
00000080: 6417 af3e bf47 8b3e e6b8 92be a004 4ebd
00000090: f023 ce3c c0f6 2cbe 0af3 85be d95a bebe
000000a0: 40d4 d93b 3ce2 613e 88fe f53d 7142 073f
000000b0: 98f9 5dbe 57d8 49bd a952 5d3e 8688 03bc
000000c0: 98ac 91bd 6d5b ae3e 2175 d5be ffb5 0f3d
000000d0: 0b8f 863e e83d a8be fe63 bb3e 4f97 7d3e
000000e0: 155f 843e b675 54be d2e8 ef3e 56cd 1f3e
000000f0: 96ec 88be 420e 85bd 1616 843e ca21 21be
00000100: dc37 1dbe b293 99be 57d8 2fbe 59a7 d2be
00000110: 6307 013e 14b8 e9bd 2d82 e93d ca33 9e3e
00000120: 28ef 923d ae01 58be f40d 83bd 3cdc c7be
00000130: ecf6 cf3e c055 be3b 1878 a63e dee0 1cbe
00000140: 7a4a fb3e b155 003f eece f93e 7c7d 633e
00000150: 209e 43bc fa0b 9e3e b012 383e 3a2f 09bf
00000160: 2f34 9ebd 552e cdbe ea19 8f3e 4655 e0be
00000170: 8a8c cd3e 01c1 87be 19a7 d6bd 186d 45bd
00000180: 0ce3 febd 78d7 243d b07c 643e aa8c 40be
00000190: e8c7 bebe eeb3 bbbe 624a 913e 99ac 183f
000001a0: c5f3 91be 1f0f 22be 16ef 043f d4ea 93be

bias f4 [18]
0.28197134 0.25132012 0.35730693 0.6637287 0.95023704 -0.35523477 -0.06238398 0.13462108
-0.26907665 -0.100124836 -0.021889564 -0.10443811 -0.26945353 -0.20854583 0.5125078 0.8801577
-0.29798102 0.30613643
00000000: 8c5e 903e 08ad 803e eff0 b63e 20ea 293f
00000010: bc42 733f 55e1 b5be 5886 7fbd 1cda 093e
00000020: 6ac4 89be 400e cdbd be51 b3bc a6e3 d5bd
00000030: d0f5 89be 0a8d 55be b633 033f 0452 613f
00000040: f890 98be eabd 9c3e

weight f4 [54, 18]
0.18190178 0.008570881 -0.21990035 -0.10988942 -0.057600114 -0.17141937 0.124496296 -0.0007453831
-0.106416516 -0.07059767 0.05393221 -0.12776282 0.07616328 0.1337235 0.013245747 0.11447825
0.15386347 -0.08638477 -0.18641376 -0.1662079 0.0298754 -0.12504442 -0.19658332 -0.21383038
0.05628504 0.057248436 0.18504675 0.0019811078 0.21332704 -0.11089768 -0.014595538 -0.13466412
-0.19030033 -0.057277497 -0.22760077 0.05167037 -0.20775679 -0.115467586 0.03640385 -0.11684225
0.09392847 0.23515768 -0.23366438 -0.17923361 0.04690571 -0.19819605 0.074378625 0.024024382
-0.032261536 -0.057280764 -0.09666857 -0.097123176 0.14924161 -0.18530747 -0.21793936 0.062161043
-0.09479709 0.030694142 -0.10575238 -0.19239034 0.108458176 0.20557447 -0.08000289 0.05046986
0.11003198 0.012832925 0.1168762 -0.10223505 -0.06465 0.095321134 0.06688927 -0.06276539
0.19391198 0.04771248 0.08873432 0.29364398 0.41905975 0.14062895 -0.16499844 0.06706807
0.023425609 -0.16366011 -0.19253193 0.014924222 -0.045666754 -0.24597575 0.18013297 0.3780689
-0.09911062 0.049741197 0.11043103 -0.10118803 0.075809576 -0.09837647 -0.096740656 0.20131232
-0.012956589 0.19365188 0.099235214 0.14975098 0.17910217 0.2009361 -0.12618572 0.14426017
-0.1670136 0.14879635 -0.11807021 0.007888963 0.0835972 -0.13133119 0.21687953 0.21707182
0.22722769 -0.15444815 0.02529858 0.069327556 0.048245367 -0.02329559 -0.08123148 -0.04307497
-0.17303073 -0.030499788 -0.20654061 0.2946022 0.060690448 -0.15966427 0.1866255 -0.1315524
0.17040694 0.10938545 0.31556675 -0.18415435 -0.10827915 -0.1832941 -0.23821776 -0.02805575
-0.21588403 -0.006590368 -0.0794878 -0.032157697 0.07540379 0.23583041 -0.19566849 0.13532372
-0.07449493 0.10713619 0.20633209 -0.22554429 -0.13148332 -0.21925075 -0.05242181 0.3238985
-0.0015898815 -0.01847888 -0.09204729 0.026451344 0.12728523 0.018061258 0.14203201 0.041358978
-0.15180045 0.019230591 -0.10390651 0.17867103 0.0024699294 0.07439156 0.17211215 0.041465487
0.029521301 -0.15134063 0.0031340662 -0.13947469 -0.20186834 0.060560174 -0.15970261 0.23400512
0.18515652 -0.07672311 -0.19500828 -0.1783403 -0.12776157 -0.087058865 -0.14034833 -0.21311392
0.074177876 -0.23351796 -0.13628678 -0.17596665 -0.002714985 0.16046797 -0.19313541 -0.019441854
-0.06577052 0.12425675 -0.05266745 0.05540719 -0.047001347 -0.038398467 0.13249302 0.19013917
0.033980705 -0.1253098 -0.1830299 -0.08267915 -0.19018482 0.0048185955 0.18998893 0.16397412
-0.0062120194 -0.0063795093 0.22864397 0.12271461 0.23827606 0.13035634 -0.10444528 -0.06114157
0.16479072 0.20385996 0.19532509 -0.096925415 0.2245035 -0.18936011 -0.0010342598 -0.1229236
-0.16725862 0.018999282 0.02713185 -0.15509607 0.2128702 0.18930453 -0.05447029 0.21125256
-0.0039176643 -0.062022172 -0.096172445 -0.11192328 -0.21846199 0.03754924 0.15148215 -0.09124811
0.1462936 0.25786486 0.1563973 0.2214692 0.08258574 0.18997508 0.035511985 -0.08239419
0.28195378 0.14651935 0.1667421 0.12477989 -0.07768237 -0.1958871 0.13265045 -0.036788315
00000000: 7644 3a3e e16c 0c3c 8f2d 61be b40d e1bd
00000010: 19ee 6bbd 8f88 2fbe eaf7 fe3d d065 43ba
00000020: e7f0 d9bd 8395 90bd 05e8 5c3d 42d4 02be
00000030: 7efb 9b3d d0ee 083e b104 593c 9373 ea3d
00000040: 638e 1d3e 80ea b0bd 40e3 3ebe 6732 2abe
00000050: 41bd f43c a50b 00be 234d 49be 5af6 5abe
00000060: 248b 663d 567d 6a3d e57c 3d3e 79d5 013b
00000070: 6772 5a3e 531e e3bd 2022 6fbc 64e5 09be
00000080: 17de 42be cf9b 6abd 2d10 69be 4fa4 533d
00000090: 32be 54be 457a ecbd 341c 153d fd4a efbd
000000a0: 925d c03d 2dcd 703e b745 6fbe 0489 37be
000000b0: 3420 403d e8f3 4abe d253 983d c8ce c43c
000000c0: ac24 04bd 3c9f 6abd 2cfa c5bd 84e8 c6bd
000000d0: cbd2 183e 3ec1 3dbe 7f2b 5fbe 949c 7e3d
000000e0: fa24 c2bd 4872 fb3c b494 d8bd f901 45be
000000f0: 521f de3d 1d82 523e 8ed8 a3bd 7cb9 4e3d
00000100: 7258 e13d 3041 523c ca5c ef3d 9c60 d1bd
00000110: 3867 84bd ba37 c33d 3efd 883d 248b 80bd
00000120: dd90 463e 296e 433d 57ba b53d 8158 963e
00000130: 008f d63e 0901 103e 5af5 28be fc5a 893d
00000140: 10e7 bf3c 8496 27be 1727 45be b984 743c
00000150: 100d 3bbd 11e1 7bbe c774 383e 3f92 c13e
00000160: 82fa cabd 6dbd 4b3d aa29 e23d ab3b cfbd
00000170: 0d42 9b3d 9a79 c9bd f71f c6bd d124 4e3e
00000180: e047 54bc ae4c 463e d53b cb3d 5258 193e
00000190: 8f66 373e 31c2 4d3e d436 01be f0b8 133e
000001a0: 9d05 2bbe 125e 183e cbce f1bd b640 013c
000001b0: 0235 ab3d af7b 06be ab15 5e3e 1348 5e3e
000001c0: 60ae 683e a827 1ebe f83e cf3c 9bfb 8d3d
000001d0: ef9c 453d 65d6 bebc b15c a6bd 616f 30bd
000001e0: f82e 31be b1da f9bc 627f 53be 19d6 963e
000001f0: 8c96 783d 087f 23be c11a 3f3e acb5 06be
00000200: 287f 2e3e 7b05 e03d f791 a13e f592 3cbe
00000210: 76c1 ddbd 73b1 3bbe 5bef 73be 2cd5 e5bc
00000220: b410 5dbe 04f4 d7bb 80ca a2bd cab7 03bd
00000230: 4d6d 9a3d 877d 713e 525d 48be 4d92 0a3e
00000240: cc90 98bd 386a db3d b848 533e 15f5 66be
00000250: 90a3 06be 4583 60be 40b8 56bd 06d6 a53e
00000260: 9263 d0ba 0561 97bc 4a83 bcbd 7db0 d83c
00000270: 0f57 023e 34f5 933c d770 113e 0868 293d
00000280: 9471 1bbe 7989 9d3c f0cc d4bd 8af5 363e
00000290: 8ade 213b 9a5a 983d 2b3e 303e b7d7 293d
000002a0: a8d6 f13c 0af9 1abe e864 4d3b 74d2 0ebe
000002b0: 93b6 4ebe f20d 783d 1589 23be 0a9f 6f3e
000002c0: ac99 3d3e 0221 9dbd 40b0 47be d79e 36be
000002d0: eed3 02be eb4b b2bd 79b7 0fbe 893a 5abe
000002e0: 92ea 973d 551f 6fbe c38e 0bbe 9a30 34be
000002f0: e4ed 31bb b751 243e 4ac5 45be 8644 9fbc
00000300: b2b2 86bd 537a fe3d d3b9 57bd a6f2 623d
00000310: 7c84 40bd b647 1dbd 40ac 073e d8b3 423e
00000320: 5a2f 0b3d 3651 00be 316c 3bbe b053 a9bd
00000330: cfbf 42be 4fe5 9d3b 758c 423e d5e8 273e
00000340: 328e cbbb 340b d1bb a521 6a3e cc51 fb3d
00000350: a4fe 733e 227c 053e 68e7 d5bd 956f 7abd
00000360: e6be 283e aac0 503e 4d03 483e d580 c6bd
00000370: 3fe4 653e 9ee7 41be 0090 87ba 5ebf fbbd
00000380: d845 2bbe 62a4 9b3c 9d43 de3c 81d1 1ebe
00000390: a5fa 593e 0cd9 413e 3d1c 5fbd 9752 583e
000003a0: c05f 80bb f60a 7ebd 0ff6 c4bd 0838 e5bd
000003b0: 80b4 5fbe 3bcd 193d 231e 1b3e 4ae0 babd
000003c0: fdcd 153e dd06 843e 9d26 203e d2c8 623e
000003d0: b622 a93d d488 423e 0475 113d 49be a8bd
000003e0: 3f5c 903e 2b09 163e 71be 2a3e 998c ff3d
000003f0: ef17 9fbd a196 48be 85d5 073e 58af 16bd

bias f4 [54]
-0.022540586 0.20871046 0.16376583 -0.06969307 0.62798095 0.115113206 0.35152343 0.26760635
0.26976857 0.10692106 -0.13459043 -0.21614839 -0.1211869 -0.11340008 0.0043257447 0.10860623
0.062181357 -0.20347643 -0.017468572 0.35167754 0.12157687 0.11894235 0.14063843 -0.03374526
0.12327033 0.01577264 0.42831066 -0.2128131 0.12375124 0.16139504 -0.09273655 0.20883206
0.09329246 -0.17252229 0.24827534 0.1974522 -0.099887714 0.039561242 0.23785491 0.08643842
-0.12114468 0.3257438 0.1920346 0.035441834 -0.10293158 0.11180569 0.09256476 0.011430373
0.12729633 -0.18857476 0.4256645 -0.1825028 -0.22312954 0.18076365
00000000: 09a7 b8bc 32b8 553e 3bb2 273e 3ebb 8ebd
00000010: 5cc3 203f 79c0 eb3d e1fa b33e b303 893e
00000020: 1b1f 8a3e 6ef9 da3d 13d2 09be 0156 5dbe
00000030: d630 f8bd 4d3e e8bd fabe 8d3b f16c de3d
00000040: e1b1 7e3d 205c 50be 401a 8fbc 140f b43e
00000050: 4bfd f83d 0c98 f33d 8503 103e 7838 0abd
00000060: 2875 fc3d a035 813c 894b db3e adeb 59be
00000070: 4a71 fd3d be44 253e a9ec bdbd 12d8 553e
00000080: 1e10 bf3d afa9 30be e43b 7e3e e930 4a3e
00000090: ee91 ccbd f80a 223d 3d90 733e a006 b13d
000000a0: b41a f8bd e4c7 a63e b8a4 443e 752b 113d
000000b0: cbcd d2bd 62fa e43d 9892 bd3d 7646 3b3c
000000c0: f859 023e be19 41be b3f0 d93e 04e2 3abe
000000d0: 127c 64be 1b1a 393e

weight f4 [30, 54]
0.059317693 -0.13037987 -0.06672702 0.00042812526 0.33550766 0.026650615 0.02182784 0.16141519
-0.05533994 -0.029948449 0.035962585 -0.069722235 -0.021888187 0.07621412 -0.01566946 0.003911315
0.08653277 -0.117856525 -0.20068933 0.1735406 -0.044712126 -0.09596185 0.041257583 0.049340345
-0.2408274 -0.065777235 0.33794257 -0.024456799 0.12399492 0.012527976 0.10515719 0.14547862
-0.23444852 -0.11255325 0.16976753 0.13033132 -0.081613064 0.023187637 -0.01560796 -0.015536197
-0.007938713 0.051946715 -0.104492925 0.06637506 0.059152376 -0.002870296 -0.012915264 -0.1028629
-0.049308274 -0.11537073 0.16231203 -0.06144885 -0.06654347 -0.05573878 0.038957845 0.006335605
0.13418499 -0.06825857 0.22228722 0.04008102 0.13760018 0.22617847 -0.078592986 -0.104613476
0.13268767 -0.09940871 0.025994219 0.047551386 0.1192542 0.013909738 0.103249654 0.0076473453
0.013096559 0.20907271 -0.0356947 0.0071711787 -0.093969665 -0.06915332 -0.21656637 0.04723566
0.20995836 -0.11891421 0.10901892 0.055975158 -0.032374755 -0.018731464 -0.11873424 -0.03784341
0.30973133 0.043884344 -0.19160914 -0.083635084 -0.047256403 -0.0784011 -0.13541658 0.25452164
-0.01390837 0.17333281 -0.09899283 0.06869565 -0.1841662 0.14880185 0.02684364 -0.08456384
0.15977441 -0.09276632 -0.11007829 -0.09112381 0.11738791 -0.016210599 0.027034625 -0.065047584
0.24608903 -0.087556586 0.09821555 0.23951773 0.12016052 0.057447255 -0.13224773 -0.037159696
0.008187374 -0.06950391 0.12991826 -0.020160884 0.13266137 0.11729586 -0.11138518 0.1916287
0.07430036 -0.047305524 -0.08275116 -0.05211188 -0.15043396 -0.075029925 0.2588457 -0.12238907
-0.023929477 -0.14589545 -0.10774092 0.14573969 -0.109539576 -0.0049783676 0.21520285 0.1102966
-0.08565924 0.01652705 0.030306235 0.05457973 -0.11871377 0.12471147 -0.05694551 0.15411538
-0.12420222 -0.08982875 0.0016529247 -0.05622054 -0.09079185 0.027737735 0.018860813 -0.061248112
-0.11388985 0.15767099 -0.053186417 -0.055506885 -0.10482362 -0.055504106 0.3473935 0.008703077
0.20203575 0.14292789 0.13991801 -0.07899091 0.024558851 -0.09653224 0.079018146 -0.11418654
0.11895939 0.07459447 -0.13486484 -0.0074008717 -0.18003139 0.1572298 -0.008434038 0.10930429
-0.06824432 -0.047559306 -0.18364301 0.09076472 0.19254473 -0.09912754 0.110152885 -0.06644935
-0.13021752 -0.080134526 0.008779223 -0.023346614 0.26871598 0.024214182 -0.14931674 0.02927291
0.05924082 -0.0133301215 0.016965374 0.025979798 -0.0011938103 0.055924337 0.024370926 0.07528795
-0.12167807 -0.0025430669 -0.11624392 -0.039236974 0.09966925 0.1276046 0.015081118 0.13223845
-0.014525363 -0.11852035 -0.078103766 0.1331279 0.28361517 -0.044631097 0.17796725 0.05965217
0.16758378 0.078750715 -0.060361814 -0.08703987 -0.12625736 -0.060437616 0.061543617 -0.0332279
-0.05204546 0.07586886 -0.013701781 0.19257277 0.10624322 0.05638932 -0.075303756 -0.012631492
-0.22472833 0.09879288 0.2385512 0.100248694 0.052232057 -0.09260915 0.09672991 0.055945605
-0.21936454 0.11372254 0.14732754 0.010765152 -0.0049416767 0.12520832 -0.030268332 -0.030227566
00000000: 1cf7 723d 4d82 05be 2da8 88bd 0076 e039
00000010: a9c7 ab3e 6452 da3c 4cd0 b23c 064a 253e
00000020: 22ac 62bd 7356 f5bc 814d 133d 88ca 8ebd
00000030: db4e b3bc 2616 9c3d 3d5d 80bc 7d2a 803b
00000040: 1838 b13d c35e f1bd 8181 4dbe a1b4 313e
00000050: 1024 37bd a587 c4bd b6fd 283d 1a19 4a3d
00000060: 759b 76be 37b6 86bd cf06 ad3e a059 c8bc
00000070: 0cf1 fd3d 2442 4d3c a75c d73d 59f8 143e
00000080: 4613 70be 5182 e6bd 8ad7 2d3e 9375 053e
00000090: c024 a7bd 00f4 bd3c 87b8 7fbc 898b 7ebc
000000a0: 6011 02bc 14c6 543d 6300 d6bd a6ef 873d
000000b0: c349 723d 931b 3cbb 8b9a 53bc c9a9 d2bd
000000c0: 79f7 49bd 7d47 ecbd 2035 263e cab1 7bbd
000000d0: f147 88bd 594e 64bd 4392 1f3d e89a cf3b
000000e0: ca67 093e 26cb 8bbd 439f 633e ff2b 243d
000000f0: 10e7 0c3e 549b 673e 5cf5 a0bd 973f d6bd
00000100: 47df 073e cb96 cbbd d4f1 d43c 3ec5 423d
00000110: 8c3b f43d abe5 633c 8e74 d33d 9596 fa3b
00000120: f392 563c 2817 563e 9b34 12bd 35fc ea3b
00000130: 2b73 c0bd 41a0 8dbd 93c3 5dbe 2e7a 413d
00000140: 53ff 563e 4b89 f3bd 5045 df3d 3546 653d
00000150: 649b 04bd ba72 99bc f02a f3bd b101 1bbd
00000160: 1b95 9e3e 12c0 333d 3035 44be df48 abbd
00000170: ee8f 41bd c290 a0bd a5aa 0abe a950 823e
00000180: efdf 63bc 287e 313e c1bc cabd 4eb0 8c3d
00000190: 1096 3cbe 835f 183e 31e7 db3c ce2f adbd
000001a0: e79b 233e 45fc bdbd ba70 e1bd 1f9f babd
000001b0: 1369 f03d 17cc 84bc b877 dd3c ab37 85bd
000001c0: c3fe 7b3e de50 b3bd 3c25 c93d 2344 753e
000001d0: b816 f63d d04d 6b3d f36b 07be c434 18bd
000001e0: 5624 063c 1158 8ebd 4b09 053e 7028 a5bc
000001f0: 62d8 073e d038 f03d ea1d e4bd 503a 443e
00000200: ca2a 983d 70c3 41bd 7179 a9bd 4473 55bd
00000210: 5c0b 1abe 4aa9 99bd 6c87 843e 1fa7 fabd
00000220: c007 c4bc 9e65 15be 45a7 dcbd c93c 153e
00000230: 4956 e0bd 9321 a3bb 235e 5c3e 2fe3 e13d
00000240: 1d6e afbd bc63 873c c844 f83c ff8e 5f3d
00000250: 3420 f3bd ba68 ff3d b23f 69bd 6cd0 1d3e
00000260: bc5d febd 23f8 b7bd f3a6 d83a 8247 66bd
00000270: 14f1 b9bd 3f3a e33c fe81 9a3c 4ddf 7abd
00000280: 153f e9bd 8174 213e 00da 59bd 305b 63bd
00000290: c4ad d6bd 4658 63bd 90dd b13e 5a97 0e3c
000002a0: 76e2 4e3e b05b 123e ab46 0f3e fcc5 a1bd
000002b0: a52f c93c b2b2 c5bd 44d4 a13d a2da e9bd
000002c0: fba0 f33d fcc4 983d 021a 0abe 0383 f2bb
000002d0: 265a 38be d900 213e eb2e 0abc edda df3d
000002e0: aec3 8bbd 8ccd 42bd ea0c 3cbe dbe2 b93d
000002f0: 722a 453e 6103 cbbd d697 e13d 9916 88bd
00000300: be57 05be 921d a4bd bbd6 0f3c 6641 bfbc
00000310: 2495 893e d25c c63c 7de6 18be becd ef3c
00000320: 81a6 723d 9566 5abc f8fa 8a3c 96d3 d43c
00000330: a079 9cba eb10 653d 89a5 c73c 9230 9a3d
00000340: 5a32 f9bd 95a9 26bb 4b11 eebd f3b6 20bd
00000350: 641f cc3d c8aa 023e cb16 773c 8469 073e
00000360: cafb 6dbc ccba f2bd def4 9fbd ae52 083e
00000370: 0236 913e 19cf 36bd 0c3d 363e d555 743d
00000380: 159b 2b3e 0e48 a13d f33d 77bd f641 b2bd
00000390: 9c49 01be 6f8d 77bd 2915 7c3d fa19 08bd
000003a0: 9f2d 55bd 2261 9b3d 6f7d 60bc cc31 453e
000003b0: 0c96 d93d 7df8 663d db38 9abd 51f4 4ebc
000003c0: 2f1f 66be ec53 ca3d c446 743e 304f cd3d
000003d0: 48f1 553d dea9 bdbd 551a c63d 3827 653d
000003e0: 19a1 60be 5de7 e83d 08dd 163e 5260 303c
000003f0: caed a1bb 9c36 003e 4bf5 f7bc cd9f f7bc

bias f4 [30]
0.18902826 0.15447772 0.13877709 -0.0029831785 0.20555809 0.11428469 -0.023561614 0.040938936
0.03132511 0.11539832 0.022367341 -0.07480169 0.037831686 -0.07268024 -0.06990414 -0.005210674
-0.023294983 -0.026776865 -0.13487849 -0.10164298 -0.13400395 -0.15492156 -0.05087447 -0.042809837
-0.06217259 -0.026463646 -0.042146187 -0.015576573 -0.04815015 0.0009538137
00000000: a090 413e 682f 1e3e 951b 0e3e 6e81 43bb
00000010: d27d 523e 170e ea3d 4904 c1bc 96af 273d
00000020: c24e 003d f455 ec3d b73b b73c a131 99bd
00000030: 66f5 1a3d 61d9 94bd e729 8fbd 4dbe aabb
00000040: 1fd5 bebc 285b dbbc 961d 0abe 322a d0bd
00000050: 5538 09be c2a3 1ebe c061 50bd 5e59 2fbd
00000060: b0a8 7ebd 4aca d8bc 7ba1 2cbd e234 7fbc
00000070: 1739 45bd 5b09 7a3a
