knn/models/pretrained-autoencoder/autoencoder-in_features150-latent_size10.pt (torch, 154721 bytes, 12 tensors)

weight f4 [90, 150]
00000000: 822a ef3c 8a7d 30bd 883b 663d cf36 053d
00000010: 7cde ef3c 646d 73bc a157 793d 49c7 233d
00000020: 9624 973d c414 9dbc 5e51 ad3d a69b 483d
00000030: 3a15 6a3d 2456 743d 3c59 a83d 459f a83d
00000040: 3add d03d adc7 c23d 6282 763a 367c 503d
00000050: 9ca6 053b 3de8 a13d 247e b13c edd5 0dbd
00000060: 3dd3 44bc a9bb ebbc 6e47 ebbc 4d3a 7a3c
00000070: 66b1 b13b d1b3 9abd 2136 0bbd 42f7 a3bc
00000080: 3cfa d6bc 664b 9cbd 6034 13bd 25f2 b1bd
00000090: efa9 94bd 0589 67bc d0ac 90bd 0dba fdbc
000000a0: 0ce2 5abd 6a79 09bd 6af9 533c 775d f1bc
000000b0: 51e3 0f3d 49d2 593c b832 66bc e5aa 72bc
000000c0: 73db da3c 8ae4 9e3d 59c5 b63c ec6c ae3c
000000d0: fdad 443d 0d78 cb3d 9d6e 973d 8686 b03d
000000e0: 7850 aa3d a19c ac3d d820 093e dfb3 d63c
000000f0: 673e ce3d 4876 a13d 0878 cf3d 4946 9d3d
00000100: b73a ba3d 5e57 b03b b955 4f3d 77d6 593d
00000110: e29a b13d a9b7 c2bb fd66 ebbc 46c1 773d
00000120: 9733 71bb ce75 63bd 1635 4d3c a24d 32bd
00000130: d959 e9ba b2e1 323c 17d2 8fbc 967d 7dbd
00000140: 348b 06bd 73a9 98bd ea38 80bd 77a4 353b
00000150: 8ed6 a5bd d194 b0bd 38f9 393c da57 a7bd
00000160: 40c9 8cbd dfbb 1ebd 6bc2 c5bd 45b1 00bd
00000170: 3bfe c5bb 947e 0f3d c232 a4bd 9343 e93c
00000180: 4330 05bc b844 b23c 052d 62bd 7baa 043d
00000190: e04e 4dbd 70f2 7d3c 98db 853d 81f0 30bd
000001a0: 6c8d e43c b411 073c 003a fdbc 2e32 28bd
000001b0: 7a1d 5d3c ec32 04bc 57cb 73bc 16e3 cbbc
000001c0: 4bd4 f5bc b951 143d d539 6dbd 8453 82bc
000001d0: c99f 8abd 2791 8cbd 9a18 283d a992 84bb
000001e0: 4553 4bbd 99fe 27bd 1af3 abbc beda d5bc
000001f0: 1945 29bd 2b69 bbbb 70f5 34bd c215 df3b
00000200: a058 47bd aec0 0f3d 26fa 803c 607c 92bc
00000210: 7465 5b3c 74f1 0abd b2d1 0f3c 7ec1 f1bc
00000220: a691 30bc 0e9a 38bb 6890 cbbb 5726 8bbb
00000230: 45c6 883c 04f2 25bd 1eb6 b7bb 7476 573b
00000240: 70ba 57bc 70b7 4bbd 47df a6bb bd55 82bd
00000250: 102c 38bd bfa3 723c 46a6 8bbd b00c d9bc
00000260: 7db1 6ebd 707e 6fbd 3b1f a9bd 85f1 04bb
00000270: a24f 96bd 8536 79bd b707 9ebd 851b b4bd
00000280: 0749 9dbd 2dec ddbc c4e9 5bbc b629 60bd
00000290: 83cf a5bc dc9f 6a3c 9807 b8bd 8bfa c7bc
000002a0: d56b 313d ac76 233c f98a 3ebd 09d8 813d
000002b0: 510f 8c3d bebb bf3c 5cb1 a93d eaa9 9d3c
000002c0: 58a3 5d3d 58fb 733d f453 c53d 25a2 283d
000002d0: 3c11 053b ad5d 913d 99a6 eb3c 0750 e53c
000002e0: 3c9d 993d bd3e b23d 9186 a23d bcd6 893d
000002f0: a8c2 633d d329 3fbd 8a34 a33c 2caa 5f3d
00000300: a366 63bc 036a 8e3d d2e0 1f3d 8247 e53c
00000310: 1a21 18bd 41c2 20bc ef45 833d 7529 49bd
00000320: 001f c63c a173 913c 55b1 7cbc 2547 f8bb
00000330: c07b 723a 0e2e a03c 1606 a1bb 4fad 5e3d
00000340: 6173 f8bc 9397 923d 77a4 fbbc c16b 453b
00000350: 629c 033d 094e 15bb 82c7 01bd a784 1fbd
00000360: aa84 863d b488 9a3c c57f fc3c 8ce9 b1bb
00000370: 7c2d 48bd a9ef 2a3b d212 e03c 945d 29bd
00000380: 4002 dcbc 334c 68bc f1fe eebc 940e dabc
00000390: 9ce0 aebd fbde 263c 80c5 04bd 89b5 8fbd
000003a0: 8c38 c2bd ac7a 023c 8e57 b1bd e0f4 97bd
000003b0: 56fc a93c cab2 93bd 538c 3cbd 8311 90bd
000003c0: 1779 3c3d cbde 853c bc0f 4b3d 43a3 983d
000003d0: 3bcc 91bd 93f3 b53c 1fad 98bc 8a77 8c3d
000003e0: a3b6 a03d eee1 fd3c d7c7 0fbd 3952 e7bb
000003f0: bae2 c13c f95c 693d 4202 853d 36e3 a03c
0.029195074 -0.043088473 0.056209117 0.032522973 0.029280894 -0.014857624 0.060874585 0.039984975
0.07380025 -0.01917494 0.08462785 0.048976563 0.05714915 0.059652463 0.08220145 0.08233503
0.101984456 0.095107414 0.0009403584 0.050899707 0.0020393496 0.07905624 0.021666594 -0.034627844
-0.012013254 -0.028776007 -0.028720584 0.015272689 0.005422759 -0.075538285 -0.03398717 -0.020015363
-0.026242368 -0.076315686 -0.03593862 -0.086887635 -0.07258975 -0.014131789 -0.07064211 -0.030972505
-0.05343823 -0.033563055 0.012937883 -0.029463513 0.035128895 0.013294765 -0.014050178 -0.014811252
0.02671597 0.07758434 0.0223109 0.021292172 0.04801749 0.09935007 0.07394145 0.08619408
0.083161294 0.08428312 0.13391435 0.026208816 0.10070496 0.078838885 0.10130316 0.076794215
0.0909323 0.0053815087 0.05061886 0.053183045 0.0867212 -0.005942304 -0.028735632 0.060487054
-0.0036804432 -0.05553227 0.012524864 -0.043531068 -0.0017803266 0.010918068 -0.017556233 -0.061887346
-0.0328476 -0.07454195 -0.062608555 0.0027716437 -0.08097564 -0.086221345 0.011350922 -0.08171053
-0.06874323 -0.038753387 -0.09656223 -0.031419057 -0.0060422695 0.035032824 -0.08017494 0.028474605
-0.008129182 0.021761283 -0.055218715 0.032389145 -0.05012405 0.015499696 0.06536025 -0.043198112
0.027899466 0.008243967 -0.030911446 -0.04106348 0.013495797 -0.008068781 -0.014880023 -0.024888556
-0.030008456 0.03621075 -0.05791648 -0.015908964 -0.06768758 -0.06863623 0.041039087 -0.0040458036
-0.04963996 -0.041014288 -0.020989943 -0.026105281 -0.041325662 -0.005719324 -0.04417938 0.0068080137
-0.048668504 0.035095863 0.01574428 -0.017881572 0.0133908875 -0.033921674 0.008778023 -0.02951121
-0.010776913 -0.0028167996 -0.006212283 -0.004246514 0.016696105 -0.040514007 -0.005606427 0.0032877
-0.013167009 -0.049735487 -0.0050925347 -0.063640095 -0.044963896 0.014809548 -0.068188235 -0.026495308
-0.058274735 -0.05847019 -0.0825791 -0.0020285558 -0.073394075 -0.06084301 -0.07716315 -0.087943114
-0.076799445 -0.027090156 -0.013422433 -0.05472728 -0.02024055 0.01432034 -0.089858234 -0.02441146
0.043315727 0.009977024 -0.046519253 0.063400336 0.06838859 0.023404952 0.08285782 0.01924606
0.054110855 0.059565872 0.096351534 0.041170258 0.0020304462 0.07097945 0.028765963 0.027992262
0.07500693 0.08703373 0.07935823 0.067304105 0.05560556 -0.046670746 0.019922514 0.054605648
-0.013879451 0.06953814 0.039032765 0.0279882 -0.037140943 -0.009811939 0.06409823 -0.049111802
0.024184704 0.017755331 -0.015423139 -0.0075768405 0.00092500076 0.01955321 -0.0049140556 0.0543645
-0.030328454 0.07157817 -0.030718071 0.003012404 0.03213156 -0.0022782108 -0.031684406 -0.038944867
0.065682724 0.018864013 0.030822644 -0.0054294523 -0.048871502 0.002608279 0.027352724 -0.04134901
-0.026856542 -0.014178324 -0.0291743 -0.02661828 -0.085389346 0.010184999 -0.032414913 -0.07017047
-0.09483442 0.007963818 -0.08659278 -0.07419753 0.020750206 -0.07211836 -0.04603226 -0.0703459
0.046013918 0.016341588 0.049575552 0.07453015 -0.07119032 0.022210872 -0.018637238 0.06858738
0.07847335 0.03099152 -0.03510269 -0.0070593623 0.023667682 0.05697343 0.06494571 0.019639593

bias f4 [90]
00000000: f190 12bc 6431 e43d 24cc 0a3d b590 373d
00000010: 55bf 3dbe 4ab3 a63c ef0c f23c 85c7 18bd
00000020: d02f a4bd 789f 35bd e33d e83c 599b 9c3d
00000030: 8542 443d fdf8 223d 5201 f03d 55ca 8cbd
00000040: 3961 a0bc 95e1 af3d 7947 2cbe fdb7 11bc
00000050: 4fe8 8fbd 8186 cd3d cf5a c83d cd00 fc3d
00000060: 08df 72bb 51af eb3c aec2 883d 8b66 ad3d
00000070: b4eb aebd eaef 80bc 50d9 dd3d a4b2 ee3c
00000080: a818 163c 1315 f43c 0f83 f1ba 3d1b 293d
00000090: c59e 033d 6c32 2b3c 52af c6bd ffec 843d
000000a0: 16f3 923d 963c 9cbb e7fd 433e 73b2 b63c
000000b0: 9814 b13d 6a6c 9f3d 9dbf a83b 08c4 ef3b
000000c0: ad01 ffbd bbbd ac3d c16c 013d 5449 013d
000000d0: 03a4 80bc 3a4e 963c 260c c53c 77e9 1ebd
000000e0: 088b 633d 50df bbbd c3c4 f13d ead3 83bd
000000f0: 3a62 d8bb 61e0 983b 9fc8 053d 3e1c 263d
00000100: f064 5ebd f3f0 513d 03cb 87bd 334d 1f3c
00000110: 91db 4a3c b5b3 bbbc c6f1 4d3d e9c8 a2bc
00000120: 4191 c13d 8107 2dbd f32e 053d e864 9ebc
00000130: 40b4 79bd 2984 1c3d 25b5 6bbd 7155 2dbd
00000140: aad2 0f3d 3b3c 26be d601 d13d 93fe cd3c
00000150: e17a e03d 50b3 8dbc d0d9 21bd 2208 41bd
00000160: 6c24 cb3d 51dd d3bd
-0.00894569 0.11142233 0.03388609 0.044815738 -0.18530019 0.020349164 0.029547183 -0.03729965
-0.08016932 -0.044341534 0.028349822 0.07646818 0.047915 0.039788235 0.11719002 -0.06874529
-0.01957761 0.08587948 -0.1682414 -0.008893964 -0.07026731 0.1003542 0.09782945 0.1230484
-0.0037059207 0.02877012 0.06677757 0.08466824 -0.085410506 -0.0157394 0.10832465 0.029137917
0.009161152 0.029795205 -0.0018425899 0.041285742 0.032133836 0.010449033 -0.097014084 0.06490516
0.07175271 -0.0047679646 0.19139825 0.022301888 0.08646506 0.0778435 0.005149795 0.00731707
-0.124514915 0.08434626 0.031597856 0.03156407 -0.015703207 0.018347848 0.024053644 -0.03879687
0.055552512 -0.09173453 0.118051074 -0.06436904 -0.0066035064 0.00466542 0.03266203 0.040554278
-0.05429548 0.051255178 -0.06630518 0.009722996 0.01238145 -0.02291284 0.0502794 -0.019871192
0.09451533 -0.042243484 0.032515477 -0.019335225 -0.060962915 0.038211975 -0.0575458 -0.04231781
0.035113014 -0.16233914 0.10205428 0.025145805 0.10960937 -0.017297417 -0.039514363 -0.047126897
0.09919056 -0.10344947

weight f4 [30, 90]
00000000: a400 423c dbec 11be 2706 d3bb 9e15 3bbd
00000010: 321b b63d 52f1 dbbc 0aeb 41bd 7c22 843c
00000020: 371e 083d 6564 d9bd daa9 74bd 308b bfbd
00000030: 5f76 7e3e ee72 0b3e 86af c9bc 0d83 f63d
00000040: f3bf 90bd 5d75 813c deae 76bc affd 4b3e
00000050: 9e74 fd3c 7b1c 92bc 4d54 e53c 05a2 cabd
00000060: 6b11 193d a7a6 903c d6e4 4d3c 74ad 46bc
00000070: afa9 abbc 9030 443c 991f 813c 5bb9 503d
00000080: f54e 01bd 6702 6ebd 0d52 efbc 11c9 763e
00000090: 5e45 fbbd c768 913d f939 8a3c 316f 543d
000000a0: 3604 abbd fc27 2abc c5af debd 8415 fb3d
000000b0: 1a5e 6c3d 3161 e3bd eb61 24bd 7c0f b0bc
000000c0: 45bd 14bd a212 59bd 2ba6 383d 120f 1dbd
000000d0: 61c9 153d 335a c5bd 7e19 21bc 80e4 8cbd
000000e0: e377 72bd 431c 6d3d 8f9a 66bc 5319 ee3d
000000f0: 51bd c4bd fcd2 633d 7490 233e d0dd d0bc
00000100: 3cc2 f33c 130b 2a3e 6223 9f3b b5a1 4fbc
00000110: 6fd7 003d 97bb e4bb 0e0e 85bc 5975 113d
00000120: 543f db3c cb59 e93d 613b 9fbd 0ab9 17bd
00000130: 34c7 99bd 157f de3c f8ba e4bd f9a1 3b3e
00000140: 7660 ce3d 4d74 133c 7ea3 7c3e f510 c7b9
00000150: d1da b6bd 159e 983d 30d5 313c 2b81 5abd
00000160: 2dc3 563d 8ddf b6bc f636 8cbd f714 d63d
00000170: 95b7 b13d b1a1 193e 8346 0a3d e823 a7bc
00000180: 0328 a4bd 8d45 46bd e8b2 603d 8b99 bdbd
00000190: a9d6 c13c 50ab 763d 6272 563d 2f87 02bd
000001a0: 9fad db3d 00b2 033d fd57 0d3d 5c7b b43c
000001b0: 84d3 aebc 992a 74bc 7995 0e3c a848 213e
000001c0: df42 b53c 7874 a4bb d0f7 7bbd e67d 55bd
000001d0: a0b3 c73d 1043 ad3c db24 f2bd 7508 293d
000001e0: 449c 9c3d a25e 39bd 36a2 27bd 10dd acbc
000001f0: 1b49 53ba 4209 283d c25c 9b3d 8545 683d
00000200: fc27 8d3b 74b9 45bd b91e 86bb fd66 c63d
00000210: 3212 a33d 9599 60bd 7ed1 203d b63f 1b3e
00000220: c0b7 efb8 84ce c63c a4b8 373e f0a0 c5bd
00000230: 66d5 c13d 4a62 893e f7ff 823d c316 903d
00000240: aba9 97bd eab4 1b3e a5ea bb3c b0a8 b73d
00000250: 8d07 dc3d 77a7 55bc d5b0 d73d dade 0c3e
00000260: 3cda ec3c 8f9f acbc a849 0f3e 4cd2 773d
00000270: 36bd 5abd cc7c d63d 0057 89bc e6d4 293d
00000280: 2f88 d1bc c0f5 b73c b1f2 323e 1ccd febc
00000290: cb90 7c3d fbd8 3e3e c8d1 493e 2dbb 603d
000002a0: d231 3f3e 1d1d 673c 7628 083d 87ae 423d
000002b0: 8e0b a3bc 3f1d d03c a6f5 883d 3dc7 71bd
000002c0: 2d43 c93d d672 a23c 2422 023e cd5f 18bd
000002d0: beb6 00be ca3e ea3d 0d02 e23b a907 8d3d
000002e0: 9dcc ee3d ccfc 5a3d 3def 253e eaf9 363c
000002f0: a7ea e73d 4589 953c b3fd 80bd a454 8f3d
00000300: c888 4e3e 20ce ea3d 7615 623d d121 0f3b
00000310: d4d9 2cbd d6d8 c23c df07 94bc 81f8 ec3c
00000320: d362 36bd 3414 0d3e e7e8 063d cf8e fbbc
00000330: bbcd b6bd 8824 973d 54f5 d1bc 56cf 163e
00000340: 7403 fb3d 6be5 393e 849c a13d eb80 27bc
00000350: 0856 5d3e 829d f63b d031 7f3d 565d d93b
00000360: 93ca 003e 6e32 d73d 094d 20bd 0dbe cb3d
00000370: 0fc0 533e eebb ecbd 8651 4d3e a005 eebc
00000380: 2b9f e53d e604 c13d e57e 2bba 24b5 8cbc
00000390: da9b b53a 2f92 123d f622 303d 5991 a33d
000003a0: 2328 0f3e 898e 5f3c bc52 023e 1b91 d63d
000003b0: 9ab9 d83d 8f85 163d 8588 d93c ceac 873d
000003c0: d682 a83d 50c4 6c3b 2e77 11be c5cd 00be
000003d0: 8fa7 933d f717 f13d 01f8 89bc 452b f53d
000003e0: 7149 7dbd fc5b 25bd 36ce b4bd 728f b43d
000003f0: f1a0 c93d e64d 123d e27c dd3d aed4 d3bd
0.011840973 -0.1425051 -0.0064399424 -0.045674913 0.08891906 -0.026848469 -0.04734329 0.016129725
0.03323194 -0.10614852 -0.059732296 -0.0935272 0.24849842 0.13618061 -0.024619829 0.12036715
-0.070678614 0.015803033 -0.01505634 0.19920991 0.030939396 -0.017835846 0.0279943 -0.09894184
0.037370127 0.017657591 0.012566766 -0.012126315 -0.020954935 0.011974469 0.015762137 0.05095802
-0.03156944 -0.05810776 -0.02921393 0.24100138 -0.1226909 0.07100063 0.016873347 0.051863853
-0.083504125 -0.01038551 -0.10873369 0.12259963 0.05770693 -0.11102522 -0.040132444 -0.021491759
-0.036313314 -0.052996285 0.045080345 -0.03834445 0.036569003 -0.09636345 -0.009832738 -0.068795204
-0.059196364 0.05788828 -0.014074936 0.11625924 -0.09606422 0.055621132 0.15973073 -0.025496393
0.029755704 0.16605787 0.004856513 -0.012672831 0.031455453 -0.0069803703 -0.016242053 0.035512302
0.026763596 0.1139408 -0.077749975 -0.0370417 -0.07508698 0.027160207 -0.11168474 0.18323506
0.10076992 0.008999896 0.24671742 -0.00037968872 -0.08928455 0.07452027 0.0108540505 -0.05334584
0.052432228 -0.022323394 -0.068464205 0.104532175 0.086775936 0.15003087 0.03375865 -0.020402864
-0.08015444 -0.048406173 0.05485812 -0.092578016 0.023661928 0.06022197 0.052355178 -0.031867202
0.10726475 0.032152176 0.03450774 0.022031479 -0.021341093 -0.014902734 0.008702629 0.15750372
0.022126613 -0.005018767 -0.06151563 -0.05212202 0.097510576 0.021150142 -0.11823436 0.04126783
0.07646993 -0.045256265 -0.04092618 -0.021101505 -0.0008059905 0.041024454 0.075860515 0.056706924
0.004307745 -0.048272565 -0.004093018 0.09687612 0.07962455 -0.054833967 0.039262287 0.15161023
-0.00011430634 0.024268396 0.17941529 -0.09649837 0.09464531 0.268328 0.06396478 0.070355915
-0.074054085 0.15205732 0.022939036 0.089677215 0.10743628 -0.013040415 0.10531775 0.13756886
0.028912656 -0.021072177 0.13992941 0.06050329 -0.0534031 0.10473022 -0.016765118 0.0414628
-0.025577633 0.02245605 0.17475392 -0.031103663 0.061661523 0.18637459 0.19708931 0.054866005
0.18671349 0.014106062 0.03324171 0.047529723 -0.01990297 0.02540457 0.06687479 -0.0590279
0.09827266 0.019830149 0.12708336 -0.037200738 -0.1256971 0.11437757 0.006897217 0.06886227
0.11660121 0.053463742 0.16204543 0.011167983 0.11324053 0.018253932 -0.06298389 0.06998566
0.20169365 0.114650965 0.055196248 0.0021840225 -0.042199925 0.023785036 -0.01807016 0.02892709
-0.04452784 0.13777238 0.032936957 -0.030707745 -0.08925959 0.07380015 -0.025629677 0.1472753
0.12256518 0.18153922 0.07891181 -0.0102236075 0.2161485 0.0075261006 0.062303364 0.006633441
0.12577276 0.105076656 -0.039135966 0.09948359 0.20678733 -0.11559282 0.2005063 -0.029055417
0.112119995 0.094247624 -0.0006542041 -0.017176218 0.0013855651 0.035783943 0.04300209 0.07986707
0.13980155 0.013644823 0.12726873 0.104768954 0.10582276 0.036748465 0.026554355 0.06624757
0.0822808 0.0036127754 -0.1420562 -0.12578495 0.07209694 0.11772149 -0.01684189 0.11971144
-0.061837617 -0.040370926 -0.08828394 0.088164225 0.0984515 0.03571882 0.10814835 -0.103433

bias f4 [30]
00000000: e5b2 4f3d 48d5 903e c1cf 183d 178e debd
00000010: 7536 5f3d 5000 a1bd ff36 f7bd c56d 58bd
00000020: 8f60 883d 268b 64bd e781 f53c 84f6 90bd
00000030: f9ac eebc 5172 70bd 9926 023e 5e13 253e
00000040: 5a2b ed3d 5520 a83d 493a 593d 1f81 423b
00000050: fefa ae3d c692 ab3d 8fa6 4b3e 6f5c 73bd
00000060: 0ab2 503d 0ac8 12bd 0f04 3d3e 2c1e 15bd
00000070: 6d4a de3c be1c bdbd
0.050707716 0.2828772 0.037307505 -0.10866945 0.054495294 -0.07861388 -0.120710365 -0.05283906
0.06659042 -0.055796765 0.029969169 -0.07078269 -0.029135214 -0.05870277 0.12710036 0.16120669
0.11580534 0.08209292 0.0530341 0.0029679013 0.08543967 0.08377604 0.19887756 -0.059414323
0.05095104 -0.035835303 0.1845858 -0.036405727 0.027135098 -0.09233998

weight f4 [10, 30]
00000000: bed3 24be 507a c9be 0085 e73d b1e7 95bd
00000010: f165 4cbd 2a02 99bb 214c ae3d 0219 2e3d
00000020: e404 8abd 0eb3 4fbd 200d 903e dddb 073e
00000030: 9254 c8be 03bc 7f3d 79f7 3bbe 1196 e63e
00000040: bbb7 61be bdd6 08be f99a a3bd 3f4e 94bc
00000050: 1c01 d0be 8f56 1dbe 0410 3c3e 3714 14bd
00000060: 736e b23e 4dbe ecbc 7d9d 2ebe 343b 68be
00000070: 7df1 adbd 077b 34be 924c babe 3c92 653e
00000080: 7df7 b7be 1540 bc3d ae1d bdbd 6626 a23d
00000090: 8aae 9cbe b04c c93d 7e84 d9bd a4a0 8d3d
000000a0: c380 5a3e cb1a e9bc 8674 d5bd a147 dcbd
000000b0: a4af c03d 3fb1 ccbd 1de9 edbd 070e 10be
000000c0: 40bb de3e 8de0 443e 092a 353e 2c6b 81be
000000d0: 42f1 223e 37fd 6bbd 4e4b d9be 0a16 913e
000000e0: b88e 3cbe 7a8d 0b3e 8cbc a0be a338 a23e
000000f0: dbee 26be 5367 85be 29fc d4bd 9591 563e
00000100: 9bd1 ac3d cbdf e13c 549f a13d f7d6 403e
00000110: 7b7e 92be dfba 9abd a4ba e6bd e31d 08be
00000120: 0542 0fbc 8821 87be 3b4b 18bf 084f 75be
00000130: 1797 943e b4c0 36bd adf3 31be 9fd6 bb3e
00000140: 9bce d63d 92f2 a1bd e4a0 9c3d e53b 6c3d
00000150: a1a3 f4bd e1eb 04be 9a22 863c 2f10 0f3e
00000160: c19f 833e 7fde 9e3e 3951 09bd f930 e43d
00000170: 2d56 13bf 80df 40bc ca5e 74be 6cae 7b3e
00000180: 1b7d 0f3e 0686 82bd 900f a1bd 413b ecbc
00000190: 44ee eaba 1b3b 2f3e 7890 233e f9d7 b3bd
000001a0: dceb 53bd 791d 783e 6a23 813e 3daf b43d
000001b0: 2e1f 293e 6c51 f5bd 817c 33be 832e a73e
000001c0: 6d3d 0f3e a682 10be 47f7 2f3d 2d69 37bd
000001d0: e25d f0be 7404 6cbe cd1e c53d f014 e33d
000001e0: a354 563c a264 3dbe 738b 95be 5e96 c2bd
000001f0: 6b48 6a3e 9d6b 9ebe 9432 a1be d38d 10be
00000200: eead 2b3e a76d 0a3e 9119 a83d 951f 0abe
00000210: 20a5 bb3e b5dd 803e ae85 66be b65c 26be
00000220: a2f1 093d 0d39 cf3c 67ae c4bd 5093 a5be
00000230: fca6 8e3d bb20 003e 5387 c13e 8da9 5b3d
00000240: 8d53 ba3d 7e28 893e ed63 c73d bd0f 173d
00000250: c4d6 58be 36e3 1cbe 2c46 a7bd 32ec bd3e
00000260: a7fd 78be a13f f33c eda8 243e c0bf 16be
00000270: a984 94be 09f5 813d 091e 223c d520 ddbc
00000280: 2497 0ebe c917 273c 64d3 18be e4bd dcbe
00000290: 4227 12be 4b0a 2c3e 3922 51bb cf6c 2a3c
000002a0: cf44 10be 51ab 9b3e 2817 13be 2b12 733e
000002b0: df03 8abe 588f 19be 30c5 ad3e bb1d 6b3e
000002c0: 99a7 fa3d c1ac 2cbe 27b5 e1bd 83b3 39be
000002d0: 1dbb 6f3e 1ac5 483e 8636 9fbd e07c 983c
000002e0: 805e e0be 10da d33e ad11 c33e 7fc9 52bc
000002f0: 5152 b5bd 48ef 0a3e 2803 d4bd ff49 3c3d
00000300: 328d b4bd 94ce 11be b69c 9d3c 0b60 ffbe
00000310: 59fe fbbd aaf8 b83d 6b3a 89be 0d99 703c
00000320: 8f35 b5be 3eff dcbd fb2b 653e b07f 413c
00000330: 07e7 9a3e 85f4 81be 9d87 913e d185 533e
00000340: a1b8 07be fa32 74bd f227 d1bd 52db 9e3d
00000350: df8a f1bd c4f3 3a3c 3f53 5c3e 3917 54be
00000360: c842 dabd 591f 683e df1c e1bd a4e1 5c3d
00000370: c3d4 b03e e516 f53d 9295 863e 5a2b 9a3e
00000380: 69cd 2d3e f76a adbe b9d8 86be ce3e a53d
00000390: 5628 71be 22a7 92bd d64c 75be 31a0 4abe
000003a0: 749f 84be 9f0e 72bc 74eb ff3e 2bb0 793d
000003b0: 50ce bebd 0946 9bbe 1866 693d fed5 3fbd
000003c0: 8d40 babe 70a1 013f 735c 03be 793e d7bb
000003d0: 1896 363d 236b 49bd 09f8 583e 501d 38be
000003e0: 9bbb 353e cbea b93d dc4f 713e 7623 41be
000003f0: 801d 943d 9a15 8fbe d820 203e ef0e 373e
-0.16096398 -0.3935113 0.113046646 -0.07319582 -0.049901906 -0.0046694474 0.08510614 0.042504318
-0.06739214 -0.05070787 0.28135014 0.13267465 -0.39127022 0.06243516 -0.18356122 0.45036367
-0.22042744 -0.13363166 -0.07988543 -0.018103717 -0.40625846 -0.1536505 0.18365484 -0.03615209
0.3484989 -0.028899336 -0.17052265 -0.22678834 -0.08493326 -0.17625056 -0.36386544 0.22419065
-0.35931006 0.0919191 -0.092341766 0.0791748 -0.30601913 0.0982908 -0.10620974 0.069154054
0.21338181 -0.028455159 -0.10422616 -0.1075585 0.09408501 -0.099947445 -0.116167285 -0.14067851
0.43502235 0.19226284 0.17691816 -0.25277078 0.15912345 -0.05761453 -0.42440265 0.28337127
-0.18413818 0.13628188 -0.3139385 0.31683835 -0.16302054 -0.26055393 -0.10399658 0.20953973
0.084384166 0.027572533 0.078917176 0.18832003 -0.28612122 -0.07555174 -0.112660676 -0.13292651
-0.008743768 -0.2639277 -0.5948979 -0.2395593 0.29021522 -0.04461737 -0.17378111 0.3668718
0.104886256 -0.07907595 0.07647875 0.057674307 -0.11945272 -0.12980606 0.016373921 0.13971017
0.2570782 0.31029126 -0.033524726 0.11142153 -0.5755337 -0.011772037 -0.23864284 0.24578255
0.14012568 -0.06373219 -0.078642964 -0.028836848 -0.0017923792 0.1711239 0.15973079 -0.08781428
-0.051738605 0.24229993 0.2522233 0.088224865 0.165158 -0.119784206 -0.17527963 0.32652673
0.13988276 -0.14112338 0.04296043 -0.044778038 -0.46946627 -0.23048574 0.096250154 0.11087978
0.013081702 -0.1849542 -0.29207954 -0.095013365 0.22879188 -0.30941477 -0.314839 -0.14116602
0.16765568 0.13518392 0.082080014 -0.1348861 0.36649418 0.2516915 -0.22511932 -0.16246304
0.033677705 0.025295759 -0.09603577 -0.32338953 0.069654435 0.12512486 0.37798557 0.053628493
0.09097967 0.26788706 0.09735856 0.036880244 -0.21175677 -0.15321049 -0.08167681 0.37094265
-0.2431551 0.029693427 0.16080065 -0.14721584 -0.29007462 0.06345565 0.009894856 -0.026993195
-0.13924843 0.010198542 -0.14924389 -0.43113625 -0.14272788 0.16800801 -0.0031911267 0.010401919
-0.14088748 0.30404142 -0.14364302 0.237374 -0.26956078 -0.14996088 0.33939505 0.2296056
0.12238998 -0.16862775 -0.1102088 -0.18134885 0.23411222 0.19606438 -0.077740714 0.018614233
-0.43822098 0.41377306 0.38099423 -0.012865423 -0.08853591 0.13567841 -0.103521645 0.045969006
-0.08815993 -0.1423896 0.019239765 -0.49877962 -0.12304372 0.09031804 -0.26802382 0.014684928
-0.35392424 -0.10790871 0.22380058 0.011810228 0.30254385 -0.25381866 0.28423777 0.20656516
-0.13254024 -0.059618928 -0.10212697 0.07756676 -0.11794066 0.011410657 0.21516131 -0.20711984
-0.10657269 0.22668208 -0.10991835 0.053926125 0.34537324 0.119672574 0.26285988 0.301112
0.16972889 -0.3387067 -0.2633722 0.0806862 -0.23550543 -0.07160784 -0.23955092 -0.1978767
-0.25902903 -0.014773994 0.49984324 0.060959022 -0.09316695 -0.3032687 0.05698213 -0.04683494
-0.36377373 0.5063696 -0.12828235 -0.0065687266 0.044576734 -0.04917444 0.21188368 -0.17979932
0.17747347 0.09077986 0.2356562 -0.18861184 0.07232189 -0.27946168 0.15637529 0.1787679

bias f4 [10]
00000000: b260 2fbe 4fcf f7bd 0e45 7fbe 9222 b03d
00000010: 2125 6ebd 1f91 d03d 0cb9 57bc b313 93bd
00000020: 2696 06bd 56d5 a0bd
-0.1712673 -0.12100088 -0.24928686 0.08600344 -0.058140878 0.1018393 -0.013166677 -0.07181492
-0.032858036 -0.078531906

weight f4 [30, 10]
00000000: c026 90be f842 ab3c 4951 1bbf b061 ab3c
00000010: b4ba e1be b2b9 173e e5c0 c2bd 934a c7bc
00000020: 1dbe 3b3e 44dc 5dbe 9eed 623e 53fd cbbd
00000030: 9731 7fbe 433e 73be 2386 4d3d 28b7 d53c
00000040: f838 cabd 1795 643c 65ce afbe e6b2 413e
00000050: eabd 3a3e 05fe e9bd 9452 c7be 6c1e b2bd
00000060: f3f3 113e fed1 0b3e 32c6 e7bd 816f fabe
00000070: cf51 913e f6f4 87bc a7f2 48be 1bad a6be
00000080: 7dfd acbd dcdd 733d d7e2 d73d 7156 23bd
00000090: f816 3b3e 63dc 35be 2623 81be 8d70 3cbe
000000a0: a60d 7a3c a2a8 0d3e afc6 623d 5b6d 14bd
000000b0: cfce 7bbd 8abe 34be bf2e d73d e909 443d
000000c0: 7d3e e0bc 785a 063e 04fa d23d 4a64 8f3e
000000d0: 57ea 563d f040 c6bc 17f0 06be 2fb5 6c3d
000000e0: 1ced 59be 9673 473e 3f94 5c3e 8c2f 883e
000000f0: 0880 aabe 81db 35be fb36 99be 9e9d a13e
00000100: a258 b43d d522 3d3e d420 95bd ce96 f4bd
00000110: 2e17 673d 81bc ec3e 01ea 8c3c 3434 b5be
00000120: a634 88be 0fa8 a0be a540 53be 41ef f9bd
00000130: fb70 9cbe fdad 5cbd 2b45 8f3e 4e35 853e
00000140: ee42 05be cf07 56be 112f a03e 8b55 25be
00000150: 0e5e 223e 9618 e93c 5aed f53d 2961 0a3d
00000160: ca29 5dbe 3c28 b93e f76f 673d 0faf 59be
00000170: 725f 193e 8865 2dbc e895 de3d 7764 723e
00000180: 645a 373e 029f 9a3e 07ca 683e 717c 7dbe
00000190: 374e 90be 12a6 8cbd a4fe 1fbf dfe1 8cbe
000001a0: 4e00 8d3e c16e 91bd 4520 5a3e a310 9abe
000001b0: 0270 dd3e 4345 943e d9ec 9d3e 5f0f a83e
000001c0: 2536 b33c d7f5 afbd 5a81 333e 906f 263d
000001d0: a8f6 60bd d0c8 15bd bbf7 ad3e 91f1 253e
000001e0: ce95 853e 85ed 013e 6946 f73d a780 7dbe
000001f0: 88d6 41be 30d4 383e d3c7 b23c f2f2 c63c
00000200: ce0e 16be a738 58be 854f 90bd adec d2bd
00000210: b616 efbd 4950 18be 5492 51be dd80 e43d
00000220: edbc 913c 644e 83bd ad94 9ebd 0106 f1bd
00000230: 3825 87be f6f8 88bd ac32 503e 099d 533e
00000240: dbfc 3bbd f595 ebbd 6fce 29be 8496 4d3c
00000250: 6c9c 813e e729 b6bd 1442 0f3e 6220 35be
00000260: e7d7 7fbe a6bc 6e3e 4f25 9e3d a44e a6be
00000270: 93c2 81bd 7c07 07be 6e15 5b3e 83bb c33d
00000280: 7c48 53be 5b05 aebe 7ad2 f4bd 9658 adbb
00000290: d93d 723e 301a 343e aaf6 3dbe 7471 8fbe
000002a0: 07a0 903e 34f8 313e aef1 ae3c 9a5c 82be
000002b0: 9ed8 15bd e1d9 2a3e ce2e d9bc 2bf6 54be
000002c0: 4369 b1bc 07f5 9abe a67f 953e c0be 233e
000002d0: 4379 62be 314f 093e 9cae 5f3d 1fd7 edbd
000002e0: 5ff4 3c3e ae10 593e a90d a4be b724 893e
000002f0: 0f24 13be f350 843e b0fe 01be 3cba 3ebe
00000300: 4b96 8dbe c313 c6bd 0e44 11be 5186 533e
00000310: 501d 783d e404 58be e9f6 803d 9cf8 e93d
00000320: 0e08 d9bd 4544 953c 96d6 86bd ac72 0fbe
00000330: e49e 85bd 4c64 a53d 9766 b63d cead 263e
00000340: 4c53 7dbe dfc0 2a3e 2366 74be 36ba 99bd
00000350: 429b 89be 613a c73c c32d 1abe fbc0 fdbc
00000360: 8162 76be 6cd2 07be 3e22 2cbe 1786 743e
00000370: 5f9c 80be 2841 1ebe 6c7c 55bd e67f d8bb
00000380: 399c 503e 7cac a6be 1db0 6bbe c270 e33d
00000390: 6f63 e33d 4737 c0bc 7425 07be cb4f 00bd
000003a0: fe0f 7ebd 000d 083e 53f5 cdbd 9cbc 0dbe
000003b0: 0cd7 b53c 5ee4 643e b7b1 9dbd d20a 9a3e
000003c0: 308f 3f3c d459 a03d 9c32 28bd 9d51 143e
000003d0: 1c52 71be 5c00 90bd 6e60 11be 3db8 7d3e
000003e0: c9f2 c2bc 2db4 54bd 3c05 9e3c 0de9 10be
000003f0: 215f ebbd 6047 7ebe 02d5 c3bd cb6b 5e3a
-0.28154564 0.020905957 -0.60670906 0.020920604 -0.44087756 0.14816931 -0.09509448 -0.024327552
0.18334241 -0.21666056 0.22160956 -0.09960427 -0.24921261 -0.2375422 0.05017675 0.026088312
-0.09874147 0.013951561 -0.34337154 0.189159 0.18236509 -0.114254035 -0.3893019 -0.08697209
0.14253215 0.13654324 -0.113171 -0.48913196 0.28382728 -0.016596299 -0.19623815 -0.32553944
-0.084467866 0.059537753 0.10541313 -0.03987736 0.1827048 -0.17759852 -0.2522213 -0.1840231
0.015262043 0.1383386 0.05536526 -0.036237102 -0.061476525 -0.1765081 0.10506963 0.047861014
-0.027373547 0.13120449 0.10301593 0.28006202 0.052469578 -0.024200886 -0.13177525 0.057789978
-0.21281856 0.19477686 0.21540926 0.26598775 -0.33300805 -0.17759515 -0.2992476 0.31565565
0.08805968 0.18470319 -0.07281652 -0.11942826 0.05641859 0.46237567 0.017201426 -0.3539139
-0.26602668 -0.3137822 -0.20630129 -0.12203837 -0.30554947 -0.053876866 0.27982458 0.2601723
-0.13013813 -0.20901416 0.3128591 -0.16145913 0.15856192 0.028454106 0.12008162 0.033784065
-0.21597973 0.3616351 0.056503262 -0.21258186 0.14977816 -0.010583289 0.10868436 0.23671137
0.17905575 0.30199438 0.22733317 -0.24754502 -0.28184673 -0.06867613 -0.62497926 -0.27516076
0.27539295 -0.07101203 0.21301372 -0.30090818 0.43249518 0.28959092 0.30844763 0.32824227
0.021876404 -0.08591812 0.17529812 0.040633738 -0.05492273 -0.036568463 0.33978066 0.16205432
0.26090854 0.12688263 0.120739765 -0.24756108 -0.18929493 0.18049693 0.0218238 0.024285767
-0.14654085 -0.21115361 -0.07046417 -0.102990486 -0.11674254 -0.14874376 -0.20465976 0.11157391
0.017790282 -0.06411436 -0.077432014 -0.11768723 -0.26395583 -0.066881105 0.2033183 0.20665373
-0.04589544 -0.115032114 -0.16582654 0.012548093 0.25314653 -0.08894711 0.1399005 -0.17688134
-0.24984704 0.23314151 0.0772196 -0.32481873 -0.0633594 -0.13186449 0.21394894 0.095572494
-0.2063312 -0.3398846 -0.11954208 -0.0052901013 0.23656406 0.17588115 -0.18551126 -0.28016245
0.2824709 0.17379838 0.021355476 -0.25461274 -0.036583535 0.16684677 -0.026511576 -0.2079703
-0.021656638 -0.30265066 0.2919895 0.15990734 -0.2211657 0.13409115 0.05460988 -0.11613297
0.18452595 0.21197769 -0.32041672 0.26785824 -0.14369224 0.2584301 -0.12694812 -0.1862573
-0.27653727 -0.09671738 -0.14186117 0.20656706 0.06057483 -0.21095616 0.062970944 0.114243716
-0.105972394 0.01822103 -0.06583898 -0.14008588 -0.065244466 0.08075771 0.08906286 0.16277239
-0.24738806 0.16675137 -0.23867087 -0.0750622 -0.26876265 0.02431983 -0.15056519 -0.03097581
-0.24061014 -0.13263863 -0.16809937 0.23879276 -0.25119302 -0.15454543 -0.05212061 -0.0066070436
0.20372094 -0.3255347 -0.230164 0.11105491 0.1110295 -0.023463858 -0.13197881 -0.031326097
-0.06202697 0.13286209 -0.100565575 -0.1384148 0.022197269 0.2235274 -0.07699912 0.3008638
0.011691853 0.07829633 -0.04106389 0.14484258 -0.23566478 -0.070313185 -0.14196941 0.24777313
-0.02379741 -0.05192964 0.019289605 -0.14151402 -0.11492754 -0.24831915 -0.095621124 0.00084846903

bias f4 [30]
00000000: c341 9e3e 0f14 3cbe 0577 60bc 3dc7 15bd
00000010: 726b abbe e80f 7cbe 0ed9 613e b702 043f
00000020: 145a c73e 04e1 863e faaf 1d3e b10d 2abe
00000030: c6e4 63be 9b3c f13e 0969 e33e 9dc8 083f
00000040: 60bf 383e d62f 6b3e 52f4 443d 9260 4e3e
00000050: 7a9d b03d 7085 cd3e c88a 2d3e 1ad0 0f3f
00000060: 9465 4ebe 5523 0e3f c28d aebe 20fb b43e
00000070: 2d84 063f 7bdb 863e
0.30909547 -0.18367027 -0.0137002515 -0.03656696 -0.33480412 -0.24615443 0.22055456 0.5156664
0.38935912 0.26343548 0.15399161 -0.16606785 -0.22255239 0.4711655 0.44416073 0.5343111
0.18041754 0.22967467 0.048084565 0.20154026 0.08623786 0.40140867 0.16947472 0.5617691
-0.20155936 0.5552266 -0.34092528 0.35347843 0.52545434 0.26339325

weight f4 [90, 30]
00000000: 3a89 0cbe 0619 00be 9d57 1fbe 512f 2bbc
00000010: 5982 ce3d 0346 ffbc 8057 0e3d 04d7 073e
00000020: 9c9c e6bd 6048 43bd 91d6 a43c af33 0fbe
00000030: b15a 2abb 41d0 e4bc aed1 02be e880 23be
00000040: 68dc a7bd f40a 13be 2362 463d 6697 ef3d
00000050: 4581 01be 3a01 a4bd ee89 353d 4fad 78bc
00000060: 1091 02be 7087 a73d 623f bdbc 5861 143d
00000070: af53 0b3e 85cf d43d 88b8 01bd 5b10 c83d
00000080: e1fd b83c e7e6 d5bd e0bc 403d df10 b53d
00000090: b424 b03d edcb d6bd 6ab9 033e a5a5 cb3d
000000a0: 3e54 2bbe 6089 e93d a857 e1bd c287 9a3a
000000b0: b020 0cbd ea13 b3bd ac3d cabd 6901 eabd
000000c0: 586e a9bb 34ac 5d3d 67dc 02be 08c8 f43d
000000d0: a76e 22be c673 b2bd 6eb3 ccbd 5c35 433c
000000e0: eaa3 31bd 1cba 15be 9585 13bd 2e62 e7bd
000000f0: 1776 943e 9609 dfbd ba83 31bd 62ea 883e
00000100: da42 d43d 826b 05be 588b 9fbc 566b a4bd
00000110: a2bb edbd ed5e 1e3d 158b 883e d3d5 c1bd
00000120: 645c d3bd 5091 433e 7acd 5bbd 4729 343e
00000130: 145e 36be 3b79 c43d fa6e 8b3d accf 703e
00000140: fc12 233e cfdd 78bc 2a53 a13d c1f0 603e
00000150: 3c9f a5bc 1e78 bbbd efa6 28bd 89d6 44bd
00000160: 0b0c babd abe3 663c e908 393e 4e7b 53bd
00000170: 70c1 a53d 0d2c 20bd 0c98 cfbd b2fc 91bb
00000180: 91ea 193e 81f7 f23d e8b1 18be c6c8 e73c
00000190: e0ca 09be ce78 393d a18d 29be f2c7 d9bd
000001a0: 4347 86bd f7fe dd3c 9f34 babb 62c6 363e
000001b0: 1937 36bd 7a91 97bd 0fb7 5d3d 609d 0d3d
000001c0: 5331 abbd b7b9 a2bd 201d 2d3e b404 0d3e
000001d0: ee43 d03d 2cb2 893d 34ac e23d 3e46 06bd
000001e0: b3a0 703b a733 d8bd f1d9 6dbd 0278 503e
000001f0: d46f 893d 2767 dfbd d61f f13d 9706 633e
00000200: d896 293e e115 8e3e 553f ebbd 3a8f 513c
00000210: a288 23be 7ec2 9dbd 9906 c53c d31e 89bd
00000220: 4ab7 5d3e d387 4d3d b1ed 413d acda f4bd
00000230: 1164 c9bd 2d6b e9bb a9ef cd3d 9309 353e
00000240: c7cd 273e 9242 16be d9f8 91bc 0680 31be
00000250: 44af ca3d f5a4 76bd 252d 093c 103c 21be
00000260: d57b b7bd 18c2 fcbb bf49 1e3e 58e8 e2bc
00000270: a6ce 2fbe 4cc4 0abe d52c e43d 86d5 083e
00000280: fd24 413c 00ae 1fbe f2eb 6bbd ac45 193e
00000290: c7c9 a63b 1845 ae3d 1c78 debd 189f 29be
000002a0: fbe0 c9bc 05bc 1cbe 2c0d 1d3e cdb6 cebd
000002b0: 1d68 0c3e 0191 eabc a198 f03a 6cdf 2dbe
000002c0: e267 4cbb 3b51 0fbe bd9b 38be b595 67bd
000002d0: 4afa e2bd feb8 07bd 7ab9 483b b68a b83d
000002e0: 6ae3 c9bd 3bfa 14be c2d4 693e f549 8fbc
000002f0: 2305 b13d 1ee3 5e3d ec84 04be e66d eb3d
00000300: c440 4c3d eb25 cb3c 6833 623d 1113 0dbd
00000310: e52d 6c3e 9edc 593e 9e43 c0bd 4da4 563d
00000320: 75ea c9bd 6db1 9ebd 2b90 443d fae5 963d
00000330: 751e 003e 6017 ebbc 2870 a6bd 4cab 623b
00000340: c323 4e3d 92d9 e0bd 83d3 063d 5c0a 333d
00000350: e2c5 fc3d 66ac cb3d 40f3 f0bd 5ceb 11bd
00000360: 4c45 0ebe dd85 043d 07a9 ec3d e3ea 183c
00000370: 27b1 9cbe d999 143e abe1 bbbd c480 5e3e
00000380: 3222 d83d 0637 cbbc 8f83 3f3e 05f4 d83c
00000390: 22e8 133e 89a5 32bc a1c5 d9bc d333 213d
000003a0: 403e 0e3e e733 0c3d c4df 293d 3800 473e
000003b0: cee7 dd3d d954 25be f3fa c43d cd6c be3d
000003c0: b055 493c 4363 893d 90a8 023d 568b ec3d
000003d0: ba62 283e e34a 803c fe38 e63d 3aa3 dbbd
000003e0: dd7c 26bc 4c56 06bd 6de1 e73d fdb0 2a3e
000003f0: b65e 0abe ee85 90bd 1e4e c0bd 1e87 3cbe
-0.13724223 -0.12509546 -0.15560766 -0.010448293 0.100834556 -0.031161314 0.034751415 0.13265616
-0.112603396 -0.047676444 0.020121844 -0.1398456 -0.0025993998 -0.027931334 -0.12775299 -0.15967143
-0.08196336 -0.14359647 0.048433434 0.11698799 -0.12646969 -0.080080464 0.044320993 -0.015178039
-0.1275065 0.081801295 -0.023101512 0.036225647 0.13606142 0.10391144 -0.031670123 0.097687446
0.022581996 -0.10444432 0.047055125 0.088411085 0.086007506 -0.104881145 0.12863699 0.099437036
-0.16731355 0.11403155 -0.11003047 0.0011789727 -0.03421086 -0.08744033 -0.09875044 -0.1142605
-0.0051706247 0.054119304 -0.1277939 0.119522154 -0.15862523 -0.08713488 -0.09995161 0.011914577
-0.04336921 -0.14621776 -0.036016066 -0.11298023 0.28996345 -0.108905 -0.043338515 0.2674132
0.103643134 -0.13029292 -0.019475624 -0.08028285 -0.11608054 0.038664747 0.2666861 -0.09464612
-0.103203565 0.19098401 -0.053662755 0.17593871 -0.17809325 0.095934354 0.068082765 0.2351672
0.1592521 -0.015189602 0.078771904 0.2196684 -0.02021753 -0.0915377 -0.041174825 -0.04805616
-0.09084328 0.014092366 0.18069805 -0.051631264 0.08093536 -0.03910451 -0.101364225 -0.0044551725
0.15030886 0.11863614 -0.14911616 0.028293978 -0.13456297 0.045281224 -0.16557933 -0.1063384
-0.06556561 0.027099116 -0.0056825425 0.17849115 -0.04448614 -0.07400794 0.054129656 0.034573913
-0.08359017 -0.079455785 0.16905642 0.13771325 0.101692066 0.06723437 0.110680014 -0.032781832
0.0036716878 -0.10556727 -0.058069173 0.2035828 0.06710783 -0.109083466 0.1177365 0.22170483
0.16561449 0.27751067 -0.11486689 0.0127904955 -0.1597009 -0.07703112 0.024050998 -0.066953324
0.2165195 0.05017836 0.04734582 -0.11955771 -0.09833539 -0.007123372 0.10055477 0.17679434
0.16387092 -0.14673832 -0.017818855 -0.17333993 0.098967105 -0.06021591 0.00837258 -0.15745568
-0.08959166 -0.0077135675 0.1545782 -0.02769868 -0.17168674 -0.13551444 0.111413635 0.13362703
0.011788604 -0.1559372 -0.05759806 0.14967984 0.0050899717 0.08509272 -0.10862753 -0.16564596
-0.024643412 -0.15306099 0.15337056 -0.1009346 0.13711591 -0.028633596 0.0018356034 -0.1697976
-0.0031189849 -0.1399583 -0.1802816 -0.056539256 -0.11082895 -0.033135407 0.003062813 0.09010832
-0.09857829 -0.1454858 0.22835067 -0.01749132 0.08643558 0.054415815 -0.1294133 0.11495571
0.049866453 0.024798354 0.055224806 -0.03444201 0.23064382 0.21275565 -0.09387897 0.052402783
-0.09859172 -0.07748685 0.04798905 0.07368083 0.12511618 -0.02869767 -0.08126861 0.0034586964
0.050327074 -0.10978998 0.032916557 0.04371105 0.12342431 0.09944992 -0.11765146 -0.035624847
-0.13893622 0.032354224 0.11555677 0.009333345 -0.30603907 0.14511813 -0.09173902 0.21728808
0.10553397 -0.02480651 0.1870253 0.026483545 0.1444402 -0.0109037245 -0.026583495 0.039356064
0.13890934 0.034229185 0.041473165 0.19433677 0.10835229 -0.16145648 0.09618177 0.09298096
0.012288496 0.06708386 0.031899035 0.11550014 0.16443911 0.015660709 0.11241339 -0.10724492
-0.010161606 -0.032797143 0.113222934 0.16669078 -0.13512692 -0.07056795 -0.093899 -0.18410918

bias f4 [90]
00000000: a7f8 15be 83cb dcbd 3e41 44bc 1ce5 52bd
00000010: 7b42 953e 16e8 613d 4c38 623e fd92 c93e
00000020: fe6c 8f3d 18a2 1a3e e4c5 b83e 2fea 553e
00000030: 9f72 b13d c792 b5bd 08aa 0dbd 749e 073e
00000040: b545 243e eb3b a9bd 1a87 063e 677e 32be
00000050: 91cc c23d 87c6 563e 960c 04bc f736 de3d
00000060: 73d4 4ebe 704a ca3d 9afe 0abe 0ac6 6d3b
00000070: f884 4c3d de5c 883e e1aa 843c 919b 25be
00000080: 1c5c 21be 6dc2 563d bc50 24be bfdb 693e
00000090: ac79 2ebd 3b03 6f3e 1fac ffbd bbc1 4fbe
000000a0: 6e21 36bd f076 b7bc 416d d7bd 623f c03e
000000b0: 6594 df3d 092f d03e 19a4 ea3d 0225 e13d
000000c0: a650 0bbe b10f 9c3d be8b 3a3d 523d b43d
000000d0: 9096 59bd 4a9d b53e 2bf6 bcbc 6122 8e3e
000000e0: 5077 113e ae86 16be e1f2 5bbe dedf 393d
000000f0: 23c0 ddbd 3e9f aa3d 7c5a 17be 13d4 09bd
00000100: 4e0b b63d f94c a7be 6c00 c2bc eb07 1b3e
00000110: 7a99 133e e668 b93e ccfa 10bd b5b9 423e
00000120: 2366 55bb acb7 af3c 1760 753e 583f 1cbe
00000130: 183f 3fbd e7e0 23bd b7c5 a53d d9d1 153e
00000140: 0f37 c63d cccb f33c f490 533d 3ace b7bd
00000150: a861 893e d7b9 eabc 86e4 ec3c c3d6 443e
00000160: 79ff 953d 20f8 913e
-0.14645635 -0.10781004 -0.011978446 -0.051488027 0.29152283 0.055152975 0.22091788 0.39369956
0.070032105 0.15100896 0.3608848 0.20890115 0.0866444 -0.08865886 -0.034585983 0.13244039
0.16042216 -0.082633816 0.13137475 -0.17431031 0.09511674 0.2097417 -0.008059641 0.108503275
-0.2019823 0.09877479 -0.13573685 0.003628137 0.049931496 0.26633352 0.016194763 -0.16172625
-0.15757793 0.052431513 -0.16046423 0.22837733 -0.042596504 0.23341076 -0.12484001 -0.20288746
-0.044465475 -0.022395581 -0.105188854 0.37548357 0.10916976 0.40660885 0.114570804 0.10993387
-0.13604984 0.076201804 0.045543425 0.088007584 -0.053122103 0.35471565 -0.0230666 0.27760604
0.1420567 -0.14699814 -0.2147937 0.045379512 -0.10827663 0.08331154 -0.14780611 -0.033649515
0.08888875 -0.32675913 -0.023681842 0.15139739 0.14414015 0.36212844 -0.03539543 0.19016154
-0.00325621 0.021449886 0.23962437 -0.15258539 -0.04669103 -0.040009405 0.08094352 0.14630832
0.0967847 0.029760264 0.05165191 -0.089748815 0.26832318 -0.028653068 0.028917562 0.1922255
0.07324118 0.28509617

weight f4 [150, 90]
00000000: d6cb abbd 2782 1ebc 618b acbc ea92 6f3b
00000010: 2911 cb3c 457e 1abc ccff 97bc b437 423d
00000020: 7103 adbd a9d8 12bd e07b 77be 41c7 4e3c
00000030: 0180 fbbd b065 b43d 86e3 a33d d64c 02bd
00000040: b0da 153e 7be1 cc3d c299 9bbd bee3 3c3d
00000050: ac78 29be 230c 4bbb f5cf 9f3d c5c9 89bd
00000060: 6e40 57bd 2a14 df3c a635 e83c 1995 0a3d
00000070: 4d8d babc 7791 30be 066a 293d 3ef8 b63d
00000080: 349c 103e 0363 89bc 2f7f 84ba 5a9b 08be
00000090: a196 37bb 6803 e53c 6b36 d83c d7eb bc3d
000000a0: a76b 363d f041 693d 1ab9 6bbd 98bd 5bbe
000000b0: f33f b5bd 9ba1 47be 6b14 873d c729 353d
000000c0: b7c8 873d 26e4 61bd 6c02 903d 98e9 61bd
000000d0: 08ba f33c 0dfc 8e3d 6663 afbd 523d dfbd
000000e0: bc16 c9b8 9a6d 213d 3153 2c3e 99d9 c4bd
000000f0: 9eff 97bd b0e9 133e b706 b7bd 556d ac3d
00000100: b784 40be b773 8a3e 294f d33d 2868 583c
00000110: 9495 eb3d 359a 20be 5e45 20be d181 333d
00000120: 47b6 8f3d 6c62 dc3c 0c6b c6bd 9916 df3d
00000130: 6a5a b7bd 095b fabc cee4 e8bd 5c73 88bc
00000140: 7ff3 ebbd 746f 77bd 2c4e 0f3e e6a9 87bd
00000150: 2325 1abd 1605 133e 1950 693d 00ef 093d
00000160: 01c1 9e3d 5c77 c63d 6a5d be3c 4fcb 393d
00000170: 4537 9ebd a442 c63c dad9 f23c 36ad b7bd
00000180: 06ce e7bc 89a9 653d 49d0 f8bd efb8 0fbd
00000190: 2d91 64be 82fc aa3d 85e5 44bd 0759 833d
000001a0: ebf2 4abd 3891 7dbc 108e c73d 5103 933d
000001b0: d273 d7bd 08d8 ba3d 675e 50bd 374f 833d
000001c0: b37d 6e3d c7d9 8dbd e5f5 b4bd f21a 0e3d
000001d0: 2f0e 21bd 0bc5 c0bd 8af0 413c 3036 81be
000001e0: 79ac a03d 6588 d43d f125 083e ec32 9d3d
000001f0: a2e5 37bd 4924 18be 3cc5 1bbd 1c06 443d
00000200: 8ed4 30bd d87d 423e 5f01 c13d e71c 043e
00000210: 2f3c a83d 314c 94be c9ab bbbc 2c34 80be
00000220: 67c5 f53d 7706 91bd 299f 853d d4a9 a1bd
00000230: 77e7 9b3d f81c 043d 7174 bd3d 755b 6c3d
00000240: 759d 59bd de7d abbd 801b b0bd 1307 063d
00000250: 9640 0b3d ad5b 9b3d 8fab f63c d2ce df3d
00000260: 6790 84bd db65 64bd b0f0 2fbe 7c84 4c3e
00000270: 8e8c 183d e22b 87bd dfce ac3d 2a2b dbbd
00000280: e9f3 a6bd 74ed deb9 04b1 d33d e0d7 d5bd
00000290: 749c b7bd d4a0 493e a0fd d9bc 5450 cb3c
000002a0: 0b22 1ebe a029 2b3d a641 28be 7153 493b
000002b0: ffd5 803d 3e6e 1bbb ad44 8d3c ad07 043e
000002c0: 0520 1d3d 858c 383d 0c66 c73d 7436 703d
000002d0: cda3 b6bd dc75 823d 7316 30bd 252c bfbc
000002e0: 64d7 b93d 08fd 62bd 07f4 8abd 4bc0 3dbb
000002f0: 7907 a6bd 9fd1 74bd 1904 46be 0ad6 8c3d
00000300: d91a d2bd b6df 91bd 9f0d 91bd a0cc c3bd
00000310: 93aa 0a3e 1209 c93d af6c 0dbe df09 713d
00000320: 1972 a8bd adb0 ad3b bde8 813c 6423 0dbd
00000330: ca66 0ebd b8af 0f3d 86f9 32bd 0faa 99bd
00000340: 40fd e33c a649 6ebe d0d9 363d 3d25 2cbd
00000350: e5dc d33c fcf5 2cbb 4930 b83c 1c4a 89bd
00000360: a67f d4bd cc65 2f3d 979a 7f3d 4164 b23d
00000370: 96b0 813c 506d c13d 4c30 b93d 1e64 6bbe
00000380: 4a0e 05be 12b8 37be efaa ac3d 4cb2 14bc
00000390: 4c3b aabd f9b1 94bd d719 1fbc 02a7 84bb
000003a0: 46fb dcbd ac31 7e3d 730d 66bd b41f 0cbe
000003b0: ea00 d2bd ff5d 58bc 7a5d 003e a429 82bc
000003c0: 2bc9 a03d 4ac5 103e e304 4f3c 5f24 9ebd
000003d0: 03e5 55be 321d 633e 7a2d 0f3e 3b34 b9bb
000003e0: 779e fb3d 332d d8bd 6a36 27be 4630 b33c
000003f0: 5f76 bc3d d624 f43c 113b 5abd a20d de3d
-0.08388488 -0.009674585 -0.021062555 0.0036556073 0.024788456 -0.009429519 -0.01855459 0.047416404
-0.08447922 -0.035851154 -0.24168348 0.012620748 -0.12280274 0.08808458 0.08002381 -0.031811558
0.14634204 0.100039445 -0.07597686 0.04611563 -0.16549939 -0.0030982576 0.078033365 -0.067279376
-0.05255168 0.027231295 0.028345894 0.033833597 -0.022772456 -0.1724299 0.041360877 0.08934067
0.14122087 -0.016770845 -0.0010108704 -0.13340512 -0.0028013366 0.027955726 0.026393136 0.092246704
0.04453626 0.05694765 -0.057549573 -0.21459043 -0.08850088 -0.19495241 0.06595691 0.044229295
0.0663008 -0.05514922 0.07031712 -0.055154413 0.029751793 0.069816686 -0.085638806 -0.10900368
-9.5886615e-05 0.039411165 0.1682861 -0.09611816 -0.07421802 0.14444613 -0.08936828 0.08419291
-0.18800627 0.27041408 0.10317833 0.013208427 0.11503139 -0.15683825 -0.15651461 0.043824974
0.070171885 0.0269024 -0.09688386 0.10892982 -0.08952792 -0.030560987 -0.11371766 -0.01665657
-0.115210526 -0.060409024 0.13994664 -0.066242024 -0.037633073 0.14357409 0.056961153 0.033675194
0.07751656 0.09690735 0.023237903 0.045359906 -0.077253856 0.024201699 0.029644895 -0.08968584
-0.028296482 0.056069884 -0.12149102 -0.035088476 -0.22321005 0.08348943 -0.04807045 0.06413465
-0.04954807 -0.015476517 0.09743893 0.07178367 -0.10520138 0.09123236 -0.05087128 0.064115934
0.058225345 -0.06926303 -0.08835963 0.034693666 -0.039320167 -0.09412583 0.011837134 -0.25236654
0.078453965 0.10377578 0.13295723 0.07675728 -0.04489673 -0.14857592 -0.038029894 0.04785739
-0.043171458 0.18993318 0.0942409 0.1290165 0.08214604 -0.2896438 -0.022909062 -0.25039804
0.12000542 -0.07081311 0.06524498 -0.0789372 0.07612508 0.03225419 0.09250725 0.057704408
-0.05312868 -0.08373617 -0.08598995 0.03272159 0.03399714 0.07585845 0.030111102 0.1092812
-0.06472855 -0.0557612 -0.17181659 0.19972414 0.03724342 -0.06600167 0.08437895 -0.10701592
-0.08151991 -0.00042520056 0.103364974 -0.104415655 -0.08965388 0.19690257 -0.026610196 0.024818577
-0.15442674 0.041787744 -0.16431293 0.00307199 0.062908165 -0.0023716833 0.017244661 0.12893553
0.038360614 0.045055885 0.09736261 0.05864568 -0.08917961 0.06370136 -0.04299016 -0.02333648
0.090742856 -0.05541709 -0.06784826 -0.0028953727 -0.08106894 -0.059770223 -0.193375 0.06876762
-0.10259027 -0.071227476 -0.07082676 -0.095605135 0.13541631 0.09816183 -0.13810991 0.058847304
-0.082248874 0.0053006024 0.015858049 -0.03445758 -0.034765996 0.035079688 -0.043694995 -0.07503139
0.02783072 -0.23270282 0.044641316 -0.0420277 0.025862167 -0.0026391735 0.022483962 -0.06703588
-0.103759095 0.04282169 0.062403288 0.08710528 0.015831273 0.09444678 0.09042415 -0.2298741
-0.12993732 -0.17941311 0.084310405 -0.009075712 -0.08312091 -0.07260508 -0.009710751 -0.004048229
-0.10790114 0.06205909 -0.05616517 -0.13683969 -0.102540806 -0.013206004 0.12535658 -0.015888996
0.0785087 0.1413776 0.012635442 -0.07721781 -0.20888142 0.22179106 0.13982192 -0.0056519783
0.12286084 -0.10555496 -0.16329351 0.021873605 0.09202265 0.029802721 -0.053278986 0.10842444

bias f4 [150]
00000000: 4710 f5bd 0251 01be 0b01 03be a882 09be
00000010: 4c5f 86bd 75d4 02be f47d c6bd 4f35 7abd
00000020: 3da7 d13b 70d5 003c dc83 473d b2ea 893c
00000030: 20de 943d ff65 b63d e6cf 073e efb4 733d
00000040: dcc6 d83d 7946 113e 256e 433d fc45 c73d
00000050: e3ca 3d3d 1d64 b23d 7494 ff3d a822 90bc
00000060: 51cc a93d b566 80bd 0217 3bbd ae0c 89bd
00000070: 458d e3bc fe66 80bd cdc0 66bd 426f 43bd
00000080: 0678 d53b af1d 2fbd e996 a9bd 4697 dabd
00000090: ec68 16bd 4bab 5bbd 6c01 e5bb 6e51 2abd
000000a0: c288 e13c 173b 393b 3fde c83d 09f5 c73c
000000b0: 4c92 c03d 4f77 443d 5306 c43d bdeb e13d
000000c0: 53d8 853d a00b ea3d 7e78 ce3d 5866 973d
000000d0: c1b2 6d3d 96d0 b53d 0cdf 433d f49c 2b3d
000000e0: 79b7 2bbd d6ff cabc ac42 efbd 495a bbbc
000000f0: e629 c3bd 0b59 c6bd 20d1 febc 48ba 23bd
00000100: 3779 a9bd 0486 ddbd 4600 d1bd bdf8 3cb9
00000110: 40e1 87bd af41 88bd 01e5 5abd 647d 1bbc
00000120: bf06 4dbc 1fd2 c3bc fa4e 12bd fcfb 5d3c
00000130: 977d 19bd 3075 dc3c 7084 82bc fba6 04bd
00000140: 7033 453d 8180 103d be61 743d 5f6d 883c
00000150: ce86 c13d 3bb9 e0bb f3f1 643b 3837 723d
00000160: 9b95 dc3d 0246 773d d503 95bc 513a 663d
00000170: cdaa b83d 0865 be3a c187 163d 9e83 a83d
00000180: 1e2d 3b3d 0664 903c af0c 1f3a 9f21 9dbd
00000190: b19a 3bbd 7e80 a03d c831 67bc 2716 35bd
000001a0: 1fbd ad3c 232a 02bd e267 86bd 4cbc 15bd
000001b0: 15f0 403c 2174 3cbd bcbe a3bd 4879 83bd
000001c0: 99ae 99bd 66d7 83bd dc9d 233c fb58 94bd
000001d0: dcc7 bdbd 1a0a 57bd a0bf 4fbd a247 0bbd
000001e0: 6597 fcbd 4e27 f0bd 3b1f 373b 07ed 31bd
000001f0: 14b7 5bba 3376 7abd 9320 373c 95da 14bd
00000200: a286 6c3d a09a e63c b5aa 803d aee3 063d
00000210: 8cae f4bc 59bf 8d3d f52f 393d e575 773d
00000220: 759f a13d 71bb df3d 8e01 b63d 9cc8 323c
00000230: de0b ba3c 8cb0 683d 78fb 1dbc 8254 b43d
00000240: 7b1a 9c3c 74c9 bcbc 1a01 5ebd 6cf5 903c
00000250: 7da3 3f3c 6c85 efbb
-0.11965995 -0.12628558 -0.12793367 -0.13428748 -0.06561145 -0.12776358 -0.096919924 -0.061085995
0.00639811 0.007863387 0.048709735 0.016835544 0.072689295 0.08906173 0.132629 0.059498724
0.105848044 0.1418704 0.047712464 0.09730145 0.046336066 0.08710501 0.12479487 -0.01759465
0.082909234 -0.0626959 -0.04567624 -0.066918716 -0.027777323 -0.06269644 -0.056336213 -0.047713526
0.006514552 -0.042752918 -0.08280737 -0.10673384 -0.036721155 -0.053630155 -0.006988695 -0.041581564
0.027531032 0.002826398 0.09808015 0.024408834 0.09402904 0.047965344 0.09571519 0.11031292
0.06535401 0.114279985 0.10081576 0.073925674 0.0580318 0.08877675 0.047820136 0.04189773
-0.04192302 -0.024780195 -0.116826385 -0.0228702 -0.09529476 -0.09684952 -0.031105578 -0.039972574
-0.08275073 -0.10816577 -0.1020513 -0.0001802174 -0.0663476 -0.06653153 -0.05344105 -0.009490345
-0.012513815 -0.023903904 -0.03571985 0.013548847 -0.037473287 0.026911348 -0.015932292 -0.032385807
0.048144758 0.0352788 0.059663527 0.016653715 0.0944954 -0.0068580187 0.0034934252 0.059134692
0.107707225 0.0603695 -0.018190304 0.05620796 0.09016953 0.0014525959 0.03675056 0.08228229
0.045697324 0.01762582 0.00060672587 -0.07672428 -0.045801822 0.07837008 -0.01411099 -0.04421058
0.021208344 -0.031778466 -0.06562783 -0.036556527 0.01177599 -0.046009187 -0.07995364 -0.06419617
-0.07504005 -0.06437568 0.009986367 -0.07243534 -0.09266636 -0.052499868 -0.050719857 -0.03400386
-0.12333564 -0.11726247 0.0027942199 -0.043438938 -0.0008381468 -0.06114788 0.0111772 -0.03634127
0.057745583 0.028149903 0.0628256 0.032931976 -0.029868387 0.06921262 0.04521175 0.060415167
0.07891742 0.109244235 0.08887015 0.010912087 0.022710737 0.056808993 -0.009642474 0.08805181
0.019055596 -0.02304528 -0.05420027 0.017695151 0.0116966935 -0.0073096063
