knn/models/pretrained-autoencoder/autoencoder-in_features60-latent_size15.pt (torch, 141412 bytes, 12 tensors)

weight f4 [135, 60]
000000 2e 1d 3f 3d bb 98 e9 3d ec 64 ec 3c 17 c4 89 bd
       0.046658687 0.11406084 0.028856717 -0.06726854
000010 1a 8c a9 bc e0 d8 c1 bd d9 46 0c be 23 49 1e bd
       -0.020696688 -0.09465194 -0.13698901 -0.038643967
000020 fb 2d 86 bd ab da f8 3c 13 81 82 bd c7 c1 79 bd
       -0.06551739 0.030377707 -0.06372275 -0.060975816
000030 68 e8 fb 3b b8 4c 12 bd 1d f3 63 bd a8 35 3f bc
       0.007687617 -0.035717696 -0.055651773 -0.0116705075
000040 02 2e 8a 3d 64 f2 dd bc 21 67 08 bd 12 9f 97 bc
       0.067470565 -0.02709312 -0.033301476 -0.018508468
000050 17 a4 03 3e c0 bb d7 3d 55 49 81 3c d3 42 51 bd
       0.12855564 0.10533857 0.015782038 -0.05108912
000060 66 53 1b bd 0b 52 8a bd 30 d1 47 3d 31 3e 23 3d
       -0.03792133 -0.0675393 0.04878348 0.039854232
000070 d0 40 30 3d 40 a6 7e 3d d5 63 26 3e 64 68 f6 bc
       0.04303056 0.062170267 0.1624902 -0.030079074
000080 2f c7 8d 3d 50 63 6d 3c 26 06 a4 bc 99 54 87 bd
       0.06922757 0.01448901 -0.020022463 -0.066079326
000090 3d 00 e8 bd 1c ae ee bd 09 34 d5 bd a0 63 c9 bc
       -0.113281704 -0.116543025 -0.104103155 -0.024583638
0000a0 7c cf 02 be 76 47 ce bd 0e a9 1d 3d 9b d6 9f bd
       -0.12774462 -0.10072224 0.0384913 -0.078046046
0000b0 75 87 85 bb 12 eb c7 bd 68 b4 82 3b 5a d8 e7 bc
       -0.0040749856 -0.09761633 0.0039887913 -0.028301407
0000c0 21 9c 5f 3d 81 e6 52 bb 71 b9 df 3a 1d c4 d2 3d
       0.054592256 -0.0032180848 0.0017068816 0.10291312
0000d0 5b e7 b3 3d 51 1f ea 3c c6 b7 ee 3c b9 2d 8b 3d
       0.08784362 0.028579386 0.029140364 0.0679583
0000e0 b4 8a 81 3d 56 1b 6a 3c c4 61 9f 3d ac 1c 29 3e
       0.06325284 0.014288744 0.07782319 0.16514844
0000f0 ba 67 b3 ba 19 e6 b1 3d fb c7 06 ba 64 45 97 bd
       -0.0013687529 0.08686466 -0.0005141494 -0.07386282
000100 2c 64 84 3d e4 ea c0 3d 84 9e 7b 3d 4a 79 eb 3c
       0.06464419 0.09419802 0.06143047 0.028744359
000110 75 ce 2d bc 20 3b f0 b9 35 6f 1b be 5f 17 02 be
       -0.010608305 -0.0004582042 -0.15179141 -0.12704228
000120 f9 8e 5e be 42 58 57 bd 33 d8 01 3d e2 7e 24 3d
       -0.21734227 -0.052574404 0.031700324 0.040160067
000130 0d 55 27 3e f9 54 cf 3d 7b 69 d2 3c e5 4c 96 bc
       0.16341038 0.10123629 0.025685063 -0.018347213
000140 b1 1c b4 bd 8b 20 a1 3d f7 58 88 bd 5b 9e bd 3d
       -0.08794535 0.07867535 -0.06657594 0.092587195
000150 05 07 20 bc c0 cb d8 bd 86 ce 7c bc d9 d7 69 3c
       -0.009767299 -0.10585737 -0.015430098 0.0142726535
000160 96 5b 02 bd f0 de 3a bd 27 e4 36 bd de 64 8b 3b
       -0.031825624 -0.045622766 -0.044651177 0.0042539677
000170 7a 6b 19 be 6c ac fb bd 52 38 90 bd 9f 46 6c 3d
       -0.14982405 -0.12288746 -0.07041992 0.057684537
000180 cb 2c 06 3c 18 53 95 bd dd e9 ad 3d b8 9b fe 3d
       0.00818939 -0.072912395 0.084918715 0.12432045
000190 31 3a 88 bd 31 78 ea bb 12 f8 4f 3d 9b c2 2b bb
       -0.06651724 -0.007155441 0.050773688 -0.0026208523
0001a0 71 df 3e bd 4b ce 96 3d 10 9a 25 bc 8c 98 d1 3d
       -0.04659981 0.07363566 -0.010107532 0.10234174
0001b0 7f c4 90 3d e0 43 22 3e d3 b0 7b 3c 3b 24 08 bd
       0.07068729 0.15846205 0.015361982 -0.033237677
0001c0 1a 83 cb 3b 87 4f db bd 09 61 06 bc 52 73 d4 bc
       0.006210697 -0.10708528 -0.008201846 -0.025933895
0001d0 e7 80 c5 3d 86 7e 4c 3d fe fd 5f bd 7c 98 30 bd
       0.09643727 0.04992535 -0.054685585 -0.04311417
0001e0 aa a6 fa bd 52 bd 0d be 5b 23 0b 3d 87 ea 0b bd
       -0.1223882 -0.13841751 0.033969264 -0.03415921
0001f0 a7 77 a1 3d 20 d5 8c bd 6d 04 f6 bb ea 1d 70 3d
       0.0788415 -0.06876588 -0.007507852 0.05862228
000200 5d bf 83 bd 61 3e 9c bc 4d 67 05 bd b6 d4 8b bc
       -0.06432984 -0.019072713 -0.03256922 -0.017069202
000210 e7 1c e9 bd d3 db e3 bd d0 08 1c be 3e 33 ca bd
       -0.11382466 -0.111259125 -0.15237737 -0.09873055
000220 6c bf 07 be 6f 7a 57 bd f4 ab b1 3d 27 56 aa 3d
       -0.13256615 -0.052606996 0.086753756 0.083172135
000230 39 13 c3 3d e4 cc 39 bd d4 ef 64 3d 79 41 bb 3c
       0.09525151 -0.045361415 0.05589278 0.022858368
000240 ed af 89 bd 9b 75 0a bd c5 75 0f be dd 6a fb bd
       -0.06723008 -0.033803564 -0.1400977 -0.12276242
000250 45 ac ab bd fd 23 9d 3c cb 7c f4 bd 1f d8 95 3d
       -0.08382467 0.0191822 -0.11937865 0.073166125
000260 82 b2 28 3e 92 7a 98 3d c4 e3 e2 3c e3 c4 1b 3d
       0.16474345 0.074452534 0.027696498 0.038029563
000270 99 27 c8 3d 38 ae 84 3d 05 23 a0 bd 79 79 10 3c
       0.09773178 0.06478542 -0.078191794 0.008818024
000280 05 4b 87 3a 7f 43 c4 bc dc 57 b3 3d 0c d8 1d bd
       0.001032204 -0.023957966 0.08756992 -0.038536116
000290 51 16 6b bb 2e a7 b4 bd d4 c8 0f 3d 5f d4 ec 3a
       -0.0035871456 -0.088209495 0.035103634 0.0018068663
0002a0 9f 99 40 3d bd 2a 9b bc 06 e8 a9 3d e5 b4 48 3c
       0.047021504 -0.018941278 0.08296208 0.01225016
0002b0 90 88 ff bc ca fc 70 3d 1a 98 57 3d fc 87 25 bb
       -0.031193048 0.05883483 0.05263529 -0.0025258055
0002c0 a6 89 a3 bd a0 40 51 3c 53 c7 8b 3d 38 62 8a 3d
       -0.07985239 0.012771755 0.068251275 0.06757015
0002d0 cb 7d 73 bd e8 11 0e bc 49 34 93 bd 30 4b 1a 3d
       -0.059446137 -0.008671261 -0.07187707 0.03766936
0002e0 ca 3f cd bd 4f fc 48 bc 16 73 95 bd a4 5d e7 3c
       -0.100219324 -0.012267186 -0.072973415 0.028242894
0002f0 b8 21 ea 3d 3a 75 ef 3d 04 f6 ae 3d 40 3b 02 3e
       0.114322126 0.11692281 0.085430175 0.12717915
000300 e9 ed 96 bc 01 19 f2 3c 79 86 99 bd 8d 9e 0c bd
       -0.018423991 0.029552938 -0.07496352 -0.034330893
000310 89 3f 08 be a9 49 b1 bd ad c0 97 bd fa c4 60 bd
       -0.13305487 -0.08656628 -0.07409797 -0.05487535
000320 1d 51 23 3d 56 aa 53 3c 0c 3b 81 3d d8 4a f8 bc
       0.039872278 0.012919029 0.063100904 -0.030309126
000330 0b 72 9b bd 75 96 7d 3b 5d 8a 1f be 0c 24 39 be
       -0.07590111 0.0038694416 -0.15580125 -0.18080157
000340 b0 ee 03 bd 8f 77 56 bd cd 84 a1 bd 7b 90 81 bb
       -0.032210052 -0.052360114 -0.07886658 -0.003953991
000350 43 7a d0 3c 07 0a a1 bd 12 cd 4c 3b e1 66 c2 3d
       0.025448924 -0.07863241 0.003125016 0.09492279
000360 cd 5d 6f 3d ee 60 de bc f9 01 a9 bd 5f 46 93 bd
       0.058439065 -0.027145829 -0.082523294 -0.071911566
000370 bc 5e be 3d 12 b9 b6 3d e7 ad bd 3d f8 9a f2 3d
       0.09295413 0.08922018 0.09261685 0.11845964
000380 a4 f3 df bc 20 92 cf 3d 0f b5 e1 3d d7 58 63 bd
       -0.027337857 0.10135293 0.11020862 -0.055504646
000390 a5 9f aa 3d 7b 6d 81 3c 61 4e ac bd 92 b1 8a bd
       0.08331231 0.015799275 -0.08413387 -0.0677215
0003a0 6c d9 1d be fb 88 d7 bd 1c 2f 69 bd f0 1a 0a be
       -0.15414971 -0.10524174 -0.056929693 -0.13486838
0003b0 49 f4 ca bc d6 94 05 3c ab cd f8 bd 28 cc a2 bd
       -0.024774687 0.008153161 -0.12148603 -0.07949096
0003c0 28 ef b7 3d 7e 7b 82 3d ff c3 0b 3d 20 1c 9e 3d
       0.08981162 0.063712105 0.034122463 0.07720208
0003d0 2f 43 ac bc 6b 6c 91 bd 4e 94 1e bc 9c 47 f1 bd
       -0.02102813 -0.07100757 -0.009678913 -0.117812365
0003e0 05 e7 82 bc 22 80 e9 bd 05 f3 08 be 3b 54 d6 bd
       -0.0159793 -0.114013925 -0.13373955 -0.104652844
0003f0 f7 d2 18 3c eb 7a 53 bd 3d fe 7d 3d d3 b0 b8 bc
       0.009327642 -0.051630896 0.06201004 -0.022545254

bias f4 [135]
000000 11 bc e4 bd af 2b 78 3e ec 82 e7 3d 19 43 86 bd
       -0.11168683 0.24235414 0.11304268 -0.065557666
000010 b8 2a f5 3d 2b e0 b8 3d 92 1d 6b bd fd 98 26 3c
       0.119710386 0.09027132 -0.057401247 0.010168311
000020 95 30 02 be bc 54 d9 bd db 9c 2d 3e 52 e3 0c 3c
       -0.12713845 -0.10611865 0.16954367 0.008599119
000030 3a 1a 2e 3d 52 94 cd 3d 6c 07 2e bd ff 6f e3 3d
       0.04250548 0.100380555 -0.042487547 0.11105346
000040 8a a4 3d 3e bd 0a fb bd f6 ab 08 bd 12 80 66 bc
       0.18519798 -0.122579075 -0.03336712 -0.01406862
000050 ac 0e d5 3b db 21 de 3d 5f 97 b8 3d 91 c7 f7 3d
       0.006501993 0.10846301 0.09013247 0.12098611
000060 e1 74 29 3c 8b 48 94 3d 72 af aa 3d e7 b7 1a 3e
       0.0103428075 0.07240399 0.08334245 0.15109216
000070 ab d5 1b 3e d9 f3 83 3d 0b 9e 05 bc 46 8d 77 3e
       0.15218227 0.064429946 -0.008155356 0.24174985
000080 17 d9 6f 3d da b6 3b 3b 8d 57 97 3e bb 23 17 3e
       0.058556642 0.0028642924 0.29558983 0.14759724
000090 b0 41 33 3e 15 0a 95 bd c7 66 70 3b e0 55 d1 bc
       0.17505527 -0.072773136 0.0036682354 -0.025553644
0000a0 a3 5c 04 3e 5c a9 8b 3d e0 8c 5d bd 5e 9d 33 3e
       0.12925963 0.06819412 -0.054089427 0.175405
0000b0 2a 7e f3 bd a8 19 08 3b a7 65 47 3e f6 1e 04 3e
       -0.11889298 0.0020767245 0.19472371 0.12902436
0000c0 b3 a4 e6 bb 1e 13 de 3d 42 78 86 3d 4f f2 e5 bc
       -0.0070386766 0.1084349 0.06565906 -0.028069643
0000d0 47 b6 f3 3d 56 52 e6 bd 26 c2 30 bd 3c 47 ae 3c
       0.11900001 -0.11246173 -0.043153904 0.021274202
0000e0 5c ec 33 3e 66 ac a1 bd 96 78 42 bd c1 91 70 bd
       0.17570633 -0.078942105 -0.04747828 -0.05873275
0000f0 d2 89 a6 3d c7 5f bf bd 21 fa 7e bc 18 25 d8 3c
       0.08131756 -0.0934444 -0.015562565 0.026384875
000100 d4 7a 74 bd 7b 64 87 3b cf 08 2d 3d ac 28 50 bc
       -0.05968745 0.0041318513 0.04224473 -0.012705009
000110 8c 4c 09 3d c1 e8 80 3c ad ac f0 bd 8c 89 84 bd
       0.033520266 0.015735986 -0.11751685 -0.064715475
000120 db f2 23 bc dc 63 4f bd bb 9b ef bc 9f df f9 bd
       -0.010006632 -0.050632343 -0.029249063 -0.122008555
000130 0c de 0b 3e 79 a7 92 3d 8c 77 ba 3d 90 96 b2 3a
       0.13658923 0.07160849 0.09104833 0.0013625193
000140 49 8f 09 3e 02 75 88 bd bc 3a db bd e2 37 9b 3c
       0.13433565 -0.066629425 -0.10704562 0.018947545
000150 87 40 e8 bb 27 e8 eb 3d 69 0b a9 bd 1b 9e e8 3d
       -0.0070877704 0.11518889 -0.082541294 0.11358281
000160 cd 57 35 3d ae 03 22 3e 0c 9a 00 bd 24 ee 33 3e
       0.044273186 0.15821716 -0.03139691 0.17571312
000170 90 14 08 3c 52 61 b3 3d bc 16 6c 3d ce 5d 8c bd
       0.008305684 0.08758797 0.05763887 -0.06853829
000180 c7 06 2e 3e 33 9f a7 3d 5f f3 89 3d e4 89 0a 3d
       0.16994773 0.08184662 0.067358725 0.03382291
000190 fa 68 34 3e 0d 5b 0d 3e 0e 09 95 bd b2 2c c2 bb
       0.1761817 0.13804264 -0.07277118 -0.0059257383
0001a0 b5 05 c2 3c 55 f2 02 3e 57 96 0e 3e d7 6d 21 be
       0.023684362 0.12787755 0.13924538 -0.15764557
0001b0 69 e6 4e 3e e0 1a 1d 3c 37 15 9a 3e 50 16 a0 bd
       0.20205082 0.009588927 0.3009431 -0.07816756
0001c0 4d 08 d7 bd 15 d0 e3 3d 8b c1 8f bd 60 a1 92 3d
       -0.1049963 0.11123673 -0.07019337 0.07159686
0001d0 93 2a 85 3a 85 ef 3e 3d fe 44 38 be b6 18 17 3e
       0.0010159783 0.046615142 -0.17995068 0.1475552
0001e0 8c 1a 2e 3e 8c 45 82 bc 69 63 30 3d 58 d7 65 3c
       0.17002314 -0.015902303 0.043063555 0.014028393
0001f0 47 d3 f7 3d 1b d0 bc bc d6 b4 ea 3c f3 76 48 3c
       0.12100845 -0.023048451 0.028650682 0.012235391
000200 60 d1 12 bd 2e f8 12 3e 55 10 f1 bd bb e0 41 3d
       -0.035844207 0.14352486 -0.11770693 0.04733346
000210 19 9d 9b 3d bc 82 65 3d 47 d7 73 bd
       0.075983234 0.05603288 -0.059531476

weight f4 [45, 135]
000000 55 2a 28 3e 1e bb 39 bd ad 81 0f bd 13 a4 78 bd
       0.16422398 -0.045344464 -0.035035778 -0.06070335
000010 06 49 8c bc 8a 30 b0 3b 78 41 6b 3d 30 0b 97 3b
       -0.017124664 0.00537688 0.057435483 0.004609488
000020 a8 97 91 3d 8a 05 65 bc 32 ad 3f bd 7c 3d 2f 3d
       0.07109004 -0.013978371 -0.04679603 0.042783245
000030 b2 87 aa bb e9 24 99 3d 75 23 ce 3c 42 08 0c bd
       -0.0052041644 0.07477743 0.025163392 -0.034187563
000040 46 fb af 3d 81 c0 f3 bc c6 4c 88 3d b6 be a0 bc
       0.085928485 -0.029754879 0.06655268 -0.019622188
000050 7b 4d 4f 3c 4a 25 cc 3b 92 d8 a7 bd 43 71 3a 3c
       0.01265275 0.006230031 -0.081956044 0.011379543
000060 f5 c4 e7 bb a4 49 c7 bd 37 3c 13 3d 1c 71 fa bc
       -0.0070730397 -0.09730843 0.035946097 -0.030571513
000070 1b 1a c4 bc 96 0f 9a bd a5 71 40 3e 7d 02 04 bc
       -0.02393823 -0.07522504 0.18793352 -0.008057234
000080 ce 53 ab 3a b2 a3 f9 bc 0d 39 1e be 22 29 3b 3d
       0.001307124 -0.030473564 -0.1545145 0.045693524
000090 42 71 ac bd 14 3b bb 3c e7 23 d6 3c 51 58 5b 3c
       -0.0842004 0.02285532 0.026140166 0.0133877555
0000a0 53 09 da 3c aa 3c 89 bc d9 3c e3 3d 94 41 14 bd
       0.026615774 -0.01675256 0.1109559 -0.036195353
0000b0 7b e7 97 bd c4 eb 3c bd d4 ff 43 3d 9b 3d 28 bd
       -0.07417198 -0.04612328 0.0478514 -0.041074377
0000c0 a3 2c ad 3d 7a 62 f8 3d 97 19 6f bd 68 41 9b bd
       0.084557794 0.12128158 -0.058374014 -0.075808346
0000d0 3d ba 3d bb 32 09 cb bc 5d 94 d9 3d c0 d0 35 bb
       -0.0028950118 -0.024784658 0.10624001 -0.0027742833
0000e0 d2 fc 7f 3d fd 4d 46 3e fc 5c 30 3c 01 aa 12 be
       0.062496968 0.19365688 0.010764357 -0.14322664
0000f0 c0 97 20 bd ea 07 a6 bc c8 b8 28 bd b1 fe 64 3d
       -0.03920722 -0.020267446 -0.041191846 0.055906955
000100 88 59 f3 b8 88 a4 39 3b 33 b6 4e bc b1 70 d0 3c
       -0.000116038194 0.0028326828 -0.012616682 0.02544436
000110 c6 96 e9 bc fe 3f 78 bd 6a 5c 05 3e 09 38 a9 bd
       -0.028514277 -0.060607903 0.13023534 -0.08262641
000120 4f 0e 2f 3e 91 29 f0 bc 85 60 88 bd f1 da 73 bc
       0.17095302 -0.029316695 -0.06659035 -0.014883743
000130 62 cf 97 3d d3 3b 88 3d 7f 47 38 3e 59 fe 0a bd
       0.07412602 0.066520356 0.17996024 -0.03393397
000140 13 6a 83 3c 83 98 6c 3d 97 f8 1f bd ca 50 12 bd
       0.016041791 0.057762634 -0.039055433 -0.035721578
000150 91 60 a5 bd e9 11 06 bd 1d ac 03 bc 9f 9a 96 3d
       -0.08075059 -0.032731924 -0.0080366405 0.073537104
000160 c3 9d 2b 3d 3e dc 0c bd f2 08 0d bc 13 81 c5 bd
       0.0418985 -0.034389727 -0.00860809 -0.096437596
000170 31 d1 33 3d c6 d8 83 3d 4f 18 66 3d ad 25 75 bc
       0.043900672 0.064378306 0.056175526 -0.014962596
000180 95 80 09 bd ff 2e c4 ba fc 8d 18 3e f8 80 27 3d
       -0.03356989 -0.0014967619 0.14897913 0.04089448
000190 7f 77 a7 3c a2 dd 05 bd a4 c3 80 bd ab db 3b 3c
       0.020442722 -0.03268207 -0.062873155 0.011465947
0001a0 7d 36 95 bc ee f9 56 3d d5 72 58 3c e4 3f 79 ba
       -0.018214459 0.052484445 0.013210972 -0.00095081166
0001b0 bb 95 a2 3d 95 e4 f3 3d b3 80 aa 3c f2 77 d2 3c
       0.07938715 0.11908833 0.020813322 0.02569196
0001c0 d8 c4 6d 3d 22 c6 79 3d 53 28 48 bd 0a 8b 13 3d
       0.058049053 0.06097997 -0.04886658 0.03602127
0001d0 cc b8 bf 3c c5 73 6f bd cd bb fc 3b 9d 8b 5d 3d
       0.023403548 -0.058460016 0.0077128173 0.054088224
0001e0 53 72 7f bb 14 b0 8c 3c bb f4 b7 bd 95 6b 61 bd
       -0.0038978055 0.017173804 -0.089822255 -0.05503424
0001f0 31 c2 c7 3c a7 2f 96 3c 34 33 50 3d 82 e8 64 bd
       0.02438459 0.01833327 0.05083008 -0.0558858
000200 87 7f 4c bc 1a c1 54 3d 7b 1b 85 bc 5b 42 78 3d
       -0.012481577 0.05194197 -0.016248455 0.060610157
000210 09 b4 26 3c d1 b1 e1 3d c6 7d 04 3c ce be d7 bc
       0.01017476 0.11020244 0.008086627 -0.0263361
000220 68 27 4e bd 4e ed fc 3d a7 2e cb 3d 43 00 0b bc
       -0.05033055 0.1234995 0.099210076 -0.008483949
000230 48 6b 31 3c 12 e9 1c bd 92 17 8f bc 5d fd 85 3d
       0.0108288005 -0.03830821 -0.017467294 0.06542466
000240 41 f8 46 3d 0d 64 e0 bc 76 37 a2 3c 1b 84 48 bd
       0.048576597 -0.027391458 0.019801836 -0.04895411
000250 a7 fe ac 3c 0f b6 9d bd 09 63 8d bc 96 e5 7f bd
       0.021117521 -0.077007405 -0.017259138 -0.06247481
000260 41 6a 89 3c 03 08 75 3d 7c c9 37 bd 2a ff b2 3d
       0.016774299 0.059822094 -0.044869885 0.08740075
000270 cf 18 92 3d 16 95 7d 3d 78 78 4d 3d 56 51 47 bd
       0.07133638 0.061909758 0.050163716 -0.048661552
000280 05 a2 9b bd 87 3b 40 3d 25 6f 9f bd d0 76 68 bb
       -0.07599262 0.04693177 -0.07784871 -0.0035471208
000290 66 d6 60 3c b8 17 d3 3d 82 0b 1d 3d 25 2b 08 3d
       0.013722992 0.10307258 0.038341053 0.03324427
0002a0 2e 0a f4 bc 86 d3 80 3d 68 83 3b bd 33 bb 6a 3d
       -0.02979001 0.06290345 -0.045779616 0.057307433
0002b0 53 8e 22 3d 17 11 93 3b de 58 13 3a 9a c1 02 3e
       0.039686512 0.0044881213 0.0005620847 0.12769166
0002c0 06 72 be 3b 5a 43 7c 3d e9 3d 69 3b c7 f7 2d bd
       0.0058119325 0.06158767 0.003558988 -0.042472627
0002d0 c4 67 35 bd 2b ae be 3c 18 ba 96 3d 6f ca 84 bb
       -0.04428841 0.02327641 0.07359713 -0.0040524523
0002e0 4a 3f d9 3d 68 48 80 bd 40 01 8a 3d e4 43 dc 3c
       0.106077746 -0.062638104 0.0673852 0.026887842
0002f0 48 05 af bd 17 3e d4 3b 90 a6 05 3d 3f f2 98 3d
       -0.08545929 0.0064771282 0.03262955 0.0746808
000300 2c 66 4c 3d bb 99 eb bc 95 8e c0 3d 25 9c b4 bc
       0.049902126 -0.028759828 0.09402195 -0.022047112
000310 2c 0b 5d bd 26 67 55 bd e1 79 9e bd a1 39 6a 3d
       -0.053965732 -0.052100323 -0.0773809 0.057183865
000320 06 b6 52 3b d2 7c 08 3e 38 3f 9a bb e2 0a 40 bd
       0.0032151951 0.13328865 -0.0047072433 -0.04688538
000330 b3 14 eb bc b1 82 98 3e 7f 81 84 3d 7d 87 cd 3d
       -0.028696394 0.2978721 0.06470012 0.10035608
000340 78 6e 8b 3d 9d f2 db 3d c3 9b 82 bd d4 0a 29 3e
       0.068081796 0.10739634 -0.063773654 0.16508037
000350 e9 ff ea bc 4b 12 43 3d 3c e3 24 bd fc 3e d2 3d
       -0.02868648 0.047624867 -0.04025577 0.102659196
000360 f4 28 cb bc db 07 2d 3d 26 13 4c bd b9 f6 69 3d
       -0.024799801 0.04224382 -0.04982295 0.05712006
000370 67 c8 f8 3d 52 36 15 3d 32 e2 3c 3d 27 20 92 bd
       0.12147599 0.036428757 0.046114154 -0.07135039
000380 95 be 4d 3c ff 01 59 3d 6c 17 98 bc 37 c1 90 3d
       0.012557645 0.05298042 -0.018565856 0.07068103
000390 0f 52 9e bd 19 91 ba 3c 09 06 d7 3d 62 54 6b 3d
       -0.07730495 0.022774266 0.10499198 0.05745352
0003a0 05 82 0a bd e9 2d 40 bd eb 93 64 bd 4c 07 1b 3d
       -0.033815403 -0.046918783 -0.055805128 0.037848756
0003b0 d1 d9 51 bd 11 e9 34 bd b0 d4 82 3d 9b d3 19 3d
       -0.051233117 -0.044167582 0.06388223 0.03755532
0003c0 82 58 56 bd 30 0b b3 bc f2 01 4f bd 93 00 29 3b
       -0.0523305 -0.02185592 -0.050538965 0.0025787696
0003d0 33 87 3f 3e 40 fe 0b bd 4e 71 14 bd 1b 3b e4 3b
       0.18703918 -0.03417802 -0.03624087 0.0069650537
0003e0 49 5e 32 bd ff 51 87 3c c5 f0 30 3d 4b fa 15 3d
       -0.04354695 0.016518591 0.043198366 0.03661565
0003f0 eb 5a 8d 3d 1f 09 2c 3b 04 f1 d9 bc 45 0c d6 bc
       0.06902107 0.0026250554 -0.026604183 -0.026128897

bias f4 [45]
000000 b7 88 cb bc ea 3a 8f 3c 80 22 ff 3d 78 06 6e bd
       -0.024845464 0.017484147 0.12457752 -0.058111638
000010 fb 49 12 3c 2e f2 b3 3d c4 ec 6d 3d f2 29 37 3d
       0.008928771 0.087864265 0.058087125 0.044717737
000020 dd 73 3a 3d dd 09 35 3d 21 c7 a2 3d 89 61 15 bd
       0.045520652 0.04419886 0.07948137 -0.03646997
000030 c3 71 82 3d 4e e7 03 bd a1 10 f6 3c 60 dc 6d 3d
       0.063693546 -0.03220301 0.030037226 0.058071494
000040 fa fe a1 3d 81 3d 8e 3d 14 dc 7e 3d c8 60 9c 3d
       0.07909961 0.06945325 0.0622216 0.07635647
000050 f5 4b d4 3d 7a e9 a2 3d e7 2b c7 3c 0f 68 d3 bb
       0.1036605 0.07954688 0.024312926 -0.0064516137
000060 be 46 52 ba 41 78 1a 3e 5b a6 a1 bd 09 6b 30 bd
       -0.00080214057 0.15084936 -0.07893058 -0.043070827
000070 54 be 01 3e 1c f4 76 3d 8c 73 47 bc 16 92 29 3e
       0.1267026 0.060291395 -0.012173545 0.16559634
000080 de 37 6d bc 93 42 b0 3c 5b 0d 70 bc 12 da 9f 3d
       -0.014478652 0.02151612 -0.014651622 0.078052655
000090 fd 9a 1c 3e 12 54 6c bd 18 ee bf 3d 43 79 26 bd
       0.15293498 -0.057697363 0.09371585 -0.040642988
0000a0 c5 6b e3 3d f5 26 6c 3d fb 5e c9 3d 4b 37 0f 3d
       0.1110454 0.05765434 0.09832569 0.03496484
0000b0 9f af 0c bd
       -0.034347173

weight f4 [15, 45]
000000 ee c8 f2 3d a9 a0 d3 3d da 96 0e 3e 6d a1 82 be
       0.118547305 0.10333378 0.13924733 -0.25513783
000010 a3 cb 6b be 0d 6d 54 be 09 0f 3e 3b bc 06 9e bd
       -0.230269 -0.20744725 0.002900066 -0.07716128
000020 84 12 db 3d 95 7f 9e bd f2 b8 00 3e 18 40 ae bd
       0.10696891 -0.07739178 0.12570551 -0.08508319
000030 b6 d2 4c be b0 c8 18 3e 1a a9 70 be 73 66 f6 bd
       -0.20002255 0.14920306 -0.23502007 -0.120312594
000040 3c 66 2d 3d 2a e5 34 be 45 08 13 be 31 92 cd bd
       0.042333826 -0.17665544 -0.14358623 -0.100376494
000050 2d d9 a0 bd 7f 72 05 be 60 22 af 3e a8 ee 0a 3e
       -0.07853923 -0.13031958 0.34205914 0.13567603
000060 dc c1 e4 3d 00 74 5e 3c 70 30 02 3e ca f3 49 bb
       0.11169788 0.013577461 0.1271379 -0.0030815476
000070 fd d8 0f 3e 0b 56 98 3d 1a ec 8d be 38 65 21 3e
       0.14047618 0.074382864 -0.27719194 0.15761268
000080 b1 23 a3 3e dd 1f b5 3d ed 7c 81 bd 8c 02 f9 bb
       0.31863168 0.08843968 -0.06322656 -0.0075991806
000090 a5 9e fe be 53 e5 3b 3e b9 0e 5c 3e 97 85 6d 3e
       -0.4973041 0.18349199 0.21489991 0.23195492
0000a0 8d 3f d1 3d 15 6d 71 be 01 27 bd 3e 15 a7 26 3d
       0.102171995 -0.23576768 0.3694382 0.040686686
0000b0 6b f5 88 bd 4a ae 54 bd fd 34 79 be 0c 2e 06 bd
       -0.06687435 -0.051924028 -0.2433662 -0.032758757
0000c0 da a2 cf 3d 07 15 1d 3e da 2e 66 3e fc 02 42 3e
       0.10138483 0.15340053 0.2247881 0.18946451
0000d0 9c 29 23 be fb 49 d8 3d 95 c6 41 3d ae a6 9d be
       -0.15933841 0.10560986 0.047308523 -0.3079123
0000e0 e6 70 17 bd 8c a9 ea bd 1a 1a 5d 3c 9f ef fb 3d
       -0.036972903 -0.1145812 0.013494993 0.123015635
0000f0 aa 27 99 bd e3 f1 e4 bd 41 6f 14 be d4 74 84 3d
       -0.074782684 -0.11178949 -0.14495565 0.06467596
000100 a0 76 1d be 0c 43 aa bd 03 88 24 3d 4d d9 fa 3d
       -0.15377283 -0.083135694 0.040168773 0.12248478
000110 80 4e 93 be 08 d6 10 3d 19 8d 78 bd e6 5f 15 bd
       -0.28770828 0.035360366 -0.060681436 -0.03646841
000120 00 00 95 be 90 a2 82 be 13 76 87 bd 02 b3 39 3d
       -0.29101562 -0.2551465 -0.06614318 0.04533673
000130 8b 69 ed 3c c7 b6 77 3c 86 a4 00 3e 1e 85 96 3d
       0.02898099 0.015119261 0.1256276 0.07349609
000140 fd eb 15 3e 00 91 43 3e 6c 2e 22 bd 6c 1c 77 3e
       0.14640804 0.19098282 -0.039595053 0.24131936
000150 4d ec 98 3e 8e c2 82 3e 27 e4 e5 3d c6 07 72 bd
       0.29867783 0.25539058 0.11225157 -0.059089445
000160 ec 0a 82 3e 33 d9 84 3e 06 9e 22 bd 56 88 28 bd
       0.25398958 0.2594696 -0.039701484 -0.041145645
000170 16 cc 3a bb b7 88 62 bc 80 63 db bb 9c 4a 2d be
       -0.0028502992 -0.013826541 -0.006695211 -0.16922992
000180 0e 72 32 be 7d 97 49 3e 70 82 02 bd 30 6a c2 3d
       -0.17426321 0.19686694 -0.031862676 0.0949291
000190 e8 b8 05 3e c5 3e 40 3e 7d 98 07 3c d9 21 91 3c
       0.13058817 0.18773945 0.008276102 0.017716335
0001a0 7c 59 8f bd 05 1d d3 3d da 61 32 3e 40 68 9a bc
       -0.0699949 0.103082694 0.1742014 -0.018848538
0001b0 d8 55 f0 3c bc db 2d be 95 cb 69 3d cb 2f c2 3d
       0.029337808 -0.16978353 0.057078917 0.09481772
0001c0 96 dc 1b be 1c 30 54 3e 3f 08 1e 3e 21 65 67 3e
       -0.15220866 0.20721477 0.15432833 0.22597171
0001d0 be f9 84 bd 59 ab 9c bd 5a 98 00 3e 88 1b 82 be
       -0.06492947 -0.076498695 0.12558118 -0.2541163
0001e0 dd 0c 4d be e7 08 60 3d f4 56 15 bd ed 60 01 be
       -0.20024438 0.05469599 -0.036459878 -0.1263463
0001f0 f6 c5 fd bb 23 a4 f1 bd f1 f2 a9 3e f3 8d 03 3e
       -0.007744546 -0.11798885 0.33193162 0.12847118
000200 62 e2 8f be e4 32 0d be c6 88 b5 3e b1 fa 09 bd
       -0.28102404 -0.13788944 0.35455912 -0.033686344
000210 9a d1 bf 3d 71 1c 84 be 27 44 1c be 04 5c ff bd
       0.0936615 -0.2580295 -0.15260373 -0.124687225
000220 a8 4a 75 be 1c d9 01 be 27 5a 5d be 8d 11 49 3e
       -0.2395426 -0.12680477 -0.21616422 0.19635601
000230 0e 64 91 3e dc 7a fc 3d 12 32 cc 3b 1d d4 87 bd
       0.28396648 0.12328121 0.006231555 -0.06632254
000240 82 4c e2 3b 85 d8 9d be 9d f7 47 3e 39 97 a3 bd
       0.006906093 -0.30829254 0.1952805 -0.07987828
000250 be 8d 9e 3d 5a a4 d1 3d 7c 1a c6 3d 12 12 a7 bb
       0.07741879 0.10236426 0.0967302 -0.0050985897
000260 6a 2e a5 be 88 e2 8f bd 8c 80 88 3d 25 27 be 3e
       -0.32261974 -0.07025629 0.06665143 0.3713924
000270 f9 72 ff 3c d4 45 69 be 97 71 bd bd 9b ab a4 bc
       0.031182753 -0.22780544 -0.09250181 -0.02010136
000280 f0 32 8b bd 72 6f de bd ac 24 2a be be af 6f 3e
       -0.06796825 -0.108611 -0.16615552 0.23406884
000290 a6 85 8b 3e 5b f1 56 3e 8f 23 66 3e e7 3a 96 be
       0.27250403 0.20990507 0.22474502 -0.29341814
0002a0 90 a7 37 3b 25 d0 c6 3c 87 e8 36 be 9a ba 24 be
       0.002802346 0.024269173 -0.1786214 -0.16086808
0002b0 24 fa 55 be a2 17 00 3e 52 5f a4 bd ad cf d8 bd
       -0.20896202 0.12509015 -0.080259934 -0.10586486
0002c0 74 5a 17 3e b0 1f 90 3e be d1 fb bc 8c 32 07 3d
       0.14780599 0.28149176 -0.030739661 0.03300719
0002d0 f4 a5 5f 3d fe 9d 49 3e 18 01 d7 3d 49 3e 3b be
       0.054601625 0.19689175 0.104982555 -0.18285479
0002e0 9a 9f 67 3c 53 19 13 3e 93 fe b5 be 50 51 8c 3e
       0.014137173 0.14365129 -0.35545787 0.27405787
0002f0 4a c9 94 3e da 84 c2 3b f2 89 3b 3d df d9 a7 be
       0.2905982 0.0059362473 0.04578585 -0.3278341
000300 ff 70 e6 bd 51 81 99 bd b9 35 90 be 2f de ee bc
       -0.11252021 -0.07495368 -0.28165987 -0.02915868
000310 c7 a0 c4 3d 91 67 b0 3d 59 b5 d0 3d 87 16 60 3e
       0.09600978 0.08613504 0.10190839 0.21883593
000320 0a 2b 88 be d7 da 13 3e ea f8 15 be 34 fb 58 be
       -0.26595336 0.1443895 -0.14645734 -0.21189576
000330 64 0c 3f 3e a7 ec 44 3d 48 04 a1 3d 38 87 85 3e
       0.1865707 0.04807725 0.07862145 0.26079726
000340 c7 31 9e 3e d2 7a a7 3e 78 a4 31 bd 63 1a 2a 3d
       0.30897352 0.32710892 -0.04336974 0.04152907
000350 1e 53 18 be 7a b5 3f be a6 7a 04 3e ee e1 28 be
       -0.14875457 -0.18721572 0.12937412 -0.16492435
000360 27 06 a7 3e 82 f4 a3 bd 73 9a 87 3d 8e f6 79 3e
       0.3262188 -0.080056205 0.06621256 0.2441046
000370 9d ac 18 bd c3 9f 26 be 20 d1 3f be ad 47 e9 3d
       -0.03727399 -0.16271882 -0.18732119 0.11390624
000380 57 a0 33 be 9e 6b 1d be eb 23 4e be b5 99 15 3e
       -0.17541634 -0.15373084 -0.20130889 0.14609416
000390 12 ea 55 3d cf 71 68 3d b7 fa 53 3e a4 9a b6 3e
       0.05222518 0.05674916 0.20701109 0.35664856
0003a0 7d 2e 83 be da 6e 9b bc f5 81 42 3d 2c 5f e7 be
       -0.25621405 -0.018973757 0.047487218 -0.45189798
0003b0 db 3c ad 3d 34 19 8a bd 67 66 dd 3d e3 55 b1 3d
       0.08458873 -0.06743088 0.10810547 0.0865896
0003c0 24 d0 18 bd b9 d7 c5 3e e7 63 82 3d d2 d7 81 3e
       -0.037307873 0.38641146 0.06366711 0.2535997
0003d0 15 ef 84 3e 7a 06 a3 3d e1 a8 a9 bd 67 ab 13 3e
       0.25963655 0.0796022 -0.08284164 0.14420854
0003e0 b7 6b ee bd 9e ba 35 be d8 5a 92 3e de e4 dd bd
       -0.11641639 -0.1774697 0.28584933 -0.108346686
0003f0 1e f8 ea bc 0a de 0c be c6 6a 0d 3e 67 6d 8a be
       -0.028682765 -0.13756576 0.13810262 -0.27036592

bias f4 [15]
000000 7e 70 64 3d 5e 05 16 3e 90 d2 19 ba 06 ae 6c 3d
       0.055771343 0.14650485 -0.0005867863 0.05778315
000010 00 e6 e3 bd 4f 06 62 3d a7 8d 33 3d 1f 5e 01 3e
       -0.111278534 0.055181798 0.043836262 0.1263356
000020 47 b6 92 3d 9f 3e 0f 3d 5e 27 e2 bd 62 1a 20 bd
       0.07163673 0.03497183 -0.11042665 -0.03908766
000030 b7 38 d8 bb b5 8a a7 3d 3e e1 d9 bc
       -0.006598558 0.08180753 -0.026596662

weight f4 [45, 15]
000000 1e 4e 8b 3c 48 d4 8c 3e 41 40 08 bd 70 c0 d7 bd
       0.017005023 0.27505708 -0.033264402 -0.105347514
000010 d2 4e 98 bc 91 ef 8a bd 77 85 22 be cb ec c9 bd
       -0.018592272 -0.06783975 -0.15871225 -0.09859618
000020 f6 4b 4d bc c3 d4 3c bc 81 99 ee bd 21 b8 3a bd
       -0.0125303175 -0.011525336 -0.11650372 -0.045585755
000030 e3 38 15 3e 26 c5 0a 3e d7 c3 3c be 5b e4 0e 3e
       0.14572482 0.13551769 -0.18434082 0.13954298
000040 08 cd 5d be b9 07 2c 3e 6d 6d 92 be 32 85 08 3e
       -0.21660244 0.16799821 -0.2859911 0.1333206
000050 64 83 d4 bd 13 52 45 3d 55 30 b0 3d ab 82 ab bd
       -0.10376623 0.048173975 0.086029686 -0.08374532
000060 5a 0a 2f 3e f6 ec 99 3d 9e 89 b1 bd 3e 3e 1e be
       0.17093793 0.075159 -0.086688265 -0.15453431
000070 74 90 fe 3c 08 19 77 3e df d8 54 3d 76 62 31 be
       0.03107474 0.24130642 0.051964637 -0.17322716
000080 24 18 d6 3d 6f 8b e4 3b 8c 26 49 3e 80 8b 8e 3e
       0.10453823 0.0069746296 0.1964361 0.27840805
000090 47 b1 b7 3d ec ce ae bd ad c3 d6 bd 3a 32 81 3e
       0.0896936 -0.08535561 -0.10486541 0.25233632
0000a0 26 bf 59 be 47 1a 01 be 56 43 b9 3e af d9 49 3e
       -0.21264324 -0.1260768 0.36184186 0.19711946
0000b0 b7 3b c6 bd dd 8a 67 bc e5 21 6b 3e b2 88 b8 3d
       -0.096793585 -0.014132229 0.22962148 0.090104476
0000c0 1d 3c 06 3e 37 f7 66 bd 35 d4 1d 3d 4a 30 25 be
       0.13108869 -0.056388106 0.038532455 -0.16131702
0000d0 33 06 10 be 86 69 b2 3d 99 5b d0 3c cc cd 93 3d
       -0.14064865 0.08711533 0.025434302 0.07216987
0000e0 44 a7 7d be 49 34 2b be 0a a0 0f 3d f8 cf f8 3c
       -0.24770838 -0.16719164 0.035064735 0.030372605
0000f0 93 50 82 bd 30 0c 9b 3e 94 86 be 3e d7 8c ef bd
       -0.063630246 0.30282736 0.3721205 -0.11696785
000100 07 61 6a bd 43 aa 0a 3e c9 ee 72 3e 69 a9 f8 bd
       -0.05722144 0.13541512 0.23723902 -0.121416874
000110 91 23 01 be da dc 8d 3e af 93 90 3e 10 5d 7b bd
       -0.12611224 0.2770756 0.28237674 -0.06136805
000120 00 41 00 3e 49 04 4c be c5 8b f6 3d b8 96 de bd
       0.12524796 -0.1992351 0.12038378 -0.10868591
000130 5f 57 bb 3e 2b 4c d1 bd f0 fc 92 bd b9 dd 3f 3e
       0.36590096 -0.10219606 -0.0717715 0.18736924
000140 2e 18 2e 3e e1 89 87 bc 17 22 e8 3d 01 cd 48 bd
       0.17001411 -0.016545238 0.11334627 -0.049023632
000150 b9 b6 9d 3e c9 b1 2d bd 4d 7c 01 be 53 89 4c be
       0.3080347 -0.042405877 -0.12645073 -0.1997426
000160 2f eb 95 bd ca 8b ba 3d be 0d e6 bd 2e b4 f0 3b
       -0.07320248 0.09108694 -0.1123309 0.007345698
000170 53 a0 d5 3d d1 23 fb bc 30 43 8b be c2 fe 88 bd
       0.1043097 -0.030656727 -0.27199697 -0.06689216
000180 68 9d 77 be a3 a6 8b 3e 55 fc a9 bd 27 82 b1 3d
       -0.2418114 0.2727557 -0.08300082 0.08667403
000190 0c ee cf 3d 1a 0f 8a be 7b 4a be 3d 70 84 f4 bd
       0.10152826 -0.26964647 0.0929155 -0.11939323
0001a0 21 ae 53 bd 57 ab 58 3e b8 ae 54 3e ec 9b ae 3c
       -0.051679734 0.21159111 0.20769775 0.021314584
0001b0 c7 90 bf bc ad 67 33 bb 5a e2 19 3e 39 69 32 bd
       -0.023384465 -0.0027375028 0.15027753 -0.04355738
0001c0 96 6a 88 be fe 57 da bd 3c 46 8f 3e 05 5d 52 3e
       -0.2664382 -0.106613144 0.27983272 0.20543297
0001d0 fa 44 f8 3d 1e 69 1b 3e c8 53 4c be 6f 21 9c be
       0.12122531 0.15176818 -0.19953835 -0.30494258
0001e0 0d e8 c8 3d 46 c3 c1 3e f7 88 13 bd 6d 00 c3 bd
       0.09809885 0.37844294 -0.03601929 -0.095215656
0001f0 16 83 07 3e 15 c2 2a be 1b 3e c0 bc a3 4a b6 3d
       0.13233599 -0.16675599 -0.023467114 0.089009546
000200 39 a5 8b bd 5c 1a 01 3c a9 82 28 3d 1d 84 bb bd
       -0.06818623 0.00787982 0.041140232 -0.09156058
000210 1d ab 8f 3e 4a 06 93 bc 47 aa 09 3e ca dc 45 3d
       0.28060237 -0.017947335 0.13443862 0.048306264
000220 b4 09 ae 3d 88 a3 38 3b 7c b4 5a bd 04 ee 63 3e
       0.084979445 0.0028173644 -0.05339478 0.22258765
000230 bd f6 3f 3c 14 5e 57 3e 27 41 58 be b2 6a 41 3e
       0.011716542 0.21031982 -0.21118604 0.18888357
000240 d9 4b d8 bd ea 15 10 be 26 42 53 3e b3 bd 26 bd
       -0.10561342 -0.1407086 0.20630702 -0.040708255
000250 72 32 04 3e 9a bb 4c bd fd cc b0 3d 6a 83 67 3e
       0.12909868 -0.0499836 0.086328484 0.22608724
000260 b7 5d a0 bd b0 66 6a 3d 19 ff 89 3e 04 65 cf b9
       -0.07830375 0.057226837 0.26952437 -0.0003955738
000270 41 69 83 bc b7 44 3d be a7 d8 2f 3e 8d a3 38 3e
       -0.0160414 -0.18483244 0.1717249 0.1803114
000280 7f 46 af bd 23 80 61 be 0d 73 8e bc 6e 63 c8 be
       -0.08558368 -0.22021537 -0.017388845 -0.3913836
000290 b0 37 99 bc 8d 27 57 be fa 8c 7a 3e 70 16 77 bd
       -0.018703312 -0.21011181 0.24467841 -0.060324132
0002a0 02 a4 6a be c4 de 13 3d 8c 0b 83 3e 93 ed 18 3c
       -0.22914127 0.036101118 0.25594747 0.009333986
0002b0 9c d1 b4 bd d4 07 44 be b5 10 68 3d 69 47 4c be
       -0.08829042 -0.19143611 0.056656558 -0.19949116
0002c0 b6 da 59 be 75 be 22 3e 13 89 80 be 06 9a 35 3e
       -0.21274838 0.15892966 -0.2510458 0.17734537
0002d0 90 26 30 3e 93 c8 3d 3e fa ab ad 3d 43 f9 81 3e
       0.1720221 0.18533544 0.084800676 0.25385484
0002e0 ff c7 85 3e 2f e8 3a 3e c8 28 ab 3d dd 70 11 3e
       0.26129147 0.18252634 0.08357388 0.1420321
0002f0 ed 91 ce bd 41 36 0a 3e 21 cf 38 3d 44 36 fd bd
       -0.10086427 0.13497259 0.04511941 -0.12363866
000300 d7 6d 02 bd b5 37 b8 be 23 d7 ff bd c5 f2 37 3d
       -0.031843033 -0.3598 -0.12492206 0.044909257
000310 af ea b1 3e f7 29 81 bd 2f e4 4c be df 26 90 bd
       0.34749362 -0.06306832 -0.2000892 -0.07038664
000320 d0 39 d3 3d 40 a2 f1 3d e9 73 36 be a0 37 a4 bd
       0.10313761 0.11798525 -0.17817654 -0.08018422
000330 c0 f3 6d bb 95 e1 68 bd 26 47 a7 39 d7 96 da 3e
       -0.0036308616 -0.056855757 0.00031905732 0.42693207
000340 33 e7 03 be 9b 95 3a be 29 db c4 bd 78 3d 4a 3e
       -0.12881164 -0.18221132 -0.09612114 0.19750011
000350 7d 05 d5 3c af 6e 56 be d9 17 f6 3d 0a 0f 01 3e
       0.026003594 -0.2094066 0.12016267 0.12603393
000360 4e 90 04 be 8c 4a b1 be db 7c 47 3c 24 8d 81 bd
       -0.12945673 -0.34627187 0.012175764 -0.063257486
000370 bf cf 64 bd 32 7b 94 3d 9f 28 4f 3e 09 13 d3 bb
       -0.055862185 0.0725006 0.2023034 -0.006441478
000380 3e 6f 89 bd 00 7d 34 3e 08 1b 01 3e 5a c2 da bd
       -0.06710671 0.17625809 0.12607968 -0.10681601
000390 39 18 28 3e bc ab 8f 3d 41 18 f3 3c 6e 30 c8 bd
       0.1641549 0.070151776 0.029674651 -0.09774862
0003a0 93 68 7a bb 1d 11 e4 3d 5d 1a 25 3e 59 e5 01 3c
       -0.0038209304 0.111360766 0.16123338 0.007928216
0003b0 95 bf 50 bd 68 9a 6e 3d f0 69 9e be b1 ac 0e 3e
       -0.050963957 0.058252722 -0.309402 0.13933064
0003c0 8b 67 b2 bd b1 18 fe 3d fd 13 ec bd 90 8c 18 3e
       -0.087111555 0.12407053 -0.1152725 0.1489737
0003d0 5f a5 08 3e 72 ab 9e bc bd 24 05 3e 51 a0 7e bc
       0.13344334 -0.01936886 0.13002296 -0.015541152
0003e0 5c 83 7e 3e 78 27 f9 3e 17 bf 33 be 60 15 94 be
       0.24854797 0.48662925 -0.17553364 -0.28922558
0003f0 3b af 0c 3e bf 2e f0 bd 91 e1 88 bd 3a 7e 04 3e
       0.1373872 -0.11727666 -0.066836484 0.12938777

bias f4 [45]
000000 3f 5d 51 be 7f 12 13 be 9f 24 36 3e 84 41 17 3e
       -0.20445727 -0.14362524 0.17787407 0.14771086
000010 24 3a 99 3e 94 9d a4 3e f0 08 61 3e 79 97 9c 3e
       0.2992717 0.32151473 0.21976066 0.30584314
000020 fe b8 fd 3e b1 aa 8b be 26 0e 6c 3e 6d c7 8d 3e
       0.495552 -0.27278665 0.23052272 0.27691212
000030 bf 1e ab 3e 79 b9 06 3e 84 19 6b 3e e1 8f 62 3e
       0.33421895 0.1315669 0.22958952 0.22125198
000040 c3 cd 53 3e d8 7d 18 3e f6 84 80 3e 15 44 b9 3e
       0.2068396 0.14891756 0.2510144 0.36184755
000050 7d d6 9e bc 31 c5 3b 3e 7a ee e3 3e cd f8 bf bc
       -0.019389385 0.18336941 0.4451788 -0.023434067
000060 6d f8 83 3d 90 be c2 bd 5a af 81 be fa 31 0b 3d
       0.06443868 -0.09509003 -0.25329095 0.03398321
000070 e5 f8 f6 bd bd e9 0f 3e 1a 0e 17 be e8 b2 9d 3e
       -0.120591916 0.14054008 -0.14751473 0.30800557
000080 f4 e5 06 3c 08 66 c2 3e 15 e0 88 3e 1b d3 9f 3e
       0.008233536 0.3796847 0.2673346 0.31215748
000090 91 93 e0 3d 7d 95 70 bb 2e 7f b7 3e 48 7d 3c 3e
       0.10965646 -0.0036710196 0.35839218 0.18407166
0000a0 d1 2a 27 3e df c6 db bd 6c 26 2c be 23 5f ec bc
       0.16324927 -0.10731291 -0.16811532 -0.028853958
0000b0 ee 1d f1 3d
       0.11773287

weight f4 [135, 45]
000000 e3 a2 ef 3d cc 3c c2 bd 62 40 2a 3d c3 51 0d 3e
       0.1170099 -0.09484252 0.041565306 0.13800721
000010 6b 79 54 3c d6 71 28 3e 78 0c dd 3d a5 cb 03 be
       0.012968401 0.16449675 0.10793394 -0.12870653
000020 1e 20 02 3e db e7 bd 3d 63 57 04 3e 9a 65 3f 3d
       0.12707564 0.092727385 0.1292396 0.046727754
000030 23 77 46 be b6 e3 2f 3d 9e 5e 80 3e 1a c4 a5 3c
       -0.19381385 0.04294177 0.25072187 0.02023511
000040 7d 93 14 bc 88 d5 e5 bd 78 87 07 be 6b 94 b5 bc
       -0.009068367 -0.112223685 -0.13235271 -0.022165498
000050 5d a8 53 bd ae 32 04 3e 83 1c fb 3c fe bd bb 3d
       -0.051674236 0.12909958 0.030653244 0.091670975
000060 ed c9 d1 bd f2 a9 b4 3d 32 db 8b bb 5b 7d 20 bd
       -0.102435924 0.08821477 -0.0042680735 -0.03918205
000070 c4 df f1 bc 07 35 11 3e 15 2f 28 3e 2d d8 c7 3d
       -0.029525645 0.14180385 0.1642421 0.09758029
000080 1b 3b b5 bd 7e dd f6 3d 56 c6 fc bd 39 4f 60 bd
       -0.08849164 0.12053965 -0.12342517 -0.054763053
000090 ef 59 70 3e 97 74 3c 3e 62 cf dc 3c 37 61 a5 bd
       0.23471807 0.1840385 0.026954357 -0.08075183
0000a0 85 f6 1f 3c 03 32 21 3e 13 bb ad 3d 43 60 ee 3d
       0.009763365 0.15741734 0.08482947 0.11639454
0000b0 82 96 76 bd 44 68 01 3d 22 d9 af 3c 80 38 e0 3d
       -0.06020213 0.031593576 0.021465842 0.109482765
0000c0 cb bd 9b bd 1f 0f f1 3d fb 34 df 3d aa c1 e3 3d
       -0.076045595 0.11770462 0.10898777 0.11120923
0000d0 ff 6f a8 bd a8 88 b2 bd 0a 1d ce 3b 76 75 33 be
       -0.082244866 -0.08717471 0.006290083 -0.17525277
0000e0 e5 b1 32 3e cb a1 fc bd 30 95 02 3e 01 52 b5 3b
       0.17450674 -0.12335547 0.12752223 0.0055334573
0000f0 c0 24 34 be e4 95 d9 3c de 97 01 be ff a0 d4 3d
       -0.17592144 0.026560731 -0.12655589 0.1038227
000100 0b cf 83 bd 5a 15 b7 bc 15 d3 df 3d 85 03 9b bd
       -0.06435975 -0.022349048 0.109289326 -0.07569031
000110 5d 97 40 bd 63 71 bb 3d 7d 20 22 3d aa 74 74 3d
       -0.04701935 0.09152486 0.039581764 0.059681572
000120 a4 e5 da 3b 17 e1 d5 3d 74 2c 81 bd 7f 9e fd bc
       0.0066802073 0.10443323 -0.06307307 -0.030959366
000130 54 82 9f bc 06 d7 b5 3d 9e 0b 29 3e f5 77 bd 3d
       -0.019471325 0.08878903 0.16508338 0.092513956
000140 4f 42 98 3d 1f fc 25 3e 10 c4 09 bd c2 e4 d1 bc
       0.07434522 0.16209458 -0.033634245 -0.025621776
000150 00 ba 22 be 0a 95 e4 3d df f4 8d bb 5e f5 0d bd
       -0.15891266 0.111612394 -0.0043321694 -0.03465783
000160 78 3b a9 bd c2 8f 0f 3d 5f 46 40 3e 36 e2 0d bd
       -0.08263296 0.035049208 0.18776844 -0.03463956
000170 39 e0 a9 bd 8f f5 ef ba f4 6a 9a be ff 61 9b 3d
       -0.0829472 -0.0018307435 -0.30159724 0.07587051
000180 f2 04 b0 3d da 28 21 3d 12 a9 95 bb a3 09 d1 bd
       0.08594693 0.0393456 -0.004567274 -0.10206916
000190 11 d4 cb 3d a4 41 d4 bd 13 3e c0 bd ae f3 97 3c
       0.09952558 -0.103640825 -0.0938684 0.018548813
0001a0 25 49 43 bd d3 1a 0c 3e 86 4b 1c 3e 48 46 23 bd
       -0.047677178 0.13682108 0.15263185 -0.039861947
0001b0 98 17 2a 3e 97 a2 e6 3d 06 d6 5a 3d f4 90 75 3e
       0.16610563 0.1126148 0.053426765 0.23981076
0001c0 c4 8e c5 b9 fd b2 00 be 12 34 0f 3e 41 c0 0d 3e
       -0.00037681137 -0.12568279 0.13984707 0.1384287
0001d0 3b 73 73 bd cd 3b c1 bd 8b aa bc bd d2 fe a4 bd
       -0.059436064 -0.09435234 -0.09212216 -0.080564156
0001e0 d6 6f 86 3c 91 c7 30 3e 0f db 56 bd cd ea 98 3c
       0.01641075 0.17263629 -0.052455004 0.01866665
0001f0 39 40 9e bc 44 99 2e bc 03 a8 31 3d bc 10 19 bd
       -0.019317733 -0.010656659 0.04337312 -0.037369475
000200 36 4e b4 bd 2f a0 3f bd ba 45 9f 3d dd 1f b2 3d
       -0.0880398 -0.046783622 0.07776971 0.08697484
000210 00 47 42 3b 00 d5 a3 3d fd 35 1c bd 6b ab e4 bd
       0.002964437 0.07999611 -0.038137425 -0.11165508
000220 fe 2d bf bd 83 24 2f 3d 4b 4b a1 3d 72 2c 68 bd
       -0.09334944 0.04275943 0.07875689 -0.05668301
000230 9a 98 c7 bc 43 5e 4e bd ea 39 0c 3c 80 da 23 bd
       -0.024364758 -0.050382864 0.00855873 -0.0400033
000240 5b 4f ca 3b d9 8d be 3d 33 0c 07 be 18 17 c2 3d
       0.0061740107 0.09304399 -0.13188247 0.09477061
000250 64 ad e1 3d d1 8b 7a bd 08 ff f5 b8 95 42 c5 bd
       0.110194 -0.061168496 -0.00011730014 -0.0963184
000260 b7 9c c7 bc a9 14 80 bd 96 38 13 3e e5 38 1f ba
       -0.02436672 -0.062539406 0.14377055 -0.00060738466
000270 dc 7f 69 3d 77 e3 ce bd aa 66 c7 3b 44 ae 24 bd
       0.0570067 -0.10101979 0.0060852366 -0.040205255
000280 9e ce 0c bd ff 7d a8 bd 31 20 a2 3d fa 54 7e 3d
       -0.034376733 -0.08227157 0.07916296 0.06209276
000290 94 b1 f4 bd 45 fc 9a bb 91 b9 04 be 8a 17 41 bc
       -0.11947933 -0.00472978 -0.12961413 -0.011785397
0002a0 cf 21 6b bd d5 66 05 be af 68 bd bc c5 01 1f bd
       -0.05740529 -0.13027509 -0.023121206 -0.038820047
0002b0 2c 72 81 bd 65 31 4b bd eb 45 b8 bd 72 a2 bd 3d
       -0.06320605 -0.049607653 -0.08997711 0.092594996
0002c0 4a 26 ef bd 24 c9 94 3c 86 21 aa 3d 69 7f a0 bd
       -0.11677225 0.018162318 0.08307175 -0.078368016
0002d0 64 43 85 bd 1a dc 24 3d d0 51 f1 3b 6e 7a c6 bc
       -0.06506994 0.040248968 0.007364489 -0.0242283
0002e0 e9 3e 83 bc aa 8d d5 3d 7a ec c9 3d ca 81 2d bd
       -0.016021209 0.10427411 0.098595574 -0.042360105
0002f0 49 80 8f bc f6 6d 9b 3d 81 35 b0 3d b6 0d 04 3e
       -0.017517226 0.07589333 0.08603955 0.12895855
000300 f5 2e e9 bd a6 3e 0c 3e 28 fa 36 bc 3a bd 3e bd
       -0.113859095 0.13695773 -0.01116804 -0.04656718
000310 cf f7 b5 bd cc 8d 09 3e 7d 47 71 bd 7f b9 c2 bd
       -0.08885156 0.13432997 -0.058906067 -0.09508037
000320 f0 7b 57 bc 1c e6 3a 3e 26 b3 b0 3c b9 82 02 3d
       -0.013152108 0.18251842 0.0215698 0.031862948
000330 2e 7d 43 bd 6f 43 02 bd 3d a2 b9 3c 39 a9 81 bd
       -0.047726803 -0.03180259 0.022660369 -0.06331105
000340 58 d8 ee 3c b5 03 62 3b 6a 15 50 bd 97 ed 40 3e
       0.029155895 0.0034487073 -0.050801672 0.18840633
000350 df 7f 1b bd ad 4d b0 3c 6b 4b e9 3c c2 cb d9 3b
       -0.037963744 0.021521414 0.028478345 0.0066466043
000360 93 d8 03 3d e7 58 fb bd cf 51 6b bb 94 ff d1 bd
       0.032188963 -0.12272816 -0.0035906916 -0.10253826
000370 07 11 ac 3d 77 4e 7b bd 01 95 a8 3d 70 df 3a 3e
       0.08401685 -0.061354127 0.08231545 0.18249297
000380 41 e8 0a 3e db e2 db 3d a1 a8 cb 3c 9f 7a 20 bd
       0.1356516 0.107366286 0.024860682 -0.03917944
000390 b5 0c d6 3d 67 76 0f be 5b 30 9e bd 93 35 2f 3c
       0.104516424 -0.1401001 -0.07724067 0.010693925
0003a0 55 f1 66 3d 56 d6 93 3d ec 1b 3d bc c2 65 76 3e
       0.056382496 0.07218616 -0.011542302 0.24062255
0003b0 37 cb dd 3b 90 e8 8a bd 80 27 ad bc 4a 5d f4 3d
       0.00676861 -0.06782639 -0.021137 0.11931856
0003c0 8b c1 28 3e 73 e0 d0 3d 14 19 3a 3d df b1 fa bc
       0.16480081 0.1019906 0.045434073 -0.030602394
0003d0 95 be 33 be 82 26 1d 3e c0 00 23 bd 91 ac 91 3d
       -0.1755317 0.15346721 -0.039795637 0.071129926
0003e0 f9 eb 51 bd 86 db 94 3d d8 e2 19 bd 3d 8e 87 3b
       -0.05125043 0.07268433 -0.03756985 0.004136829
0003f0 ec e9 dd 3c 2c 1b 82 bd 4d 32 7f bd 81 f8 80 bd
       0.027089082 -0.06352839 -0.06230383 -0.06297398

bias f4 [135]
000000 c0 14 1c 3d 3f e7 0e 3e c3 25 53 3e 7a 64 21 be
       0.038105726 0.13955401 0.20619874 -0.15760985
000010 08 ba 05 be 08 bc 9e bd b7 17 d1 3d 43 55 57 bd
       -0.13059247 -0.07750708 0.10209601 -0.052571546
000020 6e b2 97 bd fe 61 29 3e d8 74 19 3d 84 12 2b bc
       -0.0740708 0.16541287 0.037464947 -0.010441426
000030 c0 af 7f 3a cc 0a 5e 3e 2f 47 d0 bd 75 5c ae 3d
       0.0009753667 0.21683806 -0.10169827 0.085137285
000040 35 6b 19 3c cc 88 06 3d da 1e 8e bc 99 e1 15 be
       0.009363939 0.032845303 -0.017348696 -0.1463684
000050 4f 76 3e bd 18 94 95 bd 5c 32 c9 bd 04 a2 4d 3e
       -0.046499547 -0.07303637 -0.098240584 0.20081335
000060 f0 14 b6 bc 3a 6b 2d bd c1 9f 8a bd e7 be cf 3d
       -0.02222678 -0.042338587 -0.06768752 0.101438336
000070 17 ac 44 3e 28 27 65 bd 27 e6 69 bd c7 53 78 bd
       0.19206272 -0.055945545 -0.057104256 -0.06062677
000080 2c 1a 11 3d 88 ce 0f 3e 0e e5 8e bd f7 c0 f6 3c
       0.03542535 0.14043629 -0.069772825 0.03012131
000090 23 3e 85 3d b1 27 cb bd 04 66 37 3d b9 90 91 3c
       0.06505992 -0.0991968 0.044775024 0.017769204
0000a0 bd 52 a3 bd 07 77 1c be e5 27 91 bc 68 1e 5a bd
       -0.079747654 -0.1527978 -0.017719219 -0.053251654
0000b0 c4 ee df ba f8 40 5b bb cc 25 49 bd ca 8a 94 bb
       -0.0017084708 -0.0033455472 -0.04910831 -0.0045331465
0000c0 19 3e 12 3d cb 02 a8 3d 1a 48 0f 3e ad dd 2f 3e
       0.035703752 0.08203658 0.13992348 0.17174406
0000d0 ea 3f e1 bd 5c 6b 03 be bb 25 bf bd 64 4b ac bd
       -0.10998519 -0.12833923 -0.093333684 -0.08412817
0000e0 9d 5a 8d 3d 44 6e 10 3c ba 1c d8 bd fd b1 74 bc
       0.06902049 0.008815352 -0.10552354 -0.014935014
0000f0 00 95 09 be 45 c1 1b be be 55 6a 3e da 99 9d 3c
       -0.13435745 -0.15210445 0.2288427 0.019238401
000100 80 00 3b bd dd 69 c3 3d 54 ad 69 3d c6 c2 1a be
       -0.045654774 0.09541676 0.057050064 -0.15113363
000110 11 7c 18 3e 6e 05 26 3e 98 70 b2 bd e0 bf 36 3e
       0.14891078 0.16213009 -0.08712882 0.17846632
000120 45 ce e5 bd 50 00 e8 bc e6 aa 14 bc c6 a4 da 3b
       -0.112209834 -0.028320462 -0.0090739485 0.0066724746
000130 24 84 87 3c c3 b2 d1 3d fc 32 b1 bd 9f 1f 7f 3e
       0.016542502 0.10239174 -0.086523026 0.24914406
000140 a5 24 52 3e 78 31 85 3e e9 8d ad bc 14 c4 ce bd
       0.20521791 0.26014304 -0.021185832 -0.10095993
000150 38 70 22 bd cb cd 62 bd fe eb de bd d0 de 78 3e
       -0.0396578 -0.05537204 -0.10884856 0.24303746
000160 90 f4 36 3e 6f 9f ca bd 15 20 85 3d bb 9f fe bd
       0.1786673 -0.09893691 0.0650026 -0.1243281
000170 a6 75 cc bd 8a ed 40 3e b0 47 6a 3e 29 d2 2e 3e
       -0.09983377 0.18840614 0.22878909 0.17072357
000180 c5 75 44 3d 39 66 f7 bd 1a ed c6 3d 9a 52 0c 3e
       0.047963876 -0.12080044 0.09713192 0.13703385
000190 0d 58 2c 3c 9c ca 81 3e 94 68 1b be fe f3 d1 bd
       0.01051904 0.2534989 -0.15176612 -0.10251616
0001a0 1b d3 c2 3d 12 2b c1 3c 8e a8 36 3e 65 50 75 bb
       0.095129214 0.023580108 0.17837736 -0.0037431952
0001b0 51 38 f5 bd 29 a3 5b bd 6b 30 86 bc 76 c5 09 3e
       -0.11973632 -0.0536224 -0.01638051 0.13454232
0001c0 d4 47 f6 3d 24 cc f7 bd 2d bc 1b 3e 62 d0 07 be
       0.12025419 -0.120994836 0.15208502 -0.13263085
0001d0 d9 61 4f 3c 7f d8 2f 3e c2 4e 29 3d 27 b0 1a be
       0.012657606 0.1717243 0.041334875 -0.1510626
0001e0 85 1a 49 ba 6c 17 77 bd 27 1b 16 be fd ed 38 bd
       -0.0007671493 -0.06032507 -0.14658795 -0.04514884
0001f0 82 62 1d 3e ab aa d9 3c 0f 7d 0b be b2 95 9a 3d
       0.15369609 0.026570639 -0.13621925 0.07548083
000200 40 bf 78 3e 8b 64 1d be 2f 52 7e bc ea 83 00 3e
       0.24291706 -0.15370385 -0.015522524 0.12550321
000210 bc b1 04 3e 12 06 2c 3e 67 60 33 3e
       0.12958425 0.1679919 0.17517243
