knn/models/pretrained-autoencoder/autoencoder-in_features120-latent_size30.pt (torch, 499795 bytes, 12 tensors)

weight f4 [270, 120]
-0.0013709799 -0.084850036 0.026644884 0.044670302 -0.035099536 0.05166712 -0.04155801 -0.04229375
0.014657497 -0.022291161 -0.014076066 -0.05622781 -0.13190046 0.0157988 -0.09666575 0.017647957
-0.05807429 0.02436416 -0.022541001 -5.8322294e-06 0.091006376 -0.01074681 0.0710121 0.023155725
0.07586954 0.025048135 -0.09129711 -0.025185062 -0.047295116 -0.1365096 -0.10386019 -0.08806223
0.042860515 0.048139576 -0.053253293 0.013899017 0.07558546 0.08508051 0.075443834 0.033489704
-0.023591217 0.010498481 -0.052994538 0.046318952 0.015084349 0.076055355 0.04068893 -0.0447554
0.06107096 0.007880599 0.0534954 0.015609313 0.07608317 0.029766547 0.104284205 -0.011998183
0.112124234 0.046477307 0.030824477 0.05535821 0.0009167991 0.014380988 -0.027589079 0.05951052
0.012763167 -0.047797125 -0.029477235 0.008180921 -0.029215962 0.0713516 -0.0060011353 -0.03609581
0.024780238 -0.06488615 -0.06575036 0.05926244 -0.07183673 -0.0977748 -0.06845648 0.0497464
-0.050099153 -0.08460417 0.0059465487 0.083431266 0.0033906016 -0.015188766 0.027979054 -0.072354786
0.055490423 -0.057821006 -0.025778128 -0.026124844 -0.07488834 -0.002269629 0.014828012 -0.10422017
0.018772164 -0.030470934 -0.02816413 -0.0028311713 0.079609886 0.02551705 0.076473825 -0.030917732
-0.018144708 -0.07445437 -0.008919153 -0.044077806 0.02318297 -0.10638363 0.04275571 0.061325815
0.06465679 -0.004718823 0.06722294 -0.04985484 0.09942169 0.017201876 0.02443791 0.085620634
0.07235973 0.081552066 -0.056656476 0.050768726 -0.093167655 0.048297156 0.07513096 -0.084199846
-0.051506054 0.09111981 -0.05265092 0.0443746 0.017583705 0.044242766 0.047281735 0.011133512
-0.003172998 0.043968327 -0.051128488 -0.024709938 0.00626729 -0.07430409 0.06968884 -0.051425617
-0.060389936 0.09463979 0.03945948 0.061085008 0.024909066 0.0022105614 -0.005673272 -0.00705619
-0.08843701 -0.01160226 -0.011217635 0.02347277 -0.09964092 0.022916025 -0.02590392 0.08799772
-0.06742546 -0.012762961 -0.036753334 -0.051704798 0.038208514 -0.05771371 0.050992433 -0.05706101
0.045429435 -0.017986955 0.06939888 -0.023938201 -0.031464282 0.06568907 0.070981234 0.044914164
-0.05378197 -0.045690008 -0.013610712 0.047296945 -0.0430591 -0.041512165 -0.05525271 0.05902574
0.025950333 0.043446653 0.06697371 0.077807285 0.056043938 0.104123816 -0.016601516 -0.015740639
0.034508727 0.05999406 -0.04181515 0.04944879 -0.053064182 -0.081253275 -0.066361874 0.046566356
0.10257644 0.06215027 -0.0023924557 0.07962648 -0.0713469 -0.017124046 -0.040061463 -0.00032126243
-0.06228607 0.02403708 -0.1136468 -0.09453123 -0.036792386 -0.05456262 -0.022956593 -0.0405565
-0.045525797 0.07220925 -0.026853116 -0.0112408595 0.024897475 0.01944897 0.06338686 -0.016087236
0.025603976 -0.02179109 -0.06553699 0.013525278 -0.03062876 -0.08572123 0.05611783 0.02977827
0.04048215 -0.022914106 0.079510674 0.0465223 0.011855954 0.07949079 0.06921787 0.016959395
0.048152637 -0.0019207047 0.08270654 0.070418425 -0.05240652 -0.03675053 -0.011802668 -0.07600165
-0.06623994 -0.019852897 0.036993094 -0.092259124 -0.071929425 -0.011277932 -0.11220993 0.0016411043
00000000: 74b2 b3ba dbc5 adbd 5f46 da3c 35f8 363d
00000010: 88c4 0fbd e7a0 533d bb38 2abd 363c 2dbd
00000020: 0026 703c f49b b6bc 4d9f 66bc 224f 66bd
00000030: ea10 07be 7c6c 813c b1f8 c5bd 7392 903c
00000040: 4fdf 6dbd 5997 c73c e8a7 b8bc 78b2 c3b6
00000050: 8d61 ba3d 6313 30bc cb6e 913d 13b1 bd3c
00000060: 7d61 9b3d bf31 cd3c fbf9 babd e750 cebc
00000070: 86b8 41bd 2cc9 0bbe a7b4 d4bd f859 b4bd
00000080: 828e 2f3d 012e 453d 2020 5abd b4b8 633c
00000090: 8dcc 9a3d b13e ae3d 4c82 9a3d 802c 093d
000000a0: 5e42 c1bc d201 2c3c cd10 59bd f1b8 3d3d
000000b0: 5824 773c e9c2 9b3d 6fa9 263d 7051 37bd
000000c0: 8b25 7a3d a11d 013c fe1d 5b3d 34be 7f3c
000000d0: 7ed1 9b3d f9d8 f33c f592 d53d 0794 44bc
000000e0: 64a1 e53d fd5e 3e3d 9d83 fc3c 4abf 623d
000000f0: 5955 703a 3c9e 6b3c 7e02 e2bc 4ec1 733d
00000100: 9a1c 513c ebc6 43bd 3e7a f1bc 4509 063c
00000110: 5056 efbc ca20 923d 2ca5 c4bb 33d9 13bd
00000120: edff ca3c 08e3 84bd 20a8 86bd 2cbd 723d
00000130: 231f 93bd 283e c8bd e932 8cbd e2c2 4b3d
00000140: c534 4dbd f344 adbd 44db c23b 03de aa3d
00000150: db34 5e3b 4dda 78bc 5434 e53c bf2e 94bd
00000160: ed49 633d b8d5 6cbd a72c d3bc c503 d6bc
00000170: 0f5f 99bd 0ebe 14bb 31f1 723c 6271 d5bd
00000180: 15c8 993c 2e9e f9bc 76b8 e6bc 2c8b 39bb
00000190: 820a a33d 2209 d13c 4f9e 9c3d 2f47 fdbc
000001a0: 36a4 94bc 887b 98bd a421 12bc ee8a 34bd
000001b0: 36ea bd3c a9df d9bd 9d20 2f3d c730 7b3d
000001c0: c76a 843d 5ba0 9abb 2eac 893d 9734 4cbd
000001d0: 999d cb3d f3ea 8c3c 0332 c83c df59 af3d
000001e0: 5731 943d c504 a73d 9f10 68bd def2 4f3d
000001f0: afce bebd 3dd3 453d 43de 993d f870 acbd
00000200: 03f8 52bd 069d ba3d 7ea8 57bd 24c2 353d
00000210: b40b 903c e737 353d 7eaa 413d 5569 363c
00000220: 13f2 4fbb 2218 343d 1b6c 51bd 7f6c cabc
00000230: d75d cd3b be2c 98bd 06b9 8e3d aba3 52bd
00000240: 705b 77bd 82d2 c13d 44a0 213d 4634 7a3d
00000250: 190e cc3c 11df 103b dbe6 b9bb 9d37 e7bb
00000260: 771e b5bd 6817 3ebc 2cca 37bc f749 c03c
00000270: 8a10 ccbd 63ba bb3c 7534 d4bc 2638 b43d
00000280: 5c16 8abd bd1b 51bc aa8a 16bd 69c8 53bd
00000290: 8880 1c3d 3665 6cbd 71dd 503d ceb8 69bd
000002a0: 3714 3a3d 6159 93bc 0021 8e3d 0c1a c4bc
000002b0: b1e0 00bd fe87 863d 9c5e 913d eaf7 373d
000002c0: 7c4a 5cbd 7225 3bbd 77ff 5ebc 71ba 413d
000002d0: bd5e 30bd a908 2abd aa50 62bd f9c4 713d
000002e0: cb95 d43c 1ef5 313d 8329 893d 6d59 9f3d
000002f0: 548e 653d de3e d53d e7ff 87bc 83f2 80bc
00000300: 0659 0d3d 55bc 753d 5d46 2bbd d08a 4a3d
00000310: d459 59bd 1e68 a6bd bce8 87bd 5dbc 3e3d
00000320: 9913 d23d 4891 7e3d bfca 1cbb 3513 a33d
00000330: 531e 92bd ba47 8cbc 7d17 24bd 1d6f a8b9
00000340: ae1f 7fbd 69e9 c43c a7bf e8bd 9799 c1bd
00000350: 9db3 16bd 0e7d 5fbd 770f bcbc 931e 26bd
00000360: 4279 3abd 71e2 933d 11fb dbbc 952b 38bc
00000370: caf5 cb3c 7253 9f3c f8d0 813d 61c9 83bc
00000380: 6ebf d13c 3a83 b2bc 4238 86bd 2199 5d3c
00000390: 2ae9 fabc 9d8e afbd cfdb 653d 8ff1 f33c
000003a0: 9cd0 253d 5db6 bbbc 7ed6 a23d 2b8e 3e3d
000003b0: 7a3f 423c 11cc a23d 19c2 8d3d 6eee 8a3c
000003c0: b33b 453d 28c0 fbba 0c62 a93d 8937 903d
000003d0: 38a8 56bd b987 16bd fa5f 41bc c1a6 9bbd
000003e0: cea8 87bd 8ba2 a2bc 1286 173d 5af2 bcbd
000003f0: bc4f 93bd 13c7 38bc 52ce e5bd 531a d73a

bias f4 [270]
-0.013721161 0.032942332 -0.079415716 0.09953471 -0.05938423 0.08443161 0.11185402 0.011296296
0.043277435 0.012373806 0.025443053 -0.004587688 0.023121916 0.08070114 0.04610656 0.07713177
0.07702593 -0.058068007 -0.059407983 0.01895147 -0.009595896 0.0068621743 0.039061207 -0.025059856
0.039402075 0.10817032 0.083879106 0.074195795 -0.055364557 -0.0205546 0.041242473 -0.059759866
-0.0006634911 -0.065214254 0.13827714 0.05928947 0.103162915 -0.04358156 0.1352974 -0.00075598195
-0.029322626 -0.02026963 0.005657379 -0.03765822 -0.04786091 -0.032783996 0.06480317 0.05935571
0.060555134 0.07214013 0.027676042 0.06329901 0.047994655 0.07211596 0.028446054 -0.000114759096
0.048394382 0.046391442 0.08653767 -0.031896006 0.12283898 -0.02217842 0.012413957 0.042008847
0.09255156 -0.003674903 0.08232837 -0.004319382 -0.01611862 0.05533347 -0.036216207 0.016746087
0.10669754 0.07710852 -0.04803618 0.030060152 0.0675871 -0.03004633 -0.029823728 -0.027256047
0.06033686 -0.016475983 -0.017335849 -0.012445581 0.056714106 0.04580892 0.11255093 0.011045146
-0.055813506 -0.03909805 0.16620018 -0.018214827 -0.025342595 0.0023730365 0.072257236 0.06349603
0.036284324 -0.026787542 0.01668968 -0.06767744 0.14880465 -0.013369527 0.034216255 0.03932181
-0.018820103 0.024904925 -0.046008423 0.04781252 0.04022776 0.06627557 -0.025690366 0.046903614
0.131208 0.028958645 0.06768573 0.08564593 0.13844006 0.06516354 -0.04338871 0.051058095
0.02164673 0.032759473 -0.026171736 0.024042727 -0.0055168043 -0.007926209 -0.03396026 0.03120427
0.008565541 0.082313985 -0.053124804 0.022858333 0.04992048 0.09466853 0.06496786 -0.013298001
-0.07481293 0.025167206 0.07479502 0.107532315 0.016910432 0.06997623 0.12145854 0.055989027
0.053712793 -0.03893397 -0.028437404 0.077974625 0.016741946 -0.07794566 0.014333151 -0.046546005
-0.05955546 0.08149733 0.07910051 0.045690745 0.079343736 -0.0048327865 -0.029813929 -0.044513512
0.055069216 -0.106266916 0.048511095 -0.052889276 0.03326048 -0.0098373685 0.030894551 -0.0062747807
0.0471677 -0.033083968 -0.06374581 0.055473235 -0.059156176 0.04171541 0.030958904 0.11782333
-0.022961829 0.12668054 0.11635442 -0.0028394563 0.042083044 0.02605573 0.09445102 -0.018104281
0.02279728 -0.08254877 -0.08550213 -0.039732955 -0.039984815 0.08791893 0.05110311 0.104532845
0.1187751 -0.029333215 0.08175893 0.019842 0.07405601 0.024941271 -0.07344506 -0.0054387697
0.03386488 0.030945603 0.12678656 -0.032363877 0.07292037 0.02394442 -0.047553543 -0.04178581
0.049063474 -0.04662394 0.1250073 0.013479063 0.01066318 -0.032958593 -0.07392415 0.038587663
-0.038296785 -0.052395776 0.013326459 0.1232589 -0.0064309365 0.049784876 0.0838325 0.07984048
-0.05411671 0.04547407 0.07523118 0.055531953 0.07249137 -0.06570984 0.103235975 -0.024303447
0.053587236 0.064481005 -0.02056931 -0.04168102 -0.030669937 0.059312537 0.09526146 0.12385215
-0.06976795 0.11517892 -0.022563968 0.05245275 0.10460978 0.1112248 0.05978281 -0.022206442
0.028638694 0.009591276 0.008127675 -0.06335603 0.09188483 0.10371281 -0.031124324 0.070908554
00000000: b8ce 60bc 8aee 063d b5a4 a2bd dbd8 cb3d
00000010: e13c 73bd 7bea ac3d b813 e53d 1914 393c
00000020: ae43 313d 81bb 4a3c f36d d03c 5154 96bb
00000030: 2c6a bd3c a446 a53d 3bda 3c3d 43f7 9d3d
00000040: c5bf 9d3d b8d8 6dbd c955 73bd 1d40 9b3c
00000050: 1b38 1dbc 17dc e03b a5fe 1f3d 544a cdbc
00000060: 1264 213d 6788 dd3d cfc8 ab3d f7f3 973d
00000070: f2c5 62bd 1f62 a8bc deed 283d c3c6 74bd
00000080: 22ee 2dba 0d8f 85bd 8698 0d3e 84d9 723d
00000090: 1447 d33d 9482 32bd 678b 0a3e 172d 46ba
000000a0: 0136 f0bc 7f0c a6bc 8961 b93b 813f 1abd
000000b0: cd09 44bd 8348 06bd 86b7 843d f91e 733d
000000c0: a908 783d 34be 933d deb8 e23c e9a2 813d
000000d0: 0b96 443d 88b1 933d b307 e93c d2aa f0b8
000000e0: 3039 463d f404 3e3d a93a b13d 63a5 02bd
000000f0: 0193 fb3d 85af b5bc e963 4b3c 7811 2c3d
00000100: ac8b bd3d a4d6 70bb c79b a83d 9a89 8dbb
00000110: 320b 84bc 59a5 623d 7257 14bd 172f 893c
00000120: 3d84 da3d 12eb 9d3d 96c1 44bd b540 f63c
00000130: 1b6b 8a3d b923 f6bc e450 f4bc 1348 dfbc
00000140: c923 773d a4f8 86bc e903 8ebc 8de8 4bbc
00000150: 0d4d 683d 22a2 3b3d 1a81 e63d b3f6 343c
00000160: b49c 64bd 4725 20bd 6130 2a3e 4337 95bc
00000170: 469b cfbc f284 1b3b 9afb 933d 350a 823d
00000180: df9e 143d 8c71 dbbc ccb8 883c 789a 8abd
00000190: 3f60 183e dc0b 5bbc 5826 0c3d e80f 213d
000001a0: 9e2c 9abc 6a05 cc3c 5473 3cbd 10d7 433d
000001b0: ddc5 243d 7cbb 873d 9a74 d2bc 011e 403d
000001c0: 645b 063e ae3a ed3c d19e 8a3d 2267 af3d
000001d0: 3bc3 0d3e 7674 853d 5cb8 31bd 4b22 513d
000001e0: 7c54 b13c cc2e 063d 1c66 d6bc 41f5 c43c
000001f0: 4fc6 b4bb eedc 01bc ea19 0bbd 19a0 ff3c
00000200: 7c56 0c3c 3c94 a83d 6599 59bd 6641 bb3c
00000210: 6b79 4c3d 93e1 c13d df0d 853d dcdf 59bc
00000220: 8537 99bd 752b ce3c 222e 993d e739 dc3d
00000230: bf87 8a3c b34f 8f3d 41bf f83d c054 653d
00000240: f201 5c3d 3a79 1fbd 8ff5 e8bc 29b1 9f3d
00000250: 6826 893c f9a1 9fbd 98d5 6a3c 06a7 3ebd
00000260: 6df0 73bd 12e8 a63d 73ff a13d 3826 3b3d
00000270: f87e a23d 5a5c 9ebb 573c f4bc cd53 36bd
00000280: 4290 613d 78a2 d9bd 92b3 463d 6da2 58bd
00000290: 243c 083d ea2c 21bc 9216 fd3c ad9c cdbb
000002a0: eb32 413d 0e83 07bd 2a8d 82bd e737 633d
000002b0: bf4d 72bd c7dd 2a3d 879d fd3c 5c4d f13d
000002c0: 721a bcbc 8bb8 013e 3a4b ee3d 2c16 3abb
000002d0: 455f 2c3d d472 d53c 896f c13d 6e4f 94bc
000002e0: 5dc1 ba3c 540f a9bd be1b afbd 06bf 22bd
000002f0: 1ec7 23bd d70e b43d 7f51 513d 5115 d63d
00000300: 5c40 f33d 364c f0bc 3a71 a73d b18b a23c
00000310: adaa 973d a351 cc3c 5d6a 96bd b537 b2bb
00000320: e7b5 0a3d a281 fd3c 56d4 013e fc8f 04bd
00000330: 4657 953d 1727 c43c 81c7 42bd 9927 2bbd
00000340: c8f6 483d bff8 3ebd ea01 003e 4ad7 5c3c
00000350: 9eb4 2e3c 97ff 06bd 8b65 97bd 190e 1e3d
00000360: 17dd 1cbd f49c 56bd 3857 5a3c 2a6f fc3d
00000370: 9bba d2bb 3aeb 4b3d 60b0 ab3d 6883 a33d
00000380: 7ca9 5dbd 0543 3a3d ce12 9a3d 7975 633d
00000390: 5b76 943d e192 86bd 626d d33d 0618 c7bc
000003a0: 4a7e 5b3d 9e0e 843d f880 a8bc b8b9 2abd
000003b0: 853f fbbc b4f1 723d 7118 c33d 32a6 fd3d
000003c0: 80e2 8ebd ede2 eb3d 12d8 b8bc b2d8 563d
000003d0: a73d d63d d4c9 e33d d2de 743d 49ea b5bc
000003e0: b29b ea3c ba24 1d3c f129 053c cec0 81bd
000003f0: 1d2e bc3d 6267 d43d 70f8 febc 8138 913d

weight f4 [90, 270]
0.02535241 0.0076875766 0.07254832 0.12458699 -0.062027097 0.019398341 0.055006854 0.030626528
0.06744966 0.119802475 -0.024506262 0.0403242 -0.09065103 0.050000466 0.05825723 -0.09098761
0.06871545 0.04739185 0.010933223 -0.0008017844 -0.021399824 0.052498132 -0.008261234 0.055721033
-0.067756645 -0.04741576 -0.05550531 -0.010995085 0.00590936 0.06473799 -0.03380015 -0.039544255
0.041922696 0.014764699 0.005281402 -0.0114916945 -0.07751344 0.07860982 0.041011088 0.064448774
0.062650055 -0.04374444 -0.0010297871 0.040533174 0.0501834 -0.045743223 -0.014866943 0.006717632
-0.03474913 -0.0063701887 0.038516063 -0.059792817 0.050311107 0.026060592 -0.0020947803 0.002860764
-0.033029452 0.017331516 0.020149224 0.013309392 0.020243382 0.023891626 -0.07367115 -0.015011115
-0.012839677 0.00117474 0.044578534 -0.0202818 -0.010298073 0.10918937 0.060152717 0.017327176
0.058003962 -0.015914796 0.043662544 0.05256159 0.08461615 0.074572496 0.07466873 -0.022962151
-0.024661448 0.066263445 0.025842529 0.104819655 -0.015524287 0.023934953 0.08010804 0.04189189
-0.046804994 0.030351166 0.07231165 0.02362727 0.04967871 0.008300259 -0.04287447 0.0075209457
-0.070308834 -0.0035935133 -0.06097253 0.012096653 -0.06726817 0.01430481 -0.026058415 -0.041867208
-0.030137518 0.0055610947 -0.0003254525 0.04086131 -0.01730855 0.029309532 -0.029407544 -0.019319419
-0.053105652 0.056293502 0.034810048 0.015875556 -0.009765898 0.0023930788 0.023693575 0.010402175
0.01759119 -0.03669991 0.01305749 0.028649123 0.06855794 0.11281761 0.022565683 0.020339886
0.090343006 0.045020483 -0.010710199 0.017125346 -0.014553213 0.00021394272 -0.029972691 -0.0023176642
-0.03183083 0.06122003 0.062034525 0.04015713 0.03982394 0.0018300365 -0.036493048 -0.040760193
-0.064388774 -0.0215833 0.011927495 0.024770696 -0.04436838 -0.044215765 -0.029010028 -0.045146506
0.013603506 -0.03446547 -0.055156413 0.035082705 0.025599856 0.013307538 0.054281812 0.1261391
0.08137083 -0.018310288 0.043791324 -0.001480366 0.08574866 -0.007040291 -0.022777809 -0.025252197
0.015176433 -0.051325176 0.09535333 -0.0008504022 0.039294314 -0.0080717895 0.04441074 -0.034602284
-0.016610807 -0.05885031 0.015852984 0.06309419 -0.028832288 -0.017903132 0.0744902 0.01581513
0.00065383763 -0.026112022 0.0149759 0.019456333 0.017374633 -0.0023299598 -0.028099354 -0.0336084
-0.03185041 -0.0021067185 0.016258607 0.070022635 -0.038292915 0.042806175 0.013008079 0.012838651
-0.034324728 -0.0053578047 0.0049018064 -0.05884388 0.098041594 0.060202204 0.09355116 -0.031978734
0.035291877 0.045851804 0.030120615 -0.07646942 -0.04438584 -0.064248845 -0.044820487 0.07923427
0.033604648 0.059373803 0.046588723 0.031707652 -0.049028587 0.033898253 0.0025472227 -0.004869052
0.048263993 0.037571523 0.012686202 0.012490487 -0.017516505 0.055155583 0.099408194 -0.030673996
0.01805717 -0.016494034 -0.002592541 -0.059247617 -0.07397394 -0.005104335 0.017991135 0.090739675
-0.03808548 -0.052519895 0.05226407 0.010881736 0.081618406 -0.04004607 -0.054527193 0.028783822
0.034052223 -0.016404847 0.06689799 -0.021104733 0.017215198 0.04925783 -0.005959344 0.051180955
00000000: dbaf cf3c 11e8 fb3b 3794 943d 7727 ff3d
00000010: 2010 7ebd 45e9 9e3c de4e 613d 7ce4 fa3c
00000020: 0c23 8a3d 005b f53d 5bc1 c8bc fd2a 253d
00000030: 3fa7 b9bd 4acd 4c3d 229f 6e3d b657 babd
00000040: b0ba 8c3d f51d 423d 4321 333c d72e 52ba
00000050: af4e afbc 4808 573d 205a 07bc bd3b 643d
00000060: ffc3 8abd 0737 42bd 8959 63bd bb24 34bc
00000070: 4ea3 c13b 5a95 843d 0772 0abd 28f9 21bd
00000080: 22b7 2b3d a3e7 713c 9c0f ad3b a947 3cbc
00000090: 5ebf 9ebd 2ffe a03d 3efb 273d b8fd 833d
000000a0: ac4e 803d 5f2d 33bd ecf9 86ba 1d06 263d
000000b0: 1c8d 4d3d 3f5d 3bbd 7a94 73bc 951f dc3b
000000c0: 1b55 0ebd 04bd d0bb 05c3 1d3d 50e9 74bd
000000d0: 0513 4e3d 067d d53c 9548 09bb a87b 3b3b
000000e0: e449 07bd d3fa 8d3c fc0f a53c a30f 5a3c
000000f0: 73d5 a53c 5fb8 c33c e6e0 96bd 2ef1 75bc
00000100: 825d 52bc bcf9 993a fb97 363d 0426 a6bc
00000110: 40b9 28bc ad9e df3d b262 763d b9f1 8d3c
00000120: 9095 6d3d bf5f 82bc 7fd7 323d d24a 573d
00000130: 3b4b ad3d 77b9 983d ebeb 983d 1f1b bcbc
00000140: ce06 cabc 21b5 873d b6b3 d33c b0ab d63d
00000150: 9459 7ebc 3c13 c43c af0f a43d d596 2b3d
00000160: 98b6 3fbd 02a3 f83c 2118 943d fa8d c13c
00000170: e77b 4b3d cffd 073c 249d 2fbd 4472 f63b
00000180: 14fe 8fbd 2681 6bbb 55be 79bd 0a31 463c
00000190: e5c3 89bd b95e 6a3c 7578 d5bc f37c 2bbd
000001a0: f5e2 f6bc d839 b63b 7fa1 aab9 305e 273d
000001b0: a9ca 8dbc 8b1a f03c 17e8 f0bc c243 9ebc
000001c0: 5085 59bd 0494 663d fb94 0e3d 740d 823c
000001d0: 2501 20bc 33d5 1c3b 0719 c23c e26d 2a3c
000001e0: 661b 903c a552 16bd 15ef 553c 91b1 ea3c
000001f0: 1b68 8c3d eb0c e73d abdb b83c d59f a63c
00000200: c105 b93d 6667 383d d579 2fbc 744a 8c3c
00000210: 9970 6ebc d055 6039 4a89 f5bc f4e3 17bb
00000220: 0b61 02bd dbc1 7a3d ea17 7e3d ce7b 243d
00000230: 6d1e 233d d6dd ef3a bc79 15bd 29f4 26bd
00000240: 43de 83bd 76cf b0bc 8a6b 433c eaeb ca3c
00000250: 9ebb 35bd 971b 35bd 70a6 edbc 8beb 38bd
00000260: 3de1 5e3c aa2b 0dbd b1eb 61bd e2b2 0f3d
00000270: cab6 d13c dc07 5a3c 9b56 5e3d 9c2a 013e
00000280: c0a5 a63d 75ff 95bc 885e 333d d708 c2ba
00000290: fe9c af3d 3eb2 e6bb 8798 babc b2dd cebc
000002a0: 93a6 783c 593a 52bd 9b48 c33d 87ed 5eba
000002b0: 13f3 203d 8a3f 04bc 09e8 353d 20bb 0dbd
000002c0: 6313 88bc 060d 71bd 1ede 813c 8737 813d
000002d0: b131 ecbc 97a9 92bc 518e 983d bb8e 813c
000002e0: 4d66 2b3a e1e8 d5bc 7a5d 753c e362 9f3c
000002f0: 3f55 8e3c 3db2 18bb 9e30 e6bc f6a8 09bd
00000300: 9375 02bd df10 0abb c530 853c 0768 8f3d
00000310: 08d9 1cbd 8755 2f3d d61f 553c 3559 523c
00000320: 1698 0cbd 8690 afbb 559f a03b 4806 71bd
00000330: 08ca c83d 9696 763d c097 bf3d 22fc 02bd
00000340: 378e 103d 1acf 3b3d 82bf f63c 009c 9cbd
00000350: edcd 35bd e694 83bd b095 37bd 9445 a23d
00000360: 07a5 093d f231 733d d1d3 3e3d e2df 013d
00000370: 33d2 48bd e5d8 0a3d 4eef 263b 928c 9fbb
00000380: 77b0 453d 99e4 193d cad9 4f3c e6a4 4c3c
00000390: c67e 8fbc d2ea 613d 8696 cb3d 0848 fbbc
000003a0: a1ec 933c 7f1e 87bc 9fe7 29bb a1ad 72bd
000003b0: a67f 97bd 4442 a7bb 2562 933c b9d5 b93d
000003c0: 85ff 1bbd 1a1f 57bd d912 563d 4f49 323c
000003d0: 8d27 a73d 5907 24bd e857 5fbd 0dcc eb3c
000003e0: 587a 0b3d 7563 86bc d001 893d d5e3 acbc
000003f0: e306 8d3c 94c2 493d 9a46 c3bb 1fa3 513d

bias f4 [90]
0.046522483 0.06947374 0.028075464 0.07275071 -0.019008778 0.014820228 0.06679622 0.033727594
-0.016952612 0.05656056 0.05855229 0.06260007 -0.025220273 -0.006438703 0.056251682 0.031736583
0.0656628 0.0039484007 0.019792432 0.036209174 -0.03531779 0.035038184 -0.031182107 0.008751625
0.035701174 0.06486297 0.0027543472 -0.006607737 0.091037095 -0.009026161 0.020552607 0.026184846
0.07772004 0.07007934 4.6073837e-06 -0.02718731 0.066981606 0.058505163 0.065218374 0.05424868
0.038486194 0.032556944 0.028492663 -0.025440915 0.008667271 0.08037709 0.05396242 0.09205346
-0.018495247 0.009714513 0.03266498 0.08712381 0.010964628 0.054979745 0.073692456 0.01680129
0.053084336 -0.013623121 -0.008657977 0.042990487 0.034120027 0.04967702 0.017705144 -0.030549506
0.07459259 0.017938 0.0267244 -0.0019994287 -0.04754668 0.020790445 -0.0056128427 0.074647516
0.03495248 0.060908467 0.06327029 0.02134071 -0.017931804 0.074693695 0.022675417 0.07324693
0.0026453617 0.022246273 0.058773052 -0.008618006 -0.012102699 0.011626183 0.019314779 -0.02038995
0.037645396 0.020884085
00000000: 5c8e 3e3d 4048 8e3d 84fe e53c 53fe 943d
00000010: 4cb8 9bbc 8bd0 723c 75cc 883d f225 0a3d
00000020: 34e0 8abc 0cac 673d 87d4 6f3d 7734 803d
00000030: bf9a cebc c1fb d2bb 2a68 663d 38fe 013d
00000040: 387a 863d 9661 813b bd23 a23c 1250 143d
00000050: 63a9 10bd 3384 0f3d 9e71 ffbc fa62 0f3c
00000060: 653b 123d e0d6 843d 4782 343b b785 d8bb
00000070: a871 ba3d 77e2 13bc f15d a83c 9a81 d63c
00000080: af2b 9f3d c285 8f3d 2099 9a36 ecb7 debc
00000090: a72d 893d 1ca3 6f3d 3691 853d dd33 5e3d
000000a0: b3a3 1d3d 6e5a 053d 7269 e93c 7769 d0bc
000000b0: 2b01 0e3c be9c a43d b307 5d3d 8686 bc3d
000000c0: 5883 97bc 9f29 1f3c b7cb 053d f86d b23d
000000d0: fca4 333c 7132 613d 12ec 963d dca2 893c
000000e0: f66e 593d 8333 5fbc 30da 0dbc cb16 303d
000000f0: 71c1 0b3d 227a 4b3d 610a 913c f542 fabc
00000100: 00c4 983d b6f2 923c 21ed da3c d908 03bb
00000110: 4fc0 42bd b950 aa3c f0eb b7bb cce0 983d
00000120: 552a 0f3d 287b 793d db93 813d b6d2 ae3c
00000130: b8e5 92bc 02f9 983d ccc1 b93c 7d02 963d
00000140: ce5d 2d3b d13d b63c 03bc 703d 8932 0dbc
00000150: 664a 46bc bf7b 3e3c 073a 9e3c d308 a7bc
00000160: 0f32 1a3d 1a15 ab3c

weight f4 [30, 90]
-0.07111379 -0.11053025 0.11046472 -0.18725404 0.055923726 -0.022558168 -0.02874243 0.13225241
-0.07322352 -0.112431765 -0.080584094 -0.04810324 -0.059469506 0.005215042 0.021352585 0.073780596
-0.07135462 -0.12828378 0.07078337 -0.08639957 -0.056457646 0.120431274 -0.101693936 -0.057995275
0.1389875 -0.10692792 -0.06003245 0.0963276 -0.073765464 -0.10290897 -0.027103553 -0.052395668
0.039655365 0.015900977 0.08496384 0.14715879 0.13574009 -0.10526513 -0.02344025 0.03736675
-0.021877632 0.10922354 -0.13897699 0.13213612 -0.09355716 -0.016571648 0.12995479 0.12933178
0.046317317 0.051467974 0.07601784 -0.059460837 0.11610959 0.12091721 -0.08721816 -0.08259471
-0.034594066 0.050562155 -0.08250618 0.047137234 0.027197944 0.060349647 0.18553707 0.111503795
0.14603361 0.039969165 -0.013574417 -0.034116324 -0.07818319 -0.067021556 -0.049722053 0.0139278155
0.06471044 0.084616065 -0.07433282 0.057453074 -0.008308843 0.00886509 -0.014864513 0.11946685
0.11033456 0.020803077 -0.17414632 -0.2101152 -0.11791183 -0.038413625 -0.06747402 -0.0040876875
-0.06645323 -0.09793279 -0.12120466 -0.06739755 0.1051009 0.13337877 0.097665936 -0.1742693
0.019790925 0.007511392 -0.015954047 -0.044091478 -0.14931045 -0.08913851 -0.043704435 0.12823097
-0.12921683 -0.13932179 -0.029273394 -0.13230366 -0.029167876 0.13062398 0.028677946 -0.13477796
-0.10498199 -0.033645287 -0.049486484 0.060415305 0.06913046 -0.14996904 0.14618288 0.13217
0.11085839 0.12612142 0.11612041 0.098035835 0.17040944 -0.0058569675 0.10773452 -0.02358445
-0.13435332 0.04651789 0.10231756 0.062075045 0.07848399 -0.0877193 -0.029838338 -0.16814117
0.05861497 -0.046682477 0.03931016 0.025092945 -0.06022747 0.059163224 0.008489098 0.151849
-0.02050217 0.13935079 0.0031505506 0.043690685 0.0320698 -0.03876626 -0.09589585 -0.097560704
-0.12274214 0.08072824 0.106993936 -0.050790593 -0.11543213 -0.10810111 0.04775087 -0.13802491
-0.09171575 -0.047437046 -0.05615061 0.044940546 0.006162161 -0.06930585 -0.1948734 0.042410806
-0.11443078 0.012109055 0.034907725 0.097738646 0.10159524 0.093448 0.038285475 0.06772296
-0.18704544 0.071478695 -0.15241855 -0.006747617 -0.1394545 0.0070960894 -0.021731637 -0.037227403
0.008096944 -1.0195727e-05 0.19482066 -0.015084578 -0.100595795 -0.019179756 -0.07487236 -0.058996413
0.043345537 0.06883485 -0.012262258 0.07966642 -0.053804222 0.027966917 -0.02013286 0.005494891
-0.22718902 0.01588737 0.12464308 -0.093114674 -0.11382532 0.06885501 -0.16789903 0.019903915
0.010575581 -0.07109721 0.09855083 -0.1373702 0.05608027 0.15052035 0.07005612 -0.1117182
0.040105067 0.082491346 0.031383462 0.12359828 0.10886146 0.108223304 0.13802803 -0.08452692
-0.16137257 -0.0072266865 0.094977885 0.14949946 0.09565408 0.09061224 -0.09068923 0.08004865
-0.1959342 -0.06912582 -0.04579743 -0.0667475 0.07641258 -0.16166893 -0.12543698 0.082800955
0.115586504 0.124339536 0.15353048 -0.007858084 0.024147946 0.097392336 0.09386426 0.0610456
-0.048097603 -0.14052802 0.008639708 -0.18917446 0.17427588 0.02285762 -0.09571677 0.1321491
00000000: 1ba4 91bd af5d e2bd 543b e23d 86bf 3fbe
00000010: 4710 653d e8cb b8bc 3f75 ebbc 2d6d 073e
00000020: 36f6 95bd a042 e6bd 4609 a5bd e707 45bd
00000030: 4c96 73bd f1e2 aa3b 9eeb ae3c 481a 973d
00000040: 5f22 92bd d35c 03be dff6 903d 42f2 b0bd
00000050: 2240 67bd aca4 f63d e944 d0bd 748c 6dbd
00000060: bd52 0e3e 06fd dabd 96e4 75bd 6847 c53d
00000070: 5912 97bd f0c1 d2bd 4508 debc d79c 56bd
00000080: aa6d 223d c442 823c 8601 ae3d cbb0 163e
00000090: 73ff 0a3e 3f95 d7bd c405 c0bc e10d 193d
000000a0: b838 b3bc 97b0 df3d fc4f 0ebe b14e 073e
000000b0: e59a bfbd 44c1 87bc de12 053e 8d6f 043e
000000c0: 3ab7 3d3d 15d0 523d 3eaf 9b3d 358d 73bd
000000d0: ddca ed3d 71a3 f73d 6f9f b2bd 6a27 a9bd
000000e0: 82b2 0dbd 431a 4f3d 00f9 a8bd f912 413d
000000f0: 39ce de3c 3131 773d 6efd 3d3e 1a5c e43d
00000100: d689 153e b5b6 233d 3b67 5ebc 8fbd 0bbd
00000110: 821e a0bd 9942 89bd 5aa9 4bbd 7e31 643c
00000120: e886 843d 304b ad3d ce3b 98bd ea53 6b3d
00000130: d021 08bc e23e 113c 498a 73bc 09ab f43d
00000140: 16f7 e13d 376b aa3c 6a53 32be 7028 57be
00000150: c27b f1bd 9b57 1dbd d22f 8abd 02f2 85bb
00000160: a218 88bd fd90 c8bd 263a f8bd ba07 8abd
00000170: 243f d73d 7294 083e 1405 c83d a773 32be
00000180: 9420 a23c 1f22 f63b 10b2 82bc 4499 34bd
00000190: d7e4 18be 408e b6bd 6c03 33bd fb4e 033e
000001a0: 6b51 04be 5faa 0ebe c2ce efbc 9c7a 07be
000001b0: 78f1 eebc 4bc2 053e 03ee ea3c 3c03 0abe
000001c0: cc00 d7bd a4cf 09bd 57b2 4abd 0a76 773d
000001d0: 4594 8d3d 7c91 19be f7b0 153e 9357 073e
000001e0: b909 e33d f925 013e 8ad0 ed3d 03c7 c83d
000001f0: d07f 2e3e ceeb bfbb eba3 dc3d 2d34 c1bc
00000200: eb93 09be 8b89 3e3d de8b d13d 6742 7e3d
00000210: 37bc a03d 2da6 b3bd 886f f4bc 332d 2cbe
00000220: 4016 703d 2036 3fbd b103 213d b88f cd3c
00000230: 14b1 76bd 2355 723d dc15 0b3c 4e7e 1b3e
00000240: 2bf4 a7bc f9b1 0e3e 7879 4e3b 01f5 323d
00000250: 9f5b 033d 5fc9 1ebd 0b65 c4bd e8cd c7bd
00000260: 3b60 fbbd d954 a53d a31f db3d cc09 50bd
00000270: ae67 ecbd 1d64 ddbd 6b96 433d 6756 0dbe
00000280: 78d5 bbbd 594d 42bd 2ffe 65bd 9413 383d
00000290: f4eb c93b 3af0 8dbd e48c 47be f4b6 2d3d
000002a0: af5a eabd 0f65 463c 67fb 0e3d 332b c83d
000002b0: 2a11 d03d aa61 bf3d 3bd1 1c3d 56b2 8a3d
000002c0: d788 3fbe 6c63 923d 9c13 1cbe 1d1b ddbb
000002d0: 29cd 0ebe 5086 e83b 8c06 b2bc c37b 18bd
000002e0: 0ba9 043c 500e 2bb7 117f 473e 4e25 77bc
000002f0: 2b05 cebd dd1e 9dbc ae56 99bd 39a6 71bd
00000300: 178b 313d 49f9 8c3d a3e7 48bc 2628 a33d
00000310: d161 5cbd e01a e53c abed a4bc 7d0e b43b
00000320: 3da4 68be 3b26 823c df44 ff3d e8b2 bebd
00000330: 401d e9bd db03 8d3d b9ed 2bbe 890d a33c
00000340: 3445 2d3c 6a9b 91bd 04d5 c93d c6aa 0cbe
00000350: 6db4 653d 0222 1a3e 9579 8f3d 83cc e4bd
00000360: 3645 243d 39f1 a83d f28b 003d 1821 fd3d
00000370: c2f2 de3d 2ea4 dd3d 3857 0d3e 731c adbd
00000380: da3e 25be d7cd ecbb c483 c23d 6316 193e
00000390: 49e6 c33d e992 b93d 46bb b9bd 8cf0 a33d
000003a0: faa2 48be d791 8dbd 1696 3bbd eab2 88bd
000003b0: 337e 9c3d 8a8c 25be 8d72 00be 8c93 a93d
000003c0: 9eb8 ec3d baa5 fe3d 1837 1d3e 31bf 00bc
000003d0: ead1 c53c a275 c73d e83b c03d f30a 7a3d
000003e0: fe01 45bd 94e6 0fbe 908d 0d3c f3b6 41be
000003f0: 6075 323e e73f bb3c 2707 c4bd 1852 073e

bias f4 [30]
0.15206285 -0.012461919 -0.09028878 -0.025603598 0.12622009 0.052900862 -0.113060705 -0.0715767
0.002457327 -0.07857924 0.007803971 0.17381501 0.068242036 -0.022461008 0.060042985 -0.02986792
0.012005187 -0.019594137 -0.12602821 -0.16312256 0.037413333 -0.003813418 0.054197352 0.09027499
0.02567344 -0.057300318 0.021936314 0.06767548 0.06451729 0.10997244
00000000: 5db6 1b3e 142d 4cbc 53e9 b8bd a3be d1bc
00000010: d73f 013e 93ae 583d 5f8c e7bd ce96 92bd
00000020: 1b0b 213b 27ee a0bd 74b8 ff3b 90fc 313e
00000030: 7bc2 8b3d 2600 b8bc a2ef 753d 91ad f4bc
00000040: 67b1 443c e283 a0bc 8a0d 01be 9a09 27be
00000050: b93e 193d 8aea 79bb 0bfe 5d3d 18e2 b83d
00000060: 1b51 d23c bdb3 6abd c9b3 b33c 7199 8a3d
00000070: a421 843d 3b39 e13d

weight f4 [90, 30]
-0.03532004 0.079205565 -0.025862219 0.03687874 -0.080663584 0.17005453 -0.10613635 -0.04212083
0.1805657 -0.004416952 0.08501607 -0.068335705 0.03841317 -0.11377678 0.09239963 0.011904454
-0.054721467 0.08450083 0.10123256 -0.012582884 -0.20425132 0.012164273 0.13753235 0.1371266
-0.003577457 -0.17119253 0.10139812 0.09178688 -0.032817293 -0.02101253 0.08407512 -0.06418895
-0.23794134 0.15428255 0.035373393 -0.012640734 -0.09606706 -0.09308504 0.12196449 -0.20941405
0.028654808 0.1622019 0.020243581 -0.1406988 0.09954497 0.15453157 -0.04382742 -0.19312671
-0.016832897 0.12357231 0.07125593 0.24390982 0.09364475 -0.19134773 0.08366595 -0.21088602
0.042886384 0.08999474 0.042116612 0.21066342 0.14500424 0.055878386 -0.025223337 -0.1889108
-0.17495312 -0.13365242 -0.06374833 -0.12576935 -0.008083512 -0.15233873 0.0061620343 0.083239794
-0.12124969 0.023374453 0.20604232 0.21600579 0.05646397 0.09304942 -0.07048272 0.1173838
0.021065613 -0.1017957 0.13224614 -0.14079821 0.15156823 -0.081790954 0.0058940495 0.101867735
-0.060450323 -0.12738007 0.09474549 -0.052730285 0.052012905 -0.018002892 -0.018167468 -0.23740518
0.09509513 0.0048268987 0.12592423 0.04747238 -0.21112448 0.06287175 -0.09962652 -0.05693646
-0.0017853819 0.15036233 0.053786956 -0.15558586 -0.097581655 -0.1395534 0.15422021 0.027407827
0.04727208 0.0721572 -0.06019386 -0.17450503 0.026140999 -0.13540912 0.0699483 -0.0017489189
-0.05830207 0.097659245 0.040469207 0.1413851 0.072987646 0.12096713 -0.12637308 0.07327709
-0.0616652 -0.14024355 -0.080458954 0.1801167 0.13472106 -0.061045643 -0.08297924 0.0877856
0.023831725 0.06995352 -0.12852427 -0.01589504 0.11387933 0.0817139 0.013366478 -0.09946243
-0.13310489 0.03239379 -0.2487604 0.13201596 -0.068150766 0.15534543 0.055830732 -0.035859223
0.063756295 0.09554124 0.021201344 -0.057120863 -0.15515359 -0.007852569 0.054186366 0.12211115
-0.17171852 0.001296262 0.18508409 -0.26219556 0.12870133 0.059210688 -0.0006347546 -0.085526675
-0.04888532 -0.07300367 -0.0724053 -0.032326218 -0.067487165 0.0018081293 -0.023756994 -0.03708263
-0.007966101 -0.08395347 0.1858353 0.24062203 -0.19561213 0.1340664 -0.1068467 -0.034118686
-0.14042737 0.020513847 -0.10671802 0.19442567 -0.18851389 0.08009707 -0.047837272 0.098166294
-0.14276083 -0.046088707 0.10843547 0.1742178 -0.10979511 -0.215857 -0.11173713 -0.12958762
-0.0019026684 -0.105067044 0.1392987 -0.062351678 -0.19887239 -0.12307245 -0.04949822 0.054364286
-0.13468847 -0.02171828 -0.07434765 -0.18220858 0.0504385 0.0038832324 0.024446854 -0.038074955
-0.023614673 0.090203285 -0.06548038 -0.043178517 -0.07079824 -0.015512577 0.051811043 0.050078493
0.15246327 0.054596234 -0.0011223787 -0.07110589 0.13535754 0.17959486 0.006605467 -0.13897261
0.103814535 0.08219208 0.15886496 -0.09721778 0.13653733 -0.08004177 -0.03759985 -0.02755175
-0.040859826 -0.057944264 0.10904514 0.12477097 -0.06378947 -0.008293372 0.029690905 -0.17880027
0.08404186 0.02585008 0.04096315 0.13364671 0.033552367 -0.15179498 -0.010014452 0.038606104
00000000: bfab 10bd 8736 a23d 01dd d3bc 290e 173d
00000010: f332 a5bd c622 2e3e 045e d9bd e486 2cbd
00000020: 37e6 383e 14bc 90bb e81c ae3d 97f3 8bbd
00000030: 2157 1d3d cd03 e9bd 043c bd3d e60a 433c
00000040: 9e23 60bd c50e ad3d 0453 cf3d 7128 4ebc
00000050: 4227 51be a94c 473c 48d5 0c3e ea6a 0c3e
00000060: c573 6abb 184d 2fbe d1a9 cf3d c2fa bb3d
00000070: 6d6b 06bd 7822 acbc 942f ac3d 7f75 83bd
00000080: e5a6 73be 3ffc 1d3e b1e3 103d 151b 4fbc
00000090: cfbe c4bd 5fa3 bebd 85c8 f93d a370 56be
000000a0: 7dbd ea3c 4118 263e ded5 a53c 5913 10be
000000b0: 3cde cb3d 863d 1e3e 6184 33bd 02c3 45be
000000c0: 25e5 89bc 7b13 fd3d a1ee 913d 7fc3 793e
000000d0: d2c8 bf3d a9f0 43be 0e59 ab3d 81f2 57be
000000e0: a2a9 2f3d 2a4f b83d 7882 2c3d 27b8 573e
000000f0: fe7b 143e bce0 643d 2ca1 cebc d571 41be
00000100: e926 33be 2edc 08be 7c8e 82bd aec9 00be
00000110: b570 04bc affe 1bbe e4ea c93b a079 aa3d
00000120: c251 f8bd c87b bf3c c2fc 523e 9f30 5d3e
00000130: c446 673d b290 be3d 3f59 90bd eb66 f03d
00000140: cb91 ac3c 447a d0bd 886b 073e 682d 10be
00000150: b434 1b3e 0482 a7bd df22 c13b 08a0 d03d
00000160: c29a 77bd ec6f 02be ec09 c23d b6fb 57bd
00000170: 7c0b 553d cd7a 93bc f1d3 94bc 581a 73be
00000180: 3cc1 c23d f62a 9e3b 48f2 003e 6672 423d
00000190: 0431 58be e7c2 803d fd08 ccbd 3536 69bd
000001a0: 7a03 eaba 95f8 193e b64f 5c3d e651 1fbe
000001b0: e4d8 c7bd 16e7 0ebe e7eb 1d3e 6186 e03c
000001c0: 5ea0 413d 27c7 933d d68d 76bd 72b1 32be
000001d0: a625 d63c b0a8 0abe 0e41 8f3d fb3b e5ba
000001e0: 27ce 6ebd 9201 c83d 0ac3 253d 41c7 103e
000001f0: 8c7a 953d 9dbd f73d f267 01be 4d12 963d
00000200: a694 7cbd 019c 0fbe aac7 a4bd 8370 383e
00000210: 51f4 093e ff0a 7abd 05f1 a9bd f0c8 b33d
00000220: c03a c33c cb43 8f3d de9b 03be 5136 82bc
00000230: 9139 e93d 9e59 a73d 12ff 5a3c f5b2 cbbd
00000240: a64c 08be 5aaf 043d 0cbb 7ebe 312f 073e
00000250: a192 8bbd df12 1f3e c4ae 643d 1fe1 12bd
00000260: a992 823d 20ab c33d 71ae ad3c 91f7 69bd
00000270: 95e0 1ebe 10a8 00bc 86f2 5d3d 6915 fa3d
00000280: fbd6 2fbe 56e7 a93a af86 3d3e 7f3e 86be
00000290: 48ca 033e e886 723d a965 26ba 9c28 afbd
000002a0: f93b 48bd f382 95bd 3b49 94bd 7f68 04bd
000002b0: b636 8abd c0fe ec3a 079e c2bc f5e3 17bd
000002c0: 4084 02bc ccef abbd 9c4b 3e3e 9f65 763e
000002d0: 8c4e 48be b448 093e 71d2 dabd 09c0 0bbd
000002e0: 31cc 0fbe a80c a83c fa8e dabd 8617 473e
000002f0: c909 41be ef09 a43d 04f1 43bd 690b c93d
00000300: e52f 12be 83c7 3cbd 6a13 de3d 2766 323e
00000310: 42dc e0bd 9e09 5dbe 70d6 e4bd 9eb2 04be
00000320: f562 f9ba 642d d7bd 52a4 0e3e 7964 7fbd
00000330: 34a5 4bbe 690d fcbd a5be 4abd 16ad 5e3d
00000340: c6eb 09be 89ea b1bc 9543 98bd e394 3abe
00000350: 9a98 4e3d d47d 7e3b c544 c83c 7cf4 1bbd
00000360: 8f73 c1bc 80bc b83d 941a 86bd f5db 30bd
00000370: abfe 90bd 7728 7ebc d137 543d 1b1f 4d3d
00000380: 551f 1c3e 4da0 5f3d c81c 93ba f79f 91bd
00000390: 2b9b 0a3e b7e7 373e ac72 d83b d64e 0ebe
000003a0: b79c d43d 5254 a83d 7fad 223e 1e1a c7bd
000003b0: 71d0 0b3e f1ec a3bd 4d02 1abd 35b4 e1bc
000003c0: a25c 27bd f756 6dbd 0f53 df3d ec87 ff3d
000003d0: 0ea4 82bd ece0 07bc 573a f33c 6b17 37be
000003e0: 241e ac3d 8cc3 d33c fac8 273d afda 083e
000003f0: 356e 093d 2570 1bbe a813 24bc 6f21 1e3d

bias f4 [90]
-0.054000624 -0.095270485 0.08909251 0.11936805 0.22488756 -0.112715594 0.20299354 -0.046713136
-0.021182122 0.1527439 0.36303726 0.14386842 0.19810112 -0.1039981 0.24115163 0.047026016
-0.007385613 0.15734828 0.047762875 0.1175046 0.113305554 0.13536271 0.07935159 -0.0046549654
0.14130583 0.27970043 0.2731708 -0.070559494 0.122040816 0.1597969 0.1834932 -0.021672877
0.017616592 -0.08446935 -0.07136035 0.088847235 -0.094356135 -0.037622184 0.031200163 -0.15799625
-0.07312398 -0.12008606 -0.007077585 0.25099635 0.15559407 -0.18254483 0.06347196 -0.053674895
-0.15470496 0.14153169 -0.0577985 0.21689856 0.04640392 0.23581097 0.05281103 0.19638479
-0.06532264 -0.015713695 0.1206067 0.2912254 0.16991499 0.026362699 -0.04073692 0.06216403
0.17966992 0.230271 0.22833014 0.32424068 0.26594147 -0.08923306 -0.07832945 0.20896477
0.146813 0.32593864 0.0359121 -0.05814823 -0.12874465 -0.10056272 0.05785716 0.20499343
0.26256654 0.17387605 0.07556885 0.07615333 0.114545226 0.1638043 0.08949411 0.3138287
-0.036644083 0.06517714
00000000: c22f 5dbd 2c1d c3bd 2276 b63d 3c77 f43d
00000010: ed48 663e 6fd7 e6bd 8add 4f3e 4656 3fbd
00000020: 2186 adbc e668 1c3e 05e0 b93e 3e52 133e
00000030: 05db 4a3e f5fc d4bd 74f0 763e 5a9e 403d
00000040: 0303 f2bb e81f 213e 01a3 433d 40a6 f03d
00000050: be0c e83d 869c 0a3e 1683 a23d ae88 98bb
00000060: 7ab2 103e e534 8f3e 0bdd 8b3e 7f81 90bd
00000070: 89f0 f93d cca1 233e a4e5 3b3e 518b b1bc
00000080: ac50 903c 44fe acbd 6025 92bd 8af5 b53d
00000090: ca3d c1bd b819 1abd 7c97 ff3c c5c9 21be
000000a0: 06c2 95bd aeef f5bd 16eb e7bb 9882 803e
000000b0: 0d54 1f3e 08ed 3abe 96fd 813d 35da 5bbd
000000c0: fa6a 1ebe afed 103e 1fbe 6cbd a81a 5e3e
000000d0: 0912 3e3d 6e78 713e 6150 583d 1819 493e
000000e0: e0c7 85bd 02ba 80bc a500 f73d 7f1b 953e
000000f0: 32fe 2d3e 96f6 d73c c2db 26bd b69f 7e3d
00000100: 64fb 373e 29cc 6b3e 60cf 693e e002 a63e
00000110: 7b29 883e d3bf b6bd 316b a0bd dcfa 553e
00000120: 2656 163e 6ee1 a63e 9118 133d d72c 6ebd
00000130: a3d5 03be d4f3 cdbd a1fb 6c3d cce9 513e
00000140: 1f6f 863e 900c 323e d7c3 9a3d 47f6 9b3d
00000150: b096 ea3d 50bc 273e b048 b73d 28ae a03e
00000160: 1b18 16bd 987b 853d

weight f4 [270, 90]
-0.04181496 0.017265566 -0.048319858 -0.045927167 -0.006186051 -0.084684156 -0.063825384 -0.082488135
0.028594343 -0.03717457 0.03141568 -0.013163935 -0.096310705 0.045464765 -0.064363375 0.11440434
0.12946089 0.049740486 -0.02603263 0.14468907 -0.053662952 0.057213478 0.043623187 -0.054071367
-0.05263871 0.0081151305 -0.037124924 -0.095206715 0.06737519 -0.047770754 -0.044025555 -0.0105330115
-0.024253584 0.060038485 -0.032213952 -0.083496206 0.07855901 -0.10638698 -0.07537632 0.05622774
0.02547368 0.0018069779 0.080172725 -0.016528128 0.05411469 0.06761541 -0.033903908 -0.024164503
-0.06476637 0.025650384 -0.04589458 0.058468487 0.1153841 0.0031727667 0.096963435 -0.086555436
-0.055649117 0.061024167 0.10222407 -0.05953524 0.052666042 0.013563648 -0.036622755 0.06516082
0.08069251 0.14213088 -0.115044825 0.11459023 0.02044261 0.041915484 -0.017965468 0.09620294
-0.07570463 -0.052158967 -0.016952096 -0.0050953445 -0.053529564 -0.04327618 0.0682138 0.039313696
0.12764145 0.12973893 -0.001822468 -3.4384633e-05 -0.028246054 0.04646359 -0.062961265 -0.086505026
-0.034539778 -0.07382349 0.045404483 -0.06477244 -0.07233772 -0.051063705 0.039973088 0.052779265
0.16361846 0.063251555 0.049513225 0.07777087 -0.014850165 -0.028494282 -0.06160188 -0.089516655
-0.12066875 -0.10138444 -0.10749821 -0.0035230506 0.0111066215 -0.06648774 -0.0326805 -0.024467228
0.015211298 0.032376185 0.04574257 0.03842755 -0.04338902 0.0151687935 0.09285377 0.14472179
0.09374917 0.082012616 -0.10367197 0.06875992 -0.019490656 -0.03656316 0.007772573 -0.017270796
0.030957012 -0.04649727 0.08017774 0.008946877 -0.022259675 -0.041969396 -0.1265317 -0.06664308
0.061534055 0.02610476 0.0238614 -0.008959804 -0.08644774 -0.0097619835 0.022533832 -0.08627353
-0.035451513 0.028701015 -0.030507721 0.061058134 0.042488575 -0.019806894 -0.015692998 0.073190436
-0.067185715 0.007813857 -0.08613798 0.11864901 -0.0022546793 0.10807244 0.18380849 -0.06846105
0.0073940186 0.017095821 -0.006847543 0.01610805 -0.016445639 0.058234856 -0.011297882 0.014343167
-0.012038152 -0.069493294 -0.04747921 0.04661749 0.05563877 0.041787796 -0.077223375 0.07718042
-0.04371709 0.09381067 -0.05064934 0.13709375 -0.02207502 0.0023372646 -0.073350504 0.0632802
-0.08379075 -0.077832066 0.025769733 -0.01642363 0.09212763 0.061961547 0.0890924 0.038518645
0.020630524 0.11722354 0.041129123 -0.06251155 -0.09190577 -0.09525978 0.10745605 -0.030401953
-0.08773007 -0.031870745 0.07198636 -0.018512502 0.0068315896 0.08502564 -0.08143358 -0.02600872
0.10365678 0.06413947 -0.07371019 0.073713005 -0.071140155 -0.06389033 -0.025574148 -0.044488728
-0.058647633 0.10984621 0.06656386 -0.0060379193 0.11746388 0.047166944 -0.0028370293 -0.049069315
-0.02900768 0.0029226372 -0.06707668 0.07538907 0.03957124 -0.0941071 -0.0834262 0.05710755
0.08550788 0.03508719 -0.08518832 0.104951 0.12123167 0.07146448 0.042525247 0.13181551
0.1001272 -0.06964306 -0.016302843 -0.010409598 -0.035139002 0.049948 0.14319938 0.06952215
-0.12214504 0.08842592 -0.009755191 -0.05099704 -0.05090723 0.008409558 0.026782075 -0.05575165
00000000: 2a46 2bbd 8470 8d3c 0beb 45bd 201e 3cbd
00000010: 5bb4 cabb e36e adbd e2b6 82bd 8aef a8bd
00000020: af3e ea3c 5d44 18bd baad 003d 8cad 57bc
00000030: 8c3e c5bd 4339 3a3d f2d0 83bd d34c ea3d
00000040: 6591 043e aebc 4b3d 6242 d5bc 5f29 143e
00000050: afcd 5bbd ae58 6a3d 3aae 323d f079 5dbd
00000060: b09b 57bd 53f5 043c 4e10 18bd bdfb c2bd
00000070: 01fc 893d 44ab 43bd 2454 34bd a792 2cbc
00000080: 74af c6bc eaea 753d c7f2 03bd 0f00 abbd
00000090: 8ce3 a03d 6be1 d9bd e65e 9abd 0f4f 663d
000000a0: 2eae d03c 1ed8 ec3a 9931 a43d ff65 87bc
000000b0: 5da7 5d3d f379 8a3d d3de 0abd a3f4 c5bc
000000c0: 3ba4 84bd c120 d23c f5fb 3bbd a77c 6f3d
000000d0: 804e ec3d 31ee 4f3b c494 c63d fa43 b1bd
000000e0: 54f0 63bd 7af4 793d da5a d13d 39db 73bd
000000f0: 59b8 573d 103a 5e3c be01 16bd 0973 853d
00000100: 1d42 a53d c28a 113e 9f9c ebbd 48ae ea3d
00000110: 4377 a73c 92af 2b3d 512c 93bc 0c06 c53d
00000120: 070b 9bbd a4a4 55bd 1fdf 8abc d9f6 a6bb
00000130: d141 5bbd 5d42 31bd adb3 8b3d 6607 213d
00000140: 71b4 023e 48da 043e e1df eeba 3838 10b8
00000150: 4564 e7bc 9b50 3e3d d6f1 80bd 8c29 b1bd
00000160: 9579 0dbd c530 97bd 0dfa 393d 6aa7 84bd
00000170: cc25 94bd 2d28 51bd d2ba 233d 122f 583d
00000180: 998b 273e 088a 813d 61ce 4a3d 5546 9f3d
00000190: 1b4e 73bc d76c e9bc 4152 7cbd 8254 b7bd
000001a0: 2d21 f7bd a5a2 cfbd 0628 dcbd fbe2 66bb
000001b0: 8cf8 353c b92a 88bd fddb 05bd 7f6f c8bc
000001c0: cf38 793c e49c 043d 905c 3b3d 3566 1d3d
000001d0: afb8 31bd 8886 783c 1e2a be3d f331 143e
000001e0: 91ff bf3d 3bf6 a73d f851 d4bd 00d2 8c3d
000001f0: deaa 9fbc 41c3 15bd 11b1 fe3b 7c7b 8dbc
00000200: 8f99 fd3c ec73 3ebd 3a34 a43d ec95 123c
00000210: ec59 b6bc 1ae8 2bbd 8791 01be 2b7c 88bd
00000220: 220b 7c3d a6d9 d53c fc78 c33c 24cc 12bc
00000230: 830b b1bd baf0 1fbc df98 b83c 2db0 b0bd
00000240: 9b35 11bd 641e eb3c 54eb f9bc 1818 7a3d
00000250: 8008 2e3d 1142 a2bc 9a8e 80bc dee4 953d
00000260: aa98 89bd b105 003c 1c69 b0bd 41fe f23d
00000270: 3ec3 13bb 1555 dd3d 4b38 3c3e 4f35 8cbd
00000280: 8649 f23b 890c 8c3c 5b61 e0bb 07f5 833c
00000290: 01b9 86bc ac87 6e3d c01a 39bc 9aff 6a3c
000002a0: ab3b 45bc 8052 8ebd 8f79 42bd fbf1 3e3d
000002b0: 7be5 633d ae29 2b3d 4a27 9ebd c510 9e3d
000002c0: b110 33bd cf1f c03d af75 4fbd 4e62 0c3e
000002d0: acd6 b4bc cb2c 193b ca38 96bd 0d99 813d
000002e0: 7c9a abbd 6b66 9fbd 0c1b d33c d98a 86bc
000002f0: 69ad bc3d 64cb 7d3d 1476 b63d bac5 1d3d
00000300: 5801 a93c e512 f03d 0377 283d 0e06 80bd
00000310: 1839 bcbd 8f17 c3bd eb11 dc3d 840d f9bc
00000320: d3ab b3bd e68a 02bd 966d 933d 88a7 97bc
00000330: 87db df3b ec21 ae3d a6c6 a6bd 3d10 d5bc
00000340: 024a d43d 8e5b 833d 5ef5 96bd d8f6 963d
00000350: eeb1 91bd efd8 82bd e080 d1bc d039 36bd
00000360: 8038 70bd 0df7 e03d a252 883d bdd9 c5bb
00000370: e790 f03d 2032 413d 74ed 39bb e8fc 48bd
00000380: 84a1 edbc b789 3f3b 805f 89bd 9665 9a3d
00000390: 7415 223d 39bb c0bd 5bdb aabd 9be9 693d
000003a0: c11e af3d 96b7 0f3d 3777 aebd 8df0 d63d
000003b0: 4f48 f83d f85b 923d f42e 2e3d a5fa 063e
000003c0: 7d0f cd3d 05a1 8ebd 8a8d 85bc 058d 2abc
000003d0: eaed 0fbd 4696 4c3d dca2 123e a161 8e3d
000003e0: 2e27 fabd a618 b53d 3dd4 1fbc 46e2 50bd
000003f0: 1984 50bd 3ec8 093c 1566 db3c d85b 64bd

bias f4 [270]
0.044816107 0.084402815 0.08834407 -0.05705846 0.06410887 0.006345216 -0.08613607 0.08301052
-0.06196549 0.08125336 0.1345504 0.09401033 0.013686543 0.037602447 -0.09505592 -0.056053884
-0.045463953 0.12041392 -0.044656705 0.25083745 0.1041991 -0.052819967 -0.0684842 -0.0033150134
-0.040489785 0.003974269 0.083118424 0.053325802 -0.0996767 -0.003596033 -0.07399752 -0.09445186
-0.08445985 -0.07209596 0.111278504 -0.09460314 -0.08725064 -0.007844393 0.045630716 -0.10194874
0.12773877 0.015297058 -0.079684116 -0.026167126 0.12590373 0.036549896 -0.008405741 -0.056759596
-0.0028089455 -0.014779867 0.0133989835 0.085719384 0.12603688 0.09900508 -0.043962836 -0.014492583
-0.050538894 -0.035564303 0.06525309 0.1219756 0.08072871 0.018700726 -0.06175639 0.10161097
0.039220262 -0.022772215 -0.07874227 0.035006948 0.042326655 -0.03532665 -0.014999956 0.12002451
0.11430538 -0.0059477985 -0.046684716 -0.03973238 0.098323286 0.05683109 0.14692235 0.26240844
0.01824083 0.00096350524 -0.05338257 -0.026024854 0.0073608677 -0.072713144 -0.039402436 0.048944864
0.070641726 0.050948903 0.1955467 0.13006172 0.13555154 0.118820034 -0.07073325 -0.09765602
0.017971922 0.09509548 -0.07746026 0.09000745 0.15030074 0.095711 -0.022498624 0.06182979
0.08861003 0.09062102 -0.06954553 -0.017235186 -0.09702113 0.05804337 -0.061706062 -0.0076962262
0.030294409 0.14177278 -0.04034938 0.02446033 -0.037500326 0.10816327 0.09790784 0.020326586
0.0090608895 0.09615833 -0.07969777 0.04398037 0.004968409 0.057941966 -0.0040673334 -0.0005477703
-0.086672276 -0.057682373 -0.042245563 0.009436977 -0.0667853 -0.072064355 0.10823319 -0.07278822
0.09419377 0.080993 0.071565725 0.08158858 -0.015501775 0.099453524 0.02417502 -0.084856
0.020621441 0.080717005 0.108341955 0.2535582 -0.011877562 0.06589028 0.09725502 0.024089593
0.058149803 -0.046195515 0.109106645 0.047733933 -0.0066879457 0.12282359 0.044631228 0.1782663
-0.0027676797 -0.0124675445 -0.011625657 0.079700835 0.014415892 -0.052052986 0.066818096 0.0557514
0.012649936 -0.06464769 -0.018737793 -0.048954166 0.048268728 -0.10313946 -0.053327683 -0.0053287246
0.060850807 -0.094791576 0.09852364 0.16647601 -0.045542493 0.027700117 -0.10122645 0.10215473
0.11826283 0.047149606 0.16126317 -0.08487837 -0.067526825 0.09571973 -0.101724245 0.078203425
0.053471316 -0.026970431 -0.03459134 -0.05277084 0.002922744 -0.017115911 0.08532953 0.024368221
0.0042264196 -0.08463841 0.059091557 0.07286077 -0.110405214 0.009326167 0.09635202 -0.001626748
0.06531748 0.12031962 0.026166933 -0.0675116 0.017202724 0.12274791 0.080004506 -0.03395791
0.12025406 0.0799597 0.045681313 -0.061721124 0.08886702 -0.07255445 -0.009707463 -0.03421743
-0.01642007 0.067306146 0.12129854 -0.11193253 -0.08227203 -0.016916215 0.029189803 -0.08894076
0.023698743 0.14665543 0.1703044 -0.0030422139 0.078714676 0.11340894 -0.04042927 0.011225097
0.073722176 0.0022491044 -0.058976274 -0.06443354 -0.07126578 0.13794978 0.10724758 0.0375126
0.110702045 0.08202031 0.047517322 0.09876617 0.0288398 0.017132362 0.077021286 0.002306655
00000000: 1891 373d 62db ac3d bced b43d 22b6 69bd
00000010: 834b 833d 88eb cf3b 1c68 b0bd 6b01 aa3d
00000020: 87cf 7dbd 2968 a63d 94c7 093e 7d88 c03d
00000030: 863d 603c 0605 1a3d aeac c2bd c298 65bd
00000040: 6938 3abd 939b f63d f3e9 36bd c46d 803e
00000050: 5666 d53d c059 58bd 7241 8cbd b240 59bb
00000060: 9ed8 25bd 963a 823b fe39 aa3d 286c 5a3d
00000070: 4c23 ccbd 6cab 6bbb 038c 97bd fa6f c1bd
00000080: 49f9 acbd 0ca7 93bd fce5 e33d 4bbf c1bd
00000090: 77b0 b2bd c585 00bc 46e7 3a3d 80ca d0bd
000000a0: f4cd 023e 83a0 7a3c 6d31 a3bd 715c d6bc
000000b0: e8ec 003e 58b5 153d 3cb8 09bc c07c 68bd
000000c0: 4916 38bb 4127 72bc 6987 5b3c a58d af3d
000000d0: d00f 013e 2dc3 ca3d 6012 34bd 4d72 6dbc
000000e0: df01 4fbd e0ab 11bd 69a3 853d 58ce f93d
000000f0: 1855 a53d 4432 993c 45f4 7cbd 6a19 d03d
00000100: 6da5 203d cc8c babc a143 a1bd 7263 0f3d
00000110: b75e 2d3d adb2 10bd 60c2 75bc 69cf f53d
00000120: f018 ea3d c0e5 c2bb 7938 3fbd 6cbe 22bd
00000130: b85d c93d b8c7 683d d072 163e 665a 863e
00000140: cb6d 953c be93 7c3a afa7 5abd 1332 d5bc
00000150: 6f33 f13b a1ea 94bd 7364 21bd 697a 483d
00000160: 9cac 903d ccaf 503d 653d 483e e62e 053e
00000170: 06ce 0a3e eb57 f33d 98dc 90bd e1ff c7bd
00000180: da39 933c 6bc1 c23d 7ca3 9ebd d355 b83d
00000190: 70e8 193e 2104 c43d 094f b8bc 3c41 7d3d
000001a0: 2d79 b53d 8397 b93d e36d 8ebd ce30 8dbc
000001b0: 04b3 c6bd e2be 6d3d 7fbf 7cbd a030 fcbb
000001c0: fb2b f83c e22c 113e 6445 25bd 0861 c83c
000001d0: f199 19bd b484 dd3d e883 c83d f183 a63c
000001e0: 2074 143c a9ee c43d 9638 a3bd c324 343d
000001f0: 09ce a23b 8e54 6d3d 4447 85bb 3e98 0fba
00000200: 3c81 b1bd 5a44 6cbd af09 2dbd 8d9d 1a3c
00000210: bbc6 88bd 7a96 93bd 5da9 dd3d fe11 95bd
00000220: aae8 c03d a8df a53d 0d91 923d ea17 a73d
00000230: 28fb 7dbc 4aae cb3d b10a c63c fcc8 adbd
00000240: 4cee a83c f54e a53d 63e2 dd3d 61d2 813e
00000250: 1b9a 42bc 7cf1 863d a42d c73d 8a57 c53c
00000260: 7d2e 6e3d 8237 3dbd 4e73 df3d a884 433d
00000270: 8e26 dbbb ef8a fb3d 3ccf 363d 718b 363e
00000280: f661 35bb ac44 4cbc 8a79 3ebc 313a a33d
00000290: a230 6c3c 8335 55bd edd7 883d 945b 643d
000002a0: ad41 4f3c 0266 84bd 0080 99bc 2a84 48bd
000002b0: 6eb5 453d c83a d3bd 216e 5abd 959c aebb
000002c0: b23e 793d 1622 c2bd c3c6 c93d b078 2a3e
000002d0: c48a 3abd 5beb e23c d04f cfbd 8036 d13d
000002e0: c833 f23d f21f 413d 2c22 253e b6d4 adbd
000002f0: 814b 8abd b508 c43d cd54 d0bd 1e29 a03d
00000300: bd04 5b3d 18f1 dcbc a6af 0dbd 3c26 58bd
00000310: 828b 3f3b ab36 8cbc 40c1 ae3d dd9f c73c
00000320: c77d 8a3b e756 adbd fd09 723d 0738 953d
00000330: 211c e2bd c8cc 183c 3554 c53d 9b38 d5ba
00000340: 2cc5 853d 226a f63d 095c d63c 8643 8abd
00000350: baec 8c3c 4263 fb3d 67d9 a33d 7317 0bbd
00000360: c347 f63d e9c1 a33d 541c 3b3d 4acf 7cbd
00000370: eaff b53d 6d97 94bd 0d0c 1fbc 9327 0cbd
00000380: 6283 86bc ced7 893d 5e6b f83d e23c e5bd
00000390: 3d7e a8bd e093 8abc 741f ef3c 9326 b6bd
000003a0: de23 c23c d72c 163e 4764 2e3e e15f 47bb
000003b0: 2935 a13d f242 e83d 2a99 25bd 78e9 373c
000003c0: a7fb 963d b665 133b 1b91 71bd bbf5 83bd
000003d0: cbf3 91bd b542 0d3e 9fa4 db3d d0a6 193d
000003e0: c1b7 e23d 44fa a73d 86a1 423d eb45 ca3d
000003f0: 7241 ec3c 2b59 8c3c 56bd 9d3d 402b 173b
