knn/models/pretrained-autoencoder/autoencoder-in_features30-latent_size6.pt (torch, 43131 bytes, 12 tensors)

weight f4 [54, 30]
00000000: c503 013d 05a1 a1bc 282c aabb 69c2 aa3d
00000010: 3dca d7bc e487 843b cf35 223d 588e 923a
00000020: 6d3c cabb 2d0d 8abd 9f56 e3bd 81f6 1fbe
00000030: f7ec 0bbe ba49 86bd a5a7 43be be48 5b3c
00000040: bcd3 6dbc 769b aa3d e257 df3d b76c 3c3e
00000050: efcb 973d 3d32 1f3e 4b65 4d3d 7ba4 3cbd
00000060: c476 5abd 1b29 cebd cc55 bcbd 0a56 bdbd
00000070: 58a2 a43c 2251 0d3c 38ec aa3d b1e2 a13d
00000080: 49cd 8a3c d666 7cbd 88aa dcbd a806 1cbe
00000090: b195 d6bd 6928 08be cea5 c1bc c6e3 ba3d
000000a0: b79a 0f3e b9fb 2e3e 4067 3b3e 0061 3c3e
000000b0: ca64 393b e71b 97bc 87ae 11be 96ca 0cbe
000000c0: 27f2 063d 5fad 0fbd 00f6 433d fa56 e33d
000000d0: 00e2 973c 9681 4dbd aa8b efbd 5193 03be
000000e0: 085e e0bd 230d 80bd aef2 ffbc 89a6 9c3d
000000f0: cbe0 00be c614 00be cd70 eabd 25b1 efbd
00000100: f4f4 e1bd 1d58 82bd 5879 4ebe eddd c4bd
00000110: 0995 b1bd 197e 93bd 1c19 533d 8114 a43d
00000120: 1a5f 033e 759e 0b3e 3f8f 023e f6f5 db3d
00000130: 2933 0f3e a4f6 5a3d 18fb 123d 6934 a13d
00000140: f80e 9b3d 7201 bc3d d496 3e3d c44c 7a3d
00000150: 4700 383d c4ae 9cbc 3e9a 9a3c 1110 a23d
00000160: 0cba be39 d03e 833d 201f 723d 3a2e a93d
00000170: c7fa b3bc 23c0 bdb8 31a7 99bc 6a6f 36bc
00000180: 7274 38bd 0f0f c7bc fe95 983d 2f4e 043b
00000190: 8d76 ec3d 5356 af3d 688d a93d ede0 933d
000001a0: 957c 02bd 6f8d 73bd 6188 0fbe 7319 fabd
000001b0: fbf2 12be 4816 bcbd 4979 c5bd 2da0 07bc
000001c0: 9d39 0cbb a7f7 783c 2dd7 763c 2d70 aeba
000001d0: 1559 2a3d bb22 3f3d d6b3 453d 631e 8d3d
000001e0: 255b 52bd 42b6 a73d 4120 cdbc 7dbd f3bc
000001f0: e741 8cbc 877c 143d 655d 50bc 7839 3d3d
00000200: a251 3d3d 5300 8a3a 490a 373d 2e4b 863d
00000210: c435 24bc 12d7 0cbd 3992 693d d4a9 2abe
00000220: 46d8 dd3d 57d5 49bd b62f b93d 949a 123e
00000230: cc07 483e 7cfd ea3d e802 a5bc eedd 8e3c
00000240: 3d61 2bbd 530a 38bd 88df 20be bc3d 1cbd
00000250: d840 48bd 7c65 513d 27a9 573d 2177 83bd
00000260: 844b 02bd 4d11 a6bd a8c9 ddbd 8e30 17be
00000270: ae3d ecbd b4f9 2abd c2a3 133d f8a2 453d
00000280: b28b 533e 7875 183e b214 1c3e 9a99 343d
00000290: ec54 0dbc cf3c b0bd 06f8 fabd 4f14 f4bc
000002a0: 9316 5cbd 6b0e 933d b7b6 a13d 1600 df3d
000002b0: e641 253d 9577 b6bc 906c c8bd 8556 18be
000002c0: 3cfb 34be cd14 f1bd 62e2 cc3c 656e 0fbd
000002d0: edc8 aabd 626a cabd c27d bdbd 12e3 a7bd
000002e0: b4e1 36bd c611 ce3d ca44 e9bc 3e8b 7a3d
000002f0: 4f15 a83d 60c4 3c3d 149b 553d 63a4 72bd
00000300: acfa 983d 0107 edbd 69c0 6dbd 4ed3 0dbe
00000310: fed8 debc d919 343d ccab 093e faf7 a23d
00000320: 5e35 3c3e b51f 683e 585b e13d 93f3 d63c
00000330: 5059 89bd 25cd 16bd 3776 ba3a f2cd 143d
00000340: d41e 4cbd b583 ef3d 69a9 473b 1a6e d8bc
00000350: 6216 883d 60b2 d8bc 9b93 79bc fbc5 6abd
00000360: 1eea 0cbd 7fff 9dbd 92e3 203b 50b8 dfbc
00000370: 2aba 923c d1e4 f93c 7068 003b b630 96bd
00000380: b35c 26be d1ab 58be 1385 4fbe 7e53 36be
00000390: cafd a7bd 92fc 4c3d a4a5 db3d c6ba 063e
000003a0: a8ba 0e3e 35e1 d7bb b10c 45bb dfab 17be
000003b0: 2a7f e9bd 50f8 f7bd 6006 b0bd 9994 41bd
000003c0: cb28 11bb ebb6 913c 43ff bd3c 1ad2 97bc
000003d0: 4ab0 433d 9342 973d 61d9 983c 7bf0 983d
000003e0: caaf 3cbd c18e 083d d8a4 efbc 6e8a e1bd
000003f0: a4bd 993d 691b c0bd 01b0 31bd cd89 a4bc
0.031497736 -0.0197301 -0.005193252 0.08337862 -0.026341552 0.0040445197 0.039602097 0.0011181338
-0.006171754 -0.06740794 -0.11100506 -0.15621378 -0.13664614 -0.06557031 -0.1910692 0.013384042
-0.014515813 0.08330433 0.10905434 0.18400846 0.07411944 0.15546508 0.05014543 -0.0460553
-0.05333592 -0.10066434 -0.09196052 -0.09244926 0.020096943 0.008625301 0.083458364 0.07904566
0.01694359 -0.06162151 -0.10774714 -0.15236914 -0.1047777 -0.13296665 -0.023638632 0.091254756
0.14023863 0.17088212 0.18301105 0.18396378 0.0028288835 -0.018445922 -0.14226733 -0.13749155
0.03294578 -0.03507745 0.047842026 0.11100574 0.018540382 -0.05017241 -0.11696561 -0.12849165
-0.10955435 -0.06252506 -0.031243648 0.076489516 -0.12585752 -0.12507924 -0.11447296 -0.117037095
-0.11033049 -0.063644625 -0.20163476 -0.096126415 -0.08671004 -0.072017856 0.051537618 0.08011723
0.12829247 0.13634665 0.12749957 0.10740273 0.1398436 0.05345787 0.035883993 0.078713246
0.075712144 0.09179963 0.04653056 0.061108366 0.04492214 -0.019126303 0.018872377 0.07913221
0.0003637824 0.06408465 0.059111714 0.0826077 -0.021970166 -9.0480105e-05 -0.01875648 -0.011134962
-0.045032926 -0.024299173 0.07450484 0.0020188203 0.11546049 0.08561387 0.08278924 0.072206356
-0.031857092 -0.059461053 -0.14016868 -0.12211885 -0.14350502 -0.09183937 -0.09642274 -0.008277935
-0.0021396645 0.015195764 0.01506595 -0.0013308577 0.04158886 0.04666398 0.048267208 0.068905614
-0.051356453 0.0818906 -0.025039794 -0.029753441 -0.017121268 0.03625157 -0.0127175795 0.046197385
0.04622043 0.0010528661 0.044687543 0.06557308 -0.010022584 -0.034384795 0.057024214 -0.16666347
0.108322665 -0.049275722 0.09042303 0.1431678 0.19534224 0.114741296 -0.020142987 0.017439809
-0.04184078 -0.04493172 -0.1571027 -0.038144812 -0.048889965 0.051122174 0.05265155 -0.064192064
-0.0318103 -0.081087686 -0.108294785 -0.14764616 -0.11535202 -0.04174204 0.036044843 0.048251122
0.20658758 0.14888561 0.1524227 0.0440918 -0.008626204 -0.08605348 -0.12254338 -0.02979484
-0.053732466 0.071804844 0.07896178 0.10888688 0.04034605 -0.022273818 -0.09786332 -0.14876755
-0.17673963 -0.117715456 0.025010291 -0.03501739 -0.08339105 -0.09883572 -0.09252502 -0.08197607
-0.04464884 0.10061984 -0.028475184 0.061167948 0.08207189 0.046085715 0.052149847 -0.059238803
0.07469687 -0.115736015 -0.058044825 -0.13850138 -0.02720308 0.043969963 0.13444442 0.07957454
0.18379733 0.22668345 0.110037506 0.026239192 -0.06706488 -0.036816735 0.0014225905 0.036329217
-0.049834087 0.11695043 0.0030465967 -0.026419688 0.06644894 -0.026452243 -0.015232946 -0.057317715
-0.03440296 -0.07714748 0.0024549705 -0.027309567 0.017911036 0.030504616 0.00195935 -0.073335096
-0.162463 -0.21159293 -0.20265608 -0.17805287 -0.08202703 0.050045557 0.10724953 0.13157186
0.13938391 -0.006588126 -0.003006738 -0.14811657 -0.11401208 -0.12107909 -0.08594966 -0.047260854
-0.0022149559 0.017787417 0.023193007 -0.018532801 0.047775544 0.07385745 0.018658342 0.07467743
-0.046066083 0.033339266 -0.029253408 -0.110127315 0.07506874 -0.09380228 -0.04338074 -0.02008524

bias f4 [54]
00000000: 4599 533e 710c e93c 855b 6ebe b43a a63e
00000010: 0961 4f3d 144f 433e 8b26 c73c 745a 9d3d
00000020: 163b 153f 6e71 1c3e 31ac 18bd 4078 863e
00000030: 699d ccbd e8b4 b3bd 9e4c ea3d 76f4 2dbe
00000040: 5b8d 2e3e ecce 3d3e 1678 843e 96fa 2d3e
00000050: 47d7 b13d d56b 273e 6c09 2bbe b9b6 89be
00000060: 6276 a43d e450 c7bd 13b1 f7bd 422a 503e
00000070: 375d 36bc 57d3 21bd 13c1 083e 9089 07be
00000080: 38f0 043e aae1 0b3e 51c4 a43c 34d7 ff3c
00000090: 3de0 05be ffc9 313d fba2 3b3d a7c7 153c
000000a0: 9fe9 cabd 6cca de3d 39fc 1a3e bc59 74bd
000000b0: baee 663e 724d 17be 3aa4 b63d b456 a8bc
000000c0: c2f2 6ebe bea7 71bc e79a b13d dff1 c8bd
000000d0: 76a3 f73d 51e7 a73e
0.20663936 0.028448315 -0.232771 0.32466662 0.05062965 0.19073135 0.02431037 0.07683268
0.58293283 0.15277645 -0.03727359 0.26263618 -0.09990961 -0.087747395 0.11440395 -0.16987786
0.1704611 0.18535966 0.25872868 0.16990122 0.08683639 0.16349728 -0.16702813 -0.2689722
0.08030392 -0.097322255 -0.12094321 0.2032862 -0.011130623 -0.03950819 0.13354902 -0.1323607
0.12982261 0.13660303 0.020113142 0.031230547 -0.13073821 0.04340553 0.045809727 0.009141839
-0.09907841 0.10878453 0.15135278 -0.05965589 0.22552004 -0.14775637 0.089180425 -0.020549156
-0.23334792 -0.0147494655 0.086721234 -0.09811758 0.120917246 0.32793668

weight f4 [18, 54]
00000000: 784f 423d 0796 25bd 1e2e c4bd 5507 093c
00000010: 1115 70bd 6a0d 603d 78fe f4ba d30c 85bd
00000020: 893a 373d 29e0 e53d 3e75 543c 0ee4 fbbc
00000030: 4c63 463d 7b8a 15bd 62af 20be f1e4 993d
00000040: d950 3fbd f848 42bd d09c 973d be36 403e
00000050: 476f 23be dfcf 1b3c fe3c 1e3e 7d42 ddbd
00000060: 2607 4abd 8220 16bc ff6d 15be a981 033d
00000070: 5510 1a3e 4500 c7bd 55a7 d8bd 8efd f0bd
00000080: f582 fe3d f186 8c3d 4afd 893d aacf 25be
00000090: 5b0f 8d3c 2184 c93d 07de 93bd 3dd4 673e
000000a0: 8f0d 493d a4a9 fc3d 1a2d debd 47dd 883d
000000b0: 6d9d a0bd 3fa9 23bb 6513 1a3e a3d4 2dbc
000000c0: 0887 cfbc 4a66 15be 1036 003e e20b b7bd
000000d0: 94f9 2c3e 582c b4bd d801 ba3d 14c1 04be
000000e0: aed8 053c 85fd bf3d 3acb cc3d 8faf e43c
000000f0: aece f03b 3d77 0ebd ad2d ce3e 07e0 073e
00000100: 2d6d 1ebd a242 6f3e 41ec de3c fad0 b4bc
00000110: a75f b23c 7f8c 33bc 799c 7c3d 8023 69bd
00000120: f86e d3bc a29c 7a3d 4720 503c 0cea 193e
00000130: 183d fd3d e517 25be 6300 22bd 0ced 16be
00000140: 3f95 09be 8f02 1d3e 6648 e23c 1a6b 043e
00000150: 8634 edbd a2e4 d6bb e279 c83d fdd9 633e
00000160: 35c8 b2bd f6b9 11bd b729 d9bd 3920 2a3d
00000170: c301 73bc 6d06 463e 48c5 63bd 904f c33d
00000180: 20a6 083e 2281 673d c107 1a3e 3000 cd3c
00000190: 94ef 793c d0bb b0bd 415d 4f3d fc13 5b3c
000001a0: bbab 853e 1c40 173d b07f 853e ac89 b83d
000001b0: cfd2 01be e84d 2c3e b014 cdbc 62af 153c
000001c0: 5e93 873d af1a c53d a73f efbc 7774 3ebd
000001d0: f5aa 6c3e c5ff d5ba dbb2 333e fef6 513e
000001e0: 006b dd3d 7c56 56bd e68e 68bc 36ac c43b
000001f0: bc9c a4bd 0d41 87bc 866a 3abd 5c5f e6bd
00000200: b735 bfbd c7a2 163e e9e5 c7bd c83f 983e
00000210: c0c1 45bc 2f8f fc3d cda6 1abd f25a 76bd
00000220: 273e 243d af05 933e 1093 8dbd 5714 b63e
00000230: 30ce 1fbd 7a4e 743c e36c 61bc e992 8abc
00000240: f4ac 11bd b93f 823d fb03 bbbd c017 59bd
00000250: dcc4 373d b0c5 f53d b0d9 763e 8bef b3bd
00000260: 4e27 a8bc c852 3b3c ceb2 f5bd 0e0b 193d
00000270: b9ad ef3c b8d6 64be ffdd dd3d 9f3d 0cbd
00000280: de1d a6bd 7cd5 aa3d 242a 4bbd b013 b2bc
00000290: a69e e03d e7a2 87bd a28f b73c c7b3 51bd
000002a0: cc53 9c3a 7ebc 31bc fb4d c43d f4f7 313d
000002b0: 7855 1d3e dd76 c03c 4b27 ad3d e968 39bb
000002c0: 631b 9b3e 6509 0a3d 6691 f2bd 8a3b 523e
000002d0: 12e6 8fbd 0159 b33c 747e 21be 87cc 41bd
000002e0: 0cdc dcbb 57fd 1cbe 59ec 6d3d cb87 a3bc
000002f0: 9982 37bd 376b 7b3d 5df1 2fbd c8c8 373e
00000300: 976b 5dbc c6b4 45bd a30c 3e3e 249c e53d
00000310: 6bab 703c 88cb 3d3e 5eb7 febd 93b2 4ebd
00000320: 3301 40bc d5ab 14bc 872d 013e 538b 21bd
00000330: 0846 33bc 7a1f a9bb b39b c43c 1725 debc
00000340: 3207 c23c 2c3e 8dbc 9477 fb3c 456b 833d
00000350: 5f93 8a3c 8c92 a9bb 4075 1bbd e323 493e
00000360: 7211 333d 0998 953e c105 e2bc f79c d83e
00000370: c43c 71bc 25ba 293e cdeb bf3d 08ca 213c
00000380: 1d40 193d 098d a93d 92ef 173e 0370 02bc
00000390: 1187 f4bd dedc c23d f5f1 623d e72c b9bc
000003a0: fb05 60bd 7817 a63c d773 883d 9c07 543d
000003b0: 7128 29bc 55e7 c63d 3875 bfbd 7dc3 5c3d
000003c0: 547a 46bd 4060 e7bd 0c6d a83d d798 5b3e
000003d0: c1f0 123e 459c 11be 58c4 de3d e98c 9fbd
000003e0: 4a81 073e 7bc5 71bd b4fd ad3e bc3c 26be
000003f0: 8332 81bd df1f 6e3d a98d 813d 5f23 09bd
0.04743907 -0.04042628 -0.09579109 0.0083635645 -0.05861384 0.054700293 -0.001869156 -0.06496587
0.044733558 0.11224396 0.012967406 -0.030748393 0.04843454 -0.03650902 -0.15691903 0.0751437
-0.04670796 -0.04743287 0.074029565 0.18770882 -0.15960418 0.00951001 0.15452954 -0.10803697
-0.049323224 -0.009163024 -0.14592741 0.032106075 0.15045293 -0.09716848 -0.10578791 -0.11767112
0.12427322 0.068616755 0.06737764 -0.16192499 0.017219236 0.09839655 -0.07220083 0.22639556
0.049085196 0.12337044 -0.10848446 0.0668283 -0.078425266 -0.0024972705 0.15046461 -0.010609779
-0.025332943 -0.14589801 0.12520623 -0.08937813 0.16892081 -0.087975204 0.09082383 -0.12964278
0.008169336 0.09374527 0.099997 0.027915744 0.007348857 -0.034781683 0.40269223 0.13269053
-0.038678337 0.23365262 0.027212264 -0.022072304 0.021774126 -0.01095879 0.06167266 -0.05691862
-0.02580975 0.061184533 0.012703008 0.15030688 0.12365168 -0.16122396 -0.03955115 -0.14738864
-0.13435839 0.15333007 0.027622413 0.12931481 -0.11582284 -0.006558017 0.09788872 0.22251125
-0.08729593 -0.035577737 -0.106036596 0.041534636 -0.014831963 0.19338389 -0.055608064 0.0953666
0.13344622 0.056519635 0.1504202 0.025024503 0.015254874 -0.086295724 0.050626043 0.013371464
0.26107582 0.036926374 0.2607398 0.09010634 -0.12678073 0.16826594 -0.025034279 0.009136053
0.06619905 0.0962423 -0.029205156 -0.04649779 0.2311209 -0.0016326836 0.17548697 0.20504376
0.10811424 -0.05232857 -0.014194226 0.0060019745 -0.08037707 -0.01651051 -0.045511745 -0.11248657
-0.09336417 0.14710532 -0.09760649 0.2973616 -0.012070119 0.123319976 -0.03775673 -0.060145326
0.040098336 0.28715274 -0.069128156 0.35562393 -0.039014995 0.014911288 -0.013758871 -0.016915755
-0.03556533 0.063598104 -0.091316186 -0.053001165 0.044865474 0.120005965 0.24106479 -0.087859236
-0.020526554 0.011433311 -0.11996995 0.03736406 0.029257642 -0.22347534 0.10833358 -0.034238454
-0.081111655 0.083415 -0.049600735 -0.021737903 0.1096776 -0.06622868 0.022407357 -0.05119684
0.0011926829 -0.010848163 0.09585186 0.043449357 0.15364635 0.023494178 0.0845476 -0.002829129
0.30294332 0.033700366 -0.11844139 0.20530525 -0.07026304 0.021893026 -0.15770894 -0.047314193
-0.006740099 -0.15331016 0.058086727 -0.019962212 -0.044802282 0.061381545 -0.04295479 0.17947686
-0.013514421 -0.048268102 0.18559508 0.11211422 0.014689307 0.18534672 -0.12437318 -0.05046327
-0.011719036 -0.009074171 0.12615024 -0.03943951 -0.01094199 -0.005161223 0.024000024 -0.027117295
0.023685072 -0.01724156 0.030696668 0.064169444 0.016915975 -0.0051749405 -0.037953615 0.19642596
0.04371781 0.29217556 -0.027590634 0.42307255 -0.01472396 0.16574915 0.09371147 0.009874828
0.03741466 0.082788534 0.14837483 -0.007961276 -0.119398244 0.09514783 0.05540653 -0.022604419
-0.054693203 0.020274863 0.0666272 0.05176507 -0.010324583 0.09712092 -0.093485296 0.05389737
-0.048456505 -0.11297655 0.08223924 0.21445023 0.14349653 -0.14219768 0.10877293 -0.07790548
0.13232914 -0.059026223 0.33982623 -0.16234106 -0.063084625 0.058135863 0.06325848 -0.033480998

bias f4 [18]
00000000: fcbe c13d 95e3 233e 9307 363e 7d3a 223e
00000010: 796a 2e3e 5a1e c93d 3e1b d93d efa0 58bd
00000020: 0f98 f73c 4f23 f03d 949e ce3d d1a5 a43e
00000030: 4584 66bd 8a2a edbc fbf5 cd3e ccad 4d3e
00000040: 3d9c a73d 8691 b43c
0.094602555 0.16004784 0.17776327 0.15842624 0.17032804 0.09820242 0.10600899 -0.052887853
0.030223874 0.117254846 0.1008884 0.32157758 -0.056278486 -0.028950948 0.4022673 0.2008583
0.08184097 0.022042047

weight f4 [6, 18]
00000000: 3ee4 0dbe e08a 09be e8cd e2be 7531 7e3d
00000010: 2d7c 0abf 500b 0e3f ba3c fbbe dfb0 54be
00000020: e6a7 8ebc ba77 883e 0905 a03e 2149 8b3e
00000030: 887c 263f 1e06 193e 0460 b63e 3c4a 68be
00000040: 640c f23c 95d8 d13d badf 613c 86ec 903e
00000050: 5ffc e73e 9435 5abd af19 043f 0638 12bf
00000060: b85f 8abe 510d 1d3d a5c9 78bd 1adc 393e
00000070: 64b5 123e 32b8 823e 88b6 42bd e0ca 56be
00000080: 7b0f 153f 7263 fabe 9285 02be 80d2 a6bb
00000090: b2cf 833e b791 353f 695f f53d dc0a 623e
000000a0: bd51 e33c 4913 683e 7ca2 d9bd 1f95 983e
000000b0: b085 503e 55d6 babe fbf9 ea3e 92a8 f0be
000000c0: c88a 95bd 2471 443e dc5d 96be 911a 35be
000000d0: 4b48 c3be a167 95be 964d 1cbe e36b 2c3e
000000e0: 9b91 b13d c194 c13e cd93 dfbd 3385 8b3e
000000f0: 60c8 c73e 1bd5 36bf 7a2f 283e b733 aabe
00000100: ace3 a6be f253 543e cc47 97be 77fc 4ebd
00000110: c870 26be 1899 a53d ac4e 5dbe 0f0f 2b3f
00000120: 83fc b53d d9b6 7abd b096 6c3e 30f7 d7be
00000130: f1ba d3be d96c 0f3f ccbf 183f 2642 ff3e
00000140: eea3 003e 0c38 9b3e c0e2 d9be 48a5 3c3e
00000150: a86d ecbe 2b74 00be 7e6b 903d ce1d 98be
00000160: 1f46 b53d 1946 98be f06d d03e fe71 a73e
00000170: 8dce 08bf cdd9 26be 5891 e13e bc85 e03d
00000180: 7a4f aa3e ec01 13be 58b3 2abd 5157 12bf
00000190: d789 d0be ca3d ccbe 9728 953e 3195 00be
000001a0: aaf7 763e 54f9 d5be d942 063f 1e0a 4c3e
-0.13856599 -0.13431883 -0.4429772 0.062058885 -0.5409573 0.5548601 -0.49069768 -0.20770596
-0.017414045 0.26653844 0.31253842 0.2720423 0.6503377 0.1494374 0.3562013 -0.22684568
0.029546924 0.10246388 0.013786251 0.28305453 0.4530973 -0.053273752 0.5160169 -0.57116735
-0.27026153 0.038342778 -0.06073918 0.18150368 0.14327008 0.25531155 -0.047537357 -0.20975828
0.58226746 -0.48903996 -0.12746266 -0.0050910115 0.25744396 0.7092547 0.11981089 0.22074455
0.027748937 0.22663607 -0.106266946 0.2980127 0.20363498 -0.36491647 0.45893845 -0.4700361
-0.07301861 0.19183785 -0.29368484 -0.17685916 -0.38141093 -0.29180625 -0.15263972 0.1683803
0.0867035 0.37808803 -0.10916863 0.2725006 0.39020061 -0.71418923 0.16424361 -0.3324258
-0.32595575 0.20735148 -0.29546964 -0.050533738 -0.1625396 0.08085841 -0.21612042 0.6681985
0.088860534 -0.061209533 0.23104358 -0.42180777 -0.41353562 0.56025463 0.5966766 0.49855155
0.12562534 0.30316198 -0.4255581 0.18422425 -0.4617741 -0.12544315 0.070517525 -0.2971024
0.08851265 -0.2974098 0.40708876 0.32704157 -0.5344017 -0.16294022 0.440562 0.10963008
0.3326376 -0.14356202 -0.04167494 -0.57164484 -0.40730163 -0.3989089 0.2913253 -0.12556912
0.24117914 -0.41791785 0.5244575 0.19925734

bias f4 [6]
00000000: 5ce1 7cbc aa23 403c 1b0d 2f3d cf08 1e3e
00000010: 4c6b da3d 9f5f d7bc
-0.015434589 0.011727253 0.042737108 0.15433048 0.106649965 -0.026290713

weight f4 [18, 6]
00000000: 1460 5c3c 1996 ee3e 674f 98be d596 56be
00000010: ae0d 8d3d 9a4f 04bd ebf4 c5be fa4b 183e
00000020: 319a 74be c296 023d 057f 00bf 3134 b4bd
00000030: 2547 07be 3831 0abe f774 5a3e adf0 343e
00000040: 9d91 3abe ad80 aa3e 8414 a23e 1527 d43e
00000050: c74b 683e 773a 303e ea96 8a3e dbee e8bd
00000060: 768f 6fbe 6fe9 303e 38d9 bcbe 019e da3c
00000070: 8cd6 923e 5e97 c93e ed91 fc3d aca3 febc
00000080: 455a e0bd 948d 313e aa02 ed3c dcf2 283e
00000090: fcd1 88be 1415 e9bd 3766 e8bd 4f24 3c3e
000000a0: f4a0 333e 5353 3abe 3f72 a5be 14aa 2a3a
000000b0: 3316 993e 1fd4 00bf 18c7 4bbe de78 9e3e
000000c0: b6b2 e7bd 5c5c 43be 111b 07bd 4551 d7be
000000d0: 3594 843d 0533 f4bc 36fb 373e f04b b73e
000000e0: bcba 973e 542f 773e 0b45 aa3e 72ed fa3d
000000f0: 5203 6b3e 1212 973d 1cb8 9d3c 49e4 53be
00000100: b38e b83d 8fab 15bd e43e 233e f975 25bd
00000110: 10ff 44be 407b b9bd 3241 603e d4a5 873d
00000120: 3158 623d a7cd d13e 58e4 babd 24c0 513e
00000130: 6af5 3ebd 838b 6cbd abce 04bd 7c6f 01bf
00000140: 2dcc 873e 30b2 523e 4426 76bd c912 42bb
00000150: c202 833d 2551 f1bc 9139 af3e 86dd 72bc
00000160: 26a6 38be 875b 9abe 25a1 23be 3f64 063e
00000170: d3a4 4f3e 85bc 4e3d dbb1 593e b211 78be
00000180: 8351 7e3e 05f9 46bc 52d2 89be 7c1f d33e
00000190: f0d4 1f3e 9a9e 8bbe 0c95 a33e 90f9 1b3e
000001a0: c228 97bd 2e83 a3bb 0125 56be a0b3 353e
0.013450641 0.4659889 -0.2974808 -0.20955975 0.06887375 -0.032302476 -0.3866342 0.14872733
-0.23886944 0.031882055 -0.50193816 -0.08799017 -0.13210733 -0.13495338 0.21333681 0.17669936
-0.1821961 0.33301297 0.31656277 0.41436067 0.22685157 0.17209803 0.27068263 -0.11373683
-0.2339457 0.17276548 -0.36884475 0.02668667 0.2867931 0.39373296 0.12332521 -0.031083904
-0.109547175 0.17339164 0.028931934 0.16498893 -0.26722705 -0.113809735 -0.11347621 0.18373226
0.17541867 -0.18195848 -0.32313725 0.0006510329 0.2989975 -0.5032367 -0.19900167 0.3095159
-0.11313383 -0.19078201 -0.032984797 -0.4205419 0.06473581 -0.029809484 0.17966923 0.35800123
0.29634655 0.24139148 0.332558 0.1225232 0.22950485 0.073764935 0.01925283 -0.20692553
0.09011593 -0.036540564 0.1594196 -0.04039571 -0.19237924 -0.09056711 0.2189987 0.06623426
0.055259887 0.40977213 -0.09125584 0.20483452 -0.046620764 -0.057750236 -0.032423656 -0.50560737
0.2652296 0.20575786 -0.060095087 -0.0029613248 0.063970104 -0.029457638 0.34223607 -0.014823323
-0.1803213 -0.30147955 -0.1597944 0.13124178 0.20277719 0.050472755 0.21259253 -0.242255
0.24835782 -0.012144332 -0.26918274 0.41234958 0.15608573 -0.2726944 0.3194965 0.1523192
-0.07380821 -0.004990003 -0.20912553 0.17744303

bias f4 [18]
00000000: c26f eabc 66b4 d13d 5451 dabd 7d48 b0be
00000010: 8bd9 9abd 9f06 003f 8519 903e de37 dfbd
00000020: 001c 853e 4eb9 5d3f 9791 373f faad 173f
00000030: e9ce 7b3f cdca 863e bc23 db3e 027a c73e
00000040: 8945 483e 6871 093f
-0.028617743 0.102394864 -0.10660043 -0.34430304 -0.07561024 0.50010103 0.2814447 -0.10899328
0.25997925 0.8661088 0.7170653 0.5924984 0.98362595 0.263266 0.428007 0.38960272
0.19557776 0.5368867

weight f4 [54, 18]
00000000: 84f9 95be 94c1 4abd e149 d4bc d93e 9abd
00000010: 8f03 d3bc d74e 113e 9c5f 93be 5407 49be
00000020: b67a e93b db18 10be 0026 ba3d e55e 4d3b
00000030: f6eb a93c ffda b23d 6e75 8d3e 37a4 9d3d
00000040: 722a 0a3e f0ed 373e 2784 fcbd 3976 1cbe
00000050: 8b3c 153e 7fb7 183e 9813 1cbd 2aa1 42be
00000060: d36d 04be 1d93 113c 22ee 563d 0aa7 edbd
00000070: 9950 2fbe d359 133e 7c9b 843d 2b56 aa3c
00000080: abc7 44bd 27dc 1ebd e8d0 30be 83b4 933c
00000090: cb9c 09bd e02b 023e 02f6 133e 81bb fb3d
000000a0: b1f4 453c 5267 db3b bcd8 febd 00f9 533e
000000b0: 9347 f4bd 5200 bbbd 7a6c 16be cbdd 5fbd
000000c0: 8cc6 963d 699b aabd e381 4dbe 3c22 82be
000000d0: e195 f7bd 665f 6cbe 36a3 0dbe 250a d03c
000000e0: 4418 f13e 7d24 f3bd 3594 81be d094 933e
000000f0: 7e1e 9e3d bd5d b3bd 82dc 973d c1a6 be3e
00000100: a531 94be 23c4 6ebe 00cc 4b3e 9e07 923e
00000110: 1780 903d c95f e93c 8e54 bf3c 6d70 a23d
00000120: 4a81 3abe 421c e53d 30b2 48bd 13f8 a8bc
00000130: 61d1 5cbe 1044 033e 0dde 5fbd 5a97 2d3e
00000140: 2128 9bbc 36cf 0fbe 7dd8 af3c 5948 e4bd
00000150: 6a78 46be fdf6 86bd ba50 6abe 91dc 243e
00000160: 02bf e53c 2e7c 083d a0b5 6dbc 0394 5dbe
00000170: d012 2abe 33d2 a93d 9b6b 823c 63d3 8f3e
00000180: f37c 043e 9d60 183d aaee ebbd d40a dc3e
00000190: 4935 803d 451e 7c3e ee50 c3be 73e1 493e
000001a0: eec7 05be 973a c03a 1397 113e 5ad2 10be
000001b0: 4103 4a3d 7562 c53d aafd 0e3e 416a 663c
000001c0: b788 a1bc 0243 a63d 3f8b 493e af5d 903e
000001d0: 1273 8b3e 9b02 86be 4e9d 813e db61 3fbe
000001e0: 8fcf 3bbc 3f38 f63d 65e6 e33c bd56 83bd
000001f0: 48c4 c83e ad9a b8bd 37eb 1ebe 08b4 3cbd
00000200: e005 063e 3dbe edbc 9bd5 263e bbf5 15be
00000210: 5fa2 53be 3d5e 853d b370 053d 9273 903c
00000220: e3e7 81bd b6ec 32be e148 0cbe 084a 023e
00000230: fc02 7e3d bb6c 80bd 5275 093a bdc8 e3bd
00000240: 1f21 fc3d 1d0e 563e 4abd f53c 189c f93d
00000250: 2a48 7c3e 17d6 b43d f411 c73c 5033 eabd
00000260: d940 98ba 820a f13d 10cd 22be 4370 f03d
00000270: 8329 4c3e fb48 01be 9642 ab3c 3156 b83d
00000280: f8a5 ba3d 0a4e e73d a778 15be 7a8b 5e3d
00000290: e6f1 533d 4bb7 2ebe 0649 5c3d 5c33 d33e
000002a0: 0db8 29be 2071 0c3e 230c 413e 7e3b c3bd
000002b0: a1ba cb3d 765b f23e b87f 86be 956f 5ebd
000002c0: b241 39be 6b2a e6bd 5971 94be adf8 1b3e
000002d0: 37e2 15bd 8c22 93be 5310 19be 1dab b4be
000002e0: 77ba 4ebe c396 d5bd 9314 983d dd2d 5ebe
000002f0: 8bf3 073e 932a 423c 2594 9a3e 0b3b 243e
00000300: af77 b23e 6961 82be 9545 0abe cbb2 5c3e
00000310: 94f8 24be ee94 c9be aea6 d9bc 2b0a 073d
00000320: 2280 f53d 02e0 b63c f93a 263e 4aa1 353e
00000330: f8bd edbd cffc 433d 1bba 55bd de93 42be
00000340: 5ec5 933c c57e 893d cb7f 303e 0a9b b239
00000350: be96 77be ec8d 51be c06f 50be ed96 20be
00000360: 4e92 19be 34c9 7b3e 1e5f fd3d 44df ccbc
00000370: 1dc3 97bd a93e 33be 9bbd 4e3b b394 973c
00000380: b25c cd3d d156 0cbe 7dbf 4fbd adc8 b93d
00000390: 5159 af39 bdce 9d3d b9fc 4dbe 5208 3e3e
000003a0: ed32 843e f7bf b4bd bac3 36bc 52cc e33e
000003b0: c498 dc3d 1e3f c73d 1473 8e3c 4194 58be
000003c0: e649 843e 28e7 9dbd 294a 253e 9551 90be
000003d0: a24d ff3c 792b 54be 53ae ba3e 8cb3 24bd
000003e0: 053a 083e 4de5 ccbc 9b8b 523e 0da6 66bd
000003f0: be45 5fbd 417c f5bb 1bcc b73e 3b97 51be
-0.29291928 -0.049501017 -0.025914134 -0.075315185 -0.025758533 0.14190231 -0.28783882 -0.19631702
0.007125224 -0.14071982 0.09089279 0.003133708 0.020742398 0.087331764 0.27628654 0.07697337
0.13492754 0.1796186 -0.123298936 -0.15279473 0.14573877 0.14913748 -0.038104624 -0.19006792
-0.1293252 0.008885172 0.052473195 -0.11604126 -0.1712059 0.14389734 0.06474969 0.020793041
-0.04804198 -0.038784172 -0.17267191 0.01803041 -0.033596795 0.1271205 0.14449313 0.12291623
0.012082265 0.0066956664 -0.124436826 0.20700455 -0.11927714 -0.091309205 -0.14689818 -0.054654878
0.073620886 -0.083304234 -0.20069079 -0.25416744 -0.12089134 -0.23083267 -0.13831791 0.025395462
0.47088826 -0.11872194 -0.25308385 0.28824472 0.0772066 -0.087581135 0.074151054 0.37236598
-0.28944126 -0.23317008 0.19902039 0.28521436 0.07055681 0.028488057 0.023355749 0.079316
-0.18213382 0.111870304 -0.048998058 -0.020626104 -0.21564247 0.12818933 -0.054655124 0.16952267
-0.018940033 -0.14043888 0.021465534 -0.11146612 -0.19381872 -0.06590078 -0.22882357 0.16099764
0.028045181 0.033321552 -0.014508635 -0.21638493 -0.16608739 0.082920454 0.01592045 0.28090963
0.1293829 0.037201513 -0.11520131 0.4297701 0.06260163 0.24620922 -0.38147682 0.19714908
-0.13064548 0.0014665899 0.14217786 -0.14142743 0.04931951 0.0963792 0.13963953 0.014063419
-0.019718511 0.081182495 0.19682024 0.28196475 0.2723623 -0.26173863 0.25315326 -0.18689673
-0.01146306 0.12022447 0.027819822 -0.064130284 0.3921225 -0.09013877 -0.15519415 -0.04607013
0.13088179 -0.029021377 0.16292422 -0.1464452 -0.20667408 0.06512115 0.03257818 0.017633233
-0.06343057 -0.1747311 -0.13699676 0.12723553 0.062014565 -0.06270739 0.00052436173 -0.11122272
0.12311005 0.20903821 0.029997487 0.12187976 0.24636903 0.08829897 0.024300553 -0.11435568
-0.0011616006 0.11769582 -0.15898538 0.11740162 0.1993771 -0.12625496 0.020905774 0.09000815
0.09113687 0.11294182 -0.14596806 0.054332234 0.051744364 -0.17062108 0.053780578 0.41250122
-0.16574116 0.13715029 0.18852286 -0.095328316 0.09947706 0.47335404 -0.26269317 -0.05430563
-0.18091467 -0.11238559 -0.28992727 0.15231581 -0.03659269 -0.28737295 -0.14947633 -0.352868
-0.20188318 -0.10429146 0.07425799 -0.21697183 0.13276498 0.011850971 0.3019115 0.16038148
0.34856936 -0.25464943 -0.13503106 0.21552579 -0.1611045 -0.39371437 -0.026568737 0.03296868
0.1198733 0.022323612 0.16233434 0.17737308 -0.11608499 0.04784852 -0.052179437 -0.1900172
0.018038448 0.067136325 0.17236249 0.0003406632 -0.24178597 -0.20464295 -0.20355129 -0.15682574
-0.14997217 0.24588472 0.12371658 -0.025008805 -0.07410262 -0.17504372 0.003154612 0.018503523
0.10027446 -0.13704993 -0.050719727 0.09071479 0.00033445147 0.07705448 -0.20115937 0.18557861
0.25820103 -0.08825677 -0.011155063 0.44491822 0.10771325 0.097288355 0.017388858 -0.21150304
0.2583763 -0.07710105 0.16141571 -0.28187242 0.031164948 -0.20719709 0.36461124 -0.04021029
0.13303383 -0.025011683 0.20561068 -0.056310702 -0.05450987 -0.007491619 0.35897908 -0.20467846

bias f4 [54]
00000000: f723 ac3e 7c67 853e 8e28 c3bd 2af9 86be
00000010: b436 b6bd 96a2 4fbd 2a02 d9bd a2fa 52be
00000020: 04ee 26bf dc48 903e 8591 683f 9ada 81be
00000030: 6e08 0abe 017d b83d 56e2 f0bd 8e02 babe
00000040: 694c ca3d 0cd2 933d 6cd4 673e 1a75 523f
00000050: 3231 ac3e e2ea 29be 994e 6f3e 8371 1a3f
00000060: 1068 e23d e1a2 90be 54c0 9fbd dd27 863e
00000070: a64f 48be a8cc 0e3e 28e0 96be 4ab7 a83e
00000080: ae6d 99be 7b32 4fbe 1222 833e cc2e 0fbe
00000090: 0a25 fcbd ea9d 87be 8772 4a3e 7bb7 bd3c
000000a0: 069b 293e 9be0 043e 8d78 f0bd 3d32 ecbe
000000b0: 0a57 36be f36a d8bc feb3 63be 497e 9dbd
000000c0: 412a 933e 9d41 2b3e b31e cdbc 5fcc 253f
000000d0: e5b9 9bbe d227 673d
0.3362119 0.26055515 -0.095292196 -0.26361972 -0.088971525 -0.050692163 -0.10596116 -0.20603421
-0.65206933 0.28180587 0.90847045 -0.25362092 -0.13479778 0.090082176 -0.1176192 -0.36330074
0.09877855 0.07217798 0.22639626 0.8220993 0.33631283 -0.16593507 0.23369826 0.60329455
0.110550046 -0.28249267 -0.078003556 0.26202288 -0.19561633 0.13945258 -0.29467893 0.32952338
-0.2996649 -0.202341 0.2561193 -0.13982695 -0.12311752 -0.26487666 0.19770251 0.02315878
0.16563043 0.12976305 -0.11741743 -0.4613208 -0.1780664 -0.026418185 -0.2223663 -0.076901026
0.28743175 0.16724248 -0.025039053 0.6476497 -0.30415264 0.05643446

weight f4 [30, 54]
00000000: ed24 72be a714 bdbd cf90 65bd 5098 96bc
00000010: abd8 d03d 2eeb f5bc 46e7 9abd c7cc 303d
00000020: b2f4 a63c d938 a7be 1168 a93e ed3b 543d
00000030: b037 94bc 1ddf 2d3d 0273 c5bc 33f8 a53d
00000040: e70f c03e 45b0 21be e65b 8abe b662 6e3e
00000050: d3c8 a4be 45a0 00bd ceb4 053e 954f 8dbe
00000060: ff18 afbe afc3 06bf 4810 dbbc 5c1e babe
00000070: 4bef bc3d 3a8b 7cbd 7308 d9bd ce88 873e
00000080: a53f debe c29b 54bc 02e0 77be f147 bb3d
00000090: d61b e2bd b673 173d 4c7c 193e 6253 763d
000000a0: 1c95 473d b569 223d 56b6 ddbc e0a5 603e
000000b0: d412 d2bd 10d5 f0bd 2927 9dbd 6aa9 a2be
000000c0: 59a6 933e 224d fcbd 3a5c 88be b88d 86bd
000000d0: d4ea d8bb 15d3 3e3c 5ac5 a1bd d099 8e3c
000000e0: 275e 37bd 1318 6b3d ac4f 16bc 7a6b a03d
000000f0: 91ac 973d 6eba ff3d a85f 993d c704 65be
00000100: 0626 403e 6e9e 9bbd 98c7 babd 3320 983d
00000110: bbe0 ef3b e0c4 0c3e 421f c13e bcff 6cbd
00000120: 05c9 3fbe b74a 803e a6dd 8fbe 8b4b 4cbd
00000130: 1bc7 db3d 2422 88be 4fe4 74be 9e21 b5be
00000140: dc1b 1e3d c0e9 9abe e38c 81bd 4fa4 c8bd
00000150: 1e1f 71bd 315f d43d 3747 9fbe b244 47bc
00000160: 07a6 91be b04b 973c 35bd dabc 8ee9 103d
00000170: c1c0 d63d ba40 203d 7972 2f3e 365c afbd
00000180: cc8a d5bd 05ad 073e a06e bfbd 526e 8c3c
00000190: bc78 183e 2c02 38be 404c 053e cdb9 53bd
000001a0: 5786 8bbe df2d dfbb dc9a d4bc f9dd e1bd
000001b0: a2fe 99bd 7cca 943d 86df 01be cdb9 2b3e
000001c0: bd64 03be 0fbe 283e 9735 223e 83f9 84bd
000001d0: c6fc 5b3e 15b8 b5bd c384 123d fc91 e0bb
000001e0: 14f2 ad3c b8e8 f83d 10ea 3f3d 761e 683e
000001f0: 329d a63e ad1b 913d 7ec1 7bbd e12d a63e
00000200: 196a 72be 219f 103d ae3c 893d e15e 46be
00000210: 64cc 26bd 78cb 4dbe 4c41 dd3d 5a6d dabd
00000220: 55eb 18bc fa7b f6bc d417 1abd bfbe 0fbe
00000230: 5da2 2fbe 7343 80ba eef4 62be c7fd 603d
00000240: f869 d63d eb4b fc3d bd51 df3d 0904 6d3d
00000250: fe43 513e ae19 2cbd ba4d 0ebe 6b73 94bd
00000260: 42ad 6cbd 94df b93d c2eb 54bd a93b b93a
00000270: 14be 6fbd ceb3 083d 52e6 d2bd 1a6d 223c
00000280: 2508 88bd 2745 edbd 49d2 24ba 16a3 893c
00000290: 09e3 04be 56fc 753e 5be6 eebd 2aec 8a3e
000002a0: 7e61 253e bd84 57bd 6288 3c3e e459 8e3c
000002b0: d782 e6bd 5a1b 3e3d 0d6a 413d f673 e73d
000002c0: 2ce7 4d3d 10de 8c3e 2672 833e 4bf4 e53d
000002d0: 729f f53d 8e71 ba3e 9c53 28be 8331 083d
000002e0: e536 b4bc efcb 0ebe 061c 163e d51c 7dbd
000002f0: af89 4c3e 3f1d 863d 9f6f 60bb 95f7 c6bc
00000300: 057e 87ba 3438 96be 450d 79bd 6cd9 e8bd
00000310: a259 54be 0acf e5bd 3748 05be 1380 e83d
00000320: c557 f23d 75f6 5c3d 43a3 833e 896e f6bc
00000330: ca40 8fbd d80f 88be 1a1a db3c 3e9a efbd
00000340: 4ef3 70bd 2bac eb3d 499f 39be 6780 113e
00000350: 1e2c d9bc 44fd 083c 5002 d8bd 348d 0a3a
00000360: d0a5 b53c 291b fa3d 9565 ee3d 0df1 5f3e
00000370: ab43 393a c4ab 9d3e afbb 013e 61a5 84bd
00000380: 4676 df3d f3b7 d13d 5a16 25be 4874 ef3c
00000390: dda5 623d 7ca0 123d 5f7b ad3d 74d4 743e
000003a0: 504e f93d e63b c93d 109a 5d3e 67bc c13e
000003b0: 1068 d9bd 1f12 5b3c c869 12be 7645 aabd
000003c0: 788f 8d3e 5a3d 593b 552f 4d3e a66f 163e
000003d0: cdfa 8cbc f6f6 043e 6500 ba3d fda2 a2be
000003e0: 734d ea3c 490c 08be dede 5cbe 41bc a83d
000003f0: 54ad a13d 215f ad3d 3b91 083e cf68 fa3b
-0.23646899 -0.09232455 -0.056046303 -0.018383175 0.10197576 -0.030019369 -0.07563643 0.04316404
0.020380352 -0.3266056 0.3308721 0.051814962 -0.01809296 0.042449106 -0.024102692 0.08103981
0.37512133 -0.15789898 -0.27023238 0.23279843 -0.32184467 -0.031402845 0.13057253 -0.2759978
-0.34198758 -0.5264234 -0.026741162 -0.36351287 0.09225329 -0.061656214 -0.10597315 0.2647156
-0.43407932 -0.012976589 -0.24206546 0.09144581 -0.110404655 0.036975585 0.14988822 0.060138114
0.048726186 0.03965159 -0.027064484 0.21938276 -0.102574974 -0.117593884 -0.07673485 -0.31769878
0.2883785 -0.123193994 -0.26632863 -0.065699995 -0.0066197906 0.011647006 -0.0789897 0.017407328
-0.044767525 0.057396006 -0.009174269 0.078329995 0.07405961 0.124867305 0.07488948 -0.22365104
0.18764505 -0.075985774 -0.09120101 0.074280165 0.007320491 0.13746977 0.3771916 -0.057861075
-0.18729027 0.25057003 -0.28098792 -0.04987673 0.10731336 -0.26588547 -0.23915218 -0.3537721
0.038600788 -0.30256462 -0.063257 -0.097969644 -0.058867566 0.10369719 -0.3110902 -0.012162374
-0.2844698 0.018468708 -0.026701549 0.035378985 0.10485984 0.039124228 0.17133512 -0.0856251
-0.10426864 0.13249595 -0.09347272 0.017142449 0.14889807 -0.17969579 0.13017368 -0.051690865
-0.2725093 -0.006810888 -0.025952749 -0.11028666 -0.075192705 0.07265183 -0.12682924 0.16770096
-0.12831397 0.16478752 0.15840755 -0.06492903 0.21483144 -0.088730015 0.035771143 -0.00685334
0.021233596 0.121537626 0.04685408 0.2266787 0.32541806 0.07085357 -0.061463825 0.32456878
-0.23673286 0.035308007 0.06701027 -0.19372131 -0.040722266 -0.20097148 0.1080347 -0.106653884
-0.009333451 -0.030088414 -0.03762038 -0.14037608 -0.1715178 -0.0009785726 -0.22163746 0.05492952
0.10469431 0.12319168 0.10904262 0.057865176 0.20436093 -0.042016678 -0.13896838 -0.07248577
-0.05778242 0.09075847 -0.05198265 0.001413216 -0.058530882 0.0333746 -0.10297836 0.009913707
-0.066421784 -0.115854554 -0.00062874384 0.016801398 -0.12977232 0.2402204 -0.116650306 0.27133304
0.16150472 -0.052616823 0.18411401 0.017376848 -0.112554245 0.046412803 0.04722028 0.11301415
0.05026929 0.2751317 0.25673026 0.11228236 0.119933024 0.3641476 -0.16438144 0.033250343
-0.021998832 -0.13944982 0.14659128 -0.061795074 0.19974397 0.06548547 -0.003424622 -0.024287978
-0.0010337239 -0.29339755 -0.06080367 -0.11369595 -0.20737317 -0.1122113 -0.13015829 0.11352553
0.11833147 0.053945977 0.25710496 -0.030082004 -0.069947794 -0.26574588 0.026745845 -0.11699341
-0.058825783 0.11507448 -0.18127169 0.14209138 -0.026510295 0.0083611645 -0.10547316 0.0005285323
0.022173792 0.12212212 0.11640469 0.21869297 0.0007067273 0.3079511 0.12669252 -0.06476856
0.10911231 0.10240164 -0.16121808 0.029230252 0.05533396 0.03579758 0.08470797 0.2390917
0.1217314 0.09825878 0.21640801 0.37839052 -0.106155515 0.01337102 -0.14298165 -0.0831403
0.2764852 0.003314814 0.20037587 0.14691028 -0.017209435 0.12984833 0.090821065 -0.31764975
0.028601384 -0.13285936 -0.21569392 0.082390316 0.07894388 0.0846541 0.13336651 0.0076418887

bias f4 [30]
00000000: cd8c eb3e 036b 883e ac6c 2ebc b48a 5ebe
00000010: 1508 dfbd fb89 91bc c818 8c3e 5840 db3e
00000020: a646 9b3e c34a 0a3e 6003 c5bd 68e2 bdbe
00000030: cc62 aabe 1e86 14be 2282 2a3e 2666 b33e
00000040: 33a8 013f f0b4 1b3e ff5a a4be ba66 45bf
00000050: d193 55bf c78e 35bf e47c 39be 8e23 a03e
00000060: 5427 383f eb45 373f ab3e 083f ba8b f73c
00000070: c8c4 04bf 29ba 5bbf
0.4600586 0.26644143 -0.010646027 -0.21732599 -0.108902134 -0.01776599 0.27362657 0.42822528
0.30327338 0.13505082 -0.09619784 -0.37086797 -0.332785 -0.14504287 0.16651204 0.3503887
0.50647277 0.15205741 -0.32100675 -0.77109873 -0.83428675 -0.70920986 -0.18114048 0.31277126
0.7193501 0.7159106 0.53220624 0.030217994 -0.51862764 -0.8583093
