knn/models/pretrained-autoencoder/autoencoder-in_features60-latent_size2.pt (torch, 58825 bytes, 16 tensors)

weight f4 [54, 60]
-0.053870346 -0.10382458 -0.16619428 -0.023718197 0.001272114 -0.14246577 0.021413002 -0.13989268
-0.02438765 0.049847968 -0.068194464 -0.023809249 -0.15188004 -0.02733962 0.050333425 0.038473926
-0.08376258 0.0382968 0.032952577 -0.0028885377 0.024426227 0.032212652 -0.0035148677 0.07137341
0.03222495 0.069508664 0.087167725 0.033951793 0.0873825 0.13154127 0.038291983 0.19322443
0.04099047 -0.0010145081 0.20254551 -0.04858434 -0.020489166 0.12966998 0.06450028 0.09085669
0.1117751 0.018142402 0.10336053 0.11433786 -0.09358327 -0.03486094 0.10616027 0.0067249145
0.081803486 -0.013823127 -0.009929394 0.05096424 -0.08951657 0.033453755 -0.0785083 -0.025161363
-0.03406028 -0.010540674 -0.08753881 0.067147195 -0.009637594 0.07039469 -0.110463984 -0.054128688
-0.152089 0.014896301 -0.08005501 0.066531 -0.15877306 -0.12630525 -0.061710168 -0.0010819449
-0.0035461443 0.059497777 -0.011250184 0.028157584 0.15407278 -0.06984915 -0.062007625 -0.08314032
0.027876303 0.01999433 0.036644146 -0.018345185 0.076463364 0.07324181 0.09452579 -0.030562105
-0.04191045 0.063617796 0.017772282 -0.036399078 0.07358429 0.009771044 -0.054867323 -0.019588517
0.08826951 0.101303324 0.060650486 -0.13064845 -0.013295109 0.077980936 0.061474252 0.032224838
0.12136802 -0.04506607 0.08639249 0.08948301 -0.03367307 0.012951651 0.036288586 -0.05474454
0.03807437 -0.08840558 0.018631164 0.007464117 -0.09159633 -0.09428063 0.028900027 0.073402874
-0.104389176 -0.10975539 0.052400026 -0.077406816 -0.10384813 -0.066602446 0.013597285 -0.07759932
-0.14568125 -0.14329594 0.061920423 -0.11919092 0.043107234 -0.09552559 -0.10373215 0.111158915
0.13969597 -0.010608905 0.12042385 -0.050679974 -0.06525732 0.006140433 0.09972599 -0.10012304
0.046986207 0.06814419 0.0842924 -0.022243049 0.030856524 0.051638845 -0.068834536 0.08302882
0.10271752 0.032427546 -0.02487631 -0.070113584 -0.038026072 0.040933248 0.085783616 0.02207004
-0.030178012 -0.022592256 0.059885073 0.007884497 -0.009100872 0.04377881 -0.06220593 -0.046417944
0.074374326 0.059214607 0.11277006 -0.012239152 0.08021775 0.08447594 -0.06823548 -0.106728464
-0.018945133 0.03614439 -0.084251314 -0.072075546 0.054874633 -0.008801715 -0.02322892 0.09054307
-0.11012046 0.033012554 0.037438054 0.044723075 0.045961328 -0.09806091 0.058643308 -0.109648935
0.0415108 0.12405367 -0.123857856 0.11560829 -0.12788287 -0.06354925 0.028411672 -0.025319422
0.077401124 -0.13660212 0.06470528 -0.039862152 -0.08991539 -0.0470934 0.08389762 -0.11253443
0.08152539 0.016953366 0.098904125 0.047386505 -0.013175025 0.06059364 -0.09932432 0.008285274
-0.050588887 -0.066718005 -0.031871833 -0.048929982 -0.0005645585 -0.07701103 0.059413776 -0.02567037
0.013889385 -0.12778386 0.08231506 0.120139316 -0.03996968 -0.033687845 0.095154196 0.09686611
-0.053902216 -0.053401615 0.05795438 0.07972029 0.11050187 0.05900602 0.1263597 0.076040246
-0.03567961 -0.11414666 -0.11195534 0.08921786 -0.101210244 -0.009914244 0.011213447 0.009246495
0.004218878 -0.053351317 0.019765634 -0.008124337 -0.031732038 -0.010162673 0.02600013 -0.028639311
00000000: 27a7 5cbd fba1 d4bd d52e 2abe aa4c c2bc
00000010: 10bd a63a 8ce2 11be 526a af3c 0740 0fbe
00000020: 9cc8 c7bc 622d 4c3d 8aa9 8bbd 9d0b c3bc
00000030: 7186 1bbe 57f7 dfbc 6c2a 4e3d d696 1d3d
00000040: b78b abbd 1bdd 1c3d 48f9 063d 9f4d 3dbb
00000050: 8319 c83c 6af1 033d b259 66bb 392c 923d
00000060: 4ffe 033d 8f5a 8e3d fe84 b23d 0911 0b3d
00000070: 99f5 b23d c1b2 063e 0ed8 1c3d a0dc 453e
00000080: a0e5 273d 3ef9 84ba 1768 4f3e 5f00 47bd
00000090: e5d8 a7bc 35c8 043e b918 843d 1313 ba3d
000000a0: 58ea e43d 609f 943c b0ae d33d f829 ea3d
000000b0: 96a8 bfbd 58ca 0ebd 8e6a d93d ac5c dc3b
000000c0: 9688 a73d 667a 62bc e6ae 22bc e1bf 503d
000000d0: 7754 b7bd ce06 093d f6c8 a0bd 341f cebc
000000e0: cb82 0bbd cbb2 2cbc 8c47 b3bd 7884 893d
000000f0: 00e7 1dbc 172b 903d f13a e2bd 0bb6 5dbd
00000100: 38bd 1bbe 9d0f 743c e2f3 a3bd 6841 883d
00000110: 6895 22be 2a56 01be cdc3 7cbd 0cd0 8dba
00000120: 6e66 68bb f1b3 733d b152 38bc bcaa e63c
00000130: 41c5 1d3e 120d 8fbd b5fb 7dbd 7945 aabd
00000140: d85c e43c 26cb a33c 2c18 163d a448 96bc
00000150: d398 9c3d cdff 953d bd96 c13d 615d fabc
00000160: 4baa 2bbd 0c4a 823d 2d97 913c 3317 15bd
00000170: 5cb3 963d bb16 203c 8fbc 60bd 1978 a0bc
00000180: a5c6 b43d 1e78 cf3d a56c 783d b5c8 05be
00000190: bbd3 59bc 78b4 9f3d 6dcc 7b3d 31fe 033d
000001a0: cc8f f83d 3397 38bd 8cee b03d de42 b73d
000001b0: c6ec 09bd 2933 543c 57a3 143d d03b 60bd
000001c0: dff3 1b3d fc0d b5bd 62a0 983c 8d95 f43b
000001d0: db96 bbbd 3416 c1bd c0bf ec3c 3f54 963d
000001e0: fec9 d5bd 6fc7 e0bd 69a1 563d 7787 9ebd
000001f0: 54ae d4bd dd66 88bd 26c7 5e3c 64ec 9ebd
00000200: 772d 15be 2cbc 12be 45a0 7d3d 5e1a f4bd
00000210: 3691 303d eca2 c3bd 8571 d4bd 49a7 e33d
00000220: 760c 0f3e f9d0 2dbc c8a0 f63d ce95 4fbd
00000230: a1a5 85bd af35 c93b 243d cc3d 4f0d cdbd
00000240: 9c74 403d 2e8f 8b3d 7ea1 ac3d 0e37 b6bc
00000250: d2c6 fc3c 4183 533d 1ff9 8cbd 040b aa3d
00000260: 905d d23d bfd2 043d 67c9 cbbc b697 8fbd
00000270: 3ac1 1bbd 9fa9 273d 52af af3d 3bcc b43c
00000280: e137 f7bc 6513 b9bc 0d4a 753d fa2d 013c
00000290: d31b 15bc 6951 333d a5cb 7ebd be20 3ebd
000002a0: 9151 983d 048b 723d fdf3 e63d b986 48bc
000002b0: 3449 a43d b901 ad3d 0bbf 8bbd 7494 dabd
000002c0: d332 9bbc 240c 143d f48b acbd 589c 93bd
000002d0: 39c4 603d 1235 10bc 934a bebc a56e b93d
000002e0: d686 e1bd 2c38 073d a558 193d 8b2f 373d
000002f0: f241 3c3d 29d4 c8bd f733 703d 9f8f e0bd
00000300: 3b07 2a3d da0f fe3d 30a9 fdbd 0ac4 ec3d
00000310: baf3 02be 1c26 82bd 98bf e83c ad6a cfbc
00000320: 7b84 9e3d 6de1 0bbe 3484 843d 7f46 23bd
00000330: 8f25 b8bd 02e5 40bd 84d2 ab3d 7478 e6bd
00000340: c9f6 a63d c9e1 8a3c 3f8e ca3d 5a18 423d
00000350: 0fdc 57bc 0931 783d 8d6a cbbd f5be 073c
00000360: 4b36 4fbd 73a3 88bd 0a8c 02bd ce6a 48bd
00000370: e1fe 13ba f5b7 9dbd dc5b 733d ab4a d2bc
00000380: 4e90 633c c6d9 02be cc94 a83d 9a0b f63d
00000390: 3fb7 23bd 44fc 09bd 34e0 c23d bd61 c63d
000003a0: 92c8 5cbd a7bb 5abd 9261 6d3d 6444 a33d
000003b0: ce4e e23d 4cb0 713d 7064 013e fdba 9b3d
000003c0: c824 12bd b9c5 e9bd d748 e5bd dab7 b63d
000003d0: 5147 cfbd 5a6f 22bc 9bb8 373c 9c7e 173c
000003e0: 843e 8a3b e986 5abd 8aeb a13c f01b 05bc
000003f0: 74f9 01bd 5781 26bc 3afe d43c fd9c eabc

bias f4 [54]
0.13245085 0.02779489 -0.04166763 0.019952841 0.04874953 -0.07850962 -0.04860134 -0.11969678
0.053330667 0.09645543 -0.032815203 0.14215444 -0.05259088 0.09726629 0.0028599799 0.05439065
0.066342376 0.109356575 0.013688781 -0.02977074 -0.08316204 -0.08359296 0.0719056 -0.115938015
-0.014882754 -0.085128725 0.025241068 -0.07265916 0.004646313 -0.0652494 -0.017022114 0.06864205
-0.026545037 0.035449658 0.032964364 0.009887256 -0.049896486 0.0707963 0.039568402 0.083541304
0.12554958 0.14216179 0.15754849 -0.027267382 0.112258725 0.06570733 -0.11678365 0.05880636
0.050335433 -0.09662108 0.1066424 0.09877094 -0.0260697 0.15766333
00000000: 32a1 073e 1cb2 e33c adab 2abd 2474 a33c
00000010: 96ad 473d a7c9 a0bd 3312 47bd 9623 f5bd
00000020: 4271 5a3d 6d8a c53d 3c69 06bd ef90 113e
00000030: 8969 57bd 8c33 c73d 806e 3b3b bbc8 5e3d
00000040: 83de 873d 57f6 df3d e946 603c c4e1 f3bc
00000050: dc50 aabd c932 abbd 3e43 933d e970 edbd
00000060: cbd6 73bc f857 aebd 5bc6 ce3c 53ce 94bd
00000070: 1940 983b 7aa1 85bd f671 8bbc 3494 8c3d
00000080: fa74 d9bc a933 113d a405 073d 28fe 213c
00000090: 4260 4cbd a7fd 903d 7a12 223d b417 ab3d
000000a0: 1290 003e dc92 113e 6454 213e d85f dfbc
000000b0: e7e7 e53d 9191 863d 442c efbd f0de 703d
000000c0: 872c 4e3d 46e1 c5bd 5567 da3d 6b48 ca3d
000000d0: 2090 d5bc 7f72 213e

weight f4 [18, 54]
-3.951059e-05 -0.087543406 -0.05520967 0.096203975 -0.11790361 -0.08187204 -0.14516719 0.06509731
-0.012499878 0.044869043 -0.072509065 -0.0005993832 -0.02844135 0.059821732 -0.048660934 -0.04588753
-0.014022102 0.11754302 0.0791537 -0.008391607 0.043117594 -0.047497418 -0.11240482 -0.09027882
0.1062054 0.003172002 0.035762127 -0.08083421 0.11591577 0.12090285 0.051818285 -0.03931599
0.07948976 0.0816752 -0.12420946 -0.1005514 -0.124015085 0.007374178 0.04535931 -0.105156526
-0.054848026 0.11665743 0.09674412 -0.014532634 -0.10015691 0.18805407 -0.09632281 0.15310681
0.04968177 0.12452923 -0.029850122 -0.0860094 -0.115672186 0.14954872 0.0828546 -0.001971897
-0.017614901 0.04292318 0.16046983 0.24104491 -0.07018004 -0.123724416 0.00015108008 -0.052031334
-0.09009427 0.15240751 0.050147668 -0.07630136 0.0068083988 0.12396429 -0.035325304 0.07105047
-0.0109663075 0.013585546 -0.035336908 0.06659988 -0.05276353 0.06344445 0.15488437 0.110824876
0.0829615 -0.059162818 0.14265743 0.11980678 -0.018932851 0.19557849 -0.042932384 0.01960494
0.16898176 -0.062059317 0.037514325 0.24195719 0.09842378 -0.04128717 -0.04756002 0.06243927
0.14028274 0.08106403 0.07101708 -0.05875575 -0.13256088 0.11217252 -0.026053537 0.09481894
0.06109027 0.112194814 -0.019354759 -0.07330392 -0.03967372 0.023366561 -0.10986336 -0.021864282
0.024464859 0.079046376 0.13220076 -0.100264356 -0.07545057 -0.098101206 -0.0039526615 -0.059327547
0.007144033 -0.02351336 -0.086967744 0.011398935 -0.051340617 -0.062272023 -0.0020106465 -0.09049181
-0.07175193 0.038493168 0.048003122 -0.07147268 0.12899981 -0.01098191 0.012364774 -0.0062157586
-0.11614122 -0.056902207 -0.054375302 -0.11663975 0.12854946 -0.121231474 -0.045254216 0.0734956
-0.03651409 -0.05234829 0.0918726 0.024735507 0.043203183 -0.13049987 0.028439198 -0.047461502
0.024881294 0.027678031 0.10473054 -0.12746419 0.0010584991 -0.013476364 -0.037574496 0.064332366
-0.11342646 -0.0028807162 -0.044063933 0.11606903 0.13561723 0.066053964 0.014999109 0.09614688
0.08005815 -0.055552077 0.009346406 -0.10561372 0.11433012 -0.14416504 -0.09636042 0.110212296
-0.045793623 0.12074785 -0.08407281 0.099305384 -0.01487005 -0.07059978 0.051884472 -0.095199734
-0.06851415 0.05575201 0.075180896 0.09394366 0.026940025 0.10872976 -0.08058303 -0.09898609
0.018226376 0.11687119 -0.03514317 -0.07540284 0.12146688 0.0613887 0.048162494 -0.13022631
-0.10751336 0.119933106 -0.008794414 0.11874355 0.13448635 -0.044173256 -0.10896752 -0.046417773
-0.13206838 -0.0019503747 0.043155964 -0.07882094 0.015699096 -0.04668034 0.12111352 0.0099698845
0.1473708 0.18248507 0.1585533 -0.009414213 -0.03528321 0.06998613 -0.00258292 0.0103005925
0.17970115 -0.16415091 0.10435763 0.036384765 0.093202904 0.13589498 0.14011997 0.014163658
-0.018315615 0.019550191 0.10822074 0.07239794 0.04506674 0.03952796 -0.066580966 -0.028053379
-0.048310287 0.043180283 0.12599574 0.13061947 0.015593565 -0.050217427 0.09391777 0.14057066
0.05648375 -0.036740188 -0.06946244 -0.013055788 0.08078655 0.02200774 0.0085416315 -0.014179267
00000000: 2cb8 25b8 f549 b3bd 8923 62bd 9706 c53d
00000010: 7377 f1bd 87ac a7bd b5a6 14be bd51 853d
00000020: 4acc 4cbc 9ac8 373d a27f 94bd ed1f 1dba
00000030: d6fd e8bc a207 753d b050 47bd 90f4 3bbd
00000040: f5bc 65bc 65ba f03d 561b a23d f37c 09bc
00000050: 139c 303d a78c 42bd 8034 e6bd 1ae4 b8bd
00000060: 3782 d93d 5de1 4f3b 4f7b 123d 688c a5bd
00000070: 3f65 ed3d ea9b f73d 693f 543d ce09 21bd
00000080: 87cb a23d 5445 a73d 8861 febd e4ed cdbd
00000090: 9ffb fdbd 17a3 f13b afca 393d 4e5c d7bd
000000a0: 53a8 60bd 17ea ee3d c821 c63d 491a 6ebc
000000b0: 111f cdbd 3f91 403e e544 c5bd 08c8 1c3e
000000c0: 1d7f 4b3d 2e09 ff3d 3e88 f4bc b225 b0bd
000000d0: 8ae5 ecbd 4d23 193e acaf a93d f13a 01bb
000000e0: 204d 90bc 37d0 2f3d 3452 243e 7ad4 763e
000000f0: 8eba 8fbd 3a63 fdbd 406b 1e39 cf1e 55bd
00000100: 5883 b8bd b710 1c3e a467 4d3d e343 9cbd
00000110: fd18 df3b fde0 fd3d 44b1 10bd e982 913d
00000120: 07ac 33bc e995 5e3c 6fbd 10bd 8565 883d
00000130: 921e 58bd 2aef 813d 029a 1e3e 27f8 e23d
00000140: b8e7 a93d b654 72bd ca14 123e 425d f53d
00000150: 1119 9bbc ba45 483e ded9 2fbd 8a9a a03c
00000160: 8e09 2d3e e931 7ebd 9fa8 193d a0c3 773e
00000170: 6892 c93d bc1c 29bd 4cce 42bd 52c0 7f3d
00000180: 47a6 0f3e e604 a63d 6771 913d dfa9 70bd
00000190: 0abe 07be b5ba e53d 3a6e d5bc 6f30 c23d
000001a0: ca39 7a3d 65c6 e53d df8d 9ebc 5e20 96bd
000001b0: e980 22bd 3b6b bf3c 0b00 e1bd b91c b3bc
000001c0: 876a c83c 11e3 a13d a35f 073e 6657 cdbd
000001d0: d485 9abd 49e9 c8bd 5485 81bb 7101 73bd
000001e0: 7e18 ea3b 179f c0bc 251c b2bd 99c2 3a3c
000001f0: 8a4a 52bd f310 7fbd 0dc5 03bb c553 b9bd
00000200: adf2 92bd 03ab 1d3d ec9e 443d 4560 92bd
00000210: 8718 043e 78ed 33bc 9f95 4a3c 90ad cbbb
00000220: 73db edbd 4a12 69bd a3b8 5ebd d2e0 eebd
00000230: 78a2 033e 3548 f8bd 7c5c 39bd dc84 963d
00000240: cc8f 15bd 296b 56bd b427 bc3d 1ea2 ca3c
00000250: d2f5 303d c2a1 05be 52f9 e83c fe66 42bd
00000260: dbd3 cb3c 0abd e23c f77c d63d f985 02be
00000270: 56bd 8a3a f8cb 5cbc b7e7 19bd b0c0 833d
00000280: 224c e8bd 66ca 3cbb 627c 34bd 99b5 ed3d
00000290: 3edf 0a3e 4d47 873d d3be 753c a8e8 c43d
000002a0: 87f5 a33d 938a 63bd ab21 193c 024c d8bd
000002b0: e925 ea3d 00a0 13be 9d58 c5bd fcb6 e13d
000002c0: 1892 3bbd a64a f73d 5e2e acbd 9f60 cb3d
000002d0: 83a1 73bc 9e96 90bd d084 543d 14f8 c2bd
000002e0: 2651 8cbd 385c 643d 71f8 993d 8965 c03d
000002f0: 54b1 dc3c b5ad de3d b708 a5bd 38b9 cabd
00000300: 7b4f 953c 2a5a ef3d 49f2 0fbd ce6c 9abd
00000310: a1c3 f83d b872 7b3d 0946 453d 0c5a 05be
00000320: f72f dcbd 7d9f f53d 7216 10bc d12f f33d
00000330: cab6 093e 04ef 34bd 5d2a dfbd 9020 3ebd
00000340: ef3c 07be b7a3 ffba 4fc4 303d df6c a1bd
00000350: 649b 803c e233 3fbd 5d0a f83d ba58 233c
00000360: 5fe8 163e 5edd 3a3e cc5b 223e 123e 1abc
00000370: 2185 10bd e354 8f3d 3546 29bb d1c3 283c
00000380: 9403 383e 2d17 28be 74b9 d53d 3108 153d
00000390: 2ae1 be3d 0e28 0b3e 9c7b 0f3e b00e 683c
000003a0: a10a 96bc b927 a03c d6a2 dd3d 5f45 943d
000003b0: e797 383d 12e8 213d 9a5b 88bd 33d0 e5bc
000003c0: 02e1 45bd cfdd 303d 0705 013e 1cc1 053e
000003d0: 277c 7f3c cab0 4dbd f657 c03d c1f1 0f3e
000003e0: 815b 673d e17c 16bd 5342 8ebd f2e7 55bc
000003f0: 6b73 a53d 9349 b43c 33f2 0b3c 2850 68bc

bias f4 [18]
0.0952594 0.15245293 -0.0138943605 -0.08569669 0.34467024 -0.06432069 0.046082485 0.31526926
-0.121053144 0.17418449 0.056390405 0.23798259 0.43998206 0.033226267 -0.09869535 -0.120816424
0.11199736 0.116406344
00000000: 5c17 c33d 9f1c 1c3e 2ca5 63bc bf81 afbd
00000010: 9e78 b03e 91ba 83bd fdc0 3c3d f96a a13e
00000020: b6ea f7bd 6b5d 323e a0f9 663d b5b1 733e
00000030: 5445 e13e 4418 083d ca20 cabd 9a6e f7bd
00000040: df5e e53d 7366 ee3d

weight f4 [6, 18]
-0.20799333 0.27129152 0.166909 0.17416702 0.4989735 0.027528144 -0.051784582 0.07730235
-0.14672013 -0.19355594 -0.14662 0.14641996 0.46039706 -0.16451359 0.02262987 -0.2175548
-0.1158738 -0.1384498 0.28724453 -0.0358186 0.19543171 0.10588611 -0.23431118 0.010891536
0.044752903 0.026212245 0.037031688 -0.038879193 0.15372773 0.12069041 -0.26389456 0.11667912
-0.00950777 0.009221852 0.15288669 0.23301786 -0.03964834 -0.010522222 0.010415494 -0.051137105
0.05540999 -0.05888961 0.015903594 0.07728902 -0.1931637 -0.2163556 -0.01684676 -0.1009324
0.030019794 -0.19897114 0.18455712 -0.08156638 -0.082131445 0.05926912 0.055728808 -0.14757961
-0.08738052 -0.06296078 0.25887427 -0.08199906 0.022868088 -0.02902043 -0.14332867 0.19783218
-0.11435699 0.054785155 -0.13846128 0.16468538 -0.08693731 0.18287578 -0.11555964 0.17102133
0.012840575 0.31786427 -0.0056962203 -0.19220746 0.14896625 0.06391709 0.35273597 -0.09013052
0.21410504 -0.09935343 0.10581607 -0.2058804 -0.0634912 0.18821348 0.09762999 0.013214332
-0.11568232 0.004336867 0.13088807 -0.25177225 -0.022916606 -0.010756203 0.22269657 0.021423789
0.077503815 0.36946 -0.13761598 0.28491482 -0.06412582 0.2900139 0.25898916 -0.14390792
0.33859155 0.19900598 0.15253603 0.17295851
00000000: 34fc 54be b9e6 8a3e 31ea 2a3e d758 323e
00000010: 7479 ff3e b482 e13c 121c 54bd b250 9e3d
00000020: cd3d 16be 8733 46be 8e23 16be 1def 153e
00000030: 2ab9 eb3e 4076 28be 4762 b93c afc6 5ebe
00000040: 3e4f edbd c9c5 0dbe b711 933e 86b6 12bd
00000050: 401f 483e d1da d83d 45ef 6fbe 6a72 323c
00000060: d24e 373d 10bb d63c 8aae 173d ca3f 1fbd
00000070: cd6a 1d3e 892c f73d 301d 87be 76f5 ee3d
00000080: 7ac6 1bbc 4017 173c 548e 1c3e 3c9c 6e3e
00000090: 4c66 22bd 6665 2cbc c0a5 2a3c 2475 51bd
000000a0: 96f5 623d 3b36 71bd 4148 823c b549 9e3d
000000b0: b4cc 45be 538c 5dbe 3702 8abc a5b5 cebd
000000c0: 12ec f53c 17bf 4bbe 8bfc 3c3e 460c a7bd
000000d0: 8834 a8bd 2dc4 723d e443 643d 1c1f 17be
000000e0: 8ff4 b2bd 95f1 80bd 2b8b 843e 20ef a7bd
000000f0: db55 bb3c 41bc edbc c0c4 12be 8594 4a3e
00000100: ff33 eabd 6666 603d cbc8 0dbe 49a3 283e
00000110: 300c b2bd ca43 3b3e 88aa ecbd 3720 2f3e
00000120: 4661 523c 1bbf a23e 5ca7 babb 08d2 44be
00000130: 9c8a 183e f7e6 823d cf99 b43e 5a96 b8bd
00000140: 5a3e 5b3e d079 cbbd 19b6 d83d 50d2 52be
00000150: ad07 82bd 09bb 403e 3bf2 c73d ed80 583c
00000160: daea ecbd 471c 8e3b 8607 063e 4be8 80be
00000170: 9bbb bbbc c93a 30bc 920a 643e f180 af3c
00000180: 52ba 9e3d dc29 bd3e 34eb 0cbe 5be0 913e
00000190: 6654 83bd b47c 943e 3a9a 843e 995c 13be
000001a0: df5b ad3e 39c8 4b3e 6832 1c3e 091c 313e

bias f4 [6]
0.46291217 0.11496611 -0.21964999 -0.061733257 0.08802354 0.2631056
00000000: d302 ed3e 5a73 eb3d edeb 60be 03dc 7cbd
00000010: b045 b43d c7b5 863e

weight f4 [2, 6]
0.7556421 -0.4128834 -0.31691095 0.1129108 -0.20613469 0.61133057 -0.4848832 0.22696283
-0.15861107 0.24143551 -0.4728181 0.43239343
00000000: c371 413f 7465 d3be 2742 a2be c73d e73d
00000010: f914 53be 2980 1c3f 9c42 f8be f268 683e
00000020: f16a 22be df3a 773e 3715 f2be ac62 dd3e

bias f4 [2]
0.66150415 -0.08019262
00000000: 5658 293f 073c a4bd

weight f4 [6, 2]
0.7880372 0.30378693 1.0022568 -0.91355264 0.015709871 -0.03042461 -0.15912628 -0.629219
-0.5082705 -0.69706476 0.9204294 0.35097834
00000000: cebc 493f f689 9b3e f349 803f 96de 69bf
00000010: fdb1 803c 083d f9bc 00f2 22be 7f14 21bf
00000020: 041e 02bf d672 32bf 43a1 6b3f 6fb3 b33e

bias f4 [6]
-0.0031259288 -0.47513834 0.044189457 -0.26468903 0.8488343 0.4246838
00000000: 62dc 4cbb 5545 f3be 0100 353d 5285 87be
00000010: 344d 593f 2870 d93e

weight f4 [18, 6]
-0.32276446 -0.2146336 -0.2885629 0.210244 -0.058749437 -0.12506399 0.49623916 -0.16037844
-0.3023792 -0.3133711 -0.11008423 0.4211678 0.13016863 0.48539796 0.32629183 -0.0626817
-0.13655537 0.41763377 -0.29734758 -0.49166897 0.18336709 -0.14243253 -0.09160046 0.4036972
0.11523594 0.11606735 -0.24034652 -0.36985645 -0.32436374 -0.102449074 -0.16773438 -0.38797548
-0.15985997 0.38287026 0.12779003 0.14323826 0.349656 -0.37129086 -0.020347532 0.2596743
0.56486195 -0.17778876 -0.14603749 0.5211585 -0.1878072 -0.121445425 0.36734262 -0.1764843
-0.057306588 0.41896906 -0.015657187 0.21477011 0.18386611 0.071466975 0.013964681 0.3195359
-0.27430934 -0.2966286 0.20418687 -0.3920248 -0.33505362 0.6303632 -0.071565054 -0.02970533
-0.28502905 0.2755239 0.102239855 0.15608543 0.28270462 -0.27002922 -0.052066352 -0.14094844
-0.22042379 0.331344 -0.1736214 -0.045699403 -0.28016263 -0.34479854 0.28115186 0.2638828
-0.16517524 -0.13488844 -0.28678697 0.25516668 0.39833352 -0.43346885 0.21646671 -0.14117123
-0.099409916 0.5711514 -0.26359648 0.016619606 0.23623674 0.31683213 -0.008163136 0.07557928
-0.067977384 -0.13225107 0.17161795 0.24526644 0.57496035 0.25081813 0.051415693 -0.37362325
-0.26404443 -0.01913208 0.38116089 0.4274088
00000000: 6241 a5be e9c8 5bbe 84be 93be 344a 573e
00000010: 40a3 70bd c610 00be 0f13 fe3e 3f3a 24be
00000020: 72d1 9abe 2d72 a0be d773 e1bd 4ea3 d73e
00000030: ed4a 053e 1586 f83e b90f a73e 435f 80bd
00000040: 2cd5 0bbe 18d4 d53e f13d 98be 09bc fbbe
00000050: 95c4 3b3e d5d9 11be 0699 bbbd 66b1 ce3e
00000060: d200 ec3d b8b4 ed3d 661d 76be d35d bdbe
00000070: 0113 a6be d2d0 d1bd 90c2 2bbe b9a4 c6be
00000080: 55b2 23be 9207 c43e 64db 023e 0dad 123e
00000090: 1c06 b33e d619 bebe deaf a6bc 08f4 843e
000000a0: cb9a 103f 420e 36be da8a 15be a56a 053f
000000b0: 8850 40be 61b8 f8bd 5514 bc3e 4db8 34be
000000c0: 50ba 6abd 1d83 d63e 8043 80bc b2ec 5b3e
000000d0: 6647 3c3e 475d 923d 1ecc 643c 369a a33e
000000e0: 4672 8cbe b4df 97be 5d16 513e 79b7 c8be
000000f0: 268c abbe 7c5f 213f b390 92bd 9858 f3bc
00000100: 54ef 91be 7811 8d3e 2163 d13d dcd4 1f3e
00000110: a9be 903e 4541 8abe 8743 55bd ca54 10be
00000120: c6b6 61be eca5 a93e cfc9 31be 4c2f 3bbd
00000130: 7a71 8fbe 6f89 b0be 23f3 8f3e a51b 873e
00000140: b323 29be 3220 0abe bed5 92be 35a5 823e
00000150: 5ff2 cb3e a1ef ddbe 73a9 5d3e 318f 10be
00000160: 6d97 cbbd fa36 123f 1ef6 86be d725 883c
00000170: 0be8 713e d237 a23e adbe 05bc 4fc9 9a3d
00000180: ba37 8bbd d36c 07be 9ebc 2f3e 2027 7b3e
00000190: 9a30 133f 3c6b 803e 4399 523d 8c4b bfbe
000001a0: d530 87be e1ba 9cbc 8527 c33e 54d5 da3e

bias f4 [18]
-0.37278515 0.09601925 -0.093345344 0.31492132 -0.27832186 0.29548675 0.28757823 0.8616534
-0.056965828 -0.22494039 0.09753529 -0.37846503 -0.08692229 0.19471179 0.26198104 0.3679051
0.86930406 0.18675898
00000000: b2dd bebe bea5 c43d d82b bfbd 5e3d a13e
00000010: 3480 8ebe 0a4a 973e 743d 933e 5195 5c3f
00000020: 0055 69bd c656 66be 95c0 c73d 2bc6 c1be
00000030: 5004 b2bd 8762 473e 6122 863e 0f5e bc3e
00000040: b68a 5e3f bf3d 3f3e

weight f4 [54, 18]
0.14001895 0.25945106 -0.011571221 0.24700256 -0.16974452 -0.12766266 0.22292559 -0.14679626
0.12847592 -0.021992194 -0.056971032 0.19861248 -0.20054989 -0.058269836 0.20184974 -0.25782222
0.25470045 0.0877027 0.2066613 0.06331809 0.001796819 0.034806415 0.056945436 0.26443946
0.34118858 0.31285307 0.11160261 0.22122835 -0.27269378 -0.16406664 0.075827226 -0.32734102
0.14273275 0.12999418 0.47496784 0.12331527 -0.036143288 -0.07856054 -0.17536935 -0.06808966
0.1625265 0.22869435 0.20068164 -0.024820553 0.19369788 -0.045900833 -0.22502652 -0.022496
-0.0160539 -0.054224506 0.10223413 -0.136147 0.16821045 -0.030727 -0.14227563 -0.13274013
0.22227894 -0.13416946 -0.1523234 -0.20554367 0.1788155 -0.04370123 0.018831119 -0.011308312
-0.22791116 0.13367493 -0.20921516 -0.12142282 -0.08790405 -0.11926431 -0.14032272 0.23094524
-0.11902574 0.15341105 -0.16179967 0.18024579 -0.2159567 0.1809122 -0.02083368 0.028188495
0.1247122 -0.16606577 0.0030940108 0.031047244 0.046460085 0.13600431 0.25580123 0.06467524
-0.035395715 0.12998524 -0.017172426 -0.1511304 -0.010459304 -0.12833533 -0.07422821 0.10378073
-0.13515866 0.18917488 0.01315926 -0.22073025 0.0062666535 -0.102384165 -0.17552707 -0.16891244
0.14250259 -0.03313102 -0.10335827 0.035427973 -0.058672577 -0.19721767 -0.18256958 -0.017496645
0.16363977 -0.024412885 -0.13335088 -0.12271308 -0.020791829 0.18602432 0.11818673 -0.09866591
0.119114056 0.023686036 0.021188125 0.09673388 -0.09209657 0.10010518 0.2228951 -0.22853053
-0.14763339 0.12507702 -0.13397583 -0.17347525 -0.0696951 0.017998561 0.00092481077 0.12005825
-0.09427783 -0.026096717 0.12020762 -0.1149632 -0.16390128 -0.14758697 -0.16564313 0.20028324
0.08656843 -0.057750452 0.060119037 -0.066524096 0.19144367 0.22446695 -0.08027553 -0.13655366
0.14490747 0.081042275 0.025881538 0.010525738 0.12441219 0.1337797 0.07094695 0.19363631
-0.10386223 -0.05663811 0.12931441 -0.036769368 0.19861837 0.21227312 0.013078596 -0.19330114
0.19639875 0.14443973 -0.09066912 0.06528543 -0.23757936 -0.22455181 -0.084457874 -0.12496928
0.20781347 0.081461765 0.0009902675 -0.1421451 -0.16772762 0.1840336 -0.20664601 -0.23436184
-0.2150692 0.18656811 -0.1988891 -0.20134267 0.05326901 0.09227956 0.13455957 0.22185665
-0.0798975 0.19937275 -0.25125593 0.10311643 -0.15441024 0.023485873 -0.035279468 -0.14902899
-0.12240906 -0.061796937 0.18879451 0.048266247 -0.2192322 -0.0025435267 -0.064898 0.18650638
0.112993985 -0.14574584 -0.18977302 0.17997858 -0.11526364 -0.21375152 -0.10808372 -0.029917877
-0.113583766 -0.21307477 -0.14901417 0.048511006 0.110413104 -0.07231302 0.28491846 0.14631668
-0.10996061 0.18619253 -0.12368622 -0.019121876 -0.21581775 0.042891264 0.18977493 0.109288484
0.45973092 0.26441348 0.017291412 -0.060681436 0.03686423 0.007944194 -0.1947361 0.27076197
0.19543244 0.38987428 -0.17525892 0.06599488 -0.06738574 -0.20581488 0.006540306 -0.08137307
-0.14591539 0.039799057 0.39311108 -0.0605159 0.084214136 0.23019166 0.24649219 -0.02162083
00000000: 2161 0f3e c5d6 843e 3895 3dbc 3dee 7c3e
00000010: 82d1 2dbe 00ba 02be 9b46 643e c251 16be
00000020: 318f 033e f928 b4bc 755a 69bd 1261 4b3e
00000030: f35c 4dbe 5aac 6ebd b3b1 4e3e 4601 84be
00000040: 1968 823e 799d b33d 059f 533e eaac 813d
00000050: 3e83 eb3a 2c91 0e3d 9e3f 693d 9c64 873e
00000060: 45b0 ae3e 472e a03e e98f e43d af89 623e
00000070: 859e 8bbe 1601 28be 4e4b 9b3d 3e99 a7be
00000080: 8928 123e 321d 053e fc2e f33e b78c fc3d
00000090: fc0a 14bd 59e4 a0bd 0694 33be 9772 8bbd
000000a0: 596d 263e da2e 6a3e 7d7f 4d3e 7954 cbbc
000000b0: bd58 463e 8302 3cbd 5a6d 66be 8849 b8bc
000000c0: 7883 83bc 841a 5ebd 2160 d13d 1f6a 0bbe
000000d0: 5c3f 2c3e 31b7 fbbc b4b0 11be 07ed 07be
000000e0: 179d 633e b863 09be aafa 1bbe 0a7a 52be
000000f0: 691b 373e 1000 33bd b843 9a3c 8046 39bc
00000100: 8b61 69be 15e2 083e 803c 56be 87ac f8bd
00000110: 0a07 b4bd d940 f4bd c2b0 0fbe e97c 6c3e
00000120: c4c3 f3bd c917 1d3e d0ae 25be 5a92 383e
00000130: c123 5dbe 0c41 393e 65ab aabc 8feb e63c
00000140: 1c69 ff3d 250d 2abe e3c4 4a3b ca56 fe3c
00000150: ee4c 3e3d b744 0b3e 61f8 823e 7474 843d
00000160: 19fb 10bd da1a 053e 30ad 8cbc edc1 1abe
00000170: 805d 2bbc 566a 03be f604 98bd fe8a d43d
00000180: 0867 0abe 0fb7 413e f099 573c 1c07 62be
00000190: 8058 cd3b caae d1bd 5ebd 33be 62f7 2cbe
000001a0: 33ec 113e 64b4 07bd 80ad d3bd ec1c 113d
000001b0: a852 70bd 6ef3 49be 85f3 3abe 2055 8fbc
000001c0: 2f91 273e 88fd c7bc 228d 08be ff50 fbbd
000001d0: a053 aabc 297d 3e3e e20b f23d 5a11 cabd
000001e0: 12f2 f33d 3809 c23c b892 ad3c 6a1c c63d
000001f0: 209d bcbd f203 cd3d 9d3e 643e e803 6abe
00000200: 352d 17be 3114 003e f630 09be 7fa3 31be
00000210: 4ebc 8ebd b871 933c 006f 723a 1ae1 f53d
00000220: bc14 c1bd c8c8 d5bc 6a2f f63d d471 ebbd
00000230: bdd5 27be 0a21 17be 5a9e 29be 0d17 4d3e
00000240: ca4a b13d bd8b 6cbd 613f 763d c93d 88bd
00000250: cf09 443e aada 653e 7f67 a4bd b9d4 0bbe
00000260: a062 143e 7ef9 a53d 8505 d43c 2574 2c3c
00000270: d1cb fe3d 8cfd 083e a24c 913d 9948 463e
00000280: b9b5 d4bd 5dfd 67bd ff6a 043e 7a9b 16bd
00000290: 9d62 4b3e 205e 593e 9c47 563c bcf0 45be
000002a0: c11c 493e 02e8 133e bbb0 b9bd 5eb4 853d
000002b0: 0148 73be e9f0 65be 40f8 acbd e5ef ffbd
000002c0: 0ecd 543e 6dd5 a63d ddcb 813a 7c8e 11be
000002d0: cac0 2bbe 4e73 3c3e 039b 53be 8dfc 6fbe
000002e0: 1a3b 5cbe b60b 3f3e 96a9 4bbe c62c 4ebe
000002f0: 9b30 5a3d 11fd bc3d fcc9 093e 642e 633e
00000300: 4da1 a3bd 5f28 4c3e 9ea4 80be b52e d33d
00000310: b81d 1ebe 7265 c03c 3481 10bd 0e9b 18be
00000320: 9ab1 fabd c91e 7dbd 5953 413e d4b2 453d
00000330: 687e 60be 4cb1 26bb 3ee9 84bd 87fb 3e3e
00000340: 6469 e73d 663e 15be dc53 42be 4e4c 383e
00000350: 580f ecbd aee1 5abe ff5a ddbd 5616 f5bc
00000360: 9b9e e8bd 4630 5abe 2c97 18be 7ab3 463d
00000370: 4420 e23d d918 94bd d5e0 913e 0ad4 153e
00000380: 0733 e1bd 41a9 3e3e 334f fdbd 7ba5 9cbc
00000390: 54ff 5cbe c0ae 2f3d 5c54 423e a4d2 df3d
000003a0: da61 eb3e 3461 873e b8a6 8d3c 198d 78bd
000003b0: f2fe 163d 5d28 023c e668 47be 50a1 8a3e
000003c0: 711f 483e 9a9d c73e 1377 33be 5328 873d
000003d0: 8901 8abd 23c1 52be 1050 d63b eda6 a6bd
000003e0: d86a 15be 5604 233d db45 c93e 85df 77bd
000003f0: 7678 ac3d 5db7 6b3e 7368 7c3e 2b1e b1bc

bias f4 [54]
0.028955331 0.36035043 -0.1922569 -0.21314648 -0.0866186 -0.20098123 -0.1654263 -0.016994193
0.13444507 -0.23347183 -0.13283892 0.12071203 0.43570533 0.39654198 0.3030388 -0.20133692
0.1876596 0.18073714 -0.08980496 0.3425998 0.0841886 0.1921858 -0.06667047 -0.17023516
0.17425281 -0.18364312 -0.19045866 -0.12295645 0.08152312 -0.19864577 0.14484493 -0.12503678
-0.07516673 0.30331123 0.34086308 0.08002291 0.21968114 -0.10616663 0.2890163 -0.036891162
-0.22264375 -0.17274268 0.075139344 0.10265195 0.017400045 0.45750067 0.17114654 -0.08646364
-0.19503656 -0.10556374 0.029058153 -0.07008679 -0.10270581 0.0593807
00000000: bb33 ed3c da7f b83e fede 44be 1243 5abe
00000010: 1865 b1bd 06ce 4dbe 8365 29be 6837 8bbc
00000020: f8ab 093e 3d13 6fbe ed06 08be de37 f73d
00000030: c514 df3e 8d07 cb3e e727 9b3e 442b 4ebe
00000040: d729 403e 2813 393e aaeb b7bd 3e69 af3e
00000050: 136b ac3d 5bcc 443e 878a 88bd 2052 2ebe
00000060: 546f 323e f10c 3cbe 9807 43be 97d0 fbbd
00000070: 98f5 a63d cc69 4bbe 3b52 143e a409 00be
00000080: 04f1 99bd 9c4b 9b3e 9b85 ae3e 0de3 a33d
00000090: 18f4 603e e46d d9bd f2f9 933e 301b 17bd
000000a0: b9fc 63be 75e3 30be a8e2 993d 303b d23d
000000b0: 8a8a 8e3c 873d ea3e 0a41 2f3e d913 b1bd
000000c0: aab7 47be cd31 d8bd 5d0b ee3c aa89 8fbd
000000d0: 6c57 d2bd 2d39 733d

weight f4 [60, 54]
0.103339575 0.2720898 -0.03714989 -0.12433305 0.101354286 -0.106770724 0.04228446 -0.034037128
-0.08816842 -0.0582399 0.0419017 0.039102208 0.17969543 0.058512278 0.112684384 -0.025153527
-0.065006986 -0.045279168 -0.033249453 0.16544794 0.13500494 0.053778075 -0.006298117 -0.030711038
0.023699222 -0.13995263 0.007915163 -0.11736801 0.05498457 -0.01298263 -0.1064425 0.018931992
-0.18911423 0.15915583 0.116909124 -0.14028634 -0.011392322 0.028488146 0.014607343 0.069759436
-0.11273793 -0.07024664 0.13245915 -0.043930072 -0.06336553 0.2542091 -0.09692741 -0.06329705
0.09265062 -0.031660292 0.0033979623 -0.012903981 -0.15803823 -0.007593284 0.0009585925 0.24706881
0.10880975 -0.07163708 -0.013363584 0.089698344 0.061496645 -0.041821897 0.10355588 -0.052387822
-0.08634185 0.090287216 0.26657727 0.20007291 0.06290178 0.12495435 0.03936227 -0.22895941
0.13168943 -0.0065829586 0.022462796 -0.021884982 0.12177439 0.068214536 0.06922272 0.0683377
0.038656 0.02254973 -0.109070666 -0.12654947 -0.08589641 0.040694192 -0.101342075 0.11523916
0.1452727 -0.20269062 0.021106007 -0.10619367 -0.011321975 -0.12177974 0.035194688 0.019058468
-0.0069517796 0.10484383 -0.06553442 0.18254359 0.07675356 0.045487657 -0.005156371 0.08479981
0.026823299 -0.20833297 -0.17705494 -0.11145221 -0.08705978 0.1586245 0.008464409 0.10533841
-0.04185913 0.13004309 0.113831565 0.11151676 -0.016129283 0.05751931 -0.028623087 -0.057053525
0.09368451 0.08529291 0.04623793 -0.009819082 0.0313964 -0.21999426 0.15811947 0.19754559
-0.081503004 0.14458522 -0.034714825 -0.0938944 0.16104676 -0.028473936 0.006348038 -0.15498386
-0.1176464 0.033049196 -0.015399042 0.04492073 0.041104894 0.050298385 0.1457999 -0.14356892
0.20067126 -0.10425127 -0.046992563 -0.0393409 0.08248911 0.011417537 0.22406718 0.03959604
-0.10100045 0.09321746 0.123708464 0.10962424 -0.082697116 0.119796574 -0.03401871 -0.12594856
0.01504052 0.12335136 -0.0025606204 0.17943361 -0.11865811 -0.036431298 0.038289193 -0.00063610077
0.073789924 0.12570456 -0.059202835 -0.050303932 -0.01981405 0.0419427 0.24023314 0.19543318
0.12955773 0.07070422 -0.037510674 -0.14823912 -0.027834112 -0.03972696 0.067971475 0.06969114
-0.050081454 0.06326865 0.0066143866 -0.10913825 0.117508225 -0.053836558 0.081688255 -0.06423416
0.043114662 0.09596314 -0.12701598 0.08910582 0.12982729 -0.15692294 0.17218061 0.018695297
-0.033484954 0.020299623 -0.050221644 -0.10290036 0.14500551 0.07940277 -0.13036364 0.13391389
0.02748923 -0.058403973 0.021201676 0.057844363 -0.110832386 0.026745597 -0.07379371 -0.07609995
0.0908406 0.14562719 -0.0113844285 0.102439746 0.11495217 -0.1278457 0.09742661 -0.05180861
0.058134045 -0.04226569 -0.0034044832 0.060762774 0.1345003 0.14225405 -0.031144502 0.067873254
0.06404621 -0.18285108 -0.098438196 0.09581301 -0.022457475 -0.032835215 0.06511323 0.005378698
0.05023749 -0.047716293 0.08866597 0.040379293 0.13791439 0.062453937 0.045006115 0.047731403
-0.18244028 0.13749996 0.14434795 -0.11036787 0.14761184 0.029510263 0.060958665 0.031196337
00000000: b3a3 d33d 5b4f 8b3e 7c2a 18bd 53a2 febd
00000010: d692 cf3d 9caa dabd 7832 2d3d 846a 0bbd
00000020: a591 b4bd f68c 6ebd 1ea1 2b3d a329 203d
00000030: 1402 383e 92aa 6f3d 12c7 e63d c50e cebc
00000040: 6222 85bd a676 39bd 9430 08bd 2f6b 293e
00000050: bc3e 0a3e 6646 5c3d 6f60 cebb b795 fbbc
00000060: df24 c23c be4f 0fbe 9aae 013c a45e f0bd
00000070: 8037 613d 19b5 54bc 87fe d9bd 4417 9b3c
00000080: 29a7 41be bff9 223e 0d6e ef3d 39a7 0fbe
00000090: dda6 3abc f95f e93c a353 6f3c 09de 8e3d
000000a0: 25e3 e6bd 78dd 8fbd 5fa3 073e 05f0 33bd
000000b0: c9c5 81bd b227 823e e181 c6bd e2a1 81bd
000000c0: 9cbf bd3d 39ae 01bd 59b0 5e3b 386b 53bc
000000d0: c6d4 21be 15d1 f8bb 0e4a 7b3a 9bff 7c3e
000000e0: a5d7 de3d 76b6 92bd eff2 5abc c4b3 b73d
000000f0: e8e3 7b3d 704d 2bbd 1b15 d43d 9d94 56bd
00000100: ffd3 b0bd 81e8 b83d d17c 883e eadf 4c3e
00000110: a6d2 803d 11e8 ff3d 553a 213d 5674 6abe
00000120: 98d9 063e dcb5 d7bb e603 b83c 2248 b3bc
00000130: da64 f93d 10b4 8b3d a4c4 8d3d a3f4 8b3d
00000140: c155 1e3d 36ba b83c 7160 dfbd 2f96 01be
00000150: 75ea afbd f4ae 263d 6f8c cfbd 8202 ec3d
00000160: 5ec2 143e 218e 4fbe 81e6 ac3c 117c d9bd
00000170: ce7f 39bc a867 f9bd 4e28 103d 8120 9c3c
00000180: c1cb e3bb 5db8 d63d e936 86bd b5ec 3a3e
00000190: f830 9d3d 4451 3a3d c6f6 a8bb 86ab ad3d
000001a0: 89bc db3c 3d55 55be e44d 35be 0e41 e4bd
000001b0: 664c b2bd 766e 223e 4eae 0a3c aabb d73d
000001c0: 7b74 2bbd 042a 053e 8620 e93d e662 e43d
000001d0: 8f21 84bc 5e99 6b3d f77a eabc f5b0 69bd
000001e0: aadd bf3d 0dae ae3d fc63 3d3d 37e0 20bc
000001f0: 8399 003d 2d46 61be 12ea 213e 6449 4a3e
00000200: 0ceb a6bd 260e 143e 2231 0ebd b54b c0bd
00000210: 71e9 243e 2c42 e9bc 3403 d03b 17b4 1ebe
00000220: 99f0 f0bd 985e 073d 434c 7cbc cdfe 373d
00000230: 9b5d 283d ae05 4e3d 924c 153e bb03 13be
00000240: c47c 4d3e b181 d5bd 467b 40bd ec23 21bd
00000250: 0df0 a83d 9f10 3b3c de71 653e 752f 223d
00000260: 53d9 cebd cce8 be3d dd5a fd3d ac82 e03d
00000270: 1b5d a9bd e857 f53d 3457 0bbd a9f8 00be
00000280: 836c 763c a39f fc3d 15d0 27bb 72bd 373e
00000290: 0603 f3bd fc38 15bd 21d5 1c3d 00c0 26ba
000002a0: 2c1f 973d b2b8 003e ac7e 72bd 7f0b 4ebd
000002b0: 1351 a2bc 1ccc 2b3d adff 753e a31f 483e
000002c0: c8aa 043e 60cd 903d cba4 19bd ffcb 17be
000002d0: 5d04 e4bc bdb8 22bd a134 8b3d 3aba 8e3d
000002e0: 3622 4dbd fe92 813d 7fbd d83b e083 dfbd
000002f0: 27a8 f03d b983 5cbd 2c4c a73d 338d 83bd
00000300: 0099 303d 5388 c43d 7a10 02be 1d7d b63d
00000310: 72f1 043e 68b0 20be 1d50 303e e126 993c
00000320: 8527 09bd 654b a63c 36b5 4dbd 6dbd d2bd
00000330: 537c 143e eb9d a23d 0c7e 05be b920 093e
00000340: 1831 e13c 0139 6fbd 23af ad3c 36ee 6c3d
00000350: 17fc e2bd 9519 db3c 2821 97bd 4ada 9bbd
00000360: a30a ba3d 4b1f 153e c185 3abc eecb d13d
00000370: 0b6c eb3d fce9 02be 9a87 c73d 4435 54bd
00000380: f71d 6e3d ca1e 2dbd c01d 5fbb 63e2 783d
00000390: 72ba 093e 0cab 113e c122 ffbc 2201 8b3d
000003a0: a92a 833d 503d 3bbe f799 c9bd 9d39 c43d
000003b0: bdf8 b7bc 387e 06bd 165a 853d ca3f b03b
000003c0: d4c5 4d3d 2972 43bd 8196 b53d c264 253d
000003d0: 6e39 0d3e b3cf 7f3d 5558 383d 0182 433d
000003e0: a0d1 3abe cacc 0c3e f3cf 133e 8d08 e2bd
000003f0: 8f27 173e 82bf f13c cbaf 793d 768f ff3c

bias f4 [60]
0.11608003 0.100545585 0.14456345 0.13258892 0.045561567 0.1245607 0.13237321 -0.008509318
0.06430869 0.043689642 0.14361155 0.039942242 0.07117155 0.11258164 0.059611633 0.06831989
0.088251 0.08064479 0.021042254 0.063460656 -0.020661445 0.09379778 -0.048178993 0.048498996
-0.11657303 -0.00364498 0.011648734 0.00959825 0.021050526 -0.05341792 0.07507645 -0.029288737
-0.04039516 -0.07468777 -0.009648241 -0.10368735 -0.0983703 -0.14303894 -0.042956818 0.038510434
0.010861172 -0.037778296 -0.13135958 -0.09978039 -0.032820717 0.00032967838 -0.04429287 -0.06816679
-2.5017609e-05 0.0010780003 -0.02935486 -0.14418887 -0.040624708 -0.037555207 -0.043253925 -0.061864793
-0.115620814 -0.10456216 -0.1541516 -0.17222993
00000000: 5ebb ed3d d8ea cd3d 7108 143e 64c5 073e
00000010: c49e 3a3d ae19 ff3d d88c 073e ab6a 0bbc
00000020: 46b4 833d e9f3 323d e80e 133e 7a9a 233d
00000030: 64c2 913d 3491 e63d 542b 743d 4ceb 8b3d
00000040: f1bc b43d 1829 a53d ce60 ac3c a9f7 813d
00000050: 3142 a9bc 0d19 c03d 5657 45bd e2a6 463d
00000060: d7bd eebd 9ee0 6ebb 55da 3e3c fa41 1d3c
00000070: 2772 ac3c c0cc 5abd afc1 993d efee efbc
00000080: 6575 25bd e7f5 98bd a813 1ebc 095a d4bd
00000090: 5e76 c9bd cd78 12be 7df3 2fbd 1ebd 1d3d
000000a0: 0ff3 313c 6abd 1abd 2083 06be a959 ccbd
000000b0: 046f 06bd afd8 ac39 716c 35bd 089b 8bbd
000000c0: e8dc d1b7 b04b 8d3a 9a79 f0bc 3fa6 13be
000000d0: 1866 26bd 7dd3 19bd 072b 31bd f065 7dbd
000000e0: 9bca ecbd b024 d6bd ebd9 1dbe 0b5d 30be
