knn/models/pretrained-autoencoder/autoencoder-in_features180-latent_size30.pt (torch, 628371 bytes, 12 tensors)

weight f4 [270, 180]
000000 7d 53 a3 3c a4 ab da ba 2c 37 0f bc ef 96 8d 3d
       0.019937271 -0.0016683233 -0.008741181 0.06913554
000010 3c 06 5f 3d 80 55 3a 3d 91 a7 09 bd 3e d6 75 3d
       0.054449305 0.045491695 -0.03360707 0.06001877
000020 e0 dd fe ba ea f0 f2 3c d7 42 e7 3c 0d 71 4c bb
       -0.0019444786 0.029655892 0.028230114 -0.0031195313
000030 44 ff 94 bd 0b 41 b1 bd 50 74 e4 bd 04 c5 c7 bd
       -0.072752506 -0.08654984 -0.11154997 -0.097543746
000040 56 41 7f bd 76 cb b5 bd f9 0e fd 3c 93 8c 83 bc
       -0.06231817 -0.08876698 0.030890929 -0.016058242
000050 67 94 f6 3c 22 d3 68 bd 11 10 2f bc 90 99 5a bc
       0.03010006 -0.056841977 -0.010684983 -0.013342276
000060 8c f7 a0 bc 46 40 3a bb 6b 1c 48 bd 7e c4 64 bc
       -0.01964929 -0.0028419658 -0.048855226 -0.013962863
000070 74 eb 3b bd 26 63 37 3d 9d 89 bb bc be b1 22 bc
       -0.045878842 0.04477229 -0.022892768 -0.009930072
000080 33 0c 03 bd fa a6 f7 3c 7c 03 59 3d 62 ce a9 bc
       -0.031994056 0.030230988 0.05298184 -0.020728294
000090 bf 8c d0 3c 7c 0e db bc e7 13 1f bc db 8c 25 3c
       0.025457738 -0.026740305 -0.009709335 0.010104383
0000a0 e9 c1 43 bd ae 96 62 bd 43 04 ce 3c 39 9a 9a 3c
       -0.04779235 -0.05531948 0.025148517 0.018872367
0000b0 5f 2b 13 bc d3 48 b9 3c 8e 06 d4 3a 9a 1f 4d 3d
       -0.008982508 0.022617733 0.001617627 0.050078966
0000c0 9e b1 59 bd 83 d6 25 bd b7 ab 5c 3d 98 55 8a 3c
       -0.053147905 -0.040487777 0.053874698 0.016886517
0000d0 bb 4a 8b bc da 31 a2 bc ff 1c 63 3d a2 60 b8 3d
       -0.017003408 -0.019799162 0.055447575 0.09002806
0000e0 e0 b1 00 bc 89 a0 a3 3d 59 da bc 3c 74 ff 8b 3d
       -0.007854909 0.07989604 0.023053335 0.06835833
0000f0 7b 6d 60 bc 73 27 40 bd ba cf 8d bd 26 42 2d bb
       -0.013697977 -0.04691262 -0.06924386 -0.0026437133
000100 2f 73 ce 3c b6 4c 81 bd 44 d7 b8 bc 0c 6a 75 bd
       0.025201408 -0.063134596 -0.022563584 -0.059915587
000110 7d 82 43 3d e5 4f a0 bc c9 c4 96 bd 86 0f 63 bd
       0.047731865 -0.019569347 -0.073617525 -0.055434726
000120 25 cb 7e 3d 93 0a d0 3b 7b 5f 86 3d 24 08 d8 bc
       0.062205452 0.006348917 0.0656118 -0.02637107
000130 ab 26 c1 3c 9b 5d 3f 3b 35 23 0b bd c3 3d 35 bc
       0.023578009 0.002920008 -0.033969123 -0.011062088
000140 07 a7 03 3d 99 c5 d7 bc 2c 70 7d 3c 5c 1c 3b 3d
       0.03214171 -0.02633934 0.015468638 0.045681342
000150 93 e1 0f 3a a4 0a 62 3d 8f d4 37 3d b0 f3 0c 3d
       0.000548863 0.05518593 0.044880446 0.034412086
000160 83 57 3c 3d 81 71 96 3d 60 32 b7 3d 97 9b e8 bb
       0.045981895 0.07345868 0.08945155 -0.007098626
000170 f3 b7 49 3d 8d 81 8e 3d b3 d5 96 3c 8b 0f b5 ba
       0.049247693 0.069583036 0.018412447 -0.0013813836
000180 cf 96 66 bd 91 4c 4c bd 02 dc bc 3c 5b 4e c8 bc
       -0.056296166 -0.049877707 0.023054127 -0.024451425
000190 52 22 bb 3b 2a ad f6 bc 7f 54 1b 3d 53 45 96 bd
       0.0057108784 -0.030111868 0.03792238 -0.07337441
0001a0 8e a9 25 3d 10 ce 2d 3c b6 49 b3 bd 7c 9d f4 3c
       0.040444903 0.010608211 -0.087542936 0.02986025
0001b0 16 23 15 3d 78 4a 31 bd 54 ab a4 bc 64 ed 40 bc
       0.036410414 -0.04328391 -0.020101227 -0.011775348
0001c0 b4 54 0c bd c0 e6 9c 3d 50 8a 08 bd a7 d7 d3 bc
       -0.034260467 0.076611996 -0.03333503 -0.025859667
0001d0 18 2f 3c bb 3f 7c a6 3b 4a 49 bd 3c 8e e6 19 3d
       -0.0028714593 0.0050807293 0.023106236 0.03757339
0001e0 69 74 4b bd 0f 8c 64 bd ad 2b 85 3d 27 d5 16 3d
       -0.049671564 -0.055797633 0.06502471 0.03682437
0001f0 c0 e3 60 bd 76 98 1f 3d 31 eb e4 bc 0e ec 7a bd
       -0.0549047 0.038963757 -0.02794418 -0.061260276
000200 f0 0d 07 3d 3d 91 d6 bc 58 ce 44 bd b4 9b b9 ba
       0.032972276 -0.026192302 -0.048048347 -0.0014160783
000210 24 a3 8a bc 4d a7 95 bc 90 93 52 3d bc 30 51 3d
       -0.016923495 -0.018268252 0.051410258 0.051071867
000220 60 84 13 3c ca 51 e4 bc e6 96 74 3d 70 4d 59 bd
       0.009003729 -0.027871031 0.05971422 -0.053052366
000230 87 9c 25 bd 14 30 9b 3d 34 d3 09 bd db 2f 5e 3d
       -0.04043248 0.075775295 -0.033648685 0.054244857
000240 fe 77 b0 3c 94 ea ce 3b ee 95 e2 bc 62 32 97 bb
       0.021541592 0.006314585 -0.027659383 -0.0046141604
000250 59 59 d7 bb a3 eb f6 3b f5 19 26 bd a4 e0 70 bd
       -0.0065719304 0.0075354143 -0.0405521 -0.058807984
000260 88 13 10 bc 19 f3 d9 bc 35 b6 6a bd b9 d2 3b 3a
       -0.008793719 -0.026605176 -0.057302672 0.0007164884
000270 7b 87 68 3d f3 0c 11 bc d3 8e d3 3b 58 26 3b bd
       0.05676983 -0.008853185 0.006456235 -0.045690864
000280 58 2e 07 3d d5 70 0a 3c ab 1b 31 3d b0 39 0b 3d
       0.03300318 0.008449753 0.043239277 0.033990562
000290 53 8c 36 3d 47 1a f2 bc 07 c8 67 3d 65 b6 43 bd
       0.044567417 -0.029553546 0.056587245 -0.047781367
0002a0 22 9e 91 3d c7 ff 97 3c 10 ec 0d 3d 00 24 81 3d
       0.071102396 0.018554581 0.034648955 0.063056946
0002b0 0d 6c 8d bc 75 58 93 3d 8a c9 3b 3c 9d 7c a0 bc
       -0.017263437 0.07194606 0.011461625 -0.01959067
0002c0 c3 66 5b bd 9d 66 3e bd 6b 77 15 bd f4 0f 3c bd
       -0.053564798 -0.04648458 -0.03649084 -0.04591365
0002d0 9d 9a a1 bc 9c b9 ae bd 18 19 f3 3c e3 ea 41 3d
       -0.019727046 -0.08531496 0.029675052 0.047343146
0002e0 a5 a5 d6 3b 24 71 25 3a 39 0f 12 bd e3 d0 b4 3c
       0.006550508 0.000631111 -0.03565905 0.022072261
0002f0 b9 8b 01 3d 4a 23 c3 3d a3 0f af bb 63 d0 11 bd
       0.03162739 0.09528215 -0.00534244 -0.035599124
000300 64 a0 56 bd 98 1f 8f bd 5f b7 ee bc d7 cb 9b bd
       -0.052399054 -0.06988448 -0.029140173 -0.07607239
000310 57 e0 8b bd b1 52 c3 bd 18 6a 8f 3c 89 dd b1 bd
       -0.06829899 -0.095372565 0.017506644 -0.086848326
000320 e7 aa 67 3b 0f 08 a9 bd e3 e9 ce bc c3 d3 29 bd
       0.0035349668 -0.0825349 -0.02525801 -0.041461717
000330 a4 ca 79 bc d1 d9 96 3c 41 02 27 3d d8 f8 d8 bc
       -0.015246067 0.01841441 0.040773634 -0.026485845
000340 cf 50 1d bd a5 b8 34 bd 6a 5b 95 3b 4f b8 05 bb
       -0.038407143 -0.044121403 0.0045580165 -0.0020404046
000350 2a 04 6e bd 03 56 56 3d 24 ec 02 bd ea e9 fc bc
       -0.05810944 0.05232812 -0.031963482 -0.030873258
000360 4e b5 a8 3c 4f 10 eb 3c e8 ff 26 3d b7 78 29 bd
       0.020594265 0.0286943 0.040771395 -0.04137489
000370 ff 5a 4c bd e5 2d 40 3b 7b 61 7f 3d 37 ba 8b bc
       -0.04989147 0.002932423 0.062348824 -0.017056568
000380 48 7c 2c 3d dc 01 cf bb 3e 7a 7b 3d 37 69 99 3d
       0.04211071 -0.0063173603 0.061395876 0.07490771
000390 05 f5 68 bb 9f c8 11 bc a1 d9 04 bc 05 6c 99 3d
       -0.0035546434 -0.008897929 -0.008108527 0.07491306
0003a0 26 d6 8b 3c d6 50 11 3d 8e 1e 1a 3d fd fd 80 bc
       0.017069887 0.03547748 0.037626795 -0.015746111
0003b0 aa 98 8c 3c 06 63 51 3d 8b d5 81 bb 5a e2 40 bd
       0.01716264 0.051119827 -0.003962224 -0.047090866
0003c0 86 cb ab bd e1 ac f8 3c f8 d2 14 bc 6b 8f 67 bd
       -0.083884284 0.030355873 -0.009083502 -0.05653326
0003d0 d8 c2 5c 3d fe 88 14 bc 8c 88 91 bc 8c c9 a3 3d
       0.053896755 -0.009065865 -0.017765306 0.079974264
0003e0 05 76 4d 3c be 5f 70 3d 23 07 b1 bb 38 a2 89 3d
       0.012540345 0.058685057 -0.005402462 0.06720394
0003f0 2f 6f ab 3c 8b ba ea bc 06 26 d4 bc 37 af f8 3c
       0.02092704 -0.028653404 -0.025897037 0.030356986

bias f4 [270]
000000 61 57 85 3d 62 fe 4e 3d 65 09 17 3d 8b cd e4 3d
       0.06510807 0.050535567 0.036874194 0.11172017
000010 de 9b c7 3d c6 d4 c9 3d c0 f1 50 3d 81 fc 0b 3e
       0.09746526 0.098550364 0.0510118 0.13670541
000020 f1 11 8c 3d 2a d6 82 3d 13 03 63 3c 69 6a 94 3d
       0.068393596 0.06388505 0.013855713 0.072468586
000030 a9 48 ea bc 2c 80 93 3d 5c 91 0e 3d 05 5c 84 3c
       -0.0285991 0.07202181 0.034806594 0.01615716
000040 bc a1 29 3d 40 75 82 3d 24 3b 1c 3c b8 e1 40 3c
       0.041414008 0.0637002 0.009535585 0.011772566
000050 72 12 0a 3d 48 c9 5f 3d ef f4 0d 3d 63 7f b4 3c
       0.033708997 0.054635316 0.034657415 0.022033399
000060 77 d9 18 3d 11 d3 e9 3d 0b af de 3d 7d 3b 00 3d
       0.037316766 0.11417211 0.108732305 0.031306732
000070 ed 6d 05 3d 7c c4 b9 3d 8c 1e 00 be a7 d3 21 3e
       0.032575537 0.090706795 -0.12511653 0.15803395
000080 cd 57 6e 3c 95 88 63 3c b0 46 bf 3d 5e ad 0a 3d
       0.0145473005 0.013887544 0.093396544 0.033856742
000090 7a 71 87 bb ef 52 bc 3b 68 c4 d6 3a 06 f4 96 bc
       -0.0041334005 0.005747191 0.0016385438 -0.018426906
0000a0 f1 d8 18 3d 9f 64 97 3d 9e 33 f9 3d 14 58 b8 3d
       0.037316266 0.07392239 0.12168048 0.090011746
0000b0 db 68 a7 3c 3e d5 b1 3d 33 35 87 3d bf d5 8c 3d
       0.020435741 0.08683251 0.06601944 0.06876706
0000c0 10 5d d2 3d 7f bb ac bb 92 f3 26 bc f0 59 43 3d
       0.102716565 -0.0052713747 -0.010189908 0.047693193
0000d0 6c 00 d9 3c 78 ad 35 3d 91 d3 73 3d 11 db 19 3d
       0.026489459 0.044354886 0.059527937 0.037562434
0000e0 06 a9 85 bd bf 07 0a 3d 1e bd 1d 3b a6 db b8 3d
       -0.06526379 0.033698794 0.0024069021 0.090262696
0000f0 98 f1 9a 3b fc ae 86 3d c5 42 d3 3d 51 f9 d3 3d
       0.0047285073 0.06576344 0.1031547 0.10350288
000100 94 02 41 3d 73 59 a1 3d b9 a4 e7 3b b8 bb 73 3c
       0.0471216 0.07878389 0.007069197 0.014876299
000110 27 74 02 3c 92 ed 1c 3d df e8 1d bc 16 49 f5 3c
       0.007962263 0.038312502 -0.00963804 0.029942077
000120 88 08 03 bd ae e4 8a 3d d4 0f 07 3d 6c 0a 75 3d
       -0.031990558 0.067818984 0.03297408 0.059824392
000130 20 21 31 bc cd 81 b2 3d 5e c3 e7 3d 28 f7 10 bc
       -0.01081112 0.08716164 0.1131656 -0.008847989
000140 9e 6e 87 3d 58 eb a3 3d 1e f2 c1 3c 29 4f 84 3c
       0.066128954 0.08003873 0.02367502 0.016151028
000150 78 0f cb 3d 91 74 1e 3c 02 22 bb 3d 83 dd 20 bd
       0.0991506 0.009671346 0.09137346 -0.03927375
000160 cd 52 19 3c b6 9a c2 3c 50 0c 06 bd 72 56 61 3c
       0.00935812 0.023755413 -0.032726586 0.01375352
000170 d3 af dc 3d d8 1f 2a bc f6 9a c2 3d ad e3 53 3d
       0.10775723 -0.010383569 0.09502213 0.0517308
000180 4d 6b 08 bd dd 59 75 3d e4 1e 6c 3d b2 68 02 3d
       -0.033305455 0.059900153 0.057646647 0.031838126
000190 80 a5 08 bd 91 5f f5 3d 27 b2 73 3c 8b 40 2d 3d
       -0.033360958 0.119811185 0.014874018 0.04229788
0001a0 8f 86 d7 3d b3 7f ae bc 45 05 35 3d f9 3a 85 bd
       0.10523712 -0.021301126 0.04419448 -0.06505389
0001b0 a9 0f f2 3c ae 74 4a bd 33 24 ff 3b bc c3 54 3d
       0.029548483 -0.04942768 0.0077862977 0.05194448
0001c0 03 b2 a3 3d d9 3a 01 3e aa 01 be bc 0b 65 57 3d
       0.079929374 0.12620105 -0.023194153 0.052586596
0001d0 96 d1 83 3d 71 d8 65 bc 6e 4e 77 3d 92 1d 64 3c
       0.0643646 -0.014028654 0.06037753 0.013923066
0001e0 c9 2a ac 3d 9a a1 21 bd 31 2e b8 3d 40 b2 21 bc
       0.08406598 -0.039460756 0.08993185 -0.009869158
0001f0 14 5c 97 3d 4a a9 e3 3c 9d 87 1f 3d 11 ea a9 3b
       0.073906094 0.027790684 0.03894769 0.0051853736
000200 8d 87 2c bd e9 93 8b 3d 14 39 bc 3d 6e 79 af 3d
       -0.04212146 0.06815321 0.09190574 0.08568083
000210 5f 5c 01 3d 32 99 90 3d 97 e1 b5 3d 23 d8 ba 3d
       0.031582233 0.0706047 0.088809185 0.09123256
000220 eb 16 f6 3c 32 7a f7 3d 7e 3b ca 3d 4c eb 33 3d
       0.030040225 0.12083854 0.098746285 0.04392557
000230 6e ee 20 3d 69 ee b7 bc 42 c1 f5 3c 6e 31 d0 3b
       0.039289884 -0.02245255 0.029999379 0.0063535487
000240 a2 67 4b 3d 29 ca 10 3e 46 fe d1 3d d8 36 ed bc
       0.04965938 0.14139618 0.10253577 -0.028956816
000250 77 8f 09 3d cc 4b 6c 3d 16 c2 3f bd b8 d8 73 3d
       0.033584084 0.057689473 -0.046815954 0.05953285
000260 3c e7 d5 3d 66 7a 05 3d 5d 47 83 3d db f4 9e 3d
       0.10444495 0.03258743 0.06410096 0.07761546
000270 4b 55 4a 3d 49 c2 1d bd 57 1f 0d 3e 44 a6 7e 3d
       0.049397748 -0.038515363 0.13781486 0.062170282
000280 71 64 85 3b 84 bb 00 bd a3 9e 94 3d d1 d9 60 3d
       0.0040708114 -0.03142883 0.0725682 0.054895226
000290 b8 25 86 3b 29 6d 80 3d 24 d8 64 3d 71 c4 aa 3d
       0.004093852 0.06270821 0.05587019 0.083382495
0002a0 73 59 83 bd 46 e4 63 3c d1 d8 83 3d e4 ac 70 bc
       -0.064135455 0.013909405 0.06437839 -0.014689658
0002b0 eb d7 ce 3c ca e8 c7 bc 6d 83 76 3d 27 13 b9 bc
       0.025249442 -0.024402995 0.06018393 -0.02259214
0002c0 95 a9 ba 3a 15 97 34 3d d4 03 24 3d d0 66 6d 3d
       0.0014241213 0.044089396 0.040042713 0.057959378
0002d0 2c 32 de 3b eb 0e 73 3d fb df 75 3c 43 6f 53 bc
       0.0067808833 0.0593404 0.015007014 -0.012904945
0002e0 13 f2 79 3d be 20 a2 3d 14 3b d2 3c 4f fe 44 3c
       0.061021876 0.07916401 0.025662936 0.0120235225
0002f0 3a 5d cf 3b da 52 9d bb 6b c3 a2 3b 9d b4 92 3d
       0.006328252 -0.0048011364 0.0049671433 0.071633555
000300 7a 51 08 3c b9 a3 8e 3d 17 d4 8c 3d 68 9c b1 bb
       0.008320207 0.06964821 0.068763904 -0.0054202564
000310 6f 2d b7 3c 2b 2e 15 3d 9e 16 b4 3c 31 a7 32 3d
       0.022360532 0.036420982 0.021983441 0.043616477
000320 d7 a1 71 3b 91 eb a0 3d b8 f5 92 bd e5 9a a0 bc
       0.0036870146 0.07857431 -0.071757734 -0.01960511
000330 5a c7 d9 3c 38 62 d6 3c 7a ba 14 bd c8 c0 b6 3d
       0.026584316 0.026169881 -0.03631065 0.08923489
000340 3b 4b 8d 3c e4 da 2d 3d 81 4c 39 bc 2c 48 91 3d
       0.017247787 0.04244508 -0.011309744 0.07093844
000350 01 ff 5e bc 87 f6 fb 3c 74 06 cb bc f1 a9 e2 3d
       -0.013610602 0.030757202 -0.02478335 0.1106757
000360 e3 fe a4 3b 57 4c 23 3c c2 ee e3 bb 7c 02 e7 3d
       0.0050352677 0.009966931 -0.0069559524 0.11279771
000370 54 8b 00 3d 21 e0 eb 3c 74 40 66 bc 33 21 77 3a
       0.031382874 0.028793396 -0.014053453 0.00094272493
000380 18 80 14 bd 9d 82 26 3d b4 57 7a bc bd 15 35 3c
       -0.036254972 0.040651906 -0.015279699 0.011052546
000390 8d 1c cd 3b 15 71 7c 3d 61 26 96 3d a8 86 84 3b
       0.006259507 0.06163128 0.07331539 0.0040443726
0003a0 9b 00 c4 3d a7 14 dd 3c 0f bb d2 3d 08 f9 99 3c
       0.09570428 0.026987387 0.10289585 0.018795505
0003b0 d5 64 4f 3b a1 b5 70 3d 1e 4d b4 3d fd ec 78 3d
       0.0031645794 0.058766965 0.088037714 0.060772885
0003c0 95 57 06 bc b1 b5 9e 3d ee 59 9c bc ce 4f 3f bd
       -0.008199592 0.07749499 -0.01908585 -0.046706967
0003d0 90 f6 72 bc 38 84 62 3d b7 6f ef bb d0 8a 5a bd
       -0.014829293 0.055301875 -0.0073070186 -0.05335504
0003e0 97 8c 35 bc df 93 d9 3c 6b c2 ac ba 60 7e dd 3d
       -0.0110808825 0.026559768 -0.00131805 0.1081512
0003f0 27 c8 fe bb 26 ce dc 3b 35 4d 99 3d 3b ff a0 3d
       -0.007775325 0.006738442 0.07485429 0.07861181

weight f4 [90, 270]
000000 7f f6 59 bb 9e 19 6f bc b7 22 c7 3c b4 fd c9 bc
       -0.0033258495 -0.01459351 0.024308546 -0.024657108
000010 58 1b a2 3c 2b 22 d4 bb ed 59 13 bd 69 7b 03 bc
       0.01978843 -0.0064737997 -0.03597443 -0.008025029
000020 6a 8c 4e 3c 96 5a f8 3c 9a f9 10 3d df 5f 90 bd
       0.0126067195 0.030316632 0.03539429 -0.07049536
000030 e3 60 ac bc 35 78 5f bd 9d d7 ac bc 7d c9 bb bc
       -0.021042293 -0.054557998 -0.021098906 -0.022923226
000040 50 02 8f 3c 7f a6 7d 3d f9 fb 01 bc 79 db 10 3d
       0.017457157 0.06192636 -0.00793361 0.035365555
000050 03 eb f0 bc ca 84 dc 3c 49 fa 19 3d 87 de 7e 3c
       -0.029408937 0.026918788 0.037592206 0.015555984
000060 6c 88 aa bb 7d 5b 69 3d 85 13 07 3e d0 9b ad 3c
       -0.005204251 0.056972016 0.1319104 0.021192461
000070 61 79 1b bd 3a bf 66 3d 8a b1 19 bc 37 2b f9 3b
       -0.037957553 0.05633471 -0.0093807075 0.0076040286
000080 d8 b6 54 3d 87 e3 08 3d c0 76 aa 3c f0 68 5f bd
       0.051932186 0.033420112 0.020808578 -0.054543436
000090 da 0e b6 3c fe 94 01 bd aa 14 cb b8 a0 27 ad 3c
       0.022223879 -0.03163623 -9.683643e-05 0.021137059
0000a0 e1 f9 a7 3d af b2 5e 3c e9 6c 3f 3d 78 f3 13 bc
       0.082019575 0.013592406 0.046734724 -0.009030215
0000b0 f1 9d 2b bc 91 d7 9b 3d 87 c4 21 bc 9c 3e 45 3d
       -0.010474668 0.076094754 -0.009873516 0.048155412
0000c0 b0 3d 28 3c 2e 85 cb 3b 17 2d 56 3d 3f ac 66 bd
       0.010268614 0.0062109446 0.052289095 -0.05631661
0000d0 9b 77 18 bb e2 50 18 bd 2b e6 f4 3d 95 7c 50 3d
       -0.002326465 -0.03718651 0.119579636 0.05090006
0000e0 2b dc 0c bd d2 91 a8 3c e4 7f 71 3d 6a 3f 8c 3d
       -0.034389656 0.020577345 0.058959857 0.06848033
0000f0 ab e6 c9 bb 78 68 03 bc f2 6e 33 bd 4f 3d b0 bc
       -0.006161531 -0.008020513 -0.043806978 -0.02151361
000100 94 ec 11 bd 71 d3 1d bb 4a 8d 83 3c 4f ce 08 3c
       -0.03562601 -0.0024082328 0.016058583 0.008349969
000110 a3 53 a7 bc e9 8c 98 bc f2 7d f0 3c d7 61 c4 bc
       -0.020425623 -0.018621879 0.02935693 -0.023972435
000120 2e 20 74 3c 2b b4 28 bc 10 b3 97 3d d4 c9 49 3d
       0.01490025 -0.010296862 0.074072 0.049264744
000130 7a 71 88 bc a1 cd ba 3d 9e ee 78 3d 8f e1 2f 3c
       -0.016655672 0.09121252 0.060774438 0.01073493
000140 43 48 dc bc 74 94 74 3c 40 b7 0d 3c ca 20 3c 3d
       -0.026889926 0.014927972 0.008649647 0.045929708
000150 fb 0f 7c 3d 79 d5 08 3c 9d 8d 16 bd 30 3d 13 bc
       0.061538678 0.008351677 -0.036756147 -0.008986756
000160 6e 07 b1 bb d4 03 d1 bb 0a 4c 20 3c 34 a9 c0 bc
       -0.005402497 -0.00637863 0.009783754 -0.023518182
000170 97 d6 d7 bc 62 38 72 3c f1 fd 90 3d 87 bb 82 bc
       -0.026347442 0.0147839505 0.070796855 -0.01595856
000180 5b 37 cc 3a d0 f2 5f 3c e3 02 c5 bb 7b c8 da bb
       0.0015580462 0.013668731 -0.006012307 -0.006676731
000190 fe 51 a7 bb 8b 8c 1b bd 20 c8 20 3c a5 75 d6 3d
       -0.00510621 -0.03797583 0.0098133385 0.10471658
0001a0 3e 34 64 3d 9e 24 b9 3c 9e 71 ea bb 5c e5 22 bd
       0.055713885 0.022600468 -0.0071546575 -0.039769515
0001b0 1f ce 13 3d c2 e7 16 bd 4e bb 8b 3d f7 9e 8b 3c
       0.036085244 -0.036842115 0.06822835 0.017043574
0001c0 27 26 6f 3d 53 69 37 3d 72 88 48 3b 01 d4 05 bd
       0.058385994 0.04477818 0.0030598906 -0.032672886
0001d0 7d 70 b7 3d 99 e4 11 bb f3 ba 2b bc 83 e2 da 3b
       0.08957002 -0.00222615 -0.010481584 0.0066798343
0001e0 ea ab 1f bd bf bf 4b 3d 16 11 90 3c 3b 52 93 3d
       -0.03898231 0.04974341 0.017586272 0.071934186
0001f0 9e ba 82 bc f3 fa 7a 3d 15 69 5b 3d ae f5 4c 3d
       -0.015958127 0.06127448 0.05356701 0.050038986
000200 0f 24 10 bd 1a c9 d5 bc c1 71 57 3d 27 bf 5b 3c
       -0.03519064 -0.02609687 0.05259872 0.0134122735
000210 78 9a ea bc 31 6b f4 bb 36 59 89 3c 67 fc 97 3d
       -0.02863811 -0.0074590673 0.016766172 0.07421189
000220 33 b0 28 3d 8a 0d 08 3d 6f ea 93 3d 8d ed f5 3c
       0.04118366 0.033216037 0.07222449 0.0300205
000230 94 fe f5 3c 61 4f 32 3d fa 17 c9 3c b0 03 37 3d
       0.030028619 0.043532733 0.024547566 0.04468125
000240 8c bd cc 3d cc a8 97 3b 74 d9 e4 3b 6e ad 06 bd
       0.09997091 0.0046282765 0.0069839302 -0.03288024
000250 f2 d9 93 3d 78 6d 8c 3d 54 32 e4 3c 43 ba a2 3c
       0.07219304 0.06856817 0.02785603 0.019864207
000260 e4 b1 26 3d 93 69 f8 bc 89 b7 60 3d 94 12 84 3d
       0.040696993 -0.03032378 0.054862533 0.06448856
000270 e7 f4 4c 3c 9c bc ca bb 2f 0c 13 bd 52 d9 c0 3c
       0.012509561 -0.006187035 -0.03590029 0.023541126
000280 a6 c4 69 3d 36 c7 1a bd 09 aa 78 bc 99 85 a7 bc
       0.057072304 -0.03778764 -0.015177258 -0.020449447
000290 cd 82 11 bc 54 48 85 3b 67 f6 ae bc 52 b3 49 3c
       -0.008881283 0.00406746 -0.021357728 0.01231082
0002a0 96 53 fc 3c b0 01 9c 3d 68 29 04 3d 07 41 72 3d
       0.030801576 0.07617509 0.03226605 0.059144046
0002b0 03 67 1d bc ac 7f 14 3d 73 fa 66 bb c8 fd 0f 3e
       -0.009607079 0.03625457 -0.0035244494 0.14061654
0002c0 87 d3 4c bd 3a 38 47 bc fa 08 78 bc a4 b1 09 3d
       -0.050006416 -0.012159402 -0.015138859 0.033616677
0002d0 58 42 75 3d e8 76 07 3d 15 96 1d bd 7a 21 1a 3c
       0.059877723 0.033072382 -0.038473208 0.0094073955
0002e0 10 6c c0 39 71 86 4d 3d 86 af 7e ba 62 e3 0f 3d
       0.00036701607 0.05017704 -0.0009715486 0.03512896
0002f0 38 3c 2d 3c 26 76 1c bd 24 82 5c bd 7c c5 87 3c
       0.010573439 -0.038198613 -0.05383505 0.01657366
000300 29 13 1e 3c 3c f9 b5 bb a2 f5 15 bd 66 75 0e bd
       0.009648123 -0.0055533927 -0.036611207 -0.03477993
000310 f2 c2 91 3d 57 77 e8 bb e8 b1 08 bc 9f 28 e2 bc
       0.07117261 -0.0070943045 -0.008343197 -0.02760726
000320 98 11 96 b9 64 67 cb bc 41 98 6d 3c 59 d3 04 3d
       -0.00028623338 -0.024829574 0.014501632 0.03242812
000330 f5 dc dd 3d 92 30 6b bc bf a8 3a bd 73 46 9c 3c
       0.1083316 -0.014354842 -0.045571085 0.019076562
000340 cf 76 74 3d 6d 37 76 3d 6a 3c 63 3c c0 80 67 3c
       0.059683617 0.060111452 0.013869384 0.0141298175
000350 06 54 69 bd 03 e6 c6 bc 09 d6 09 bd bc e3 62 bb
       -0.056964897 -0.0242796 -0.033651385 -0.0034620604
000360 46 e1 00 bd 08 9e ae bc 81 56 2c bc 4d c7 95 3d
       -0.031464837 -0.02131559 -0.010518671 0.07313404
000370 d2 4e 51 bd ec 4d a3 bc f8 f8 0c 3c 64 70 76 3d
       -0.05110056 -0.019934617 0.008604281 0.060165778
000380 db 6b 6b 3c 3b 33 ef 3b 98 21 57 3d 8f e0 8b 3d
       0.0143689765 0.0072998083 0.052522272 0.068299405
000390 8a be 34 3d 02 66 55 bc d6 81 df 3b 55 d7 e1 3d
       0.044127025 -0.013024809 0.0068208976 0.110273995
0003a0 dc d6 2b bd bb f2 be 3d 59 47 8e 3d 48 a0 0e bd
       -0.041952953 0.09323641 0.06947202 -0.034820825
0003b0 2a 21 82 bc 3d b8 a1 3b 0b ca 42 3d 16 15 51 3c
       -0.015884954 0.004935293 0.047555964 0.012761375
0003c0 9a 58 b8 bc 22 1d 01 bd e0 7b 0e bd fd 74 e8 3c
       -0.022503186 -0.031521924 -0.034786105 0.028376097
0003d0 c8 3d ff bc 63 dc 1a bd 80 81 ed 3c ca 65 8b bd
       -0.03115739 -0.037807833 0.028992414 -0.06806524
0003e0 1d 4f 4b 3d 30 e4 a6 bc 8e fc 4a bd d0 d6 46 3c
       0.049635995 -0.02037248 -0.04955726 0.012136176
0003f0 f1 8e 55 bc 96 ad e5 3c ab 86 2a 3d 0a 83 ca 3a
       -0.013034568 0.028036874 0.041632336 0.001545043

bias f4 [90]
000000 b8 37 32 3d dd 71 e8 3b ef 5a a5 3c b2 00 ae 3d
       0.04351017 0.0070936517 0.020184962 0.08496226
000010 c2 6d 30 3d 01 87 89 3d f8 f8 08 3d 54 85 7b 3d
       0.043073423 0.06715203 0.03344056 0.06140645
000020 2b 0f 3d bc 31 2b 84 3d 7e 07 ca 3d cd c2 83 bc
       -0.011539261 0.064535506 0.0986471 -0.0160841
000030 6f 8f bf 3d 54 41 ba 3c d2 f9 bc 3d d7 59 47 3c
       0.0935353 0.022736229 0.09227337 0.012167416
000040 9c 39 b1 bc 26 a3 b9 3d 5d 3a e4 3a 3b a0 99 3b
       -0.021633916 0.09064321 0.0017412413 0.0046882904
000050 a6 dd 31 3d 41 05 c2 bb 56 0b 07 bd fa e0 16 bd
       0.04342427 -0.0059210365 -0.032969795 -0.036835648
000060 5b 48 af 3d f8 f4 be 3d 7d 93 16 bd 45 5a 3b 3d
       0.085587226 0.09324068 -0.03676175 0.045740385
000070 78 0b 2c 3d 55 b6 18 3d a5 ec 03 3d ab a8 f9 3d
       0.042003125 0.03728326 0.032208104 0.12190374
000080 f0 f6 10 3d b1 f5 8a bc 5d 7b 70 bb 84 3d a2 bc
       0.035391748 -0.016962858 -0.0036694624 -0.019804724
000090 26 19 c1 bb e1 2c 9a 3c 3b 69 25 3d e9 29 df bb
       -0.0058928905 0.018820228 0.04038356 -0.006810416
0000a0 5d 33 c1 3c 8f 7f b3 bc 4e d1 ae 3d 09 98 b3 bb
       0.023584062 -0.02191141 0.085360155 -0.0054807705
0000b0 4c 29 b1 3c a2 b3 ad 3a be 17 96 bb 8e 4d a8 3d
       0.021626137 0.0013252387 -0.004580467 0.082179174
0000c0 8c f8 77 3d 5e 62 79 3d 85 55 59 3d d9 dc 47 3d
       0.060539767 0.060884826 0.053060073 0.0487946
0000d0 be 78 f9 bb 5b 36 a9 bc d7 88 13 3c 64 12 42 3d
       -0.0076132705 -0.020655802 0.009004793 0.04738082
0000e0 7d 44 92 3c 19 e5 23 3d 13 d1 b7 3d 1b d7 e5 3b
       0.017854923 0.040013406 0.089754246 0.007014168
0000f0 1f 09 44 3d e2 dd b5 3b 60 b7 9c bc c7 86 5a bc
       0.04786026 0.005550132 -0.019130409 -0.0133377975
000100 fc 2e 99 bc ef 87 9b 3d 5c 4a 02 3d 8f 15 8c 3d
       -0.018699162 0.07594287 0.031809196 0.068400495
000110 46 c0 84 3c ab 5c d6 3d 40 8a 15 3d a2 a4 2f 3d
       0.016204964 0.10466894 0.0365088 0.042881615
000120 9e ff 03 3d 83 b4 91 bc 49 a6 a3 3d 49 9d 72 3b
       0.032226197 -0.01778627 0.07990701 0.0037020019
000130 aa 0e 1c bb 75 cf b1 3c a1 fd 95 bc c4 08 94 3d
       -0.0023812451 0.021705369 -0.018309416 0.072282344
000140 9c 95 38 3d 77 49 92 3a 4c e9 71 3d cc 41 0a 3d
       0.045064554 0.001116081 0.05906038 0.033754155
000150 18 97 4f 3b 44 94 73 3c 04 a1 15 3d fa c9 0b 3d
       0.0031675752 0.014866892 0.03653051 0.034128167
000160 14 8a 99 3d 07 39 d9 3d
       0.074970394 0.1060658

weight f4 [30, 90]
000000 f8 00 1a 3e af 76 ee 3d 83 78 b6 3c 3e 7e 71 bd
       0.15039432 0.11643731 0.022274261 -0.058958285
000010 b2 9f 9e bd 8b fe 51 3d b4 48 97 3d 5f 0a 20 3d
       -0.07745303 0.05126814 0.07386914 0.03907239
000020 39 fd e8 3d b9 24 5d 3d 91 cb e0 3d ee 8c b2 3b
       0.113764234 0.0539901 0.10976327 0.005448929
000030 f0 67 8e bb 85 03 ae 3d 6e 8a d0 bd 74 35 10 3e
       -0.0043458864 0.08496765 -0.10182653 0.14082891
000040 88 46 29 bd 91 07 90 3d 88 54 3d bc 23 80 50 bd
       -0.04132703 0.07032693 -0.011555798 -0.05090345
000050 35 6c 11 3e 19 9c eb 3d 39 87 96 bc 5c 00 20 bd
       0.14201434 0.11504383 -0.018375026 -0.039062843
000060 d7 c4 2d 3d 52 d0 a4 bd b4 7d cb bd 40 c6 25 3e
       0.04242405 -0.080475464 -0.09936085 0.16188908
000070 42 50 02 3e 79 ae c2 3d 7c 8d a5 3d b0 b1 05 3e
       0.12725928 0.09505934 0.08083627 0.13056064
000080 b5 54 30 3e 7b fa fa bd f6 6f c6 3d 29 30 a0 bd
       0.17219813 -0.122548066 0.096893236 -0.07821686
000090 a2 2b 21 3e 05 ab a8 bd 6e 11 2a bd 02 36 44 3c
       0.15739301 -0.082357444 -0.04152053 0.011975767
0000a0 6a 4d 45 3e d2 2f d6 3c 4c c6 86 bd 4a e0 51 bd
       0.19267812 0.02614585 -0.06580791 -0.05123929
0000b0 c8 cc ec 3d 45 49 cd 3d ad 19 d0 3c fd 9f e9 3d
       0.115624964 0.10023741 0.025402868 0.114074685
0000c0 7b e8 1c 3d 95 39 70 3d 78 82 d5 3d a5 20 b8 bb
       0.03830765 0.058648665 0.104252756 -0.005619126
0000d0 ba e3 92 bb 6c 36 09 3d bf 47 3c be 72 6c 0c 3d
       -0.0044827135 0.033499166 -0.18386744 0.03428311
0000e0 6a 04 b2 bd d8 f5 7c 3d 34 ff 17 3d a7 88 2f 3e
       -0.08692248 0.061757892 0.037108615 0.17141972
0000f0 8f 4a 99 bd b0 4d 27 3e e0 10 03 3e da 9c 93 bd
       -0.07484924 0.16338229 0.12799406 -0.072076514
000100 84 d0 a9 bc 39 71 0a be ad 58 32 be 95 7b 02 bd
       -0.02072931 -0.13519754 -0.1741664 -0.03185614
000110 a0 ee a8 3d 6c 88 ec bc c7 2b 6a bc c6 d3 cf 3d
       0.08248639 -0.028873645 -0.014292664 0.101478145
000120 09 e5 01 be 5d ed 2b bd e2 8c 5d bd bd 14 9a 3d
       -0.12685026 -0.041974414 -0.054089434 0.07523487
000130 ca 89 00 be 30 81 1b 3d d9 18 bb bd 0b 5e 7e 3d
       -0.12552562 0.037965 -0.09135599 0.062101405
000140 1b 44 85 bc 7e fc e4 bd 80 7b 19 3e b2 d7 b0 bd
       -0.016267827 -0.111809716 0.14988518 -0.086348906
000150 47 ae 31 be cc 15 ba bc 6a a9 ac 3d e0 1f 94 ba
       -0.17351638 -0.022715472 0.08430751 -0.0011301003
000160 07 86 06 be bd da d8 bd 30 9a a9 bd 4a 83 78 bd
       -0.13137065 -0.10588596 -0.08281362 -0.060672082
000170 e9 a2 4d bd 34 cf 9e bd a2 90 e4 bc 4b 06 f6 3d
       -0.05020419 -0.077543646 -0.027900998 0.12012919
000180 7b f0 c5 3c a8 8c fd 3d 3d 04 c1 3d 24 52 ff bd
       0.024162522 0.12380344 0.094246365 -0.12466839
000190 aa d4 4a 3e 81 d5 ac bd 7e 69 42 bd 25 48 dd bb
       0.19807687 -0.0843916 -0.047463886 -0.006752985
0001a0 57 22 49 3d 9c 16 14 3d c4 d3 cb bc 70 ca 21 bd
       0.049105015 0.036154374 -0.024881251 -0.0394997
0001b0 07 d2 3d 3d ab 90 92 bd 1d 29 ba bd 38 3f 05 3e
       0.046342876 -0.071564995 -0.09089873 0.13012397
0001c0 af 8d b3 bc 1e d8 22 3e 47 ce 6b bd c9 72 05 3c
       -0.021918146 0.15902755 -0.05756977 0.008145043
0001d0 35 f7 a8 bd dc 1c 06 3d 21 6c ce 3c 63 14 f3 bd
       -0.08250276 0.032742366 0.025198044 -0.11869123
0001e0 fa aa ef 3c b0 af 43 3e 6b 1e 0e bd 4c 41 d6 3d
       0.029256333 0.19109988 -0.034696978 0.10461673
0001f0 a5 42 d7 3d b7 8a 1d bd cc 14 04 3e 8c bd 05 be
       0.10510758 -0.038462367 0.12898558 -0.13060588
000200 5d ea f9 bd cf 5a 18 be 09 a5 0b 3e 38 67 db bd
       -0.122029044 -0.1487839 0.13637175 -0.10713047
000210 94 84 a3 bd 48 15 5f 3a 64 6d 0d be e6 58 22 be
       -0.07984272 0.0008509946 -0.1381126 -0.15854225
000220 2b 5c 5d 3d 52 cd fd 3c fe b6 3c 3e 92 86 d0 bd
       0.054042976 0.030981693 0.18429181 -0.10181917
000230 49 d6 40 3e 38 b9 2a be 5f c5 2d 3d 80 90 b8 bd
       0.18831743 -0.16672218 0.042424556 -0.09011936
000240 ec 5c 2e 3d de 09 e0 bd 27 55 b6 3d 2b 30 67 3d
       0.042569086 -0.10939382 0.0890296 0.05644242
000250 90 90 12 3e 9a 17 ac bd 7b 66 d5 3d 09 fa 61 be
       0.14312959 -0.08402939 0.10419937 -0.22068037
000260 6d 48 9f 3d 5f a9 9a 3c 2e ee 21 3c 6c 43 af bd
       0.07777486 0.01887959 0.009883447 -0.085577816
000270 01 c2 6c 3c 60 eb 6b 3d 7b 50 37 3d e7 08 56 3e
       0.014450551 0.057597518 0.044754487 0.20901833
000280 73 81 c9 3c 0d 3d d6 3d f2 fe 97 bd c5 61 ea 3c
       0.024597859 0.10460863 -0.07421674 0.028611073
000290 13 f0 35 3e bf 25 fc bd 6c df 4c 3c f6 53 64 3d
       0.17767362 -0.12311887 0.01250444 0.055744134
0002a0 ab 62 87 3d 10 ed 0f be 56 3c 2b be de a3 a0 3d
       0.06610616 -0.14055276 -0.16722235 0.07843755
0002b0 4f 0d 0a 3e be 84 9e bd 4c 41 1b 3d 61 81 24 be
       0.1348164 -0.07740162 0.03790407 -0.16064979
0002c0 f7 0b 90 bd 2f d9 e5 3b 2e 95 17 be 6c c0 ce 3c
       -0.07033532 0.0070144157 -0.14803001 0.025238238
0002d0 b4 92 3e bd 33 b8 3c bd 3e 45 05 be 5f 5c bf bc
       -0.046526626 -0.046074104 -0.13014695 -0.023359476
0002e0 be ae 8e bd 2f 44 de bc 51 bc d1 bc c6 d0 bd 3d
       -0.06966923 -0.027132122 -0.025602492 0.09268336
0002f0 e7 fd d5 3d 20 41 d6 3d 71 42 b6 3d 53 47 f1 bd
       0.10448819 0.1046164 0.088993914 -0.11781182
000300 cc 6f 30 be 06 4a fb 3d b5 c3 63 be bc 2c 15 3e
       -0.17230147 0.12269978 -0.22242625 0.14567846
000310 df 52 b5 bd 48 2a 35 3d d0 d9 24 3e 4d 6e 99 3d
       -0.08853697 0.044229776 0.16098714 0.07491741
000320 9e b1 cc 3d 19 c5 d9 3d 32 ae e3 bd ab 3d 13 be
       0.09994815 0.106332965 -0.111172095 -0.14378993
000330 83 1d 07 3e d8 01 21 be 13 47 01 ba ca 6b 28 bd
       0.13194852 -0.1572336 -0.00049315504 -0.04111842
000340 35 ec b2 bd 17 79 ea 3d a3 55 4c 3d 9f cb bc bc
       -0.08736459 0.11448877 0.049886357 -0.023046313
000350 a2 85 b5 3d b1 f2 92 3d aa c3 34 3d 90 f5 54 bd
       0.08863379 0.07175196 0.044131912 -0.051992
000360 f8 96 4c bd 86 47 68 3d 34 64 01 3c 64 07 d2 bd
       -0.049948663 0.056708835 0.007897425 -0.10255316
000370 52 97 f5 bc 3d be d0 bd 63 d6 a1 3d 37 19 5b 3d
       -0.029979382 -0.10192535 0.07902219 0.053490844
000380 7a c6 d6 3c 78 3b 7e bc f2 84 e1 3d 47 0f 02 be
       0.026217688 -0.015517108 0.110116854 -0.1270114
000390 96 18 f1 bd ed c3 03 be 95 32 46 3b be 19 8f 3d
       -0.117722675 -0.12867709 0.0030242552 0.06987332
0003a0 41 73 4d 3d 6a 00 92 bd 70 d3 aa 3c 3f 5c 97 3d
       0.050158743 -0.07128985 0.020852774 0.073906414
0003b0 a0 c7 80 3d 3a d9 19 3b 90 00 2c be e5 52 b7 bd
       0.062880754 0.0023475424 -0.1679709 -0.08951358
0003c0 08 ee b6 bd 31 c5 1b be 36 d8 01 3e 71 31 9a bd
       -0.089321196 -0.15211941 0.12680134 -0.075289614
0003d0 15 d4 90 3c e4 fb 4d be 32 71 eb bd bf 68 e6 bc
       0.017679254 -0.2011562 -0.114962 -0.028126119
0003e0 92 db 04 bd 20 54 2c 3e b9 5d 9d 3d a9 84 87 3d
       -0.03243596 0.16828966 0.07683892 0.066171
0003f0 c7 1b 91 3d c1 3c 0a be f1 42 d9 bb cf dc dd bd
       0.07085376 -0.13499738 -0.0066302945 -0.108331315

bias f4 [30]
000000 88 ea c8 bc 91 39 d2 3c d9 af ed bd 81 64 e1 bd
       -0.024525896 0.025662215 -0.11605806 -0.11005498
000010 63 49 59 bd 03 9f 9a bd b2 02 e1 bd 7e e6 80 bd
       -0.053048503 -0.0754986 -0.10986842 -0.06293963
000020 fb d7 53 3d a7 bb 08 3d b9 18 46 bd 01 82 ee 3d
       0.051719647 0.033382084 -0.04836342 0.1164589
000030 e5 43 9e 3d ab 64 c5 bd 49 5f cb bc 9e 8d 29 3e
       0.077277936 -0.096383415 -0.024825709 0.16557929
000040 7f 85 2a bd 31 53 38 3d 16 4c bc 3d 9d 17 4a bd
       -0.041631218 0.045001213 0.091942 -0.049338926
000050 b3 29 a2 bb e0 4a 06 3d d4 ab 70 3d 60 48 26 be
       -0.0049488186 0.03278625 0.058757618 -0.16238546
000060 0c 1d 0e 3d c0 0e e8 3d de b8 ba 3d d7 ee 18 bd
       0.03469567 0.11330938 0.09117292 -0.03733715
000070 b1 1b 62 bd b5 bb 43 be
       -0.05520219 -0.19114573

weight f4 [90, 30]
000000 e0 37 f9 3d 52 7c fd 3d 4b 90 5c 3d 1f 15 23 3e
       0.121688604 0.12377228 0.053848546 0.15926026
000010 64 8f 0d 3d 70 14 37 bd e0 c0 4b bd 8e 48 ee 3c
       0.034560576 -0.044697225 -0.049744487 0.029087331
000020 b1 fc 5a bc 5d 0e 91 3d 91 eb f5 3d 74 a7 16 3e
       -0.01336591 0.07082818 0.12007821 0.14712316
000030 4e 96 94 bd 19 9d 8a bd 48 77 a5 bd a3 e6 3d 3d
       -0.07255231 -0.06768245 -0.08079392 0.04636253
000040 b3 21 5f be a7 c7 0b be 0b dc 96 bd 02 75 94 bd
       -0.21790199 -0.1365038 -0.073661886 -0.0724888
000050 59 aa ba 3d be 9e 2d 3e 97 c9 00 3e 00 d7 37 3e
       0.091145225 0.16955087 0.125769 0.1795311
000060 de e0 48 3c 47 cc 9e 3d 00 27 ea bb 30 5e 5e be
       0.012260644 0.077538066 -0.0071457624 -0.21715617
000070 eb 9f 46 3e 2c 98 3f be 25 d6 b3 3d 37 b2 24 3d
       0.19396941 -0.18710393 0.08781079 0.04020902
000080 93 6e 22 3d 4e c0 5a 3d d5 52 9b bd c0 de 2d bc
       0.039656233 0.053406052 -0.07584158 -0.01061219
000090 fe 15 19 3d bb 28 4d 3d 2b 8d d6 bd 3d c1 16 be
       0.03737449 0.05008767 -0.104761444 -0.14722152
0000a0 82 e4 57 3d a7 0f dd 3d c2 ef 6c 3d e5 30 95 bd
       0.052708156 0.10794001 0.05784584 -0.072847165
0000b0 af 43 0e 3d 41 df 03 bd cd 88 eb 3d 27 d4 bc 3d
       0.034732517 -0.032195333 0.11500702 0.09220152
0000c0 5e f5 2b 3b 9b 3a 25 3e 2a eb 1f bd 6a 96 02 be
       0.002623878 0.16135637 -0.03904263 -0.12752691
0000d0 b8 1c 78 bd e3 5c 0f 3d 55 c4 b5 bc 3e 58 6e 3d
       -0.060574263 0.035000693 -0.022188345 0.058189623
0000e0 d9 ac 20 be 79 02 3f 3d 80 ca 53 bd b0 6f b4 bd
       -0.15690936 0.046633217 -0.05170679 -0.08810365
0000f0 f1 e0 2d 3e c2 67 17 be 14 45 b2 bd f9 93 35 3c
       0.1698034 -0.14785674 -0.08704582 0.011082643
000100 ad fc 1b be 30 ba 53 bd 51 f0 43 3d e5 3c 02 3c
       -0.15233107 -0.051691234 0.047836605 0.007949089
000110 a7 dc 8e bd 23 1b 43 3e 04 1e 7a bd 70 d4 69 3d
       -0.0697568 0.1905332 -0.06106378 0.05708736
000120 3f 72 1e 3e 60 5f 03 3e 40 97 81 be 0d f1 15 3e
       0.15473269 0.12829351 -0.25310707 0.14642735
000130 f0 e9 83 3d ad a0 00 3e 34 a9 1a 3e 6c 46 31 3d
       0.064411044 0.12561293 0.15103608 0.04328005
000140 64 cc ee bd f0 86 8a bd c3 9d 8a 3c f7 8d 15 be
       -0.11660078 -0.067640185 0.01692093 -0.14604937
000150 54 e7 19 be 2b c4 2f 3d 4e 90 33 bd 63 0f 2f bd
       -0.15029651 0.04291169 -0.04383879 -0.042739283
000160 9d 8f 48 3e 24 11 c1 bc f3 40 51 3d a1 a8 8a 3d
       0.19586034 -0.023567744 0.05108733 0.06770445
000170 c4 39 00 be f9 f8 3b 3d bf b7 84 3d cc 55 63 3d
       -0.12522036 0.045891736 0.06480359 0.055501744
000180 d1 84 2c be 09 c4 a9 3d 5c 9b 38 bc 11 6c 65 bd
       -0.1684754 0.08289344 -0.011267509 -0.056011263
000190 52 ec f5 bc ab 5b 23 be 03 c8 55 3d 0d ba 54 bd
       -0.030019913 -0.15952937 0.0521927 -0.051935244
0001a0 44 6d cc 3b 0d 17 fc 3c 29 f1 ab bd e5 4d 94 bd
       0.0062386114 0.03077271 -0.08395607 -0.0724142
0001b0 1c 83 89 3d 3e b6 f5 3b 39 5a 0a 3e ea 4a 7a bd
       0.0671446 0.0074985316 0.1351098 -0.0611066
0001c0 c5 6e 18 3e 94 0a 01 3e 6e d1 b4 bd 97 a4 72 bd
       0.14886005 0.12601691 -0.08829008 -0.059238996
0001d0 79 f5 e6 3d f8 fd 21 3e f3 00 c3 39 31 c9 13 3d
       0.11277289 0.15819538 0.00037194006 0.036080543
0001e0 97 bd 1b 3e c4 d5 1e 3e 2e 5a ef bb 9e 1b ea bc
       0.15209042 0.15511233 -0.0073044514 -0.028577622
0001f0 95 d6 15 3e 5b 6a 02 bc 68 2e 2b 3d b8 ac ce 3d
       0.14632638 -0.007959927 0.041792303 0.10091537
000200 fc 64 21 3c f6 b5 30 3e 1d 32 ba bd 82 66 01 3c
       0.009850737 0.17256913 -0.090915896 0.007897975
000210 50 18 cc 3d 9f 26 08 be 80 d1 12 be 56 83 5c bd
       0.09965575 -0.13295983 -0.1433773 -0.05383619
000220 c6 d5 cd bd 14 b5 03 be f8 cb 1a bd 9a 05 fa 3d
       -0.1005054 -0.12862045 -0.037792176 0.122081
000230 3f 37 e3 3d 95 d0 61 3e a2 3e b2 bd 7d 9c 20 be
       0.11094522 0.22052224 -0.087033525 -0.15684696
000240 a0 3f 87 3d e7 88 4c 3c 3d d6 64 3c 46 49 2e be
       0.066039324 0.012483812 0.013967094 -0.17020139
000250 9d d7 80 bc 96 4b c2 bd 01 58 34 3e 89 9d 5c 3e
       -0.015727812 -0.09487073 0.17611696 0.2154447
000260 3b f8 92 bc d4 3c 1d bd fe f8 1d 3e 46 80 33 bd
       -0.017940631 -0.03838809 0.15427014 -0.043823503
000270 81 c7 11 be 85 7a 04 be b8 77 a5 3d b5 12 0a be
       -0.14236261 -0.12937362 0.08079475 -0.13483699
000280 a4 05 38 bd f5 85 f9 3d 65 e5 01 3d b6 72 e2 3d
       -0.044927254 0.121837534 0.03171291 0.110570356
000290 98 74 0e 3e d0 63 b5 bc 4b 3a 52 bc d4 d1 29 be
       0.13911664 -0.02214232 -0.012831281 -0.1658395
0002a0 ae 14 f1 3d 8f b2 a3 bd 80 68 08 be 9d a9 5b 3e
       0.117715225 -0.07993042 -0.13321114 0.21451421
0002b0 d1 d4 35 3d 32 42 35 be ca cc 58 be 49 aa 82 3d
       0.04439241 -0.17701033 -0.21171871 0.063801356
0002c0 18 a7 9d bb 7d ef 1c 3e 09 52 f3 bc dd f3 75 be
       -0.004811179 0.15325733 -0.029702203 -0.24018808
0002d0 6e 5a 49 3e af 12 4d be 77 8f 40 bd e8 22 c4 3d
       0.19663402 -0.20026658 -0.04701182 0.0957697
0002e0 ca 24 a5 3d 42 91 fb bc 72 43 3c be eb 61 a3 be
       0.080636576 -0.030708913 -0.18385103 -0.31910643
0002f0 2c ee 3f be 01 a8 ed 3d 84 ac 04 be b8 22 26 3e
       -0.18743199 0.1160431 -0.12956434 0.16224182
000300 94 86 d5 bc 22 9e a8 3d b9 e6 0b 3e 05 9c 30 3e
       -0.026065148 0.082332864 0.13662232 0.17247017
000310 51 45 fe bc c7 26 d7 bd e3 f0 3b 3e 2e 16 1a bd
       -0.031038912 -0.10505443 0.1835361 -0.03761881
000320 e7 96 11 3e 62 13 1b 3e 47 bc 41 bd d8 c8 2a 3e
       0.14217721 0.15144113 -0.047298696 0.16678178
000330 93 fe 84 3d 1a c3 34 be f3 8f 0b be 18 d4 fc bd
       0.06493869 -0.1765255 -0.13629131 -0.12345141
000340 e0 e4 3f be 2d 57 16 3e 03 c4 ba bd 78 f4 1d 3c
       -0.18739653 0.14681692 -0.091194175 0.009640805
000350 a2 f8 0e bd 57 6f 0b be b2 4d f3 3d 09 6b 9c 3d
       -0.034905083 -0.13616692 0.118800536 0.07637603
000360 fe bb 88 bd e7 82 41 be e2 5d 2c be 7d 68 70 3d
       -0.06676482 -0.18897592 -0.16832688 0.058693398
000370 17 97 03 bd cf 14 ee 3d b3 eb fc bc 96 10 3f 3c
       -0.032126512 0.11625063 -0.030874109 0.011661669
000380 25 94 42 be f0 51 14 bd c9 57 bf bc c8 82 5d bd
       -0.19001825 -0.036210954 -0.023357289 -0.0540798
000390 1f 6f 4f 3c fe bb 9e 3d dc 59 99 3d 40 96 14 bd
       0.012660771 0.077507004 0.074878424 -0.036276102
0003a0 7f 48 3c bd 73 6b 91 3c 4f 3c b0 3d e8 36 1c be
       -0.045967575 0.017751431 0.08605253 -0.1525532
0003b0 4c 87 1a be 38 9c a6 3d 51 1e 3f bd 36 75 65 be
       -0.15090674 0.08135265 -0.04665977 -0.22407994
0003c0 44 da bf 3d ac 89 16 3e ee 1d 52 bd 42 15 c5 3d
       0.09367803 0.14700955 -0.051298074 0.09623195
0003d0 76 37 19 be 76 26 78 be 74 37 00 be dd dd a7 bd
       -0.14962563 -0.24233422 -0.12521154 -0.08196614
0003e0 6c b0 cd 3d 70 7d 79 3d f8 c0 8d 3d e5 9c 96 bd
       0.100434154 0.060910642 0.069215715 -0.07354144
0003f0 ed 2a de bc 18 5e a1 3d a2 3a 53 bd 11 0a e9 bd
       -0.027120078 0.07879275 -0.05156959 -0.11378873

bias f4 [90]
000000 9d 59 89 3d ee 52 74 3e 31 0f 8e 3e ae f8 4a be
       0.067065455 0.2385976 0.27745965 -0.19821426
000010 1f 7b 04 be 2f b1 07 3d 38 3c 61 3e 6c 8f 2d 3e
       -0.12937592 0.03312796 0.21995628 0.16949242
000020 bd 6b 9e ba 66 eb d1 3c 26 5f 77 3e 09 05 e8 3d
       -0.0012086552 0.025624942 0.2415739 0.113290854
000030 16 a9 f5 3d b0 27 53 3b a2 05 19 3e 96 f1 4f 3d
       0.11995141 0.00322197 0.14943555 0.050767504
000040 1c 6e 07 3e e2 83 46 3e d7 6b 0d b9 c0 94 19 3e
       0.13225597 0.19386247 -0.00013486981 0.1499815
000050 2e 85 97 3e 2a a9 f6 3d a7 00 fa bd b3 7c 26 bd
       0.29593796 0.12043984 -0.12207156 -0.040646266
000060 6f b6 89 3e 94 e9 13 bd 79 16 42 3e c4 b7 27 be
       0.26896998 -0.03611143 0.18953885 -0.16378695
000070 49 51 80 3c e1 fb 73 3d fb 7e bd bd 69 75 8f 3e
       0.01566376 0.059566382 -0.09252735 0.28019264
000080 11 bf 3f bd 5b d2 19 be 1a 1e a6 3e f7 1d 18 3e
       -0.046813074 -0.1502165 0.3244484 0.1485518
000090 12 a0 5c 3d 38 38 ce 3b 99 a4 b2 3d 6b dc fc 3c
       0.053863592 0.006293323 0.08722801 0.030866822
0000a0 c3 04 9f bc 83 3b 7b 3d fc bc ea 3c f8 d0 5c bd
       -0.01941145 0.06133605 0.028654568 -0.053910226
0000b0 51 15 72 3e 81 6d d1 3b 75 48 32 3e e3 79 cf bc
       0.23640944 0.0063912277 0.17410453 -0.025326675
0000c0 1b 40 35 3e 8d 19 12 3e 84 a4 86 bd 63 e5 0f 3d
       0.17700236 0.1426756 -0.065743476 0.03513087
0000d0 14 76 6c bd d4 2a 98 3d 4c f4 ab bd 14 2e 62 3e
       -0.057729796 0.07430044 -0.08396205 0.2208789
0000e0 04 8f 82 3e 0f 12 0f bd d7 86 0a be a9 7e 47 3e
       0.25499737 -0.03492933 -0.13528 0.19481911
0000f0 44 8f 14 bc 41 a5 e3 bc 16 86 3b 3d 32 7a 04 bd
       -0.00906736 -0.02778876 0.04578217 -0.032343097
000100 b5 89 c1 3a af 12 74 3d 40 3d 09 3d b7 26 12 bd
       0.0014765771 0.05958813 0.03350568 -0.035681453
000110 5b d4 93 bd 54 d2 ef 39 b0 48 04 3e 58 b5 29 3e
       -0.07218238 0.0004574234 0.12918353 0.16573083
000120 a8 be 88 bd 4b 87 ab 3e 8e a5 c3 bd a0 aa 26 bd
       -0.0667699 0.33501658 -0.095530614 -0.040690064
000130 b6 1c cc 3d ee 08 0b 3e bc b3 84 3e ed 4d 35 3e
       0.09966414 0.13577625 0.25918376 0.17705508
000140 3f 49 aa 3d 89 50 03 3d ca f9 1e 3e 1f c7 9f 3e
       0.08314752 0.032059226 0.15524974 0.31206605
000150 0f 03 62 bd c7 f2 3b bd 6c 78 80 bd a4 9d 82 3d
       -0.0551787 -0.045885827 -0.06272969 0.06377724
000160 0e 10 36 3e 0e 25 9b 3e
       0.17779562 0.30301708

weight f4 [270, 90]
000000 06 38 fb 3b b3 e9 6c bd e0 d7 ce 3c 22 1e c3 bd
       0.0076665906 -0.05784006 0.025249422 -0.09527232
000010 29 1a ae bd e4 ee e9 3d 0a 45 07 3e 35 83 96 3c
       -0.085010834 0.11422518 0.1320993 0.018373111
000020 8b 86 a2 bd 6a fd 2a bc 67 70 8e bd 3a f5 a3 3d
       -0.07935818 -0.010436395 -0.06955033 0.08005758
000030 f2 c6 96 bb 58 fa ad bc e7 52 ca bc 4d 6c 33 3e
       -0.004601353 -0.021237537 -0.024697734 0.17521782
000040 c9 8b 98 bd aa e1 89 3d 90 04 cf bd cb ff 06 bd
       -0.07448537 0.06732495 -0.10108292 -0.032958787
000050 bd 25 7c 3d 48 01 39 bd 7f e0 df bc 6b b5 d0 bd
       0.061559428 -0.045167238 -0.027328728 -0.10190853
000060 57 fc 6f 3d 9d fb 86 bd b4 b3 04 3d 79 3c ac 3c
       0.05859026 -0.0659096 0.03239794 0.02102493
000070 65 bd 87 3c 5b 1e 8f bd 59 4b 80 bd e7 b7 cb bd
       0.016569803 -0.06988212 -0.062643714 -0.09947186
000080 47 30 d2 3d 33 f2 94 bd 61 92 9a bd 3d e2 52 bd
       0.102631144 -0.07272758 -0.07547451 -0.05148529
000090 35 61 03 bb 39 36 f7 bd 45 a0 e2 3d fc 2c dc bd
       -0.0020046954 -0.12070889 0.11065725 -0.107507676
0000a0 82 80 e0 3d 29 12 a6 bd 3c 5f 8e bd 46 19 9f bd
       0.10962011 -0.081089325 -0.06951758 -0.077684924
0000b0 e6 c4 39 bd 93 a9 88 3d 2b 31 8c 3d f1 a5 d9 bd
       -0.045353793 0.06672969 0.068453155 -0.10627354
0000c0 fd 3a c0 3d 0a 15 db bb b8 a6 db 3c 6c 3a 0c 3e
       0.09386251 -0.0066858577 0.026812896 0.13694161
0000d0 21 70 f7 bc a8 33 9f 3b 48 6f 41 3d 3c 30 42 3d
       -0.030204834 0.004858453 0.047225267 0.04740928
0000e0 0f da 0e bd c6 f5 87 3c 9c ee cc 3c 18 f1 c8 bc
       -0.034875926 0.016596686 0.025016122 -0.024529025
0000f0 12 29 4d 3d 61 ed de bc af 11 9e 3d 8e 6d 79 3c
       0.050087996 -0.0272128 0.07718217 0.015223874
000100 0c 9d 13 3d 64 d2 0c 3e fe 68 b5 3d a4 55 9e bd
       0.036038443 0.13752133 0.08857916 -0.077311784
000110 74 66 a0 3d 7f ba b6 3d f5 a9 0a be e0 26 31 bd
       0.078320414 0.0892229 -0.13541396 -0.043249965
000120 a1 21 02 3d 3f 2d c3 3d 17 39 9d 3d 13 82 d7 3d
       0.031770352 0.095301144 0.07676905 0.105228566
000130 db 44 0f 3d 8f 0f 13 3d 18 40 af bd fa 31 d9 3c
       0.034977775 0.03590351 -0.08557147 0.026513088
000140 a7 49 d7 3d fe 89 cb 3d df 0a ae 3d fe 42 0d 3d
       0.10512095 0.09938429 0.08498167 0.034487717
000150 ed f6 98 3d 03 2a 38 bd 49 86 11 bd c4 2e bb 3d
       0.07468972 -0.04496194 -0.035528455 0.09139779
000160 5e 0f 61 3c 4f ae 05 bd 27 a1 f8 3c de 85 56 bd
       0.013736574 -0.032636937 0.03035028 -0.05237376
000170 fe 13 66 3d 1e 9e 27 3d 3d 0e ca 3d 0b 91 de 3d
       0.05617141 0.040922277 0.09865997 0.108675085
000180 2d 1c d7 3c 4b dc 8b 3c c7 0e 08 bd b3 9d 5f bb
       0.026258552 0.017072817 -0.033217218 -0.0034121096
000190 bd 7c f8 3d 3c d5 aa bd be f7 3c bd e4 40 7e bd
       0.12133167 -0.083414525 -0.046134703 -0.062073603
0001a0 33 3a 55 3c a1 a1 aa 3d f3 a9 27 3d 25 c6 4a 3d
       0.013014364 0.083316095 0.04093356 0.04950537
0001b0 0e ed cb 37 b1 0b 88 bd cc 06 62 3d 0f 9c 7e bd
       2.4309873e-05 -0.06642855 0.055182263 -0.062160548
0001c0 74 a2 34 3d 7d 0c 05 3d 2d e6 c7 3c 6b 89 64 3c
       0.04410024 0.032482613 0.024401749 0.013948779
0001d0 5f b5 36 bd 83 0b 2d bd c3 ea df 3c 16 19 55 bd
       -0.044606563 -0.042247307 0.027333623 -0.052025877
0001e0 84 48 64 3d 81 b9 fe bc 6b 91 57 3d 2d f5 34 3c
       0.05573322 -0.031094315 0.052628916 0.011044783
0001f0 3d 3b b1 3c 97 63 8c ba c5 3c 66 bd cf 8e 2b 3d
       0.021634692 -0.0010710832 -0.056210298 0.04188424
000200 76 85 49 3d 3d 5f 7d 3d 09 6e db bd be f7 46 3d
       0.049199544 0.061858404 -0.10714347 0.04857611
000210 fa 0e a0 3d 52 c7 ff bc 77 98 9e bd 43 d3 da 3c
       0.078153566 -0.031222973 -0.07743924 0.026712066
000220 7a 75 4d 3d 40 63 c9 bd e9 78 5e bd 4c 26 49 bd
       0.050160863 -0.098333836 -0.054314528 -0.04910879
000230 0f 01 ff bc 91 f6 90 bd 7e 44 da 3c 76 db 31 bd
       -0.031128434 -0.07078279 0.026643988 -0.043422185
000240 b6 8b 93 3d 92 9d c9 3d 2f f0 58 bd f3 e1 f1 3c
       0.07204382 0.09844507 -0.052963432 0.029526686
000250 03 ad 99 bd ca 1f 5a bd 3c c0 a1 bd 51 47 97 bd
       -0.075037025 -0.053252973 -0.07897994 -0.073866494
000260 86 32 dc 3c f7 9b 3e bc 36 44 c1 bd c5 65 7c bd
       0.02687956 -0.011633865 -0.09436838 -0.061620492
000270 a6 8a 5a 3d f9 e7 b0 3d 08 bc 34 bd f1 9a 1d bd
       0.05335488 0.08637995 -0.044124633 -0.03847784
000280 fc 3e c9 3c 32 4d 3a 3d 1f d8 91 3d 8b 23 38 bd
       0.024566166 0.045483775 0.071213 -0.04495577
000290 a8 85 95 3d da 46 d2 bd 24 83 80 3c 7f ac 6f bc
       0.073008835 -0.1026742 0.015687533 -0.014628529
0002a0 a4 26 e0 bc 87 f6 e5 3c 29 f1 13 3d 32 95 fd ba
       -0.027362175 0.028071655 0.03611866 -0.0019346832
0002b0 25 d9 a3 3d 53 d1 d2 3d d8 a9 c6 3d b1 40 8f 3c
       0.080004014 0.10293832 0.09700364 0.017486902
0002c0 51 ff 3e bc 39 8a 43 3d 29 d0 68 3c 51 ea 98 bd
       -0.011657552 0.04773924 0.0142097855 -0.07466567
0002d0 1b fb 85 3d 47 86 82 3d 45 54 50 bb fd 31 d9 bc
       0.06542035 0.063732676 -0.003178851 -0.026513094
0002e0 ef e3 a8 bd e4 f8 35 bd d2 0b 00 be ec cc c2 bd
       -0.082466 -0.044426814 -0.12504509 -0.09511742
0002f0 ba 2a 71 3d 7f c0 3a 3d 06 13 95 bd 47 36 6a 3d
       0.058878638 0.045593735 -0.07279019 0.05718067
000300 b1 73 f4 bd 2f 19 bc 3d 9e 4a f0 bc ce 35 76 3d
       -0.11936129 0.09184491 -0.029332455 0.060109906
000310 c8 94 22 bd 5e 42 fa 3d 28 7a b2 3c 98 be ac bd
       -0.03969267 0.1221969 0.021786764 -0.084347904
000320 da 3e 80 3c 02 5c 9c bc e1 df 3b 3c 0b f0 e2 bc
       0.01565497 -0.019086841 0.011466951 -0.027702352
000330 17 76 74 bb 68 f3 18 39 e1 ce c0 3d c7 cf bd 3d
       -0.0037301832 0.00014586526 0.09414459 0.09268146
000340 27 a6 32 3d 69 b9 b0 bd e5 6c 94 3d fd a9 af 3b
       0.043615486 -0.08629114 0.072473325 0.0053608404
000350 78 95 67 bd e6 c3 e4 bd 30 e4 ad 3d 7d a5 20 3d
       -0.05653903 -0.11170177 0.08490789 0.039220322
000360 62 41 e2 3d 81 8c 00 be 32 9d b0 3d 5a ea b6 bd
       0.11047627 -0.12553598 0.086237326 -0.08931418
000370 8b 19 ba 3d 52 ee c3 3d f9 55 1d 3d c0 86 a6 bd
       0.09086903 0.0956694 0.038412068 -0.0813117
000380 14 99 56 3d c1 ec 9f 3d f3 35 6f bd e1 bf b6 3d
       0.05239208 0.07808829 -0.05840106 0.08923317
000390 eb c8 6a 3d cc 4c 7c 3c 7c 36 a4 3d 93 4c c9 bc
       0.057320517 0.015399169 0.080182046 -0.024572646
0003a0 c7 55 e8 bc e9 c0 86 bd 1c 8d a1 bd c3 c1 8e 3d
       -0.028361214 -0.065797634 -0.078882426 0.06970551
0003b0 55 cd 99 3d 6a ff 25 bd a4 d0 34 3d 13 98 c6 3d
       0.07509867 -0.040526785 0.044144288 0.096969746
0003c0 17 de be bd 4f 42 d1 bd 2e 49 13 3e bf 35 7b 3d
       -0.09319704 -0.102177255 0.14383385 0.061330553
0003d0 d7 12 5f bd c6 24 d6 bd 49 5a a9 bd d7 4f dd 3c
       -0.054461326 -0.10456233 -0.08269174 0.02701561
0003e0 21 01 98 bd 24 80 a5 3d 45 a3 13 3b 57 cb c1 3d
       -0.0742209 0.080810815 0.0022527736 0.09462612
0003f0 e8 94 c0 bc 80 a3 8c 3d 34 cc 86 bd 19 d2 10 3d
       -0.023508504 0.06867123 -0.065819174 0.035356615
