knn/models/pretrained-autoencoder/autoencoder-in_features120-latent_size10.pt (torch, 133025 bytes, 12 tensors)

weight f4 [90, 120]
000000 ca 5a e8 3c ce 5e 6f 3d c5 69 90 3c 14 a1 3e bb
       0.028363604 0.058440022 0.01762856 -0.002908771
000010 c4 72 87 3c c4 b6 3e bd d8 93 b9 bd 68 1d 18 bd
       0.016534217 -0.046561018 -0.09061402 -0.03713742
000020 46 00 b8 bd 32 18 15 be e8 17 b2 bd b0 a1 d5 bd
       -0.08984427 -0.14560011 -0.08695966 -0.1043123
000030 13 7f 97 bd a1 e3 eb bd 7a 46 1a bd f9 31 9e bd
       -0.07397284 -0.11518026 -0.037664868 -0.07724375
000040 7a 9f 7b bd 72 4d ab 3a e2 f7 88 bd 8b db ab 3c
       -0.061431386 0.0013069345 -0.06687905 0.02097871
000050 66 a4 b4 bc 26 5b d7 3c bf d0 71 3c da 60 b3 3d
       -0.022051048 0.02628858 0.014759242 0.08758707
000060 35 64 a1 3d ce 0f 93 3d 69 97 ca 3d 9e 4b b1 3d
       0.07880441 0.07180749 0.098921604 0.08657001
000070 30 4e a2 3d 4d 7b 44 3c 3c 51 a5 3d 3e 9c 39 3c
       0.07925069 0.011992288 0.08072135 0.011328755
000080 a3 26 40 3d 63 33 8c 3c e7 54 78 bd 7b ba c0 3a
       0.046911847 0.017114347 -0.060627844 0.0014704013
000090 f4 61 ee bc 3e be 53 bd 5b ea cd bd ee 4f 7f bd
       -0.029099442 -0.0516951 -0.100544654 -0.062332086
0000a0 1b 56 ac bd 39 83 01 be 40 22 98 3b c9 b6 96 bc
       -0.08414861 -0.12647714 0.004642755 -0.018397706
0000b0 78 3c d5 bc a4 14 4d bd a4 87 54 bd f5 eb 34 bc
       -0.02602981 -0.050068513 -0.05188717 -0.011042585
0000c0 ef 96 55 bd 06 e4 2f 3d 1e 8c 29 3d 18 f1 95 3d
       -0.052145895 0.04294207 0.04139339 0.073213756
0000d0 3a de 9a 3d 69 0b 69 bc 30 55 18 3d f8 cd af bc
       0.075619176 -0.014223912 0.037190616 -0.021460518
0000e0 ba 3a c3 3d 7f ec c2 3b 4a 05 75 3c 8d c5 06 3c
       0.095326856 0.0059486027 0.014954874 0.008225811
0000f0 92 9c c7 bc 02 00 24 3d 4a ab 10 3d 17 8d 8a 3d
       -0.02436665 0.04003907 0.035319604 0.06765192
000100 09 bb f1 bc b6 48 93 bc 9d dc 70 bd 68 8a 89 3c
       -0.02950813 -0.017979007 -0.058804143 0.01678963
000110 0e 75 cb 3c 4f 16 96 bc 11 e8 1c bc e5 76 e8 bc
       0.02483609 -0.018321184 -0.009576813 -0.028377006
000120 ba 46 fe 3a 31 5b 7d 3d f9 cb 7e bc e1 d8 06 3d
       0.001939974 0.061854545 -0.015551561 0.032921676
000130 80 ff 80 bc 4f 2f bd 3d 64 99 96 3d 3a 35 b8 bc
       -0.015746832 0.09237539 0.07353476 -0.022486318
000140 3c 0b 58 3d 90 ee a0 bc 24 bf ab 3d 38 2d ba bc
       0.05274509 -0.019645005 0.083860666 -0.02272664
000150 e8 cf 55 bc 9d 2b 76 3d 1d 5c 12 bc 50 55 7e 3d
       -0.013050057 0.060100187 -0.008933094 0.06209308
000160 97 96 27 bd e6 56 79 3b aa 78 15 bd 44 b1 92 bc
       -0.040915098 0.003804618 -0.036492027 -0.017906792
000170 cf 2b c9 3c 1f 84 e7 3c 00 84 c7 3c 94 d0 91 bd
       0.024557022 0.028261242 0.024354935 -0.07119861
000180 39 1c ff 3c 06 99 86 3c 90 b3 91 bd c6 15 1b 3d
       0.031141387 0.01643039 -0.07114327 0.03786256
000190 7b 48 7f bc ec 94 57 bc f0 1e 9d 3c 12 6e 35 3b
       -0.0155812455 -0.013158064 0.019179791 0.0027684015
0001a0 b5 69 87 bd db 78 5e bc 69 35 85 3c 04 f4 c9 3c
       -0.06611959 -0.013578619 0.01626082 0.024652489
0001b0 f8 9a 03 3d 16 7d 10 3d 52 69 27 bd 39 95 2e bd
       0.03213021 0.03527554 -0.040871926 -0.04262278
0001c0 c8 84 5c bc 15 6d 20 3d 45 3e a0 bd 3a ab 09 3c
       -0.013459392 0.03916653 -0.07824377 0.00840264
0001d0 13 6d 8a 3d 5c 3a be bc 15 3c a7 bd a7 b9 39 3d
       0.067590855 -0.023221187 -0.081657566 0.045343067
0001e0 fe b1 3c 3d 5f 75 97 3d 17 f2 c1 3d 63 f2 64 bc
       0.046068184 0.07395434 0.09470003 -0.013973805
0001f0 0f 9a 42 3d 3b 9f 9b 3d 36 15 e5 3c 4e 0c 3b bc
       0.047510203 0.0759873 0.027964216 -0.011416508
000200 af e4 a3 bd 2e 48 18 3d 73 3e 9b bc f1 ef 12 bd
       -0.08002602 0.03717821 -0.018950677 -0.035873357
000210 be ff a7 3c 30 92 42 bc 08 6f 77 bc 6e 77 3a bd
       0.02050769 -0.011875674 -0.0151021555 -0.045524053
000220 c8 ff 26 3d 99 21 9b 3b 6f 51 cd bc 48 1e 93 3d
       0.040771276 0.0047342298 -0.025063245 0.0718351
000230 59 57 76 3c 4e f3 a5 bc a7 39 50 bd a2 c5 98 3c
       0.015035474 -0.020257618 -0.05083623 0.018648926
000240 8b 2f 89 3c d6 21 8f bc 5e f6 93 3c 99 5c 7c 3c
       0.016746303 -0.017472189 0.018061813 0.015402936
000250 58 e1 3f bd 36 e9 49 bd ea 4f f2 3c ab 8e d6 bc
       -0.046845764 -0.049294673 0.029579122 -0.026191076
000260 a4 e1 80 bd a6 a6 90 bd 39 7d 9c bd 4f 08 da bd
       -0.062930375 -0.07063036 -0.07641072 -0.10646116
000270 35 09 9d bd c6 d8 8a bb 30 86 b9 bd dc 41 8a bd
       -0.07667772 -0.004237267 -0.09058797 -0.06750843
000280 90 1f c3 bd 32 85 b4 bc 48 7b b4 bd 28 36 53 3b
       -0.095275044 -0.022036169 -0.088125765 0.0032228325
000290 7c c4 b8 bc 1a 6e 3c bd 8a f1 2a bd b2 4a 31 3d
       -0.022554629 -0.04600344 -0.041734256 0.043284126
0002a0 65 91 8a bb 75 37 75 bc 77 23 37 3d aa 46 62 bd
       -0.004228758 -0.014966835 0.044711556 -0.05524317
0002b0 23 cb 19 3c c4 2b a5 3d ec fa 58 bd c1 28 bc 3c
       0.0093868105 0.08064988 -0.052973673 0.022968652
0002c0 5b d0 2c 3c 5c 8c 90 3d 9d 3b af 3c 36 43 a0 bb
       0.010547723 0.070580214 0.02139073 -0.0048908247
0002d0 cb 8e 74 3d 50 d7 ee 3c af ff 0f bc f9 13 bc 3c
       0.05970649 0.029155403 -0.008788987 0.022958742
0002e0 ec 36 67 3d 13 b0 d8 3c 14 4a 9b 3d 95 ba 58 3c
       0.056448862 0.026451146 0.07582489 0.013228078
0002f0 33 82 00 bd 73 8e 64 3d aa 9f d7 3c bd 48 57 bd
       -0.031374168 0.055799913 0.026321251 -0.052559603
000300 25 fe 2d 3c 38 e4 08 3d ce 9c 7d 3d 17 63 60 bd
       0.010619675 0.03342077 0.06191712 -0.054782
000310 53 e8 13 3d b5 46 65 bd 96 fd ae bc 02 e5 6d bc
       0.036110234 -0.055975635 -0.021361154 -0.014519932
000320 d7 45 ab 3c f3 08 1e 3d d6 d8 1d 3d b4 09 53 3d
       0.020907326 0.038582753 0.03853687 0.051522925
000330 93 1b 2c 3d e6 24 0f bd 3b 01 37 3d 58 e5 d1 3d
       0.042018484 -0.0349473 0.044678908 0.10248822
000340 a9 10 91 3d 94 2f 96 3d d9 92 ee 3d 9e a6 04 3e
       0.07083256 0.073332936 0.11649103 0.12954184
000350 d4 e2 ea 3d ea a9 dd 3d e3 7f 90 3d eb a8 1e 3e
       0.11469045 0.10823424 0.070556425 0.15494125
000360 66 94 1a 3e e3 c9 b6 3c 20 05 03 3e 06 3c 64 3d
       0.15095672 0.022313064 0.12794924 0.055721305
000370 28 f4 79 3d 35 87 15 3d de 19 71 3d 42 bf 44 3c
       0.06102386 0.036505897 0.05886256 0.01200849
000380 91 f7 e0 bb 25 77 10 3d 0b 8a 25 bd f1 ee 26 bd
       -0.0068654497 0.035269875 -0.04041485 -0.040755216
000390 2e ce 94 bd 9a 66 bc bd 3e 3a 95 bd e4 2c 93 bd
       -0.07265888 -0.09199257 -0.072864994 -0.071862966
0003a0 e0 9e a9 ba 88 c7 8c bd d6 79 50 3b 70 94 98 bc
       -0.0012941025 -0.06873995 0.00318109 -0.018625468
0003b0 98 67 9e ba e2 4c f5 bc 3d be 4a bd de bd 92 39
       -0.0012085317 -0.029943887 -0.04949783 0.00027988752
0003c0 26 8b 8c bd ef 5f 29 bd d0 d1 86 bd 34 79 82 3d
       -0.06862478 -0.041351255 -0.06582987 0.06370774
0003d0 59 89 b0 bd f3 b9 dd 3b 1b ec a6 bb 6b ee 0c 3d
       -0.08619947 0.0067665516 -0.005094064 0.03440706
0003e0 59 2b 27 3d 32 74 73 3c b7 2e aa 3d e4 71 67 bd
       0.040812824 0.014859246 0.083096914 -0.0565051
0003f0 15 82 df 3c 80 d8 17 3d 9f d3 70 3d 21 b9 42 3d
       0.027283708 0.037071705 0.058795568 0.047539834

bias f4 [90]
000000 6f 14 37 bd 9c 00 e0 3d 1b 00 fd 3d 4f e9 8b bd
       -0.04469722 0.10937616 0.12353536 -0.068316095
000010 c7 f7 72 3d 0e 68 3e bd 46 b2 aa bd 62 d1 82 bd
       0.05931833 -0.046485953 -0.08334784 -0.06387593
000020 2b d9 e2 3c bc 64 87 3a 54 ab ce 3d 2d 1d 40 3c
       0.027691444 0.0010329704 0.10091272 0.011725706
000030 00 dd 15 3e 5e 5c a7 3d 46 fc 0b 3e d2 66 77 bd
       0.14635086 0.081719145 0.13670453 -0.06040079
000040 f6 a0 4b bd 0e 28 4a bc ed d3 d0 ba 8f 55 8c bd
       -0.04971405 -0.012338651 -0.00159323 -0.068522565
000050 be 38 33 bd f4 98 1e 3e 1f 9e 75 3d cb 31 03 3d
       -0.043755285 0.15488034 0.05996525 0.03202991
000060 30 5c f2 bc 17 d7 42 3d a2 1a 05 be c9 13 05 bd
       -0.029584974 0.047568407 -0.12998441 -0.03248957
000070 63 e4 c8 3d 34 bf 3f bd 8b db 4f 3d 88 0f 8b 3d
       0.09809186 -0.046813205 0.050746482 0.06790072
000080 6d c7 c2 3d bc eb b0 3d c1 da 31 bd 9e 5f a8 3d
       0.09510694 0.08638713 -0.04342151 0.082213625
000090 04 39 1c bc 74 98 98 bc 27 5a 4c bd 9d 99 06 3e
       -0.009535078 -0.018627383 -0.049890663 0.13144536
0000a0 74 ee 1f b9 77 16 81 3d 48 fb 40 3d 34 e8 29 3e
       -0.00015252252 0.06303113 0.04711464 0.16592485
0000b0 62 c5 aa bd aa 5a c0 3c c2 51 67 3d c9 f9 c6 bb
       -0.08338429 0.023480732 0.056474455 -0.006072257
0000c0 44 a7 01 3e 17 1a 05 bd 20 c8 c4 3d dd b6 0a be
       0.12661463 -0.032495584 0.09608483 -0.1354632
0000d0 fb 15 36 3e d2 7e 09 bd cc 91 01 be d4 bb 97 3d
       0.17781822 -0.03356821 -0.12653273 0.07408872
0000e0 c3 c6 39 bd c1 71 c2 bc 27 18 89 bd cb 13 81 bd
       -0.04535557 -0.023735883 -0.0669406 -0.06302603
0000f0 ac e4 96 bb ed 00 08 3e 6b a6 56 3d 1e bb ce 3c
       -0.0046048965 0.13281603 0.052404802 0.025235709
000100 19 c6 9b bd 50 49 5f 3e 8b 2a c2 bc 9a 76 0f 3c
       -0.076061435 0.2180531 -0.023701927 0.008756304
000110 8f 27 c0 3c c2 39 df 3d 40 87 4c bc b3 1a e3 bd
       0.023456363 0.10899688 -0.012483418 -0.11089077
000120 dd d8 36 bd 6b 85 fc 3d f6 99 4e 3d db 4a aa 3d
       -0.04464041 0.12330135 0.050439797 0.08315059
000130 78 dc b1 3c 41 72 41 3e 5b 6d 9e 3c 36 1a f2 3d
       0.021711573 0.1889124 0.019339254 0.118214056
000140 0d 95 45 3d 99 42 0b bd 5d 00 95 3c d7 9d d0 3d
       0.04823785 -0.03399906 0.01818865 0.101863556
000150 18 e8 96 3d b6 1b cc 3c 49 17 45 3d f5 0e 31 bd
       0.07368487 0.024915557 0.04811791 -0.043227155
000160 09 0e ae bd 76 0b 58 bc
       -0.08498771 -0.013186326

weight f4 [30, 90]
000000 f6 77 c7 bc b0 49 44 bd 7b ae 07 39 7e 44 4f 3c
       -0.024349194 -0.047921836 0.00012939602 0.012650607
000010 a4 02 0b 3d e8 72 77 3c 80 a6 59 3d b1 d7 95 bb
       0.033938065 0.015103079 0.053137302 -0.0045728316
000020 f7 4c 08 3e 05 fb 25 3e 1f ef 30 bd 57 06 4e bd
       0.1331061 0.16209038 -0.043196794 -0.050299015
000030 57 11 2a 3e 5f c3 8d 3d 85 c7 c2 ba c7 58 27 3e
       0.16608177 0.0692203 -0.0014860487 0.1634246
000040 d0 77 0a 3d d1 a8 01 3d e8 7e 41 3c 4a 60 9a 3d
       0.03380567 0.031655136 0.011810042 0.07537897
000050 ac fb cf 3d 14 81 89 bc ac e2 b9 bd f1 df 0d bd
       0.101554245 -0.016785182 -0.09076437 -0.034637395
000060 9b b9 5e 3c a6 13 a8 3c 58 81 9b 3b a6 b3 6b 3d
       0.0135940565 0.020517182 0.0047456436 0.057544373
000070 7e 1b bb 3b f9 1a fa 3c 16 16 25 3d 15 b1 0b 3c
       0.0057100644 0.03053044 0.040304266 0.008526106
000080 28 99 d8 3d da 15 66 bc 88 3e 3c bd 51 13 90 3d
       0.10576087 -0.014043296 -0.045958072 0.07034934
000090 c1 73 cf 3d 8a 4a 0c 3e a7 7d 3a bd 88 87 24 bd
       0.101295 0.1370031 -0.045529988 -0.040168315
0000a0 63 36 c7 3d 4a d1 33 bc c0 3c 25 3e 6a e3 57 3d
       0.0972717 -0.010975191 0.16136456 0.052707113
0000b0 56 fc b4 3d 0a 43 b4 bb 6a 6b 8c 3d 33 4c 28 bd
       0.08837192 -0.0055011557 0.06856425 -0.041088294
0000c0 58 d7 69 3c 76 08 f2 bb b7 e7 2d 3d 96 99 10 bd
       0.014272533 -0.0073862625 0.04245731 -0.03530272
0000d0 4a 8a 29 3e 12 18 61 3c 97 99 36 3d 76 ab b3 bc
       0.1655666 0.013738649 0.04458007 -0.021932345
0000e0 36 ec 0f 3e 67 d0 89 bd 00 17 8b 3c e8 49 19 bc
       0.14054951 -0.06729203 0.01697874 -0.0093559995
0000f0 1f 51 b6 3b 45 9e eb bc a8 16 3a 3d cb 2c 9f 3d
       0.0055638696 -0.028761992 0.045431763 0.077722155
000100 92 72 81 bd c4 ea dc 3d 2e d8 4b bd 86 1d c3 bd
       -0.06320681 0.107869655 -0.049766712 -0.095271155
000110 f4 94 38 3e e9 5b 4c 3d 99 67 81 3c 81 f7 81 3c
       0.18025571 0.04989234 0.01579647 0.01586509
000120 b0 d9 ac 3d c7 23 8b 3d 3f fe 04 3e 58 75 08 3d
       0.08439958 0.06793933 0.12987612 0.033315033
000130 bb 4a d2 3d cd a4 13 bd 71 9b 8a bc 3c 78 cf bc
       0.1026816 -0.03604584 -0.016919823 -0.025325887
000140 fd 9a 40 3d 41 10 9b bd 63 e9 91 3d 50 3d 39 bd
       0.04702281 -0.075714596 0.07124593 -0.045224488
000150 40 be a3 bb a3 d2 c5 3c 47 61 d5 bd f0 ab ff 3d
       -0.004997045 0.024148291 -0.10418945 0.12483966
000160 7d 7a c8 3c 1b 32 ed bc 2e 07 9d 3d 40 2d 4d bc
       0.02447247 -0.028954556 0.07667385 -0.0125229955
000170 be 47 ee bd 27 24 0e bd 80 7a 81 bc 0c 4f 9c bd
       -0.116347775 -0.034702446 -0.015805483 -0.076322645
000180 00 4d 85 3b a5 3e 4a 3d b1 87 cd bc d4 a3 84 bd
       0.004068017 0.04937615 -0.025089117 -0.0647656
000190 68 bf 17 bc 29 42 9a 3c 8e 0d bd bc 3b 3e c4 3d
       -0.009261943 0.018830376 -0.023077752 0.09582182
0001a0 0b 49 b9 3d 45 43 d5 3d 32 a0 3a bc aa 70 c0 3c
       0.09047135 0.10413221 -0.011390733 0.023491222
0001b0 26 2a 81 3d 8d 03 e8 bd ce 42 32 3d f8 73 5c 3d
       0.06306867 -0.11328802 0.04352074 0.053821534
0001c0 e2 2f 4f 3d 3f 43 62 bb 15 65 ce 3d e8 ad cf 3b
       0.050582774 -0.0034524945 0.100778736 0.00633787
0001d0 99 c7 89 bd 7e 02 18 3d d7 04 98 bb 30 cd 23 bd
       -0.06727523 0.03711175 -0.004639249 -0.039990604
0001e0 98 a4 98 bd b8 04 4c 3c d2 3b 21 bd 33 59 c8 3d
       -0.07453269 0.012452297 -0.03936369 0.097826384
0001f0 7b c2 4b 3e 7f 53 90 3d 23 30 be 3d 1a 8c 19 3e
       0.19898407 0.070471756 0.09286525 0.14994851
000200 75 25 62 3e b1 06 d5 bc ae 82 ab 3d 3c 11 2c bd
       0.22084601 -0.026004167 0.083745345 -0.042008623
000210 3c 08 88 bb 38 36 e2 3d ae 49 f7 3c ac 99 35 bb
       -0.0041513722 0.11045498 0.0301865 -0.0027710004
000220 66 f8 3b bd 66 de 5c bd 06 50 5a bd 1e 12 a8 3e
       -0.045891188 -0.053923033 -0.053298973 0.32826322
000230 24 25 67 3d fc 91 4f 3d e0 88 bd bd 4f cc 8c bd
       0.056431904 0.05067633 -0.092546225 -0.06874906
000240 b1 63 8e 3e 87 71 92 bd 8f 6a e1 3d d1 16 00 3e
       0.27810434 -0.0715056 0.110066526 0.12508704
000250 51 14 ef bd cf de 61 3d 39 d4 1f 3e 7b 21 d2 3c
       -0.11673797 0.055144127 0.156083 0.02565073
000260 35 eb c8 3d 67 38 6c bd 1a 98 44 3e 42 3c 0e bd
       0.09810487 -0.057670977 0.19198647 -0.034725435
000270 17 cc ea bc 22 75 a3 3d 91 6a b2 bd 6b c2 5a 3d
       -0.02866177 0.07981326 -0.08711732 0.053408068
000280 53 52 0d be 47 9e a2 bc 4e ec 0d be 13 ea 0b bc
       -0.13800935 -0.019850863 -0.13859674 -0.008539694
000290 53 4a 88 3d 71 6f c7 bd 48 de 75 3d c9 de e0 3d
       0.06654801 -0.09738053 0.060026437 0.10979993
0002a0 d2 06 97 3d b7 ff cc bd e2 7e a7 bc 32 ca 40 bd
       0.07374348 -0.10009711 -0.020446245 -0.04706783
0002b0 74 41 b4 3d 1b a0 f8 bc 79 1e e0 bd b2 48 94 bc
       0.08801547 -0.030349782 -0.10943312 -0.01810107
0002c0 66 ab 06 3d db c4 bb bd b1 9a c9 bd d6 a5 c2 bc
       0.032878302 -0.091684066 -0.09843958 -0.023760717
0002d0 6b 1d 8c 3c 2e 7c 53 3d 4c 7b e2 3c c0 30 fa 3d
       0.017103871 0.0516321 0.027646683 0.122163296
0002e0 c7 a0 ae 3d 33 c0 05 bd 0b ea 9b 3d c6 b0 ff 3d
       0.085267596 -0.032654 0.076129995 0.12484889
0002f0 9c 3a 13 bd e7 d9 e3 bb 21 1b 31 3e 12 3d b3 3c
       -0.035944566 -0.006953466 0.17295505 0.021879707
000300 19 05 d5 3d ed 84 03 3c cb b2 b5 3d 50 85 ea bc
       0.10401363 0.008027297 0.08871993 -0.028628021
000310 a8 d5 3e 3e 94 78 71 3d 09 b8 6e bc 03 06 c7 bc
       0.18636191 0.058952883 -0.014570245 -0.024294859
000320 eb 34 8c bd d7 f6 1c 3e eb ba 33 bd ad 9d c9 bd
       -0.06846031 0.15328537 -0.04387943 -0.098445274
000330 f3 3a ba 3d 17 b2 2d bc fb 33 b4 bd 0a 47 a4 bd
       0.09093275 -0.010601542 -0.08798977 -0.08021362
000340 c5 6c 98 3c 1a b6 b9 bc 3a 1f d3 3a ba 36 c8 3c
       0.018606553 -0.02266984 0.0016107329 0.024440158
000350 9c fa b8 3c 20 db 31 3b 3e 14 94 bc 82 32 69 bc
       0.022580437 0.0027138665 -0.018076058 -0.014233233
000360 3c 1e 05 3e 19 d5 81 3e 6d 66 4a bd 05 26 39 3e
       0.12999815 0.25357893 -0.049414087 0.1808091
000370 04 51 02 3e 64 ad db 3d 18 ab 31 3e 01 fc 50 3d
       0.12726218 0.10726431 0.17350423 0.05102158
000380 6e db 81 bd 69 4d 95 3d 55 3d e0 3c 51 a8 78 bb
       -0.06340681 0.072901554 0.027372995 -0.0037942121
000390 16 6e a1 3c cd ed 8e bd eb df ae 3d d6 19 88 bd
       0.019705813 -0.06978951 0.08538803 -0.06645553
0003a0 c0 87 91 bd 2e 34 d9 3d f1 80 a5 3c a5 f5 1d 3e
       -0.071059704 0.106056556 0.020203086 0.15425737
0003b0 42 b6 2c bd 44 29 ca 3c 40 04 7b 3c 6d a5 23 3c
       -0.042166002 0.02467788 0.0153208375 0.009988171
0003c0 f3 16 04 3e 31 29 b0 3d d1 6c 27 3d 3f ec 4a bd
       0.1289938 0.08601607 0.04087526 -0.049541708
0003d0 2b 1a 40 bd 3b 5d 1e 3e 42 78 31 3d 72 d2 df bc
       -0.046899956 0.15465252 0.043327577 -0.027322028
0003e0 54 3c 1a 3d 25 0d 34 3e db 49 7e 3d 2d 34 ec bc
       0.03765519 0.17583139 0.062082153 -0.028833473
0003f0 be 76 15 3e 3c 2e 24 3d 14 1c a0 3c 7c 4b 16 3e
       0.14596078 0.040083155 0.019544639 0.14677233

bias f4 [30]
000000 b5 0d 08 3e dc d4 10 be 66 b1 9f 3d 03 4b 27 bd
       0.13286479 -0.141437 0.07797508 -0.04084302
000010 47 1e 26 3e e1 e2 37 3d 4a c8 fe bc 94 ac f4 3d
       0.16222487 0.044894103 -0.031101365 0.11946979
000020 e2 db c0 bd 68 31 98 bd ec 75 0c bc db 49 44 bd
       -0.09416939 -0.074312985 -0.008573037 -0.047921997
000030 5c ab 0c 3e ea 6e b4 3c f5 8b 69 bd 16 04 3e 3e
       0.13737243 0.022025544 -0.05701824 0.18556246
000040 65 fe 88 3d c6 81 3f 3a 42 8f 13 ba e6 1a 18 3e
       0.06689147 0.00073054095 -0.0005628952 0.14854011
000050 ce ad 46 3d 6a de 6b bd 69 82 ae bc 3c af e0 3d
       0.048505597 -0.057585157 -0.021302419 0.10970923
000060 ed 2c 8c bd 1d eb 99 bd f7 e3 b7 3d 65 1b 89 3e
       -0.068445064 -0.075155474 0.08979028 0.26778713
000070 c3 54 d5 3c 5d 3e 93 bd
       0.026041394 -0.07189629

weight f4 [10, 30]
000000 df 2f a3 3e 24 5e c6 3e 13 96 71 3e f0 8e 89 3e
       0.3187246 0.387437 0.23592405 0.26866865
000010 69 14 1d 3a 3f b3 07 bf 67 fd be be d1 26 27 bc
       0.0005992116 -0.5300788 -0.37302706 -0.010202126
000020 a8 90 93 be a4 8b a6 3e cb d4 67 be 7e 02 2c 3d
       -0.288213 0.32528412 -0.22639768 0.041994564
000030 f1 72 41 3e 54 26 38 3e 63 85 98 be 17 b8 ac bd
       0.18891503 0.17983371 -0.29789266 -0.0843355
000040 8f d2 27 3d 9b 65 67 be e1 25 3a 3e 03 4e ee 3d
       0.04097229 -0.22597353 0.18178512 0.11635973
000050 c3 1f f9 3d 3f b5 6e 3e de ae 80 be 1c 4d c1 bd
       0.12164261 0.23311327 -0.25133413 -0.094385356
000060 ff 01 05 3e 1e f7 07 be 85 6c c0 3d c7 45 b5 3d
       0.12989043 -0.13277861 0.093956985 0.088511996
000070 c8 0f 11 3e 5e 83 35 3d 33 ec a1 be 58 c3 d2 3e
       0.14166176 0.044314735 -0.31625518 0.4116466
000080 ef b1 a6 be 60 1b ce be c7 85 b0 3e 56 a0 a0 3d
       -0.32557628 -0.4025526 0.34477064 0.07843082
000090 27 39 bc be 8e 7f 4e bd dc 50 b7 be df f6 c0 bd
       -0.36762354 -0.050414614 -0.35803878 -0.09422087
0000a0 5e 23 8c be 6c 10 1b be b2 2e 82 bd 04 19 57 3e
       -0.27370733 -0.15142983 -0.06356563 0.21005636
0000b0 aa eb 3b 3e cc 76 92 bd fd 13 01 be d7 a4 85 3d
       0.18351617 -0.07151565 -0.12605281 0.06525581
0000c0 bd ec 49 3d 32 97 a4 3e 9a b2 23 3e 69 92 27 be
       0.049298037 0.32146603 0.159861 -0.16364445
0000d0 b9 9c d1 3e 8d 75 c7 be ba e2 d5 bd 43 69 87 3e
       0.40939882 -0.38956872 -0.10443635 0.26447496
0000e0 f9 63 58 3e ee 6c 73 be 6e 6e 96 3d d7 31 90 bd
       0.21131887 -0.23772022 0.073452815 -0.07040756
0000f0 39 a8 37 3e 01 aa e4 bd 65 de f2 3d 12 83 86 be
       0.17935266 -0.11165238 0.11858825 -0.26271874
000100 fb f3 4d 3e b4 2a ef be 9f f8 b5 3c c4 df 17 3e
       0.20112602 -0.46712267 0.022213278 0.14831454
000110 9f ec 2a 3e 4d f2 ca bd 3b a6 6a 3e 47 8f 11 bd
       0.16691826 -0.099094965 0.22914974 -0.03553703
000120 88 86 6a bc 71 36 0d 3e 01 f1 8f 3e f8 93 89 be
       -0.014314301 0.13790299 0.2811356 -0.26870704
000130 70 34 3d be 50 cc 94 3e 09 6c 95 3e 8c 75 dd be
       -0.18477035 0.29062128 0.29183987 -0.43253744
000140 1f 67 99 bc 06 dc 64 be 93 c5 7c 3e 37 62 45 be
       -0.01872593 -0.22349557 0.24684744 -0.19275747
000150 42 0d 8c 3d 04 5c b6 3d 10 ea 52 3d 5a 1d c2 bd
       0.06838466 0.08904269 0.05149275 -0.094782546
000160 93 2d c2 3d ad 08 b3 bd 1e f8 48 bd 77 e6 46 be
       0.09481349 -0.08741889 -0.049064748 -0.19423853
000170 06 0a 23 bd 8c a8 82 be 4a 11 a2 3e c5 21 e0 3d
       -0.03980448 -0.25519216 0.31653816 0.10943941
000180 a8 52 ef 3c e2 86 da 3d b4 57 80 3e 01 da fd 3d
       0.029214218 0.10670258 0.25066912 0.123950966
000190 4a 8b c5 bc 67 c1 47 bd 6c 43 23 3f 0a 44 53 bb
       -0.02411427 -0.048768427 0.6377475 -0.00322366
0001a0 06 18 6f be d0 00 60 3e 10 38 95 3e 46 d2 e1 3d
       -0.23349008 0.2187531 0.29144335 0.110264346
0001b0 3b a5 5e 3e 66 1e 84 bb 8e 2c 07 be 56 7f 53 3e
       0.21742718 -0.004031944 -0.1320059 0.20654044
0001c0 b2 55 22 3e eb c2 d5 be 78 b3 06 be a7 c7 36 be
       0.15853003 -0.41750273 -0.131544 -0.17849599
0001d0 3e ce 9e bd ec dd 84 3d 89 cc e1 3d 47 79 a4 be
       -0.07754181 0.06487641 0.1102534 -0.32123777
0001e0 17 03 9e 3d 69 57 c3 be 28 a2 b1 be 80 d7 9c bd
       0.07715433 -0.38152626 -0.34694028 -0.07658291
0001f0 ef 98 d7 3d 46 4b 68 be 35 e8 eb 3e 42 ab 39 3d
       0.10527217 -0.22684965 0.46075597 0.04532934
000200 2f 7c 76 3e 7b f0 46 3c ff fc ad be 26 af d9 3d
       0.2407081 0.012142296 -0.33982083 0.1062911
000210 27 85 c7 be 26 04 7e be 60 cc f5 bd dc c7 d6 3c
       -0.38968775 -0.2480627 -0.12001872 0.026218347
000220 10 8a a5 3e ba f1 77 3d 01 2b 8a 3e 72 5d cb bd
       0.32331896 0.060533263 0.26985934 -0.09929933
000230 f5 a2 b9 3d b7 6a d5 3c 2a bd 90 3d 8f ed 29 3d
       0.09064285 0.026051862 0.0706733 0.04148632
000240 09 e5 bf bd 12 a4 ab 3d b5 d1 63 bd 67 7b 2b bd
       -0.09369857 0.08380903 -0.055619914 -0.041865733
000250 0f 1c 92 3e 2d 78 ab 3e ad 8f 95 3e 66 3e 0a be
       0.28537032 0.33490124 0.29211178 -0.13500366
000260 dd 37 ac bc 29 9a cf be be f0 44 3d 00 b4 b1 be
       -0.021022731 -0.40547302 0.048081152 -0.34707642
000270 f9 ea 0c 3d a4 cb 2c be 77 0d db 3c eb c7 26 3c
       0.034403775 -0.16874558 0.026739819 0.0101795
000280 e3 24 1d 3d e0 0a 4b 3e 97 3b 81 3e 03 81 8b bd
       0.038365256 0.19828367 0.25240776 -0.068117164
000290 58 be 47 bc 35 21 d5 bc 21 ce d1 3d ed 1a 98 bd
       -0.012191378 -0.02601681 0.10244394 -0.07427011
0002a0 11 e0 77 be 94 ec 05 3f 4d f9 05 3e 77 64 89 3d
       -0.24206568 0.52314115 0.13083382 0.06708615
0002b0 75 cc af 3e 6c 17 32 3e bd 4e 8f bd 8f 78 b8 be
       0.34335676 0.17391747 -0.0699744 -0.3602948
0002c0 da 8f bc 3d 93 36 41 be e8 c7 1d be aa d2 a8 3d
       0.09207125 -0.18868475 -0.1540829 0.08243306
0002d0 1c 50 8e bb f5 a3 ae 3e 97 a7 8f bd 57 c9 d5 be
       -0.004343046 0.34109464 -0.07014387 -0.41755173
0002e0 aa a9 ba be 35 25 9e 3e 49 a6 93 be c5 1c a0 3c
       -0.36457568 0.30887762 -0.28837803 0.019544968
0002f0 eb 38 7b be e3 d5 b3 3d 14 79 54 3e 33 68 4a bc
       -0.24533431 0.0878103 0.20749313 -0.012353945
000300 0b 6a 66 be 75 cd ca 3e 19 8c 89 be bb 90 69 be
       -0.2250139 0.39609876 -0.268647 -0.22809117
000310 1f ba d9 3e 4c a5 16 3e 75 da 85 3e 37 6b 0b be
       0.42524812 0.14711493 0.26143232 -0.13615118
000320 d6 df 26 3e 6d 97 79 3d dc 8a b1 3e 06 b6 2c 3e
       0.16296324 0.060935427 0.34676254 0.16866311
000330 2a 52 02 3e 24 34 c4 be b5 97 51 be 26 6f 08 3e
       0.12726656 -0.3832103 -0.20468028 0.1332365
000340 3c a4 ea 3d 30 2f 99 3e dd fe 2b 3e df 8e 07 be
       0.114571065 0.29918814 0.16796441 -0.13238095
000350 c1 85 69 be ab 29 b1 3e d9 bb 9e 3e 11 e0 dd 3d
       -0.2280493 0.34602103 0.3100269 0.10833753
000360 d5 a5 77 be 58 c2 7f 3d 73 c4 49 3e 63 06 cd 3e
       -0.24184354 0.0624412 0.19703846 0.40043935
000370 6f 4e 88 3e 11 06 b8 be ee 07 17 be ae e3 b8 3e
       0.2662234 -0.35942128 -0.14749119 0.36111206
000380 57 71 ef bd 45 e9 de 3e 56 79 85 3d 3b a6 86 be
       -0.1169154 0.43537346 0.065172836 -0.262987
000390 c4 24 d5 bd 8b d5 6b bd da 54 83 3d 61 b5 f4 3c
       -0.10407403 -0.057576697 0.064126685 0.029871644
0003a0 82 f6 88 be 94 4b b4 bd 7e dd 60 3d 06 86 1f be
       -0.2675057 -0.08803478 0.05489873 -0.1557847
0003b0 ac 3f c4 bd 88 58 ff be bf 32 0b 3d 69 07 e1 3e
       -0.09582457 -0.4987223 0.033983942 0.43950966
0003c0 a4 13 19 3d f3 fb c0 3c 48 61 b9 bc 36 73 07 3e
       0.037372246 0.023557639 -0.022629395 0.13227543
0003d0 02 39 bf bd 0c 22 a2 3d 13 44 64 3d 99 88 6a be
       -0.09337045 0.0791665 0.055728983 -0.2290367
0003e0 c9 a8 dc bd 6a a8 34 3e 8a 17 9e 3d b3 0c b2 3e
       -0.10774381 0.1764237 0.077193335 0.34775314
0003f0 f6 b2 c4 3d 37 58 60 be 64 73 e1 bd cc 83 18 be
       0.096044466 -0.21908651 -0.11008337 -0.14894027

bias f4 [10]
000000 bf 66 42 3d 08 9e 19 3e 08 dc 7b be c8 8d 8b 3e
       0.047461268 0.1500169 -0.24595654 0.27256608
000010 97 c2 0b be 9b 99 67 be 10 4d 7b bd cd 29 04 3e
       -0.13648449 -0.2261719 -0.06135279 0.1290657
000020 5d 90 a1 bd 62 28 0e be
       -0.07888863 -0.13882592

weight f4 [30, 10]
000000 f7 54 66 be e7 78 ef 3d 48 b9 9e bb 72 45 b1 bd
       -0.22493349 0.11692982 -0.0048438646 -0.08655824
000010 7a f1 e7 3d f0 78 6b bc cd c1 43 3d 54 9a d5 bd
       0.11325355 -0.014372095 0.047792245 -0.104298264
000020 93 21 75 bd a4 3e e6 bd b5 e6 5b be d3 79 cc bd
       -0.059846472 -0.112424165 -0.21474726 -0.099841736
000030 bb ff b1 be e3 31 89 3e 07 c4 00 be 0c 21 61 be
       -0.3476542 0.26795873 -0.12574778 -0.21985263
000040 44 8c e1 3d b9 a6 30 3d ba fe b8 be bf 1d 03 bd
       0.11013082 0.04312775 -0.3613184 -0.03201079
000050 f0 0b 65 3d ff 36 0c be 22 0e 1f bd c5 e5 ee 3d
       0.055919588 -0.13692854 -0.038831837 0.11664919
000060 76 fd b0 bd 95 ce f7 bd 06 48 2a bd 61 80 be 3d
       -0.08642094 -0.12099949 -0.041572593 0.0930183
000070 7e 3e 88 be 8e d2 df bd a6 43 6d 3e 8b 54 33 3e
       -0.26610178 -0.10928832 0.23170337 0.1751272
000080 38 03 2a bb 1c 08 08 be 1e 0e 95 be 62 2d 7e 3d
       -0.002594186 -0.13284343 -0.29112333 0.062055
000090 83 b4 67 3e 8b 6a e7 bc ea da 0f bd 43 46 91 be
       0.22627454 -0.028249046 -0.035120882 -0.28373918
0000a0 7b 81 91 bc 94 3b 9e 3c 84 b6 3f be d4 d7 8a be
       -0.017761936 0.019315518 -0.18721968 -0.2711779
0000b0 61 20 51 be 9b db 73 be 41 50 44 bb aa 66 0e bd
       -0.20422508 -0.23814242 -0.0029955062 -0.034765877
0000c0 ca bb a2 bd a1 31 c9 3e af 33 b4 bd 7b 16 44 be
       -0.07945974 0.39295676 -0.0879892 -0.191492
0000d0 cc 7e 70 be 3a 31 4d be d2 f9 8c be 7c 9e 8c 3e
       -0.23485869 -0.2003831 -0.27534348 0.27464664
0000e0 9b 5c 64 be db 80 15 be c2 b1 5c 3c e4 6b 55 be
       -0.22300951 -0.14599936 0.013470115 -0.20841938
0000f0 92 4c 80 bd 5c 7b 9d 3e 6f aa 93 ba 85 02 30 3e
       -0.06264605 0.30758178 -0.0011266003 0.17188461
000100 e0 76 76 be 19 5d ca bd e2 14 92 be d1 2c 92 be
       -0.24068785 -0.09881038 -0.28531557 -0.28549817
000110 9a 20 74 bd 56 dd 86 3c b9 10 b1 3d d5 c3 8e be
       -0.059601404 0.016462963 0.08645768 -0.27883783
000120 96 7a a9 3d 0e f4 b2 3e 51 59 41 be 33 5b 69 be
       0.082753345 0.34951824 -0.18881728 -0.22788696
000130 7a 47 d8 3d cb 28 ca bd 51 bf fa bd c4 71 ab 3d
       0.10560508 -0.09871062 -0.12243522 0.083713084
000140 26 8a f6 bd 8e 59 00 3c 4e 48 c7 be f9 ad b8 3e
       -0.120380685 0.0078338515 -0.38922352 0.3607023
000150 3d 0a 31 be 2e 58 a3 3e 73 40 91 3c bf e1 ad 3c
       -0.17289062 0.31903213 0.017730927 0.021225808
000160 35 b4 ef be da 08 c7 3d 3b 35 3e 3e c3 fa 38 be
       -0.46817175 0.09718485 0.18574993 -0.18064408
000170 6c 3b 12 3e 9b 3c 98 be b5 72 ad 3d 6c 2f b9 3e
       0.1428048 -0.29733738 0.08469144 0.36168993
000180 d2 5d 58 bd f5 4e 33 bc 00 af c1 3d 0e e0 c2 bc
       -0.05282385 -0.010944118 0.09457207 -0.023788478
000190 85 ab a1 bd d5 cf 6a bd 47 9f 93 bd 9b f1 06 3f
       -0.07894043 -0.05732711 -0.07208114 0.5271241
0001a0 6a ae 82 bd 6d fd db be b1 5b 09 3e 76 8c e8 bc
       -0.06380923 -0.42966786 0.13413884 -0.02838729
0001b0 18 b9 2e be 6b 17 82 bd ac f1 26 3e 8e 3b b7 be
       -0.17062795 -0.06352123 0.16303128 -0.35787624
0001c0 a2 33 c2 bd 17 63 c6 3e 99 15 ed bd b1 68 1d be
       -0.094825044 0.38747475 -0.11576385 -0.15371968
0001d0 90 39 c6 3d 83 a0 95 be 8f 43 94 be e2 32 56 3b
       0.09678948 -0.29224023 -0.28957793 0.0032684137
0001e0 15 59 aa bd 90 a9 b4 bd f8 2d 3e 3e 57 3d f3 3d
       -0.08317772 -0.08821404 0.18572223 0.11876934
0001f0 20 d6 b3 bb a1 70 07 3d 2a 08 e8 3c f6 fd 0c 3e
       -0.005488172 0.033066396 0.028324205 0.13768753
000200 33 d5 c6 be 9d c9 0b be 2d 0e 06 3d 1a 90 d0 bd
       -0.38834533 -0.13651128 0.032728363 -0.10183735
000210 0a e3 3c 3d 47 39 36 be c7 61 80 3d fc cf d8 3d
       0.04611496 -0.17795287 0.062686495 0.10586545
000220 7b d8 b3 3e ac 2f c9 be 16 d7 71 be e8 4d f6 3d
       0.351261 -0.39294183 -0.23617205 0.12026578
000230 a7 20 76 bd cf 41 b9 bd 8e 26 60 3d 17 c2 e7 3e
       -0.060089733 -0.09045755 0.05472427 0.45265266
000240 bd 35 cc bc 28 75 39 3e 2a 3a 6e 3b 88 26 dc 3c
       -0.024927968 0.18111098 0.0036350586 0.026873842
000250 f5 49 48 be 0d 55 83 be 7f d0 10 be f7 0d 26 be
       -0.19559462 -0.25650826 -0.14142035 -0.16216265
000260 f1 c6 56 be 85 3a c0 3e 17 fe 29 be f9 8f 33 3e
       -0.20974328 0.37544647 -0.16600834 0.1753539
000270 62 ea de 3c 6b a0 bf bc 1e 9f 21 be 84 ca 51 be
       0.027211372 -0.023391923 -0.15783355 -0.2048741
000280 85 1b dd bd 2d 8f e6 bd e1 bb a1 be 0b 3b 4f 3e
       -0.107962646 -0.11257777 -0.31588653 0.20237367
000290 86 27 de bc f3 e9 ff bd ff 66 09 3e 37 79 d3 bd
       -0.027118456 -0.12495794 0.13418196 -0.10325854
0002a0 1c f8 f2 bd b3 76 ba 3d ec 6a 27 3e 0b 19 c4 3d
       -0.11863729 0.09104671 0.16349381 0.09575089
0002b0 34 e4 8e be a7 dd aa 3e 37 67 ae 3d aa 47 43 be
       -0.2790848 0.33372232 0.085157804 -0.19070306
0002c0 ce 8b 03 be 5a 95 5f bd fd 0a b1 be b5 49 13 bd
       -0.128463 -0.054585792 -0.34578696 -0.035958964
0002d0 9d 19 51 3e cc 35 9d 3d 26 74 a8 be 1e 79 96 3e
       0.20419927 0.076762766 -0.32901114 0.2938928
0002e0 de dc 8a 3e 0d 92 0f 3e 0e d6 3a bd 49 5c 10 be
       0.27121633 0.14020558 -0.045614295 -0.14097704
0002f0 a6 74 68 be ea fc 07 be 6f ee 8c 3d 6b a3 aa be
       -0.22700748 -0.13280073 0.06881415 -0.33327803
000300 c6 a6 b2 3c 2e d4 51 be 4d 3b 88 3e 78 f9 db 3d
       0.02180804 -0.20491096 0.26607743 0.10740942
000310 51 f4 9d 3e 39 56 a2 3e 2e ec b3 3d af 9d b1 bc
       0.3085046 0.31706408 0.08785282 -0.021681635
000320 91 6a c9 bd e2 aa 02 be b3 6e 97 3d 8e 32 8f bc
       -0.09834779 -0.12760499 0.07394161 -0.017480161
000330 b7 31 83 3d ce 9e 91 bc 85 21 0a 3d 99 fd 9a bc
       0.06405967 -0.01777592 0.033723373 -0.018919753
000340 11 26 6b 3c 20 25 c3 be ef 35 0e 3e 0b 9d c6 3d
       0.014352337 -0.38114262 0.13887762 0.09697922
000350 e2 1a 2f 3d 7e f6 6a bd 9e 31 0a be e0 c7 30 be
       0.042750247 -0.05736398 -0.1349549 -0.17263746
000360 c9 43 5d 3e 82 ff e8 3c 7e 17 04 3e 36 89 1b be
       0.21607889 0.028442148 0.12899587 -0.1518906
000370 e1 1c 58 3e a9 bd 11 be fb 35 8e bd 4a d2 17 3d
       0.21104766 -0.14232506 -0.0694389 0.03706578
000380 bd 40 28 be 1c bc 82 3c ec 93 00 bd 04 e7 75 3d
       -0.16430946 0.015958838 -0.03139107 0.060034767
000390 5f 12 ff 3d 9b 47 21 3e 58 c8 61 bc 84 5a c5 3d
       0.12454676 0.15749972 -0.013780676 0.09636405
0003a0 75 01 08 bd 03 81 d9 3d b6 ae 4e bd ba 4c 4d bd
       -0.033204515 0.1062031 -0.050459586 -0.050122
0003b0 07 a0 a0 be 4a 8a b0 3e 37 63 5c 3e 25 53 b4 bd
       -0.3137209 0.34480506 0.21522222 -0.08804921
0003c0 a1 70 61 3e d3 fd 2c be 20 b7 ee bd a7 c4 9c 3e
       0.22015621 -0.16893701 -0.11656022 0.30618784
0003d0 49 20 2a be 5b b3 8f 3d d7 a0 b3 bd 04 e8 a7 3c
       -0.16613878 0.07016631 -0.08770912 0.020496376
0003e0 f5 be 09 bf da cc 8b 3e 50 28 dd 3d 66 2f 71 3e
       -0.53807 0.27304727 0.107987046 0.23553237
0003f0 16 75 9d 3e e2 96 3f 3e df 4a ab 3e 3a 77 92 be
       0.30753392 0.18709901 0.3345556 -0.28606588

bias f4 [30]
000000 77 0f b4 3e d2 9b 91 3e 84 76 a6 3e ac d0 b6 3a
       0.3516805 0.28439194 0.32512295 0.0013947687
000010 df 77 58 bc 8e 79 47 3e 31 e0 56 3e 95 7f 74 3d
       -0.013212173 0.19479963 0.2098396 0.059691984
000020 a3 95 59 3e 94 01 78 3d 9b 4d f5 bc f7 41 87 3e
       0.21248488 0.06054838 -0.029944232 0.26417515
000030 e0 65 28 3f 15 1b 0e be 9f f5 13 3e 5d 11 1b 3e
       0.6578045 -0.13877518 0.14449166 0.15143342
000040 da 43 7a 3e f2 89 f6 bc 8c 13 15 3f 0c e2 ba bd
       0.24439946 -0.030095074 0.5823295 -0.09125146
000050 93 da 1f bd 99 da ee 3e 92 cc 14 be 81 14 9a 3e
       -0.039026808 0.46651152 -0.14531162 0.30093768
000060 17 c9 5a 3d 1c 5d 25 3d 16 d7 a5 3e a5 d1 1f 3e
       0.05341443 0.040372 0.3239066 0.15607317
000070 3f 9e 09 3e df 10 2e 3c
       0.13439272 0.01062414

weight f4 [90, 30]
000000 51 a8 99 3d b2 26 9d bd a5 46 94 bd e2 67 50 be
       0.07502807 -0.07673396 -0.07240037 -0.20352128
000010 d4 84 2d 3e b5 d8 07 3d 28 ec 2e be b7 df 21 be
       0.16945201 0.033165652 -0.17082274 -0.15807997
000020 73 f0 c6 3d 69 95 b0 3c 98 e6 11 3e d5 9f 18 be
       0.09713831 0.02155562 0.14248121 -0.14904721
000030 28 f5 ed 3c e0 61 ff bc f7 b5 be bd 35 99 08 3e
       0.029047564 -0.0311746 -0.09312051 0.13339694
000040 ad da 21 be 49 1d eb bd 57 95 1d be 1f 7a 57 bd
       -0.15806074 -0.11480195 -0.15389 -0.052606698
000050 03 bd f3 3d 88 36 e8 3d 87 e6 f0 3d 6e dd 15 be
       0.119012855 0.11338526 0.117627196 -0.1463525
000060 fb 32 26 be 78 ba a7 3c 2e 09 df bd cb 2e e6 3d
       -0.16230385 0.020474657 -0.10890423 0.11239394
000070 cc b3 2a 3d 72 73 9b 3c 77 a1 88 3d 4e 82 1a be
       0.041675374 0.018975947 0.06671422 -0.1508877
000080 ad 4d 0e be 8d 54 a9 bd 52 50 25 3c 5e c7 8e bc
       -0.13896818 -0.0826808 0.010089951 -0.01742905
000090 d4 39 9f 3b 66 65 e5 3c 11 37 f8 3d 8f 0c d5 3d
       0.0048591886 0.028002452 0.12119878 0.10402786
0000a0 58 58 11 3d 5c 1e 1a 3d 89 e0 7c bd 34 87 58 3b
       0.03548464 0.03762661 -0.06173757 0.0033039572
0000b0 5e a0 47 3d e3 5f 2a 3c d5 e3 d4 3d a4 23 53 3c
       0.048736922 0.010398838 0.10395018 0.012886915
0000c0 98 ae 55 3e b9 d1 7d bd cf 8e 1c 3c 0f 36 c0 bc
       0.20867383 -0.061967585 0.009555533 -0.023463277
0000d0 41 e1 d1 bc f4 ad 83 3d e7 4e ff 3c c3 ad 82 bd
       -0.025620105 0.06429663 0.031165553 -0.06380799
0000e0 72 20 ab 3e 1e 0e 88 3d 2a 31 be bc e2 5d ea bd
       0.3342319 0.06643318 -0.023216803 -0.11443688
0000f0 16 e2 c0 3d 16 ea cf bd b1 52 e1 bd a2 27 52 bd
       0.094181225 -0.1015207 -0.110021 -0.051307328
000100 e5 92 15 3e e1 b5 8d 3e 48 c6 88 3d a5 5f 71 bd
       0.14606817 0.27677825 0.06678444 -0.058929104
000110 ae 2a 8a 3e ec b4 bd 3d 6e 33 13 3d 45 30 bf bd
       0.26985687 0.09263024 0.03593772 -0.093353786
000120 3d 7b 09 3d 50 2f a2 bd 84 c4 a6 3d 45 11 38 bd
       0.033564795 -0.079191804 0.08142951 -0.044938345
000130 8e a3 91 3d 48 9c db 3d 89 cc 89 3d cc 58 1a ba
       0.07111274 0.10723168 0.06728465 -0.00058878656
000140 79 5b 58 3d 60 52 77 3d 90 fd b4 bd e1 37 33 3e
       0.05282161 0.060381293 -0.08837426 0.17501785
000150 bd b6 c1 3d 0a a1 43 be 4c 90 09 3e 67 57 0d be
       0.09458683 -0.191044 0.13433951 -0.13802873
000160 6f 4f 01 bd 7a 1e 1c be 78 ea 47 be 49 d4 ed 3d
       -0.031569894 -0.15246001 -0.19523036 0.11612756
000170 56 51 19 bd 85 b7 33 be fc 35 c5 3d 62 a9 31 bd
       -0.037431084 -0.17550476 0.09629437 -0.043374427
000180 5b 49 40 bd 5d 54 e6 bd e2 54 08 3c 60 bb 8c 3d
       -0.046944957 -0.1124656 0.008321019 0.068716764
000190 9f 1b ea 3d 22 43 a0 bb 85 6c d0 3d d1 e6 e0 bd
       0.114310496 -0.0048908154 0.101769485 -0.10981525
0001a0 6b 93 ae 3d 4c 8f 84 3d e4 f8 83 bd 39 a8 d3 bc
       0.085242115 0.06472644 -0.064439565 -0.02583705
0001b0 fb 50 90 bc f2 51 0e be 5a 78 14 3d 0e 6e 08 be
       -0.01761674 -0.13898447 0.03624759 -0.13323233
0001c0 92 06 dd 3c ed c5 36 be 2e d0 e0 bd dc 27 db 3d
       0.026980672 -0.1784894 -0.10977207 0.10700962
0001d0 9c d8 55 bd 9f 36 fa 3b de 9d b8 bd 08 61 2f be
       -0.052208528 0.007635906 -0.09014486 -0.17126858
0001e0 76 e5 26 3d 0d 10 03 be ee 86 f1 3d 45 ea a4 bb
       0.040746175 -0.12799092 0.11793314 -0.00503281
0001f0 b4 57 94 3a 3f 6f 2b bd 8f 90 be bd 96 97 9f bd
       0.0011317641 -0.04185414 -0.09304916 -0.077925846
000200 7b 54 c0 bd 47 49 f0 3c 22 b9 36 3e 1a 2d 2a 3e
       -0.09391113 0.029331816 0.1784406 0.16618767
000210 6f b9 33 3e dc 80 52 bd 78 94 b4 3e e0 f6 27 3e
       0.17551206 -0.05139242 0.35269523 0.16402769
000220 ca bc 07 3e 4c 2e 82 be f9 fa ef 3d e7 a9 d8 3d
       0.13255611 -0.25425947 0.11717791 0.10579281
000230 6d 15 1b 3e cb 3f c7 bd 28 3c bc bd 80 60 8e bc
       0.15144892 -0.097289644 -0.091911614 -0.01738
000240 12 ac de bd eb d7 41 bd 1b 2d 9b 3d 28 01 90 3d
       -0.108726636 -0.047325056 0.075769626 0.070314705
000250 09 a0 18 3e 96 e9 a1 3d 80 bf d9 3d 26 d2 b7 3d
       0.14904799 0.07905881 0.10632229 0.089756295
000260 c1 43 f0 bd fd 91 fd bd c8 11 66 3d bb 4b 8d bd
       -0.11731673 -0.12381361 0.0561693 -0.0689921
000270 da da bc 3d ad 58 23 3e 34 be 9c bd 9a 8d fd bd
       0.0922143 0.15951796 -0.07653466 -0.12380524
000280 73 98 45 3e 29 3a 18 3d 9f bf ce bd b6 de 0a 3e
       0.19296436 0.03716484 -0.100951426 0.1356152
000290 7d 42 64 3d 27 5b fe 3c d1 7d c1 3d fa 64 fb 3b
       0.05572747 0.031049324 0.09447826 0.0076719495
0002a0 0d 19 d8 3d 01 ae bc bd c0 67 da bd 5e 74 42 3d
       0.10551653 -0.09212876 -0.1066432 0.047474258
0002b0 51 51 85 bd fc 62 b7 bd 35 2b 18 3d 6a e0 e4 3c
       -0.065096505 -0.08954427 0.03715058 0.02793904
0002c0 ea e4 83 3e 4f 4d 06 bd 8c 33 dc 3b e4 9d 12 3e
       0.25760585 -0.03278857 0.006720012 0.14318043
0002d0 8e 56 02 3e a4 a2 cf 3d 1c eb 95 3d fb 1b fc bd
       0.1272833 0.10138443 0.07320234 -0.12310024
0002e0 9a 11 ae bd 43 6e a9 3e a9 17 36 3e a9 53 92 bd
       -0.08499451 0.33091936 0.17782463 -0.07144863
0002f0 31 5b 3b 3d de 15 ba 3d 77 bd 41 3d 10 34 59 3e
       0.045741264 0.09086202 0.04729983 0.21211267
000300 44 03 3b bd 49 7b 92 3c bc eb 42 bd ac 8c 32 3e
       -0.04565741 0.017881053 -0.047588095 0.17436475
000310 b7 5b 76 3c 9e 2e 21 be ff 36 88 be 0b cf 3e be
       0.015036515 -0.1574044 -0.2660446 -0.18633668
000320 cd d3 cc 3d b8 54 41 3c ea ab ae 3d ff e3 52 bc
       0.10001335 0.011799984 0.08528884 -0.012871741
000330 7b c1 02 be 46 5c 0f 3d ca e3 60 3e 49 53 fb 3d
       -0.1276912 0.03500011 0.21961895 0.12271745
000340 fe 22 4a bb 47 21 f7 3d 7d 58 9a bd 0b 68 43 3e
       -0.003084361 0.12066894 -0.07536409 0.19082658
000350 1c 9b 51 3e 68 32 ec 3b b9 7b c2 bd 0e ff 33 3e
       0.20469326 0.0072081573 -0.094962545 0.17577764
000360 40 cf b5 bc 69 64 d3 bd c5 89 78 bc 7a 4b 2c bc
       -0.022193551 -0.10321886 -0.015169566 -0.010516042
000370 b2 09 65 3e 10 e7 ca 3b b9 ae cd bd f1 31 4b 3b
       0.2236698 0.0061920956 -0.10043091 0.003100511
000380 13 c2 e9 bd 3e b2 40 3e 11 4a d7 3c 20 5d 5e 3e
       -0.1141397 0.18817994 0.026280435 0.21715212
000390 76 a9 d7 bd f2 9a 07 be f2 27 c0 3d 68 45 4e bd
       -0.10530369 -0.132427 0.09382619 -0.05035916
0003a0 ca 0b e5 bd df 3d 1c 3d 22 a3 dd bd 06 d1 12 bd
       -0.11183889 0.038144942 -0.10822131 -0.03584387
0003b0 eb d0 3d 3c 6c c9 a4 3e 1c ca b9 3b ee 8e 87 3d
       0.011585454 0.32184923 0.0056698453 0.066190585
0003c0 41 12 7a bd bc 6c 97 3d 80 50 52 3c e1 f8 e0 3d
       -0.061052565 0.07393786 0.0128365755 0.1098497
0003d0 df 6a 69 bd 4f fd 80 bd 53 8a 12 be e6 87 e2 3d
       -0.056986686 -0.06298315 -0.14310579 0.11061077
0003e0 75 67 8e 3c ba 86 07 3e d1 98 82 3d 14 d7 02 be
       0.017383317 0.13234988 0.06376804 -0.12777358
0003f0 a8 70 00 3c ba d7 8a bd 00 21 8a 3d 7f f9 48 3e
       0.007839359 -0.06779428 0.067445755 0.19626425

bias f4 [90]
000000 32 4a b9 bd c9 b4 1c 3e ae 97 6c 3e f2 80 a5 bd
       -0.09047355 0.15303339 0.23104736 -0.08081235
000010 29 80 b7 3d 2e a8 ac bd b0 5d 85 3e 83 51 fd 3b
       0.089599915 -0.08430515 0.2604804 0.007730664
000020 71 2e ee 3e 4b a4 aa 3d 69 77 e9 bc 7a 35 85 be
       0.46519807 0.08332118 -0.028499322 -0.26017362
000030 8d 12 c2 bd 0e 5d a7 3d 71 2b 3d 3e c1 e1 07 be
       -0.094761945 0.08172046 0.18473603 -0.13269712
000040 a1 0e c5 3e e3 61 f5 bd 33 71 45 be 39 60 be bc
       0.38487723 -0.11981561 -0.19281463 -0.023239242
000050 45 a8 32 be 4f 83 05 3e da d6 fd bd da 0a b8 bd
       -0.17447002 0.13038372 -0.12394495 -0.08986445
000060 fa d4 4d 3e da 9b e1 3d d1 fb 2e bc 65 dc a9 3e
       0.20100775 0.110160545 -0.010680155 0.3317596
000070 b5 49 85 3e 1d f7 a7 bd 28 45 8e 3e 57 68 1c 3e
       0.26032797 -0.0820143 0.27787137 0.15274177
000080 e3 5e f3 bc 40 77 41 3e 47 00 82 3e c0 ae 27 be
       -0.029708331 0.18893147 0.25390837 -0.16375256
000090 57 23 2d 3e 3e ad ba 38 26 f9 0c 3e 63 75 ed bd
       0.16908012 8.90144e-05 0.13766918 -0.11594655
0000a0 4d c4 bf bc 2c 67 2a 3e 1e 7b de bd f1 b9 ae 3e
       -0.023409033 0.1664092 -0.108633265 0.34126237
0000b0 d2 b5 ad 3d d4 4b 04 3d ee be 23 be 7e 7d 0a be
       0.08481945 0.032298878 -0.15990803 -0.13524434
0000c0 e6 b0 31 be 78 04 5d 3e 55 6b 07 3e be 7f 1c 3e
       -0.17352638 0.21583736 0.13224538 0.15283105
0000d0 9d c4 33 be 5e ef b9 3e 0c 3a 2e 3d a3 30 c9 bd
       -0.17555471 0.36315435 0.042535827 -0.0982373
0000e0 fb 5e 41 3e cc ed c8 3e cb b8 5e bc 56 c8 3f 3c
       0.18883888 0.39243925 -0.013593863 0.011705479
0000f0 5f ee c0 bd 58 5d 1a 3b f6 94 1e 3d ef c2 55 3d
       -0.09420466 0.0023554172 0.03871628 0.052187856
000100 ef 61 4c be c5 a9 fe 3e da 0b f9 bd fb e6 48 3d
       -0.19959234 0.497389 -0.12160464 0.049048405
000110 ab 24 13 bd 94 36 b4 3d e2 ca c7 3d c9 71 01 3e
       -0.03592364 0.087994725 0.09755494 0.12641062
000120 94 82 2c 3e e5 72 38 be 92 b7 01 be 0b 91 52 be
       0.16846687 -0.18012579 -0.12667683 -0.20563142
000130 52 52 b6 3e c9 f0 44 bd b1 0a 84 3e 50 76 c4 3e
       0.3560968 -0.048081193 0.25789407 0.38371515
000140 70 d2 d4 bd c1 7d 63 bc 24 1f 09 3e b1 f7 8d 3e
       -0.103917 -0.013884963 0.13390785 0.27728036
000150 b2 5c 8e bd de 24 4a 3d a9 ef 68 3e e1 93 35 be
       -0.06951274 0.049351566 0.22747673 -0.17732193
000160 b1 be d5 bc 2d ac 24 3e
       -0.026091905 0.16081305

weight f4 [120, 90]
000000 f6 be 66 3d ab 86 6e 3d a1 50 da bd 27 2d 30 bc
       0.05633446 0.058233898 -0.1065991 -0.010752953
000010 7d a5 a0 3d 14 fb 4e 3e b1 4e 9e bd 16 09 c5 bd
       0.078440644 0.20212966 -0.07729853 -0.09620874
000020 9f d6 19 be 31 44 f4 bc c2 37 b5 3d 0e 1e af 3d
       -0.15023278 -0.029817672 0.088485256 0.08550654
000030 22 be 79 3c 10 5f 9f 3c f4 13 c9 3c 6b 58 84 3d
       0.015243085 0.019454509 0.024545647 0.06462177
000040 a3 8e 77 3d 5b 85 98 3c 90 6b 8b 3c 0d 0e a3 3c
       0.060438763 0.018618276 0.017019063 0.01990416
000050 8a f6 c4 bd 5d a3 39 3e 0b 87 fd 3c e4 c1 67 bc
       -0.09617336 0.18128724 0.030948183 -0.014145348
000060 83 91 15 bd 74 f4 e4 bd 85 89 9d bd ee 61 5d 3e
       -0.036515724 -0.11179438 -0.076922454 0.21619388
000070 ed 61 d2 3d a1 2a c5 3d 39 10 47 be 98 c0 34 3c
       0.10272584 0.096272714 -0.19439782 0.011032246
000080 38 78 db bd a1 34 3f be b1 8b 5a bd 25 60 0d 3c
       -0.10716289 -0.1867242 -0.053355876 0.00862888
000090 41 ae f0 3d 71 0a 9e bd fc 81 b2 3d dc 4c e2 bd
       0.11751986 -0.07716835 0.08716199 -0.11049816
0000a0 4f be fe bc bd 7f d1 3c af aa 82 bb fa f8 c0 3d
       -0.031096606 0.025573606 -0.003987632 0.094224885
0000b0 69 b2 06 3c 88 16 3c 3d 7f 96 b1 bd 2c 2a a4 be
       0.008221247 0.045919925 -0.08671283 -0.32063425
0000c0 e0 30 af bd de 73 12 be f3 3e ab 3d 52 c4 08 3e
       -0.08554244 -0.14302012 0.08361616 0.1335614
0000d0 51 10 a4 3d a0 d9 d8 3b 7a 9c 62 3d 70 09 d4 3d
       0.080109246 0.00661774 0.05532501 0.103533626
0000e0 30 a3 c4 3c 99 55 e1 bd 2f e4 ba bd 53 5b ba bd
       0.024003595 -0.110026546 -0.09125554 -0.0909945
0000f0 d7 74 8d 3d d0 a8 42 be c7 c2 18 bd 3b ea c8 3d
       0.06907051 -0.1900971 -0.03729513 0.09810301
000100 42 82 c2 3d 25 51 b4 3c 81 6a af bd af 05 4a 3c
       0.09497501 0.022011349 -0.08565236 0.012330457
000110 ba e0 d8 bd a8 9d 37 bd f9 f4 95 bd ab ac f7 bc
       -0.10589738 -0.044828087 -0.073221155 -0.030233702
000120 e0 8f e6 3d 92 41 26 bd 61 9a c7 bd 25 a8 37 3e
       0.11257911 -0.040589876 -0.09746242 0.17935236
000130 4e 3b 70 be 36 b4 b9 3d b1 b0 42 3d 83 85 90 bc
       -0.23460123 0.09067576 0.047531787 -0.017641788
000140 45 a3 32 3e f1 5b 53 bd 7b 73 1f 3d 64 2b 5c 3d
       0.17445095 -0.051601354 0.03892849 0.053752318
000150 c0 07 16 3c 53 57 42 3d d7 3a e2 bd 62 8f b7 3d
       0.009157121 0.04744656 -0.11046379 0.08962895
000160 d7 c0 40 bd 4b 62 73 3e fc 03 8f bd fc 8c 0d 3e
       -0.047058906 0.23767965 -0.06983182 0.13823313
000170 ae a9 dd bd d8 e7 6c bc 4e f1 9e 3d dd 9e cd 3d
       -0.108233795 -0.014459573 0.07760869 0.100400664
000180 c8 d0 d6 bd f7 73 7d bc 92 6d 42 be 48 78 55 bd
       -0.104890406 -0.015469543 -0.1898711 -0.052116662
000190 17 79 b9 bc 70 2e a7 3d 28 f1 10 3d dc 79 d3 3d
       -0.022640748 0.08163154 0.035386235 0.10325977
0001a0 28 39 78 3c ee d6 b4 bb a3 53 03 3e 5a c7 b9 3d
       0.015150346 -0.0055187857 0.12824874 0.090712264
0001b0 86 9e 35 3d 92 49 ab bc 39 c3 33 bd 5d 67 36 3e
       0.044340633 -0.020909104 -0.04388735 0.17812867
0001c0 1e d8 a1 3c d6 c0 f3 3c 92 2f 54 bc 52 bf e2 bd
       0.019756373 0.029755037 -0.012950795 -0.11071648
0001d0 9f 1a 4e bc ed 58 40 3e 2e 19 1f 3e fe a9 7b bc
       -0.012579589 0.18783922 0.15536949 -0.0153603535
0001e0 85 04 5a be 88 55 e8 bc 49 35 db bd 26 1b 22 be
       -0.21290787 -0.028361097 -0.10703523 -0.15830669
0001f0 69 a7 1f be 97 b9 81 bd 56 1f 22 3e f6 95 57 bd
       -0.15591206 -0.063342266 0.15832266 -0.05263325
000200 32 c3 11 3e 27 4c ef bd b1 b3 92 3c 7f bb 01 bd
       0.14234617 -0.11684447 0.01790795 -0.03167295
000210 d8 24 97 3d b5 9d 76 3d cc 27 f4 3c fb a2 c9 3d
       0.07380074 0.060208995 0.029804133 0.09845539
000220 60 99 bf 3d 0a 19 6c be 18 7b 9c 3c 9e e3 b6 bd
       0.09355426 -0.23056427 0.019101664 -0.08930133
000230 a7 ab e1 3d 1e 03 1d 3e d4 37 ba 3d f2 ff 6a 3d
       0.11019068 0.1533322 0.090926796 0.057372995
000240 21 06 6f bd 06 fa 35 3c ba d6 96 3d f8 4d ff bd
       -0.058355454 0.0111069735 0.073651746 -0.12466043
000250 33 f2 79 bd 7a 71 a2 bd b3 78 70 3d f9 1b 43 be
       -0.061021995 -0.079318 0.058708858 -0.1905364
000260 43 3c 10 bd a8 d6 2d bc 8a 7b ce 3c 23 b3 f5 bb
       -0.03521372 -0.01061026 0.025205392 -0.0074981614
000270 2b 4a bc 3b 46 8c 19 be cf 26 8b 3c ed c0 f0 bd
       0.005746146 -0.14994916 0.016986279 -0.11755548
000280 87 c0 7f bd 10 7d 28 3b 06 3c 75 3c 96 54 79 3d
       -0.062439468 0.0025709309 0.014967924 0.060871683
000290 62 e9 19 bc ec 89 09 3e af 07 23 be e5 51 da bb
       -0.009394022 0.1343152 -0.159209 -0.0066625946
0002a0 03 55 96 3c 3d 27 fc 3c b7 b5 77 3e 5e 62 82 3c
       0.018351084 0.030780429 0.24190412 0.015916046
0002b0 de e1 eb bb da 77 a3 3d 35 bc 08 bd 9d 74 12 3c
       -0.0071985563 0.07981844 -0.033382613 0.008938936
0002c0 c5 25 0f be 61 9b 70 3d b1 1b bd 3d 24 6c 7d 3e
       -0.13979252 0.05874193 0.09233797 0.24748284
0002d0 10 c6 8e bd c2 d7 d3 3d 45 07 b9 bd 20 ef d6 3d
       -0.06971371 0.10343887 -0.0903459 0.10494828
0002e0 cb 3b 96 bc f5 6e 33 3e a9 4c cd bd 71 f6 f9 bd
       -0.018339058 0.17522795 -0.100243874 -0.12205208
0002f0 de 11 06 be c7 fa f7 3c e2 33 a5 3c ae d5 8c 3d
       -0.13092753 0.030270947 0.020166341 0.06876694
000300 07 8f 02 be 1e 79 a2 bd e5 a4 83 bc b4 51 26 bd
       -0.12749873 -0.079332575 -0.016069839 -0.040605262
000310 12 f5 89 3d 39 9d 8e bd 07 af e9 3c 85 55 f5 ba
       0.067361966 -0.069635816 0.028525842 -0.0018717503
000320 34 8c cc 3d 37 7e 16 3e 7b fc 0a bd f3 b5 37 3d
       0.09987679 0.14696585 -0.03393219 0.044851255
000330 41 96 8f bc 22 36 d8 bd d2 e1 c2 bd 6a 56 5b 3e
       -0.017527701 -0.105572 -0.09515728 0.21419683
000340 99 0e 11 3e 31 19 53 3c a7 fd 5b be 6e 97 b7 3c
       0.14165725 0.012884424 -0.2148348 0.022411074
000350 28 f6 ca bd db 04 8b be 4f 78 fe bd b6 10 46 bd
       -0.09910232 -0.27152142 -0.12425291 -0.04835578
000360 4b d4 1d 3e 49 46 5e ba 1f 9d c7 3d fb 07 60 bd
       0.15413015 -0.0008479101 0.09746765 -0.05469511
000370 e0 eb 7e 3d 8b c3 47 3d f1 2f 46 3d b8 0c c1 3d
       0.062236667 0.04877047 0.048385564 0.09426254
000380 46 04 b6 3c 9a fd 02 3d 5b 01 04 39 f0 70 4a be
       0.022218835 0.031980135 0.00012589006 -0.19769645
000390 db 5d 60 bd b0 f7 d7 bd 0d e6 04 3e a0 c2 1c 3e
       -0.054777008 -0.105452895 0.12978382 0.15308619
0003a0 82 e9 b5 3d 17 d8 5a bc d2 99 b5 bd a5 e5 6a 3d
       0.08882429 -0.013357184 -0.088672295 0.057347912
0003b0 e8 2e 21 bd dc e4 a0 bd fd a1 1e 3d 7f 2c d2 bd
       -0.039351374 -0.078561515 0.038728703 -0.10262393
0003c0 f7 d0 52 3d 87 1f 0d be 84 4c 64 bd 1b 75 26 bd
       0.051468816 -0.13781558 -0.055737033 -0.040639024
0003d0 5e b2 03 3e 3a aa a6 3c 3d 06 8a bd a4 72 72 bd
       0.1286101 0.020344842 -0.06739471 -0.05919136
0003e0 a6 fb 37 3b 7c bc 16 3c a6 c3 eb 3c 02 a9 bf bc
       0.0028073578 0.009200212 0.028779816 -0.023396019
0003f0 e2 25 0a 3a 52 85 af 3d c3 4a 5a 3d 3a 07 ef 3d
       0.0005269927 0.08570351 0.053293955 0.116713
