knn/models/pretrained-autoencoder/autoencoder-in_features180-latent_size12.pt (torch, 212939 bytes, 12 tensors)

weight f4 [108, 180]
000000 d9 21 a9 3d 6a 53 84 3d 65 84 00 3d 93 f5 0e 3d
       0.08258409 0.064612225 0.03137626 0.034902167
000010 97 13 11 bc 38 2c ce 3c 1b 1b 37 3c bc da bd 3d
       -0.008854768 0.02516757 0.011175896 0.09270236
000020 c5 d6 51 3d 41 f7 44 3d 93 75 3f bd 3c fc 77 3d
       0.05123021 0.048087362 -0.046742987 0.060543284
000030 91 24 93 3c 5b 47 1b bd 3e 1f 29 bd 16 cf 81 bd
       0.017961772 -0.037909847 -0.04128956 -0.06338327
000040 b6 97 78 3d 5e b2 99 bd e6 f3 7a 3d 1e 36 48 3d
       0.060691558 -0.07504724 0.061267756 0.048879735
000050 41 b4 e1 bc 7d 8a 52 bd 4f 4b 32 3c 20 e3 3e bd
       -0.027551772 -0.051401604 0.010882213 -0.046603322
000060 ac 8f a4 bb 24 59 ce bc ac 80 e6 bc 2c d8 89 bd
       -0.00502201 -0.02518899 -0.028137527 -0.06730685
000070 a1 02 76 3d fc c8 83 3d 38 96 5f bd 31 50 3c bd
       0.0600611 0.06434819 -0.05458662 -0.045974914
000080 8a f2 81 3d cf 03 5b 3c 1d 7b a1 3c 6c 0e a5 3b
       0.06345089 0.013367607 0.019712025 0.0050371196
000090 fc 33 d9 bb 4b a5 90 3d 64 8f 10 3a b3 ec 78 3d
       -0.0066285115 0.07062777 0.0005514531 0.06077261
0000a0 e2 c5 92 3d ee 8a 50 bc 05 e9 65 bd 24 e3 5c bd
       0.071666494 -0.012728436 -0.056130428 -0.053927556
0000b0 20 c0 53 bd f0 b5 b7 3c 6a a4 c3 3c 18 3d 80 bd
       -0.051696897 0.022425622 0.02388211 -0.06261653
0000c0 62 db 87 3d e0 de 0f 3d 37 4e 21 bd 70 f0 53 bd
       0.06633641 0.03512466 -0.039381232 -0.05174297
0000d0 9c d0 05 bd 51 1f 2d bc 9d 1c 0b bd 32 03 43 bd
       -0.03266965 -0.010566548 -0.033962835 -0.04761047
0000e0 e7 07 08 3d a2 5f fa bc ef bb b7 bd 41 6b d8 bd
       0.03321066 -0.03056318 -0.08971392 -0.10567332
0000f0 61 14 b4 bd 72 ed bf 3c 60 19 c5 bd ec b1 a9 bc
       -0.087929495 0.023428652 -0.096239805 -0.020714723
000100 d9 03 50 bc 8e 45 09 bc 7c c7 cb bd c8 a5 ad bd
       -0.01269623 -0.0083784 -0.09950158 -0.08478886
000110 b2 f2 9e 3b 8b d0 88 bc f2 53 3a bd 0b 8e cc 3c
       0.004850709 -0.016701004 -0.045490213 0.024970075
000120 67 0d 62 bc ed 17 b1 bd 4e ff f7 3b b3 49 9c bd
       -0.013797141 -0.086471416 0.0075682765 -0.076312445
000130 dd 09 4f bd 31 de c8 3c 3f 62 86 bd 75 fe 73 bc
       -0.050546516 0.024520012 -0.06561708 -0.01489221
000140 74 74 29 bd 94 0a 76 3d a2 44 ee 39 f6 36 4f 3c
       -0.041370824 0.06006868 0.00045446033 0.012647381
000150 24 04 88 3d 6e 96 2a 3d 61 c6 09 bd 2f f2 9b bc
       0.06641415 0.041647367 -0.033636454 -0.01903638
000160 a8 2d 15 3d 08 8c 4a bd b1 aa 81 3d 96 60 08 3d
       0.036420494 -0.04944995 0.06331385 0.033295237
000170 98 7f 62 3d 37 de 93 3d 83 09 a6 3d 5c b3 55 bd
       0.055297464 0.072201185 0.08107283 -0.052173004
000180 2c d9 63 bd eb c7 57 3d 7b 51 88 3d 0e 00 15 bd
       -0.055627033 0.05268089 0.06656166 -0.036377005
000190 a1 86 1e 3d 42 43 37 bd 97 2a 40 bd ef 31 02 3d
       0.03870261 -0.044741876 -0.046915617 0.0317859
0001a0 52 15 d3 3c c2 48 d3 3c 3a 68 26 3d 37 78 c0 3c
       0.025767002 0.02579153 0.040626742 0.023494823
0001b0 1d 44 b8 bc 50 54 b3 3c 0b d8 32 bc 14 ef ab 3b
       -0.022493416 0.02189079 -0.0109157665 0.005247006
0001c0 24 64 3d bd ba ba 93 bd 4d 91 02 bd c0 b5 ac 3c
       -0.04623808 -0.0721335 -0.03187685 0.021082759
0001d0 b4 49 26 bd 24 93 b3 bc fc 2d 16 bb c4 10 21 3d
       -0.040597633 -0.021920748 -0.0022915592 0.03932263
0001e0 2c ad 35 bb 07 80 35 3a e9 42 3d bd 97 b1 d3 3c
       -0.0027721627 0.00069236796 -0.04620639 0.025841517
0001f0 23 51 aa 3c a6 58 73 bd d8 40 43 bc 1a 68 97 3d
       0.020790642 -0.059410714 -0.011917315 0.07392903
000200 6a 0c 10 3d 07 5f 3e 3d 7e 85 2b 3c cf e5 72 3d
       0.03516809 0.046477344 0.010468839 0.059301194
000210 2a 35 9b bc 81 1b bd bc b8 65 57 3d 40 1b 89 3d
       -0.018946249 -0.023084404 0.05258724 0.06694651
000220 d4 99 95 bc 7d 8f f3 3c 49 7c da bb 0e 9b a7 3c
       -0.018261828 0.029731506 -0.006667648 0.020459678
000230 3e fc 15 3c a2 6b 56 bd 11 51 bb 3c bd fb 46 bd
       0.0091543775 -0.05234874 0.022865804 -0.04857992
000240 0d 7b 6d bd 33 f6 78 3d c4 33 63 bd 09 4f 80 3d
       -0.05797868 0.06078167 -0.05546929 0.06265075
000250 03 c3 44 3d 16 fa 05 bd 70 da 05 3d 19 2f 5f 3d
       0.04803754 -0.032709204 0.03267902 0.054488275
000260 01 b0 2e 3d 35 24 3a bd 9d f1 93 3b d0 ec ad ba
       0.04264832 -0.045444686 0.0045148865 -0.0013269428
000270 ae 0b 0e 3d 31 9e 8e 3d cd 33 20 3d 11 bc 8f 3d
       0.034679107 0.06963766 0.0391119 0.07018293
000280 41 48 20 3d 7a 5c 8f 3d f2 74 c7 ba 96 52 d2 bc
       0.039131407 0.070000604 -0.0015217348 -0.025674146
000290 b8 e4 2b 3d 81 e4 8a 3c ca df 71 bc be 16 92 3d
       0.04196617 0.016954662 -0.014762828 0.07133244
0002a0 2e db 0c bd 87 8d ad 3d 92 37 4c bd 47 e9 04 3d
       -0.034388714 0.0847426 -0.049857683 0.032449033
0002b0 a8 8a 83 3d 2a e6 27 bd b2 bd 61 3d 33 d0 9f 3b
       0.06422931 -0.040990986 0.05511255 0.004877114
0002c0 ac 30 b9 bc a0 f9 8a 3d 95 c4 b3 b9 28 b3 26 bd
       -0.022606216 0.067858934 -0.00034288006 -0.0406982
0002d0 f2 6c 86 3d 94 9d 75 3d 6f 14 c2 3d 42 f0 90 3c
       0.065637484 0.05996473 0.09476554 0.017692689
0002e0 a4 6f 60 3d 35 72 de 3c 22 d2 93 3d c7 e4 85 3d
       0.05479397 0.027154068 0.07217814 0.065377764
0002f0 c4 99 a2 3d 05 66 01 3d 8f 26 14 3a 60 bb a6 3d
       0.07939485 0.031591434 0.00056514976 0.08141208
000300 51 1f d9 3c 6c 33 b2 3d 93 ee 08 bb c6 32 18 3d
       0.02650419 0.08701214 -0.0020894154 0.037157796
000310 06 8c 00 3d 15 a9 16 3d 08 d3 13 3c 08 01 cc bc
       0.031383537 0.036782343 0.009022482 -0.024902835
000320 a8 d0 81 bd 3a 99 a7 bc 18 43 89 bd c0 b4 19 bd
       -0.06338626 -0.020458806 -0.0670225 -0.037525892
000330 71 a2 17 3b fb 59 4b bc 2c c7 47 bd b9 b0 c4 bd
       0.0023137594 -0.01241159 -0.04877393 -0.0960402
000340 22 fd 41 bd 70 31 90 bd b6 5b 2a bd 95 a8 b9 bd
       -0.047360547 -0.070406795 -0.04159137 -0.090653576
000350 b3 f3 26 bd 75 e5 a1 bd 98 bb 48 bd 75 2b 79 bb
       -0.040759753 -0.079050936 -0.04900703 -0.0038020287
000360 66 0e 68 bd 96 34 b0 bd f7 93 1e bd c9 4d 55 bd
       -0.056654356 -0.0860378 -0.03871533 -0.052076135
000370 64 7b 4b bd c3 d7 85 bd 45 1a c8 3c 8b 40 6b bd
       -0.04967822 -0.06535294 0.024426589 -0.0574346
000380 22 11 df 3c 29 b3 a8 3b f9 d4 76 3c 68 81 3f bd
       0.02722985 0.0051483107 0.015065425 -0.04675427
000390 79 ee 6d 3c 29 34 ca 3d 98 fe 51 3d d3 db b3 3c
       0.014522188 0.0987323 0.05126819 0.021955406
0003a0 cb 42 3b 3d 87 3a 2f bd 9b 86 49 3d d6 8a bb bc
       0.045717996 -0.042780425 0.049200635 -0.02289335
0003b0 6c c6 8a 3d 18 f6 eb 3c 47 5a 1d 3d 68 54 a1 bc
       0.06776127 0.02880387 0.038416173 -0.019693568
0003c0 c4 21 6d bb 2d 31 76 3d 74 89 03 3d 21 23 97 3d
       -0.0036183456 0.06010549 0.032113507 0.07379747
0003d0 37 b9 9d bc d5 b4 7e 3d ec 68 43 3d 67 66 2d 3c
       -0.019253356 0.062184174 0.047707483 0.010583497
0003e0 f8 87 02 3d 5c 36 20 bd bd 3f 71 3d 78 6b f5 3c
       0.03186795 -0.03911434 0.058898676 0.029958472
0003f0 4e d6 44 bc 6a d0 e0 3c f1 a2 0f 3d 0d ae d0 3c
       -0.012013985 0.02744313 0.035067502 0.025473619

bias f4 [108]
000000 95 7d 8d 3c 60 05 d4 3d e8 eb 25 bd 91 0a 3c bd
       0.017271796 0.10352588 -0.04050818 -0.045908514
000010 96 6b bf bd 18 9a fe 3c 25 c1 34 3c a9 1a 94 bc
       -0.09346692 0.031079337 0.011032377 -0.018079119
000020 c8 7a d0 3d d2 71 9c bd 4b e4 17 bd ce b1 9c 3c
       0.10179669 -0.07638897 -0.03708295 0.019127753
000030 a1 88 68 3d b9 c7 e1 3c a4 a0 09 bd 26 56 40 bc
       0.056770924 0.027561055 -0.033600464 -0.011739289
000040 b3 c8 79 3c d6 23 6b bd 24 c0 fb bc 30 68 21 3c
       0.015245604 -0.057407223 -0.030731268 0.0098515
000050 7b f8 c8 bd ab 62 82 bc 6a b9 5c 3d 19 63 13 bd
       -0.09813019 -0.01591619 0.053887762 -0.03598318
000060 40 fc 00 bc 59 7e ad 3d 5c e6 86 bd 5f d6 0c 3c
       -0.007872641 0.084713645 -0.06586906 0.008596032
000070 21 95 5b 3d bc 81 c2 bc e0 37 30 bd c8 8e 46 bd
       0.053609017 -0.023743503 -0.043022037 -0.04847601
000080 ae 0c 7f 3d 87 13 4a 3d f8 50 d0 3d 72 72 68 bc
       0.06226795 0.04933503 0.101716936 -0.014187442
000090 80 fa 05 3c 52 b6 49 3d af e5 8f bd ab 4e 92 bc
       0.0081774 0.04924614 -0.070262305 -0.017859777
0000a0 7e 5d c6 3c f6 f1 48 bd 09 6c ce bc d6 c5 9c 3c
       0.024214502 -0.049058877 -0.025198 0.019137304
0000b0 f1 8e de bb ca 60 73 bd 5f 66 95 bd 4e d9 d6 3d
       -0.0067919423 -0.059418477 -0.07294916 0.10490666
0000c0 a3 24 31 3d 93 d3 ea bc 70 95 90 bd 3f 46 54 bd
       0.04324783 -0.02866534 -0.07059753 -0.051824804
0000d0 80 5e 53 3a 73 ac 8d bd db 6f cb 3d 35 dc 30 bd
       0.0008063093 -0.06917658 0.09933444 -0.043178756
0000e0 d8 5d 13 3d 85 d2 ac 3d a6 f9 01 bd e2 27 7c 3d
       0.03597817 0.08438591 -0.031732224 0.061561473
0000f0 27 23 95 bc d3 2d a1 3b ee 22 cf bd b3 93 56 bd
       -0.018205239 0.0049187928 -0.10114084 -0.05238695
000100 b9 94 6d be 1b 39 e1 bc 3e ce 9f bd 9c 05 e0 3c
       -0.23201264 -0.02749305 -0.078030095 0.027346425
000110 5d 35 80 bc 0d 83 6f 3d 2c d6 7b bd 2d 9a 11 bc
       -0.015650446 0.05847459 -0.061483547 -0.008886856
000120 43 e7 48 bd 49 09 a5 bc 85 6f 90 3d 8b 98 3b 3d
       -0.049048673 -0.02014603 0.07052521 0.045799773
000130 d6 96 81 bb aa 0f d0 bc d1 c3 a8 3d 5a e5 57 3d
       -0.0039547486 -0.025398094 0.08240474 0.05270896
000140 99 6d fa 3c fe 4f a6 3a ed b9 10 3d b0 a0 2c bc
       0.030569838 0.0012688634 0.035333563 -0.010536358
000150 bb e2 69 bc 74 80 10 3e b6 54 cb 3c 2b 30 6d bd
       -0.014275248 0.14111501 0.024820667 -0.057907265
000160 08 ab 94 bd 70 87 53 bd 1a eb 3a bc ab 9e 84 bd
       -0.07259184 -0.051642835 -0.011408592 -0.06475576
000170 89 ae ed 3d 07 9f c4 bc 3e a5 4a 3d b1 fc e5 3c
       0.116055556 -0.024001611 0.049473993 0.028074594
000180 d7 d0 32 bd 51 15 52 3d 61 9e 06 bd 74 1e dd bb
       -0.043656196 0.05128986 -0.032865886 -0.006748015
000190 e5 d6 6e 3d 0c 78 9a bd 28 db 0c 3c cd 4c 2d 3d
       0.05831041 -0.075424284 0.008597173 0.04230957
0001a0 a9 b6 c8 3d b3 b5 50 bc aa 67 5c bd 8f 33 a5 3d
       0.09800465 -0.012738633 -0.0538098 0.08066475

weight f4 [36, 108]
000000 fc b5 87 bd 92 f7 15 bd 68 87 b2 3c 10 5a 9e bd
       -0.06626508 -0.036613055 0.021793082 -0.07732022
000010 45 73 0b 3d cc 46 5d 3e 9d 5b 47 bd da df 0e bd
       0.034045476 0.21609038 -0.048671354 -0.03488145
000020 c7 ae 18 bc 26 6f 11 3d 90 c5 eb 3d 29 2a 57 bd
       -0.009319014 0.03550639 0.115122914 -0.05253044
000030 cd 50 53 bd 28 8c 1d 3d 49 bc b3 bc 84 41 40 bd
       -0.05159073 0.03846374 -0.021940367 -0.04693748
000040 2e 97 6a bd 69 8d 4a bd 76 95 8e bc 27 87 c8 bc
       -0.057273082 -0.049451265 -0.017405253 -0.024478508
000050 a3 5c a6 3c 5f 1d d7 3d 3f 57 24 bd 5b a6 29 3c
       0.020307845 0.10503649 -0.040122267 0.010354604
000060 dc 3c cd 3d 6f 6b 2d bc cb 2b 6f bd ad 12 94 3d
       0.10021374 -0.010584696 -0.058391374 0.072301246
000070 98 df 89 bd b0 a4 7f bc e7 80 8c bd 93 ad 58 bb
       -0.067321 -0.015603229 -0.06860524 -0.0033062443
000080 db 8e 84 3e 47 e7 1d bd 74 e6 05 3e cc d3 1a bd
       0.2589024 -0.03855064 0.13076192 -0.03779964
000090 36 38 2b bc 08 0a c2 3c c6 bd 6f 3d dd a6 58 bd
       -0.010450413 0.023686424 0.05853059 -0.05289351
0000a0 12 b5 b5 3d d1 20 42 bd c2 8d 55 bd 54 24 9a bb
       0.08872427 -0.047394577 -0.052137144 -0.0047040377
0000b0 71 f7 eb 3c e7 cc aa 3c ba 4e 9a bc 94 64 37 3c
       0.028804513 0.020849658 -0.018836368 0.011193413
0000c0 1c 6a 74 bc ce 66 b0 bb 2d c7 86 bd ac 7c 19 3e
       -0.014917877 -0.005383349 -0.065809585 0.14988965
0000d0 80 80 64 3c a2 16 04 3e b9 55 39 bc a7 05 2a bc
       0.013946652 0.12899259 -0.011311942 -0.010377324
0000e0 b6 9b 75 3d c8 d6 36 3b 31 78 1e bc 4c c9 97 bd
       0.05996295 0.0027899016 -0.009672211 -0.07411441
0000f0 08 dc ca 3b d0 32 64 bd 10 91 34 3d 24 10 41 bd
       0.0061907806 -0.05571252 0.044083655 -0.047134534
000100 f2 ac 3a 3e 17 a9 a7 3b 00 2d 27 bd 7e d2 c6 bc
       0.18230036 0.0051165926 -0.0408144 -0.024270292
000110 e3 6f ac bd 21 1d 97 3c 5a c2 a4 3b fa de 5e bd
       -0.08419778 0.018446507 0.0050280513 -0.054411866
000120 37 99 d9 3c f9 25 28 bd 2f 77 a4 3d e2 4c 26 3d
       0.026562316 -0.04105184 0.08030545 0.040600665
000130 bc f4 33 bd 06 e1 5b bd 38 7c 8b bd 8f 74 f0 bc
       -0.04393457 -0.053681396 -0.06810802 -0.029352454
000140 fc e7 93 3d 75 2e b2 3d bb e2 a4 3b 6f 93 01 3e
       0.07221982 0.08700267 0.005031911 0.12653898
000150 35 cf 19 3e 00 0d ba 38 01 87 ad bd 9b 03 35 bd
       0.1502045 8.8715926e-05 -0.084730156 -0.04419289
000160 f6 86 90 bc 78 a9 01 bd 1d e3 6a bd b8 9e 82 bd
       -0.01764248 -0.03165576 -0.0573455 -0.063779294
000170 2e 31 29 3d f9 49 70 bd 3c 82 71 bc 27 1f e3 3d
       0.041306667 -0.058664296 -0.014740523 0.11089926
000180 bf e2 f0 3d 62 79 4d bc f7 25 3b 3c 7f 54 ba 3d
       0.117619984 -0.012541147 0.011422626 0.090981476
000190 c7 37 ef b9 b9 a8 13 bc 90 15 ff bc 14 2e c5 3d
       -0.0004562719 -0.009012395 -0.031138211 0.09627929
0001a0 8a 18 a1 3d 9a d2 89 3b 11 5e c0 3d 39 48 e3 bd
       0.078660086 0.004206014 0.09392942 -0.1109776
0001b0 9e 66 bc 3d 2d 11 78 bd a6 91 bb bd d7 bb 07 bc
       0.0919926 -0.060563255 -0.091586396 -0.008284531
0001c0 e6 2b 22 bc 64 1f dd 3d c1 0b 07 3e bf 18 c5 3d
       -0.0098981615 0.10797003 0.13188078 0.096238606
0001d0 e7 08 87 bd 2d 55 fb bd b5 53 bf 3d 7c 9b 82 3d
       -0.06593495 -0.12272105 0.09342138 0.063773125
0001e0 b4 4f c9 bc 9c b2 84 bc 9a 1b fd bc e1 a9 bb 3d
       -0.024574138 -0.016198449 -0.03089695 0.09163261
0001f0 14 4c f8 3d 08 f0 5f bc 0b ac 18 3d 40 c6 0e bd
       0.12123886 -0.013668068 0.037273448 -0.034857035
000200 40 55 ab bb bb e6 2b 3e 3d d1 57 bd cb 59 df 3d
       -0.0052286685 0.16787235 -0.05268978 0.109057985
000210 68 91 11 3d 39 74 af 3d 78 77 04 be 77 00 4c 3d
       0.03553906 0.085670896 -0.12936199 0.04980513
000220 6f 22 28 3e c3 48 81 bc 98 9c 9a bc 9a fb a4 3d
       0.16419385 -0.015781766 -0.018873498 0.08055802
000230 d5 b0 ed bb 95 2e f0 3c 23 35 73 bd fd a4 0a bd
       -0.007253746 0.029319087 -0.059376847 -0.03384875
000240 72 93 ca 3d b6 ea 6c 3d 61 82 56 3c dc 8e 8f bd
       0.09891404 0.057841025 0.013092608 -0.0700967
000250 ab 8e 13 3d 19 33 88 3d b8 ac 9f 3d 54 e9 68 bd
       0.03602473 0.06650371 0.07796615 -0.056863144
000260 30 45 94 3d f6 2a 43 bc 62 41 51 3e 64 15 b0 bb
       0.07239759 -0.011912098 0.20435098 -0.0053736437
000270 ad ab 99 3c 73 3b 07 3d d2 ad 24 3c 60 75 b7 3d
       0.01875862 0.03301568 0.010051208 0.089579344
000280 38 f0 95 3d a3 da 15 bd 14 6b 15 3d b0 2f 36 bd
       0.07321209 -0.03658546 0.03647907 -0.044479072
000290 7d 84 28 3e 02 ad 6d bd 72 f1 a4 3d 3c cb c5 bd
       0.1645679 -0.05802632 0.080538645 -0.096579045
0002a0 3f 75 4d 3d 68 3c 79 3d c6 72 1c bc 25 d0 03 3e
       0.050160643 0.060848624 -0.0095488485 0.1287237
0002b0 8c e5 af bc 1d a0 9a bd ad 20 4d bd 66 e8 f0 3c
       -0.021471761 -0.075500704 -0.05007999 0.029407691
0002c0 56 e5 83 bd 0f 06 e9 bc 9e f0 78 3d 0f d3 71 bd
       -0.06440227 -0.028445272 0.060776345 -0.05903917
0002d0 e0 b6 ae bd 62 29 c0 ba f7 a8 ae bd 9e 1b f7 3d
       -0.085309744 -0.001466077 -0.08528321 0.120658144
0002e0 49 42 75 3d 94 17 44 3e 76 7d af 3d 7c f6 96 3d
       0.059877668 0.1914962 0.08568852 0.07371232
0002f0 38 88 be 3d 7f 04 0b 3e 7c c8 42 3e 80 27 81 3d
       0.093033254 0.13575934 0.19021791 0.06306362
000300 90 96 bf bd ee cb 21 bd c4 ac 58 bd 94 70 cc bc
       -0.093548894 -0.039501123 -0.052899137 -0.024956025
000310 b6 66 bf 3d 7a 2b c7 3d c7 ce d6 bd 1a ab c9 3c
       0.093457624 0.09725089 -0.104886584 0.02461772
000320 b6 ff 99 bd ae bb 40 bd e4 8b 84 bd 13 04 b1 3d
       -0.07519476 -0.047053985 -0.064719945 0.08643355
000330 98 ca 00 bd bf b5 27 bd 59 1b 8c 3d fa e8 88 bc
       -0.03144321 -0.04094481 0.06841154 -0.016712654
000340 82 54 5b 3d 31 29 9f bd cb d8 b6 3d 72 a6 84 bd
       0.05354739 -0.077715285 0.08928069 -0.064770594
000350 fe a6 80 3d cc d6 22 3d 01 d4 b9 3d af b9 e6 3d
       0.06281851 0.039755628 0.0907364 0.11265885
000360 de 7d 94 bd e0 ec ab bc 66 d2 3a 3e 60 2b 7b 3d
       -0.0725057 -0.020986974 0.18244323 0.061320662
000370 6c 13 57 3d bc d2 ee 3c a3 80 39 3e d6 68 aa 3d
       0.052508757 0.02915322 0.18115477 0.08320777
000380 61 81 23 bc 99 f3 0f bb 93 b5 a8 3d f9 ac e3 3d
       -0.009979577 -0.0021965264 0.082377575 0.11116976
000390 2c d0 c4 bb cc e9 24 3a 51 90 61 bd 22 43 2a bc
       -0.0060062613 0.0006290942 -0.05506927 -0.010391982
0003a0 9e b4 ca 3d 75 82 49 bd 58 20 68 bd c0 1b 14 bd
       0.09897731 -0.04919668 -0.05667147 -0.036159277
0003b0 f6 56 1e bd 15 88 19 bc ee 2f c2 3d eb 2b 40 3d
       -0.03865715 -0.009370823 0.09481798 0.046916883
0003c0 ce e4 cf bd 70 25 3d bd 2c 0d b9 bb c4 96 15 3d
       -0.10151063 -0.04617828 -0.005647322 0.036520734
0003d0 a3 79 75 bd 9c fa 9a bb d4 22 af 3d 4f f8 ae 3d
       -0.059930455 -0.004729582 0.08551565 0.08543455
0003e0 3d d3 c2 bc cc c2 f6 3b e2 e9 1e 3d 34 aa 09 3e
       -0.023782367 0.007530546 0.038797267 0.13443834
0003f0 e0 90 85 3d 13 f9 65 bd a9 7e 30 bd 4d b6 ab bb
       0.06521773 -0.05614574 -0.043089543 -0.005240238

bias f4 [36]
000000 bb 77 0d 3d 33 b9 0f 3e a1 ae b8 bd 14 11 b1 3c
       0.034538012 0.14035492 -0.09017683 0.021614589
000010 af ff 11 3d 37 08 4e 3e 85 71 88 bd af ae 65 3d
       0.03564423 0.20120321 -0.06662277 0.056074794
000020 a1 3b c9 3d 06 4c 0f bc fa 21 8d bd a5 4f 3d bd
       0.098258264 -0.008746153 -0.06891246 -0.046218533
000030 ec 6f 8e 3c 0a e5 9b 3d 0c ae 03 3d f6 42 f7 bb
       0.017387353 0.07612045 0.032148406 -0.007545824
000040 d6 0d 3b 3d 60 d7 f6 3c 91 eb a3 bd d2 a1 b7 3b
       0.04566749 0.030131996 -0.08003915 0.0056040073
000050 3a 09 27 3b 53 12 08 3d 83 57 75 bd f0 63 82 bd
       0.0025487677 0.0332206 -0.05989791 -0.06366718
000060 e3 db 0b 3e 79 d7 b5 bd 98 6f a8 3d 8e f2 b0 3c
       0.13658099 -0.08878989 0.0822441 0.021600034
000070 b7 ea 80 3c a4 3f 0f bd f2 67 c5 3c 9c 3d a1 bd
       0.01573692 -0.0349728 0.024097417 -0.07873079
000080 38 70 9a 3a d8 55 3d 3d 95 43 03 3e 0e 41 4e bd
       0.0011782711 0.046224445 0.12818749 -0.05035501

weight f4 [12, 36]
000000 7a a3 38 3e 98 2e 57 3e 57 c6 0b 3e d0 fe 15 be
       0.18031111 0.21013868 0.1364988 -0.14647985
000010 dc 30 d9 3c d3 20 00 3f 60 89 47 3e 67 83 9c 3c
       0.026512556 0.50050086 0.19485998 0.019105626
000020 14 82 15 be 7d d5 1e bd dc 90 d9 3c a6 7f a0 be
       -0.14600402 -0.038777817 0.026558332 -0.31347388
000030 2c d5 fb 39 db 8a 12 3d 4b d2 82 bd c5 a0 a5 be
       0.00048033276 0.035776954 -0.063877665 -0.3234922
000040 f8 0d 2d 3c 47 ea 5c 3d 22 02 26 3e 32 a8 a6 3e
       0.010562412 0.05393436 0.16211751 0.32550198
000050 27 ed 43 3e 56 03 83 be f1 b4 b9 be e5 08 bf 3d
       0.19133435 -0.25588483 -0.3627086 0.09327868
000060 c0 64 a0 bd ee 9e 2c be cf 5f 64 3e b0 9b 63 3b
       -0.078317165 -0.16857502 0.22302173 0.0034730248
000070 19 40 de bd bd 15 b8 3c 94 83 53 be 98 b9 f9 bd
       -0.108520694 0.022471303 -0.20655662 -0.12193602
000080 9a cb ba 3d 3e 3d 0c 3e 17 91 33 3e e8 ef 37 bd
       0.09120865 0.13695237 0.17535816 -0.044906527
000090 81 c1 42 3e bd 74 80 3e 6d f4 16 be a5 55 10 be
       0.19019128 0.25089064 -0.14741679 -0.14095171
0000a0 a3 ef 83 be a0 01 b1 be 03 47 31 3d aa eb 84 be
       -0.25768766 -0.34571552 0.043280613 -0.25961047
0000b0 55 9e 96 3d 74 0f 24 3e d9 6b 50 3e 17 9e 8c 3d
       0.07354418 0.1602152 0.2035364 0.06866091
0000c0 c5 32 c4 bd 2c b4 d7 3d 9b e7 e8 3d 88 2a a5 be
       -0.09579996 0.10532412 0.113723 -0.3225901
0000d0 c9 41 63 3d a0 08 0c 3e ca 1f 26 3e f6 41 7a be
       0.05548266 0.13675165 0.16223064 -0.24439225
0000e0 56 b8 cf bd 5a bc 4f 3d c7 da 4e 3c 8e 2f 68 3d
       -0.10142581 0.050716735 0.012625403 0.056685977
0000f0 a4 a1 9d 3d 04 25 9a be fa 6f 95 bd 7e 58 b4 bd
       0.07696846 -0.30106366 -0.072967485 -0.08805941
000100 c7 12 e6 3d 08 12 3a be eb ef 48 be 72 e7 3e 3b
       0.1123405 -0.18170941 -0.19622771 0.0029129651
000110 64 8c d4 bc 1b 0d 6e 3c 57 4c 75 3e 4b 3b c3 3d
       -0.02594585 0.014529492 0.23954903 0.095327936
000120 cf 52 1c bc ca 46 70 be 70 f1 80 3e 3a 41 55 3e
       -0.0095412275 -0.23464504 0.25184202 0.20825663
000130 88 b1 be 3c 7f 8e 93 bd 8e 9d a6 3e 5b 17 64 be
       0.023278013 -0.07204913 0.3254208 -0.22274534
000140 6c c2 2f be 99 51 2a 3d f3 54 f3 3d 32 29 95 bd
       -0.1716401 0.041581724 0.11881437 -0.07283248
000150 66 fc d7 3d 82 fd 3d be 72 4f cc bd 44 1e 15 3e
       0.10546188 -0.18553737 -0.099760905 0.14562327
000160 a0 a3 8a 3d ca 4f 80 be 4f dd 16 3e 6c ea 09 3d
       0.0676949 -0.25060874 0.1473286 0.033670828
000170 83 0a 1c 3e 8f 1d 03 bf a5 08 d1 3d 57 27 1e 3e
       0.15238385 -0.5121698 0.10206727 0.15444694
000180 9c ff 86 bd ec 27 a9 3d 95 ac 22 3e 7f 4f f9 bd
       -0.06591722 0.082595676 0.15886147 -0.12173366
000190 5c eb 70 bd 19 18 20 3d 27 0b 13 be ca f9 28 be
       -0.058818206 0.03908548 -0.14359723 -0.16501537
0001a0 e4 a3 0e be 90 a3 25 be 76 39 0f 3e 62 d5 b2 be
       -0.13929707 -0.16175675 0.13986763 -0.34928423
0001b0 66 dd 2c be 3f b6 5e be ee a2 c2 3d ee 4a 8b 3e
       -0.16881332 -0.21749209 0.095037326 0.27205604
0001c0 f3 66 99 be 83 0d 23 3e 15 94 c2 3d f4 32 81 3e
       -0.29961357 0.15923123 0.09500901 0.25234187
0001d0 8e 52 6c be c2 f4 43 3e f3 c3 a8 3d 7e 77 41 be
       -0.23078367 0.19136336 0.08240499 -0.18893239
0001e0 a2 65 61 be eb 8c dd 3d 51 76 3e 3d d2 75 ae 3d
       -0.22011426 0.108178936 0.046499554 0.08518566
0001f0 99 92 16 3d 64 97 b2 bd 4a 05 87 bd d6 39 23 3d
       0.0367609 -0.08720282 -0.06592806 0.03985008
000200 28 77 0f be 58 d3 24 3e fe 64 6a 3e f7 ba 90 3d
       -0.14010298 0.16096246 0.22890088 0.07066911
000210 fd 9a 83 bd f9 12 a5 be 05 94 be bd 7e ff 8c bd
       -0.06426046 -0.32241037 -0.09305576 -0.06884669
000220 05 97 62 3e 3c 92 c0 3d 7a 4f 06 be e1 48 dc 3d
       0.22127922 0.09402892 -0.13116255 0.10756088
000230 5c de 5a 3d 90 78 42 be 82 a8 ac 3e 88 d1 3b bd
       0.053434715 -0.18991303 0.3372231 -0.04585412
000240 f3 ef 1d be cf 53 58 3e e8 c0 d8 3d c0 ba 13 3e
       -0.15423565 0.2112572 0.10583669 0.14426708
000250 53 20 31 bd 0d 91 a7 3d 0a 09 39 be d6 86 1d 3e
       -0.043243717 0.08181963 -0.18069854 0.15383467
000260 aa fc 69 bd 04 ac 31 bc 10 c0 7d 3e c1 bc 7a be
       -0.057125725 -0.010844234 0.24780297 -0.24486066
000270 51 d9 56 be a3 4a 91 3e 98 40 c9 3d 21 54 f7 bd
       -0.20981337 0.28377256 0.098267734 -0.12076593
000280 68 eb 25 3c 2d 12 e7 3d d0 f1 0d 3e a7 7f 7c be
       0.010126926 0.11282764 0.13861775 -0.2465807
000290 3c 1e 29 3e 55 03 99 bd 7a a7 23 3c e7 5c 20 3e
       0.1651544 -0.07471339 0.00998866 0.1566044
0002a0 0f 88 91 be 5a ca 5f 3e 90 bf 7d 3e d1 f3 02 3e
       -0.28424117 0.21854535 0.24780107 0.12788321
0002b0 ea 21 f9 bd 59 42 95 3e 67 d5 f5 bd 80 95 e4 3d
       -0.12164672 0.29152182 -0.12003594 0.11161327
0002c0 3a b7 12 3d e2 9f a9 bb 14 59 87 be cf 9c 76 3d
       0.03581927 -0.00517653 -0.2643515 0.060208138
0002d0 d3 94 c4 3e 68 97 61 3e 9f fe 1b be bb 02 7f be
       0.38394794 0.22030413 -0.15233849 -0.24903385
0002e0 77 fe 28 be 11 87 20 bc 3d c3 2a bd 26 6a cd 3e
       -0.1650332 -0.009797827 -0.0416901 0.40120047
0002f0 ef 84 28 bd 33 33 fc bd fd 90 4b 3d f1 ad 37 3d
       -0.0411424 -0.12314453 0.04969882 0.044843618
000300 0f f8 5a bc fd 9e 8d be fe dd 79 3d ad 20 42 be
       -0.013364806 -0.2766036 0.061002724 -0.18957777
000310 87 d1 c5 3d e0 f0 48 3d f5 b7 cc 3c 7c 70 89 3e
       0.09659105 0.04905784 0.024990061 0.2684363
000320 0f f7 0b be 13 76 0a bd 22 dd 28 be 4a c0 ac bb
       -0.13668464 -0.03380401 -0.16490605 -0.005271946
000330 67 fc 93 3e f4 73 33 bd f7 60 27 be 48 be a0 be
       0.28903505 -0.043811753 -0.16345583 -0.31395173
000340 fe 04 8f bd 13 a7 09 3d 33 56 45 bc e0 78 0e be
       -0.06983374 0.0336066 -0.012044477 -0.13913298
000350 29 57 ca 3d 5b ec 11 3e 57 c6 d4 bd 6d 93 2d 3c
       0.09879906 0.14250319 -0.10389393 0.010594231
000360 90 f0 10 3e 75 2b e4 bd e0 94 b7 bc 1a 31 ec bd
       0.14154267 -0.11141101 -0.022409856 -0.11532803
000370 27 8a d6 bd 17 44 bd bc aa 69 ed 3e 98 76 dd 3e
       -0.10475569 -0.023103757 0.46369678 0.43254542
000380 c6 e0 ff 3d 04 dc ea bd 66 bc c1 3d 3f b4 68 3e
       0.12494044 -0.11467746 0.09459762 0.22725008
000390 39 4e fc bd 68 aa b7 3e 31 03 c0 3c b9 80 27 3e
       -0.12319607 0.35872197 0.023439022 0.16357698
0003a0 2b b1 05 be f3 e1 5c 3e 0c 16 a9 3c 84 34 b2 bd
       -0.13055865 0.21570568 0.020640396 -0.08701423
0003b0 c4 b3 2c be 6c 55 4d be c7 83 ce bd 15 48 47 3d
       -0.1686545 -0.20052117 -0.10083728 0.048652727
0003c0 19 4b ab 3d eb 69 ed 3d 88 8f 2a be 93 93 6d be
       0.08363933 0.11592468 -0.16656315 -0.23200826
0003d0 a3 fb a5 3d a2 a1 0f be 90 2c 4e be e9 d6 6d 3e
       0.081046365 -0.14026502 -0.20134187 0.23226513
0003e0 74 49 83 bb 07 55 27 3d c8 df fa bd a0 db 48 be
       -0.004006559 0.040852573 -0.12249714 -0.1961503
0003f0 39 39 ab 3e d9 c3 91 bc 9a 31 77 bd c9 f3 b8 3e
       0.33442095 -0.017793583 -0.060350038 0.36123493

bias f4 [12]
000000 58 6f 5e 3c a8 a4 c6 bc 97 d1 82 be dc 69 15 3e
       0.013576351 -0.024248436 -0.2555053 0.14591163
000010 f7 b3 57 be da a0 a8 ba d5 53 c6 bd 42 31 40 bd
       -0.21064745 -0.001286532 -0.096839584 -0.046921976
000020 35 85 e2 bd 2f 7b 14 3d e2 20 34 be ba c6 90 3d
       -0.110605635 0.03625029 -0.17590669 0.07069154

weight f4 [36, 12]
000000 89 76 1c bd 9e a3 aa be 5a a3 23 be de 0a f2 ba
       -0.03819898 -0.33327955 -0.15980282 -0.0018466373
000010 f1 0c 16 be c3 69 39 be ad 96 83 bc af d0 00 3d
       -0.14653374 -0.18106751 -0.016063059 0.031449016
000020 61 96 61 be 2d b7 34 3d ec db 98 be dd 89 d6 bd
       -0.22030021 0.044120003 -0.29855287 -0.10475514
000030 68 72 bf 3d 7e ae 84 bd 64 50 96 be 03 e5 be 3d
       0.09347993 -0.06478594 -0.29358208 0.09321024
000040 f1 23 1a be 97 1e f3 bd e0 1c a3 bd 28 5d c5 3c
       -0.15052773 -0.11871069 -0.07964492 0.024092272
000050 0f b1 d8 3d 96 74 25 3e ec 2c e5 3d 33 f1 89 3e
       0.10580646 0.16157755 0.11190209 0.26941833
000060 9f 05 44 3b 94 1c 1b be 0d 6b af be 4f 85 94 3d
       0.0029910577 -0.1514762 -0.3426136 0.07251989
000070 15 d1 51 3e 1f d7 1c 3e e7 e5 6a 3e ea a5 1d 3c
       0.20489915 0.15316437 0.22939263 0.0096220765
000080 71 40 e5 3c 52 b2 2a be 67 2c 08 be 74 e5 93 3e
       0.02798483 -0.16669586 -0.13298188 0.28885996
000090 53 2a 61 3d d6 49 9d 3d 74 12 4a 3d e9 cf 47 3e
       0.054972004 0.07680099 0.049334005 0.19512905
0000a0 fd 13 28 be a4 a0 15 3e 6b 3c 48 3e 13 0a 33 be
       -0.16413875 0.14612061 0.19554298 -0.17484312
0000b0 f8 dd 8e 3d 0b d5 fc 3d 3d f3 ab 3d e1 cd df 3d
       0.06975931 0.12345322 0.083960034 0.1092794
0000c0 fd 9e a6 3d 46 7e 68 3e f7 8a 1a be 77 62 6e be
       0.08135793 0.2270442 -0.15092073 -0.23279749
0000d0 05 8f e7 3d 81 35 7f 3e d1 59 6b be d8 24 6b be
       0.11306576 0.24922754 -0.22983481 -0.22963274
0000e0 78 ca 08 3e eb 10 56 be 56 0e 3d 3e 24 de 44 be
       0.13358486 -0.20904891 0.184625 -0.19225365
0000f0 d0 a6 44 3e 43 9e d4 be a1 df ca be a1 be 06 3e
       0.19204259 -0.41526994 -0.3962374 0.13158657
000100 e9 68 77 be 16 75 06 be 96 b4 f2 bd 69 1a 1e 3e
       -0.24161114 -0.13130602 -0.1185085 0.15439762
000110 76 79 99 3d 40 85 10 3d 2a e1 b6 3c 22 c5 03 3d
       0.0749387 0.035283327 0.022324163 0.032170422
000120 e1 57 9a 3e e0 d6 0c 3d c2 57 06 be 26 65 ce bc
       0.3014517 0.03438461 -0.13119414 -0.025194716
000130 5d 91 f8 3d 96 69 78 be be ac ec 3d 9e f6 6b be
       0.12137101 -0.24259028 0.115563855 -0.23043296
000140 4c 64 54 bd a3 0b 4a 3d 8b 66 c5 be 49 7e 76 3e
       -0.051853463 0.049327504 -0.38554797 0.24071611
000150 bb 24 68 be 58 57 04 3e f3 5a fb bd 1a 23 a2 3e
       -0.22670262 0.12923944 -0.122732066 0.31667405
000160 01 a9 24 be f6 e9 a1 3d e4 51 92 bd 0a 27 26 be
       -0.16080095 0.07905953 -0.07144526 -0.1622583
000170 a6 6d 54 be 3e e2 87 bd 9b 97 56 3d 36 b6 0e 3e
       -0.20744953 -0.06634949 0.052390676 0.13936695
000180 aa a5 90 bb e7 5b 8b 3e 46 e6 9d be b5 b2 c3 be
       -0.00441428 0.27218553 -0.30839747 -0.3822228
000190 4d 8a 15 be 26 54 42 3e 9b 52 89 bc 09 19 17 be
       -0.14603539 0.18977413 -0.016763022 -0.14755644
0001a0 4a 80 52 be 5e db 1e 3e 92 e4 8b be 1e 7d 9d bc
       -0.20556751 0.1551337 -0.27322823 -0.0192247
0001b0 1e ad ca 3d ed d1 a2 bd 53 09 50 be 70 ef 02 be
       0.09896301 -0.079501964 -0.20316057 -0.1278665
0001c0 1a 34 b5 3d b9 4f 02 3d 14 52 66 bd fa 12 76 be
       0.08847828 0.03181431 -0.05623062 -0.24030676
0001d0 fd a2 10 be 79 b1 2d 3e ca 69 db bd 4f a6 86 3e
       -0.14124675 0.16962232 -0.10713537 0.26298758
0001e0 11 45 15 3e d8 df 92 3e 1e 0f 1d 3d d0 e7 0d 3e
       0.14577128 0.28686404 0.038344495 0.1385796
0001f0 8a 1a 91 be e2 3a 84 be e1 55 15 be ac 03 33 3e
       -0.2834056 -0.25826174 -0.14583541 0.1748187
000200 d5 6b fe 3c 72 33 71 be 35 23 d2 3d 87 ba 71 be
       0.031057278 -0.23554781 0.102606215 -0.23606311
000210 0e 5a 56 3e f4 ab 7c 3b 31 ec fe 3b c2 de 82 bd
       0.2093279 0.003855464 0.007779621 -0.06390144
000220 bf da aa 3e 4c 7b cf 3d 78 72 76 3e 79 63 1d be
       0.33370015 0.10130939 0.24067104 -0.15369977
000230 d9 22 74 be 75 f1 b5 3e ed 70 c1 3d 59 0a 97 3e
       -0.23841418 0.3553578 0.09445367 0.29500082
000240 78 87 1f 3b f1 ca 86 be 9a 02 b1 3e 7e c4 a8 3e
       0.002434222 -0.26326707 0.34572297 0.32962412
000250 66 34 dd 3d 14 15 63 be 98 ae 44 3d 59 9f 01 3e
       0.1080101 -0.2217601 0.048018068 0.12658443
000260 72 04 30 3e 62 df ac bd 04 67 8b 3e 3c 4d 48 bb
       0.17189196 -0.084410444 0.27227032 -0.0030563613
000270 14 ee 46 be a8 59 7e bd 92 12 6c bd 6b 92 96 be
       -0.19426757 -0.06209722 -0.057634898 -0.29408583
000280 64 d7 57 be bb e7 cb 3d 79 e7 d4 b9 21 56 89 bd
       -0.21078259 0.099563085 -0.00040608252 -0.06705881
000290 24 e3 ae bc b2 20 36 be 15 16 01 be ed 80 7c 3d
       -0.021348543 -0.1778591 -0.1260608 0.06164639
0002a0 0f d5 23 3e 29 dc 82 3e a9 24 3f 3e 9f 96 ed 3c
       0.15999244 0.25558594 0.18666328 0.029002486
0002b0 c8 49 6a be a6 0f a0 bd 8a a2 0a be 02 18 9e 3d
       -0.22879708 -0.07815485 -0.13538566 0.07719423
0002c0 ce 80 57 3d 3b bc 2b be 6e 25 37 bd fb f5 5b be
       0.052613072 -0.16771023 -0.04471343 -0.21480553
0002d0 ab 25 8d 3d b8 73 42 3d db ef c6 be ea b4 83 3e
       0.0689195 0.04747364 -0.3885487 0.25723964
0002e0 33 3e d2 3e 7c 98 80 3d 93 df f3 bd b8 c7 50 3e
       0.4106308 0.06279084 -0.11907878 0.20388687
0002f0 1a 50 a5 3d 58 6c 5c bc b4 d4 8f be 98 04 89 3e
       0.08071919 -0.013453566 -0.28091967 0.26761317
000300 61 fa 5d bc bc 45 70 be c6 29 3d 3e 10 ba 03 3d
       -0.0135484645 -0.23464102 0.18472967 0.032159865
000310 47 6a 06 be 8e c3 52 3c 7d 0c 27 3e b5 cc 07 3e
       -0.13126479 0.012864007 0.16313358 0.13261683
000320 c0 62 3d be 82 e4 22 3e 9f 22 b9 3d e9 72 ee 3d
       -0.18494701 0.15907481 0.090398066 0.11643011
000330 72 aa 73 3e df d0 89 be f3 5b 51 be d4 0d ba 3e
       0.23795488 -0.26917168 -0.20445232 0.36338675
000340 34 a3 4c be 09 b4 9d bd 4b 05 04 bd 7d 3c c6 3d
       -0.19984132 -0.077003546 -0.03223161 0.09679506
000350 68 5b 4d be be 9d 6d 3e 27 e8 52 bd 8e b4 d3 bd
       -0.200544 0.23204705 -0.05149093 -0.103371724
000360 9b 77 86 be f0 6d 2b 3d cb f2 3a be 3e d8 60 3e
       -0.26263127 0.04185289 -0.1825668 0.2195749
000370 09 67 08 be ca 53 83 be 4e ed 15 be c1 94 0d be
       -0.13320555 -0.25649863 -0.14641306 -0.13826276
000380 b0 f2 3b be a8 73 e4 bd 72 26 2e be bb 81 35 3d
       -0.18354297 -0.11154872 -0.17006853 0.044313174
000390 3a 49 c2 bb 67 7d 63 be 01 99 28 3d 91 66 44 bc
       -0.0059291394 -0.22215806 0.04116154 -0.011987344
0003a0 3a 82 1c 3b f2 79 04 3d 4e 6f 86 3d 6d 9d 91 bd
       0.0023881332 0.03234286 0.065641984 -0.07110105
0003b0 84 e1 a8 39 10 18 68 bd 49 7e 43 3c f2 42 97 3e
       0.0003221148 -0.056663573 0.011931964 0.29543263
0003c0 1b 58 18 3d 86 7a d1 be 0c 19 23 be 4b 0d 33 3d
       0.0371934 -0.4091379 -0.15927523 0.04371385
0003d0 ed b8 4a be 4b 50 1e 3c 0c 18 b4 3e d9 7a fc bc
       -0.19797106 0.009662698 0.35174596 -0.030820297
0003e0 b8 ee 45 3e 1a 27 b9 ba 28 64 84 bd 0f 6b 1e 3e
       0.19329345 -0.0014126033 -0.06464416 0.15470527
0003f0 5e fc 77 3d 04 03 2d be 1a 7c 3b 3e 49 af 59 be
       0.06054341 -0.16895682 0.1830906 -0.21258272

bias f4 [36]
000000 34 41 dc 3e 88 f4 94 3e f8 66 66 bc 5b 1c d7 3c
       0.43018496 0.29092813 -0.014062636 0.026258638
000010 8d 66 42 be b8 13 4f 3d b7 7f c3 3e b2 c8 7f 3e
       -0.18984433 0.050555915 0.38183376 0.24978903
000020 79 27 2c bd 39 12 94 3d 34 54 08 bd 94 07 f5 3e
       -0.04202983 0.07230038 -0.033283427 0.47857344
000030 17 a8 f6 3d 99 54 3a be 56 a8 92 be 0f 8f bf 3d
       0.12043779 -0.18196334 -0.28644055 0.09353458
000040 cf a8 d7 3e 07 be 8c 3d 64 32 7e bd 42 d8 3a 3e
       0.42120978 0.06872182 -0.062059775 0.18246558
000050 95 54 11 3f ac 38 89 be ed 12 9f 3b 65 4c ca 3e
       0.56769687 -0.2680105 0.004854551 0.3951141
000060 67 15 ae 3e b3 bc db 3e ee 91 51 be 66 6d 5c be
       0.34000704 0.42917404 -0.20465824 -0.21526107
000070 21 6c 3a be 48 83 41 be da 91 b9 3e 65 19 d7 3e
       -0.1820531 -0.18897736 0.36244088 0.42011562
000080 0e 40 1a be 89 8e 7c 3e bc 1b 3c bd a6 16 83 be
       -0.15063497 0.24663748 -0.045924887 -0.25603217

weight f4 [108, 36]
000000 32 8e 95 3d 9d 55 05 3e 64 54 1e 3e b8 96 65 bd
       0.07302512 0.1302094 0.1546188 -0.05605194
000010 7c 58 7d 3c 07 23 86 bd fc 13 46 3e 2e 51 12 be
       0.015462991 -0.0654965 0.19343561 -0.1428878
000020 c4 f3 39 3d c8 cf 9f 3d 67 c4 33 be 60 56 18 3e
       0.04539849 0.07803303 -0.1755539 0.148767
000030 85 1a 06 3e 17 fb c2 bd b1 a3 1a be e9 e1 ea 3d
       0.13096054 -0.09520548 -0.15101506 0.1146887
000040 e3 03 8e bd 3c 42 56 be 85 76 b7 3c ac 5d eb 3d
       -0.06934335 -0.20923704 0.022395382 0.11492476
000050 02 f0 65 3d c2 72 3b 3d 8d 0c c6 3d 94 de 82 3e
       0.056137092 0.04576374 0.096703626 0.2556044
000060 f3 5b 14 3e 4a 3b f1 3d a1 9a d2 bd ad 19 f9 bd
       0.14488201 0.117788866 -0.102833994 -0.121631004
000070 c8 bb b2 bc be b8 9a bd 9d 46 74 3d c6 1c 21 bd
       -0.021818057 -0.07554768 0.059637655 -0.03933408
000080 3c 2b 63 bd 87 2b 54 be 73 39 03 bd 8e c1 23 3d
       -0.055461153 -0.2071973 -0.03203721 0.03997951
000090 3f ab af 3b 32 6e 43 3d 8b af 17 3e 7e 72 a9 3d
       0.0053609903 0.047712512 0.14813058 0.08273791
0000a0 1a 51 1d 3e 0d d0 f2 3d 77 da 0b bd 99 39 42 bc
       0.15362969 0.11856089 -0.03414389 -0.011854553
0000b0 57 7c 18 be 2c 7b 3b 3d f8 f0 50 bd 7c 66 8a bd
       -0.14891182 0.045771763 -0.051011056 -0.067578286
0000c0 a3 8d 25 3e 8c ff 0b 3d 51 bd 26 be d8 e1 c2 bd
       0.16167311 0.034179255 -0.16283156 -0.095157325
0000d0 e6 f1 83 3d af e5 2b be 99 35 20 bc 05 ff bc 3d
       0.06442623 -0.16786836 -0.009778404 0.092283286
0000e0 08 64 45 bd a4 b8 90 bc 85 95 20 3e db c1 4f bb
       -0.0481911 -0.017666169 0.15682037 -0.003170124
0000f0 31 15 09 be 9e 9a 2f be 96 d3 97 3b 94 5c 98 bd
       -0.1338699 -0.17148826 0.0046333773 -0.07439533
000100 e5 00 19 3e b2 73 37 bd a7 e1 bf bd 59 36 21 be
       0.14941747 -0.04478807 -0.09369212 -0.15743388
000110 6f 5e 0d 3e a9 47 02 bb d8 e7 8f 3d d8 c3 10 be
       0.13805555 -0.0019879139 0.070266426 -0.14137208
000120 87 03 a8 3c 1d 4d f1 bd a0 c4 66 bd 9b 94 c3 bc
       0.020509494 -0.11782286 -0.05633986 -0.023874572
000130 34 27 e3 bd 41 d7 a6 bd d3 fc 8a 3d e0 b7 27 be
       -0.11091462 -0.08146525 0.06786504 -0.16378736
000140 56 6d 43 3d 8f 86 d2 3a db 77 10 bc 46 ef 15 3d
       0.047711693 0.001606183 -0.008817638 0.036605142
000150 55 73 dd bd 23 d6 0a bd d5 42 a5 3d 5b 96 05 bd
       -0.108130135 -0.033895623 0.08069388 -0.032614093
000160 63 5b 9e bd 10 f5 1f be 65 35 67 bd 1f 54 ca 3c
       -0.077322744 -0.15620828 -0.056447405 0.024698315
000170 48 c4 a6 3d 54 5f c0 3d a1 ca 26 3e f1 55 11 bd
       0.081429064 0.093931824 0.16288234 -0.03548235
000180 0a 9c 27 be 06 a7 26 3b 3b 61 a8 3c f9 28 d0 3d
       -0.16368118 0.0025429144 0.020554176 0.10164065
000190 9e 18 a2 bd 15 7f 00 3e d5 51 0d be 51 2b a2 bd
       -0.079148516 0.12548478 -0.13800748 -0.07918418
0001a0 7e 9d 1b 3e 11 12 ac bd a7 d3 b8 bd 8f 5c a7 3d
       0.15196797 -0.084018834 -0.090247445 0.08171951
0001b0 c5 8a bf bd 52 da 69 3c fb c2 e3 bc 6c ef e8 3c
       -0.0935264 0.014273243 -0.027802935 0.028434478
0001c0 46 d0 fd bd 2f 5e 06 be 99 46 20 3b 8e c7 f7 bd
       -0.12393241 -0.13121866 0.0024456142 -0.12098609
0001d0 48 2c 66 3d cd 3c d3 3d 76 53 01 3e 22 3a e0 3b
       0.056194574 0.10314331 0.12629494 0.0068428675
0001e0 7b 26 8c 3d 94 c4 79 bd 8d 89 f8 bc 57 68 47 3e
       0.06843277 -0.060978487 -0.030339027 0.19473396
0001f0 a3 66 12 be ec 1f a2 bd a4 d8 28 be 7a d1 58 bd
       -0.14296965 -0.07916245 -0.16488892 -0.052934147
000200 9e 6a 2d 3e 6f 5c 0c be 56 8b 1b be cd d4 99 3e
       0.16935202 -0.13707136 -0.15189871 0.30045167
000210 98 a6 02 3e ed 03 99 bd 82 7d 86 3d cf f8 83 bd
       0.12758863 -0.07471452 0.065669075 -0.06443941
000220 05 1f 7b 3d 51 25 13 bd da d2 80 3e 30 f2 f2 3d
       0.06130888 -0.03592426 0.25160867 0.118626
000230 a1 9a 63 bd 7e 3e 2e 3e ef 3e 85 3d 2f 78 8e bd
       -0.055567387 0.17016026 0.06506144 -0.06956517
000240 f6 f9 4d bd 0f e8 90 bd ca d6 bd 3d cf 7c 29 3d
       -0.05028721 -0.07075512 0.092694834 0.041378792
000250 57 82 a8 3d b1 32 09 be f4 b6 d7 bd df 23 55 bd
       0.08227985 -0.13398243 -0.105329424 -0.052036162
000260 4f 33 c7 3d 37 2e a9 3d a1 77 76 bd 6b 94 6d 3d
       0.09726583 0.08260768 -0.06017268 0.05800287
000270 b8 bc 1c 3e f3 31 1b be 5a 84 ee 3d 21 96 50 3d
       0.15306365 -0.15155773 0.11646338 0.050924424
000280 b0 36 36 3c 06 c2 b2 bd 7d 26 11 be 6b 1c 01 be
       0.011121437 -0.08728413 -0.14174838 -0.12608497
000290 25 01 09 be da b9 ec 3d ea ba b1 3d 0e d1 12 3d
       -0.13379343 0.11558886 0.08678229 0.0358439
0002a0 d2 5d b9 3a 54 3a 1d bc 13 7a 3f bd 02 9f f7 bd
       0.001414234 -0.009596426 -0.04674728 -0.12090875
0002b0 94 af 48 3c 7d 3b 2c 3d d1 34 54 bd a3 b6 b2 3d
       0.012248892 0.04204892 -0.051808182 0.087262414
0002c0 de df 11 3d bb b6 fd bd 65 9c 12 be e3 70 87 3d
       0.035613887 -0.12388369 -0.14317472 0.06613328
0002d0 a4 bc a8 bd b5 7f 1f 3d 28 af 9b ba 40 b7 24 3e
       -0.08239105 0.03894015 -0.0011877762 0.1608553
0002e0 ef eb bc bc b9 55 57 be 68 47 21 3e 74 dc b4 bc
       -0.02306172 -0.21028794 0.15749896 -0.022077776
0002f0 be c7 18 3e c3 cf 32 3e 3d 4d d7 3d 54 e1 63 3e
       0.14919946 0.17462067 0.10512779 0.22253925
000300 d4 97 6d 3b 58 00 91 3d c9 47 a1 3d d0 19 8d 3d
       0.0036253827 0.07080144 0.0787502 0.06889689
000310 54 7d 2c be f4 b6 16 3e 2d 36 3b bd f6 53 5e 3d
       -0.16844684 0.14718229 -0.045705963 0.05427929
000320 d2 a3 1a be aa 4d f8 3d 1b 86 bf 3d b3 14 d0 3d
       -0.15101555 0.12124188 0.093517505 0.10160198
000330 1b c8 89 3d 68 84 50 be 78 81 0c be cd a8 01 3d
       0.0672762 -0.20363009 -0.13721263 0.03165512
000340 b6 16 ce 3d ba 48 b0 3c d9 88 25 bd 4e 44 ee 3d
       0.100629255 0.021519054 -0.04041371 0.11634122
000350 b6 9b 18 be 81 63 ef 3d 2f 6b a6 3e ba 43 82 bd
       -0.14903149 0.11688901 0.3250365 -0.06360574
000360 73 1a 0f be 72 a1 b7 bd 64 69 b6 bd c6 e6 90 bd
       -0.13974933 -0.0896634 -0.089068204 -0.070752665
000370 5f 05 13 bc 9e 8b 80 bd e4 0f f9 3d d5 70 c7 3d
       -0.008973449 -0.0627663 0.12161234 0.09738318
000380 85 13 a6 3d 04 22 a6 3d f9 5b 28 3e a2 1d d9 3c
       0.08109192 0.08111957 0.16441335 0.026503388
000390 46 4b 11 bb a4 5e d9 3d 81 c1 8d 3d 04 39 8e 3d
       -0.002217011 0.106137544 0.069216736 0.069444686
0003a0 3e 22 13 3d eb 1f 0d 3d a6 91 ef bc 30 c9 19 be
       0.035921328 0.034454267 -0.029244255 -0.15018153
0003b0 4b 36 92 3c 81 29 d9 bb 13 cc d7 bd 58 08 5a bc
       0.017848155 -0.006627262 -0.10536971 -0.013307653
0003c0 97 16 22 be c6 76 f0 bd b1 58 03 3d e7 64 0f 3e
       -0.1582893 -0.11741404 0.032067005 0.14003335
0003d0 5d 3d 16 ba 95 9d b7 3d 24 2a 2a bc 0e 21 bd bd
       -0.000573119 0.08965603 -0.010386024 -0.0923482
0003e0 70 22 85 bc 37 ca 04 be e0 3c a4 3c 5c 82 dc bd
       -0.016251773 -0.12967764 0.020048559 -0.107670516
0003f0 7b 27 80 3e 02 23 3b bc cb 0b 1a 3e 99 85 57 3c
       0.2503012 -0.011421921 0.15043561 0.013154411

bias f4 [108]
000000 9e 8e 90 3d f8 20 21 be 6c 26 fb 3d f7 31 e7 3d
       0.07058452 -0.15735233 0.12263188 0.11288827
000010 a3 29 1c bb f8 2d 87 bd ad 3f 48 bd c8 c6 4a be
       -0.0023828528 -0.06600565 -0.04888885 -0.19802392
000020 a3 97 2b 3e bc c0 94 bd ed b8 f0 3c d7 2f 43 bd
       0.16757064 -0.07263324 0.029385054 -0.047653046
000030 a1 97 2c bc da 6b 51 3e bd c9 44 bd 04 b8 60 3e
       -0.010534198 0.20451298 -0.048043955 0.21945196
000040 ee 2d 1c 3d 14 a6 1b be e9 c7 69 bd 3f 58 75 3e
       0.03812974 -0.15200073 -0.057075415 0.23959444
000050 82 15 61 3e b9 84 35 3e 63 0b 47 3e 0f df 9b 3e
       0.21980861 0.17726411 0.19437937 0.30443618
000060 1b 2c 06 3e c1 e5 9e 3d d9 18 64 be 6c b2 b6 3d
       0.13102762 0.07758666 -0.22275104 0.0892075
000070 c8 94 16 3d 5e 2f 02 be 9e 0a 2d 3e f2 f4 32 be
       0.036762983 -0.12713382 0.16898581 -0.17476252
000080 5a 5c 2c 3e 5d da a2 3d 3d ce d8 bb ea 96 9e 3e
       0.16832104 0.07951806 -0.0066163824 0.30974513
000090 62 42 5f bd be 82 34 be a6 58 94 bd e1 d4 0f be
       -0.054506667 -0.17627999 -0.07243471 -0.1404605
0000a0 ac 87 1c 3e 8c 8b 54 3c b0 ad 9c bd 37 67 ab bd
       0.1528613 0.012972724 -0.07650316 -0.08369296
0000b0 a8 f0 2d be 43 06 3e bd 50 ca 2f 3e c6 6e 53 3e
       -0.16986334 -0.04639269 0.1716702 0.20647725
0000c0 c3 9c 8c bc 5e df 1f 3e 06 55 3e be da f8 17 bd
       -0.017164594 0.15612552 -0.18587121 -0.037102558
0000d0 af c4 aa 3d 2c e3 a9 bd 25 ab c0 3d 3a 3e 56 3e
       0.08338296 -0.08295283 0.09407643 0.20922175
0000e0 05 76 b9 bd 2d 91 44 bc 42 41 a0 3d f3 59 2e bc
       -0.090557136 -0.011997503 0.07824947 -0.010641563
0000f0 df 52 97 3e 85 5c 94 bd 3d 81 8a 3c 93 79 3f bd
       0.29555413 -0.07244209 0.016907329 -0.0467468
000100 b0 4d 32 3d a3 ce 12 3e d7 62 1e bc a8 f3 12 bd
       0.04353112 0.14336638 -0.00966712 -0.0358769
000110 8b 6a 88 3c 6e 97 b2 bc 32 48 28 be 99 cf 03 bc
       0.016652366 -0.021800723 -0.1643379 -0.008045101
000120 9c 58 28 3e 4f a5 d4 3c e2 58 d9 bc 4d 47 f9 bc
       0.16440052 0.025957732 -0.02653164 -0.030429507
000130 99 0e 9a 3d b1 35 41 3e 75 4f 41 3e 32 de 53 3e
       0.075223155 0.18868138 0.18877967 0.2069023
000140 e6 cf d6 bd b8 64 17 3e 5e 1e 5c 3d 00 41 23 be
       -0.10488872 0.14784515 0.053739898 -0.15942764
000150 d7 f5 64 bd 3d 17 fa bd 34 b1 87 bc 1a bc 84 3b
       -0.055898514 -0.122114636 -0.01656399 0.0040507438
000160 22 e7 16 be ea a5 f4 3d fb 5f 5c 3e aa a7 04 3e
       -0.14736608 0.11945708 0.21520989 0.12954584
000170 7f e4 9a 3d f8 61 10 3e 01 66 82 3e 5d 79 ea 3d
       0.075631134 0.14099872 0.25468448 0.114489295
000180 40 f9 e7 3d 90 db 70 3e a9 06 d3 bb d6 65 69 3d
       0.113268375 0.23521256 -0.006440003 0.056981884
000190 ba 93 a4 3b a7 44 25 3e 03 d1 11 bd 5d 92 8d bd
       0.005022493 0.1613947 -0.03559972 -0.06912682
0001a0 2a 24 f5 3d 32 5d c1 bc f5 de 18 3d 61 bd 7f 3e
       0.11969788 -0.02360401 0.037322003 0.24974586
