knn/models/pretrained-autoencoder/autoencoder-in_features90-latent_size6.pt (torch, 69373 bytes, 12 tensors)

weight f4 [54, 90]
0.055999517 -0.041034758 0.012139877 0.10918165 0.003384208 0.0059420844 0.03013221 -0.0056869877
0.054372434 -0.020489126 -0.008176714 -0.004407474 -0.0259271 -0.008576748 0.020655403 -0.00066007196
-0.0012017536 -0.031041095 0.04566205 -0.08382625 -0.05914677 0.026701108 0.0111932205 -0.06847613
-0.022356488 -0.021976005 -0.04010074 0.030614596 -0.050645616 -0.021104673 -0.056290757 -0.08070597
-0.019309975 -0.0016897063 0.00054720644 0.011698867 0.051919315 0.06288734 0.013643692 0.047476385
0.024335241 -0.039864384 0.07817809 0.037196152 0.12154228 0.078491665 0.08469844 0.06460662
0.08755958 0.01959377 0.1182187 0.05645909 0.043966006 0.074875325 0.03741993 0.07203844
0.09294915 -0.002774981 -0.024163049 0.06639587 -0.01976498 -0.068549745 -0.0082280785 -0.090175636
0.024161262 -0.13166155 -0.095417574 -0.036606506 -0.122536846 -0.03725531 -0.07405135 -0.053724032
-0.114031136 -0.10464827 -0.01922508 -0.08101026 -0.068078846 -0.05139258 0.010868471 0.028048469
0.016957553 0.019641042 0.014224686 0.08881602 0.074449085 0.01879947 0.09057145 0.11820229
0.10378696 0.038234003 -0.09198192 -0.016258242 -0.031568248 -0.09726239 0.011109498 -0.082282476
-0.06309022 -0.01982915 -0.0580857 0.025946874 0.008673837 0.056544024 0.05057773 0.032900732
0.017280364 0.04246303 0.061543863 0.029192952 0.11037706 -0.01666227 0.09158802 0.0372588
0.118944496 0.04448712 0.07601666 0.12857462 0.047754567 0.08342829 0.063612714 0.028415376
0.07580711 0.06270363 0.06412326 0.08871447 0.078408435 0.009786508 0.12050407 0.0019585718
-0.061690796 0.13490479 -0.020290982 0.010440064 0.00985045 0.041564792 -0.023839515 0.03789638
-0.040365044 -0.017808326 -0.026640201 -0.0009527237 0.0044777114 -0.067615926 -0.063816026 -0.051008534
-0.07577029 0.024408689 -0.057379656 -0.06409661 -0.007829527 -0.05145668 -0.066322386 -0.03966243
0.0037183627 -0.0028415916 -0.010853272 -0.044803437 0.01888607 0.0031612103 -0.06374024 -0.005712398
0.03597392 0.0045111636 -0.012899047 0.054547243 -0.0024173905 0.03980695 -0.07118605 0.03432005
-0.007041419 0.04907654 -0.062374525 -0.057628565 -0.06769331 0.029091673 -0.08684827 -0.009989226
-0.09995403 -0.09343765 0.0155601045 -0.089944005 0.08468672 0.012096368 0.041440483 0.06957052
-0.0030652664 -0.019507112 -0.02344181 -0.014759802 -0.031399004 -0.06824296 -0.06299202 -0.08473911
-0.08703038 -0.07027018 -0.111022756 -0.03305473 -0.057401538 -0.021985924 -0.030144665 -0.02160486
0.03820666 0.07864729 0.024227267 0.018003032 0.02808055 0.054789457 0.02377584 0.10316839
0.11207537 0.06478492 0.108375154 0.056891438 0.04260738 -0.0071629323 0.041118443 0.01689724
0.035822567 -0.056873348 -0.039953034 -0.04624626 -0.08887076 -0.12407066 -0.09511636 -0.1508032
-0.06558683 -0.12404627 -0.12106977 -0.09370466 -0.07901985 -0.011455741 -0.106347114 -0.10407777
0.014990948 0.0058504767 -0.019201979 0.017895116 0.08155038 0.11727623 0.044680122 0.1419574
0.026275577 0.14049652 0.17783017 0.048696615 0.05660327 0.12829137 0.05146896 0.0062197703
0.046246327 0.008079755 -0.042624064 -0.037774503 -0.01855381 -0.11248852 -0.09460339 -0.0731841
00000000: c05f 653d 1014 28bd 56e6 463c a19a df3d
00000010: 97c9 5d3b d1b5 c23b d3d7 f63c e959 babb
00000020: a1b5 5e3d d0d8 a7bc a0f7 05bc 926c 90bb
00000030: 1265 d4bc 7d85 0cbc 8535 a93c ae08 2dba
00000040: 2984 9dba e549 febc 2108 3b3d 19ad abbd
00000050: e243 72bd 48bc da3c c563 373c 373d 8cbd
00000060: f424 b7bc 0607 b4bc ac40 24bd 76cb fa3c
00000070: c771 4fbd b5e3 acbc 2391 66bd 2c49 a5bd
00000080: f42f 9ebc 2379 ddba 6772 0f3a 9bac 3f3c
00000090: 59a9 543d 14cb 803d cb89 5f3c 9976 423d
000000a0: b35a c73c d648 23bd d61b a03d fe5a 183d
000000b0: 29eb f83d 3dc0 a03d 6076 ad3d 7a50 843d
000000c0: 7052 b33d 1d83 a03c a51c f23d a641 673d
000000d0: b315 343d 3c58 993d a445 193d e488 933d
000000e0: 205c be3d 75dc 35bb 96f1 c5bc 8ffa 873d
000000f0: 2bea a1bc cf63 8cbd 10cf 06bc 01ae b8bd
00000100: d7ed c53c 49d2 06be 4a6a c3bd b4f0 15bd
00000110: 99f4 fabd 0699 18bd 3ca8 97bd bb0d 5cbd
00000120: 2889 e9bd d551 d6bd ea7d 9dbc b5e8 a5bd
00000130: ec6c 8bbd 0781 52bd ac11 323c e7c5 e53c
00000140: 91ea 8a3c 40e6 a03c a80e 693c 2ce5 b53d
00000150: c378 983d 5901 9a3c 867d b93d 0b14 f23d
00000160: 428e d43d 429b 1c3d 0461 bcbd 0130 85bc
00000170: b54d 01bd 8131 c7bd 9d04 363c b783 a8bd
00000180: 7235 81bd be70 a2bc 45eb 6dbd 8a8e d43c
00000190: b61c 0e3c b59a 673d 982a 4f3d ebc2 063d
000001a0: 8d8f 8d3c b7ed 2d3d 6b15 7c3d 0f26 ef3c
000001b0: 5e0d e23d 507f 88bc 8092 bb3d af9c 183d
000001c0: 2c99 f33d 2038 363d 9fae 9b3d 11a9 033e
000001d0: 4b9a 433d 74dc aa3d 6247 823d 5dc7 e83c
000001e0: c240 9b3d c36a 803d 0e53 833d efaf b53d
000001f0: 9a94 a03d 9757 203c d6ca f63d 625b 003b
00000200: 7daf 7cbd 7b24 0a3e 4639 a6bc cd0c 2b3c
00000210: c863 213c d83f 2a3d 164b c3bc 3c39 1b3d
00000220: d155 25bd c4e2 91bc 8d3c dabc 35c0 79ba
00000230: c4b9 923b 387a 8abd fab1 82bd 53ee 50bd
00000240: 742d 9bbd bbf4 c73c ee06 6bbd 1545 83bd
00000250: 6b47 00bc 3dc4 52bd 08d4 87bd 1275 22bd
00000260: c6af 733b ff39 3abb ecd1 31bc cf83 37bd
00000270: f6b6 9a3c 4f2c 4f3b 3e8a 82bd 112f bbbb
00000280: 6459 133d 62d2 933b 8656 53bc ee6c 5f3d
00000290: 156d 1ebb 9d0c 233d fec9 91bd 2e93 0c3d
000002a0: b4bb e6bb 7b04 493d 6e7c 7fbd ee0b 6cbd
000002b0: caa2 8abd a951 ee3c 81dd b1bd daa9 23bc
000002c0: b3b4 ccbd 3d5c bfbd cfef 7e3c 9034 b8bd
000002d0: 3b70 ad3d d82f 463c 7fbd 293d fd7a 8e3d
000002e0: a3e2 48bb 61cd 9fbc 0a09 c0bc 19d3 71bc
000002f0: 3e9c 00bd f7c2 8bbd f601 81bd b38b adbd
00000300: fc3c b2bd d0e9 8fbd e65f e3bd 6664 07bd
00000310: e01d 6bbd d31b b4bc f2f1 f6bc adfc b0bc
00000320: 967e 1c3d d511 a13d 4378 c63c 187b 933c
00000330: 2e09 e63c e96a 603d 8dc5 c23c f349 d33d
00000340: c687 e53d f5ad 843d cbf3 dd3d ff06 693d
00000350: 1385 2e3d 08b7 eabb d06b 283d 156c 8a3c
00000360: afba 123d 07f4 68bd cba5 23bd b86c 3dbd
00000370: df01 b6bd c218 febd 5ecc c2bd 276c 1abe
00000380: 6352 86bd f90b febd 6df3 f7bd 3be8 bfbd
00000390: 29d5 a1bd dcb0 3bbc 84cc d9bd ba26 d5bd
000003a0: 989c 753c 5bb5 bf3b 784d 9dbc c798 923c
000003b0: e303 a73d 852e f03d 8102 373d 485d 113e
000003c0: e13f d73c 52de 0f3e 1d19 363e 1a76 473d
000003d0: d5d8 673d d05e 033e 1ed1 523d 37cf cb3b
000003e0: ca6c 3d3d f360 043c 9296 2ebd 70b9 1abd
000003f0: 29fe 97bc 6260 e6bd 6cbf c1bd 8ce1 95bd

bias f4 [54]
-0.02177229 -0.07305129 0.08273494 -0.08610206 -0.051772375 -0.12137005 0.10148207 -0.062307972
-0.011345816 -0.17147803 0.0031241947 -0.059135173 0.06289411 -0.049203895 0.019012423 -0.025493218
0.04482657 0.2733816 -0.04023997 -0.10163672 -0.061048273 -0.009266396 -0.059707843 0.0028774394
0.14459209 0.0049966606 -0.038735244 -0.086403124 0.046318308 -0.077533185 0.09165596 -0.19919442
-0.105834164 0.05953657 -0.022321409 0.091634944 -0.050405513 0.11541531 -0.102842435 -0.052004457
-0.106388785 0.031316385 0.010494124 0.0032648675 -0.050372154 -0.03589232 0.059491154 -0.05119539
-0.010202624 0.015340265 -0.08601416 -0.09488942 -0.09072426 0.02406494
00000000: cd5b b2bc ea9b 95bd f070 a93d 4756 b0bd
00000010: 450f 54bd dc90 f8bd d5d5 cf3d a536 7fbd
00000020: cde3 39bc f097 2fbe 4abf 4c3b b937 72bd
00000030: a1ce 803d 068a 49bd f1bf 9b3c 27d7 d0bc
00000040: 119c 373d acf8 8b3e abd2 24bd ea26 d0bd
00000050: c10d 7abd 15d2 17bc 3690 74bd 6c93 3c3b
00000060: f30f 143e 07bb a33b d9a8 1ebd 1ff4 b0bd
00000070: 44b8 3d3d b8c9 9ebd 1fb6 bb3d 9ff9 4bbe
00000080: 95bf d8bd 9edc 733d 63db b6bc 1aab bb3d
00000090: 0376 4ebd dd5e ec3d 0e9f d2bd a002 55bd
000000a0: 5de2 d9bd 9c45 003d 8cef 2b3c 63f7 553b
000000b0: 0853 4ebd d303 13bd ffac 733d 42b2 51bd
000000c0: e828 27bc bc55 7b3c 3128 b0bd 6255 c2bd
000000d0: a4cd b9bd d623 c53c

weight f4 [18, 54]
0.0707163 0.09935804 0.19422728 0.092466705 0.030896563 0.018474692 0.0032610556 0.12592441
0.018242743 0.18372455 -0.005712217 -0.019108782 0.017579291 0.105131336 0.07677498 0.105691805
-0.008777369 0.057502456 0.0537873 -0.041123584 0.085853316 -0.100993805 0.114742 0.031889524
0.05828753 -0.07482574 0.08465265 -0.0077307085 0.012552698 0.036871936 -0.10188118 0.2104712
0.23009443 0.026987366 0.17597584 -0.012782263 -0.03352121 0.14571296 -0.030136418 0.018437458
-0.006372967 -0.07419972 0.114163905 -0.032407533 -0.026859079 0.07769193 -0.0012390411 0.2018606
-0.022773715 0.11363436 0.356909 -0.12077337 0.11994247 0.19187419 0.08511048 0.11513599
0.12217372 -0.042623535 0.04964069 -0.015882393 -0.08465689 0.24403901 -0.013464994 0.024290176
0.052793875 -0.06940395 0.004881163 0.090395585 0.029176971 -0.004155035 0.13869418 0.054714836
-0.08278722 0.21916613 -0.02593937 -0.024457337 0.1665911 0.32579994 0.14637102 0.10126063
0.046519984 0.041728888 -0.07534373 0.044884335 -0.06250087 0.04721448 0.38908157 0.187959
0.044466145 -0.10680926 0.05921304 0.032042686 -0.033578683 -0.008448355 0.04674049 0.05924894
0.0875206 0.08504331 0.2024847 0.0030884745 0.006299825 0.029774215 -0.010006415 0.06692511
-0.06563195 0.071657516 -0.043480825 0.09443796 0.20002759 0.013683825 -0.0170968 0.17925823
-0.10235681 0.33419296 -0.0005710511 -0.046138592 0.0532065 -0.082114264 0.0835323 0.0807088
-0.09236178 0.09424765 0.5752722 -0.040382158 0.085960045 0.0004610057 -0.08292791 -0.04635671
-0.03314353 0.04174716 -0.021682963 -0.00057061814 0.033743497 0.030903345 0.03311118 0.024287816
-0.03200335 0.025597721 0.21138054 0.007696789 -0.06824375 0.036057062 0.0028741485 0.0695218
0.021056136 -0.05219559 -0.024381634 0.17461881 0.0073313713 -0.04709022 -0.013484452 0.01774337
-0.055734977 0.0044482895 -0.07780085 -0.03893174 -0.022474231 -0.020029597 -0.09526474 0.27185357
-0.103203356 0.034160674 -0.042531293 0.21111724 -0.031884916 -0.07341022 0.083107986 0.177021
-0.08382228 -0.021870261 -0.25055233 0.05900005 -0.013974744 0.13152575 -0.029335028 0.18713252
-0.1025779 -0.10312173 0.023406386 0.08726805 0.12080937 0.016661681 0.115057476 -0.094624005
0.1278854 -0.015865253 0.010377524 -0.028637549 -0.0030702637 -0.11505622 0.04747585 0.07787921
0.063908346 0.009270477 0.0990916 0.033366952 -0.09676375 -0.045340534 -0.14124005 -0.026998987
0.046251483 0.14661527 -0.009028621 -0.08575993 -0.0011134101 -0.114924535 -0.024401726 0.054136463
-0.16878325 0.3501531 0.10308437 -0.030960225 -0.028082522 0.2849739 0.023159616 -0.06169984
0.18424915 -0.09876324 0.019753395 0.03230684 -0.08921904 -0.02983984 0.15649341 -0.044664543
0.24686633 -0.04563786 -0.10258036 -0.012742497 0.06437762 -0.124826506 0.15801698 -0.07775981
-0.119236246 -0.0019511688 -0.15116528 -0.03740754 -0.019764643 0.18568699 -0.091990374 0.072068766
-0.07338988 0.3209701 -0.016583862 0.0744676 -0.020347193 -0.08402194 -0.14844581 0.06108638
-0.09338528 0.06608768 -0.048627086 0.08047617 0.09739316 -0.11118137 0.016650455 -0.0047200285
00000000: b5d3 903d 3a7c cb3d 84e3 463e 2f5f bd3d
00000010: ca1a fd3c 3d58 973c 6fb7 553b 54f2 003e
00000020: ce71 953c 4a22 3c3e 8d2d bbbb 058a 9cbc
00000030: 7202 903c 194f d73d 333c 9d3d f274 d83d
00000040: f4ce 0fbc b287 6b3d 1250 5c3d 3471 28bd
00000050: ddd3 af3d d7d5 cebd dbfd ea3d 979e 023d
00000060: e8be 6e3d 3d3e 99bd 5e5e ad3d e251 fdbb
00000070: d5a9 4d3c 0707 173d 15a7 d0bd c385 573e
00000080: e09d 6b3e 9c14 dd3c 0333 343e b26c 51bc
00000090: 894d 09bd c735 153e a6e0 f6bc 270a 973c
000000a0: 52d4 d0bb 06f6 97bd c4ce e93d c3bd 04bd
000000b0: 9207 dcbc f21c 9f3d 5267 a2ba 8cb4 4e3e
000000c0: f18f babc 22b9 e83d c7bc b63e 0758 f7bd
000000d0: 66a4 f53d ab7a 443e 674e ae3d 6bcc eb3d
000000e0: 3736 fa3d 0496 2ebd 0954 4b3d cb1b 82bc
000000f0: 9760 adbd 5de5 793e 479c 5cbc 31fc c63c
00000100: 643e 583d a823 8ebd 2af2 9f3b 5221 b93d
00000110: 8b04 ef3c f626 88bb d905 0e3e aa1c 603d
00000120: 598c a9bd 166d 603e cd7e d4bc c15a c8bc
00000130: db96 2a3e 40cf a63e 49e2 153e bc61 cf3d
00000140: bd8b 3e3d e9eb 2a3d d04d 9abd a3d8 373d
00000150: 7500 80bd f863 413d b335 c73e 5378 403e
00000160: 2222 363d d0be dabd 5f89 723d 313f 033d
00000170: cd89 09bd f86a 0abc f572 3f3d 04af 723d
00000180: 003e b33d 302b ae3d 2658 4f3e 0168 4a3b
00000190: c36e ce3b 0ee9 f33c f2f1 23bc 0810 893d
000001a0: 0b6a 86bd 2dc1 923d f318 32bd b068 c13d
000001b0: 08d4 4c3e 1f32 603c 970e 8cbc 788f 373e
000001c0: 72a0 d1bd 571b ab3e 97b2 15ba d2fb 3cbd
000001d0: 0fef 593d 862b a8bd fc12 ab3d a84a a53d
000001e0: 2c28 bdbd e904 c13d 0a45 133f c367 25bd
000001f0: d20b b03d 23b3 f139 1cd6 a9bd 89e0 3dbd
00000200: 83c1 07bd 12ff 2a3d 78a0 b1bc 8995 15ba
00000210: 9f36 0a3d 0329 fd3c 979f 073d 3ef7 c63c
00000220: f215 03bd 50b2 d13c 2474 583e 5935 fc3b
00000230: 61c3 8bbd 92b0 133d 365c 3c3b 7261 8e3d
00000240: eb7d ac3c 0bcb 55bd febb c7bc 46cf 323e
00000250: 003c f03b ade1 40bd e4ed 5cbc 8b5a 913c
00000260: 5c4a 64bd f5c2 913b 0d56 9fbd e376 1fbd
00000270: e11b b8bc 1c15 a4bc 291a c3bd 6430 8b3e
00000280: 485c d3bd 10ec 0b3d 4b35 2ebd 1e2f 583e
00000290: c299 02bd 1958 96bd 8534 aa3d fe44 353e
000002a0: 04ab abbd 4329 b3bc 6548 80be 09aa 713d
000002b0: 53f6 64bc b0ae 063e 0350 f0bc ab9f 3f3e
000002c0: 5d14 d2bd 7c31 d3bd c0be bf3c 97b9 b23d
000002d0: e76a f73d 147e 883c 41a3 eb3d 3bca c1bd
000002e0: 64f4 023e d9f7 81bc 7e06 2a3c 4b99 eabc
000002f0: 7a36 49bb 98a2 ebbd 0976 423d 237f 9f3d
00000300: 61e2 823d 33e3 173c 89f0 ca3d c9ab 083d
00000310: 132c c6bd ffb6 39bd 3ba1 10be fb2c ddbc
00000320: 3272 3d3d 5022 163e c8ec 13bc e7a2 afbd
00000330: d8ef 91ba 8e5d ebbd 21e6 c7bc 32be 5d3d
00000340: 84d5 2cbe 4447 b33e e61d d33d 4ca0 fdbc
00000350: 510d e6bc 19e8 913e 3cb9 bd3c f9b8 7cbd
00000360: cfab 3c3e 6244 cabd dfd1 a13c 2d54 043d
00000370: 79b8 b6bd ae72 f4bc cf3f 203e 2bf2 36bd
00000380: 87ca 7c3e c4ee 3abd a715 d2bd e8c5 50bc
00000390: 6ad8 833d 0aa5 ffbd 34cf 213e 8940 9fbd
000003a0: 2232 f4bd 5cbe ffba 12cb 1abe a638 19bd
000003b0: 76e9 a1bc bb24 3e3e 7365 bcbd ca98 933d
000003c0: 6f4d 96bd 3156 a43e e1da 87bc 7882 983d
000003d0: 28af a6bc b213 acbd 2e02 18be b635 7a3d
000003e0: c840 bfbd fa58 873d 322d 47bd b1d0 a43d
000003f0: 1176 c73d 0fb3 e3bd 8966 883c 78aa 9abb

bias f4 [18]
0.10399193 0.091013096 0.07775536 -0.1878776 -0.054556526 0.111535914 -0.08944415 0.038335763
0.019696508 0.49126077 0.18344411 0.07494906 -0.110824704 0.025197467 0.007548467 0.07440609
-0.19994718 0.16986392
00000000: b9f9 d43d 1365 ba3d 343e 9f3d fc62 40be
00000010: aa76 5fbd f16c e43d 7f2e b7bd f605 1d3d
00000020: 925a a13c 8886 fb3e c6d8 3b3e e57e 993d
00000030: 10f8 e2bd eb6a ce3c 2159 f73b 3862 983d
00000040: f4be 4cbe cff0 2d3e

weight f4 [6, 18]
-0.32761732 -0.16909173 0.38550314 0.05592505 0.052782074 0.23492344 -0.4978198 0.020348573
0.5098486 -0.11714842 -0.30471975 -0.45750543 -0.008248041 0.10327218 -0.11436665 -0.2906491
0.24311082 0.57746106 0.5218136 -0.10900324 -0.6399187 0.07393848 -0.33445776 0.2738427
0.034997188 0.18392184 -0.25367358 -0.47310826 -0.08003911 -0.12821265 0.44107163 -0.04646562
-0.21756835 0.058159217 0.10602214 0.20486155 0.15946645 -0.14739121 0.3211637 0.20595154
-0.22000147 -0.530374 0.38810217 0.19813195 -0.27831584 -0.2972463 0.087070234 -0.1577885
-0.33066854 -0.11284332 0.3092948 -0.26110116 0.32126662 0.06626462 -0.4595388 0.1709931
0.11642784 -0.1272823 0.48048714 -0.09761333 0.1420837 -0.39865 0.16880237 -0.43005845
-0.19474603 0.58107466 0.21172383 -0.08153727 -0.40376148 0.007783415 -0.02439511 -0.18942052
0.20133936 -0.57231975 -0.28552157 -0.499283 0.44771978 -0.22580104 0.30933064 -0.20909248
0.4481464 0.11637049 0.07470537 -0.10453137 0.0913943 -0.018996423 0.41228178 0.5704946
-0.07784832 0.08433857 0.082928926 0.5489011 0.0061734277 -0.31903112 0.3141985 -0.24792188
0.2562586 -0.014854851 -0.4157462 0.16423966 -0.25897017 -0.5640057 0.23353 0.14353505
-0.3590192 0.16687265 -0.16479164 0.35482606
00000000: 75bd a7be 6226 2dbe ab60 c53e aa11 653d
00000010: 0432 583d c58f 703e 3de2 febe 0db2 a63c
00000020: 7085 023f 83eb efbd 3a04 9cbe 273e eabe
00000030: cb22 07bc 5d80 d33d 1039 eabd f5cf 94be
00000040: 0bf2 783e 7dd4 133f 9395 053f 173d dfbd
00000050: b6d1 23bf 0f6d 973d 0c3e abbe 1c35 8c3e
00000060: 3659 0f3d 0256 3c3e 81e1 81be 3f3b f2be
00000070: 8beb a3bd 2d4a 03be 24d4 e13e bc52 3ebd
00000080: 3dca 5ebe 5c38 6e3d 2322 d93d 3ac7 513e
00000090: 2c4b 233e b9ed 16be 926f a43e f6e4 523e
000000a0: 1148 61be 97c6 07bf 54b5 c63e 1ae3 4a3e
000000b0: 6a7f 8ebe ab30 98be e151 b23d 4f93 21be
000000c0: 634d a9be 661a e7bd e35b 9e3e 0daf 85be
000000d0: 0f7d a43e bfb5 873d ab48 ebbe d118 2f3e
000000e0: b871 ee3d 4b56 02be 6902 f63e 7fe9 c7bd
000000f0: 647e 113e da1b ccbe 87da 2c3e 9f30 dcbe
00000100: 816b 47be 4fc1 143f 22ce 583e 03fd a6bd
00000110: d3b9 cebe 040c ff3b 41d8 c7bc 74f7 41be
00000120: e82b 4e3e 8c83 12bf e22f 92be 05a2 ffbe
00000130: 873b e53e 6338 67be 9660 9e3e 571c 56be
00000140: 7273 e53e a753 ee3d 21ff 983d 8b14 d6bd
00000150: ef2c bb3d 639e 9bbc 9916 d33e ef0b 123f
00000160: f16e 9fbd b3b9 ac3d a4d6 a93d c884 0c3f
00000170: 774a ca3b 0c58 a3be a0de a03e 3cdf 7dbe
00000180: 5434 833e c361 73bc b0dc d4be 712e 283e
00000190: bd97 84be ad62 10bf 7d22 6f3e dafa 123e
000001a0: 5dd1 b7be aae0 2a3e 24bf 28be c3ab b53e

bias f4 [6]
-0.07561241 -0.23169686 -0.2053316 -0.2051653 -0.050184824 -0.07741229
00000000: aeda 9abd f141 6dbe 7242 52be da16 52be
00000010: 9a8e 4dbd 568a 9ebd

weight f4 [18, 6]
0.13016002 -0.24082975 0.6003671 0.20512988 -0.036467906 0.41330776 -0.42728484 -0.05697585
0.3440702 0.346052 -0.107770704 -0.35704258 -0.43637702 0.4233636 -0.06304708 0.05259469
0.15390503 0.19830988 -0.045838296 0.29100826 0.01127892 -0.38348326 -0.41559947 -0.06884498
-0.12324273 0.2313542 -0.5755546 -0.19544965 0.03625217 -0.39626253 0.027640078 0.13942613
-0.26963896 0.35779497 -0.34116757 0.1653278 0.38653895 0.30468988 0.2764284 0.19041227
0.14572704 0.025130512 -0.21544074 -0.31482324 -0.2102949 -0.4327012 0.017898047 0.08091605
-0.31072417 -0.0014870919 0.24068859 -0.019157434 -0.25806883 0.36281428 0.27965868 -0.19085947
-0.16423814 -0.07627985 -0.1557001 -0.13480514 -0.13765948 -0.24161388 -0.32889697 -0.14374846
-0.105223 -0.05353903 0.36303416 -0.34504688 0.062803015 -0.050431427 -0.120762356 -0.15559469
0.24946181 0.10188025 0.2451092 0.14868647 0.117746286 0.116064034 0.14019707 0.017713062
0.16077323 -0.22646236 0.27713597 -0.122205175 0.4012358 0.05729031 -0.30736524 -0.31494159
0.10622348 0.33378452 -0.25882974 -0.44107533 -0.47928563 -0.3993817 -0.1547833 0.14626431
0.06030853 -0.2903059 -0.00412419 0.42844126 0.4422844 0.066267066 -0.0975284 -0.2479017
-0.15475316 -0.37263426 0.07575751 0.072196394
00000000: ab48 053e 139c 76be a9b1 193f 910d 523e
00000010: 5f5f 15bd 139d d33e 14c5 dabe 825f 69bd
00000020: f829 b03e ba2d b13e e3b6 dcbd 49ce b6be
00000030: cf6c dfbe 1dc3 d83e d41e 81bd 886d 573d
00000040: 4899 1d3e bf11 4b3e f0c0 3bbd 09ff 943e
00000050: 38cb 383c eb57 c4be 74c9 d4be 99fe 8cbd
00000060: af66 fcbd 1ee8 6c3e 8c57 13bf f423 48be
00000070: 287d 143d ece2 cabe 726d e23c b9c5 0e3e
00000080: 1e0e 8abe e730 b73e 84ad aebe b14b 293e
00000090: 6fe8 c53e 5000 9c3e 0688 8d3e 6ffb 423e
000000a0: 7839 153e 81de cd3c 7f9c 5cbe 8330 a1be
000000b0: 8c57 57be 038b ddbe ed9e 923c 50b7 a53d
000000c0: 3d17 9fbe 86ea c2ba 1277 763e 0df0 9cbc
000000d0: 9921 84be cbc2 b93e 6c2f 8f3e aa70 43be
000000e0: 0b2e 28be 9c38 9cbd d96f 1fbe 5c0a 0abe
000000f0: 9bf6 0cbe a169 77be 2f65 a8be cc32 13be
00000100: 287f d7bd be4b 5bbd 9ddf b93e fca9 b0be
00000110: de9e 803d 2f91 4ebd 4152 f7bd 3754 1fbe
00000120: eb72 7f3e 98a6 d03d e8fd 7a3e 4441 183e
00000130: f724 f13d fbb2 ed3d d28f 0f3e fc1a 913c
00000140: bda1 243e c0e5 67be c4e4 8d3e b546 fabd
00000150: c76e cd3e 3ea9 6a3d fa5e 9dbe 0640 a1be
00000160: b28b d93d cee5 aa3e 5585 84be a0d4 e1be
00000170: ed64 f5be c27b ccbe 837f 1ebe 50c6 153e
00000180: 1406 773d faa2 94be 3724 87bb a75c db3e
00000190: 1a73 e23e 07b7 873d f8bc c7bd f1d9 7dbe
000001a0: 9d77 1ebe ebc9 bebe c126 9b3d b4db 933d

bias f4 [18]
-0.011999293 0.11145522 -0.016171413 0.2847279 0.015718702 0.09909436 0.0017060529 0.29234058
-0.27372387 0.13040118 0.42583093 0.056860734 -0.32122144 0.2785994 -0.06263868 0.333703
-0.23458786 0.33555177
00000000: af98 44bc a242 e43d e979 84bc dbc7 913e
00000010: 82c4 803c fcf1 ca3d a39d df3a aaad 953e
00000020: 8925 8cbe e387 053e 8306 da3e cde6 683d
00000030: 2377 a4be 95a4 8e3e b548 80bd 1fdb aa3e
00000040: cd37 70be 71cd ab3e

weight f4 [54, 18]
0.1381577 0.13978039 -0.093465306 -0.18244849 -0.077511206 -0.22743244 0.13917798 -0.1610469
0.19802792 -0.170896 0.14935975 -0.20327638 0.08651237 -0.1717021 -0.13631226 -0.1327978
-0.17551297 -0.19249433 -0.003271651 -0.058901887 -0.10171702 -0.16842413 0.072902694 0.1562775
0.000382772 -0.116287865 0.10676478 -0.21552065 -0.1960204 -0.044475228 0.1446436 -0.0755493
0.1085006 -0.11241392 -0.17109914 0.09637111 0.2640571 -0.08013778 0.024632566 0.19833338
-0.13241918 0.28507945 0.06627827 -0.087856494 0.0675737 0.20836733 -0.13272507 0.11172919
0.026918214 0.015792752 0.29637092 0.2994398 -0.028435947 0.08417703 0.19282116 -0.07712119
-0.006591396 0.08640882 -0.16984634 0.006559106 0.047523 0.07281228 0.16321024 -0.10791362
-0.10012811 0.065515295 0.054707747 0.18452542 0.26663238 -0.01719905 0.08281371 0.22349407
0.03908527 0.12533954 -0.028405188 -0.006491317 0.010739026 0.22456476 -0.047188524 -0.11717375
-0.068267435 0.15526044 0.24320751 0.031779848 -0.18038878 -0.16626357 0.08436437 0.25622925
0.15716667 0.055186335 -0.047974482 0.024532516 0.041564032 0.07583851 -0.03603735 -0.04334204
-0.039310917 0.024792518 -0.11209819 0.24790466 0.12084372 0.23157087 -0.06746461 -0.01362145
0.14475527 0.43718296 -0.043794945 -0.023366073 -0.19202156 0.29010552 -0.100171775 0.33918583
0.10230179 0.048684686 -0.023213567 0.102978274 0.067132376 -0.18709189 0.06694914 0.16850276
0.21570274 -0.05458872 -0.123655014 0.0724384 -0.07126433 0.2104481 0.23372424 0.29577592
-0.03722466 0.38737085 -0.1747941 -0.048026435 -0.05744546 -0.073605284 0.22211635 -0.0920084
-0.14494054 0.23087434 -0.16811274 0.29200882 -0.10306481 0.10503432 -0.02668833 0.09646337
-0.048693143 0.090846054 -0.06539467 -0.03565346 0.29366255 0.2554716 0.20514302 -0.09463706
0.06913514 0.18824296 0.4254392 0.052970476 0.20057207 0.09945716 0.03244474 -0.1278826
0.17781657 -0.13999982 0.10277659 0.16831706 -0.110012114 -0.11847959 0.1389411 0.012144103
-0.011796627 0.20333347 -0.051448468 0.0734442 0.33863336 0.11005745 -0.108256966 0.029278934
-0.06901351 -0.17355283 0.25520685 0.13249493 0.29986453 0.17933455 0.011768408 0.197382
-0.11581611 0.15358935 -0.19072768 0.17715436 0.1368567 0.13028279 0.13025136 0.097694084
0.050404567 -0.19098629 0.06873823 0.6702748 -0.114274256 0.15395196 -0.124322645 0.0025212097
0.027683144 0.071674354 0.11572835 -0.1330424 -0.13786033 -0.026931891 -0.059823856 0.14978674
0.20030977 0.095328115 0.18293108 0.036400873 0.07540349 0.11861936 -0.0058754096 0.1823857
0.16524541 0.09027015 0.04642783 -0.22420853 0.061400328 -0.12578446 -0.10090147 -0.12643625
-0.096791476 -0.20836619 -0.07988092 -0.01084846 -0.053688712 0.19718662 -0.08067132 -0.19612147
-0.01967832 -0.11664323 0.020120844 0.17606933 -0.022077108 -0.037044764 -0.026054021 -0.25188375
0.14420433 0.22161414 -0.03250737 0.20475489 -0.09992776 0.34693617 0.21966493 0.07069303
0.005094856 0.18593223 0.035413563 0.16432963 0.19544548 -0.10403203 0.47446796 0.014023765
00000000: 3679 0d3e 9722 0f3e bd6a bfbd c7d3 3abe
00000010: 32be 9ebd 0de4 68be ac84 0e3e 7be9 24be
00000020: d5c7 4a3e 5cff 2ebe c3f1 183e af27 50be
00000030: 662d b13d add2 2fbe 7195 0bbe 25fc 07be
00000040: acb9 33be 3c1d 45be 3269 56bb 1b43 71bd
00000050: 0351 d0bd 6077 2cbe 024e 953d 3507 203e
00000060: caae c839 5528 eebd 7ea7 da3d 72b1 5cbe
00000070: 92b9 48be a82b 36bd 741d 143e 97b9 9abd
00000080: 9035 de3d 4539 e6bd 9d34 2fbe 375e c53d
00000090: 7e32 873e 471f a4bd 3cca c93c e817 4b3e
000000a0: e598 07be eff5 913e e7bc 873d 1bee b3bd
000000b0: 1464 8a3d 3f5e 553e 15e9 07be 46d2 e43d
000000c0: 9683 dc3c cd5f 813c eebd 973e 2c50 993e
000000d0: 81f2 e8bc 0265 ac3d e972 453e b7f1 9dbd
000000e0: a3fc d7bb 1bf7 b03d 33ec 2dbe c5ed d63b
000000f0: 7aa7 423d 9b1e 953d 9620 273e d101 ddbd
00000100: f70f cdbd e22c 863d 3b15 603d 3bf4 3c3e
00000110: 0a84 883e 06e5 8cbc 3c9a a93d a1db 643e
00000120: e017 203d 0259 003e ffb1 e8bc 1db5 d4bb
00000130: bdf2 2f3c 4ef4 653e c148 41bd cbf8 efbd
00000140: cccf 8bbd 98fc 1e3e 640b 793e 962b 023d
00000150: d6b7 38be ff40 2abe 3ac7 ac3d 7b30 833e
00000160: 4df0 203e 110b 623d e480 44bd 6af8 c83c
00000170: 0c3f 2a3d 3951 9b3d e69b 13bd 6c87 31bd
00000180: 7c04 21bd ae19 cb3c bc93 e5bd b8da 7d3e
00000190: ea7c f73d ea20 6d3e e32a 8abd 812c 5fbc
000001a0: ba3a 143e 72d6 df3e 5462 33bd 356a bfbc
000001b0: 4da1 44be b688 943e dc26 cdbd c4a9 ad3e
000001c0: 9a83 d13d 9869 473d 612a bebc 46e6 d23d
000001d0: b37c 893d 0495 3fbe a11c 893d fd8b 2c3e
000001e0: 2ee1 5c3e 6c98 5fbd d73e fdbd 955a 943d
000001f0: 08f3 91bd b57f 573e 6855 6f3e f16f 973e
00000200: e378 18bd 7955 c63e 39fd 32be 5eb7 44bd
00000210: ee4b 6bbd 5ebe 96bd 7872 633e e66e bcbd
00000220: 4b6b 14be 536a 6c3e bf25 2cbe 2e82 953e
00000230: a513 d3bd 3c1c d73d 7ca1 dabc 968e c53d
00000240: 7672 47bd 7f0d ba3d a4ed 85bd 5d09 12bd
00000250: f05a 963e 2ccd 823e 0311 523e 13d1 c1bd
00000260: b996 8d3d c3c2 403e 2bd3 d93e 92f7 583d
00000270: c462 4d3e 32b0 cb3d c7e4 043d a8f3 02be
00000280: 8c15 363e 1d5c 0fbe 887c d23d 4f5b 2c3e
00000290: 084e e1bd 6da5 f2bd 9346 0e3e 0ff8 463c
000002a0: a446 41bc a636 503e a1bb 52bd ea69 963d
000002b0: 5a61 ad3e cd65 e13d d4b5 ddbd 60da ef3c
000002c0: f556 8dbd d5b7 31be 79aa 823e c0ac 073e
000002d0: d887 993e 7aa3 373e 48d0 403c 821e 4a3e
000002e0: ff30 edbd 8746 1d3e 1e4e 43be f467 353e
000002f0: 2a24 0c3e da68 053e 9d60 053e d613 c83d
00000300: 0575 4e3d e991 43be a1c6 8c3d 2197 2b3f
00000310: 9f08 eabd 95a5 1d3e df9c febd e13a 253b
00000320: c3c7 e23c 01ca 923d fc02 ed3d 443c 08be
00000330: 422b 0dbe 45a0 dcbc dc09 75bd b261 193e
00000340: 011e 4d3e 633b c33d 4952 3b3e 1519 153d
00000350: 256d 9a3d b5ee f23d 8286 c0bb 51c3 3a3e
00000360: 1836 293e 8edf b83d 1c2b 3e3d ec96 65be
00000370: e97e 7b3d a4cd 00be 6ea5 cebd 8178 01be
00000380: 9c3a c6bd f25d 55be 9c98 a3bd bdbd 31bc
00000390: b2e8 5bbd 4aeb 493e 0137 a5bd 11d4 48be
000003a0: 6e34 a1bc a5e2 eebd 78d4 a43c 854b 343e
000003b0: 0ddb b4bc 40bc 17bd 3e6f d5bc e8f6 80be
000003c0: 4daa 133e d1ee 623e 7326 05bd 44ab 513e
000003d0: eda6 ccbd 9ea1 b13e d8ef 603e 82c7 903d
000003e0: c0f2 a63b 0565 3e3e d00d 113d 0746 283e
000003f0: dc22 483e bf0e d5bd 77ed f23e efc3 653c

bias f4 [54]
-0.20531656 -0.21289994 0.0471101 0.24101314 0.05404902 -0.13235854 -0.04920949 0.5709889
0.243282 0.09261051 -0.08414044 -0.13935772 -0.026392372 0.11483945 0.281282 -0.24113888
0.5576647 0.26723593 -0.2411156 0.32059187 0.2406909 -0.16642283 0.049012966 0.49438056
0.17992708 0.29280305 -0.058593843 -0.11139036 0.25155336 -0.08896455 -0.17630696 0.16058907
0.43789032 -0.16989616 -0.01360911 0.33297148 -0.18543999 -0.20416714 -0.17079891 0.17830093
0.3675075 -0.21390654 0.07342044 0.23460555 0.011048223 0.19659781 0.33066744 0.41746828
0.25452983 0.31754303 0.0009077416 0.19317757 0.3443646 -0.22247478
00000000: 813e 52be 7102 5abe 85f6 403d 26cc 763e
00000010: 8162 5d3d ff88 07be e48f 49bd 542c 123f
00000020: eb1e 793e 94aa bd3d d351 acbd cab3 0ebe
00000030: d134 d8bc f230 eb3d 3204 903e 1ced 76be
00000040: 1dc3 0e3f 26d3 883e 02e7 76be 9e24 a43e
00000050: ad77 763e bf6a 2abe d2c1 483d 731f fd3e
00000060: ce3e 383e 48ea 953e 1900 70bd a120 e4bd
00000070: 9acb 803e 0c33 b6bd d089 34be 7671 243e
00000080: 2933 e03e 42f9 2dbe bff8 5ebc 3d7b aa3e
00000090: fbe3 3dbe 3111 51be e9e5 2ebe 8594 363e
000000a0: f129 bc3e 510a 5bbe 755d 963d 703c 703e
000000b0: 9b03 353c f050 493e 3e4d a93e 67be d53e
000000c0: bc51 823e 0095 a23e 82f5 6d3a 57d0 453e
000000d0: 8f50 b03e 6ed0 63be

weight f4 [90, 54]
-0.1143436 -0.06690132 -0.21489921 -0.10961815 -0.00088934833 0.04314121 0.16621749 0.029887335
-0.041452173 0.05098228 0.3060138 0.06439457 -0.008697006 0.007032664 -0.16300938 -0.12042998
-0.2258034 -0.007985348 -0.055417996 0.043685365 -0.048329696 0.0028253538 -0.17767385 -0.27738133
-0.11577299 -0.0064804833 0.00808688 -0.15908907 0.009194377 0.18788156 0.015897173 -0.057151567
-0.21405621 0.19212471 0.13851808 0.041508537 0.015190458 0.112514615 -0.027510518 0.08540099
-0.357485 0.06583273 -0.11475311 -0.14575781 -0.17081591 0.052198447 -0.013458702 0.18429288
0.0997236 -0.21800736 -0.1402881 0.023832 0.24666278 0.021974009 -0.080429785 -0.034228258
-0.12831528 -0.25616637 0.051894482 0.099613376 0.11251977 0.114061914 -0.15899606 -0.028388444
0.26775151 0.017475383 0.065634966 0.063151084 -0.19784643 -0.0009477858 -0.25375012 0.010060424
-0.051892288 0.07558267 -0.11192734 0.07087414 -0.23072378 -0.10622165 -0.16262007 -0.097218715
-0.04276962 0.06754362 0.005872139 0.029473426 0.032775287 -0.09142432 -0.2143621 0.14996281
0.21776786 0.10071486 -0.08791615 -0.13205382 0.07492888 0.09319459 -0.35390827 0.061298892
0.010430669 -0.14389062 -0.14792675 -0.104877815 -0.067343764 0.234969 0.19419032 -0.23575447
-0.08738576 -0.02047549 0.20075147 -0.05634096 0.009979366 0.11932809 -0.28173935 -0.1745015
-0.037806485 -0.048947558 0.14725012 0.07262245 -0.1379762 0.13234486 0.29053572 0.11008357
0.01919582 0.1477863 -0.15183586 0.017609825 -0.19426762 -0.028698975 -0.105180964 0.047535077
-0.02399558 -0.10247046 -0.12302095 -0.15327868 0.041562457 -0.06011255 -0.047555115 -0.028917452
0.12065828 0.13323721 -0.01396203 -0.024449263 -0.12375529 0.1224234 0.16613668 0.038359452
0.120776825 0.08340352 0.06430494 0.008930618 -0.3117875 0.081942216 -0.11932504 -0.08699198
0.01332836 -0.08715229 -0.04539195 0.137907 0.17625311 -0.18335567 -0.080652796 0.040108528
0.20746416 0.123196326 -0.048511144 -0.011985963 -0.20925768 -0.14998282 0.0047698733 -0.06701016
0.16620587 0.048300136 -0.15300852 0.07651123 0.18629536 0.052358493 -0.09703063 0.09299599
-0.16905117 0.007968813 -0.11593164 -0.13210422 -0.040286645 0.13760552 -0.028976597 -0.08116383
-0.16600905 -0.17310238 0.05025889 -0.09676621 -0.11283782 -0.08918976 0.12350911 0.15732335
0.030533493 -0.09387604 -0.1145401 0.1822943 0.19323139 0.035865 0.10598681 0.00029567056
0.055222094 -0.11211472 -0.35368854 -0.032001756 -0.08273187 -0.06912904 -0.04375453 0.08184569
-0.042405594 0.1320957 0.1472506 -0.1476184 -0.116167314 0.070886716 0.1988574 -0.057982907
-0.055156 -0.016727474 -0.17301588 -0.16059305 -0.106879994 0.04678168 0.23899308 0.1045856
-0.039230876 0.001085599 0.206612 -0.06838593 -0.014081959 0.047251362 -0.10867802 -0.010580091
-0.17703503 -0.08425811 0.09030152 0.11981879 -0.07177497 -0.05355382 -0.122592635 -0.218404
0.00463587 -0.04746298 -0.049684487 0.010182523 0.12214303 0.12248737 0.028615799 -0.030188287
-0.10939836 0.1516237 0.108594894 0.036999848 -0.06736268 -0.0041302163 0.034325205 -0.095630646
00000000: fa2c eabd 8f03 89bd 8a0e 5cbe 7b7f e0bd
00000010: 2823 69ba d6b4 303d eb34 2a3e 49d6 f43c
00000020: c1c9 29bd ccd2 503d d7ad 9c3e 4de1 833d
00000030: e37d 0ebc 4372 e63b eeeb 26be fea3 f6bd
00000040: 0239 67be fad4 02bc fbfd 62bd 6def 323d
00000050: 5cf5 45bd 9229 393b 22f0 35be ed04 8ebe
00000060: 641a edbd 3c5a d4bb d57e 043c 3fe8 22be
00000070: 03a4 163c 0664 403e ca3a 823c c317 6abd
00000080: 8d31 5bbe 57bc 443e afd7 0d3e db04 2a3d
00000090: 66e1 783c 106e e63d bd5d e1bc b7e6 ae3d
000000a0: 4608 b7be 4fd3 863d ae03 ebbd 8941 15be
000000b0: 5eea 2ebe 0ace 553d e381 5cbc 46b7 3c3e
000000c0: e33b cc3d 523d 5fbe afa7 0fbe 543b c33c
000000d0: 2b95 7c3e d602 b43c 5fb8 a4bd ee32 0cbd
000000e0: 1565 03be 3d28 83be 4f8f 543d 1902 cc3d
000000f0: c470 e63d 4b99 e93d ddcf 22be e28e e8bc
00000100: ba16 893e 8928 8f3c a06b 863d 5b55 813d
00000110: 4198 4abe d474 78ba 89eb 81be 7ad4 243c
00000120: 028d 54bd 16cb 9a3d 293a e5bd 7626 913d
00000130: db42 6cbe bd8a d9bd e085 26be 9b1a c7bd
00000140: 322f 2fbd 4f54 8a3d 126b c03b 4172 f13c
00000150: 613f 063d ad3c bbbd bd81 5bbe da8f 193e
00000160: 8afe 5e3e 9843 ce3d 620d b4bd 1e39 07be
00000170: 5074 993d cedc be3d 7733 b5be 8c14 7b3d
00000180: 66e5 2a3c 1058 13be 1c7a 17be 2eca d6bd
00000190: 87eb 89bd b79b 703e d4d9 463e 9f69 71be
000001a0: 4ef7 b2bd 37bc a7bc cb91 4d3e c7c5 66bd
000001b0: 7f80 233c 4962 f43d 2440 90be 85b0 32be
000001c0: f9da 1abd 3c7d 48bd bcc8 163e 14bb 943d
000001d0: a249 0dbe 6985 073e 19c1 943e 7f73 e13d
000001e0: 8d40 9d3c 4b55 173e dc7a 1bbe 7b42 903c
000001f0: 17ee 46be 1d1a ebbc 1e69 d7bd 24b4 423d
00000200: 6192 c4bc 08dc d1bd 68f2 fbbd 16f5 1cbe
00000210: 653d 2a3d 9438 76bd 27c9 42bd 4be4 ecbc
00000220: b01b f73d 566f 083e 00c1 64bc d249 c8bc
00000230: 6a73 fdbd 1fb9 fa3d bc1f 2a3e cd1e 1d3d
00000240: d759 f73d 77cf aa3d 4fb2 833d ba51 123c
00000250: 9ca2 9fbe 52d1 a73d b060 f4bd da28 b2bd
00000260: 325f 5a3c e67c b2bd e9ec 39bd 7e37 0d3e
00000270: b27b 343e 97c1 3bbe 4b2d a5bd d748 243d
00000280: 7c71 543e 5b4e fc3d 9fb3 46bd c660 44bc
00000290: a547 56be 1995 19be 994c 9c3b 9f3c 89bd
000002a0: df31 2a3e 5dd6 453d 44ae 1cbe ebb1 9c3d
000002b0: 36c4 3e3e dc75 563d ffb7 c6bd ae74 be3d
000002c0: c01b 2dbe a08f 023c 916d edbd 5446 07be
000002d0: 9c03 25bd 76e8 0c3e 5460 edbc 3939 a6bd
000002e0: 47fe 29be c041 31be 44dc 4d3d 5d2d c6bd
000002f0: 8417 e7bd 1fa9 b6bd 58f2 fc3d 5f19 213e
00000300: 6021 fa3c 1542 c0bd 0094 eabd 5bab 3a3e
00000310: 73de 453e 2ee7 123d 9d0f d93d 3b04 9b39
00000320: 9030 623d 679c e5bd aa16 b5be 4614 03bd
00000330: 546f a9bd 8793 8dbd f337 33bd b79e a73d
00000340: 7db1 2dbd 1844 073e dcc8 163e 4729 17be
00000350: 21e9 edbd 0e2d 913d 46a1 4b3e 7c7f 6dbd
00000360: 42eb 61bd 0e08 89bc 132b 31be 8172 24be
00000370: e6e3 dabd 269e 3f3d 9aba 743e fa30 d63d
00000380: 8eb0 20bd a84a 8e3a 1992 533e ec0d 8cbd
00000390: 04b8 66bc a58a 413d 9592 debd 1e58 2dbc
000003a0: ac48 35be 848f acbd 01f0 b83d 8e63 f53d
000003b0: c1fe 92bd 405b 5bbd d911 fbbd 4ca5 5fbe
000003c0: 7fe8 973b 8b68 42bd f681 4bbd 99d4 263c
000003d0: 2026 fa3d a9da fa3d ae6b ea3c 6d4d f7bc
000003e0: 3f0c e0bd 3e43 1b3e 0067 de3d 278d 173d
000003f0: 72f5 89bd c456 87bb 9698 0c3d 00da c3bd

bias f4 [90]
-0.1166921 -0.07939243 -0.2257858 -0.1519829 -0.038028006 -0.18050079 -0.10535093 -0.046598822
0.04344937 0.046759024 0.14601548 0.16157398 0.073309034 0.110829756 0.17969799 0.15416221
0.15139592 0.099238865 0.078548215 0.043205947 0.028994879 -0.08907926 -0.023748223 -0.12997626
-0.12757064 -0.18448703 -0.15410623 -0.14498727 -0.14592998 -0.1900983 -0.14956559 -0.07834899
-0.12784317 -0.11097218 -0.08055519 -0.030588083 0.061663322 0.06812685 0.061482023 0.090258606
0.16215532 0.124543674 0.20817524 0.14630105 0.20806195 0.17910072 0.14009312 0.13341382
0.13443455 0.15770447 0.10446824 0.023052922 0.04997847 -0.036930818 -0.06313288 -0.12168103
-0.121077284 -0.13540064 -0.14978908 -0.22221704 -0.1976993 -0.1660879 -0.18669325 -0.20864674
-0.20000204 -0.15527172 -0.11796699 -0.062123995 -0.061545778 -0.000317046 -0.022312734 0.054024678
0.0809192 0.10520195 0.1382528 0.18212144 0.114855304 0.19480103 0.17731465 0.1854488
0.12229729 0.16199607 0.1509084 0.054547973 0.078036584 0.08531808 0.08618989 -0.03430046
-0.08059426 -0.052968573
00000000: 45fc eebd 8098 a2bd 6534 67be 68a1 1bbe
00000010: 41c3 1bbd 33d5 38be 3ac2 d7bd 68de 3ebd
00000020: f7f7 313d 6486 3f3d 1585 153e a673 253e
00000030: 0c23 963d b6fa e23d c002 383e b3dc 1d3e
00000040: 8807 1b3e bf3d cb3d e3dd a03d b8f8 303d
00000050: ab86 ed3c 306f b6bd a28b c2bc 7f18 05be
00000060: e1a1 02be 2bea 3cbe 06ce 1dbe 8b77 14be
00000070: ab6e 15be 21a9 42be b927 19be 6f75 a0bd
00000080: 52e9 02be 6245 e3bd 1ffa a4bd dc93 fabc
00000090: ae92 7c3d 1786 8b3d 93d4 7b3d 81d9 b83d
000000a0: 0b0c 263e c110 ff3d e42b 553e f1cf 153e
000000b0: 310e 553e 2e66 373e 9274 0f3e a29d 083e
000000c0: 36a9 093e 487d 213e 72f3 d53d 7bd9 bc3c
000000d0: 39b6 4c3d c544 17bd d04b 81bd e733 f9bd
000000e0: 5ef7 f7bd 77a6 0abe 4f62 19be dd8c 63be
000000f0: af71 4abe f212 2abe 842c 3fbe 7ea7 55be
00000100: 56cd 4cbe 8dff 1ebe ad98 f1bd bb75 7ebd
00000110: 6d17 7cbd 3239 a6b9 32c9 b6bc fb48 5d3d
00000120: f7b8 a53d 1f74 d73d 2492 0d3e 0b7e 3a3e
00000130: 4239 eb3d ec79 473e f991 353e 4ae6 3d3e
00000140: 0077 fa3d 4ce2 253e bb87 1a3e b26d 5f3d
00000150: a5d1 9f3d 3fbb ae3d 5384 b03d a47e 0cbd
00000160: 9a0e a5bd 93f5 58bd
