knn/models/pretrained-autoencoder/autoencoder-in_features150-latent_size8.pt (torch, 123960 bytes, 12 tensors)

weight f4 [72, 150]
0	0xbbcf4c7a	-0.0063262554
1	0xbd029f8c	-0.031890437
2	0xbb42523a	-0.0029651062
3	0xbd712f8b	-0.05888323
4	0xbd806e93	-0.0627109
5	0x3cc01a48	0.023450032
6	0x3c3c2bc7	0.011485047
7	0x3cddf337	0.027093513
8	0xbd5781fd	-0.0526142
9	0xbb521921	-0.0032058435
10	0xbd8ecf46	-0.06973128
11	0x3ce92553	0.02846018
12	0xbcc4fbda	-0.024045873
13	0xbc27536e	-0.010212762
14	0xbd55ecf7	-0.05222794
15	0x3d32cabf	0.043650385
16	0x3cb2613c	0.02177488
17	0x3c8251d9	0.015908169
18	0xbcdfc0c8	-0.027313605
19	0xbd007f26	-0.03137126
20	0xbcf46e56	-0.029837769
21	0x3ca490a9	0.02008851
22	0xbc2461dd	-0.010033098
23	0xba17b92e	-0.0005787787
24	0xbcda6187	-0.026657833
25	0x3c10b32f	0.008831783
26	0x3d847074	0.06466761
27	0x3d8bba56	0.0682265
28	0x3d988fca	0.074493006
29	0xbcbc2d92	-0.022970948
30	0x3d7b9928	0.061425358
31	0xbc3879a6	-0.011259472
32	0x3baf717a	0.0053541036
33	0x3d9b4c98	0.075829685
34	0x3d6a1d77	0.057157006
35	0xbc189a7d	-0.009314177
36	0x3dba1e71	0.090878375
37	0x3da04a10	0.07826626
38	0x3d4c5d02	0.049893387
39	0x3d5c1856	0.053734146
40	0xbba012fe	-0.0048850765
41	0x3d50c9de	0.050973766
42	0x3ce78b31	0.028264614
43	0x3b0c7472	0.0021431712
44	0xbcef3904	-0.029201992
45	0x3c56756a	0.013089517
46	0xbc48fb4d	-0.012266946
47	0xbbbf61c3	-0.0058405115
48	0x3cd19af8	0.02558659
49	0xbd305f0b	-0.04305939
50	0x3c8879e3	0.016659683
51	0xbce2eaf8	-0.027699932
52	0xbd92f833	-0.071762465
53	0xbd92c289	-0.07166011
54	0xbd9b79c2	-0.07591583
55	0xbde13029	-0.10995514
56	0xbe051378	-0.12995708
57	0xbd53d76b	-0.05171911
58	0xbe00dcad	-0.12584181
59	0xbd9fc97a	-0.078021005
60	0xbdfeb336	-0.124365255
61	0xbd338890	-0.043831408
62	0xbe0a682a	-0.13516298
63	0xbe124422	-0.14283803
64	0xbde9e910	-0.11421406
65	0xbdee472c	-0.11634669
66	0xbd1011ef	-0.035173353
67	0xbc9e675f	-0.0193364
68	0xbd6a6270	-0.057222784
69	0xbd55420b	-0.052064937
70	0xbd97cc0b	-0.07411965
71	0xbda205a3	-0.07911231
72	0xbcc2f46a	-0.023798186
73	0xbdb5f94d	-0.08885441
74	0xbb8d2bf3	-0.0043082177
75	0x3d0dde5a	0.03463588
76	0xbc5e8d56	-0.013583502
77	0xbd6705fd	-0.056402195
78	0xbd156822	-0.036476262
79	0xbae51ac9	-0.0017479296
80	0x3d025eb9	0.031828616
81	0xbc8d1517	-0.01722197
82	0x3d77fa6b	0.06054155
83	0x3d240f7d	0.040053833
84	0x3d04b3b1	0.03239793
85	0x3d0ec9a7	0.03486028
86	0x3d080db7	0.033216204
87	0x3cd61e04	0.02613736
88	0x3d22cc41	0.039745573
89	0x3dc65209	0.09683616
90	0x3d9e1747	0.077192836
91	0xbd42456a	-0.04742948
92	0x3d66bb6d	0.056331087
93	0x3d877302	0.06613733
94	0x3cce76b6	0.02520309
95	0x3dcfcff7	0.10147088
96	0x3daeb42b	0.08530458
97	0xbca1a60f	-0.019732503
98	0x3d94f84e	0.07273923
99	0x3c51f332	0.01281433
100	0x3bb47b76	0.0055078818
101	0x39362f1d	0.00017374424
102	0x3d496ffc	0.049179062
103	0x3bd88d64	0.006608652
104	0x3cb3bdc8	0.02194108
105	0x3c4b4fea	0.01240919
106	0xbd2112cd	-0.03932457
107	0x3c81cec1	0.015845658
108	0x3d572db2	0.052533813
109	0x3d866f5b	0.06564208
110	0xbc466911	-0.012110011
111	0x3d8bf208	0.06833273
112	0x3d2d4233	0.04229946
113	0xbc69171b	-0.0142267
114	0x3d3aff12	0.04565341
115	0x3d85fbb9	0.06542153
116	0x3d4ba081	0.049713615
117	0xbcffc443	-0.031221515
118	0xbcbe97d6	-0.02326576
119	0x3dbd872d	0.09254298
120	0x3c41ef76	0.011836877
121	0x3d1c2400	0.03812027
122	0x3db83e46	0.08996253
123	0xbccad0f3	-0.024757838
124	0xbc0a139f	-0.00842753
125	0x3ca9719d	0.020684058
126	0x3d3dcd9d	0.046338666
127	0xbc9217d9	-0.017833637
128	0xbd58db0b	-0.05294327
129	0xbc781937	-0.01514273
130	0xbbb59a68	-0.0055420883
131	0xbcfefbfd	-0.031126017
132	0xbda73a78	-0.08165449
133	0x3ce63847	0.028103007
134	0x3b0320e0	0.0020008609
135	0xbd021f9c	-0.031768426
136	0xbd8e7d1a	-0.06957455
137	0x3d843ad3	0.06456532
138	0xbd21b16d	-0.039475847
139	0xbd10a494	-0.035313204
140	0xbcd861ad	-0.026413763
141	0x3b890fb1	0.0041827788
142	0x3d4c3eb0	0.04986447
143	0x3d6a7619	0.057241533
144	0x3e064bd7	0.13114868
145	0x3dc2cf6f	0.09512221
146	0x3db3e918	0.087846935
147	0x3e039b43	0.12852196
148	0x3e11f6da	0.14254323
149	0x3e1fdec0	0.15612316
150	0x3d1a1e17	0.037626352
151	0xbd0b9e38	-0.034086436
152	0xbd2f0d94	-0.04273756
153	0x3d4786d1	0.048712555
154	0xba8fdbce	-0.0010975541
155	0x3b8442f2	0.004036301
156	0xbc37e4d8	-0.011223994
157	0x3db97f53	0.09057488
158	0xbcd71b9f	-0.026258288
159	0x3dd310b1	0.10305918
160	0x3d550f38	0.052016467
161	0xbd56399d	-0.052301038
162	0x3d483210	0.04887587
163	0xbd27bbc7	-0.040950563
164	0x3c626e7a	0.013820285
165	0xbbba2338	-0.005680468
166	0x3c351344	0.011051957
167	0x3d5ab578	0.05339572
168	0x3d203ff0	0.039123476
169	0xbc42665b	-0.011865224
170	0x3b1a1184	0.0023508975
171	0x3ba7da7c	0.005122481
172	0x3d8d08be	0.06886433
173	0x3d273aa5	0.040827412
174	0x3cd10186	0.025513422
175	0x3d14686a	0.03623239
176	0xbd5accda	-0.053418018
177	0xbd0ca63f	-0.034338232
178	0x3d2864b7	0.041111674
179	0x3d7cdb75	0.061732728
180	0x3d2ef73c	0.04271625
181	0x3b70c3c9	0.003673779
182	0xbd83863e	-0.06422089
183	0x3ce0bd01	0.027433874
184	0xbc2d774e	-0.0105875265
185	0xbdb10b54	-0.08644739
186	0x3d3b0f88	0.04566911
187	0x3c641586	0.013921147
188	0xbcd27eca	-0.025695223
189	0xbcb19bc7	-0.021680726
190	0x3aebbf37	0.0017986064
191	0xbcbb2e62	-0.022849265
192	0xbdacd054	-0.08438173
193	0xbd7ec103	-0.06219579
194	0xbd9704e5	-0.073739804
195	0xbcaa0896	-0.020756047
196	0xbc73867f	-0.014863609
197	0xbce2116f	-0.027596204
198	0xbd21d15e	-0.03950631
199	0xbc7451ed	-0.014912111
200	0xbcbc5474	-0.02298949
201	0xbcc7911d	-0.024361188
202	0xbce045ca	-0.027377028
203	0xbda99139	-0.08279652
204	0xbd905f67	-0.070494466
205	0xbd9b4e07	-0.07583242
206	0x3b47c106	0.0030480041
207	0xbd624623	-0.05524267
208	0x3cc28d4b	0.023749014
209	0xbc087422	-0.0083284695
210	0xbc83aa7f	-0.01607251
211	0x3d7abede	0.06121718
212	0x3d4d4f52	0.050124474
213	0xbd02cf2b	-0.031935852
214	0x3cd0a78d	0.02547052
215	0xbc8a31df	-0.016869484
216	0x3cce75c0	0.025202632
217	0xbd6ec12b	-0.058289688
218	0x3d6a2f9d	0.057174314
219	0xbc60eb43	-0.013727966
220	0xbd081b1f	-0.03322899
221	0x3d7b4742	0.061347254
222	0x3d766cd2	0.060162373
223	0x3d962620	0.073314905
224	0x3c5ebda9	0.013595023
225	0x3d004a26	0.031320713
226	0xbc4b2806	-0.012399679
227	0xbc9dcdba	-0.019263137
228	0x3cf57ef0	0.029967755
229	0x3ba76492	0.0051084245
230	0x3d6e2b15	0.058146555
231	0x3d65fedb	0.056151252
232	0xbd13c524	-0.03607668
233	0x3d076eb4	0.03306456
234	0x3d249e34	0.040189937
235	0x3d04f410	0.03245932
236	0x3d1601a5	0.036622662
237	0xbda6a9ea	-0.08137877
238	0x3c9072ff	0.01763296
239	0x3c46dda7	0.012137807
240	0xbd5436a1	-0.05180991
241	0xbab567cf	-0.0013840141
242	0xb9d22fd1	-0.00040089947
243	0xbdb2d9cb	-0.08732947
244	0xbdbba8a2	-0.091630235
245	0xbd64c3da	-0.05585084
246	0xbd1a84a8	-0.037724167
247	0xbaf3be5d	-0.0018596161
248	0xbd4f1b0d	-0.050562907
249	0xbd7eb6a4	-0.0621859
250	0xbd82784c	-0.06370601
251	0xbd74cc34	-0.059765056
252	0xbd8795fc	-0.06620404
253	0xbd90912b	-0.070589386
254	0xbcdabf6b	-0.026702603
255	0xbd48dd2c	-0.04903905

bias f4 [72]
0	0x3e098cea	0.1343266
1	0x3c67e0f4	0.014152754
2	0xbd8ea76a	-0.069655254
3	0xba3c8c4d	-0.00071925373
4	0xbd7d510f	-0.06184488
5	0xbab5a6c8	-0.0013858909
6	0xbd60cb77	-0.05488154
7	0xbd7f009d	-0.062256444
8	0xbb735ad9	-0.0037133007
9	0xbc90042d	-0.017580116
10	0xbdb6d081	-0.08926488
11	0x3d0a7fd0	0.033813298
12	0x3dba5aae	0.09099327
13	0x3c3d2dc1	0.011546553
14	0xba186e6c	-0.0005814794
15	0x3b160bb1	0.0022895152
16	0x3d269774	0.04067178
17	0xbca2567b	-0.019816628
18	0xbe006f01	-0.12542345
19	0xbbbd23bb	-0.0057720817
20	0xbdb73ac1	-0.08946753
21	0x3d8ef700	0.06980705
22	0x3da00b1d	0.0781462
23	0x3de9dbd6	0.114188835
24	0x3db1a76a	0.0867451
25	0xbd68d490	-0.05684334
26	0x3c7180de	0.014740197
27	0xbbe870bc	-0.007093517
28	0x3d09bcd4	0.033627346
29	0x3c169f54	0.00919326
30	0x3d6961d0	0.056978047
31	0xbc376f19	-0.011195921
32	0x3d587f73	0.05285592
33	0xbbc8a2a4	-0.006122904
34	0xbe13f96c	-0.14450616
35	0x3d38192a	0.044945873
36	0x3c87bc97	0.016569419
37	0x3d4726d4	0.048621014
38	0xbd29fcb3	-0.04150076
39	0x3e3e240b	0.18568437
40	0x3d4d35d8	0.050100178
41	0x3d880fa7	0.066436104
42	0x3ca666b9	0.020312654
43	0xbdafc509	-0.08582503
44	0x3d8db9e0	0.069202185
45	0xbd54d106	-0.051957153
46	0xbd4a9e38	-0.049467295
47	0x3d549d50	0.051907837
48	0xbd4ab2f3	-0.049487066
49	0x3cd2da18	0.02573876
50	0x3d199216	0.037492834
51	0xbd52a2d6	-0.051424824
52	0x3d40fa7a	0.047113873
53	0xbd435b8a	-0.04769472
54	0xbc66890c	-0.01407076
55	0x3d77f306	0.0605345
56	0x3e2de5ae	0.16982147
57	0xbb956cd1	-0.004560091
58	0x3da445fc	0.08021161
59	0x3d078731	0.033087913
60	0xbc9c8236	-0.019105058
61	0x3e667a50	0.22507596
62	0x3d23a30a	0.039950408
63	0x3c5c35e8	0.013440587
64	0x3dded926	0.108812615
65	0x3dad49b2	0.08461322
66	0x3cb32e80	0.021872759
67	0xbac573f2	-0.0015064462
68	0x3d00c7fc	0.03144072
69	0xbb143ad2	-0.0022618067
70	0x3e1767bd	0.14785667
71	0xbd207e46	-0.039182924

weight f4 [24, 72]
0	0xbd979f0c	-0.07403383
1	0x3cb12b7d	0.021627182
2	0xbd97a506	-0.074045226
3	0x3d3c7eca	0.046019353
4	0xbe285c8a	-0.16441551
5	0xbd3ebce4	-0.04656686
6	0x3d242625	0.04007544
7	0x3d2d037c	0.04223965
8	0x3ea12264	0.3147155
9	0x3b2676d6	0.0025400422
10	0xbcd03f41	-0.025420787
11	0xbdbd538d	-0.09244452
12	0x3e330050	0.17480588
13	0x3d79baf9	0.060969327
14	0x3d8a6b45	0.06758741
15	0xbd3760f8	-0.04477021
16	0xbc95367d	-0.018214459
17	0xbd517ce7	-0.051144507
18	0xbd983750	-0.07432425
19	0xbc121215	-0.008915444
20	0xbbc68868	-0.0060587414
21	0xbcea130b	-0.028573534
22	0x3d1938d7	0.037407722
23	0xbcde5344	-0.027139314
24	0x3d2f4bcc	0.042796895
25	0xbc78557a	-0.015157098
26	0x3ba80e77	0.0051286775
27	0x3d135151	0.03596622
28	0xbd9cc37d	-0.07654474
29	0xbd35cf33	-0.044387054
30	0x3d1e7ba4	0.03869213
31	0x3c971550	0.01844278
32	0xbcab6225	-0.020920822
33	0x3d961a1f	0.07329201
34	0x3e313703	0.17306142
35	0xbd902002	-0.07037355
36	0x3d35380c	0.044242904
37	0xbd423f3c	-0.047423586
38	0xbd40d423	-0.04707731
39	0xbb58fd74	-0.0033110054
40	0xbc5ccc7c	-0.013476487
41	0x3d81a857	0.063309364
42	0xbe03c931	-0.12869717
43	0x3bad9d11	0.005298265
44	0x3eaa4977	0.33259174
45	0x3daa1589	0.08304889
46	0x3db997cd	0.09062157
47	0x3df20070	0.1181649
48	0x3b8b6872	0.004254394
49	0x3dc513ba	0.09622903
50	0x3c4c1c57	0.012457929
51	0xbbe50b27	-0.006989855
52	0x3baafaa5	0.0052178674
53	0x3d7627cc	0.060096547
54	0xbc685620	-0.01418069
55	0xbb1d2eb9	-0.0023984148
56	0x3bd8157c	0.006594358
57	0xbd9f65db	-0.07783099
58	0x3e58eec9	0.2118484
59	0xbdfa66a9	-0.12226612
60	0xbe1b83dd	-0.1518702
61	0x3cbdf554	0.02318827
62	0xbdb28d9a	-0.087184146
63	0x3d641d46	0.05569198
64	0xbd709b13	-0.05874164
65	0xbdd1ab4a	-0.10237749
66	0xbdcdfcf0	-0.100580096
67	0xbd77b92f	-0.06047934
68	0xbd8c12e4	-0.068395406
69	0xbc1c964e	-0.00955732
70	0xbc9a5490	-0.01883915
71	0xbbc23c97	-0.005927633
72	0x3d90357c	0.07041451
73	0x3de5934e	0.11209737
74	0xbc191e0d	-0.009345544
75	0x3de941fe	0.1138954
76	0x3e0d9a4e	0.13828394
77	0x3cae883a	0.021305192
78	0x3c9ba118	0.018997714
79	0x3d56e845	0.052467603
80	0x3cf36add	0.029714042
81	0x3e205657	0.15657936
82	0xbcba3ac5	-0.022733102
83	0x3d856f27	0.06515341
84	0x3d7c6ed5	0.061629135
85	0x3be3d9cf	0.006953455
86	0x3c5f0275	0.013611426
87	0x3d778ce3	0.060437094
88	0xbd5525df	-0.05203807
89	0xbd65d935	-0.056115348
90	0xbdbc03f7	-0.09180444
91	0xbad9f2c3	-0.0016628135
92	0xbca1e4cb	-0.019762417
93	0xbcc4710d	-0.023979688
94	0x3ccff289	0.025384204
95	0xbd891355	-0.066931404
96	0x3c861836	0.016368967
97	0x3d8046db	0.062635146
98	0xbdb6b06b	-0.08920368
99	0xbb9baf55	-0.004751126
100	0xbc7b5081	-0.015339018
101	0xbc4196d7	-0.011815748
102	0x3cca1006	0.024665844
103	0x3c319aa1	0.010840089
104	0x3de25baf	0.110526435
105	0x3de70bee	0.11281572
106	0x3cfa06a3	0.030520743
107	0xbd08bcc9	-0.033383165
108	0x3d2a26d2	0.04154093
109	0x3da867e8	0.082229435
110	0x3d93e13e	0.07220696
111	0xbc50e472	-0.012749778
112	0x3ca93f36	0.020660024
113	0x3d817a62	0.06322171
114	0x3e97d5e6	0.2965538
115	0xbd3278d6	-0.04357227
116	0xbd2d27c7	-0.042274263
117	0x3e20cac8	0.15702355
118	0x3b3e3db3	0.0029028475
119	0x3da75c63	0.08171918
120	0xbc1fed18	-0.009761117
121	0x3c343b1c	0.011000421
122	0xbdf01673	-0.11723032
123	0x3d0a7891	0.033806387
124	0x3ba6a042	0.005085022
125	0x3dc15106	0.09439282
126	0xbb5ea083	-0.0033970184
127	0x3dd6b278	0.10483259
128	0x3cb194df	0.021677433
129	0x3d4db6ee	0.050223283
130	0xbe000ff8	-0.12506092
131	0xbce64d35	-0.028112987
132	0x3d8bea60	0.06831813
133	0x3d8e61af	0.069522254
134	0x3d38acec	0.045086786
135	0x3cd616b0	0.026133865
136	0xbd5a542e	-0.053302936
137	0x3db10cf8	0.08645052
138	0x3d6bf291	0.057604376
139	0xbb05fc25	-0.002044448
140	0x3daa21e8	0.08307248
141	0x3d20f1a5	0.03929295
142	0x3cdbe35c	0.026841812
143	0x3d2f4fbf	0.04280066
144	0x3cfa63bf	0.03056514
145	0x3e740072	0.23828295
146	0x3a72a2a0	0.00092558004
147	0x3c3a74f2	0.011380421
148	0xbc7dfb90	-0.015501872
149	0x3b19eeef	0.0023488363
150	0xbcf37289	-0.0297177
151	0x3b591c90	0.0033128597
152	0xbd487aec	-0.048945352
153	0x3d3cb633	0.046072196
154	0xbd3b440d	-0.045719195
155	0x3df3b3a3	0.11899497
156	0x3cba0883	0.022709137
157	0x3d896875	0.06709377
158	0x3c6ef29b	0.014584209
159	0xbd1d6851	-0.038429562
160	0xbc9c4363	-0.019075101
161	0xbca8c8c6	-0.020603549
162	0xbc10e129	-0.008842745
163	0xbd6ba42d	-0.057529617
164	0x3c8853f5	0.016641596
165	0xbcb5d4b5	-0.022196153
166	0xbc8438bb	-0.016140332
167	0x3d6b8aaf	0.057505306
168	0x3c8f4d7a	0.017492998
169	0xbd221822	-0.039573796
170	0x3c8e6fea	0.01738735
171	0xbd90e81c	-0.07075521
172	0xbdfaf4eb	-0.12253746
173	0xbd4d9608	-0.05019191
174	0xbd34a512	-0.044102736
175	0xbd1cea86	-0.038309596
176	0x3cb45fff	0.02201843
177	0xbd0f51cc	-0.034990117
178	0x3c9e6ef2	0.019340012
179	0xbc125649	-0.008931705
180	0xbc15ff51	-0.00915511
181	0x3c44c013	0.012008685
182	0x3d8f60fa	0.07000919
183	0x3d62dfd5	0.055389244
184	0x3c653719	0.013990187
185	0x3e3e0bc0	0.1855917
186	0xbd44f5cd	-0.048085976
187	0x3d56c4b3	0.05243368
188	0xbd14b781	-0.036307815
189	0x3d88c52c	0.066782326
190	0x3d0ba38f	0.03409153
191	0xbce4372a	-0.027858336
192	0xbba988fb	-0.0051738
193	0xbc05bae2	-0.008162232
194	0x3e45d917	0.19321094
195	0xbcedbc79	-0.029020535
196	0x3e47f5bf	0.19527338
197	0xbbc9145f	-0.0061364616
198	0x3e98b0be	0.29822344
199	0x3ea6fe7e	0.32616037
200	0xbd40935b	-0.04701553
201	0xbc0349db	-0.008013214
202	0x3cfde2f1	0.030992003
203	0x3d0785bf	0.033086535
204	0x3d8d2041	0.068909176
205	0x3c419fe0	0.011817902
206	0x3da269fd	0.07930372
207	0xbbdca44a	-0.006733452
208	0xbd5a4d58	-0.053296417
209	0xbc95ae66	-0.018271636
210	0xbddfe401	-0.1093216
211	0x3e336834	0.17520219
212	0x3e4a2d7b	0.19743912
213	0xbd807973	-0.062731646
214	0x3c12dd31	0.008963869
215	0xbc12f24e	-0.008968903
216	0xbdfdd177	-0.12393468
217	0xbde926b3	-0.113843344
218	0x3d9904e8	0.07471639
219	0x3d23802d	0.03991716
220	0x3e0bd884	0.13656813
221	0x3d450586	0.04810097
222	0x3c23dcf7	0.010001413
223	0x3c4e8e6c	0.012607198
224	0xbd4094ab	-0.04701678
225	0xbd8ca2b9	-0.068669744
226	0x3d16d719	0.036826227
227	0xbcc90edc	-0.024543218
228	0x3c825cc6	0.015913378
229	0x3d1711df	0.036882278
230	0x3db80831	0.089859374
231	0x3d751cbb	0.059841853
232	0x3de18bf4	0.11013022
233	0xbc8cf81c	-0.017208152
234	0x3edc0cef	0.42978618
235	0x3ce013f1	0.027353259
236	0xbcad19ef	-0.02113053
237	0xbd0a51e2	-0.033769496
238	0x3cafef7d	0.021476502
239	0xbd945643	-0.072430156
240	0x3ce116e1	0.02747673
241	0x3d142437	0.03616735
242	0x3ddb3a7f	0.107045166
243	0xbe0125be	-0.12612054
244	0x3d716a1e	0.05893909
245	0xbda95bb5	-0.08269445
246	0x3d626015	0.055267412
247	0x3d359227	0.044328835
248	0x3e7adb76	0.2449778
249	0x3d9356bd	0.071942784
250	0xbd1eb54c	-0.038747117
251	0xbd1b61f5	-0.037935216
252	0x3d8f1922	0.069872156
253	0x3e04bac4	0.1296187
254	0x3dc2e88b	0.0951701
255	0x3a372a51	0.00069872016

bias f4 [24]
0	0x3db1a7d2	0.08674587
1	0xbdcdfe71	-0.100582965
2	0x3dc03e7c	0.09386918
3	0xbd447bf0	-0.04796976
4	0x3e07f640	0.1327753
5	0xbd8c6057	-0.06854313
6	0xbdc1df10	-0.09466374
7	0xbd10e7f5	-0.03537746
8	0xbdde0182	-0.10840131
9	0xbce41e8a	-0.027846593
10	0xbe350afe	-0.17679974
11	0x3b9471ad	0.004530153
12	0x3df49e60	0.1194427
13	0xbe242bf3	-0.1603239
14	0x3d13df2d	0.03610151
15	0xbcf48dd1	-0.02985278
16	0x3cf39a4a	0.029736657
17	0x3e21ba14	0.1579364
18	0x3d70feae	0.05883663
19	0x3d2aabea	0.041667856
20	0x3e1f945c	0.15583938
21	0xbc347d77	-0.011016241
22	0x3e19500a	0.14971939
23	0x3e0769e7	0.13223992

weight f4 [8, 24]
0	0x3c61a2e0	0.013771743
1	0x3e77daa2	0.24204496
2	0x3ee76677	0.45195362
3	0xbe440822	-0.19143727
4	0xbe40fbc2	-0.18846038
5	0x3e13ef3a	0.14446726
6	0x3e9db5b6	0.30802697
7	0xbe02b6b6	-0.12765011
8	0xbeb80cbc	-0.35947216
9	0xbd48d3e4	-0.0490302
10	0x3d13c6a7	0.03607812
11	0xbed3970c	-0.41326177
12	0x3d36d5eb	0.0446376
13	0x3f1d1b43	0.61369723
14	0x3d197b0a	0.037470855
15	0x3ded9408	0.116005
16	0xbe0d0061	-0.13769676
17	0xbe9f4133	-0.3110443
18	0x3ead1f82	0.338131
19	0xbe224b04	-0.15848929
20	0xbd5e12b4	-0.054217055
21	0x3dde4af1	0.10854138
22	0x3e8f3e2b	0.27977118
23	0x3eb3a480	0.3508644
24	0xbea53fee	-0.32275337
25	0xbdf3fe01	-0.11913682
26	0xbe8e5d3f	-0.27805516
27	0x3ec27850	0.37982416
28	0xbe30b414	-0.17256194
29	0xbda6e1cc	-0.08148536
30	0x3e0d8e12	0.13823727
31	0xbe4d0199	-0.2002014
32	0x3e8ecd66	0.27891082
33	0xbda1d82e	-0.07902561
34	0x3ea67a62	0.32515246
35	0x3d524330	0.051333606
36	0x3db491af	0.088168494
37	0x3e99803d	0.2998065
38	0xbdb3cc32	-0.087791815
39	0xbeb7780e	-0.35833782
40	0xbe41b6fd	-0.1891746
41	0xbec70da6	-0.388776
42	0x3e1edecd	0.15514679
43	0x3c873e6f	0.016509263
44	0xbe312252	-0.17298248
45	0x3ee2d7b5	0.44305196
46	0xbe6dac69	-0.232103
47	0xbe45439c	-0.19264072
48	0x3e769975	0.24081977
49	0xbe6eda2d	-0.23325415
50	0xbe23153e	-0.15926072
51	0xbe54f2bc	-0.20795721
52	0x3da8362d	0.08213458
53	0x3e878086	0.26465243
54	0xbd806f56	-0.06271236
55	0xbded66a2	-0.11591841
56	0xbdacfe16	-0.084469005
57	0x3e28d6fe	0.16488263
58	0xbeb59d6e	-0.35471672
59	0xbd9efdfc	-0.077632874
60	0x3ebbd286	0.36684054
61	0xbd8d8b42	-0.06911327
62	0x3ebfea85	0.37483612
63	0x3e64599a	0.22299805
64	0x3ddad297	0.10684698
65	0xbe802018	-0.25024486
66	0x3a966bc0	0.0011476204
67	0xbeba6e9a	-0.36412507
68	0x3ea0e029	0.3142102
69	0x3e5ef4e2	0.21773103
70	0x3e946c11	0.28988698
71	0xbee03ab6	-0.43794793
72	0x3e7706fc	0.24123758
73	0xbda634b0	-0.08115518
74	0x3ec1574f	0.37761924
75	0x3e374c0a	0.179001
76	0x3e45e8a7	0.19327031
77	0xbe1fae15	-0.15593751
78	0xbe7ca640	-0.24672794
79	0x3ea2eed9	0.3182285
80	0x3e57e480	0.2108326
81	0xbc89ca21	-0.016820015
82	0xbe9bd69e	-0.30437177
83	0xbe48bd32	-0.19603422
84	0xbec0688e	-0.3757977
85	0x3e88e92e	0.26740402
86	0x3d1a4365	0.03766193
87	0xbe1b75ed	-0.15181704
88	0x3e14492b	0.14481036
89	0xbe9d6b5f	-0.3074598
90	0xbdd19325	-0.10233144
91	0x3b554d89	0.0032547435
92	0x3ec24527	0.37943384
93	0xbea83ea6	-0.32860297
94	0xbe464172	-0.19360903
95	0xbcd8bdd0	-0.026457697
96	0x3e87db7c	0.2653464
97	0x3c6ffc70	0.014647588
98	0xbddb29c1	-0.10701323
99	0xbdda70c7	-0.10666042
100	0x3de1f621	0.110332735
101	0xbe9aa739	-0.30205706
102	0xbdfdb5b0	-0.1238817
103	0xbe52b46c	-0.20576638
104	0xbda770af	-0.081757896
105	0xbc01a6c5	-0.007913296
106	0xbea83db9	-0.3285959
107	0x3ec9918a	0.3936885
108	0xbe83eee8	-0.25768209
109	0x3e8292b1	0.25502542
110	0x3f00da40	0.50333023
111	0x3cade7ac	0.021228634
112	0xbd677002	-0.056503303
113	0x3b8946db	0.004189355
114	0xbd2ee138	-0.042695254
115	0xbf02da67	-0.51114506
116	0xbeaacceb	-0.33359465
117	0xbdc07d64	-0.09398916
118	0x3d73eb08	0.059550315
119	0x3ea4f3b7	0.3221719
120	0xbd9f70f8	-0.07785219
121	0xbe12e354	-0.14344531
122	0x3dab02ad	0.0835012
123	0x3eb87602	0.36027533
124	0x3d71f62e	0.059072666
125	0xbe96f3ca	-0.2948287
126	0xbda8599f	-0.08220219
127	0x3e0016c8	0.1250869
128	0xbe1a0e6e	-0.15044567
129	0xbcb34ad6	-0.02188627
130	0x3d7cbb31	0.061701957
131	0xbdec7ef9	-0.115476556
132	0x3edf20ef	0.43579814
133	0xbe28652a	-0.16444841
134	0x3e9a443e	0.3013019
135	0xbebde871	-0.370914
136	0xbdf8729d	-0.12131236
137	0x3e52419d	0.20532842
138	0x3e7f32be	0.249217
139	0xbe5cab74	-0.21549779
140	0xbddfdcd3	-0.10930791
141	0xbec92b4c	-0.39290845
142	0xbe0b5c7c	-0.13609499
143	0x3e0a2f28	0.13494551
144	0xbe754ee9	-0.23955883
145	0xbe73869d	-0.2378182
146	0x3e4700c0	0.1943388
147	0xbe831d69	-0.25608376
148	0x3eaf2eb2	0.34215313
149	0x3e66456a	0.22487417
150	0xbed8bbc2	-0.42330748
151	0x3e45fd73	0.19334964
152	0x3e72d5d0	0.23714375
153	0x3d3fe8f7	0.046853032
154	0x3ea39c2e	0.31955093
155	0xbea016f7	-0.3126752
156	0x3dfe3774	0.124129206
157	0x3e8c155c	0.27360046
158	0x3e3f227d	0.186655
159	0x3e2708e3	0.16311984
160	0x3e3657c2	0.17806914
161	0x3e9d6bea	0.30746394
162	0x3e5888f7	0.21145998
163	0xbe14e857	-0.14541756
164	0xbeccba9f	-0.3998613
165	0xbdda2102	-0.10650827
166	0x3d9a8365	0.07544593
167	0xbe6e6678	-0.23281276
168	0xbe8d0222	-0.2754069
169	0x3ea31dd4	0.31858695
170	0x3c1d727a	0.009609813
171	0xb97c4471	-0.00024058089
172	0xbe489b35	-0.19590457
173	0xbcd360a9	-0.025802927
174	0x3e431660	0.19051504
175	0x3e53f51c	0.2069897
176	0xbeac97a4	-0.33709443
177	0x3dac7f01	0.084226616
178	0x3eeadc67	0.4587128
179	0x3dd83b63	0.10558202
180	0xbea1b127	-0.3158047
181	0x3d7300f2	0.059327073
182	0x3e81d1d2	0.25355393
183	0x3e1c339e	0.15254065
184	0x3d7d1080	0.061783314
185	0xbd9767a3	-0.07392814
186	0xbe6cf027	-0.23138486
187	0xbe11f9f3	-0.14255504
188	0xbcc1195f	-0.023571668
189	0xbee2d2c5	-0.4430143
190	0x3d6d2070	0.057892263
191	0xbecc221a	-0.39869767

bias f4 [8]
0	0xbd955bd0	-0.072929025
1	0xbe6e111b	-0.23248713
2	0xbe27edba	-0.16399279
3	0xbcf433e3	-0.029809898
4	0xbe1efb97	-0.15525661
5	0xbd8bbf77	-0.068236284
6	0x3e0cbfca	0.13745037
7	0xbe61693f	-0.22012804

weight f4 [24, 8]
0	0x3e190b04	0.14945608
1	0xbe73dbf9	-0.23814382
2	0xbeb9a0e1	-0.36255553
3	0xbdf7f816	-0.121078655
4	0x3e43232d	0.19056387
5	0xbe046cdc	-0.12932152
6	0x3d590d68	0.0529913
7	0xbeb1ce74	-0.34727824
8	0x3e0dc722	0.13845494
9	0x3c23829a	0.009979868
10	0xbe9ea7ce	-0.309874
11	0xbec9b726	-0.39397544
12	0x3ddde641	0.10834933
13	0xbd78a977	-0.06070849
14	0xbe709564	-0.23494488
15	0x3e945fab	0.2897924
16	0x3e20f870	0.15719771
17	0xbdacab7d	-0.08431146
18	0xbe803f2f	-0.25048205
19	0xbe29a8e4	-0.16568333
20	0x3e0f6cd0	0.14006352
21	0xbcc4342a	-0.023950655
22	0x3d3e749c	0.046497926
23	0xbeaefc2a	-0.3417676
24	0x3e4a3dee	0.19750187
25	0x3d064f87	0.032790687
26	0xbe0ed2b3	-0.13947563
27	0x3bad2e66	0.005285072
28	0xbcfef2e3	-0.031121677
29	0xbe6c8fb3	-0.23101692
30	0x3dcb6385	0.09931091
31	0xbe00aecc	-0.1256668
32	0xb80fa8fa	-3.425123e-05
33	0xbd3b70a5	-0.045761723
34	0x3e4c975a	0.19979611
35	0x3e891897	0.26776573
36	0x3eb7dc41	0.35910228
37	0xbbcbfd8a	-0.0062252926
38	0xbe0dea64	-0.13858944
39	0xbe58e4eb	-0.21181075
40	0xbe5697f3	-0.20956402
41	0x3e903e7f	0.2817268
42	0x3e9c9bed	0.30587712
43	0x3e093846	0.13400373
44	0x3d474abc	0.048655257
45	0x3dcaeea5	0.09908799
46	0xbe6ea99e	-0.23306891
47	0x3eadc211	0.33937123
48	0xbe0aebd0	-0.13566518
49	0x3e2a02c7	0.16602622
50	0xbe5a485e	-0.21316668
51	0x3e2a2137	0.16614233
52	0x3edb7811	0.4286504
53	0x3d8a75dd	0.06760762
54	0xbd2dd155	-0.042435963
55	0x3e6e41e5	0.23267324
56	0xbe45c2ac	-0.19312543
57	0xbea5fc43	-0.32419023
58	0xbccb9335	-0.024850467
59	0xbe2bf1dc	-0.16791481
60	0xbe003444	-0.12519938
61	0x3e7adb70	0.24497771
62	0x3daefe13	0.085445546
63	0xbe19062f	-0.14943765
64	0xbd9a5105	-0.075349845
65	0x3ecaa7f5	0.39581266
66	0x3d99ef1b	0.07516309
67	0xbe3c50c4	-0.18390185
68	0x3de92e08	0.11385733
69	0x3e22c64f	0.15895961
70	0x3ebb76a4	0.36613953
71	0x3e526ec8	0.20550072
72	0xbe8eb770	-0.27874327
73	0xbe830593	-0.2559019
74	0xbdf812fd	-0.12112997
75	0xbe17fcf2	-0.14842585
76	0x3ce5509e	0.027992543
77	0x3dc83a15	0.09776703
78	0x3e8ca8fd	0.27472678
79	0xbe4b655e	-0.19862887
80	0x3d6db8fb	0.05803774
81	0xbeb7f341	-0.35927776
82	0xbd8c3e6e	-0.06847845
83	0x3e2a6c07	0.16642772
84	0xbdcca8f6	-0.09993164
85	0xbe1d37ea	-0.15353361
86	0xbea34615	-0.31889406
87	0xbe3c92a6	-0.18415317
88	0x3ea20d3c	0.31650722
89	0xbe8576ad	-0.26067105
90	0xbdd8bb6b	-0.10582622
91	0x3eaa63aa	0.33279163
92	0xbe5f2d50	-0.21794629
93	0x3eb7878d	0.35845605
94	0x3eb2b83f	0.34906194
95	0x3ea5f0a1	0.32410148
96	0xbe8720cb	-0.26392207
97	0x3dea6007	0.11444097
98	0xbeaebb1c	-0.34127128
99	0x3ebecb93	0.3726469
100	0xbeb5b652	-0.35490662
101	0xbde33478	-0.11093992
102	0xbe4c0cf0	-0.1992681
103	0xbe46aecb	-0.19402616
104	0x3eadd810	0.33953905
105	0x3e79d723	0.24398474
106	0xbe6c125d	-0.2305388
107	0xbcfc9e8c	-0.03083732
108	0x3e09f5e6	0.13472709
109	0xbe70d757	-0.23519646
110	0x3e66926a	0.2251679
111	0xbea33166	-0.31873626
112	0x3ebfee33	0.3748642
113	0xbe3c68fe	-0.18399426
114	0xbb6b8d05	-0.0035942208
115	0xbe668311	-0.22510935
116	0xbe8b6226	-0.2722332
117	0x3e8b97ee	0.2726435
118	0xbe49ea32	-0.19718245
119	0xbeeb6839	-0.45977953
120	0x3edd6ed7	0.43248627
121	0x3f065109	0.524674
122	0x3e6fb5a6	0.23409137
123	0x3e96cd5d	0.29453555
124	0xbbff2ee1	-0.007787571
125	0xbe70ce32	-0.23516157
126	0xbec6c4a6	-0.38821906
127	0x3ec257a1	0.3795748
128	0xbdcbb580	-0.09946728
129	0x3e184237	0.14869009
130	0xbe84d956	-0.25947064
131	0x3e342038	0.17590415
132	0x3e6fd623	0.2342153
133	0x3ef3993c	0.47577846
134	0xbe6e12b3	-0.2324932
135	0xbb02f7bd	-0.001998409
136	0x3eda0674	0.42583048
137	0x3d4d4741	0.05011678
138	0x3d2127f5	0.039344747
139	0xbe4c020c	-0.19922656
140	0xbe2c9735	-0.16854556
141	0x3ed4583c	0.41473567
142	0xbd5c764a	-0.053823747
143	0xbef47c35	-0.47751012
144	0x3e5c5c56	0.21519598
145	0x3eb6e387	0.35720465
146	0xbde44369	-0.1114567
147	0x3d032401	0.032016758
148	0x3c6aa607	0.014321811
149	0xbdcea79f	-0.10090565
150	0x3e3ee104	0.18640524
151	0xbeed0748	-0.46294618
152	0x3e7892e5	0.24274786
153	0xbdfa80ec	-0.12231621
154	0x3ea2048d	0.31644097
155	0xbeb2cedf	-0.34923455
156	0x3eaccd46	0.3375036
157	0x3dd831a2	0.10556342
158	0x3e3dcd1a	0.18535271
159	0x3e33a0a1	0.17541744
160	0x3e4bc87e	0.199007
161	0xbd183a68	-0.037165076
162	0x3d10ec27	0.035381462
163	0xbe138f30	-0.1441009
164	0xbe832456	-0.2561366
165	0xbec86da7	-0.39146158
166	0x3e549a77	0.20762049
167	0xbec1cb5a	-0.37850457
168	0xbe2dbd10	-0.16966653
169	0xbc7de439	-0.015496307
170	0x3eb3bf80	0.3510704
171	0x3edab3e6	0.42715377
172	0xbe02e4b4	-0.12782556
173	0x3dca53da	0.09879275
174	0x3e7ffcc8	0.24998772
175	0xbe8fd117	-0.2808921
176	0xbe83bb96	-0.25729054
177	0x3e3b8b72	0.18314913
178	0x3dc2cc2f	0.09511601
179	0xbe87ae25	-0.2650005
180	0x3e15e513	0.14638166
181	0xbe849ce6	-0.25900954
182	0xbe90d1dc	-0.2828511
183	0xbe807ff8	-0.25097632
184	0xbd467ad7	-0.048456993
185	0xbcb278c5	-0.021786103
186	0xbdc15626	-0.0944026
187	0xbe46a018	-0.19397008
188	0xbec1f428	-0.3788159
189	0x3d831d4f	0.064020745
190	0x3da2d51f	0.07950806
191	0x3e206a4a	0.15665546

bias f4 [24]
0	0x3ed3d95f	0.41376778
1	0x3ec5ad9d	0.3860902
2	0x3d8687f1	0.065688975
3	0x3ee2e55a	0.44315606
4	0x3d1e5f4a	0.038665093
5	0xbe7082a0	-0.2348733
6	0xbe56d847	-0.20980941
7	0x3d7bc62b	0.061468285
8	0xbe57ef13	-0.21087293
9	0xbd9d014f	-0.07666265
10	0x3e5a23ea	0.21302763
11	0xbe586dd4	-0.21135646
12	0xbe98f915	-0.29877535
13	0x3e03c5b8	0.12868392
14	0x3e69723d	0.22797485
15	0x3e95d73b	0.2926577
16	0xbd269d75	-0.040677506
17	0x3e0f8d68	0.14018786
18	0x3ef8e892	0.48614937
19	0x3ea50502	0.32230383
20	0x3e0823bd	0.13294883
21	0xbe5e16db	-0.21688406
22	0x3e4f14f9	0.20222844
23	0x3e9466da	0.2898472

weight f4 [72, 24]
0	0x3e537674	0.20650655
1	0x3df93f66	0.121702954
2	0x3d789c7b	0.060696106
3	0xbc8ed955	-0.017437616
4	0x3d8d5756	0.06901424
5	0xbd2fd776	-0.04293009
6	0x3ddebd4d	0.1087595
7	0x3df8d4c6	0.12149958
8	0x3c817c81	0.015806438
9	0x3bf27f8e	0.0074004596
10	0x3bf39e1e	0.0074346205
11	0xbdf70ffa	-0.12063594
12	0xbe00290b	-0.12515657
13	0x3d85e4b7	0.065377645
14	0x3d243a1b	0.040094476
15	0x3d1fff11	0.03906161
16	0x3e29063b	0.16506283
17	0xbd677b4c	-0.05651407
18	0x3ce19a17	0.027539296
19	0x3e886f67	0.26647493
20	0xbd0b0e78	-0.033949345
21	0xbdbc381f	-0.09190392
22	0x3e137f11	0.1440394
23	0xbd86529b	-0.065587245
24	0x3d1fd773	0.039023828
25	0x39e847b4	0.0004430391
26	0xbd84720f	-0.064670675
27	0xbd980fd3	-0.07424893
28	0x3e575b05	0.21030815
29	0xbde9805e	-0.11401437
30	0xbdac3351	-0.08408225
31	0x3d486a00	0.048929214
32	0xbdd68311	-0.10474218
33	0xbd935f50	-0.07195914
34	0x3e786c26	0.24260005
35	0xbd0154a4	-0.03157486
36	0xbdb0d79d	-0.08634875
37	0xbd237208	-0.03990367
38	0x3c524ee6	0.012836194
39	0x3d3836cd	0.044974137
40	0x3d531ff9	0.051544163
41	0x3d303f48	0.0430291
42	0x3d67ee3a	0.056623675
43	0x3daab8e1	0.08336044
44	0x3d8f5f88	0.07000643
45	0x3e5c006b	0.21484534
46	0xbae99a3e	-0.0017822457
47	0x3d29a112	0.041413374
48	0x3e09d4f1	0.13460137
49	0x3d81e9ac	0.063433975
50	0xbe123777	-0.1427897
51	0x3db49ee9	0.08819372
52	0xbddeb7a6	-0.10874872
53	0x3d56aad3	0.052409004
54	0xbe067794	-0.13131553
55	0xbbd08135	-0.006363059
56	0xbcccaae4	-0.02498383
57	0xbdfe5834	-0.12419167
58	0x3ca72d0f	0.020407228
59	0xbde1914a	-0.1101404
60	0x3e849391	0.25893834
61	0x3d705efc	0.058684334
62	0x3ea0b635	0.31389013
63	0x3e509b25	0.20371683
64	0x3e2b5976	0.16733345
65	0xbda5d4b8	-0.080972135
66	0x3d95efbd	0.07321117
67	0xbd8abf91	-0.0677482
68	0xbc60d42a	-0.013722459
69	0xbccdfe09	-0.025145547
70	0x3d8e0c94	0.06935993
71	0x3e4ae506	0.19813928
72	0xbe0af98d	-0.13571759
73	0x3dc937bc	0.098250836
74	0x3dd95c4a	0.10613306
75	0x3c616417	0.013756773
76	0x3dd42ca3	0.10360076
77	0x3c8aa372	0.01692364
78	0xbe50f510	-0.20405984
79	0xbdef6c3f	-0.11690568
80	0x3e08c25d	0.13355394
81	0xbd80d446	-0.06290488
82	0xbddf4e67	-0.10903626
83	0xbe056215	-0.13025697
84	0xbe56b5a8	-0.20967734
85	0xbdb94822	-0.09046961
86	0x3cc75b13	0.02433542
87	0x3bb472db	0.005506856
88	0x3d86b2f9	0.06577105
89	0xbdcec5f2	-0.10096349
90	0x3d5a7ea2	0.053343423
91	0xbbc72068	-0.006076861
92	0xbde02c20	-0.10945916
93	0x3be1d172	0.006891423
94	0xbd93dfca	-0.07220419
95	0xbe54a1a1	-0.20764782
96	0xbd0e7766	-0.034781836
97	0xbd854f6f	-0.065092914
98	0x3cd9445a	0.02652185
99	0xbca0b3ae	-0.019616928
100	0xbe26661e	-0.16249892
101	0x3e4fa3fc	0.20277399
102	0x3c57122c	0.013126891
103	0xbdf6c28c	-0.120488256
104	0x3df0c6df	0.11756682
105	0x3da11e99	0.07867164
106	0xbe05ffbf	-0.1308584
107	0x3df508a3	0.11964538
108	0xbd533417	-0.05156335
109	0xbdd95a26	-0.106128976
110	0xba9be349	-0.0011893298
111	0xbe3b4ef1	-0.18291833
112	0x3d686df0	0.05674547
113	0x3d2a5185	0.04158165
114	0xbd64be53	-0.05584557
115	0xbddbc81e	-0.10731529
116	0xbdea1e80	-0.11431599
117	0xbe1257b3	-0.14291267
118	0xbdde6900	-0.10859871
119	0xbd7fb08a	-0.06242422
120	0xbe22ba95	-0.15891488
121	0xbabafa70	-0.001426531
122	0xbe12034d	-0.14259072
123	0x3d956a42	0.07295658
124	0xbd139b36	-0.036036693
125	0xbde2e5f8	-0.11079019
126	0xbb75a5e0	-0.0037482902
127	0xbb939395	-0.004503677
128	0x3d00705a	0.031357147
129	0x3db57ad7	0.088613205
130	0xbc93354d	-0.017969752
131	0xbc7119e2	-0.014715644
132	0x3e2cda0b	0.16880052
133	0x3c8f83b2	0.017518852
134	0xbc9c44e1	-0.019075813
135	0x3da92f1d	0.08260939
136	0xbda222c7	-0.079167895
137	0x3a3382c0	0.00068477914
138	0x3d2f48e8	0.04279414
139	0xbd539cb9	-0.051663134
140	0x3e0361db	0.12830298
141	0x3d07d124	0.033158436
142	0x3eaad2d8	0.33363986
143	0x3da12106	0.07867627
144	0xbccc03ee	-0.024904218
145	0xbbecd858	-0.0072279386
146	0xbdfa4ab4	-0.1222128
147	0x3e294029	0.16528381
148	0x3db37b74	0.08763781
149	0x3d722ad4	0.059122875
150	0x3e536131	0.20642544
151	0xbdc9aea6	-0.09847765
152	0x3dcc0f5e	0.099638686
153	0x3d89d35e	0.06729768
154	0x3dea7d53	0.11449685
155	0x3e1794e7	0.14802895
156	0x3c85f9b2	0.016354416
157	0xbdafe011	-0.08587659
158	0x3c98ed0f	0.018667726
159	0x3e75dc21	0.24009754
160	0x3e0ec5a6	0.13942584
161	0xbda5fea4	-0.081052095
162	0xbde49bee	-0.11162554
163	0x3daca7df	0.08430456
164	0xbc8a1670	-0.016856402
165	0x3e158d17	0.14604603
166	0x3deac1c9	0.11462743
167	0x3e15100e	0.14556906
168	0xbe21e824	-0.15811211
169	0x3dc57c0f	0.09642803
170	0xbd3b4ec8	-0.04572943
171	0xbdc0589c	-0.09391901
172	0x3c788ef2	0.0151708
173	0xbdda5154	-0.10660043
174	0x3d379eeb	0.04482929
175	0xbd795bce	-0.060878567
176	0xbc275882	-0.010213973
177	0x3e08ab7e	0.13346669
178	0xbd0f3077	-0.03495833
179	0x3d9585cd	0.07300911
180	0x3e816e30	0.2527938
181	0x3dc96532	0.098337546
182	0x3e2b1809	0.16708387
183	0xbcddeb3e	-0.027089711
184	0xbde1c538	-0.110239446
185	0x3e02a40c	0.12757891
186	0xbda36c8f	-0.0797969
187	0xbd886a05	-0.066608466
188	0x3dd193dc	0.1023328
189	0x3c4ba1f6	0.012428751
190	0x3b1f1f90	0.0024280287
191	0x3bb086c3	0.0053871586
192	0xbe85c6ba	-0.2612818
193	0xbd9e7665	-0.07737426
194	0x3d1e7051	0.038681332
195	0xbdfc0d03	-0.12307169
196	0x3d2aa3e5	0.04166021
197	0x3d994239	0.07483334
198	0x3df1f8cb	0.118150316
199	0xbe194768	-0.14968646
200	0xbe30d036	-0.17266926
201	0x3ca36a7d	0.019948239
202	0xbe07c8df	-0.1326022
203	0x3db48042	0.08813526
204	0xbe0b0c70	-0.13578963
205	0xbe44ccac	-0.19218701
206	0x3baefd35	0.005340243
207	0xbd20b26f	-0.039232668
208	0xbd6289a0	-0.05530703
209	0x3df51b11	0.11968053
210	0x3d19db36	0.03756257
211	0xbd8361f8	-0.064151704
212	0x3e0fc10c	0.14038485
213	0x3c256939	0.010095888
214	0xbdf45f8c	-0.119322866
215	0x3dfd5fdf	0.123718016
216	0xbd1ed6ef	-0.038779195
217	0x3bf0e929	0.0073520136
218	0x3d9ea6a1	0.07746626
219	0xbe35ebda	-0.17765751
220	0xbdd82074	-0.10553065
221	0x3dddfc42	0.1083913
222	0xbcd86f80	-0.026420355
223	0xbe311058	-0.17291391
224	0xbe3418ea	-0.17587629
225	0xbe4960e2	-0.19665864
226	0xbd2cfecb	-0.042235177
227	0x3dc86b40	0.09786081
228	0xbd04d17c	-0.032426342
229	0x3d4c2216	0.049837194
230	0x3c9b8b07	0.018987192
231	0x3d0dbd03	0.034604084
232	0xbe01a5ad	-0.12660857
233	0x3d29749e	0.04137098
234	0xbdc3d2e9	-0.09561712
235	0xbe0aa5f2	-0.13539866
236	0xbcaf21d7	-0.02137844
237	0xbca9d244	-0.020730145
238	0xbe50abd7	-0.20378052
239	0x3d0abf33	0.033873748
240	0x3e1b08ac	0.15140027
241	0x3d89b2a3	0.067235254
242	0x3e71089e	0.23538443
243	0x3d7419ae	0.059594803
244	0x3e1e395c	0.15451568
245	0xbceebc46	-0.02914251
246	0xbcd0244b	-0.02540793
247	0x3dabc5b8	0.08387321
248	0xbd940917	-0.07228296
249	0xbc3f46ba	-0.011674577
250	0x3db7abd0	0.089683175
251	0xbdc851de	-0.0978124
252	0x3e0633d2	0.13105705
253	0x3c616249	0.013756343
254	0x3e175638	0.14778984
255	0xbd79e245	-0.061006803

bias f4 [72]
0	0x3e0242a4	0.12720734
1	0xbce52f7e	-0.027976748
2	0x3dc0a337	0.09406131
3	0xbe0cd01b	-0.13751261
4	0x3bd76f37	0.006574537
5	0x3ec65340	0.3873539
6	0x3eb58422	0.35452372
7	0xbe3687af	-0.17825197
8	0x3db56ae7	0.08858281
9	0xbe45bba6	-0.19309863
10	0xbdcd1506	-0.100137755
11	0x3df213f9	0.11820216
12	0x3d899e89	0.06719691
13	0x3e23772f	0.15963434
14	0xbe1f7ba7	-0.15574513
15	0x3e28ffdc	0.16503853
16	0x3e92e7cc	0.28692472
17	0xbe0b4555	-0.13600667
18	0x3dbd7f3c	0.09252784
19	0x3e6d6c23	0.23185782
20	0x3e0c3d6f	0.1369531
21	0x3e4e7026	0.20159969
22	0x3e0e0f67	0.13873063
23	0x3df7b9e9	0.120960064
24	0x3d53df59	0.051726673
25	0xbe59a843	-0.21255593
26	0xbd58afa7	-0.05290189
27	0x3c3bb5c7	0.011456913
28	0xbe044098	-0.12915266
29	0xbe4c2d2b	-0.19939105
30	0x3c9c9385	0.019113312
31	0x3ef0e745	0.47051445
32	0x3ea208c8	0.31647325
33	0x3daa783d	0.08323715
34	0xbdeee8ca	-0.11665495
35	0x3ec6f2ba	0.3885706
36	0x3e93161a	0.287278
37	0xbc913f8f	-0.017730502
38	0xbe5970a2	-0.21234372
39	0xbc9b4ac8	-0.018956557
40	0x3e6ef040	0.23333836
41	0xba444161	-0.0007486549
42	0x3ed181d7	0.40919372
43	0x3eb5d18f	0.35511443
44	0x3e9f87b5	0.31158224
45	0x3d3e3b5c	0.04644333
46	0x3e11305b	0.14178602
47	0x3ec1815a	0.37794
48	0x3e64f94a	0.22360721
49	0xbde9535a	-0.11392851
50	0xbd54ac52	-0.05192215
51	0xbe3c4d91	-0.18388964
52	0x3e3aa21f	0.18225907
53	0x3e9265dd	0.2859334
54	0xbe2e6eac	-0.17034405
55	0x3d5aabe8	0.0533866
56	0x3e3263f1	0.17420937
57	0xbce68124	-0.02813775
58	0xbd6b2615	-0.057409365
59	0x3dbb85ab	0.091563545
60	0x3ea4022c	0.32032907
61	0x3d377962	0.044793494
62	0x3e2f4458	0.17115915
63	0x3e222dab	0.15837733
64	0x3eb391d1	0.35072187
65	0xbe399095	-0.1812156
66	0xbdb695ac	-0.089152664
67	0x3ea92d1e	0.33042234
68	0x3eb3621c	0.3503579
69	0x3e05f2e5	0.13080938
70	0xbdf796ed	-0.12089334
71	0xbe22383c	-0.15841764

weight f4 [150, 72]
0	0xbe60a00c	-0.21936053
1	0xbdd175fe	-0.10227583
2	0x3e1c5fdb	0.15270941
3	0x3d17faa5	0.037104268
4	0xbdca2482	-0.098702446
5	0x3e2f3447	0.17109786
6	0xbe3e7d22	-0.18602422
7	0x3ce9f574	0.028559424
8	0x3df3c97e	0.11903666
9	0x3d9df30a	0.07712372
10	0xbdb989b9	-0.09059472
11	0xbe1ec06f	-0.15503095
12	0x3ceca918	0.028889224
13	0xbe0a698b	-0.13516824
14	0xbceda2a5	-0.029008219
15	0xbd8cf8f4	-0.068834215
16	0x3cf68964	0.03009481
17	0x3da2fac6	0.079579875
18	0x3d20493c	0.03913234
19	0xbd32af17	-0.04362401
20	0x3e0b98eb	0.13632552
21	0x3d1b224e	0.037874512
22	0xbd9070b9	-0.0705275
23	0x3e2d56e4	0.16927677
24	0x3d7e3cae	0.062069587
25	0x3cfddd5a	0.030989338
26	0xbd26a951	-0.040688816
27	0x3de927e4	0.11384562
28	0x3c34bd75	0.011031498
29	0xbc0cf239	-0.008602672
30	0xbd35d0a5	-0.044388432
31	0xbd8f0f9e	-0.069854006
32	0xbda29cce	-0.07940064
33	0x3e341089	0.17584433
34	0x3b7022e2	0.0036641886
35	0x3dd887d1	0.1057278
36	0xbd8fe313	-0.07025733
37	0xbd1816ab	-0.037130993
38	0x3ca87222	0.020562235
39	0x3c26184b	0.010137628
40	0xbe806dbb	-0.25083718
41	0xbd3f5823	-0.046714913
42	0x3b7f0338	0.003891183
43	0xbdbf51f9	-0.09341807
44	0x3e452478	0.19252193
45	0x3d564528	0.052312046
46	0xbdcd3cc9	-0.100213595
47	0xbd87d4dc	-0.066323966
48	0xbe196d33	-0.14983062
49	0x3d641190	0.05568081
50	0xbd76d372	-0.060260244
51	0x3d966881	0.07344151
52	0x3d2b2a43	0.04178835
53	0xbc9a667a	-0.018847693
54	0x3d4356b5	0.047690112
55	0xbdf598d8	-0.11992043
56	0xbe714f62	-0.23565438
57	0x3ddb74de	0.1071565
58	0xbdac010a	-0.08398636
59	0x3da02f63	0.07821538
60	0x3e62491e	0.22098204
61	0x3d88a2e3	0.06671693
62	0xbdf9c045	-0.12194876
63	0x3e0619f8	0.13095844
64	0xbd9e29cf	-0.07722818
65	0x3d0fab52	0.035075493
66	0xbd125252	-0.035723038
67	0x3e2c1458	0.16804636
68	0xbe25afe4	-0.16180378
69	0x3e2da7e4	0.16958576
70	0xbd655821	-0.05599225
71	0xbdeda304	-0.116033584
72	0xbdc27c73	-0.09496393
73	0x3d86a38c	0.06574163
74	0x3e317015	0.17327912
75	0xbc14b69d	-0.0090767415
76	0xbc6e1eca	-0.014533708
77	0x3d933a2f	0.07188832
78	0xbd87cb0b	-0.06630524
79	0xbd0b48a4	-0.034004822
80	0x3d57a5ec	0.05264847
81	0xbd23e2b6	-0.04001113
82	0xbd2c84a6	-0.04211869
83	0xbe41f00a	-0.18939224
84	0x3dba0b26	0.09084158
85	0xbe36c658	-0.178491
86	0x3d038333	0.032107543
87	0xbdb47137	-0.088106565
88	0x3d159cee	0.036526613
89	0xbd555fb7	-0.052093234
90	0xbceda81a	-0.029010821
91	0xbb76d606	-0.003766419
92	0x3dc49d12	0.09600271
93	0x3d673695	0.056448538
94	0x3d89966f	0.06718146
95	0x3db3a555	0.08771769
96	0x3de6d28e	0.11270629
97	0xbdb74469	-0.08948595
98	0x3d0a89ff	0.03382301
99	0x3c1f8a83	0.009737614
100	0x3db291f6	0.08719246
101	0x3cb34bc8	0.021886721
102	0xbc5ce3c4	-0.013482038
103	0xbdb7d604	-0.08976367
104	0xbde7bf69	-0.113158055
105	0x3d415ecf	0.047209557
106	0x3dcf900e	0.10134898
107	0x3e0246c7	0.12722312
108	0xbc899cfa	-0.016798485
109	0x3cf93285	0.030419597
110	0xbce7014d	-0.028198862
111	0xbd22953b	-0.0396931
112	0xbe8d66e2	-0.27617556
113	0xbddd4f2c	-0.108061165
114	0xbd52be99	-0.0514513
115	0xbda4e993	-0.08052363
116	0x3e5ca72d	0.21548147
117	0x3dedeb50	0.11617148
118	0xbd2db617	-0.042409983
119	0xbdc7abd1	-0.09749568
120	0xbdc03cd3	-0.09386601
121	0x3cd443d8	0.025911257
122	0x3cfe4642	0.03103936
123	0x3d3b3fb9	0.045715068
124	0x3cec326a	0.028832633
125	0x3da309d3	0.07960858
126	0xbd41c44d	-0.047306348
127	0xbe765a36	-0.2405785
128	0xbe5a2d00	-0.21306229
129	0xbd48265f	-0.04886472
130	0xbd43a2a8	-0.047762543
131	0x3e0b4c9a	0.1360344
132	0x3e01a8d6	0.12662062
133	0x3d8a8362	0.067633405
134	0xbe2e8e4e	-0.17046472
135	0x3e5a81bb	0.21338551
136	0xbd64d54d	-0.055867482
137	0xbd3fcb8a	-0.04682497
138	0xbd38d0d1	-0.045121018
139	0x3e18dae9	0.14927258
140	0xbe27f553	-0.16402178
141	0x3e42beb2	0.19018057
142	0xbd4be475	-0.04977842
143	0x3d57da98	0.0526987
144	0xbd6ac131	-0.057313148
145	0x3d9e050f	0.077158086
146	0x3d8285a0	0.06373143
147	0x3d2beabe	0.041971914
148	0x3d93b3f1	0.072120555
149	0x3c38fb40	0.011290371
150	0xbd8e0537	-0.069345884
151	0xbd7061d5	-0.05868705
152	0x3d0e5c14	0.03475578
153	0x3be37a4b	0.0069420687
154	0xbc0613e7	-0.008183456
155	0xbe7f9a32	-0.24961165
156	0xbcfc610a	-0.03080799
157	0xbe2a5fcc	-0.16638106
158	0x3d423721	0.047415856
159	0xbe11bf5d	-0.14233156
160	0x3d5c9ddc	0.053861484
161	0xbd35c642	-0.044378527
162	0xbcba1ab7	-0.022717817
163	0xbccbc6bc	-0.024875037
164	0x3d534452	0.051578827
165	0x3e087a7e	0.13327977
166	0x3d1a2029	0.037628327
167	0x3e3fbfc2	0.18725494
168	0x3d6d429d	0.057924856
169	0x3d4b51ff	0.049638744
170	0x3ca5dd31	0.020247074
171	0xbd210606	-0.039312385
172	0x3c292f31	0.010326193
173	0x3d0dec60	0.034649253
174	0xbcdd26b4	-0.026995994
175	0xbdb01ece	-0.085996255
176	0xbdf0c5ea	-0.11756499
177	0x39ee7c24	0.0004548739
178	0x3d256c53	0.04038651
179	0x3dae5713	0.08512702
180	0xbc63a46b	-0.013894181
181	0xbd8ac942	-0.06776668
182	0x3da37d86	0.07982926
183	0x3cdd6353	0.0270249
184	0xbe710c93	-0.23539953
185	0xbdd815bb	-0.1055102
186	0x3d8ed44b	0.069740854
187	0xbdee8cc5	-0.116479434
188	0x3e7da9fd	0.24771877
189	0x3e0c775f	0.13717411
190	0x3c0fc326	0.008774554
191	0xbddf4439	-0.10901684
192	0xbe329bd3	-0.17442255
193	0xbc074bf3	-0.008257854
194	0xbdae7a2d	-0.08519397
195	0xbd8ba45f	-0.06818461
196	0xbe0a2ac3	-0.13492875
197	0x3be84441	0.0070882146
198	0xbd8820df	-0.06646895
199	0xbe83dc1a	-0.25753862
200	0xbe3e5d0b	-0.1859018
201	0x3d0c92c7	0.034319665
202	0x3ddfc2c7	0.10925823
203	0x3e459732	0.19295958
204	0x3e0e845d	0.1391768
205	0x3dd89e8b	0.10577115
206	0xbe183fe4	-0.14868122
207	0x3e3b115b	0.1826834
208	0xbd7beea9	-0.0615069
209	0xbd7ad40b	-0.061237376
210	0xbdb0acec	-0.08626732
211	0x3e261bf6	0.16221604
212	0xbe2a35b8	-0.16622055
213	0x3d8e82cd	0.06958542
214	0xbaa110c8	-0.0012288326
215	0x3da8b675	0.08237926
216	0xbd03e544	-0.032201067
217	0xbda92dd0	-0.08260691
218	0x3d09fc36	0.033687793
219	0xbdea8d48	-0.114527285
220	0x3de8315a	0.11337538
221	0x3e1777f7	0.14791857
222	0xbc85e5a1	-0.016344847
223	0x3d7dc504	0.061955467
224	0x3e39d805	0.18148811
225	0xbb82d663	-0.003992842
226	0xbce1e286	-0.027573835
227	0xbe3fceea	-0.18731275
228	0xbc34215a	-0.01099428
229	0xbdbca614	-0.092113644
230	0x3d28ccef	0.041211065
231	0xbd9e99ce	-0.0774418
232	0xbcf1ebea	-0.029531438
233	0x3d85a96d	0.06526456
234	0xbb297777	-0.002585856
235	0xbd8343fc	-0.06409451
236	0x3db72960	0.089434385
237	0x3d630791	0.055427138
238	0xbc6de4a8	-0.014519848
239	0x3e278430	0.1635902
240	0x3dfe507d	0.12417696
241	0xbcabe1bc	-0.020981662
242	0x3da8c4a4	0.08240631
243	0x3cb8d642	0.022563104
244	0xbda6aba4	-0.081382066
245	0x3b393264	0.0028258795
246	0xbdfcfc5c	-0.12352821
247	0xbc8b3449	-0.016992705
248	0xbe302065	-0.17199858
249	0x3ccdff5d	0.02514618
250	0x3cc3c390	0.023896962
251	0x3d5c2992	0.053750582
252	0xbce82d57	-0.028341932
253	0xbd800780	-0.062514305
254	0xbc7ca103	-0.015419248
255	0xbd97fc48	-0.07421166

bias f4 [150]
0	0xbbb44809	-0.0055017513
1	0xbbace353	-0.0052761226
2	0x3d87caac	0.066304535
3	0xbd43f69b	-0.047842603
4	0xbc9c9276	-0.019112807
5	0xbb5df01b	-0.0033865038
6	0x3da15191	0.07876886
7	0xbc7a3b04	-0.0152728595
8	0xbbb160ba	-0.005413142
9	0xbd278d9b	-0.04090653
10	0x3c8253eb	0.015909156
11	0x3cf04ec9	0.029334443
12	0xbd0e6a58	-0.034769386
13	0xbcd21616	-0.025645297
14	0xbd653855	-0.055961926
15	0xbd8f7f73	-0.07006731
16	0xbcadc484	-0.02121187
17	0x3dbb7e48	0.091549456
18	0x3dd0f394	0.10202709
19	0xbbb87dd8	-0.005630236
20	0x3c966821	0.0183602
21	0xbd33d9e2	-0.04390896
22	0x3cb7b1fd	0.022423739
23	0x3da09de5	0.07842616
24	0x3d766d23	0.060162675
25	0x3cc675f4	0.024226166
26	0x3d8f67c2	0.07002212
27	0x3d37e8c9	0.044899736
28	0x3d86caa5	0.0658162
29	0x3df7065c	0.1206176
30	0x3cf9bf3b	0.030486694
31	0x3d3b4ff0	0.04573053
32	0x3dd64a34	0.10463372
33	0x3df6515e	0.12027238
34	0x3da06311	0.078313954
35	0x3d3b3d99	0.04571304
36	0x3d3fe055	0.0468448
37	0x3da6dedb	0.08147975
38	0x3dce52c3	0.10074379
39	0xbd101bae	-0.035182647
40	0x3d8b1fa1	0.06793142
41	0xbc7c826a	-0.0154119525
42	0x3d6bd9a9	0.057580624
43	0x3da999ad	0.082812645
44	0x3cb47888	0.02203013
45	0x3df932f9	0.121679254
46	0x3d460aa0	0.048349977
47	0x3d41f3e9	0.04735175
48	0x3d9aaebe	0.07552861
49	0x3c9f55f2	0.019450162
50	0x3d2b74e2	0.041859515
51	0x3d13751b	0.036000352
52	0x3d3b2d10	0.04569727
53	0x3d0870e4	0.033310786
54	0x3ddc88d2	0.10768284
55	0xbb8e8fae	-0.004350624
56	0x3dc68437	0.09693187
57	0x3d344c3b	0.04401801
58	0x3d758a23	0.05994619
59	0x3e52e8d4	0.2059663
60	0x3e03a45d	0.12855668
61	0x3d228f3c	0.03968738
62	0x3bc78f27	0.006090063
63	0x3db0cdc6	0.08632998
64	0xbc832822	-0.016010348
65	0x3c96aeb3	0.01839385
66	0x3b32031d	0.00271625
67	0xbc06765a	-0.008206928
68	0xbca6d2ad	-0.02036413
69	0xbdb4a905	-0.088213004
70	0xbd988270	-0.07446754
71	0xbdc1940b	-0.09452065
72	0xbdd006f1	-0.10157574
73	0xbcbafdae	-0.022826042
74	0xbd5f88f6	-0.054573976
75	0xbdde4472	-0.10852899
76	0x3adea022	0.0016984979
77	0xbdc476eb	-0.09592994
78	0xbd2560f4	-0.040375665
79	0xbdb4a648	-0.08820778
80	0xbd97bc71	-0.07408989
81	0xbdb30713	-0.08741584
82	0xbcf74bf6	-0.030187588
83	0xbdcd7260	-0.10031581
84	0xbe192f6a	-0.14959493
85	0xbdc06d14	-0.09395805
86	0xbc49cdef	-0.012317165
87	0xbd841ea7	-0.06451159
88	0xbb927d61	-0.0044705127
89	0xbc87743b	-0.016534915
90	0xbd08cc53	-0.033397984
91	0x3cdb205d	0.02674883
92	0x3d1adafb	0.037806492
93	0x3b2e6dd8	0.0026615765
94	0xbd064437	-0.0327799
95	0x3d759a8c	0.05996184
96	0xbc91bbb1	-0.017789694
97	0x3d39bf11	0.04534823
98	0xbcfb31d9	-0.030663418
99	0x3cee076c	0.029056273
100	0x3d823237	0.06357234
101	0x3d838cb8	0.06423324
102	0x3bb7981d	0.00560285
103	0x3d7f4f80	0.062331676
104	0x3da54e69	0.08071596
105	0x3c88f23c	0.016717069
106	0x3d30eb83	0.04319335
107	0x3d8534bc	0.06504199
108	0xbb29ac66	-0.002589011
109	0xbccdcdc1	-0.025122525
110	0x3d407d59	0.04699454
111	0xbdbcb563	-0.09214284
112	0x3b389330	0.0028163902
113	0xbd238dc0	-0.039930105
114	0xbb65e6f3	-0.0035080283
115	0xbda29575	-0.07938663
116	0xbd8cf562	-0.068827406
117	0xbd9b871e	-0.07594131
118	0xbe0c4f3d	-0.13702102
119	0xbd8dffd1	-0.06933559
120	0xbda190ac	-0.07888922
121	0xbde6e26c	-0.11273655
122	0xbe4568c9	-0.19278254
123	0xbe216919	-0.15762748
124	0xbe07112a	-0.13190141
125	0xbe224bef	-0.15849279
126	0xbe2eae92	-0.17058781
127	0xbd9ac5f7	-0.0755729
128	0xbe1566ae	-0.1458995
129	0xbdc3e357	-0.09564846
130	0xbdc08823	-0.09400966
131	0xbd9952bb	-0.07486483
132	0xbd5a4aac	-0.05329387
133	0xbd9791e8	-0.07400876
134	0x3c4fd3f4	0.012684811
135	0x3d2885de	0.04114329
136	0x3d0be138	0.034150332
137	0x3d805af2	0.062673464
138	0x3d403b96	0.046931826
139	0x3c878d04	0.016546734
140	0x3cda373e	0.02663767
141	0x3dbce38e	0.0922309
142	0xbd0b0135	-0.033936698
143	0x3b90e892	0.004422256
144	0x3d422c35	0.04740544
145	0x3daf33e0	0.08554816
146	0x3c4bed6f	0.012446745
147	0xbc82492e	-0.015904035
148	0x3d7ed8d2	0.062218495
149	0x3bec5f2b	0.0072134933
