knn/models/pretrained-autoencoder/autoencoder-in_features60-latent_size6.pt (torch, 56189 bytes, 12 tensors)

weight f4 [54, 60]
0.0066493633 0.009610135 0.03294263 -0.04426267 0.021592217 0.063786894 -0.036821745 -0.039664783
-0.007706456 -0.023907568 -0.005011847 -0.07609391 0.010643054 -0.022381587 -0.043108594 -0.03993053
-0.055423625 -0.06694914 0.019299613 0.015485817 -0.05377718 -0.04014641 -0.115187354 -0.024434162
-0.0015906711 -0.035003643 -0.11706505 -0.079093486 -0.060206845 -0.031536125 -0.014234746 0.006136687
0.017068705 0.0765836 0.084795624 0.12994665 0.121376455 0.10264161 0.07889787 0.07433143
0.081978686 0.1607403 -0.0013944049 0.054550644 -0.06492869 -0.038853675 -0.0076417453 -0.1326413
-0.05122508 -0.095358804 -0.08121398 -0.10562766 -0.062361713 -0.026914716 -0.006328673 0.078334644
0.034488656 0.09852999 0.10231185 0.17441578 -0.12874164 -0.1525877 -0.16721077 -0.13248198
-0.011693617 -0.06157073 -0.047156494 -0.04552071 0.081124716 0.036201462 0.07098078 0.058636453
0.01900238 0.03987524 0.0053765182 0.0062559242 -0.03762681 -0.08934203 -0.11136451 -0.07122815
-0.13043559 -0.036152802 -0.05683368 -0.13904785 0.015176532 -0.04400297 0.035790984 0.07492422
0.11964758 0.06342459 0.08577532 0.1015354 0.1472341 0.15589014 0.09726465 0.03858187
0.040844362 -0.029756073 0.022236615 -0.0035828631 0.0065750303 -0.0860952 -0.11681119 -0.05961225
-0.06932583 -0.06521444 -0.003196105 -0.06615344 -0.06653079 0.051287267 -0.08338122 0.058029287
-0.073204614 -0.0010722404 0.039029438 -0.1089085 -0.06501093 -0.056778867 -0.10670037 -0.1120389
-0.13182485 -0.1978239 -0.08822606 -0.16529055 -0.018783033 -0.044194564 0.080148704 0.017409129
0.03723568 0.13421543 0.15280193 0.107178055 0.07399012 0.18588652 0.08199677 0.086439714
0.11685789 0.046405755 0.095523745 0.06551534 0.009146014 -0.047657233 -0.017139683 -0.08423986
-0.11314573 -0.052164666 -0.12250481 -0.15256248 -0.10169882 -0.089551456 -0.08492416 -0.08572446
-0.03651533 -0.06999358 -0.06043187 -0.015024464 0.003994485 0.0046187253 0.056684498 0.027116587
0.00017854072 0.05292896 0.09306587 0.079776146 0.052524608 0.06620363 0.07227232 0.06073252
0.034090426 0.052227516 0.02637767 0.0063677165 -0.028497465 -0.069803074 -0.047788244 -0.021623777
-0.023627788 -0.11869226 -0.12821977 -0.11612846 0.054521658 -0.079872936 0.096652456 0.005509181
-0.027931444 0.022128643 0.16369312 0.009896361 0.09846742 0.1541568 0.016538022 0.14509115
0.02396013 0.13833593 0.034858 0.07284205 0.07597845 -0.038823895 0.056780875 0.055201888
-0.023092112 -0.06087822 -0.06333547 -0.044176836 -0.11934249 -0.096366495 -0.09194195 -0.07880612
-0.04886269 -0.04951957 -0.12684292 0.013693751 -0.03506237 -0.07685016 -0.02315404 -0.058034625
0.06794313 -0.022354396 -0.04008393 -0.08152683 0.0704426 -0.024477279 0.008274724 0.00067295507
-0.12767985 -0.015559983 -0.101437904 0.0023284794 0.003975906 -0.031046584 -0.049387746 0.077149235
-0.059263114 0.0012388943 0.06841039 0.08596951 0.010901671 0.074011624 0.0801974 0.10022819
0.037996106 0.07224139 0.020313062 -0.024282146 0.0104517825 -0.018795466 0.060835592 0.034293275
-0.021705784 0.0100154 0.0049675605 0.0005061519 -0.03383482 -0.10935255 -0.023542915 -0.08193544
00000000: e7e2 d93b d473 1d3c daee 063d c64c 35bd
00000010: 29e2 b03c b4a2 823d 66d2 16bd 8a77 22bd
00000020: 7086 fcbb ced9 c3bc 6b3a a4bb 20d7 9bbd
00000030: 3460 2e3c 9759 b7bc a392 30bd 328e 23bd
00000040: e203 63bd a11c 89bd 391a 9e3c 39b8 7d3c
00000050: 7645 5cbd 9070 24bd 59e7 ebbd 272a c8bc
00000060: 117e d0ba fb5f 0fbd cdbf efbd c4fb a1bd
00000070: 749b 76bd 062c 01bd da38 69bc 4316 c93b
00000080: abd3 8b3c ddd7 9c3d 54a9 ad3d bc10 053e
00000090: 3894 f83d c435 d23d 3595 a13d 143b 983d
000000a0: 71e4 a73d 1b99 243e 77c4 b6ba 7f70 5f3d
000000b0: 55f9 84bd 0825 1fbd 9b67 fabb 1fd3 07be
000000c0: 64d1 51bd 7a4b c3bd 8453 a6bd 5153 d8bd
000000d0: ff6e 7fbd 407c dcbc c260 cfbb ea6d a03d
000000e0: fa43 0d3d 17ca c93d e088 d13d 0d9a 323e
000000f0: d9d4 03be f33f 1cbe 4d39 2bbe 5ba9 07be
00000100: 9696 3fbc 9731 7cbd 2b27 41bd ed73 3abd
00000110: b724 a63d fc47 143d 5f5e 913d c72c 703d
00000120: e1aa 9b3c 3854 233d 812d b03b 7ffe cc3b
00000130: 921e 1abd f4f8 b6bd 1413 e4bd 10e0 91bd
00000140: e890 05be f614 14bd 6fca 68bd 8f62 0ebe
00000150: fda6 783c 753c 34bd 9199 123d df71 993d
00000160: ca09 f53d c0e4 813d f9aa af3d cbf1 cf3d
00000170: 89c4 163e aaa1 1f3e b032 c73d 0608 1e3d
00000180: 6b4c 273d 02c3 f3bc 9029 b63c 78ce 6abb
00000190: 5a73 d73b ae52 b0bd b53a efbd fa2b 74bd
000001a0: b3fa 8dbd 268f 85bd be75 51bb 747b 87bd
000001b0: 4b41 88bd 9912 523d c6c3 aabd 1eb0 6d3d
000001c0: 4dec 95bd 6b8a 8cba 55dd 1f3d 6b0b dfbd
000001d0: 7324 85bd f590 68bd b985 dabd a774 e5bd
000001e0: 18fd 06be 5992 4abe ddaf b4bd ed41 29be
000001f0: e0de 99bc 5c05 35bd 0125 a43d 979d 8e3c
00000200: 7184 183d c56f 093e 1c78 1c3e 2b80 db3d
00000210: 2288 973d 0959 3e3e eced a73d 4e07 b13d
00000220: 3053 ef3d f613 3e3d f4a1 c33d e82c 863d
00000230: 2ad9 153c 3b34 43bd 8568 8cbc f385 acbd
00000240: f3b8 e7bd 9eaa 55bd cde3 fabd 5739 1cbe
00000250: 7947 d0bd c166 b7bd b8ec adbd 4e90 afbd
00000260: 1991 15bd cb58 8fbd 6987 77bd 2b29 76bc
00000270: 2be4 823b ad58 973b 012e 683d 9b23 de3c
00000280: a936 3b39 0acc 583d 5299 be3d ad61 a33d
00000290: 0b24 573d c595 873d 8303 943d aac2 783d
000002a0: 67a2 0b3d 85ec 553d fc15 d83c 47a8 d03b
000002b0: 8473 e9bc eaf4 8ebd 9bbd 43bd 5924 b1bc
000002c0: 108f c1bc ed14 f3bd 0b4c 03be c2d4 edbd
000002d0: 1a52 5f3d 6c94 a3bd b9f1 c53d 5c86 b43b
000002e0: 7cd0 e4bc 2147 b53c 2b9f 273e 5924 223c
000002f0: 49a9 c93d 48db 1d3e bf7a 873c c692 143e
00000300: 0948 c43c efa7 0d3e 43c7 0e3d 362e 953d
00000310: 979a 9b3d ce05 1fbd 1093 683d 601b 623d
00000320: ab2b bdbc 715b 79bd 07b6 81bd c5f2 34bd
00000330: d669 f4bd cc5b c5bd 104c bcbd 1a65 a1bd
00000340: 3e24 48bd 08d5 4abd 1ce3 01be c15b 603c
00000350: 8f9d 0fbd 9e63 9dbd 8bad bdbc b7b5 6dbd
00000360: c525 8b3d 9120 b7bc 0c2f 24bd 8af7 a6bd
00000370: 3644 903d 9384 c8bc b592 073c 4069 303a
00000380: 82be 02be 4def 7ebc adbe cfbd 6799 183b
00000390: 5148 823b 6855 febc ce4a 4abd 6b00 9e3d
000003a0: e1bd 72bd 6562 a23a bf1a 8c3d c810 b03d
000003b0: ec9c 323c 6893 973d 893e a43d 7044 cd3d
000003c0: cea1 1b3d 4bf3 933d 9467 a63c 5aeb c6bc
000003d0: f43d 2b3c f3f8 99bc be2e 793d 1b77 0c3d
000003e0: 54d0 b1bc a217 243c ebc6 a23b 47af 043a
000003f0: 6196 0abd 3bf4 dfbd 12dd c0bc c5cd a7bd

bias f4 [54]
0.14138833 0.15673594 0.057956185 0.14487724 0.0054937713 -0.2293704 -0.07107754 -0.013652062
0.009310615 -0.10961312 -0.15985899 -0.022032667 0.045411594 -0.108178005 0.0192954 0.034880042
-0.12005999 -0.07617897 -0.13848892 0.015105483 -0.11743214 -0.14738698 -0.14556716 0.030431982
-0.06896555 0.08454189 -0.09516181 -0.006636512 -0.15872227 0.0042580077 0.030178348 0.14476858
-0.16314067 0.026087105 -0.17266412 -0.10180168 0.008611201 0.058765184 -0.21994811 0.039246537
-0.17858966 0.29475033 0.16735238 -0.12284598 -0.062739916 -0.19318289 -0.11083205 -0.059324995
0.019944472 -0.22368504 0.144081 -0.0469117 0.012550901 0.042559065
00000000: 1ac8 103e 637f 203e 7763 6d3d b35a 143e
00000010: 1805 b43b 13e0 6abe 1a91 91bd e6ac 5fbc
00000020: 8d8b 183c d87c e0bd 13b2 23be da7d b4bc
00000030: 8201 3a3d 6e8c ddbd 6311 9e3c 60de 0e3d
00000040: 03e2 f5bd b803 9cbd 0ad0 0dbe fd7c 773c
00000050: 4380 f0bd 9dec 16be 8f0f 15be 7e4c f93c
00000060: cf3d 8dbd 4c24 ad3d 32e4 c2bd 1977 d9bb
00000070: 1788 22be c286 8b3b 9538 f73c 373e 143e
00000080: 590e 27be a0b4 d53c ddce 30be 667d d0bd
00000090: ff15 0d3c c3b3 703d 143a 61be fac0 203d
000000a0: 35e0 36be 84e9 963e 6c5e 2b3e ac96 fbbd
000000b0: c97d 80bd bcd1 45be eafb e2bd c4fe 72bd
000000c0: 9762 a33c b10d 65be f889 133e 7c26 40bd
000000d0: 4ba2 4d3c 6a52 2e3d

weight f4 [18, 54]
0.07196941 -0.039335843 0.0003113936 -0.008948891 0.052022256 -0.11515498 0.060664378 0.08271673
-0.00819587 0.005254716 -0.09469294 -0.059701934 -0.023313776 -0.10990492 -0.18725443 0.26098168
-0.0073220967 -0.0233733 0.02604708 0.088573314 -0.109841466 -0.035940625 0.09004913 -0.03463999
-0.13361634 -0.046662387 0.16965778 -0.045596853 0.011481824 -0.02509554 -0.004268114 0.042456023
0.16203502 0.03201616 0.14581773 0.18527435 0.00044115479 0.07101104 0.009877562 -0.10025832
0.31137794 0.06766471 0.03626846 -0.003640745 -0.028399538 -0.08920461 -0.009859956 0.40088707
0.0065754186 -0.016157743 -0.049578052 0.18794563 -0.0692892 0.083624944 0.11257453 0.28829885
-0.021225015 0.11814373 0.045081526 -0.03825902 0.05262758 0.09216806 0.16372102 0.25444284
0.031190073 0.19762944 0.09536369 -0.07620772 0.00092653715 -0.026388193 -0.02455809 -0.05217456
-0.026863137 0.0937634 0.07597487 0.06137269 -0.16137034 0.13646716 0.07002517 0.13447459
0.06296206 -0.0076661715 0.08057657 0.099391274 0.14517787 0.25007463 -0.15146114 -0.08860584
-0.029047245 0.064763665 0.089497454 0.0045020706 -0.12863165 0.04702882 -0.032725498 0.1906565
0.24877484 0.12584442 -0.11550121 0.046262223 0.0075609596 0.14042428 0.09628578 0.021468526
0.16730377 0.047734696 0.23368704 0.036606602 -0.021359146 0.09558138 -0.06577058 0.07853624
-0.0006397911 0.07401728 -0.007999518 0.23150738 -0.0511941 0.10721032 -0.06991643 0.010246428
-0.070617944 0.05652858 -0.07422782 0.053351976 -0.08033519 -0.015657958 -0.008491417 0.08326164
-0.10828651 -0.023522725 0.052846223 0.20689803 0.08452064 0.1134849 -0.06203771 0.09252717
-0.038362816 0.030655537 0.07683201 0.11226298 -0.05848866 -0.011070459 0.008172607 -0.033598978
0.07856808 0.015847417 0.10183641 -0.072355025 -0.050380733 0.056729026 0.03978649 -0.068674915
-0.09324229 -0.06419501 0.07920286 0.06412381 -0.12188446 -0.07141516 -0.037780385 -0.032559622
0.020575376 0.035862096 0.07047766 0.1531761 0.49546707 0.17287676 -0.041395012 -0.045914408
-0.010033332 0.03780706 0.07751343 -0.040534865 0.005963461 0.031422645 0.043004576 0.051212728
0.0033532765 0.02269396 0.009875097 0.16408788 0.058047708 0.0125833675 -0.049778327 -0.03022798
0.123325065 0.04244723 0.1800142 0.071894355 0.09858791 0.067769095 -0.02166956 -0.053661384
0.20422162 0.1607715 -0.005208157 -0.026202522 -0.009789987 -0.04075154 0.14139122 0.2181916
-0.07989747 0.13387495 -0.041057527 0.4474671 -0.043301463 0.07245385 -0.03596168 -0.017201707
0.095755056 -0.032597184 0.0518099 0.0042241337 -0.025977945 0.06614803 -0.05567695 0.12764601
0.19341958 0.028354548 -0.11727137 0.05308324 0.24402793 -0.11916405 0.007923489 -0.00884522
0.012037588 0.027631164 -0.01273406 0.02355512 0.1755933 0.051118683 0.11190367 -0.018433688
0.0035642067 0.05970391 -0.039779168 0.072234675 -0.041454624 0.047405068 0.1307993 0.034265406
0.0076855496 0.03777174 0.024485582 -0.04491757 0.051829983 -0.07260341 0.11539375 0.038413905
0.38652036 -0.11286773 0.045303196 0.03851242 0.15277275 -0.048508517 0.07727768 0.21522982
00000000: b364 933d 9f1e 21bd 8b42 a339 5f9e 12bc
00000010: 4a15 553d 60d6 ebbd 367b 783d 6467 a93d
00000020: f847 06bc c12f ac3b 5fee c1bd 048a 74bd
00000030: 88fc bebc d515 e1bd a0bf 3fbe 649f 853e
00000040: 33ee efbb 5d79 bfbc b060 d53c ed65 b53d
00000050: 90f4 e0bd 7a36 13bd ae6b b83d aae2 0dbd
00000060: b9d2 08be 0f21 3fbd c5ba 2d3e c4c3 3abd
00000070: 431e 3c3c 2995 cdbc 89db 8bbb 5ee6 2d3d
00000080: 82ec 253e 6123 033d 3e51 153e 8fb8 3d3e
00000090: cb4a e739 3c6e 913d 7fd5 213c 3c54 cdbd
000000a0: ee6c 9f3e cc93 8a3d 3d8e 143d 9199 6ebb
000000b0: 26a6 e8bc e8b0 b6bd a78b 21bc 1241 cd3e
000000c0: 9c76 d73b 3e5d 84bc 5b12 4bbd d274 403e
000000d0: 7fe7 8dbd 8e43 ab3d 7a8d e63d e89b 933e
000000e0: 15e0 adbc 57f5 f13d 68a7 383d 7db5 1cbd
000000f0: 0490 573d 9cc2 bc3d 7ca6 273e 5546 823e
00000100: 5382 ff3c 5f5f 4a3e 0a4e c33d cb12 9cbd
00000110: dbe2 723a 0d2c d8bc 0c2e c9bc feb4 55bd
00000120: 1510 dcbc 0707 c03d b698 9b3d ee61 7b3d
00000130: 443e 25be 0cbe 0b3e 5b69 8f3d b5b3 093e
00000140: 41f2 803d 8234 fbbb 5405 a53d a78d cb3d
00000150: 82a9 143e c809 803e a118 1bbe fb76 b5bd
00000160: 7df4 edbc d0a2 843d 714a b73d 1b86 933b
00000170: 04b8 03be 4ba1 403d 2c0b 06bd 753b 433e
00000180: d5be 7e3e 5cdd 003e e68b ecbd 757d 3d3d
00000190: edc1 f73b 62cb 0f3e 7b31 c53d c3de af3c
000001a0: ae51 2b3e 7585 433d a84b 6f3e cef0 153d
000001b0: 60f9 aebc 2cc0 c33d bab2 86bd 9cd7 a03d
000001c0: a7b7 27ba 5f96 973d 6910 03bc 4510 6d3e
000001d0: e8b0 51bd 1691 db3d 5830 8fbd a2e0 273c
000001e0: 24a0 90bd 838a 673d c104 98bd 9a87 5a3d
000001f0: c786 a4bd 1e45 80bc 961f 0bbc 1485 aa3d
00000200: 51c5 ddbd bbb2 c0bc 4875 583d 14dd 533e
00000210: 2819 ad3d c56a e83d 411b 7ebd e37e bd3d
00000220: 5422 1dbd 5221 fb3c 1a5a 9d3d 22ea e53d
00000230: ce91 6fbd df60 35bc 66e6 053c 159f 09bd
00000240: 4de8 a03d 71d2 813c 9c8f d03d df2e 94bd
00000250: 075c 4ebd b25c 683d 29f7 223d 6fa5 8cbd
00000260: d0f5 bebd ac78 83bd 1c35 a23d 5853 833d
00000270: 8f9e f9bd 1d42 92bd 9bbf 1abd 3d5d 05bd
00000280: b18d a83c 22e4 123d 9756 903d 32da 1c3e
00000290: dcad fd3e 9b06 313e d18d 29bd bf10 3cbd
000002a0: d862 24bc 93db 1a3d 5cbf 9e3d e307 26bd
000002b0: 2369 c33b 08b5 003d 9125 303d 70c4 513d
000002c0: a5c2 5b3b afe8 b93c 29cb 213c a706 283e
000002d0: 6fc3 6d3d 782a 4e3c 5ce4 4bbd aba0 f7bc
000002e0: da91 fc3d 26dd 2d3d a455 383e 593d 933d
000002f0: 75e8 c93d 86ca 8a3d 5c84 b1bc 0acc 5bbd
00000300: 791f 513e 49a1 243e 30a9 aabb aca6 d6bc
00000310: 2e66 20bc 16eb 26bd dcc8 103e 9e6d 5f3e
00000320: 49a1 a3bd 8416 093e f02b 28bd 681a e53e
00000330: e05c 31bd af62 943d 8e4c 13bd 98ea 8cbc
00000340: 3a1b c43d a084 05bd 9e36 543d 9a6a 8a3b
00000350: b3cf d4bc 9e78 873d 830d 64bd a3b5 023e
00000360: c80f 463e cc47 e83c f92b f0bd d06d 593d
00000370: 75e2 793e 480c f4bd 86d1 013c 8beb 10bc
00000380: 4e39 453c c05a e23c 85a2 50bc abf6 c03c
00000390: bbce 333e d361 513d c02d e53d 3f02 97bc
000003a0: 7795 693b 168c 743d 7bef 22bd c6ef 933d
000003b0: 53cc 29bd d12b 423d 40f0 053e e259 0c3d
000003c0: 10d7 fb3b 8ab6 1a3d fd95 c83c 7cfb 37bd
000003d0: ad4b 543d 19b1 94bd 8f53 ec3d e657 1d3d
000003e0: ffe5 c53e 3227 e7bd d88f 393d 33bf 1d3d
000003f0: 7670 1c3e deb0 46bd c343 9e3d 3565 5c3e

bias f4 [18]
-0.044004638 0.5241054 0.07199689 0.17564246 0.01945123 0.21175611 -0.031512246 0.08049301
0.13251679 -0.10962632 -0.13096511 -0.1573164 -0.16787963 -0.14788726 -0.14200445 -0.15507536
-0.05910487 -0.1537593
00000000: 353e 34bd c62b 063f 1b73 933d 9edb 333e
00000010: 3058 9f3c 98d6 583e fc12 01bd 85d9 a43d
00000020: 7bb2 073e c483 e0bd b81b 06be 8d17 21be
00000030: a3e8 2bbe c26f 17be 9d69 11be 13cc 1ebe
00000040: f317 72bd 1473 1dbe

weight f4 [6, 18]
0.55937505 -0.40146512 -0.048325486 0.27386767 -0.008169198 0.42903396 -0.03552394 0.16272965
0.08653205 -0.35928935 -0.16364074 -0.40796235 0.44853917 0.341159 -0.41611964 0.20023374
-0.5587448 0.21360499 -0.012087585 0.58917224 0.11721863 -0.6983175 -0.14383058 0.28641918
0.13042487 -0.06499456 -0.06906794 0.23784912 -0.07834024 -0.013638561 0.43587023 0.0176516
-0.2714017 -0.2463932 -0.10562328 -0.19189586 0.38852495 0.5416126 0.07007875 -0.36076057
0.35700962 -0.36496392 -0.06585624 -0.19586517 -0.14640804 -0.41895133 0.31000975 -0.25423104
-0.2787339 0.20763783 0.16109204 0.29865628 -0.46510932 0.21973002 0.1416116 -0.52521783
-0.14357907 -0.38035598 -0.26104152 0.37547314 -0.14258602 -0.45560935 -0.17398722 -0.011363986
0.48886266 -0.20770016 -0.24866946 0.19098452 0.22280557 -0.0075283297 -0.19498278 -0.0739697
0.057493787 0.15713482 0.16527586 0.22295772 -0.3049153 0.1660337 0.05786698 -0.18931167
0.035519004 0.31034055 -0.2635696 -0.36183363 -0.6513304 0.3728998 0.68624294 -0.1512596
0.025489103 -0.09209678 -0.2999113 -0.07671719 -0.28246513 -0.19304778 0.4646872 0.7630172
0.02422209 -0.271698 0.06630078 -0.5888011 -0.31046113 0.20990182 -0.28548113 -0.16329077
0.3252074 0.14187622 0.29852557 0.007544343
00000000: 3433 0f3f d68c cdbe f2f0 45bd 6238 8c3e
00000010: 1ad8 05bc 57aa db3e 8d81 11bd 9aa2 263e
00000020: b737 b13d c6f4 b7be 7091 27be 71e0 d0be
00000030: eda6 e53e 64ac ae3e a20d d5be 130a 4d3e
00000040: e609 0fbf 44bb 5a3e 020b 46bc fed3 163f
00000050: 5210 f03d f0c4 32bf 5348 13be 89a5 923e
00000060: 198e 053e de1b 85bd 7e73 8dbd b88e 733e
00000070: d970 a0bd 4574 5fbc 622a df3e 179a 903c
00000080: 2af5 8abe 804e 7cbe 0551 d8bd 5980 44be
00000090: beec c63e 20a7 0a3f 7385 8f3d 9cb5 b8be
000000a0: f7c9 b63e 8ddc babe a3df 86bd e190 48be
000000b0: fdeb 15be ca80 d6be 99b9 9e3e 922a 82be
000000c0: 36b6 8ebe 039f 543e 50f5 243e 7ae9 983e
000000d0: cf22 eebe e800 613e a202 113e ad74 06bf
000000e0: 6406 13be 05be c2be 3ca7 85be 043e c03e
000000f0: 1202 12be a145 e9be b529 32be 0330 3abc
00000100: 354c fa3e 5aaf 54be 35a3 7ebe 7291 433e
00000110: 2527 643e 35b0 f6bb 91a9 47be 6d7d 97bd
00000120: 9b7e 6b3d f3e7 203e 133e 293e 074f 643e
00000130: dc1d 9cbe bd04 2a3e ed05 6d3d ebda 41be
00000140: 607c 113d f5e4 9e3e 98f2 86be 4242 b9be
00000150: 97bd 26bf b9ec be3e 9ead 2f3f cce3 1abe
00000160: 86ce d03c 3d9d bcbd f98d 99be e71d 9dbd
00000170: 459f 90be 51ae 45be 7beb ed3e 1855 433f
00000180: 686d c63c 001c 8bbe b4c8 873d abbb 16bf
00000190: c3f4 9ebe 81f0 563e 952a 92be b235 27be
000001a0: 9681 a63e 0048 113e 58d8 983e 8936 f73b

bias f4 [6]
0.28288436 0.3144515 0.013442132 -0.14239511 0.09032923 -0.018808877
00000000: 38d6 903e c9ff a03e 633c 5c3c 06d0 11be
00000010: 88fe b83d 1315 9abc

weight f4 [18, 6]
-0.013923081 0.07526757 0.17043503 -0.049213286 0.12928319 -0.020542208 -0.28990248 0.26045898
0.26587087 0.4898269 0.040406097 0.22876088 0.07936376 0.34918362 -0.18888493 0.0875717
-0.3215024 -0.0071090455 0.20821959 -0.082846954 0.0110564865 -0.40300152 0.33219188 0.039643798
-0.1945686 -0.33665332 0.27995527 -0.041430708 0.36049852 0.050788872 0.21528126 -0.023139622
-0.20814955 -0.20619936 -0.08895764 -0.049413905 0.08363343 0.16108029 -0.34099174 0.19771354
0.10027819 0.08739741 -0.17494565 0.2752577 -0.12089932 0.13188572 0.23449421 -0.46653914
-0.14744438 0.2267475 0.14336786 0.12469645 -0.19784142 -0.34367156 0.22643358 0.44303107
-0.09457242 -0.33812475 0.41694388 0.2987974 0.04631622 0.30202308 0.27280086 -0.5322585
0.25439522 0.16350476 -0.060780976 0.124049395 -0.035904 -0.04076702 0.1455348 0.21057278
0.18671407 0.11138179 -0.03618949 -0.15399937 0.42513168 0.26091003 -0.06538162 -0.37961754
-0.050315343 0.15595616 -0.08863772 0.091540314 0.43165725 0.18579699 0.3626347 0.33974272
0.02720169 -0.15414855 0.192018 -0.27531505 0.11487594 -0.14183089 -0.23595755 0.5069426
-0.40500954 -0.18234862 -0.33678207 -0.27233985 -0.055557787 0.12219764 -0.049041294 -0.14384845
0.26348358 -0.13988887 -0.083411 -0.06539897
00000000: a21d 64bc e225 9a3d 8586 2e3e df93 49bd
00000010: d062 043e 2248 a8bc 196e 94be e15a 853e
00000020: 3a20 883e 97ca fa3e dd80 253d 4b40 6a3e
00000030: 7889 a23d 32c8 b23e 0d6b 41be cb58 b33d
00000040: f69b a4be fff2 e8bb 8437 553e aaab a9bd
00000050: 4426 353c 3756 cebe 0e15 aa3e 8961 223d
00000060: fe3c 47be d35d acbe 4c56 8f3e 3fb3 29bd
00000070: 4393 b83e fe07 503d b172 5c3e 4e8f bdbc
00000080: 2825 55be ed25 53be 6c2f b6bd 3c66 4abd
00000090: 0148 ab3d 3bf2 243e 7896 aebe 6b75 4a3e
000000a0: a75e cd3d 6afd b23d f424 33be 94ee 8c3e
000000b0: 109a f7bd 0d0d 073e 401f 703e 38de eebe
000000c0: a9fb 16be 7f30 683e 06cf 123e da60 ff3d
000000d0: f196 4abe b8f5 afbe 34de 673e f8d4 e23e
000000e0: 2faf c1bd b01e adbe ab79 d53e f9fb 983e
000000f0: 14b6 3d3d c5a2 9a3e 8eac 8b3e 1842 08bf
00000100: 1740 823e cb6d 273e 79f5 78bd 9c0d fe3d
00000110: 1310 13bd 52fb 26bd 1307 153e 64a0 573e
00000120: f931 3f3e 231c e43d 6e3b 14bd 03b2 1dbe
00000130: dcaa d93e 0096 853e cce6 85bd 3b5d c2be
00000140: 7617 4ebd f9b2 1f3e b187 b5bd 7d79 bb3d
00000150: 2e02 dd3e 9141 3e3e 41ab b93e c2f2 ad3e
00000160: 14d6 de3c 1ed9 1dbe 5ea0 443e 18f6 8cbe
00000170: 1444 eb3d 1e3c 11be db9e 71be fdc6 013f
00000180: 695d cfbe 99b9 3abe b36e acbe 2170 8bbe
00000190: 9090 63bd c242 fa3d 86df 48bd 024d 13be
000001a0: 52e7 863e 073f 0fbe 63d3 aabd e5ef 85bd

bias f4 [18]
-0.055117052 -0.2633822 0.033936862 0.728564 -0.02642854 0.49387112 -0.38020474 -0.039168157
-0.21312165 0.3323319 0.71333987 0.6457985 0.539011 -0.306205 0.0658047 -9.426295e-05
0.061521653 0.35831654
00000000: 6bc2 61bd 08da 86be 6101 0b3d 2c83 3a3f
00000010: aa80 d8bc addc fc3e 32aa c2be ca6e 20bd
00000020: 903c 5abe 6827 aa3e 719d 363f 0d53 253f
00000030: a0fc 093f e7c6 9cbe 9dc4 863d 09af c5b8
00000040: 21fe 7b3d 4475 b73e

weight f4 [54, 18]
0.20382409 0.6040768 0.028528506 -0.32405433 -0.031543013 -0.0048327185 -0.10678259 0.003619223
-0.007635978 0.18265319 -0.10261493 0.09981051 0.3070124 -0.10450344 0.30872035 0.019978974
-0.10202897 0.19093223 0.14683615 0.2512104 -0.024824293 0.02481964 0.31544328 -0.14451188
-0.08934847 0.027865121 -0.023806242 -0.19246921 0.108683 -0.060944214 -0.059940632 0.17079532
-0.085108645 -0.16749938 0.0049353736 -0.058091298 0.002736117 0.07961745 0.12700209 -0.17021237
-0.03945914 0.15891016 0.23218034 0.2355196 -0.16812782 -0.12582362 -0.15982234 0.31336924
0.05929643 0.123287745 -0.11944515 0.06989813 0.36022377 0.070678465 -0.041481476 0.04600896
-0.22350883 0.11390913 -0.098383844 0.08881806 -0.097628884 -0.12955229 -0.19824436 0.070095815
0.028150467 0.032999713 0.03939632 -0.0037764448 -0.0740035 -0.15478262 -0.22599769 -0.069554
0.0043694964 0.06621184 0.051349252 0.1560934 -0.084460326 0.17255086 0.08896318 -0.060343493
-0.07858325 -0.07646301 0.15179299 0.039324436 -0.19230147 0.08692172 -0.08786741 0.08907616
0.46243742 -0.074622974 -0.16296908 0.056876905 0.16946897 -0.114040956 -0.037790895 0.36843178
0.040935405 -0.08767682 -0.064399205 0.23411454 -0.055492073 -0.18000926 0.035952877 0.07068895
0.0019133956 0.023185672 -0.040509693 -0.026218548 0.12080437 0.002868041 0.13663502 -0.089149885
-0.20015511 0.06531795 0.061148 0.3242266 0.16911118 0.17236884 0.28298932 -0.05482485
-0.09763734 -0.092601284 0.13294238 -0.19410546 -0.089392155 -0.19867659 -0.11241038 -0.119435355
-0.12813377 0.000652826 -0.11301872 0.005189619 0.115796626 -0.10368399 0.023371883 0.090121776
-0.012632329 0.35884506 0.132975 0.22967501 -0.12740543 -0.06711009 0.41718864 -0.052397538
0.1360783 -0.009088737 -0.19828789 0.0110625345 0.014824437 0.068832934 -0.018516863 -0.10986428
0.09060643 0.33809686 0.49471357 0.20923974 0.07644388 -0.064992465 -0.028368715 0.1438078
-0.059774548 0.06535057 0.13358323 0.20876394 0.026768131 -0.16187352 -0.114597335 0.38350713
-0.14833835 -0.034782823 -0.069339104 -0.0359657 -0.23426719 0.08845397 -0.07049768 0.21364464
0.04975667 0.16844088 -0.018707803 -0.007678523 -0.05559808 0.1233557 0.073622406 0.11522474
0.46426415 -0.1225221 0.20517676 -0.12427723 0.10917613 -0.24528404 -0.08640814 0.124455504
0.36140996 0.20554318 -0.11406263 0.305698 -0.03886508 0.24239963 -0.21886799 -0.0152227245
-0.020371191 0.120448284 -0.11879895 -0.06272687 0.17029141 0.3060868 0.1770786 -0.059592575
-0.23037183 0.31421298 0.17175695 -0.06697664 -0.06605917 -0.22300917 -0.12151435 -0.039579034
0.05851747 -0.014533553 0.39278418 -0.51864487 -0.016820734 0.24010098 0.21985869 -0.123995826
0.23096794 0.43093657 0.12108812 -0.04938917 -0.045604393 -0.14932099 -0.044973437 0.3613463
-0.026506834 -0.066905126 0.09512289 0.04895097 0.07166873 0.170741 0.056604676 -0.114666365
-0.07604997 0.31060314 0.0008158846 -0.095441066 -0.010291398 0.045712642 0.07413077 0.00790627
-0.08281362 -0.132937 -0.06943068 0.07915994 0.15499619 -0.14623943 -0.22652954 -0.003194544
00000000: 43b7 503e c7a4 1a3f 9db4 e93c 73ea a5be
00000010: 3f33 01bd c85b 9ebb d5b0 dabd 7c30 6d3b
00000020: 3a37 fabb 7009 3b3e c727 d2bd 7469 cc3d
00000030: bb30 9d3e e605 d6bd 9810 9e3e f2aa a33c
00000040: 91f4 d0bd bd83 433e 375c 163e a69e 803e
00000050: 515c cbbc 8f52 cb3c c881 a13e ecfa 13be
00000060: 55fc b6bd 6545 e43c 4f05 c3bc a616 45be
00000070: 3195 de3d a4a0 79bd 4f84 75bd f8e4 2e3e
00000080: 714d aebd f584 2bbe eab8 a13b 24f1 6dbd
00000090: 6d50 333b 790e a33d d60c 023e 274c 2ebe
000000a0: e89f 21bd 58b9 223e afc0 6d3e 0d2c 713e
000000b0: b329 2cbe e8d7 00be 78a8 23be ef71 a03e
000000c0: d0e0 723d 497e fc3d a99f f4bd c026 8f3d
000000d0: 406f b83e dfbf 903d 7be8 29bd e473 3c3d
000000e0: 80df 64be 3149 e93d 787d c9bd 3ee6 b53d
000000f0: a7f1 c7bd 5ba9 04be 9200 4bbe 658e 8f3d
00000100: cf9b e63c b52a 073d 095e 213d 3b7e 77bb
00000110: 268f 97bd 567f 1ebe f06b 67be 5472 8ebd
00000120: fe2d 8f3b 139a 873d 9853 523d f3d6 1f3e
00000130: 89f9 acbd 2cb1 303e 5432 b63d bd2a 77bd
00000140: 41f0 a0bd a398 9cbd 9f6f 1b3e a912 213d
00000150: adea 44be 0404 b23d d4f3 b3bd 906d b63d
00000160: 99c4 ec3e eed3 98bd 5ee1 26be c2f7 683d
00000170: 4689 2d3e 4e8e e9bd a0ca 1abd 17a3 bc3e
00000180: e2ab 273d e88f b3bd bbe3 83bd b9bb 6f3e
00000190: a84b 63bd 5954 38be 5343 133d 5ec5 903d
000001a0: e7ca fa3a e1ef bd3c 7eed 25bd 48c8 d6bc
000001b0: 4868 f73d bef5 3b3b 0dea 0b3e 3794 b6bd
000001c0: 76f5 4cbe 6bc5 853d 5376 7a3d 0701 a63e
000001d0: 7b2b 2d3e 7581 303e fae3 903e 0690 60bd
000001e0: 16f6 c7bd bea5 bdbd 0c22 083e 95c3 46be
000001f0: 3c13 b7bd e071 4bbe 6a37 e6bd 869a f4bd
00000200: 8035 03be 6922 2b3a 5c76 e7bd ae0d aa3b
00000210: c826 ed3d 4658 d4bd 6476 bf3c c491 b83d
00000220: d4f7 4ebc 8aba b73e 992a 083e ed2f 6b3e
00000230: 9276 02be 0471 89bd c099 d53e cd9e 56bd
00000240: 1c58 0b3e ede8 14bc fb0b 4bbe a23f 353c
00000250: 32e2 723c 48f8 8c3d adb0 97bc 8600 e1bd
00000260: dd8f b93d 081b ad3e 194b fd3e f142 563e
00000270: 9c8e 9c3d c51a 85bd 8265 e8bc 5a42 133e
00000280: 28d6 74bd 85d6 853d 0bca 083e 37c6 553e
00000290: d748 db3c 2cc2 25be 02b2 eabd 0c5b c43e
000002a0: 02e6 17be 6f78 0ebd a901 8ebd c550 13bd
000002b0: bde3 6fbe 5b27 b53d 1661 90bd a9c5 5a3e
000002c0: a6cd 4b3d c47b 2c3e 1b41 99bc 1f9c fbbb
000002d0: d0ba 63bd eaa1 fc3d 58c7 963d f3fa eb3d
000002e0: 08b4 ed3e deec fabd db19 523e 0f85 febd
000002f0: bc97 df3d bd2b 7bbe c0f6 b0bd 87e2 fe3d
00000300: ba0a b93e e979 523e ab99 e9bd 7384 9c3e
00000310: fd30 1fbd 9c37 783e ee1e 60be bc68 79bc
00000320: 7ce1 a6bc 97ad f63d dd4c f3bd f276 80bd
00000330: df60 2e3e 69b7 9c3e 1854 353e 5817 74bd
00000340: 98e6 6bbe 86e0 a03e 0ee1 2f3e 0c2b 89bd
00000350: 084a 87bd 845c 64be 84dc f8bd a01d 22bd
00000360: 04b0 6f3d 241e 6ebc 021b c93e e9c5 04bf
00000370: a3cb 89bc 08dd 753e a322 613e 86f1 fdbd
00000380: dc82 6c3e b8a3 dc3e 0cfd f73d 4c4c 4abd
00000390: accb 3abd 9ae7 18be 1136 38bd 6202 b93e
000003a0: dc24 d9bc 8e05 89bd cacf c23d d080 483d
000003b0: 0ec7 923d bbd6 2e3e 4eda 673d 33d6 eabd
000003c0: 16c0 9bbd 6007 9f3e 17e1 553a 9b76 c3bd
000003d0: 409d 28bc 2e3d 3b3d e0d1 973d 4d89 013c
000003e0: 309a a9bd a320 08be ac31 8ebd 9b1e a23d
000003f0: 52b7 1e3e cabf 15be 5cf7 67be 8e5b 51bb

bias f4 [54]
0.25369576 0.35298064 0.4836776 -0.19434059 0.10991161 -0.0070883874 0.16177323 0.12994659
-0.38349092 0.47524694 0.25587958 0.41881147 0.4516896 0.281189 -0.12929484 -0.14556874
0.36909828 -0.22784157 0.5038298 0.09372967 0.32225654 -0.11307794 0.18787962 -0.23890787
-0.08845003 0.51684165 -0.1320696 -0.26560962 0.16061434 -0.4099989 -0.16922006 0.21945812
0.29993418 -0.1314884 -0.2469705 -0.15724204 0.4534824 0.35598332 -0.09271525 0.31109843
-0.07301558 0.097934745 -0.17384647 0.35620505 0.27491936 0.02438691 0.26338807 0.11228723
0.60628754 -0.012330879 0.027087476 -0.36990008 0.06274819 0.18408969
00000000: 69e4 813e e1b9 b43e 97a4 f73e 3801 47be
00000010: 5719 e13d b445 e8bb e2a7 253e b810 053e
00000020: ec58 c4be 9153 f33e a602 833e 756e d63e
00000030: dc43 e73e 01f8 8f3e de65 04be f90f 15be
00000040: 73fa bc3e 4d4f 69be fdfa 003f 57f5 bf3d
00000050: cffe a43e 6895 e7bd 8463 403e 44a4 74be
00000060: 4a25 b5bd bc4f 043f 413d 07be fcfd 87be
00000070: 1678 243e 60eb d1be 0648 2dbe a1b9 603e
00000080: f990 993e e5a4 06be d6e5 7cbe 0f04 21be
00000090: d82e e83e 7243 b63e 7ee1 bdbd 4b48 9f3e
000000a0: 3189 95bd 0392 c83d cf04 32be 8260 b63e
000000b0: 3bc2 8c3e 0fc7 c73c cdda 863e d9f6 e53d
000000c0: a935 1b3f 7507 4abc 8ee6 dd3c 8b63 bdbe
000000d0: 1f82 803d 0282 3c3e

weight f4 [60, 54]
0.2968331 0.21553102 0.19850622 -0.20296235 -0.03697034 -0.19301514 -0.121570304 0.08445562
0.022080945 0.20483398 0.22027236 0.10425332 0.1888287 0.015300628 -0.11283347 0.14944518
-0.13326116 -0.12850295 -0.14282516 -0.35651466 0.11998633 -0.040146586 0.10530138 -0.09105253
-0.14058799 0.04084698 -0.09222444 -0.07712793 -0.015268164 -0.2306842 0.07794106 0.12495052
-0.17071895 0.08967109 -0.06429922 0.054704055 0.1302555 0.13039471 0.08424606 -0.10980735
-0.089911446 0.15499267 0.0022444995 -0.0397443 0.08766619 -0.20572025 0.054160308 -0.0005778702
0.3090688 0.021559509 -0.23268858 -0.27371818 -0.31346878 0.21918423 0.22525834 0.13988082
0.23024674 -0.030228786 -0.084731266 -0.13033795 -0.10501028 0.071935326 0.006640693 0.121300176
0.23933353 0.102991 0.10481248 -0.061885808 -0.0539013 -0.0415006 -0.14681439 -0.07456248
-0.16011441 -0.37471828 0.18158783 -0.060448848 0.07578192 -0.022686344 0.06923385 0.06814155
-0.07394926 0.003926122 -0.0005672813 -0.3448162 0.09822315 0.0739851 -0.15533994 0.039209418
-0.112429075 0.119148605 0.115763865 0.14123467 -0.07371701 -0.15267155 -0.12919539 0.0019420186
0.07299237 -0.012908089 0.059675653 -0.2138347 0.03628602 0.040150974 0.27562764 -0.08139469
-0.18096825 -0.08708501 -0.26432186 0.29556954 0.26377353 0.06059155 0.19170545 -0.0843949
-0.015563095 -0.14674145 -0.14971219 0.09599905 0.039010767 0.107003495 0.185824 0.03131614
0.14916846 0.090911426 0.024816332 0.1326171 -0.14039129 -0.016192986 -0.11884365 -0.30197674
0.12473189 -0.008444399 0.09039775 0.11751668 0.0011182481 0.0027816463 -0.106674045 0.007954571
-0.06172567 -0.24865359 0.039150633 0.081778266 -0.16178937 0.1111803 -0.10941036 0.10424543
0.14093907 0.12426911 0.07772847 -0.104086734 -0.10460353 0.14138314 -0.009122134 -0.12728722
0.103435844 -0.18551673 -0.036259394 -0.025361829 0.25998938 -0.0368221 -0.18635207 -0.0942351
-0.28234562 0.17968577 0.18954104 0.042448938 0.1621728 0.016004706 -0.013020478 -0.07907077
-0.12346003 0.11063985 0.016671611 0.04320894 0.2150663 0.06077685 0.08371187 0.013418763
0.0016688565 0.052098297 -0.16448347 -0.057120442 -0.18184425 -0.30847654 0.03551015 -0.095760114
0.14291245 0.0033368743 0.044146642 -0.028373968 -0.029199181 0.03230786 -0.052064285 -0.18975621
0.060258146 0.122558266 -0.1683864 0.1064312 -0.0087259365 0.11666179 0.06480905 0.010485405
-0.08606767 -0.14274131 -0.10246962 0.07616705 -0.0714314 -0.05675644 0.13589527 -0.18413197
0.053350694 0.047275346 0.1960744 -0.07929732 -0.16641888 -0.028317709 -0.1777289 0.23521347
0.15199612 0.095080845 0.11983884 0.016158141 -0.06341451 -0.021666335 -0.094853096 0.117840864
0.014378366 -0.0010750027 0.14909557 -0.04022859 -0.016811965 0.031354193 -0.1345654 0.0029578968
-0.12165334 -0.03839084 -0.17236508 -0.29768038 0.14127295 -0.037319586 0.08390993 -0.11822612
-0.009211882 -0.08505604 -0.013025627 0.06878275 -0.00994922 -0.07660835 -0.01403079 0.121306375
-0.14921205 -0.0875424 0.09960799 0.07846077 0.008170032 0.06926031 -0.13005492 -0.058195144
00000000: 82fa 973e 2ab4 5c3e 3745 4b3e 5dd5 4fbe
00000010: 366e 17bd c3a5 45be daf9 f8bd 11f7 ac3d
00000020: 19e3 b43c 00c0 513e 148f 613e c482 d53d
00000030: 505c 413e 7caf 7a3c 3c15 e7bd 2808 193e
00000040: 9d75 08be 4796 03be c240 12be 1789 b6be
00000050: 65bb f53d bf70 24bd 40a8 d73d c079 babd
00000060: 4cf6 0fbe 2a4f 273d 2be0 bcbd 40f5 9dbd
00000070: 5227 7abc 7b38 6cbe 909f 9f3d 0fe6 ff3d
00000080: f3d0 2ebe 7aa5 b73d 4faf 83bd 5c11 603d
00000090: b361 053e 3186 053e 3389 ac3d ade2 e0bd
000000a0: 7e23 b8bd 66b6 1e3e 7418 133b ebca 22bd
000000b0: 558a b33d 54a8 52be 33d7 5d3d 367c 17ba
000000c0: 443e 9e3e 919d b03c ea45 6ebe ca24 8cbe
000000d0: fb7e a0be d571 603e 1faa 663e eb3c 0f3e
000000e0: cdc5 6b3e 5ca2 f7bc 9687 adbd 5077 05be
000000f0: a10f d7bd d452 933d 2c9a d93b 3a6c f83d
00000100: d913 753e f2ec d23d eda7 d63d f97b 7dbd
00000110: 9cc7 5cbd 88fc 29bd 8356 16be 37b4 98bd
00000120: 08f5 23be 13db bfbe 29f2 393e 3699 77bd
00000130: 8d33 9b3d b6d8 b9bc 7aca 8d3d cc8d 8b3d
00000140: b672 97bd b3a6 803b 9bb5 14ba c08b b0be
00000150: 3829 c93d 8085 973d 6f11 1fbe 0e9a 203d
00000160: 3741 e6bd 2f04 f43d 9b15 ed3d d29f 103e
00000170: f2f8 96bd ee55 1cbe cc4b 04be 558b fe3a
00000180: 067d 953d 737c 53bc 756e 743d 7cf7 5abe
00000190: a6a0 143d 5975 243d 111f 8d3e 42b2 a6bd
000001a0: be4f 39be a059 b2bd 3255 87be e454 973e
000001b0: 530d 873e d82e 783d 6f4e 443e 3cd7 acbd
000001c0: 5afc 7ebc 6443 16be 274e 19be 269b c43d
000001d0: c1c9 1f3d a624 db3d a648 3e3e 5a45 003d
000001e0: 9ebf 183e c52f ba3d 9f4b cb3c c7cc 073e
000001f0: bcc2 0fbe 27a7 84bc 4d64 f3bd b29c 9abe
00000200: 6f73 ff3d 605a 0abc 7522 b93d 96ac f03d
00000210: 2e92 923a 484c 363b ec77 dabd e453 023c
00000220: 0ed4 7cbd 0c9f 7ebe 6a5c 203d 5d7b a73d
00000230: 1dac 25be 7fb2 e33d 8a12 e0bd a17e d53d
00000240: 5552 103e ce80 fe3d 1b30 9f3d 6d2b d5bd
00000250: 603a d6bd bec6 103e 0175 15bc 9557 02be
00000260: 2cd6 d33d 19f8 3dbe bb84 14bd 9cc3 cfbc
00000270: 541d 853e c5d2 16bd 14d3 3ebe 55fe c0bd
00000280: 9b8f 90be 8cff 373e 0c17 423e f0de 2d3d
00000290: a010 263e 4d1c 833c d853 55bc dbef a1bd
000002a0: 9dd8 fcbd 2597 e23d e792 883c dcfb 303d
000002b0: 573a 5c3e 25f1 783d 2171 ab3d 5fda 5b3c
000002c0: 88bd da3a 0665 553d 5b6e 28be 20f7 69bd
000002d0: 6135 3abe a3f0 9dbe 1773 113d e11d c4bd
000002e0: a457 123e 76af 5a3b 1cd3 343d 8670 e8bc
000002f0: 1f33 efbc 3f55 043d 5c41 55bd 744f 42be
00000300: 3fd1 763d d4ff fa3d 7c6d 2cbe 9af8 d93d
00000310: 3bf7 0ebc 60ec ee3d 9bba 843d faca 2b3c
00000320: 3f44 b0bd c72a 12be 98db d1bd 78fd 9b3d
00000330: a04a 92bd 7179 68bd 2128 0b3e 178d 3cbe
00000340: 4286 5a3d cba3 413d bac7 483e a266 a2bd
00000350: b669 2abe 8afa e7bc 91fe 35be cddb 703e
00000360: dfa4 1b3e bfb9 c23d 116e f53d 145e 843c
00000370: 77df 81bd 997d b1bc 5742 c2bd 8d56 f13d
00000380: 3d93 6b3c 1be7 8cba 82ac 183e bcc6 24bd
00000390: 3fb9 89bc 416d 003d 83cb 09be 46d9 413b
000003a0: 6325 f9bd b73f 1dbd 7980 30be 9069 98be
000003b0: dba9 103e 6cdc 18bd f8d8 ab3d 8920 f2bd
000003c0: 6fed 16bc dc31 aebd 7069 55bc f8dd 8c3d
000003d0: 0e02 23bc d7e4 9cbd 66e1 65bc 7a6f f83d
000003e0: 0bcb 18be 6e49 b3bd 46ff cb3d 0ab0 a03d
000003f0: 99db 053c 59d8 8d3d 1e2d 05be 085e 6ebd

bias f4 [60]
0.35911605 0.40581852 0.30184197 0.21179487 0.0096080415 0.0137782935 -0.081351146 -0.11550702
-0.23547615 -0.17262284 -0.15054187 -0.122647636 -0.15302143 -0.14026831 -0.07523033 0.09224428
0.044553816 0.1538901 0.14708269 0.27087253 0.18740192 0.25949016 0.16756216 0.10617028
0.00058584136 -0.037010625 0.0075382385 -0.12387462 -0.15296859 -0.32934707 -0.27755803 -0.24555674
-0.32066274 -0.29336044 -0.16576914 -0.17567754 -0.1488846 0.0030768437 -0.08953449 0.009709007
0.066011295 0.033790473 0.144336 0.15029456 0.1492091 0.17410807 0.20657007 0.10926828
0.085719876 -0.0822057 -0.13605098 -0.19542012 -0.12000136 -0.18771476 -0.03137434 0.027026745
-0.00057089014 0.17436992 0.2304852 0.15203927
00000000: 0fde b73e 72c7 cf3e 088b 9a3e c1e0 583e
00000010: 0c6b 1d3c 5abe 613c 6e9b a6bd f28e ecbd
00000020: a920 71be 0bc4 30be a627 1abe af2e fbbd
00000030: a6b1 1cbe 7fa2 0fbe 5c12 9abd 92ea bc3d
00000040: 107e 363d 5e95 1d3e d89c 163e ceaf 8a3e
00000050: 4ae6 3f3e e5db 843e 6a95 2b3e ce6f d93d
00000060: 2693 193a 7498 17bd 5403 f73b fab1 fdbd
00000070: cca3 1cbe 2ea0 a8be 161c 8ebe 3a73 7bbe
00000080: e82d a4be 5733 96be 63bf 29be d0e4 33be
00000090: 3475 18be dfa4 493b dc5d b7bd 8712 1f3c
000000a0: ee30 873d e167 0a3d d1cc 133e d1e6 193e
000000b0: 45ca 183e 6349 323e 1b87 533e 0cc8 df3d
000000c0: e78d af3d 765b a8bd f350 0bbe 361c 48be
000000d0: 46c3 f5bd 4c38 40be 6182 00bd 3167 dd3c
000000e0: caa7 15ba 078e 323e 5004 6c3e 2fb0 1b3e
