knn/models/pretrained-autoencoder/autoencoder-in_features90-latent_size3.pt (torch, 43257 bytes, 12 tensors)

weight f4 [27, 90]
00000000: 5150 5bbd 635e 49bd ebab 65bd 46fe 7bbd
00000010: bda3 97bc 2de1 4bbd e6ad 16bd 20e0 55bd
00000020: d636 543b 957a 25bc 6179 b03b 4fe5 89bc
00000030: 1453 033d a556 1fbc 601b 6c3c 2bcc 913d
00000040: 3ff4 943b 99fd b33d eabf 37bc 4f0c 693d
00000050: 8d5d a43d d73b 963d f0e8 fb3c 34a5 af3d
00000060: 5de1 283d c44f 6e3d 63fa b93d 3b9e 923d
00000070: 9444 283d dcde 833d 5312 a13d 1b11 553b
00000080: 9da9 953d 2f52 b33c b480 283d a9bd ff3c
00000090: 39be 1e3d 1e7e a3b9 2313 663d 9979 89bc
000000a0: ff79 8c3c c248 f3bb 10bc 9fbc 2750 8bbc
000000b0: e95e 86bc af52 1cbd fbf8 823b 23d4 a7bc
000000c0: 50c9 11bd 9a3b 5cbd 99f3 72bc 2533 ccbd
000000d0: cb21 4fbc 72fa d6bc 6018 9bbd 5092 45bd
000000e0: daa0 b3bc 1406 8dbd 0c88 90bc 41f6 03bd
000000f0: 280c 0dbd 147a 69bd 1450 22bc 9e99 3dbd
00000100: 710a 97bc 587a 5dbd eafa d03c f690 debc
00000110: 61c0 00bd 1656 023c 255b fabc db6e 5739
00000120: 367a 973c c59d 5ebc d32b b93c 09f5 01bd
00000130: 4fc2 1f3d 43fa fa3b d0c3 343c 1951 313d
00000140: 7b18 36bd aca2 133d 54cd 253d 7d73 f53c
00000150: cef5 ab3c 7f83 b73c c885 813b 2b5b 6d3d
00000160: 4cbf 0c3c 7b7c 6b3c 2f28 84bd 3e3c c6bd
00000170: 4669 6ebd 4fb0 7dbd 5acf b6bd 116d 54bd
00000180: 0144 51bc acc8 03bd 71f0 91bb 53b6 26bd
00000190: d81f 9d3b ba7d bfbc 5041 05bc 1473 523c
000001a0: 447b 4dbc 22aa 3d3d 120a 7d3d bbf6 5c3c
000001b0: 901e 583d cffa 423d 7bc4 b93d 7409 783d
000001c0: 2fc2 0c3d a472 c23d e569 d63d 61db 8c3d
000001d0: 1072 a23d fd8d 963d 78d0 273e 91bf 3c3d
000001e0: 46db d93d fa53 8a3d 00b6 b53d db54 c53d
000001f0: e8cf 6a3d 677b 663d e571 8c3d 6a8b 0b3d
00000200: 1de7 653d 2be0 593d f412 5cbc 1575 0b3d
00000210: b806 fd3c 93f7 303c 635a 3fb7 0644 60bc
00000220: db9f 2dbd cc63 1dbd fd17 16bd 9761 40bd
00000230: a4f9 a7bd f3de 8cbd b1ea 5bbd 408b 05be
00000240: 2a45 71bd 17a7 c6bd 7d40 d6bd 9b0a c2bd
00000250: 9480 dbbd 789d 99bd 6a58 e9bd 3c79 9ebd
00000260: dd98 1abe 839c f2bd 6b07 80bd d9f8 cbbd
00000270: e86c 56bd 1356 c9bd 06cc 77bd fa49 92bd
00000280: 3470 f6bc f78d eabc 1b7e 9fbd 115a c6b9
00000290: e2bc c43c 9d84 9f3c 0a11 3abc c4b5 273d
000002a0: b92d 513d f2b1 043d efa5 d13d 7183 533d
000002b0: 450b 743d 7748 bc3d 5115 193e df84 9d3d
000002c0: b8dd 1f3e fac0 f13d 93bd ce3d f866 0e3e
000002d0: 00f6 4bbc 5bb7 0cbd 949d 123d 2adf e8bc
000002e0: 673f 743c c521 903c aabe 123d 888b 213c
000002f0: b05b 4f3b 1467 a83c 55b6 963d 014f 493d
00000300: ceaf 193c 6235 c43d b3e4 173d 21f0 c63d
00000310: 99bb 453d ef9d fc3c 1a69 0c3e 7c8a 533d
00000320: 9bef bf3d 376b be3d 1fbc 8f3d 7f35 7c3d
00000330: 1a8b fb3d 4c22 013d 06fc 953d eadc c03b
00000340: d579 813d ecc0 2d3d 95b1 eb3b 336b 873d
00000350: 106b a93c dceb 00bd 6447 a13c e2f1 33bc
00000360: 66ea e5bc e133 23bd 1149 8abd d266 a3bc
00000370: fba3 03be ad3b b5bc 65d6 9fbd 5ce8 90bd
00000380: 7cf2 92bd b39f b5bd 9896 f7bd 432d 3dbd
00000390: 9887 fcbd 0353 7bbd 0fc3 1cbe a081 75bd
000003a0: a544 97bd 596a adbd e793 b0bd 0970 60bd
000003b0: f695 c5bd d402 a5bd aa08 8dbd 1d7b 4cbd
000003c0: 6d59 e6bc 7628 6fbd f518 06bd 57b0 71bd
000003d0: aece a1bc c94f 013d e26d 2cbc 93c9 5bbd
000003e0: 0882 c93c f0af b2bc d8c8 f73c 5c88 15bc
000003f0: f4eb ba3c 80be fb3c 9e0b 99bc 11fc 823d
-0.053543393 -0.04916228 -0.056072157 -0.06152179 -0.018510694 -0.04977529 -0.036786936 -0.052215695
0.0032381318 -0.010100027 0.0053855632 -0.016832976 0.03206165 -0.0097252475 0.014410824 0.0711902
0.004545718 0.08788604 -0.0112151895 0.056896504 0.08025656 0.07335632 0.030750722 0.08576432
0.04123055 0.05818154 0.090809606 0.07159086 0.041081026 0.064389914 0.07864823 0.0032511416
0.07307742 0.021889774 0.041138366 0.031218367 0.03875563 -0.00031183747 0.056170594 -0.016781615
0.017148016 -0.007424445 -0.019498855 -0.017005993 -0.016402679 -0.03816479 0.003996966 -0.020486897
-0.035592377 -0.053767778 -0.014828586 -0.099706925 -0.012642334 -0.026242469 -0.075730085 -0.048235238
-0.021927286 -0.06885925 -0.017642997 -0.032217268 -0.03443542 -0.05700119 -0.009906787 -0.04628908
-0.018437596 -0.054071754 0.02551027 -0.027168732 -0.031433467 0.007955095 -0.03056104 0.00020545295
0.018490892 -0.01358742 0.022603905 -0.031727824 0.039003666 0.007659228 0.011033013 0.04329023
-0.04445694 0.036043808 0.04047902 0.029962296 0.020991232 0.02240157 0.0039527155 0.057948273
0.008590531 0.01437294 -0.06452977 -0.09679459 -0.058205865 -0.06193572 -0.08926268 -0.051861826
-0.012772561 -0.032173797 -0.0044537117 -0.04070122 0.004795056 -0.02337538 -0.0081332475 0.01284482
-0.012541596 0.04630483 0.061777182 0.0134865595 0.05276352 0.04760247 0.09070679 0.06055589
0.034364875 0.09494522 0.104694165 0.06877781 0.07931912 0.07351301 0.16388118 0.04608113
0.10637526 0.067542985 0.08872604 0.096353255 0.05732718 0.05627003 0.06857661 0.034068502
0.05612861 0.0531923 -0.013432253 0.034047205 0.030886993 0.010801214 -1.1405532e-05 -0.013688093
-0.04238878 -0.03842525 -0.03664397 -0.04696807 -0.08201912 -0.06878462 -0.053690616 -0.13041401
-0.05890385 -0.096998386 -0.10461519 -0.09474679 -0.10717884 -0.07500738 -0.11393817 -0.07737967
-0.15097375 -0.118462585 -0.06251415 -0.09959573 -0.052349955 -0.098308705 -0.060497306 -0.07143016
-0.0300828 -0.028632147 -0.077877246 -0.00037832608 0.024015848 0.019472415 -0.0113566015 0.04094483
0.051068995 0.032396264 0.102367274 0.051639024 0.05958106 0.09193509 0.14949538 0.07691359
0.15611923 0.118043855 0.10094752 0.13906467 -0.012448788 -0.03435455 0.03579481 -0.028426725
0.014907694 0.017594228 0.035826363 0.009859927 0.0031640343 0.020556964 0.07358996 0.04914761
0.009380294 0.095804945 0.03708334 0.0971377 0.04827461 0.030837027 0.13711968 0.05164574
0.09371873 0.09297793 0.07018303 0.061574455 0.12282391 0.03152685 0.0732346 0.00588571
0.06322066 0.042420313 0.0071928003 0.066122435 0.020680934 -0.031474933 0.019687362 -0.010982962
-0.028065871 -0.039844397 -0.067522176 -0.01994649 -0.12855522 -0.022123182 -0.078045644 -0.07075569
-0.071751565 -0.08868351 -0.1208927 -0.046185743 -0.1233055 -0.061358463 -0.15308784 -0.059938073
-0.0738614 -0.0846755 -0.0862196 -0.054794345 -0.096477434 -0.0805718 -0.06886418 -0.049922097
-0.028118813 -0.058388196 -0.032738645 -0.05900606 -0.019751873 0.03157023 -0.010524245 -0.053659033
0.024598137 -0.02181241 0.030247137 -0.009126749 0.02281759 0.030730486 -0.018682297 0.06395734

bias f4 [27]
00000000: d5a9 ff3e 8f88 7a3e 66d8 39be d52e 45bd
00000010: 5fdb 1abe 31de 633d 6b71 53be c57c 1c3d
00000020: 615a 8ebe 3291 a83e 8a57 e93e b11f 023f
00000030: f3bb 853d 86c5 7ebe dd2b 9abc 567e 2f3e
00000040: eacd b73e 17d2 2bbe 95db 193e b7ea 0fbe
00000050: d051 063f 4076 00be 15e1 793e c027 1fbe
00000060: 7369 1bbe ae27 f0bd d8f0 c9bc
0.4993426 0.24466155 -0.18148956 -0.048140366 -0.15122746 0.05563182 -0.20648734 0.038204927
-0.2780333 0.32923275 0.455746 0.5082961 0.06529989 -0.24880037 -0.018819744 0.17138037
0.35899287 -0.16779362 0.1502517 -0.1405438 0.52468586 -0.12545109 0.24402268 -0.15542507
-0.15176944 -0.11726318 -0.024650976

weight f4 [9, 27]
00000000: e8a1 b23d ab56 723c 9245 143e 288f 2fbe
00000010: 9d6e 3abd 394a 2d3e 8bbf 9a3e 505e 133d
00000020: d37d 143d 3e53 54bd 5b57 c13e 4693 80bd
00000030: e5ae 223e 0149 833e f614 34be 8e1c d33d
00000040: e198 b8bd 6685 0fbe fd0a f23d 72ba ccbd
00000050: 9359 acbd af93 fe3d e0d0 3fbe 3151 233e
00000060: a6ce 0cbd de72 5fbd 3021 b4bc 1791 cc3d
00000070: 4aad 01be 3f68 59be d7c9 02bc 5ab5 b2be
00000080: 24a4 d73b d405 a23d 0d70 f4bd 7856 553e
00000090: c0a8 6fbc 27e2 abbd daf8 503e 530f 8c3e
000000a0: a497 ffbd d070 bfbd 4b14 a1bd 80b3 693d
000000b0: 6397 e33d 582a be3e 7689 da3d 35b6 dc3d
000000c0: e9cd c83d 7973 05be 3243 043e e7b7 36be
000000d0: b117 fc3c 2b54 fcbd f3d5 ab3e 11bd 873d
000000e0: b91b 7c3c 5cb0 3dbe 1fbb cebd c20d a3bd
000000f0: 6cca 643d 10f1 89bc 5a09 a93c 2977 383e
00000100: ea67 22bc ed1d c53d 2258 11be a881 2fbd
00000110: 064c c5bb 797e c83d 23ee 6fbe 86aa 19be
00000120: c694 503e 65d3 543c 69e2 86be 218b dd3c
00000130: 19b3 a2bd 17d1 4f3d 71f5 67bf 767a 0f3e
00000140: 9cdd dcbc e535 ad3d 5f41 1fbc 222a f93c
00000150: 9c8d 4e3e 1d85 09be 0375 1cbe ac71 d93b
00000160: d6a6 27bd 83b9 10be e6f9 23be e26f a43d
00000170: 8bba a43d c441 90be 09ce 11be c5f3 0f3d
00000180: 35f6 0f3d 9043 d43d a06b 4dbe 4947 ccbd
00000190: c113 7e3d 848a 8d3d 4395 8bbd df94 19be
000001a0: da06 9dbd 29b1 863d f021 8b3c a52c 0cbe
000001b0: 47b5 323e 90cd 0abd a5c8 b8bd fdbe 0dbe
000001c0: 9802 90be 7164 b7be 4570 d13e cfce a03d
000001d0: c8ae 25be f88c 583e c0a8 83be 44df 8a3e
000001e0: 22a6 85bd b74d c7be f5bf d2be 4d63 d03d
000001f0: 8d61 1fbe fefc 55bd 13e2 c9bd d2ce c43d
00000200: 3eda 533d ebec 253e 35df 1f3e d818 193e
00000210: 0bdc e83c 9888 3a3e 212f 16bc 9660 00be
00000220: b698 7c3d de0d c4bd 4fc2 dcbd 619b c8bd
00000230: 1c63 f6bd 9610 983d ff27 91bd 7bd4 3b3e
00000240: 7cf0 93bd fe0f 27be 0872 64bd 6c5f 20be
00000250: f1bd 03be 2407 483e b78b bd3c 3b01 e13d
00000260: 2c9a e1bd 4450 563e 0cc5 d83d 07bd bfbd
00000270: 8122 28be ad42 4ebe 91b5 263c b460 75be
00000280: 222d 87bd eb3e 6a3e 0ae2 933d fa11 fdbe
00000290: 8343 ffbd b89b adbd a9b6 03be 2e31 853d
000002a0: 7f8c 2c3e 48f6 20be a5a2 1fbe 1e8d 553e
000002b0: 9874 103e 6b73 8d3e acfc fd3d a935 833e
000002c0: f3d2 2bbe b2de 2a3e 54eb 31be 73fc 3cbe
000002d0: 425b 50bd ea6c 81be e6fe a53d ce77 143e
000002e0: 4142 29be ad41 253e 78f3 2e3d 47de 183e
000002f0: 7f8f 3abf a227 1f3e cb0f 2abe 7d96 b33e
00000300: abda babd 76af f43d b41a b8bd 7e74 953d
00000310: 58c4 6d3e 715d f0be c099 843d f724 ee3d
00000320: 1fc1 c9bd 3125 273d 8993 e6bd 1bcd f8bd
00000330: d6eb e53d 8ce1 3ebe 6675 01bb 45d9 19be
00000340: d45e 5bbe ba86 aa3e 7b82 d33d 5b03 93be
00000350: dfca da3d 334b 18be b935 adbd 46d5 e4bc
00000360: 48a1 f3bd 73d7 38bc c20f 10be d927 ddbd
00000370: 58c1 76bd d683 823d ca0c a43d 1d77 fcbd
00000380: 8a29 7a3c 5bec 023e 29f0 dfbd b0fd 9dbc
00000390: 1f54 23be 3bcc 0abe 3c6b 3bbe 58c8 9e3d
000003a0: 679f 273e 8c40 553d 150c dbbd 46a7 073e
000003b0: 8274 8dbd b1e8 c9bd e27e 0bbe b0fe f939
000003c0: 2fbf 893d 0813 9d3d 7e0e acbd
0.087222874 0.014791171 0.14479664 -0.17144454 -0.045515645 0.16922845 0.3022426 0.035978615
0.036252808 -0.0518372 0.3776196 -0.0627809 0.1588703 0.25641635 -0.17586121 0.10308181
-0.09013534 -0.14015731 0.11818502 -0.09996499 -0.084155224 0.12430512 -0.18732023 0.15948941
-0.034376763 -0.054552905 -0.021988481 0.09988611 -0.12663761 -0.21231173 -0.007982693 -0.34903985
0.0065808464 0.07911268 -0.119354345 0.20833766 -0.0146276355 -0.083927445 0.2040743 0.2735544
-0.12480095 -0.09347689 -0.07865199 0.05705595 0.11112859 0.3714168 0.1067075 0.10776941
0.09804899 -0.1303233 0.12916258 -0.1784359 0.030773016 -0.12320741 0.33561668 0.066278584
0.015387469 -0.18524307 -0.10094284 -0.079616085 0.055857107 -0.01683858 0.020634342 0.18014206
-0.00991247 0.096248485 -0.14193776 -0.04284826 -0.0060210256 0.09789748 -0.23430686 -0.15006456
0.20369253 0.0129898535 -0.26344612 0.02704388 -0.079443164 0.050736513 -0.9060889 0.14011559
-0.02696114 0.08457545 -0.0097201755 0.030415598 0.20171207 -0.13429685 -0.15279011 0.006635865
-0.04093059 -0.14133267 -0.16013297 0.080291525 0.08043393 -0.28175175 -0.14238752 0.035144586
0.03514691 0.10364449 -0.20060587 -0.09974534 0.062030558 0.069111854 -0.06815579 -0.14998196
-0.076673225 0.06576759 0.016983956 -0.13688906 0.17451964 -0.033887446 -0.09022645 -0.13842387
-0.2812698 -0.35818818 0.40905967 0.078519456 -0.16179955 0.21147525 -0.25714684 0.27123463
-0.06525828 -0.3892648 -0.41162077 0.1017519 -0.15564556 -0.052243225 -0.09857573 0.0960976
0.051721804 0.16203658 0.1561249 0.14950883 0.028425237 0.18216169 -0.00916651 -0.12536845
0.061669074 -0.095729575 -0.10779249 -0.09795261 -0.12030622 0.074250385 -0.07087707 0.18342774
-0.07223603 -0.16314694 -0.05577281 -0.156614 -0.12865426 0.19533974 0.02313791 0.10986563
-0.11015734 0.20929056 0.10584459 -0.09362226 -0.16419412 -0.20142622 0.010175125 -0.2396267
-0.06600405 0.22875564 0.07220848 -0.49427778 -0.12464049 -0.084769666 -0.12862648 0.06503521
0.1685047 -0.15718949 -0.15589388 0.20854613 0.14106977 0.2762712 0.12401709 0.25626877
-0.1677969 0.16686514 -0.17374927 -0.18455677 -0.05086828 -0.25278407 0.08105259 0.14498827
-0.1652918 0.16138335 0.04271266 0.14928542 -0.7287521 0.15542462 -0.16607587 0.3507575
-0.09123739 0.11947529 -0.08989468 0.0729761 0.2321943 -0.4694629 0.06474638 0.11628144
-0.09851288 0.040806953 -0.11258609 -0.12148496 0.11226623 -0.18640727 -0.0019753813 -0.15024288
-0.21422893 0.33305913 0.103276215 -0.28713498 0.10683226 -0.14872436 -0.084575124 -0.027933728
-0.11895996 -0.011281836 -0.14068511 -0.10798616 -0.06024298 0.06372802 0.08010252 -0.123274066
0.015268693 0.12785475 -0.10934479 -0.019286007 -0.15950058 -0.1355447 -0.18302625 0.07753056
0.16369401 0.05206351 -0.10695664 0.13247404 -0.06906988 -0.098588355 -0.1362262 0.00047682738
0.067259185 0.076696455 -0.08401202

bias f4 [9]
00000000: b161 023f 11ab 383f f76d 573f e23f 903d
00000010: 225a 413f deb3 2bbe dea9 323f b94e 4d3f
00000020: 57d9 78be
0.50930315 0.72136027 0.8415217 0.07043435 0.75528157 -0.16767833 0.69790447 0.80198246
-0.24301659

weight f4 [3, 9]
00000000: 36cc 9abc ac4c 04bf 3bf1 8c3f b785 86be
00000010: 4df1 423e c70b 00be 2989 8cbf c71b b73e
00000020: bfa5 84be e154 70bf 7723 023f 96dd 07be
00000030: aaed 243d 4c8c 953f d7ac bdbd 4c34 2a3d
00000040: 11c5 92bd ab99 1bbe 6e91 6a3e 0b9e 393f
00000050: f547 123f 99c9 b73e bdca 54be 5462 b7be
00000060: 14c4 95be 4a74 83bf 614f 35be
-0.018896203 -0.5167949 1.1011118 -0.2627389 0.19037361 -0.12504493 -1.0979358 0.3576338
-0.25907704 -0.93879515 0.50835365 -0.13268122 0.040265717 1.168344 -0.09261482 0.04155378
-0.07166494 -0.15195338 0.2290704 0.7250678 0.5714105 0.35895994 -0.20780464 -0.35817206
-0.29251158 -1.0269864 -0.17706062

bias f4 [3]
00000000: 2c71 ed3d 01b8 b6bd 2a94 303f
0.115938514 -0.08921815 0.6897608

weight f4 [9, 3]
00000000: 307a dcbe 93ce 843e 9b60 853f a27f 5d3e
00000010: 7248 d1bd f5de 21bf fa35 913e 5fcd e6bd
00000020: 3fb4 de3e fd01 3a3f eacc 4ebf 6038 1c3f
00000030: 228e c53e 62a9 623d 2154 41be 5be2 3bbf
00000040: 1bbd 08bf 52aa 06be 6f95 14bf f993 303f
00000050: 4524 19bf 9d53 963d 3324 89bd 9786 c73e
00000060: a6bb 693f cd31 2f3f 9a4f 793e
-0.43061972 0.25938854 1.0420107 0.2163072 -0.10218896 -0.6323083 0.28361493 -0.1126964
0.43496892 0.72659284 -0.80781424 0.6102352 0.38585 0.055337317 -0.18879749 -0.73392266
-0.5341355 -0.1315091 -0.5804052 0.6897579 -0.5982097 0.07340167 -0.066963576 0.3896987
0.91301954 0.68435365 0.24346772

bias f4 [9]
00000000: bd03 fcbe 727e 7d3f b3b0 bb3e b06a 8e3e
00000010: adc4 6a3f 960b 4f3f 87f3 263f 8067 0640
00000020: 5a74 5b3e
-0.49221602 0.99021065 0.36658248 0.2781577 0.91706353 0.80877054 0.65215343 2.1000671
0.21431103

weight f4 [27, 9]
00000000: b549 a9be 21ff cfbe e2c8 a2be d945 38bf
00000010: 3ca0 1dbe b808 b6be a4a6 bd3d 1ea4 763f
00000020: fa98 bfbe 6069 bbbd 5073 bfbe 6d69 653c
00000030: 5b18 4bbe 2435 d8be 3685 59be 7399 04bd
00000040: 4758 1a3f 1fd6 86be f394 c03d 2600 9fbe
00000050: 970d 803e c798 98be b063 9ebe f7b9 a33d
00000060: 5b12 03be d257 39be 260d 51be 007f d8bc
00000070: cb39 4a3c 7065 a53d ec21 6fbe c020 c23d
00000080: 3f25 34be 5de4 e7bd d378 88be 69c1 a0be
00000090: 617d e23c 5d54 273e 724d 803d 45d0 183e
000000a0: 617a 0c3f 4d2f 263e 056b 68be 34e5 a13e
000000b0: ffb3 18be 2606 0cbd 2dd9 aabe f609 5b3e
000000c0: c5b5 38be de80 0cbf e50b 3c3c 1b33 213e
000000d0: 1cd6 2a3f 6f82 59be 59ef 3c3c 5dfe c83e
000000e0: 5215 1abe 094c 3d3e 6117 493e f060 a83e
000000f0: c6cf 4f3e aa02 35bd 4804 093e 38e8 a4be
00000100: 3c30 a3be 0295 9fbe 8017 24bc f841 67bd
00000110: b069 2fbe e6a5 8dbe 3a59 8abe 5e04 5dbe
00000120: 4820 26be 6861 52be 36e6 ecbd 1a68 81be
00000130: 3085 b3bd e513 b83d aa38 883d d874 81be
00000140: 3446 473d 4d9b c93d 5ff8 ce3d a217 d43c
00000150: 6848 253e d9ab 013e 4788 b5bd d6da 8e3d
00000160: 2f32 013e 1af1 203e 1611 0b3c da34 8a3c
00000170: 2a4b 5e3e 7426 a0bd b801 21be a98a ebbd
00000180: e78d a3be 09ea 90bc 7887 b13b 670d 1f3e
00000190: 10e8 16be 18ba b7be af47 9ebe b1aa 983e
000001a0: 3c10 3bbe 99e0 6fbe e289 e03b 7dac 4ebe
000001b0: 7da5 96be a350 abbd 09c5 f83b 13b1 71be
000001c0: 3819 2a3e e110 18bf 0b4f 84be 30a1 ca3e
000001d0: 6cb3 8fbe ad4e 89bd 50dc 89bc f6cd 373e
000001e0: 11a5 89bc b648 9c3c c344 87be 73d7 9ebe
000001f0: 1628 20be a9fa 37bc 6b76 f13d 242c bfbd
00000200: 9f11 2f3e 807c eb3c 66f3 bcbe fe09 31be
00000210: aef8 23be 2ddd b6be 5f68 85be 48a9 02bd
00000220: 9305 00be b483 a33d 30de 0bbe 4ee7 253e
00000230: 9063 88bd eb82 87be fec1 76be 4c99 dfbd
00000240: 7cd2 3a3d b5b3 3bbe 7cb4 bdbd 69b4 3e3e
00000250: c9f2 d4be 18be 953e 4945 8cbd 5609 82be
00000260: 3d49 a73d ae94 4bbe e020 0abf 37ab fe3d
00000270: fccb aabe 1340 6b3d 310c 2dbe 19d8 18bf
00000280: 081d 2c3f b2cd 13bf 3cbb febe c9a3 643e
00000290: 6612 d7be 23a0 1bbf 0f12 9f3e c655 12bf
000002a0: 0a68 04be 0c50 1d3f 7c00 89be e5e7 803c
000002b0: 2bae a8bd 8aa4 0a3e c817 58be aa3a 44be
000002c0: 6e9e 103e 54e1 b13e f56b e03d 2dd4 6a3e
000002d0: b2a9 96be f343 2fbe 2fe3 c03c 91e7 8fbe
000002e0: 4a9a 323e 56ff 28bc 0981 25be 5fb5 bf3d
000002f0: 439a 0c3d a91d 963e 3c02 b33e 866c 813d
00000300: 8686 ad3e cf10 1dbb d48f b23e 745c 973e
00000310: a29b 29be bc63 9c3e d56b afbd fb5e 0b3f
00000320: 38e4 c8be 3980 2abd 02d2 4e3e 6a71 0d3f
00000330: ed1f 543e afb3 cd3d 73b3 c13d 7dc3 63bf
00000340: c6a6 b8bd 55b6 ecbd fc10 d2be ef24 b0be
00000350: 1053 bcbd 0750 84be 1ed8 853f ee3f 5dbf
00000360: 4f27 91be 72e1 25bf 863a 8c3e 8cdc e2be
00000370: 6f11 e93e f72d 31bf b55e 3dbd a510 2d3f
00000380: 2297 ff3b 6ca8 813e ac88 2b3e cc4d 203e
00000390: c128 723e a22f ee3c 1ce9 9eba f7ce bc3e
000003a0: aebb c4bd a4c5 b73e c9d3 22bf 3a75 a7bd
000003b0: 1c9f 753e 068b bcbe a136 8a3e 0caf acbe
000003c0: 7901 48bf 2b91 3d3f 6dd6 d2be
-0.33064047 -0.40624335 -0.31793886 -0.7198158 -0.15393156 -0.35553527 0.092603 0.9634417
-0.374214 -0.09150958 -0.37392664 0.014002186 -0.1983351 -0.42228043 -0.21242222 -0.032372903
0.6029095 -0.26335236 0.0940341 -0.310548 0.25010368 -0.2980406 -0.3093543 0.07994454
-0.12799971 -0.18099907 -0.20415172 -0.026427746 0.0123428805 0.08075988 -0.23352784 0.09478903
-0.17592333 -0.11322854 -0.26654682 -0.3139756 0.027647676 0.16340776 0.062647715 0.14923199
0.54874235 0.16228981 -0.22697075 0.3162018 -0.14912413 -0.03418555 -0.33368817 0.21390519
-0.1803809 -0.54884136 0.011477445 0.15742151 0.66732955 -0.21241163 0.011531674 0.39256564
-0.15047196 0.18486036 0.19637825 0.32886457 0.20294103 -0.044191994 0.1338054 -0.3220842
-0.31872737 -0.3116837 -0.010015368 -0.056459397 -0.1713016 -0.27665633 -0.270212 -0.21583697
-0.16223252 -0.2054497 -0.11567347 -0.25274736 -0.08765638 0.089881696 0.06651433 -0.25284457
0.048650935 0.098440744 0.10105967 0.025890175 0.16140902 0.12663211 -0.088638835 0.069753334
0.126168 0.15716973 0.00848796 0.016870905 0.2170836 -0.07819834 -0.15723312 -0.11501057
-0.319442 -0.017689722 0.0054177605 0.15532456 -0.14736962 -0.35884166 -0.30914065 0.29817727
-0.18267912 -0.23425521 0.0068523744 -0.20182987 -0.29423133 -0.083649896 0.007591848 -0.23602705
0.16611183 -0.59400755 -0.25841555 0.395761 -0.28066576 -0.06704459 -0.016828686 0.17949662
-0.016802343 0.01907764 -0.2641965 -0.3102375 -0.15640292 -0.011229196 0.117901646 -0.09334591
0.17096566 0.02874589 -0.36904448 -0.17288968 -0.16012833 -0.3571562 -0.2605619 -0.03189972
-0.12502126 0.07984105 -0.13658977 0.16201517 -0.06659615 -0.2646707 -0.2409744 -0.10917911
0.04561089 -0.18330272 -0.0926294 0.18623509 -0.4159148 0.29246593 -0.068491526 -0.25397748
0.08168266 -0.19880936 -0.53956413 0.124350004 -0.33358753 0.057434153 -0.16899182 -0.5970474
0.672318 -0.5773574 -0.49752223 0.22328104 -0.42006224 -0.60791224 0.31068465 -0.5716213
-0.12930313 0.61450267 -0.26758182 0.015735576 -0.08236345 0.13539329 -0.21102822 -0.19163004
0.14122936 0.34742224 0.10958091 0.22932501 -0.29426342 -0.17115764 0.02354583 -0.2810636
0.17441669 -0.010314783 -0.16162504 0.09360766 0.034326803 0.29319504 0.34962642 0.06319527
0.33891696 -0.0023966318 0.34875357 0.29562724 -0.16563275 0.3054484 -0.08565489 0.54441804
-0.39236617 -0.04162619 0.20197299 0.5525118 0.20715304 0.100440376 0.09458055 -0.88970166
-0.090161845 -0.115582146 -0.41028583 -0.34403178 -0.091955304 -0.25842306 1.0456579 -0.86425674
-0.28350303 -0.6479713 0.273884 -0.4430889 0.45521113 -0.6921076 -0.046232898 0.6760352
0.007799999 0.25323808 0.16751355 0.15654677 0.23648359 0.029075447 -0.0012123915 0.36876652
-0.096061096 0.35892975 -0.6360441 -0.08176656 0.23986477 -0.36824816 0.26994804 -0.337273
-0.7812725 0.74049634 -0.4117922

bias f4 [27]
00000000: 2897 3b3f 273e 043f 9499 67be 9db2 67bd
00000010: 8af1 23bf d7b6 2b3e 1ac8 b4be d8de 4c3d
00000020: 0739 7dbe 9667 bbbe bddb 9abe 565c dbbd
00000030: e655 813f e009 8cbe d6ce 2e3e b6d9 bcbd
00000040: 3b66 53be 7eb9 a73f 4cd2 c63f 90a8 d63d
00000050: fbc3 5fbe ae85 56bf 23df 68be e2ba 933f
00000060: 9b67 fe3e 02f8 37bf d57a 7c3f
0.7327752 0.51657337 -0.22617179 -0.056566823 -0.64040434 0.16768967 -0.35308915 0.050017208
-0.24728785 -0.36602467 -0.30245772 -0.10710971 1.0104339 -0.27351284 0.17071089 -0.092212126
-0.20644467 1.3103483 1.5532928 0.104813695 -0.21852104 -0.8379773 -0.2274137 1.1541407
0.4968842 -0.71862805 0.98624927

weight f4 [90, 27]
00000000: 50ac d33c 85e0 57be 8e1e 79bc fa8a bc3d
00000010: 4510 90bc 6f9e f4be fb7d 423e 0c73 62bd
00000020: 1584 05be 0b1a a5be c27d e3bd 6731 3cbe
00000030: cf45 943e 1382 ff3d 3d6e 3abd c57c 353e
00000040: 93e8 2fbe 857b 0dbe 8b94 f63e efae 8abb
00000050: 4982 4cbe 1777 25be 23fa 3abe 229d bc3e
00000060: e719 9bbe c78b a1bd 2854 943e 4f6c 003d
00000070: f911 8dbe 2a24 29be 264b d0bd 7027 41be
00000080: 5bc6 dcbe 36bc 263e 4df6 0d3e f9d2 7fbc
00000090: 007c 43be ab41 18be 507a 063e 8206 6e3e
000000a0: 2867 d5bd a107 0b3e e07c f23b 51b2 9dbd
000000b0: 8a0b 00be 1102 013f 901c a2bd 9134 67be
000000c0: cadc 683b 8189 47be bc7f b53e dd15 9ebe
000000d0: 6658 39be 0dc6 b33e 4144 cb3c 61ba 14be
000000e0: 77b1 21be 3562 a0bd 8461 10be e929 06bf
000000f0: d1da 4c3e 2fd3 2fbe 9479 82bd e6da 85be
00000100: ae3a a93d 89a0 023d 6c59 093e 2cf5 913d
00000110: ee09 85bd e02a 30be 8e69 193e b083 1ebe
00000120: 128b 023f 6ab2 b6bd a945 30be d7b9 833c
00000130: 300b 7abe 80bc a83e 8a39 90be e73c 4dbe
00000140: cf64 aa3e bbe2 e03c 737b 2cbe ba7b a83d
00000150: 8dd8 edbc a80d efbd 3a59 febe 4f75 6cbd
00000160: 6846 e63c ccef b53d a542 ccbd d641 b33c
00000170: d748 b9bc daba b13e 6dba 2a3e 1840 09be
00000180: 6c25 783d ed63 033d 16d0 2cbe d5f0 dc3e
00000190: 8067 babd bc00 8d3d 02dd 883c a83f 3abd
000001a0: 8aa1 b73e 2012 aabe ea1c d4bd 7315 8c3e
000001b0: 23bd c1bc 63f0 88be 3d54 62bd d083 3dbe
000001c0: b3d7 2f3d 3a78 bcbe c394 933d 9843 debc
000001d0: b0ae ce3d f5a0 98be 3fa6 383e bef1 e5bc
000001e0: c698 8f3e 4e6a 10be 6b88 14be 9e39 e43d
000001f0: f2ff 7c3d f21d 4dbe 3c25 de3e 3174 21bd
00000200: 6c19 07be 576b 15be bba7 cebd 42bb 9d3e
00000210: 1423 90be 877a 98bc 80c9 7a3e 48bd 67ba
00000220: cc72 a3be 8056 073d 9fb7 d03d 7bb3 a8bd
00000230: 3637 bbbe c01a d73c 162d 09be 7df8 0fbe
00000240: 4164 b6bd 30ef 46bd 56eb 603d 5d6f 8f3e
00000250: 0862 a73d 1588 b6bd f01d 5cbd ba2c 9abd
00000260: 55ed 2ebe 37cb d03e 7274 eabd ee86 133e
00000270: 365c 083d 9620 9cbd e7e0 9a3e 0e9d 8ebe
00000280: 411d 10be e3da 593e 307c 83bd b42a 97be
00000290: e4cb 353e 34d2 33bd 8ba5 a8bd f582 a0be
000002a0: d910 0e3e 89dc 003e 85f8 103e 7de7 84bd
000002b0: f136 343e 4343 6cbd 3a56 623e 049f 17bd
000002c0: 71d1 393d 3289 babd d61e 9c3d 95f1 3fbe
000002d0: 601f c93e 33ea bcbd 282b a0bd 892d 0fbe
000002e0: fe43 d4bd 3197 903e e779 9cbe 1fdd c9bb
000002f0: 0665 5d3e 2637 6abd 14c8 8abe 5821 893d
00000300: c580 df3b 90c5 2dbd 2074 a0be 302c b43c
00000310: 20c0 8abc 6fab 383e d57d c9bd 5c3f 173d
00000320: ee44 823b 8922 783e aa93 553d edc1 8c3d
00000330: a4f7 043d 81c4 ebbd 0fb6 45be 991c c33e
00000340: d0b8 cfbd 555f 60bd 0eaa 893d e53b b4bc
00000350: da57 873e 1aab 81be d613 b9bc 2115 5a3e
00000360: aaa6 adbd 987e 6bbe 9a57 07be f166 333e
00000370: 8612 ecbc 21ea 93be c27f 303c c077 0e3d
00000380: 033a 233d 9b51 33be b862 23be b54c 8a3b
00000390: 45dd a13d eac9 9cbd d35c 89bc 8bf7 313e
000003a0: 524c 413d 8d21 6cbe c24d d03e cb8a e0bd
000003b0: 6c01 2bbe 05bd 153e f0b3 00bd 358e 553e
000003c0: 9c44 5abe e882 23bc 97c4 903e 60a3 13be
000003d0: 40b0 24be b556 49bd 66ba f5bd a6c4 b53d
000003e0: 39cc a8be e450 dc3d c6cd b4bd 94df e5bd
000003f0: 47bd 92be 5dd1 5e3d ff87 e1bd 31ee 913e
0.025839001 -0.21081741 -0.015205039 0.09206195 -0.017585883 -0.47777125 0.1899337 -0.0552855
-0.13038667 -0.32246432 -0.11107971 -0.1837822 0.2895951 0.124759816 -0.045515288 0.17723377
-0.17178564 -0.1381665 0.48160204 -0.0042322795 -0.19971575 -0.1615871 -0.18259482 0.36838633
-0.302932 -0.078879885 0.28970456 0.03135329 -0.27552775 -0.16517702 -0.101705834 -0.188627
-0.43120083 0.16282734 0.13863488 -0.015614265 -0.19090271 -0.148688 0.13132596 0.2324467
-0.10420066 0.13577129 0.00740014 -0.07700027 -0.12504402 0.5039378 -0.07915604 -0.22578646
0.003553199 -0.19486047 0.35449016 -0.30876055 -0.18100128 0.35112038 0.02481282 -0.14524223
-0.15790354 -0.078312315 -0.140997 -0.524077 0.20005347 -0.17170404 -0.063708454 -0.2614357
0.082631454 0.03189138 0.13413018 0.07126841 -0.064960346 -0.17203856 0.14981672 -0.15479922
0.50993454 -0.089207485 -0.17214073 0.016079826 -0.2441833 0.32956314 -0.281689 -0.20042764
0.33280036 0.027451864 -0.16843967 0.08226724 -0.029033924 -0.116725266 -0.4967745 -0.05772906
0.028109744 0.08883628 -0.09973649 0.021881979 -0.02261774 0.3471287 0.16672678 -0.13403356
0.060582563 0.03207772 -0.16876253 0.4315249 -0.09101772 0.06884906 0.016706947 -0.045470864
0.35865432 -0.33216953 -0.103570774 0.27360114 -0.023649758 -0.267459 -0.055256117 -0.18507314
0.042930316 -0.36810476 0.072061084 -0.02713184 0.10091913 -0.298103 0.18032168 -0.028069373
0.28046244 -0.14103052 -0.14505164 0.11143802 0.061767526 -0.20030954 0.43387783 -0.03941745
-0.13193291 -0.14591728 -0.10090586 0.3080693 -0.28151762 -0.018613113 0.24490929 -0.0008840156
-0.3192352 0.033041477 0.10191273 -0.08237358 -0.3656556 0.026257873 -0.13396105 -0.14059635
-0.08905841 -0.04856795 0.054911934 0.2801465 0.08172995 -0.08912674 -0.053739488 -0.07528062
-0.17082722 0.4078004 -0.114479914 0.1440694 0.033291064 -0.07623403 0.30249712 -0.27854198
-0.1407366 0.21274905 -0.06420171 -0.29524767 0.1775356 -0.043901637 -0.082347 -0.31349912
0.13873614 0.12584127 0.14157303 -0.064894654 0.17599083 -0.057681333 0.22103205 -0.037016883
0.045365755 -0.09108199 0.07623069 -0.187445 0.3928175 -0.092243575 -0.078207314 -0.13982214
-0.10364531 0.2824035 -0.30561754 -0.006160393 0.21620569 -0.0571815 -0.27105772 0.06695813
0.0068207704 -0.04242474 -0.31338596 0.021993726 -0.016937315 0.18034147 -0.09838454 0.03692566
0.003975502 0.24231924 0.052142777 0.06872926 0.03246273 -0.115120895 -0.19307731 0.38107756
-0.10142672 -0.054778416 0.067218885 -0.022001216 0.26434213 -0.25325853 -0.022592466 0.21297123
-0.08479054 -0.2299751 -0.13217011 0.17519738 -0.028817426 -0.28889564 0.010772647 0.03478217
0.039850246 -0.17511599 -0.15955627 0.00422057 0.07903532 -0.076556996 -0.016767895 0.17379586
0.047191925 -0.23059674 0.40684325 -0.10963973 -0.16699761 0.14622886 -0.0314216 0.20855029
-0.21315235 -0.009979941 0.28274986 -0.14417791 -0.16082859 -0.049154956 -0.11998443 0.08875398
-0.3296831 0.10757616 -0.08828311 -0.11224285 -0.28660032 0.054398883 -0.11012267 0.28502038

bias f4 [90]
00000000: a480 143e f872 3f3e 8ad0 9f3e 1019 413e
00000010: a947 523e 2eba 803e 6994 923e 7a1c f83d
00000020: 383f fd3d 6649 ce3d 9bad 3d3c 884e 0c3d
00000030: b8ae 14be 2491 aabd 7b09 b6bd 5751 1ebe
00000040: c7d8 7cbe 7adf 50be 94b4 aebe 494d 89be
00000050: faaf a6be b173 acbe 660a 78be 209d a9be
00000060: 32cb c7be 3459 d4be 5305 7abe d3c0 54be
00000070: 1521 1dbe 1b9d 84be a4f6 5bbe 6751 6cbe
00000080: 06bd 14be 8364 9ebd cbeb 91bc b4b5 073d
00000090: 4a4a 8a3d 7421 f23d 9837 493e e540 313e
000000a0: 7ebc a03e 94cd 493e fca2 793e b9b4 7e3e
000000b0: e416 6d3e 2160 7d3e 4447 a03e fc31 b53e
000000c0: 2615 c03e 0319 3f3e 4579 9b3e c4b2 9b3e
000000d0: 31d3 853e 4cc4 533e fb17 473e 8d04 e53d
000000e0: beed 803d 96de 4e3d 05f5 a93d 2482 df3c
000000f0: 00d2 433d ed7c a1bd a04d 0bbe a8c4 e5bd
00000100: d919 57be 6c76 06be daf4 06be 96c4 94be
00000110: 9752 74be 6dd8 53be 12e5 40be 371a 5bbe
00000120: f16e 88be e41c 12be 8e77 6fbe de12 bebd
00000130: 6b86 d2bd bc9a 66bd 9e74 97bd d998 363b
00000140: cab6 f63b 2bc2 303e f8e1 cb3d bcea ea3d
00000150: 0f63 4a3e 6919 8f3e 3ea1 9b3e 0cbc 983e
00000160: 7ad6 ab3e 0320 a33e
0.14502198 0.18696201 0.3121379 0.18857217 0.20535149 0.25142044 0.28628853 0.121148065
0.12365574 0.100725934 0.011577035 0.03425458 -0.14519775 -0.083284646 -0.08888527 -0.15460716
-0.24692069 -0.2039775 -0.34122145 -0.26816776 -0.32556134 -0.33682016 -0.24222717 -0.3312769
-0.39022213 -0.41474307 -0.24416094 -0.20776682 -0.15344651 -0.25901112 -0.21480805 -0.23077928
-0.14525232 -0.07734015 -0.01781263 0.03313227 0.06752451 0.11822787 0.19650114 0.17309912
0.31393808 0.19707328 0.2437858 0.24873628 0.23153263 0.24743702 0.3130437 0.35389698
0.37516135 0.18661885 0.3036596 0.30409825 0.2613769 0.2068035 0.19442742 0.111825086
0.06295346 0.050505243 0.08298687 0.027283736 0.047807693 -0.07885156 -0.1360383 -0.1121915
-0.21005954 -0.13131112 -0.13179341 -0.29056233 -0.2385963 -0.20688029 -0.18837383 -0.21396719
-0.26647142 -0.14268833 -0.2338545 -0.092809424 -0.102795444 -0.05629991 -0.0739529 0.00278621
0.0075291144 0.17261569 0.099552095 0.11470553 0.1976435 0.27949074 0.30396456 0.29830968
0.3356207 0.3186036
