knn/models/pretrained-autoencoder/autoencoder-in_features150-latent_size6.pt (torch, 95476 bytes, 12 tensors)

weight f4 [54, 150]
00000000: 19dc 84bd 01fe 86bd 1c97 9ebd b8ed 37bd
00000010: f382 94bd c44d 9dbc ddf6 babd 4673 87bd
00000020: 8912 42bd 12d7 6dbd 2170 85bd b0f9 9abc
00000030: d71d f9bc f61f ad3c ff9c f6bc c59b 4ebd
00000040: ef40 353c ca38 fcbc 8126 32bc acc9 c83b
00000050: e1d6 e0bc 1db9 eb3b 8bd0 4f3c a5ce 89bd
00000060: bd2b cf3b 7f06 21bc c0f0 33bc cc65 803d
00000070: 73bf da3c e585 a4bb 4335 afbc 093f b9bc
00000080: 360f bc3c d87b ebbb c8c8 853d d7b0 d9bc
00000090: 0db4 b63c fc79 863c 07c6 babc fe2b 833d
000000a0: 964a 94bc c5e2 943c 17b9 3aba 0004 efbb
000000b0: 1029 57bd e39c 903d bae7 31bd 60f6 083d
000000c0: e865 81ba 4bd0 573c 56b5 59bc 1fe6 efbb
000000d0: 0c40 b4bb d1d4 2cbd 87db 2f3d 5ed3 19bd
000000e0: 3405 bd3c 5dff 5bbd ca54 46ba 07d3 1abc
000000f0: cab6 56bd 792a fdbc 54b2 b33c f0b2 b73c
00000100: dc2e 6cbd 7520 c8ba e924 5ebc fdf5 7abd
00000110: 3810 033d a5a0 1bbd 32a3 d0bc c7fe aabc
00000120: 11af e03b 3003 e4bc f451 0abd e4fd 85bd
00000130: 5266 10bd 6ad4 713a a278 4dbd f2c0 443c
00000140: 481b 95bd 2351 91bd 21bf fd3b 5989 16bc
00000150: 8c28 9ebd 60cc 38bd a6cc 2ebd a259 11bd
00000160: 11d8 2bbb 2fc2 2cbd f320 73bd 505d 2fbd
00000170: f641 91bd 051e 28bd 74d4 0bbd 7e05 3fbc
00000180: 08fb ad3c b2fe 08bd 36aa 15bd 2aca b2bb
00000190: e57b c8bc 60de b03c baa2 08bd 4af2 e33c
000001a0: cbcf 9b3c 088d fdbc b340 383d 5ca1 503d
000001b0: 1713 2e3d d73b d43b dcae 7f3d 586a b23c
000001c0: 10e5 a63b e183 163d b5c0 c83d 4ede a63d
000001d0: b375 5b3d 8f9c 9f3d 910b 903d 4f07 0d3e
000001e0: d24b a23d 4faf 833d fbe1 813d 691c f33d
000001f0: a30d b43d 510f d23d 8d85 8b3d e6cc 923d
00000200: 66f7 803d 898d 9c3d 745a 893d 06cf b73c
00000210: 7cbc e83d 7c93 b63c fa27 623d a0eb 75bc
00000220: 604c 39bb 58c2 4d3d 7c57 263c 9e54 c03b
00000230: 32db 343d 230d eabc 32d6 f6bc 00e5 54bc
00000240: aece 9abd 17b8 633c 9eaa 87bd 30f2 8dbd
00000250: c3b4 e9bc 6077 a8bc bd6d dc3c 8288 9fb9
00000260: 543a b2bc 08ad 0ebc 15f3 acbc 37bb 023d
00000270: 9587 3abd 6775 f73c 86aa 2b3c 275e 9fbc
00000280: 5468 463d 57de 153c 6872 8ebc f122 c2bc
00000290: a826 403d bbf1 5b3d 148f a33c ca1c 60bd
000002a0: f603 743c 2ed0 91bc 15fc 373c 89c7 a43c
000002b0: b3ad f8bc 63db ba3c 88a8 b0bb bd69 12bc
000002c0: 0c97 953c 8ef1 bebc f3a3 05bd 91cd 6bbc
000002d0: cda9 dc3c abf5 a13c 34e5 5ebc 6dd7 2d3d
000002e0: 6f5f 69bd 73a9 053d d621 d8bc 99ee 163d
000002f0: d0af eabc df83 c53c 7e74 983b 582e ee3c
00000300: 498d 5dbc f09f 853d a2c1 94bb 85c5 2e3c
00000310: 502d 7d3d db41 2f3d 2e92 02bd 952b 5cbc
00000320: e707 3b3d fb7b 593d 19fc 28bd b726 863d
00000330: 055a 76bc f2a5 7a3c 47a0 12bc 7a43 233d
00000340: 83ab 093c d471 663d 8333 f4bc a241 043d
00000350: 9928 5abc a7dd edba bb18 b33c be79 b2bc
00000360: cf43 953c efe8 45bd a30a 62bd f84b 163a
00000370: f4c2 8c3a 5ce5 d4bb 6b65 47bd 7bb5 493d
00000380: 4804 91bd 5119 7abd e394 813c 14e5 c8bd
00000390: fd11 0bbb 4405 9b3b ea7a 4cbd 9e0d 5abd
000003a0: a6e9 5bbd 8e94 bcbd b589 1fbd 905a c5bc
000003b0: 0459 8abd 211e d2bc d662 8dbd d971 c2bc
000003c0: b1fe 5abd 2819 e23c 050a 39bd 69a6 7ebd
000003d0: af3b abbc a707 44bd 6c9a fcbc 8ae0 733c
000003e0: c5ed 003d 5edf 463b 1e9c 41bb 4ef9 85bb
000003f0: 878b 413d 95d0 7f3d 6aa9 cf3c 56a0 aebc
-0.06487293 -0.06591416 -0.077436656 -0.04490444 -0.07251539 -0.01920212 -0.09129117 -0.066137835
-0.047380958 -0.058066435 -0.065155275 -0.018917888 -0.030409737 0.021133404 -0.030104158 -0.050441522
0.011062845 -0.030788798 -0.010873438 0.006127557 -0.027446212 0.007193698 0.012683998 -0.067288674
0.0063223527 -0.009828209 -0.010982692 0.06269416 0.026702618 -0.0050208443 -0.021387702 -0.022613065
0.022956472 -0.007186394 0.065324366 -0.026573582 0.022302652 0.016415589 -0.022799505 0.06404875
-0.018101972 0.018174538 -0.00071229175 -0.007294178 -0.052529395 0.07061174 -0.043433882 0.033438087
-0.0009872289 0.0131722195 -0.013287863 -0.0073211337 -0.005500799 -0.042195145 0.042933967 -0.03755509
0.02307377 -0.05371033 -0.0007565735 -0.009449727 -0.052420415 -0.030904042 0.02193562 0.022424191
-0.057661876 -0.0015268462 -0.013558605 -0.06126975 0.03199789 -0.037995 -0.025468443 -0.02087344
0.006856807 -0.027833551 -0.033769563 -0.065425664 -0.03525383 0.00092250726 -0.050163873 0.012008892
-0.07280594 -0.07095554 0.0077437316 -0.00918802 -0.077225775 -0.045116782 -0.042675637 -0.03548587
-0.0026221315 -0.042177375 -0.059357595 -0.0428136 -0.07092659 -0.041044254 -0.034138158 -0.011659024
0.021237865 -0.03344602 -0.03653928 -0.0054562287 -0.02447314 0.021590412 -0.033358313 0.027825493
0.019019982 -0.030951038 0.044983577 0.050935134 0.042498674 0.00647686 0.06242262 0.021779224
0.0050932243 0.036746863 0.09802381 0.0814787 0.053579044 0.07793533 0.07033456 0.1377232
0.07924618 0.06429922 0.063419305 0.11870653 0.087916635 0.102568276 0.06812582 0.071679875
0.062971875 0.07644183 0.06706706 0.022437584 0.113640755 0.022287123 0.055213906 -0.015009791
-0.0028274283 0.05023417 0.010152694 0.005869462 0.044154353 -0.028570717 -0.030131433 -0.012994051
-0.07558952 0.013898871 -0.066243395 -0.06930959 -0.028528577 -0.020564735 0.026907796 -0.0003042855
-0.021756329 -0.008708246 -0.021112004 0.031916823 -0.045539457 0.030207349 0.010477668 -0.019454075
0.04843934 0.009147248 -0.017388538 -0.023698302 0.046911865 0.05369733 0.019965686 -0.054714955
0.0148935225 -0.017799463 0.011229535 0.020114677 -0.030356264 0.02280969 -0.0053911842 -0.008936343
0.018260501 -0.023308542 -0.032627057 -0.014392273 0.026936436 0.019770464 -0.013604451 0.042441774
-0.05697578 0.032632302 -0.026383322 0.03684864 -0.028648287 0.024110733 0.004652559 0.029074833
-0.013522455 0.06524646 -0.0045396844 0.0106672095 0.06181079 0.042787414 -0.03187769 -0.013438125
0.045661833 0.053096753 -0.041256044 0.06550353 -0.015036111 0.0152983535 -0.008949346 0.039859273
0.008402708 0.0562609 -0.029809719 0.032289155 -0.013315343 -0.0018147723 0.021862378 -0.021786567
0.01822081 -0.048317846 -0.055185925 0.0005733366 0.0010739253 -0.0064970683 -0.048680704 0.04924534
-0.07080895 -0.0610593 0.015818065 -0.09809318 -0.0021220439 0.0047308523 -0.049921907 -0.053235643
-0.05368962 -0.09208022 -0.038949687 -0.024091035 -0.0675526 -0.025649132 -0.06903617 -0.023735927
-0.05346555 0.027599886 -0.04517557 -0.06217042 -0.020902483 -0.04785886 -0.030835353 0.014885077
0.031476755 0.003034554 -0.0029542516 -0.0040885573 0.047252204 0.06245478 0.025349338 -0.021316689

bias f4 [54]
00000000: 6e30 373d 36cd a83d 9af9 cb3c be13 063d
00000010: e0c2 77bd 66d3 fb3c d510 b5bd c522 49bd
00000020: c414 81bd 41bb 1a3a eb7d 78bc cf59 ab3b
00000030: 7a8f afbd 1147 a6bb 3d33 d83c 0232 6c3d
00000040: d2e7 50bd 8675 32bd 850a b8bd fb4f cb3c
00000050: 7b51 69bd 7fc3 fb3c 09a9 26bd 58d9 7c3d
00000060: 3857 e4bd 43f7 c03d 5c1e a43a 3829 8b3c
00000070: a06b ab3d e8fd 283d 026c 263c 4fe7 7c3d
00000080: 56a4 d03d 6df9 03bd 519b c8bd cfc3 ddbd
00000090: 4bf3 5d3d 3a3b 04be fb00 87be 8f62 5dbc
000000a0: 7882 44bc ec6e 7fbd 72a0 a23d fee6 87bd
000000b0: f389 f83b 1a54 023c 2e34 b03c a3a5 11bc
000000c0: bea5 cd3d f675 3dbd 4d9a 3e3d 69af 1fbe
000000d0: 455c 5bbe a5d9 4bbc
0.04472392 0.08242266 0.024899293 0.03273367 -0.06048858 0.030740451 -0.08841101 -0.049105424
-0.06302789 0.0005902537 -0.01516674 0.005229212 -0.08572288 -0.0050743897 0.02639162 0.05766488
-0.05100233 -0.04356911 -0.089863814 0.024818411 -0.05696247 0.030732868 -0.04068855 0.061730713
-0.11149448 0.094221614 0.0012521255 0.016987428 0.08370137 0.04125777 0.010157587 0.06174403
0.101875946 -0.032220293 -0.09795249 -0.10828363 0.0541871 -0.12913218 -0.26367936 -0.013512268
-0.011993997 -0.062361643 0.07940759 -0.06635855 0.007584804 0.007954622 0.021509256 -0.0088895885
0.100413784 -0.046255074 0.04653387 -0.15594257 -0.21421917 -0.012442027

weight f4 [18, 54]
00000000: 2704 a83d 215a 4d3d fb10 c3bb 9832 453d
00000010: e553 773e 44d0 213d 7f7d a93d 6206 e7bd
00000020: 89db 0fbe 9d19 c63d 372f 5fbd b691 94bc
00000030: 761c 0e3c c085 8d3c 09fa 323d 8be2 8bbc
00000040: a690 493e b074 edbb d0e7 10bd f279 4a3d
00000050: ff6b 8ebd 25e5 3ebd c47a 7bbd 8569 ce3c
00000060: 138c 423d 58c6 18bc fe28 96bc 3c6e 4f3d
00000070: d0e0 febc cfe3 533d 15a3 bc3c 9de3 343d
00000080: 5e73 783e bd0b fe3d a4cd c7bd 0e51 b7bd
00000090: bbe2 51bc 4ff2 6b3d b061 1cbd a883 bb3c
000000a0: 0774 9fbd 5f9f 933d 65b8 a7b7 646d 943d
000000b0: d1ef 18be 627d 31bd a44b 803e 650f 4c3e
000000c0: 29cb 953d f98f 223d 6374 1b3d a220 c83d
000000d0: e984 433e db78 0b3c a792 353d 7095 203b
000000e0: bcda a23d b485 fdbd 3266 babd 6162 e43b
000000f0: c651 cc3d 8340 5a3d f1d3 323d 5b58 97bd
00000100: a7ff aa3d 8cec 0dbc f45c 97bd 8635 e03e
00000110: f0e2 8c3e 8947 6e3c d84f 8c3b 4604 16bc
00000120: bacb 6fbd 21c0 8d3c d92d adbb 8ebe e73e
00000130: 2a43 d23d 9acc 383c 152d 14be 7c59 03bd
00000140: 0b31 01bd a1de a73d 54d5 ccbc 5411 03bb
00000150: 349e 643d 75ba d13c 2185 77bd cd23 f8bc
00000160: 2232 3e3e 2b9d 92bd 0f32 163d 2414 913d
00000170: 3b2c 4e3d ca38 243e 7934 eabd b573 fbbd
00000180: 2352 8c3d 8a59 173d 7fa0 8a3b b6cd 81bd
00000190: 83f2 ffbd 2e3d a63c 4990 9d3c bdec ab3d
000001a0: 4862 673c 4a4a 8d3e 0868 a3bd a572 93bc
000001b0: defc 833d b23b 083e f58e 4b3d e187 19bd
000001c0: 662e fd3d 8f2e a5bc fe72 fa3d bdf9 abbc
000001d0: 2e23 c8bd 7380 493e 22c2 e13d 1fed 183e
000001e0: 3d85 83bd eda9 40bb 1463 5f3d a77a 6abd
000001f0: 7f01 abbd af9d 123d 041c 9e3d 78e2 453e
00000200: 5d82 b1bc 6495 4b3e fc15 ae3c efa3 863d
00000210: 22f9 f83b 0f57 263e a432 ed3d db8b a7bc
00000220: 153e 8d3d d2c8 423e 25a5 733d 31ee ae3d
00000230: f882 563e 148f d13d 9e97 6ebb 27d8 a53c
00000240: a9bf 333e 4e8a e03d 4899 ae3d 7d5c 8fbd
00000250: df86 863d 4fac b7bd 17b2 b8bd e772 263e
00000260: d511 903e 0055 2f3e 5764 e73c 9216 51be
00000270: cfe2 363e cbc3 0bbd 3d79 cc3d 6dd3 093e
00000280: e527 cb3d 4795 e13d 645c 093e 1c73 ef3c
00000290: 4610 d4bd 8199 803d 98ef 1abc 849e ebbd
000002a0: e399 25bd 4e89 90bd 0ced d03d 40ef 83bd
000002b0: 4ebe 3ebb 4484 6b3d 4671 d73d 306b 1e3c
000002c0: 2a74 30bd cee1 043e a038 afbd d343 053d
000002d0: fc58 143e aab0 e93d ca3d 8c3c fddc b73b
000002e0: c56d b8bc 6a40 17bc 3087 89bd 3a4c 0a3d
000002f0: 320f d4bd 561d b53c c2a7 253b bf81 31bd
00000300: 9701 1fbd 1ea5 93bd 9f28 e2bd ad73 babc
00000310: 1f45 443d 5f95 adbc 41b4 d7bd a2d7 183d
00000320: 988a c2bd e54c aa3c f843 c6bd 2c59 c0bd
00000330: 82c5 dc3d 3df5 adbd 2962 f23d 4f7f d4bd
00000340: af68 edbd eb83 8ebd 7062 ea3d c2d7 9a3d
00000350: 491d b5bc c9eb a4bd 45fc d2bc 15b8 a03c
00000360: 026c 953c 7bf4 37bd 7885 0ebd 5e62 493c
00000370: ef92 f7bc b7b4 61bd 98f5 d13d 1a00 b33d
00000380: d127 f03c a3eb 623d 8a7d 96bd 9ef3 ae3c
00000390: d5a6 5e39 014d 823d 38b8 f5bb 0173 c8bc
000003a0: 743d a8bd ef33 ea3e fe42 d83c 4213 8d3b
000003b0: 3429 f8bc 635d dabc 01e2 02bc dd1e 853e
000003c0: 47f4 563d 5242 843d 97f0 c83d eb9c 1fbd
000003d0: e9f1 bb3c 39ff 5e3d 7534 be3b 338f a4bd
000003e0: e7e1 e83d 8f57 05bd ba87 00bd a096 383b
000003f0: e268 59bc 44f4 96bd 991c 14bd b017 95bd
0.08203917 0.05013478 -0.005952952 0.048143953 0.24153097 0.03950526 0.082758896 -0.11280514
-0.1404859 0.09672854 -0.054488387 -0.018135887 0.008673778 0.017275691 0.043695483 -0.017075798
0.19684085 -0.0072465762 -0.035377324 0.049432702 -0.06954192 -0.046605248 -0.061396375 0.0251968
0.047496866 -0.009324633 -0.018330093 0.050642237 -0.031113058 0.051730927 0.023026982 0.04416238
0.24262759 0.12404583 -0.0975602 -0.08951007 -0.012810404 0.05760413 -0.0381791 0.022889927
-0.07785802 0.07208132 -1.9993817e-05 0.07247427 -0.14935233 -0.043332465 0.2505771 0.19927748
0.0731414 0.039688084 0.037952792 0.09771849 0.1909367 0.008512701 0.04432931 0.0024503134
0.079518765 -0.123790175 -0.091015235 0.0069697355 0.099765345 0.05328418 0.043659154 -0.07389899
0.08349543 -0.008662354 -0.07390776 0.43790835 0.2751689 0.0145434225 0.004281979 -0.009156292
-0.0585439 0.017303528 -0.0052850065 0.4526257 0.10266717 0.01127925 -0.14470322 -0.03206776
-0.03154091 0.0819676 -0.025004067 -0.0019999342 0.055814937 0.025601605 -0.060429696 -0.030290509
0.18573812 -0.07158884 0.036668833 0.0708392 0.05033515 0.16037288 -0.114357896 -0.12277929
0.06851604 0.036950625 0.0042305584 -0.063380644 -0.12497427 0.020292845 0.01923384 0.083947636
0.014122553 0.2759574 -0.07978827 -0.017999003 0.06444715 0.13304022 0.04969688 -0.0374831
0.123623654 -0.020163802 0.12228964 -0.020993108 -0.09772335 0.19677906 0.11023356 0.14934205
-0.064218976 -0.0029398159 0.054537848 -0.057245877 -0.08349895 0.03579491 0.07720187 0.19324672
-0.021668607 0.19881207 0.021250717 0.065742366 0.0075980583 0.16244148 0.115819246 -0.02045243
0.06896607 0.1902192 0.059483666 0.08541525 0.20948398 0.10232368 -0.003640629 0.020244671
0.17553581 0.109638795 0.0852533 -0.070000626 0.06568693 -0.08968412 -0.09018343 0.1625477
0.28138605 0.17122269 0.028246088 -0.20418766 0.17859958 -0.03412227 0.09984062 0.13459559
0.09919719 0.110148005 0.1341415 0.029229693 -0.103546664 0.062792785 -0.009456538 -0.11504844
-0.04042996 -0.07057439 0.10201463 -0.06442118 -0.002910513 0.057499185 0.10519652 0.00966911
-0.043079533 0.12976763 -0.08555722 0.032535385 0.1448707 0.11410649 0.017119307 0.0056110607
-0.02251328 -0.009231666 -0.06715238 0.0337641 -0.10354461 0.022108715 0.0025276993 -0.043336626
-0.038819876 -0.07209228 -0.11042904 -0.022760237 0.04791748 -0.02118939 -0.105324276 0.03731502
-0.09499091 0.02078862 -0.09680933 -0.09392008 0.10779859 -0.08494041 0.11835129 -0.10375845
-0.115922324 -0.06958755 0.11444557 0.07560684 -0.02210869 -0.08052785 -0.025755057 0.019619027
0.018239979 -0.04491089 -0.034795254 0.012291519 -0.03022143 -0.055103984 0.102519214 0.08740254
0.029315861 0.055400502 -0.073481634 0.0213564 0.0002123372 0.063623436 -0.007498767 -0.0244689
-0.08214846 0.45742747 0.026399132 0.004305274 -0.030293085 -0.026655858 -0.007988454 0.2600011
0.052479055 0.06457962 0.09811514 -0.038968008 0.0229425 0.054442618 0.005804593 -0.080351256
0.113712125 -0.032554206 -0.03137944 0.0028165951 -0.013269635 -0.07370809 -0.036160085 -0.07279909

bias f4 [18]
00000000: 9d68 0fbe 4064 36bc 68a5 813e 9dae debd
00000010: a81e cf3d 10c2 013d 9dcc 903c 7eb8 403e
00000020: 165c 073e fd69 9ebd fb0d 46be a01f d9bd
00000030: 7fd9 fc3c 2f00 bebc 5433 f83d c76e 4c3c
00000040: b774 223d eeb8 13bd
-0.1400475 -0.0111323 0.25321507 -0.108731486 0.10113269 0.031679213 0.017675692 0.18820378
0.13218722 -0.077350594 -0.1934127 -0.10601735 0.030865429 -0.023193447 0.12119165 0.012477583
0.03966209 -0.036065035

weight f4 [6, 18]
00000000: af21 bf3d 4294 a9be f5ea a9be 2a00 59be
00000010: 9102 cabe 3ec2 d0be bb96 c83d 73e2 d83e
00000020: 199d fabd 32f7 0fbe 1721 db3e 16b3 94bc
00000030: bffe ae3e c780 103f cbf5 c4be 8385 52be
00000040: 13a5 6dbe 73de b83e b08a 6ebe ed97 c23d
00000050: a966 a23e 7d11 5bbd 65d9 0fbe fe0d 2a3e
00000060: f74b 07be 793b d23e 7760 37be de97 913d
00000070: 14a8 313e 89f7 293d 14e8 e03e 41a1 acbe
00000080: 6756 933e 8692 b2be a73a 8fbe ba98 61be
00000090: a7c1 4e3e d4a0 05bf 0712 c53e 7fa5 853d
000000a0: 57ca b33e 4d9d cebd 2465 b33e 7425 8e3d
000000b0: ae2b 663e 5ace fcbc 0df9 ccbe fe28 f2be
000000c0: 5cfd 3bbd 169f 1fbe d3e2 ab3d fc2f 8b3c
000000d0: df7d 54bd c6ed 093f 22ee 4bbe 5599 a03e
000000e0: 2429 e3be ebf2 70bc 44aa fe3e a7d5 47be
000000f0: fd89 8b3e 7220 bb3e d4d0 a73c 6476 043e
00000100: 2219 0ebf 04f4 38be 828f ba3e 415b 013e
00000110: c489 ba3d c9c1 98be 8df0 4cbe f016 c9be
00000120: ccad d53e 428e b3be de83 a0be f169 1abe
00000130: ba82 7c3e 9b09 b03e 6e00 9ebe 41a6 f43e
00000140: 5227 acbe da35 febe 1258 9cbd 2195 c13e
00000150: ea40 40be fcf3 f1be 5a6c 773d 96fc 903e
00000160: b3f7 29be fe03 e43d c3df 8d3c 760a 71be
00000170: 091e 533e 77de 243e e72d 3c3e c851 6cbc
00000180: 2e07 23bf 34a9 5ebe e7ec 423e 229a 8e3e
00000190: c83d bdbe 9adf fc3e 7090 bc3e 2f68 253d
000001a0: b1ae 27be 97e2 ebbe 5516 093d c57a b83e
0.093325965 -0.33120924 -0.3318707 -0.21191469 -0.39455083 -0.40773195 0.097943746 0.42360267
-0.12236995 -0.14059141 0.42798683 -0.018151801 0.3417873 0.564465 -0.38468775 -0.20558743
-0.23207502 0.36107215 -0.23295093 0.09501634 0.31718948 -0.053483475 -0.14047773 0.166069
-0.13212572 0.41061 -0.17907892 0.071090445 0.17349273 0.041495834 0.43927062 -0.33716777
0.28776857 -0.34877414 -0.27974436 -0.22030917 0.2019106 -0.5219853 0.38490316 0.065257065
0.3511531 -0.100885965 0.35038102 0.06940737 0.224776 -0.030860115 -0.4003376 -0.472969
-0.04589592 -0.1558803 0.08392873 0.016990654 -0.051877853 0.5387844 -0.19915059 0.31366983
-0.44367325 -0.014706354 0.49739277 -0.19515096 0.27253714 0.3654819 0.02048532 0.12935787
-0.555071 -0.18061835 0.36437613 0.12632467 0.09108308 -0.29835346 -0.20013638 -0.39275312
0.4173416 -0.35069472 -0.31350607 -0.15079476 0.24659243 0.34382328 -0.30859703 0.47783092
-0.3362375 -0.4965046 -0.076339856 0.3780909 -0.18774763 -0.47256458 0.060406066 0.28317708
-0.16598396 0.11133574 0.017318612 -0.23539147 0.20616926 0.16100489 0.18376885 -0.014423795
-0.6368283 -0.21744233 0.19035684 0.2785197 -0.36961198 0.49389344 0.36828947 0.04038256
-0.16375233 -0.46071312 0.033468563 0.36031166

bias f4 [6]
00000000: a193 ccbd fd12 0b3e 9031 1b3e 550c e4bd
00000010: dd40 7cbe b270 2b3e
-0.099890955 0.13581462 0.15155625 -0.11135165 -0.24634118 0.16742209

weight f4 [18, 6]
00000000: f6a8 973e 3394 783e d02f 46be b3c2 a7be
00000010: 78c5 d43b cda8 a2be b43e 8bbd 2c39 c03e
00000020: c03f 943e f6e3 80be 654d 39be cfcd 9fbc
00000030: 000b a3bd fe79 7e3e 0dd1 e83e 3b24 3b3d
00000040: fd50 853e 4a1e 80be 06f8 f63d 0334 14bd
00000050: 0faf 653e bf78 07be 76c0 853c 302e 9f3d
00000060: 44f7 da3d 7abd 513e 6bb8 6b3e 75b1 bf3d
00000070: 5932 a93c 8b10 15bd cd76 de3d 792c a8bd
00000080: eb07 403e 283f 97be b9d4 c5bc b2d6 553e
00000090: 8bd9 183b 8b2c 40bc 94d4 8b3e 875f ec3d
000000a0: c664 eebd 8c44 13be 619d 9fbd fbc0 b43e
000000b0: 0568 67be dfbe b4bd aea0 9d3e 3f1d f73e
000000c0: 8fc5 9f3d 2624 b9be f0e6 533e eec1 b33d
000000d0: 3cd6 97be 78e8 f1be 5530 22bd 520d b4bd
000000e0: 7439 b33c 7683 333b 9de4 ee3d f6b1 d5bd
000000f0: 21d9 ac3e 73b5 a13e c4ab 70bc de66 563e
00000100: 9028 29be 3b7f 653e 5506 843e 2b8f 69be
00000110: b70d 793e fb93 08be 77dc 0e3e 4948 3c3e
00000120: ae60 a7be fded 733e 1025 d0be e9e5 9f3e
00000130: f186 febd 3789 9ebe ffac edbd 2018 b73e
00000140: 4d8b 823e 7820 9fbe d0de 86be 8531 843c
00000150: f0ce cfbe a99e 00bf d1f8 dcbd e9af 76be
00000160: d79a 0f3e aab1 80be 7d01 c13d c067 9abe
00000170: ed7e 0fbf 3bf0 78bd b0de a2be aee5 9e3e
00000180: b717 a5bd d2df 97be 802e 56be 95c0 9dbd
00000190: 9773 83bd 4adb b53d e0a2 b8be 432e 9cbe
000001a0: ea38 7e3e ab00 d53e 2f0a fdb9 de3f c33e
0.29621094 0.24275284 -0.19354177 -0.3276573 0.0064932667 -0.3176941 -0.06799069 0.3754362
0.28954887 -0.2517392 -0.1809593 -0.019507317 -0.079610825 0.24851224 0.45471993 0.04568885
0.26038352 -0.2502311 0.120590255 -0.036182415 0.22430061 -0.13229655 0.016327124 0.077724814
0.106916934 0.20482436 0.23019569 0.09360019 0.02065389 -0.03639273 0.10862503 -0.082116075
0.1875302 -0.29540372 -0.024149286 0.20882681 0.0023323025 -0.01172937 0.27310622 0.11541658
-0.11640315 -0.14381617 -0.077936895 0.35303482 -0.22598274 -0.08825468 0.3078665 0.482645
0.07801353 -0.36160392 0.20693564 0.087772235 -0.29655635 -0.47247672 -0.039596874 -0.08791603
0.021877982 0.002739159 0.11664698 -0.10434334 0.33759406 0.31583747 -0.01468939 0.20937678
-0.1651938 0.22411816 0.2578608 -0.2280852 0.24321638 -0.133377 0.13951288 0.1838695
-0.32690948 0.23821254 -0.40653276 0.31230095 -0.12428082 -0.30964062 -0.11605262 0.35760593
0.25496903 -0.3107946 -0.26341867 0.016136894 -0.40587568 -0.50242096 -0.107896455 -0.24090542
0.1402391 -0.25135547 0.09424112 -0.3015728 -0.5605305 -0.060775977 -0.31810522 0.31034607
-0.08061164 -0.2966295 -0.20916176 -0.07702748 -0.064185314 0.08879717 -0.36061764 -0.30504045
0.24826398 0.41602072 -0.00048263508 0.38134664

bias f4 [18]
00000000: c997 3d3e 49c1 023f 7e83 2e3e 405e 0abe
00000010: 9964 593f 5ffb 2fbe bae4 45be 0325 5e3e
00000020: 9206 26be d83c dd3e 05e3 b03e eb71 9a3d
00000030: b829 6d3e 95fb 313f 46ea fc3d 8095 3cbe
00000040: d98f 67be 8757 5abe
0.18514933 0.5107618 0.17042348 -0.13512516 0.84919125 -0.17185734 -0.19325534 0.21693806
-0.16213444 0.43210483 0.34548202 0.075412594 0.23160446 0.6952451 0.123493716 -0.18416405
-0.22613467 -0.21322452

weight f4 [54, 18]
00000000: f5f9 29be 5d00 a13d 10e6 8fbd 11ad b2bd
00000010: 77ae 8bbc fe24 6bbe 89de edbc af7a e53d
00000020: a63b 0dbe ec5b 69bd d059 71be 205a 1bbe
00000030: 73c8 50be e987 523a bd2e 9d3c 4b2b bcbd
00000040: 9a68 a43b 729b c7bd 5c7f 4bbe 392b 20be
00000050: 0ab4 693d d401 093e 60ea 40be 67ef 1abe
00000060: b00c c43d 4502 34be 384e c13d c0e7 f53d
00000070: c976 5bbe 463d ecbd 01be 96bd 9e53 853d
00000080: d89b 34be 689d 3e3d 4dc9 373e c393 52bc
00000090: a38f 213d 8e00 463e 1a20 913c 899b 53bb
000000a0: 6a28 783d dd5c 6c3d 1694 eabd c175 5dbe
000000b0: fe3b e0bd c15d 17bc 2057 64be 15b0 79be
000000c0: 53fe fabd 42ea 3abe 7357 03bd 5c2e 0fbe
000000d0: eb13 1ebd 9f5d cd3d 1b13 593d 9c92 383d
000000e0: 9eb2 30bd 5344 3b3d 0ce5 123e bfee dd3d
000000f0: ca6c b2bc aa98 e23e 7f30 75be f960 73bc
00000100: 90b7 253e 84e3 0abe 1550 ad3d 888b c93e
00000110: 34f0 bfbd 5dd2 e03d 4e72 82be 089d 0f3d
00000120: 8fdd 10be 8f26 4abe 7456 703d 51fd 4b3d
00000130: 1c2b 83bd 4622 323d df20 2d3d a61a 923d
00000140: 464e aebc c6a5 10be ade7 cfbc ff1c b53c
00000150: 8557 1cbb e3c2 8f3d 5d57 4fbe f077 56be
00000160: 6858 abbc d50c 2e3d 41c0 463d 3750 ca3d
00000170: f309 593e 596b 503e 2be2 60bc 7735 203e
00000180: 0950 a33d 4d80 943e df4e e9bd f0df 5bbd
00000190: 28e0 6dbd e8e5 c03e b732 8ebd 6dd0 0b3d
000001a0: 27b1 dc3d 6ff0 1dbd e442 0a3d d726 5a3d
000001b0: 3988 633e 0269 773e 711e 41be 4a4a 9b3c
000001c0: 0d47 9ebe 33dc 643e d32d 3f3d 0fc9 1b3e
000001d0: d030 36bd a71c 44bd 4dc8 603d 7470 90bd
000001e0: 1914 083e 4447 203f 9fec 2b3e 11a6 c53e
000001f0: 4d6c 2dbd 4430 91bd 58c9 e9bc 1c02 ff3d
00000200: 5f5f 8bbd 91c3 763d ce9e a43d 3006 b7bd
00000210: 172e 83be f6d5 30be 6bf2 463d 4758 a0bd
00000220: c849 5ebe 25c5 f73a ad7a af3c 7195 6abd
00000230: 8bca 903d 3a4d 7bbd 51c2 1e3d ed3d b73d
00000240: 9f37 563e f54b 3f3e 6d3a 173e c430 9fbc
00000250: 0f92 02be ee7c d13d 17e6 0dbd fd1d 3b3e
00000260: 1a18 c3bc cd96 a8bd 052d a43b cc47 18be
00000270: 6008 643e d272 193e a564 173e 90e1 48bd
00000280: 6235 49bd 76af bbbd d13e fbbd a384 71be
00000290: 0124 e1bd 8754 0e3e ebea 033d 8383 2fbe
000002a0: 60e6 17be 26a7 4f3d 0572 3e3e ba36 2f3e
000002b0: 7f12 a0bd fa42 9c3d 5db2 b9bd 4877 99bd
000002c0: fc61 8c3d 86bb 21be e3c1 cf3c 681e 00bd
000002d0: 8204 e53e 101d a7bc bd2b a33e 8f55 073e
000002e0: 95c2 063c 131c 753d bc23 383e e5af 513d
000002f0: 49dd 773c d84e 8d3e fef8 83bd 9443 8bbd
00000300: c49a 4abd 60ee 5e3d d81f b43e 9da3 0cbe
00000310: c3db c0bd 045a acbe 4f0c 4bbe 376a b1bd
00000320: d1e4 ebbd ca22 1bbe 35a4 04bd 6f17 f6bd
00000330: 4303 15be 651e 6fbc d140 0b3e 8cc5 61be
00000340: 1ee2 e3bd 0454 87bd 778d 75be 204c 163d
00000350: 9e27 a93c a317 053e 13d2 4bbd 732f be3d
00000360: 2b71 e83d b747 2fbe eff9 36be 74dd 2f3e
00000370: 6ecf f3bd b975 48be a30b 163e 2d83 983d
00000380: 4333 d53d cfcc 35be 5c25 8fbe ac60 54be
00000390: 3052 48be 7b8f b9bd b387 0dbe 4a0e f73d
000003a0: 011a 60ba 92df 253e d01a 86bd d360 303e
000003b0: d51f 8b3d c9f2 0b3e 033c 5bbe c3db 093e
000003c0: 4c3e a43e 179e 42be 4867 cd3e 3827 1e3e
000003d0: 330d bf3c 6433 7fbd 099e f63d d819 533e
000003e0: 3fa1 b53e 0f4a e43d be7f 20bd 77c7 903e
000003f0: 6cc6 e2bd 1040 d13d 3215 39bd ef87 e03d
-0.16599257 0.078613974 -0.07026303 -0.08724416 -0.017050965 -0.2296333 -0.029036777 0.11205041
-0.13792285 -0.05697243 -0.23569417 -0.15171099 -0.20388965 0.00080311164 0.019187326 -0.09187945
0.0050173523 -0.09746446 -0.19872802 -0.15641488 0.057056464 0.13379604 -0.18839407 -0.15130387
0.095727324 -0.17578991 0.09438747 0.120070934 -0.21432032 -0.115351245 -0.07360459 0.06510089
-0.17637575 0.046536833 0.17947884 -0.012852612 0.039443623 0.19336149 0.017715503 -0.003228875
0.060585417 0.05770575 -0.114540264 -0.21626951 -0.109489426 -0.009238661 -0.2229886 -0.24383576
-0.1225554 -0.18253425 -0.03206582 -0.13982528 -0.038593214 0.100276224 0.052996736 0.045061693
-0.043139093 0.045719456 0.14345187 0.10836553 -0.02178039 0.44257098 -0.23944281 -0.014854663
0.16183305 -0.13563353 0.0846254 0.39364266 -0.09371987 0.109776236 -0.25477833 0.035061866
-0.14147018 -0.19741271 0.058676198 0.04980213 -0.06404707 0.043489717 0.042267676 0.07133989
-0.021277558 -0.14125738 -0.025379026 0.022108553 -0.0023855877 0.070195936 -0.2024817 -0.2094419
-0.020916179 0.042492706 0.04852319 0.09878581 0.21195202 0.2035345 -0.013725798 0.15645395
0.0797425 0.29004136 -0.113919966 -0.05368036 -0.0580751 0.37675405 -0.06943267 0.034134317
0.10775977 -0.038559373 0.033755198 0.053259697 0.22219934 0.24161151 -0.18859269 0.018956322
-0.30913582 0.22349624 0.04667456 0.15213417 -0.044480145 -0.047878888 0.05487852 -0.07052699
0.13288917 0.6260874 0.16789483 0.3860326 -0.04233961 -0.07089284 -0.028538391 0.12451574
-0.068053 0.0602451 0.08038102 -0.08936727 -0.256211 -0.1726912 0.04857103 -0.078293376
-0.21707833 0.0018903358 0.021420801 -0.057271425 0.07069882 -0.061352946 0.038759533 0.08947358
0.20919655 0.18681319 0.14768381 -0.019432433 -0.1275103 0.102289066 -0.03464326 0.18273158
-0.023815203 -0.08231888 0.0050102496 -0.14871138 0.2226882 0.14985207 0.14784487 -0.04904324
-0.049123175 -0.09164326 -0.12267841 -0.23585753 -0.10993195 0.13899432 0.032206457 -0.17140011
-0.14833975 0.050696515 0.18598182 0.1711072 -0.07816028 0.07629962 -0.09067223 -0.07493454
0.068546265 -0.15794191 0.025361007 -0.031278998 0.44730002 -0.0203996 0.31869307 0.13216232
0.008225103 0.059841227 0.17982382 0.051193137 0.015128442 0.27599216 -0.06443976 -0.06799999
-0.049464002 0.05442655 0.35180545 -0.13734289 -0.09416916 -0.33662426 -0.19828914 -0.08662837
-0.11518253 -0.1514999 -0.032383163 -0.12016188 -0.14552025 -0.014594649 0.13598944 -0.22048014
-0.11127113 -0.066078216 -0.23979746 0.036693692 0.020648774 0.12997298 -0.04976089 0.09286394
0.1134971 -0.17117201 -0.1786878 0.17174321 -0.119047984 -0.19576158 0.14652877 0.07446895
0.10410168 -0.1775391 -0.2795819 -0.20740002 -0.19562602 -0.0906057 -0.13821296 0.12063272
-0.0008548797 0.16198567 -0.06548083 0.17224436 0.06793181 0.13666834 -0.21409611 0.13462739
0.3207878 -0.19005619 0.4011786 0.15444648 0.023321724 -0.06230487 0.120418616 0.20615327
0.35474584 0.11146938 -0.039184324 0.2827718 -0.11073002 0.10217297 -0.04518623 0.10963427

bias f4 [54]
00000000: ed6d 3cbe 1a6d 83be f023 59be 6d98 72be
00000010: c93f 50be 11e7 443e 06eb a13e bb36 6abe
00000020: 46eb 673d cdc7 40be cf62 fe3e 3000 d5bd
00000030: 77f9 02be 8b87 ac3e aa99 94bd 3d3c aebe
00000040: 47c0 113e 6d32 54be 9dcd d93e 1a83 a33e
00000050: f927 b83e 8659 193f 42f1 9f3d de00 79be
00000060: 1301 05be c1e3 9e3e 795a 89bd 3ca0 d73d
00000070: 7574 64be e3e2 903e 8efd 373e 2d83 29be
00000080: f648 ea3d aab4 fa3e a94d c03d 5000 ff3e
00000090: c848 a9bc f8c6 663e 392c 073f 5870 20be
000000a0: 4d5c ed3d 951e 2ebe 3c5f 53bc 9f6c 35be
000000b0: 4c54 e13e 3be3 3f3e 3d3b 8e3e 542f 20be
000000c0: dc58 89bc f12b 913e bd28 8b3e b910 ccbd
000000d0: b87f f1bd 53e3 003d
-0.18401308 -0.25669175 -0.21205115 -0.23690958 -0.20336832 0.1922877 0.3162462 -0.2287244
0.05662086 -0.18826218 0.4968476 -0.104004264 -0.12790476 0.3369716 -0.072558716 -0.34030333
0.14233504 -0.20722361 0.42539683 0.3193596 0.35967997 0.59902227 0.07809688 -0.24316737
-0.12988691 0.31033137 -0.067067094 0.10528609 -0.2231005 0.282981 0.17967817 -0.16553946
0.114396974 0.4896596 0.093898125 0.49804926 -0.020664588 0.22536838 0.52801853 -0.15667856
0.115898706 -0.17003854 -0.012901124 -0.17717217 0.44009626 0.18739025 0.2777957 -0.15643054
-0.016766004 0.28353837 0.27179518 -0.09964127 -0.117919385 0.031466793

weight f4 [150, 54]
00000000: f293 e4bd bb47 a93b a327 89bc a2ab 303e
00000010: 5b99 e8bd 8e64 693d bb4a 1b3e 9143 643d
00000020: 198b e93d 5a04 4fbd 9839 c9be 0694 50bd
00000030: 99c0 ae3d f742 6ebd 9fa5 84bd 6526 7d3d
00000040: e00e 2ebe 709d 913d a264 573e 6066 973d
00000050: fc2d 683e 33ad 5bbe b34b e73d 2392 96bd
00000060: b46f 3e3d 0175 0fbd 6c3e 2c3d 6e48 1a3e
00000070: 6423 b7bd 8de4 8b3d fd3f fd3d dfd5 c23d
00000080: 740c f03d 8bb2 5ebe 669c 503d 3463 c0bd
00000090: 7a10 0fbd 61b2 82bd 1611 29be 8eaf 463d
000000a0: 1135 463e 427c c93c 9804 c93d 84af 853d
000000b0: 527d 72bd 3ce9 3abe a49a 50be 6488 9fbc
000000c0: bf3e b13d 6bae 5fbc b0ed 9cbd c630 26bd
000000d0: e89a ab3b db3c 7d3d b6a3 f2bd 13f7 a7bc
000000e0: f891 dfbd 0624 533e 02cc 563d 8e43 83bd
000000f0: d5bd a13d 1eb3 a43d ead3 023e 17bf d8bc
00000100: 2116 e4be f99b 63bd d809 edbd d680 94bd
00000110: a603 723c 7d17 d33d 9f4e 82be 9660 a43b
00000120: 804d 323e fcdd 4cbc ffd9 553d 744c 19be
00000130: b4ff b63d ce3d 953d 55b2 953d 9340 85bd
00000140: 1f39 083e 2fa7 463e 702c 8d3c b294 e23d
00000150: 71b4 483d 1cda 96bc 3324 663c 9609 22bd
00000160: c648 74bd b870 2dbe 37a1 773d e55c 4abc
00000170: 93d0 5ebe 9158 353d 0429 8a3e fae9 963d
00000180: 243e 173d 9dbd 1a3c 0437 88bc 8cbd 62bd
00000190: b9a3 35be 926d f43c cb16 863d 4f09 c73d
000001a0: 902c 9dbc 1cea 52bc 4f20 913c 25c9 c73d
000001b0: debc babc 777e 08bd f52b 15be 6de1 753d
000001c0: f436 e43d e9cb 87bd 496f 123e ba24 90bd
000001d0: eb67 453e 1cea 8bbc eee9 c7be 9f0f 80bd
000001e0: b1d2 f5bd 6294 03be e59b fabc 75a7 873c
000001f0: b33a 42be 5c43 4a3d f8cc 1e3e c664 e93c
00000200: 31b8 153e cf40 39be 137d 273e fdf2 c4bd
00000210: ae36 39bd 7cb2 5bbd ba70 973d 4159 063e
00000220: 5ca5 0e3d 4d6e 2d3d 15e0 193e 7090 a1bd
00000230: f011 9c3d ee7b d7bd 7b90 f13d b859 d0bd
00000240: cefd 7f3d 1bd7 813d 60c6 dfbd d4de 7b3d
00000250: 5343 6d3e 29fb 083e 7c2b 37bb a236 f33c
00000260: ceaf b23b 84e7 e2bd 19d6 62be cb95 b9bc
00000270: 3915 243e 2c20 1abb ffbf f0bc 82c4 03be
00000280: 4703 eb3d 13f4 10bd 19ab 913d c2af f9bd
00000290: f8d4 0dbd 54fa bf3d 3a51 63bd a58a 10bc
000002a0: 8739 773d e430 933d df07 b1bc b8d7 9b3c
000002b0: 59bf b5be d60b 593d f754 12be c643 11bd
000002c0: dcd6 bd3d aa4a 88bc 8847 bdbd 215d ccbd
000002d0: f9a2 773e ef3b f03d 12ad 843d bbcd 30be
000002e0: e145 bd3d 9546 fe3d 677c 8bbd 832b 40bd
000002f0: 0643 bb3d 4909 563e 4647 e5bd a3c6 a53d
00000300: 71a6 443b 6c00 e5ba 76ea 1c3d c1a3 1cbe
00000310: c66a 84b9 0d06 0abe 0280 07be 56d3 783d
00000320: 8e03 73be df61 023e 828f 523e bffb 233e
00000330: 0b7f 393d 061d 9cbc b922 6dbc db90 2dbe
00000340: 380a 86be ea9c 7b3d 57ec d63d c10c ac3d
00000350: 47a8 a03d 472c 1c3a e430 f63d d7c3 0f3c
00000360: 93ca 5fbd cc9a f03d 8d68 89bd f09c 4f3d
00000370: bcf0 df3d 526f 89bd 9cc7 5b3e a06b 873c
00000380: 2fb1 d23d 31c7 ccbd f194 c6be 57d0 99bd
00000390: d8f7 7c3c c1e3 d8bc 29e1 283c 8c1a 05bd
000003a0: 397e 5ebe 2f09 5fbc 4bfa 033e e6a8 3fba
000003b0: c4fb 933d 0cc7 0abe 4729 343e 76c6 0cbd
000003c0: 4b66 b23d 9079 6c3a 1ff8 1b3d d8cc b53d
000003d0: d993 b33d a1db 3d3d 69a3 933d 356c b2bd
000003e0: 6efd e3b9 696f 8cbd 1ed6 053e f407 9fbd
000003f0: df06 f23c 6aec bebd e8e8 c1bd 82db a0bd
-0.11161031 0.0051660216 -0.016742533 0.17252973 -0.11357375 0.056980662 0.15165226 0.0557285
0.11403484 -0.05054126 -0.39301753 -0.050922416 0.08532829 -0.05816933 -0.06476902 0.061804194
-0.16997862 0.07110107 0.21034482 0.07392573 0.22673792 -0.21452789 0.11293735 -0.07352092
0.046493247 -0.035023693 0.042051718 0.15066692 -0.08942297 0.06830702 0.123657204 0.09513449
0.11721125 -0.21747796 0.050930403 -0.093939215 -0.034927823 -0.06381679 -0.16510424 0.048507266
0.1935618 0.024595384 0.09815329 0.065276176 -0.059201546 -0.18253034 -0.2037149 -0.019474216
0.08654546 -0.013652424 -0.07662523 -0.040573858 0.005236972 0.061825614 -0.11847632 -0.020503556
-0.10916513 0.2061921 0.05244065 -0.064093694 0.07897536 0.080419764 0.12776151 -0.026458306
-0.44548133 -0.05556867 -0.11574143 -0.07251136 0.014771378 0.103072144 -0.25450608 0.0050163968
0.17412376 -0.012504097 0.05220985 -0.14970571 0.0893549 0.07287179 0.07309405 -0.06506457
0.1330304 0.19399713 0.017233104 0.11063518 0.049000207 -0.01841455 0.0140467165 -0.039559923
-0.059639715 -0.1693753 0.06045648 -0.012351249 -0.21759252 0.044273917 0.26984417 0.07368846
0.036924496 0.009444621 -0.016627796 -0.055356547 -0.17738236 0.029837403 0.06547316 0.09718572
-0.019186288 -0.012873199 0.017715601 0.09755162 -0.022795137 -0.03332373 -0.1456755 0.060029436
0.11143294 -0.0663069 0.14300264 -0.07038255 0.19277923 -0.017079405 -0.39045662 -0.062529795
-0.12003077 -0.12849572 -0.030591914 0.016559342 -0.18967704 0.049380645 0.15507877 0.028490435
0.14621045 -0.18091129 0.16356306 -0.09616659 -0.045218162 -0.053637013 0.07394548 0.13119985
0.034825668 0.04234152 0.15026887 -0.078888774 0.07620609 -0.105216846 0.117951356 -0.101733625
0.062497906 0.06339856 -0.10926509 0.061491802 0.23170213 0.1337706 -0.0027949503 0.029689137
0.0054530865 -0.11079314 -0.22151984 -0.022654435 0.16023721 -0.002351771 -0.029388426 -0.1286793
0.114752345 -0.035389017 0.071127124 -0.12191726 -0.03462693 0.09373918 -0.055497386 -0.008822118
0.060357597 0.071870595 -0.021610199 0.019023761 -0.3549755 0.052989803 -0.14290224 -0.035465024
0.09269497 -0.016637165 -0.09242159 -0.099787004 0.24183263 0.117301814 0.06478323 -0.1726598
0.09241844 0.12415806 -0.06810837 -0.046916496 0.09143643 0.2090198 -0.11195235 0.080945276
0.0030006433 -0.0017471439 0.038309537 -0.15296842 -0.00025256554 -0.1347887 -0.13232425 0.06074842
-0.23731825 0.12732647 0.20562556 0.16014002 0.045287173 -0.019056808 -0.014473611 -0.16949789
-0.2617967 0.06142894 0.10494297 0.0840087 0.07844596 0.00059575256 0.12021044 0.008774719
-0.05463655 0.11748275 -0.067093946 0.050686777 0.10934588 -0.06710686 0.21462864 0.016530812
0.10287701 -0.0999893 -0.38785508 -0.07510441 0.01543995 -0.026475789 0.010307589 -0.03249602
-0.21727838 -0.013613029 0.12888448 -0.00073112396 0.07225755 -0.13552493 0.17593871 -0.034368955
0.08710917 0.00090208 0.038078424 0.088769615 0.08768434 0.046352033 0.072089024 -0.08712045
-0.00043485634 -0.06857187 0.1306996 -0.07765189 0.029544292 -0.09322436 -0.094682515 -0.07854368

bias f4 [150]
00000000: 29ef 3ebe e832 afbd 6b6b 73be 1015 dfbd
00000010: cfcb 80be 8496 fbbd 6bdf 10be c3a1 28be
00000020: a34f e4bd 7bfa 9abd 6b2f c1bd d570 f4bd
00000030: 9aa2 bebd 4d9b 33bc 6c9e de3c 8133 ae3c
00000040: 25c9 47bc 040f 35bd 0032 2a3c d01f ed3c
00000050: 1626 ee3c 144c 583c c930 5e3d 08f9 303d
00000060: f41d 513d 4911 543e 6a8f c93d 12ac 1f3e
00000070: 6f46 983d 7872 243d c3d4 cfbb 98ee 873d
00000080: abcb ac3d 1f9c fabc 71c3 22bd b591 03bb
00000090: 8ff9 8b3c 1d5a 143c 1610 bbbd 9279 90bd
000000a0: eb0b e0bd d76d 04be 7eef acbd c51e 98bd
000000b0: b2cc 22be 3e6e 13be 88b4 f5bd 94ba c5bd
000000c0: 3fe2 20bd 04d3 24be 962a 91bd dd0e c1bd
000000d0: ae62 46bd c419 92bd d1d8 09bc c720 a0bd
000000e0: c285 71bc 2601 41bd 4c5f c4bc 3b70 203d
000000f0: 8748 da3d 9c7f 193a 5b7d 183c cd5c b43d
00000100: bbe4 273d 3bc0 a23d 981d 323d aeb2 033e
00000110: a2de bd3d fe29 ca3d 2478 303e efff 9e3d
00000120: 3bd1 ac3c d3af f43d 2687 323e 0f5d 0a3e
00000130: 4e7f 0b3e d92a 0c3d 8372 013e 43a5 dc3d
00000140: b381 a23d 7bb5 ca3d f39f 4d3d ab3d 643c
00000150: f570 1f3d 2cb9 2a3d 5204 a23b f183 67bd
00000160: a814 f53c bb3f 40bc a4b2 a3bc 34ea a3bc
00000170: 819f 64bd 1421 29bd ded5 02be f63c 063c
00000180: 2428 9bbd e44a 87bd 15a2 9fbc 3ae3 debd
00000190: 5547 20bd cac6 b4bd 262a 54bd d266 60bd
000001a0: 3e2d dabd 7618 25bd b7f7 95bc 87b5 6abc
000001b0: 4bf8 7a3c 21c4 543d 3027 053d 0e6c 38bb
000001c0: a78e 103d 8fb4 96bc 99f1 ba3c d242 dabc
000001d0: b495 4a3d 533e 543d 5a5e 263d da5f 823d
000001e0: 1734 f23d f671 ec3d a798 203d 6363 4e3e
000001f0: 17a0 c13d 9672 a93d db42 cb3d 0384 443e
00000200: 1ce7 4f3d 21b6 e33d 3502 063e a1aa e93d
00000210: 18f4 ac3d ae1e e03d 91f6 f63c 8d39 223d
00000220: 76d4 a63d de44 e0bb 5058 c83c 0be5 883b
00000230: ff46 0d3c a9f7 08bd 1ba5 f2bc 30d9 18be
00000240: fdd7 dbbc 712e d3bd b3c6 1ebe 1ee8 dbbd
00000250: 2d63 cabd 15f3 06be
-0.1864592 -0.085546315 -0.23771445 -0.10892689 -0.25155494 -0.12284568 -0.14147727 -0.16467957
-0.11148002 -0.075673066 -0.094328724 -0.119355835 -0.093083575 -0.01096232 0.02717515 0.021264793
-0.012193953 -0.044203773 0.0103878975 0.028945833 0.029070895 0.013201732 0.054245744 0.043206245
0.051053956 0.20709719 0.09841807 0.15592983 0.07435309 0.04014823 -0.006342502 0.06637305
0.08437284 -0.030592022 -0.03973717 -0.0020075862 0.017086772 0.009054688 -0.091339275 -0.07054438
-0.10939773 -0.12932526 -0.08444117 -0.07427744 -0.15898398 -0.14397523 -0.11997324 -0.096547276
-0.039278265 -0.16096121 -0.07088201 -0.09426663 -0.048433952 -0.07133821 -0.0084135095 -0.07818752
-0.014741363 -0.047120236 -0.023971222 0.03916953 0.10658365 0.0005855502 0.009307231 0.08806763
0.04098962 0.07946821 0.043485254 0.1286113 0.092709795 0.098712906 0.1723333 0.07763659
0.021095863 0.11947598 0.17434368 0.13512062 0.13622782 0.03422055 0.12641339 0.10773709
0.079348944 0.09897896 0.050201368 0.013930718 0.038926084 0.0416805 0.0049443627 -0.056522314
0.029917076 -0.0117339445 -0.019982643 -0.020009138 -0.055816177 -0.04129131 -0.12776896 0.008193245
-0.075760156 -0.06606081 -0.019486466 -0.10883184 -0.039130528 -0.088269785 -0.05179801 -0.054785557
-0.106531605 -0.04030653 -0.018306596 -0.014325506 0.015317987 0.051944856 0.032508075 -0.0028140577
0.035292294 -0.018396644 0.02282028 -0.02664319 0.049459174 0.05181725 0.040617324 0.063659385
0.118263416 0.11545174 0.03920808 0.201551 0.09454363 0.08273809 0.09924861 0.19190983
0.050757512 0.11118723 0.1308678 0.11409498 0.08444995 0.10943352 0.030146869 0.039605666
0.081459925 -0.006844147 0.024456173 0.0041776947 0.008622884 -0.033439312 -0.029619744 -0.149266
-0.02683639 -0.10311592 -0.15505485 -0.10737632 -0.098821975 -0.13178666
