knn/models/pretrained-autoencoder/autoencoder-in_features60-latent_size3.pt (torch, 36601 bytes, 12 tensors)

weight f4 [27, 60]
000000 bd 60 35 bd db be ee bc a9 a1 38 bd 74 d7 04 bd
       -0.04428171 -0.029143741 -0.045076046 -0.032432035
000010 5e b3 03 bd fb 28 f5 bc 72 70 7d bc 51 3a ed bb
       -0.03215348 -0.029926768 -0.015468704 -0.007239618
000020 95 a9 61 bd 57 65 48 3a 3d d4 2f bd e2 95 eb 3c
       -0.055093367 0.00076444953 -0.042927016 0.028757993
000030 60 40 ee bc 77 a4 52 bc 1b 51 e5 ba ca 53 37 bd
       -0.02908343 -0.012856594 -0.0017495485 -0.04475764
000040 07 39 b0 3c b9 85 e5 bc a2 da 2e bd 45 43 37 bd
       0.021511568 -0.028017865 -0.042688973 -0.044741888
000050 cf b7 17 bd e7 56 f1 bc 32 11 84 bd 4e 1d 72 bd
       -0.037040528 -0.029460384 -0.06448592 -0.05910998
000060 4a b8 2a bd 8e 34 8e bd 0a f3 93 bd 0d 23 98 bd
       -0.041679658 -0.06943618 -0.072240904 -0.074285604
000070 b5 0c cb bd 29 e9 4a bd 8c 1f d1 bd ce 98 a4 bd
       -0.09914533 -0.049538765 -0.10211095 -0.08036958
000080 be 49 ad bd 11 27 b9 bd be f6 9d bd 90 ec 92 bd
       -0.08461331 -0.090406545 -0.07713078 -0.07174027
000090 66 c2 9d bd 5a 90 69 bd 5a 61 39 bd 3a 6c 91 bc
       -0.07703094 -0.05702243 -0.045258857 -0.017751802
0000a0 ad cb 6b bd f7 0d 79 3c f2 53 47 bc 4a e6 58 3c
       -0.057567287 0.015201083 -0.01216601 0.013238499
0000b0 9b 93 46 3a c0 e3 60 3d 1d 0e 9a 3c 63 b8 96 3d
       0.00075750955 0.0549047 0.018805558 0.07359388
0000c0 b0 87 92 3d 2b 55 94 3d 1b 5e 8b 3d 80 9c bb 3d
       0.071547866 0.07242807 0.068050586 0.091607094
0000d0 4a b1 a8 3d 9d dc ec 3d 50 3d b3 3d f6 ef 0b 3e
       0.0823694 0.11565516 0.08751929 0.13665757
0000e0 10 e5 9e 3d b3 ba 00 3e ea 1d ee 3d 9a d0 f5 3d
       0.07758534 0.1257122 0.116267994 0.12002678
0000f0 45 19 98 3c 10 a4 3f bb 91 34 de 3c 90 d6 07 3d
       0.018566737 -0.0029242076 0.027124675 0.033163607
000100 b2 ed 3c bb a9 1e 1f 3c ea 52 1f 3d b8 e3 78 bc
       -0.00288282 0.0097119 0.038897432 -0.015191011
000110 24 d1 b3 3c 0b 96 5f bc 97 41 62 bb 50 e3 a5 bc
       0.021950312 -0.013646613 -0.0034523958 -0.020249993
000120 92 0d c5 bc 13 43 ef bc 99 dc 86 bd 82 e5 72 bd
       -0.024054322 -0.029206788 -0.065850444 -0.059300907
000130 22 89 5d bd 6b df c6 bd 26 87 a5 bd 89 d3 d9 bd
       -0.05408586 -0.09710582 -0.08082418 -0.1063605
000140 13 6d 03 be 45 54 fd bd 3b 99 05 be a1 7b 16 be
       -0.12834577 -0.12369589 -0.13046734 -0.14695598
000150 b5 3f 08 be ea 78 10 be c4 eb f0 bd e1 f5 db bd
       -0.13305552 -0.14108625 -0.11763719 -0.10740257
000160 04 59 12 be 7a 5d ca bd d8 3e 92 bd b5 67 b1 bd
       -0.1429177 -0.098811105 -0.07140893 -0.08662359
000170 69 1c 3c bd c9 07 9f bc ad 7f 44 bc cc 2d c4 3b
       -0.04592553 -0.019412892 -0.011993331 0.0059869047
000180 07 17 2d 3d 94 84 54 3d 68 38 44 3d 18 1b c0 3d
       0.04225829 0.05188425 0.047905356 0.09380168
000190 80 30 07 3e 8b 09 cf 3d b2 b5 fa 3d a4 d9 0f 3e
       0.13202095 0.10109242 0.12241687 0.14047867
0001a0 0d 05 11 3e 50 0f 0e 3e 6b a5 0b 3e 57 04 f0 3d
       0.14162083 0.13873029 0.1363732 0.11719578
0001b0 f8 17 f0 3d 8d 6c a9 3d 88 a0 ca 3d e9 38 a5 3d
       0.11723322 0.082726575 0.098939 0.080674954
0001c0 61 fe 46 3d e0 49 56 3c f6 57 28 3c 52 26 0b bd
       0.04858244 0.013079137 0.010274878 -0.033972092
0001d0 fb 62 87 bc e2 fe 6d bd 57 c9 6e bd 51 5b 85 bd
       -0.01652669 -0.058104403 -0.05829748 -0.06511558
0001e0 5d 3f 05 be 50 80 d4 bc 2b 8d e6 bd c2 65 8f bd
       -0.13012452 -0.02594009 -0.112573944 -0.07001831
0001f0 5f 50 bf bc 39 98 bb bd e0 01 34 3b 06 e6 52 bd
       -0.023353754 -0.091598935 0.0027466938 -0.0514889
000200 46 32 d9 bc f1 e8 8c bc a7 06 88 3d 1c 35 ef 3b
       -0.02651323 -0.017200919 0.06641894 0.0073000323
000210 81 d5 0a bc 8c 8f 79 3d 67 e7 e3 bc 44 89 5c 3d
       -0.008473755 0.060927913 -0.027820302 0.053841844
000220 ac d7 1c 3d 56 23 1b 3d 40 ce fe 3a 8f d8 75 3d
       0.03829162 0.037875496 0.0019440129 0.06002098
000230 28 bb 6d 3b fb 11 dc bc 11 ea 45 3c 9f 26 1f bc
       0.0036274884 -0.026864043 0.012079732 -0.009713798
000240 60 0c 1d 3b 47 ae e4 bc 21 b5 20 3c eb ec 9e bc
       0.0023963675 -0.027915133 0.0098088095 -0.01940008
000250 0e ec 1f bd 62 35 94 3c e7 f7 92 3c 47 b1 10 bd
       -0.03904348 0.018091861 0.017940475 -0.035325315
000260 ec c0 c8 3c f1 9e 69 3d ac 84 1c bd 55 66 7e 3d
       0.024506055 0.057036344 -0.038212463 0.06210931
000270 20 d5 35 3d d7 66 92 3d f3 2f 31 3c 0a a6 84 3d
       0.044392705 0.071485214 0.010814655 0.06476982
000280 d5 c1 aa 3d 94 c4 8c 3d d7 bc 79 3d a1 26 04 3d
       0.08337752 0.06873432 0.060971107 0.032263402
000290 f8 16 a4 3d f3 94 7c 3d 47 b4 2e 3c 13 58 d6 3d
       0.080121934 0.061665487 0.010663099 0.104660176
0002a0 c6 da 41 3d ae 25 7f 3b 0e 08 ce 3a 2e 19 77 3d
       0.04732778 0.003893237 0.0015718953 0.060326748
0002b0 ab 00 44 bd 0c e6 32 bd 3b e9 48 bb bd 47 99 bd
       -0.0478522 -0.04367642 -0.0030656594 -0.07484386
0002c0 0f 53 44 bd 2b 70 b4 bd 88 7a af bd f1 df b1 bd
       -0.047930773 -0.08810457 -0.08568293 -0.086852916
0002d0 4b a4 0d 3c fa 0f 31 3c 9a 2d 27 3c 00 a3 16 3d
       0.0086451275 0.010807032 0.010203743 0.036776543
0002e0 56 0f d9 3c 69 f0 98 3c 99 95 0a 3d 80 85 61 3d
       0.02649657 0.018669324 0.033834074 0.055058956
0002f0 37 3a 82 3c e3 08 3f 3d 49 a1 83 3d 31 f5 0f bb
       0.0158969 0.046639334 0.06427247 -0.0021966214
000300 18 3c 55 3d 81 af 29 3d be d3 3f bb 55 a2 b9 3c
       0.052059263 0.04142714 -0.0029270495 0.022660414
000310 1c 1c 38 bc 21 8e 8b 3b 93 66 08 bd 37 77 8b bc
       -0.011237171 0.0042588864 -0.033300947 -0.01702462
000320 69 9e 8b bd 82 47 40 bd 50 a9 8e bd 38 13 c7 bd
       -0.06817324 -0.046943195 -0.069658875 -0.097204626
000330 de a1 99 bd 74 c4 0a be 49 3c b9 bd 9a aa bb bd
       -0.07501577 -0.13551503 -0.090447016 -0.09163399
000340 b3 9e e3 bd 74 d3 eb bd 42 49 bd bd de b3 cc bd
       -0.11114254 -0.11514941 -0.092424884 -0.099952444
000350 6a 6e 82 bd fe 8e 98 bd 94 fa 05 bd f7 c2 14 bd
       -0.06368716 -0.074491486 -0.032709673 -0.036318745
000360 67 5d 82 bb 2a 36 de 3b 65 fc 62 3c 66 ef f6 3c
       -0.0039784196 0.006781359 0.013854121 0.030143451
000370 6e 7c a3 3d 74 66 86 3d 51 15 75 3d 16 bd c6 3d
       0.079827175 0.0656251 0.059834782 0.09704034
000380 1d 0c df 3d 27 d1 8c 3d 97 1f bc 3d 07 8e 90 3d
       0.10890982 0.0687583 0.09185713 0.070583396
000390 de 46 5a 3d 20 53 71 3d 2b 3b e5 3c da 0d c1 3c
       0.05329024 0.058917165 0.027982315 0.023566175
0003a0 4f 11 97 bc 04 26 8b bc 92 39 8d bd 16 27 90 bd
       -0.01844087 -0.0169859 -0.06895746 -0.07038705
0003b0 3b 05 a9 bd 5b 71 e0 bd d9 3c e5 bd 41 4f 06 be
       -0.08252951 -0.10959121 -0.111932464 -0.1311617
0003c0 ac 9d f6 bd c1 cc e8 bd cc 13 7b bd 00 93 51 bd
       -0.12041792 -0.11367179 -0.061298177 -0.05116558
0003d0 f9 4e af bc 24 a6 45 bd 3e f2 9e 3c 50 f7 0d 3d
       -0.021399962 -0.048254147 0.01940262 0.034659684
0003e0 64 7e 12 3d 5e 81 81 3d 92 fa 0a 3e b6 68 32 3c
       0.035765067 0.06323503 0.13572147 0.010889223
0003f0 a1 e1 d8 3d f9 ab b2 3d 52 b4 3b 3d 79 8a e0 3d
       0.1058991 0.087242074 0.045826264 0.109639116

bias f4 [27]
000000 f7 02 80 3e ba 0f 45 be 4f 49 cd 3e c9 5b f9 3e
       0.25002262 -0.1924428 0.40094993 0.4870284
000010 b4 fe da bd 62 a7 0e be 01 f7 56 bd b2 50 d7 3d
       -0.10693112 -0.13931039 -0.052481655 0.10513438
000020 07 5e 01 be 46 c1 d0 3e 76 b0 10 bf b3 57 0c bf
       -0.12633525 0.40772456 -0.5651926 -0.5482132
000030 c8 12 ae be 19 83 ea be 55 d9 2b 3d b4 e3 1e 3e
       -0.33998704 -0.45803145 0.04195531 0.1551655
000040 e8 34 2c be 10 be 94 3e c5 7a 5f 3d 0b cc 83 3c
       -0.16817057 0.29051256 0.05456044 0.016088506
000050 a8 5c 76 be 41 a3 42 bd 67 3d a8 be 73 ad 3f 3d
       -0.24058783 -0.047518972 -0.32859346 0.046796273
000060 63 ce 14 3f 31 68 49 be 69 21 ab bd
       0.5812742 -0.19668652 -0.08355982

weight f4 [9, 27]
000000 09 f5 a1 bd 69 a9 eb bd bf 60 7d 3d ac 2b 9d 3e
       -0.07908065 -0.11506922 0.061859842 0.30697381
000010 92 28 b0 3d 48 ca 1f 3e da ad a9 3e 84 5d 54 bd
       0.08601488 0.15604508 0.3314045 -0.051846996
000020 c1 24 65 be 33 a8 dc bd 4e 07 46 3e d1 54 24 3e
       -0.22377302 -0.10774269 0.19338724 0.1604798
000030 f5 ee be bd 0e 0d ae 3e e1 4d 06 3e 6b be fe bd
       -0.09322921 0.33994335 0.13115646 -0.12438663
000040 a5 8c 98 be d1 eb 00 3e 72 4f 10 3d 5c 6f a6 3d
       -0.29794803 0.12589957 0.035232015 0.08126709
000050 60 b0 3f 3e 16 b5 28 be 52 93 53 be 35 22 2c 3e
       0.18719625 -0.16475329 -0.20661667 0.16809924
000060 62 d0 8c 3e 51 0d 58 3c c9 e2 19 bf ad 54 99 bd
       0.27502733 0.013186769 -0.6011167 -0.07486854
000070 46 e2 3f be 02 ae dc 3d 4e 5c f0 3d e1 cb 12 3e
       -0.1873866 0.10775377 0.11736356 0.14335586
000080 58 ca cb bc f9 ef 18 3e 78 63 8d bd e3 fc 5d 3d
       -0.024876758 0.14935292 -0.06903738 0.05419625
000090 c3 df 9b 3d f9 68 b2 bd 2c 76 a9 be 93 32 67 3e
       0.076110385 -0.08711428 -0.3309797 0.22577886
0000a0 ee 58 35 3e fe e8 32 3e 53 85 99 3b 31 00 b6 be
       0.17709705 0.17471692 0.004685083 -0.3554702
0000b0 04 1a 41 3e 45 27 3b bd 5b 29 bf bd aa 0f a3 3d
       0.1885758 -0.045691747 -0.0933406 0.07961972
0000c0 dd ec 8b 3d d7 f3 04 be ea f6 ea bd a4 9f 08 3d
       0.068322875 -0.12983643 -0.11472876 0.03335537
0000d0 da 32 47 3d 31 f8 fc bd 89 c2 2e be 02 31 c1 be
       0.04863248 -0.12352026 -0.17066397 -0.37732702
0000e0 d8 12 3e 3e 99 7d 53 be 62 43 18 bc 04 26 56 3d
       0.18561876 -0.2065338 -0.009293409 0.05228235
0000f0 ff 67 1e bd 0a 9a 2f bd e6 4b 19 3d 90 e3 5d be
       -0.038673397 -0.042871512 0.037425898 -0.2166884
000100 2c 0f 01 be 24 2e d0 bd cf 64 d9 3d 24 00 9d 3c
       -0.12603444 -0.101650506 0.10614931 0.019165106
000110 d0 c0 cb bd 03 de 80 3e 37 5b 01 be 3b 24 a2 3d
       -0.099488854 0.25169381 -0.12632452 0.07917067
000120 8b e5 eb 3d 05 02 d0 bd 62 60 df 3d f6 4c ad 3e
       0.11518391 -0.10156635 0.109070554 0.3384778
000130 e8 96 7b be 72 e7 08 3e 15 3c 61 3e 85 df 18 be
       -0.24569285 0.1336954 0.21995576 -0.14929016
000140 91 8c e4 bd ac a1 3a bd d2 a4 09 be e9 4a 6a 3e
       -0.111596234 -0.04556434 -0.1344178 0.22880138
000150 dd 97 40 3c cc 24 67 3e 76 cb ef 3d 10 a6 0f 3d
       0.011754957 0.2257263 0.11708729 0.03507048
000160 aa 6c 1d be d8 ec 95 be 01 e3 8b bc 08 83 bb bd
       -0.15373483 -0.2928226 -0.017076017 -0.091558516
000170 77 31 b7 3c 7a 09 01 bd f1 1f 00 3e 8c be 31 bd
       0.022362454 -0.03150318 0.12512185 -0.04339461
000180 ed cd 8a 3b 16 28 ed bd bf 18 2a 3c 7a 52 ac 3e
       0.004235974 -0.115799114 0.0103818765 0.33656675
000190 f7 60 de be 5d 09 02 3e b1 fb 59 be 7b a6 6d bd
       -0.43433353 0.12698884 -0.21287419 -0.058020096
0001a0 c9 31 b9 bc 31 a2 49 3e fd d5 a9 bf d7 ea 86 bc
       -0.022606747 0.19690777 -1.3268429 -0.016469402
0001b0 ac 8a a5 be cb e7 e4 be 3d 56 f4 3d 93 f6 2b be
       -0.3233236 -0.44708094 0.11930511 -0.1679328
0001c0 86 cd 5e 3d 78 1b 4e 3d 18 ca 17 3e 36 61 83 be
       0.05439522 0.050319165 0.14823186 -0.25660104
0001d0 73 91 ab bc 61 9a 0a be d2 20 2f bd 79 77 2b be
       -0.020943379 -0.13535453 -0.04275591 -0.16744794
0001e0 fe 9c da 3e dd 8c 21 3e 5c cb 95 be 73 30 40 3e
       0.426979 0.15776391 -0.29256713 0.18768482
0001f0 e0 4c 9b be 22 fc 90 3d f6 df 97 bd 10 a2 9b bd
       -0.30332088 0.070793405 -0.07415764 -0.0759927
000200 74 c5 88 bd 15 79 a5 bd 74 2e f7 ba 3a 1f 26 be
       -0.06678286 -0.08079735 -0.0018858449 -0.1622285
000210 14 b9 84 3e 9d 4b b2 bc a8 f2 8c bd 8f a0 c3 bd
       0.25922453 -0.02176457 -0.068822205 -0.095521085
000220 21 9a a6 bd 89 6e 1b 3e de 1a 59 3e f5 df b3 bb
       -0.081348665 0.15178885 0.21201655 -0.0054893442
000230 d8 eb bb 3d 28 af b2 3e f1 a1 31 be 83 c8 4e bd
       0.09175843 0.3489926 -0.17346932 -0.05048419
000240 de 00 26 bd 50 1d c9 be 1a e7 92 bf 0b b0 0f be
       -0.04052817 -0.39280176 -1.1476777 -0.14031999
000250 8e 7b 93 3e 74 59 1c 3b da 95 83 be 80 b8 ac be
       0.28805202 0.002385703 -0.25700265 -0.33734512
000260 ac 96 0e 3e df 72 62 be 2c a0 cd 3d 16 d4 f0 3d
       0.13924664 -0.22114132 0.10040316 0.11759202
000270 de 30 e3 bd 42 01 00 be 02 64 92 3c d8 32 87 3e
       -0.11093305 -0.1250048 0.017869953 0.26405978
000280 27 21 dd 3c d2 00 1a 3d df 3c 55 bd 2a 77 1d be
       0.026993347 0.03759844 -0.052060004 -0.15377489
000290 0f 3a 11 3e f2 cf e1 bd 95 71 ae 3e 27 a5 0c 3e
       0.14182304 -0.110259905 0.3407103 0.13734876
0002a0 c4 31 b3 3d 03 3a 9f bd e8 e3 9c 3e ed 73 34 3e
       0.087497264 -0.07774737 0.3064263 0.17622347
0002b0 d1 1b 92 be cc ce f7 bd d8 a4 4e be 09 a6 49 3e
       -0.28536847 -0.1209999 -0.2018007 0.19692244
0002c0 53 ea bb be 5f 23 fa 3d 9f 1a c1 3d c6 fc 35 3e
       -0.36702213 0.12213778 0.09428906 0.17772207
0002d0 ab 3a 87 bd 28 b3 b8 bd c8 6d 36 3e 9e 37 1a be
       -0.06602987 -0.09018546 0.17815316 -0.15060279
0002e0 fb 08 32 3d 6a 75 18 be 9f d7 14 3e f2 91 14 be
       0.043465596 -0.1488854 0.14535378 -0.14508799
0002f0 ce 80 fd 3d 5c d6 94 3e bc d4 f0 3c cf bc cc 3d
       0.12378083 0.29069793 0.029398315 0.0999695
000300 37 2c dc 3e 4b 07 0b be 32 f9 6a 3d 0a 89 14 3e
       0.43002483 -0.13577001 0.057366557 0.14505401
000310 e6 2c c2 bd e5 12 6e be 82 99 22 3d 11 51 fb bd
       -0.0948122 -0.23249395 0.039697178 -0.122713216
000320 8b ba cb bd 05 ff 73 be 53 bc 40 3e 8e e5 00 be
       -0.099476896 -0.23827751 0.1882184 -0.12587568
000330 db e1 96 be 84 c3 c6 bc 80 e6 6d 3e dd 37 af 3e
       -0.2946919 -0.024263151 0.2323246 0.34222308
000340 08 50 94 3e 26 73 b6 3d f7 dc ae be 74 fc 6a 3e
       0.2896731 0.089086816 -0.34152958 0.22947866
000350 e2 d8 25 be 53 d0 2f 3d 5e aa 13 be 9c c9 43 be
       -0.16196015 0.042923283 -0.14420459 -0.19119877
000360 64 af 9a 3d e1 e3 39 3d 77 9e 1a be b2 eb 48 bc
       0.07552984 0.045383338 -0.15099512 -0.012263225
000370 89 f1 8c bb 20 8c 9a 3d dd 61 97 bc 53 0e 99 3c
       -0.004301254 0.07546258 -0.018479282 0.018683588
000380 9c bb 82 be f7 14 ce 3c 9b 72 a4 bd 88 05 7e 3d
       -0.2553376 0.025156481 -0.08029672 0.062016994
000390 25 74 d1 bc e8 c0 5e 3e 99 82 5d bd 37 e0 12 be
       -0.025568077 0.21753275 -0.054079626 -0.14343344
0003a0 62 3b 9a bd af 36 e6 bd ff 21 37 bd 21 04 81 3e
       -0.075308576 -0.11240899 -0.044710156 0.25198463
0003b0 2b 6c e5 bd 78 0a 81 be 37 69 c8 3b 24 53 23 3e
       -0.11202272 -0.252033 0.006116058 0.15949684
0003c0 f4 dd 0f be 21 3a 96 3e 02 fb ad bd
       -0.14049512 0.29341224 -0.084951416

bias f4 [9]
000000 4e 1e 1c 3f f1 a6 30 be 0f 74 51 3f f8 f2 20 3f
       0.6098374 -0.17251183 0.81817716 0.6287074
000010 83 c3 49 3e ab d3 49 3f 8b b9 09 3f 66 67 e0 3e
       0.19703488 0.78838605 0.5379874 0.43828887
000020 d5 b7 3a be
       -0.18234189

weight f4 [3, 9]
000000 de f8 f0 3e 15 1d a6 be d9 aa 35 bf a9 d1 eb 3e
       0.4706487 -0.32444063 -0.7096382 0.46058396
000010 13 3d 3b bf fb a0 2c bf be 31 9f be f1 e5 35 3f
       -0.73140067 -0.67433137 -0.31092638 0.7105399
000020 0e e4 04 be bc a3 64 bf d9 4f bc be b4 e9 92 be
       -0.12977621 -0.8931234 -0.3677967 -0.28693926
000030 33 21 fd 3e 11 ad b0 bd db 29 8a 3d 5f 31 5f 3f
       0.49439391 -0.0862676 0.067462645 0.8718471
000040 d7 ec 9f 3e 5f 34 0f 3e 65 94 f8 bd d6 c4 51 3e
       0.31235382 0.13984822 -0.12137679 0.20485243
000050 f5 ab 0b bf ba 5e a2 bf 06 51 a5 be 73 32 8b 3f
       -0.5455926 -1.2685158 -0.32288378 1.0874771
000060 23 50 9b 3c 19 12 e7 3e 37 2a a9 be
       0.01895911 0.45130995 -0.3304002

bias f4 [3]
000000 72 04 8f 3e 83 ae 52 be b4 df db bd
       0.2793308 -0.20574383 -0.10736027

weight f4 [9, 3]
000000 bf 31 8f 3e 82 d9 66 3f fe 00 6c bf 01 af 98 be
       0.2796764 0.9017564 -0.92189014 -0.29821017
000010 63 73 c3 be 53 e8 a2 3d c6 23 da bd ac a8 4c 3d
       -0.3817397 0.079544686 -0.106513545 0.049965546
000020 1f cd 93 be 82 08 d8 3e d7 8e 9a 3e ec c6 88 3f
       -0.28867432 0.4219399 0.30187103 1.0685706
000030 42 99 1e be 7e 2f 18 bf cf 77 03 3f 15 f7 90 bf
       -0.1548815 -0.5944747 0.5135469 -1.1325403
000040 83 e7 95 be 86 72 8d be 16 09 e4 3e 2d 76 60 3e
       -0.29278192 -0.27626437 0.44538182 0.2192008
000050 ee 45 a0 3e 55 3e 50 3f a2 13 45 bf a7 a8 30 bf
       0.31303352 0.8134511 -0.7698308 -0.69007343
000060 77 b6 08 bf 5d d4 f0 3e 54 28 0c 3f
       -0.5340342 0.4703702 0.54749036

bias f4 [9]
000000 47 6c a5 3e 4c 5e 3b 3f 77 23 d9 3f 5e 97 32 be
       0.32309172 0.7319076 1.6963948 -0.17440554
000010 e4 66 af 3e 80 88 6d be 4d cb 90 3f 50 3b 1c 3e
       0.34258187 -0.23196602 1.1312042 0.15257001
000020 92 2a f5 3e
       0.4788404

weight f4 [27, 9]
000000 62 f9 0a 3f 19 d3 96 3d 0a 15 54 be cd c6 81 3e
       0.5428678 0.073644824 -0.20711151 0.25346985
000010 4d 1c 01 3f af b2 9b 3e f2 c1 7a 3e 0c c1 fc 3e
       0.5043381 0.30409762 0.24488047 0.49366033
000020 85 71 e1 3e dd d4 38 3d dd 0d 20 bf 0e 5a 1a 3f
       0.4403192 0.045124877 -0.62521154 0.6029366
000030 b2 c7 17 be fc bb db be 29 e3 8c bd ed 45 1f 3e
       -0.14822271 -0.42916858 -0.06879265 0.15554018
000040 d0 0c 64 be 9c 80 72 3c a1 32 4f be f7 6f 02 be
       -0.22270513 0.014801171 -0.20234157 -0.12738024
000050 e1 d7 37 3e 7b d9 c2 3d 31 a7 7c 3c 30 0b 88 bc
       0.17953445 0.09514137 0.015420721 -0.016606897
000060 90 33 c8 bd 05 e9 26 bc da 2c 2d bd b9 14 aa be
       -0.0977546 -0.010187392 -0.042279102 -0.33218935
000070 ff 28 1c 3d dc 37 10 3f c4 63 db be ed 60 67 be
       0.038125034 0.56335235 -0.42849553 -0.22595568
000080 a4 36 cb be 21 03 a6 3d 01 85 b4 bd bb 8c 09 bf
       -0.39690125 0.081060655 -0.08814431 -0.5373036
000090 11 9f 87 bd e2 4d ca bd 3e 04 d7 3b 0c 65 93 be
       -0.066221364 -0.09878136 0.006561785 -0.2878803
0000a0 59 bd be 3d 14 6f b7 bc 5a aa b1 bd 84 93 37 be
       0.09313459 -0.022391833 -0.0867507 -0.17927366
0000b0 76 0c 21 3e 83 37 8a 3e 9f 43 a2 bd 0c 38 65 3d
       0.1572741 0.26995477 -0.07923054 0.055961654
0000c0 4e 82 2a 3e 42 fa c7 3e 27 23 ab 3d 89 32 37 bd
       0.1665127 0.3905812 0.08356314 -0.04472593
0000d0 cc 41 72 3e ee 2d 3e 3e 5e 1a 72 be f2 29 04 3f
       0.23657912 0.18572208 -0.23642871 0.51626503
0000e0 d7 8c 57 3f 53 91 65 3d d7 1d 63 bd f2 28 e5 bd
       0.8419928 0.056046795 -0.05544838 -0.1118945
0000f0 4c 64 1d bf 5f 2e c2 be 1d d9 a8 3d b6 1d 24 bf
       -0.61481166 -0.37926003 0.08244536 -0.64107835
000100 f8 5e 49 3d c7 86 ec 3e 3b 92 fc be c6 7a c8 be
       0.049162835 0.46196577 -0.49330315 -0.3915617
000110 78 31 01 bf 94 09 f0 3d e9 bf f9 be 20 33 8a be
       -0.5046611 0.11720577 -0.48779228 -0.2699213
000120 60 71 77 b9 cd fc f6 bd bc 35 03 3e 86 70 c2 3d
       -0.00023597991 -0.12059937 0.12813467 0.094941184
000130 fa d2 1f bc af 7a 3f be e4 ee e4 3d 2e 2c 0e 3e
       -0.009754891 -0.18699144 0.11178377 0.1388404
000140 b9 22 cc be c1 d3 8b be fe 0d 3d be 5c 0d aa be
       -0.3987024 -0.27309993 -0.18462369 -0.33213317
000150 f2 34 53 bd d0 08 57 be 0c cc 82 be 38 b8 70 be
       -0.051564164 -0.20999455 -0.255463 -0.23507774
000160 1c fa 82 bd fa b5 3a 3e e9 a0 fe bd 34 31 e2 3c
       -0.06395361 0.18233481 -0.12433035 0.027611353
000170 58 3b bd bd 78 7c 5f be c4 d3 4f 3e f3 94 4a be
       -0.092398345 -0.21824825 0.20295626 -0.19783382
000180 a5 62 b4 3e c4 e2 b1 be dc 0b 19 3e 39 8a ca be
       0.3523151 -0.3474332 0.1494593 -0.3955858
000190 75 01 88 be 72 6f 22 3e 9d e6 92 be 15 16 51 bd
       -0.26563612 0.15862826 -0.2869157 -0.05104645
0001a0 93 cf 70 be 6b 6d 58 3f 25 5e a9 be fd 9b 36 be
       -0.23516683 0.8454196 -0.3307964 -0.17832942
0001b0 c4 26 52 3d c8 ca 84 be b1 01 0f bd 25 b1 84 be
       0.0513065 -0.2593596 -0.034913722 -0.259164
0001c0 4f 9d 5f 3e dd 94 04 3e 49 bf d8 bc 31 83 a5 3c
       0.21837352 0.12947412 -0.0264584 0.020204158
0001d0 6a 18 e5 bd fd 42 a6 be 55 6e 43 be 37 24 06 3e
       -0.11186297 -0.32472983 -0.19085057 0.13099752
0001e0 7b ae 00 3e ee 7c 93 be ff 36 ca bc 24 77 2b be
       0.12566559 -0.2880625 -0.024684427 -0.16744667
0001f0 bf c9 9e 3d b3 8e 14 be 2e 33 4d be ce 86 bc be
       0.07753324 -0.1450756 -0.20039055 -0.36821598
000200 3a ce 00 3f bc 04 94 be 6b 9c 83 bd 83 2b 43 be
       0.50314677 -0.28909862 -0.06426319 -0.19059567
000210 6b 17 32 3c 8a 50 38 bf e4 81 af 3e 18 00 e1 be
       0.010869841 -0.7199789 0.34278786 -0.43945384
000220 33 6d c3 3d 86 d4 46 3e f5 96 fd be 34 e0 39 3e
       0.095423125 0.19417009 -0.49529234 0.18151933
000230 e8 c0 dd be b7 79 34 3e 6d b2 47 bd 69 81 19 bf
       -0.43311238 0.17624556 -0.048754144 -0.5996309
000240 3c 0d 9f 39 60 48 70 3e 61 25 3f 3f 93 a0 a6 be
       0.00030336704 0.23465109 0.7466641 -0.32544383
000250 f3 69 96 be c9 a3 3a bc 91 1e c3 be ea 78 28 bd
       -0.29377708 -0.0113915885 -0.38109258 -0.041130938
000260 59 25 e8 be a1 ab 49 bd c2 6e 54 be b2 32 8a be
       -0.45340994 -0.049235944 -0.20745376 -0.26991802
000270 15 88 3a 3e 2f 63 59 be a6 3e 08 be 0e 44 b3 be
       0.18215974 -0.21229242 -0.13305148 -0.3501286
000280 50 04 2c be 29 8b 04 3e b4 c2 bc be 1e 04 2b be
       -0.1679852 0.1294371 -0.36867297 -0.1670079
000290 42 5e a2 3e 99 a5 c4 bc 0e 71 7b be d7 a4 2f be
       0.31712538 -0.024004744 -0.24554846 -0.17152725
0002a0 16 f8 33 3f 71 28 a4 bd 90 4e d7 be 11 14 4c 3e
       0.70300424 -0.08015526 -0.42052126 0.1992953
0002b0 dd b3 83 be a2 74 85 bd 71 be 21 3e 33 56 9e be
       -0.25723162 -0.065163866 0.15795304 -0.3092514
0002c0 77 ad 16 3e f8 2a cb bd 5c 47 cd 3d 28 45 a6 bc
       0.14714609 -0.09920305 0.10023376 -0.020296648
0002d0 4a e5 77 bb 13 63 d8 bd e3 70 2f be a0 80 84 be
       -0.0037825876 -0.10565772 -0.17132907 -0.25879383
0002e0 6c 7e db bc a7 f8 1e 3e a9 bd 9a be 0a ff c1 3c
       -0.026793681 0.15524541 -0.30222824 0.023681182
0002f0 7d 9b 11 3d da c3 8a be 3f 1a 87 3c ce a9 9b bd
       0.035548676 -0.27102548 0.016492007 -0.07600747
000300 ea 5d 68 be c3 c0 b9 3d 5c fb 2f be 33 89 93 3e
       -0.22692075 0.090699695 -0.1718573 0.28815612
000310 3b c7 a3 be 8f 5a c0 3d 68 02 31 be 20 2b 50 3d
       -0.31987938 0.09392273 -0.17286074 0.050822377
000320 98 4d 21 be 1f 20 f3 3d af b5 0f bd 48 63 d4 bc
       -0.15752256 0.11871361 -0.035085376 -0.025926247
000330 07 1e 5d be 14 df ad 3d c2 f4 05 3e 96 02 fc be
       -0.21593486 0.084898144 0.13081649 -0.49220723
000340 5c bb 03 3e 7d b7 b3 3e b7 4e 83 be f1 82 be bc
       0.1286444 0.35100928 -0.25645992 -0.023255797
000350 c1 a7 87 be bb e0 9a 3e 97 3a 9e be 54 16 77 bc
       -0.26495174 0.3024958 -0.30904076 -0.015081007
000360 1f b6 33 bf a1 fb 90 3e 9e 5f 60 3e 03 50 bf be
       -0.7019977 0.28316978 0.21911475 -0.37365732
000370 4d 23 59 3e 3e 6a e0 be f9 8f 80 3e 8a 46 8b be
       0.21204872 -0.43831056 0.25109842 -0.27202255
000380 b7 e6 b5 bd b1 7d de be 4b 8c a0 be 46 5b 4d 3f
       -0.08881896 -0.4345527 -0.31357035 0.802174
000390 d8 a5 07 bf 65 1a 03 bf 55 b1 fa be b6 fd 61 3d
       -0.5298743 -0.5121215 -0.4896342 0.0551736
0003a0 ec 19 c1 be bb 4c b2 be c2 af 7b be 26 ce bd 3e
       -0.3771509 -0.34824166 -0.24578765 0.3707134
0003b0 e7 ef e0 3e c2 39 90 be 7d 23 0a be e6 a4 05 bf
       0.4393303 -0.28169066 -0.134901 -0.5220474
0003c0 8e f7 19 be ad 21 1d bf 9e 12 5f 3e
       -0.15035841 -0.6137951 0.21784446

bias f4 [27]
000000 c4 13 77 bf c4 93 1e 3f aa d9 1f be 76 15 3d 3f
       -0.96514535 0.6194422 -0.15610376 0.7386087
000010 08 d7 11 be ed a5 06 bf 4b 68 05 3e e6 e1 9f 3f
       -0.14242184 -0.5259693 0.13028066 1.2490814
000020 be c0 a4 3e 67 31 6b 3e 2c 4a ae 3e 0f 48 16 3f
       0.321783 0.22968064 0.34040964 0.587037
000030 eb 55 c1 be f8 c7 45 3d 6e 01 5c 3f 07 b7 8d 3f
       -0.37760863 0.04828641 0.8593968 1.107148
000040 74 16 8e 3e a9 43 26 bd 72 bb ab 3e 9a 2c ae be
       0.27751505 -0.04059187 0.33541447 -0.34018403
000050 4f 98 a1 be 0d 54 31 3f ec 7d b2 3e 86 be ad 3e
       -0.31561515 0.69268876 0.34861696 0.3393442
000060 75 a0 53 3f 2c 10 91 3f 2c e6 30 3f
       0.82666713 1.133306 0.69101214

weight f4 [60, 27]
000000 ba 90 a4 be b0 36 17 bf 5d 83 94 bc 69 87 6a 3e
       -0.32141668 -0.5906782 -0.018129045 0.22903217
000010 a8 05 b8 ba bd 6c 01 be a2 a7 25 3d 1a 57 ea 3e
       -0.0014039772 -0.12639137 0.04044307 0.45769578
000020 f4 77 0d bd 50 fa 57 bd 8a 3a 89 3d 41 04 bc 3d
       -0.034538224 -0.05272895 0.067006186 0.09180499
000030 ce af c3 3d be 36 5b 3d 65 56 b1 be bd 10 01 3f
       0.095550165 0.053519003 -0.34636226 0.50416166
000040 66 ce 4a bd a5 1e fe bb de 1a 5d 3d 92 35 ee 3d
       -0.049513243 -0.007755118 0.0539807 0.116313115
000050 20 1d 1b be f2 a7 14 be bb 2e b5 bd 4c e5 82 3d
       -0.15147829 -0.14517191 -0.08846804 0.06391391
000060 9c 84 bf 3e 37 70 6c be fe 2a a9 bc 2f b5 aa be
       0.3740586 -0.23089682 -0.020650383 -0.33341357
000070 86 eb 08 bf 9d aa 25 be 28 19 90 3e 44 55 5e bd
       -0.5348438 -0.16178365 0.28144193 -0.054280534
000080 a0 3f 97 bd a9 6a 1b 3d 9d 09 e6 3e 69 13 33 bd
       -0.073851824 0.037943516 0.4492921 -0.043719683
000090 02 2a bf bc 50 e2 33 bd 69 81 b8 3d bb 91 9d bd
       -0.02333546 -0.043917 0.09009058 -0.076938115
0000a0 32 6d bf 3d ea c7 b7 be 17 3d dd 3e 66 a9 32 bd
       0.09346999 -0.3589471 0.4321067 -0.043618582
0000b0 9d 7f 63 3d 0a 62 78 3d 8b a5 be 3c 65 ff 9c bc
       0.055541623 0.060640372 0.023272296 -0.01916475
0000c0 1f 30 84 bd eb 15 04 3d b0 c5 07 bc af 06 e1 3e
       -0.06454491 0.032247465 -0.0082868785 0.43950412
0000d0 ca 74 8a be 68 fb bf bc 2f 1d a4 be b9 3d 00 bf
       -0.27042228 -0.02343531 -0.32053515 -0.5009418
0000e0 1b 91 b9 3a 90 ad 70 3e 84 d2 31 3d 28 c2 8b bd
       0.0014157625 0.23503709 0.043413654 -0.06824142
0000f0 e4 2a 6c 3d 43 1c d9 3e 45 d1 a1 3d 3f 91 9f bd
       0.05765809 0.42404374 0.07901243 -0.07791375
000100 f7 62 00 3e d0 37 73 3d 95 cd 31 be f3 6e 36 3e
       0.12537752 0.0593794 -0.1736358 0.17815761
000110 1e 01 b1 be 4b 03 db 3e 64 b0 73 bc 5b ee 09 be
       -0.34571165 0.4277595 -0.014873598 -0.13469832
000120 24 59 ae 3c c0 8a d8 bd cd 15 26 3e 00 33 2f be
       0.02128274 -0.105733395 0.16219254 -0.17109299
000130 a2 18 24 bd f6 2a 6c 3c 90 ec df 3e 80 57 91 be
       -0.040062554 0.01441454 0.4373517 -0.2838707
000140 ae 4c 76 bd 31 03 8e be 65 c9 f8 be 07 4e 2e 3e
       -0.06013172 -0.2773681 -0.48591152 0.17021953
000150 3c 15 1b 3e f5 c5 33 3e 04 3a 82 bd 09 85 87 3c
       0.15144819 0.17555983 -0.06358722 0.016542928
000160 c2 a0 a0 3e 10 28 e4 3c 7c 86 70 bd 63 ad c0 bc
       0.31372648 0.027851135 -0.058722004 -0.023520177
000170 cd b8 5d 3d 65 67 37 bd 29 f4 e4 bd 8b 9c c2 be
       0.054131318 -0.04477634 -0.11179382 -0.38010058
000180 74 4e ea 3e c9 26 25 3d c3 02 fd 3d 80 45 14 3d
       0.4576298 0.04032019 0.123540424 0.036199093
000190 a9 fe 92 3d 62 fb a0 3c 9f 0b a6 bd 11 fc 8c 3d
       0.07177479 0.019651119 -0.08107685 0.06884015
0001a0 7c 24 44 3d 80 51 ca 3e 04 94 65 be d0 e8 16 bc
       0.047886357 0.39515305 -0.22419745 -0.00921078
0001b0 ff bc 5b be ef 52 e6 be a8 3b d0 bd 53 97 1d 3e
       -0.21458815 -0.44985148 -0.101676285 0.15389757
0001c0 36 45 20 3e 50 04 b2 bd c0 0d 9e 3c 63 43 80 3e
       0.15651402 -0.08692229 0.019293666 0.25051412
0001d0 92 ef c2 3d 43 95 31 3e d6 37 fe 3b fc 97 50 3d
       0.09518351 0.17342095 0.007758121 0.050926194
0001e0 4a 73 29 3e e9 0d 61 3d 99 0f c5 be 97 06 d5 3e
       0.16547886 0.054944906 -0.38488463 0.4160659
0001f0 5b ac 14 3d b3 b0 af bc a7 34 6e bd c6 ae f6 bb
       0.036297183 -0.021446561 -0.058155682 -0.007528159
000200 de be 21 be 87 2d 3f be 0a 66 14 3c 62 c7 30 3e
       -0.15795466 -0.18669711 0.009057531 0.17263559
000210 6a ec b7 3e 47 85 6b be af b6 80 bd 9e 5b 20 be
       0.35922557 -0.2300006 -0.06284844 -0.15659949
000220 28 ea c9 be d0 8c ba 3d 34 7d 21 3e 4d d9 88 bc
       -0.3943646 0.09108889 0.15770417 -0.01670518
000230 fd d4 5d bd 3c 21 95 3c d9 1c f3 3d 5f 17 2a 3d
       -0.0541582 0.018204324 0.11870737 0.041526195
000240 35 d8 7c 3d 5f 11 00 be 10 e9 40 bc c2 b3 0a 3e
       0.06172963 -0.12506627 -0.011774316 0.13545135
000250 2d 3f 48 bd 99 65 b7 be 02 59 cb 3e d9 aa b3 3d
       -0.048888374 -0.358197 0.39716345 0.08772821
000260 73 8f 82 bd cc 4d 99 3c fb 21 48 3d 8f b4 78 3b
       -0.06375017 0.018713854 0.04886053 0.0037949418
000270 21 88 81 bd d4 1b db 3d f7 a5 35 3e 7e 7e be 3e
       -0.06324793 0.10698667 0.17739092 0.3720588
000280 73 cd 53 be 78 92 a9 bd 89 e4 cc bd 63 9e a9 be
       -0.20683841 -0.0827989 -0.10004527 -0.33128652
000290 66 c3 11 be 10 16 04 3e bf ba a5 3d 0d 45 52 bd
       -0.14234695 0.12899041 0.080922596 -0.051335383
0002a0 1d c1 0d 3d 72 66 a7 3d 32 b2 d0 3d 85 26 e8 bd
       0.034607995 0.08173837 0.10190238 -0.11335472
0002b0 f1 8d d0 bd f7 ef 06 be 4b 41 c2 bd 9a 1e 37 3e
       -0.10183323 -0.13177477 -0.0948511 0.17882767
0002c0 76 74 9f be 6b 5e c3 3e de 24 06 3e 08 a2 8b 3d
       -0.3114354 0.38157973 0.13100001 0.068180144
0002d0 7d 53 4c 3d c7 fd 45 3a 90 ff d1 bd b4 96 10 3d
       0.049884308 0.00075527694 -0.10253823 0.03529997
0002e0 72 17 2c 3c 8e 0a 1a 3e fd 6f b9 3e 1b 2b 67 be
       0.010503637 0.15043089 0.36218253 -0.22575037
0002f0 73 f9 2d be 56 97 f4 bd 87 99 97 be af d0 7c bd
       -0.16989689 -0.119429275 -0.2960932 -0.061722454
000300 9b a4 0a 3e ea 8c 14 bd 3d ab d0 3d 3e b7 46 3d
       0.13539355 -0.0362672 0.10188911 0.048514597
000310 f4 c9 c7 3b 7d 17 d3 3d 3b df 12 be de 56 27 be
       0.0060970727 0.103072144 -0.14342968 -0.16341731
000320 5d 41 99 bd 14 f7 5c bd 9b 16 01 bb 24 27 ae be
       -0.0748317 -0.05394657 -0.0019697312 -0.34014237
000330 34 cf b4 3e 23 41 01 3e a9 9b 81 bd a2 15 0b bc
       0.35314333 0.12622504 -0.06328518 -0.008489044
000340 38 5a 30 3e ed 13 33 3e df c2 e3 bb 8e 90 05 3e
       0.17221916 0.1748807 -0.0069507207 0.13043424
000350 08 74 19 3e bd 88 97 3e 39 7a 64 be 38 81 0d be
       0.14985669 0.2959651 -0.22312249 -0.13818824
000360 c0 a2 13 bc c1 91 51 be 0c bf c7 3d 8a e0 c2 3d
       -0.009010971 -0.20465757 0.09753236 0.09515484
000370 2f cf 0c be 26 99 bc bc 31 0c c7 3d 31 d3 ce 3b
       -0.1375091 -0.023022246 0.09719122 0.006311797
000380 a5 ad 84 3e 5a 05 29 3e d4 d0 77 bd 0e 63 17 be
       0.2591373 0.16505948 -0.06050189 -0.1478388
000390 fd 50 19 3e 07 bd 10 3e fa aa 9a be 84 1d a5 3e
       0.14972301 0.14134608 -0.3020857 0.3224908
0003a0 94 b4 2b 3e 02 bf 01 3e 8b 7e 55 bd c9 94 92 3d
       0.16768104 0.1267052 -0.052122634 0.07157285
0003b0 45 99 15 be e1 00 65 3c 34 eb 05 3e 9c ce a9 3d
       -0.14609249 0.01397726 0.13078004 0.08291361
0003c0 d2 c0 a2 3e 28 f1 7d be e8 09 6a be 84 2f 58 bb
       0.31787735 -0.24799025 -0.22855341 -0.0032987306
0003d0 1e 1c 41 be b4 61 49 3d f0 5f b0 3d 4c e9 93 3d
       -0.18858382 0.049165443 0.086120486 0.07222232
0003e0 9c d4 22 3e 0e a0 b3 3d 16 39 c6 bd d8 40 3d 3e
       0.15901417 0.087707624 -0.09678857 0.18481767
0003f0 63 5f 2c bd c6 07 e0 bd d7 df 41 be ba 34 82 bd
       -0.042083155 -0.10938983 -0.18933044 -0.06357713

bias f4 [60]
000000 65 aa bf 3e 01 89 b5 3e bc 3f 9c 3e 9a 21 9a 3e
       0.37434688 0.35456088 0.30517375 0.3010376
000010 be 89 ae 3e d9 cf 53 3e 5a 5d ef 3d 0c ec 09 3e
       0.34089464 0.20684756 0.11687727 0.13468951
000020 f1 f3 8d bc ad 83 74 bd 2b ba 58 be 2f 3d 5b be
       -0.017328234 -0.05969589 -0.21164767 -0.21410058
000030 c8 79 52 be f5 15 9f be 1d 3c ae be a3 4a 98 be
       -0.20554268 -0.3107144 -0.34030238 -0.29744443
000040 f9 37 56 be 30 22 54 be 5d 3a 79 be e7 82 3d be
       -0.2091979 -0.20716166 -0.2433867 -0.18506967
000050 b2 5d 2a be 4e c1 63 bd c6 82 4a 3c be 5d af 3d
       -0.16637304 -0.05560427 0.01236028 0.08562802
000060 b3 25 00 3e f0 88 53 3e c4 da 83 3e 93 bc a1 3e
       0.12514381 0.20657706 0.25752842 0.31589183
000070 57 00 83 3e 3c 5b 8a 3e a7 22 83 3e 29 9d 37 3e
       0.25586197 0.2702273 0.25612375 0.17931046
000080 50 e2 25 3e c7 65 b3 3c 87 df 04 3e 79 b4 4e bc
       0.16199613 0.021899117 0.12975894 -0.01261627
000090 39 ed 98 3c 21 d6 09 be 92 98 9d bd 1a 3e 09 be
       0.018667804 -0.1346059 -0.07695116 -0.13402596
0000a0 fb f4 11 be a3 fa 8c be 0c fc 54 be de 77 cb be
       -0.14253609 -0.2753497 -0.20799273 -0.3973989
0000b0 89 b9 c4 be d3 1b 8c be 0c 76 a8 be 04 c2 91 be
       -0.38422802 -0.27364978 -0.32902563 -0.28468335
0000c0 dc b0 d4 bd 2a ae e1 bd ad 81 c7 bd f1 bc 70 bd
       -0.10385296 -0.11019547 -0.097415306 -0.05877394
0000d0 3c 94 61 bd a4 a0 ea 3c 60 62 e3 3d fb 8e f3 3d
       -0.055073008 0.028641053 0.11102748 0.11892506
0000e0 fa f1 5f 3e ac 5c 94 3e 5d 24 7a 3e e5 c8 94 3e
       0.2186965 0.28976953 0.24427934 0.2905952
