knn/models/pretrained-autoencoder/autoencoder-in_features30-latent_size3.pt (torch, 28741 bytes, 12 tensors)

weight f4 [27, 30]
0	0xbd2785d7	-0.040899124
1	0xbd619fe6	-0.05508413
2	0xbd369bd3	-0.0445822
3	0xbd8cd1e2	-0.068759695
4	0xbdb717de	-0.08940099
5	0xbdacee7f	-0.08443927
6	0xbde29d45	-0.11065153
7	0xbde3b704	-0.11118892
8	0xbdcbcb7b	-0.0995092
9	0xbdadc8dc	-0.084855765
10	0xbd6eb676	-0.058279477
11	0xbd09d479	-0.033649895
12	0x3c2875ea	0.010282019
13	0x3d5abe0e	0.053403907
14	0x3db5a5eb	0.08869537
15	0x3e1e00e5	0.15430029
16	0x3e3e8258	0.1860441
17	0x3e5ae53c	0.21376508
18	0x3e70fb14	0.23533279
19	0x3e76f338	0.24116218
20	0x3e5449da	0.20731297
21	0x3e33ab1a	0.17545739
22	0x3dfca8d9	0.12336893
23	0x3d923a37	0.0714001
24	0xbc8a55c2	-0.016886596
25	0xbda60fe1	-0.081084974
26	0xbe18a8ee	-0.14908192
27	0xbe601607	-0.21883403
28	0xbe884583	-0.26615533
29	0xbe91ee94	-0.28502333
30	0x3dd4f9b8	0.103991926
31	0x3dc01b88	0.09380251
32	0x3da36a91	0.0797931
33	0x3d65f021	0.056137208
34	0x3cecaf8b	0.0288923
35	0x3b833fce	0.004005409
36	0xbceda543	-0.029009467
37	0xbd5e1fcc	-0.054229543
38	0xbd9dc805	-0.07704166
39	0xbdc53bc6	-0.096305415
40	0xbddadcd7	-0.10686653
41	0xbde1c960	-0.11024737
42	0xbdc032cf	-0.09384691
43	0xbd9b6693	-0.07587924
44	0xbd573690	-0.05254227
45	0xbc35dc2d	-0.011099857
46	0x3c679681	0.014135004
47	0x3d682701	0.056677822
48	0x3dc86fd4	0.097869545
49	0x3e05e8c5	0.13077076
50	0x3e0fc498	0.14039838
51	0x3e1f7aee	0.15574238
52	0x3e1d7eec	0.15380448
53	0x3e1a11c6	0.15045843
54	0x3e027283	0.12738995
55	0x3deed08e	0.116608724
56	0x3dbddeb4	0.09270993
57	0x3d78bde8	0.060727984
58	0x3d5315de	0.051534526
59	0x3d0b69d7	0.034036484
60	0xbb3780e4	-0.0028000409
61	0xbc186ad5	-0.0093028145
62	0x3dd2af84	0.10287383
63	0x3df34406	0.11878209
64	0x3dde71e1	0.108615644
65	0xbdfdf092	-0.12399401
66	0x3c6babc5	0.014384215
67	0x3ce16333	0.027513122
68	0xbdede74f	-0.11616384
69	0x3d8e200e	0.06939708
70	0xbdb30d71	-0.08742798
71	0xbe1c17dd	-0.15243478
72	0x3cb77a79	0.022397267
73	0x3e2328c7	0.15933524
74	0x3cbd4815	0.02310566
75	0x3e6a0186	0.22852144
76	0xbcfd1958	-0.030895874
77	0x3ddfe854	0.10932985
78	0x3e128fbf	0.14312647
79	0x3d611307	0.054949787
80	0xbdbbced2	-0.09170307
81	0x3e06cd85	0.13164337
82	0xbdff2255	-0.1245772
83	0xbe18a284	-0.14905745
84	0xbda7927e	-0.08182238
85	0x3da563ed	0.080757
86	0x3dd45c51	0.103691705
87	0x3cf76224	0.030198164
88	0xbceab7a0	-0.028652012
89	0x3e02fe62	0.12792352
90	0x3e26b030	0.16278148
91	0x3e2b9035	0.1675423
92	0x3e12187a	0.1426715
93	0x3e16a74d	0.14712258
94	0x3e05f8a6	0.13083133
95	0x3e07b79d	0.13253637
96	0x3dcce25d	0.10004113
97	0x3dd19fb6	0.102355406
98	0x3dadd6cd	0.084882356
99	0x3db8ea76	0.09029095
100	0x3d7cbb64	0.061702147
101	0x3d832b91	0.06404794
102	0x3d11f166	0.035630606
103	0x3ca59530	0.02021274
104	0x3b8c765e	0.0042865714
105	0xbd240dc0	-0.040052176
106	0xbd9581f9	-0.07300181
107	0xbdd6889d	-0.10475276
108	0xbe0237aa	-0.12716547
109	0xbe1b71c1	-0.15180112
110	0xbe33c46b	-0.17555396
111	0xbe1ae98f	-0.15128158
112	0xbe121cdf	-0.14268826
113	0xbdf5c1ca	-0.11999853
114	0xbd9131e1	-0.07089592
115	0xbd3ade9b	-0.04562245
116	0x3beb18cf	0.0071745883
117	0x3d481294	0.048845842
118	0x3dab8036	0.08374064
119	0x3daf4845	0.08558706
120	0xbd320b7c	-0.043467984
121	0xbd79fe9f	-0.06103384
122	0xbd7cc643	-0.061712515
123	0xbd84242d	-0.064522125
124	0xbd846f4b	-0.0646654
125	0xbd2642e8	-0.04059115
126	0xbd00c009	-0.03143314
127	0x3c37fb9a	0.01122942
128	0x3d121ca6	0.035671853
129	0x3dc2df20	0.09515214
130	0x3e040a22	0.1289449
131	0x3e321946	0.17392454
132	0x3e4b136c	0.19831628
133	0x3e67822d	0.22608252
134	0x3e682101	0.2266884
135	0x3e48ae4d	0.1959774
136	0x3e203616	0.15645632
137	0x3dfc99e1	0.123340376
138	0x3d59c36d	0.05316489
139	0x3ae1c696	0.0017225321
140	0xbd8b7153	-0.06808724
141	0xbde6ac26	-0.112633035
142	0xbe073941	-0.13205434
143	0xbe0db1a1	-0.13837291
144	0xbe01c4eb	-0.12672774
145	0xbdeb2e7f	-0.11483478
146	0xbd9fe099	-0.078065105
147	0xbd31bf30	-0.04339522
148	0xbc36ad6b	-0.0111497445
149	0xbb0abd54	-0.0021169977
150	0x3e08382b	0.13302676
151	0x3e0ceb3c	0.1376161
152	0x3dad1c22	0.084526315
153	0x3db315d9	0.087444015
154	0x3d01932b	0.03163449
155	0x3cc32e21	0.023825707
156	0xbc983179	-0.018578278
157	0xbca4cf1a	-0.020118285
158	0xbd638742	-0.055548914
159	0xbc750af3	-0.014956224
160	0xbcaf16a0	-0.021373093
161	0x3cd239e6	0.025662374
162	0x3d0bd3c8	0.034137517
163	0x3d92ecb8	0.07174057
164	0x3dc862aa	0.09784444
165	0x3dcc967c	0.0998964
166	0x3dccec2b	0.10005983
167	0x3dc28c24	0.09499386
168	0x3d929a24	0.07158306
169	0x3d22f6d2	0.039786167
170	0xbc90bf06	-0.017669212
171	0xbd6b3df0	-0.057432115
172	0xbd97d6ae	-0.07413994
173	0xbde11b7d	-0.10991571
174	0xbddaf183	-0.10690596
175	0xbddb3e37	-0.10705226
176	0xbda272e6	-0.079320714
177	0xbd9b8f2d	-0.07595668
178	0xbd58dc8a	-0.052944697
179	0xbd3ad05a	-0.045608856
180	0x3d4fb6f1	0.050711576
181	0x3c65c4cc	0.014023971
182	0x3c1f409d	0.009719995
183	0xbcbdfcb7	-0.023191793
184	0xbd6fb113	-0.05851848
185	0xbd894b8e	-0.06703864
186	0xbdd6e8ce	-0.10493623
187	0xbe02ce82	-0.12774089
188	0xbe08a61b	-0.13344614
189	0xbdfa3fa0	-0.12219167
190	0xbdc7400d	-0.097290136
191	0xbdc3c9ca	-0.095599726
192	0xbd7a284a	-0.06107358
193	0xbd0c3345	-0.034228582
194	0xbcaac0eb	-0.020843944
195	0x3c3a5258	0.011372171
196	0x3cc6d277	0.02427028
197	0x3d165ffe	0.03671264
198	0x3d11ebd4	0.035625294
199	0x3d4d22f0	0.050082147
200	0x3d41e460	0.047336936
201	0x3d6ac439	0.05731604
202	0x3d7e7782	0.06212569
203	0x3db35a27	0.087574296
204	0x3dbac441	0.09119464
205	0x3deef8b3	0.11668529
206	0x3e01ecd3	0.12687998
207	0x3e19d51c	0.15022701
208	0x3e2714be	0.16316506
209	0x3e2956ee	0.16537067
210	0x3e2fe316	0.1717647
211	0x3c6a5d3f	0.014304458
212	0x3d267923	0.04064287
213	0xbdc14ccd	-0.09438477
214	0xbdba30ad	-0.090913154
215	0xbbfba018	-0.007678997
216	0xbd805569	-0.06266291
217	0xbce131eb	-0.027489623
218	0x3d2a8678	0.041632146
219	0xba37742e	-0.0006998208
220	0xbd9b74d0	-0.075906396
221	0xbd9ff830	-0.0781101
222	0x3cbcb8e2	0.023037378
223	0xbc1c3f5f	-0.009536593
224	0x3db47b82	0.0881262
225	0x3d8f8498	0.07007712
226	0x3e0faad9	0.14030017
227	0x3cb35de2	0.021895353
228	0x3d8c4fbb	0.06851145
229	0xbd89955f	-0.067179434
230	0xbdd37f99	-0.10327072
231	0xbdac28b4	-0.08406201
232	0xbd65dd62	-0.05611933
233	0xbdd1a3e0	-0.10236335
234	0x3e14a94f	0.14517711
235	0xbd63445a	-0.055485107
236	0xba4f9bd1	-0.0007919642
237	0x3d3174a9	0.043324146
238	0x3d9ec633	0.07752647
239	0xbd571de8	-0.052518755
240	0x3d15858a	0.036504306
241	0x3d2cf990	0.04223019
242	0x3d1d572f	0.038413223
243	0x3d0801f0	0.033204973
244	0x3ca3bde0	0.019988
245	0x3da0e35b	0.078558646
246	0x3cf9ceaf	0.030494062
247	0x3d890a1f	0.066913836
248	0x3d93b28f	0.07211792
249	0x3d95daf7	0.07317155
250	0x3dc750f5	0.09732238
251	0x3dd9f34e	0.1064211
252	0x3dc40a7e	0.09572314
253	0x3dab6445	0.08368734
254	0x3d83ee4f	0.06441938
255	0x3cbcdeb6	0.023055416

bias f4 [27]
0	0x3b76017f	0.0037537513
1	0x3e9cfdef	0.30662486
2	0xbeaf16d4	-0.34197104
3	0x3d08b1e4	0.033372775
4	0xba63e14f	-0.00086929364
5	0xbf1e9d09	-0.61958367
6	0xbec05fa7	-0.37572977
7	0xbe860524	-0.26175797
8	0xbe271ed1	-0.1632035
9	0x3d194ef8	0.037428826
10	0xbe80a6c8	-0.25127244
11	0xbd4956bd	-0.049154986
12	0xbe95d9c1	-0.29267696
13	0x3e9a1e34	0.30101168
14	0xbe864178	-0.26221824
15	0x3f4cd072	0.8000556
16	0xbdd67928	-0.104723275
17	0xbd879749	-0.06620652
18	0x3eaa19b0	0.33222723
19	0x3d6d284c	0.05789976
20	0x3e9ab094	0.30212843
21	0xbd1780dc	-0.036988124
22	0x3d6c48b3	0.05768652
23	0xbe9b249e	-0.30301374
24	0x3e6d489b	0.23172228
25	0x3d50c2de	0.05096709
26	0xbe44a3bc	-0.19203085

weight f4 [9, 27]
0	0xbd88fb9a	-0.06688614
1	0x3e065483	0.13118176
2	0x3e109b8c	0.14121836
3	0xbebf8d8b	-0.37412676
4	0xbd1ac462	-0.03778494
5	0xbea65620	-0.32487583
6	0xbd3483c6	-0.04407098
7	0x3e025754	0.12728626
8	0xbd897e6b	-0.067135654
9	0x3e57424d	0.21021385
10	0x3db88b95	0.09010998
11	0xbd37db88	-0.044887096
12	0xbef7a8e5	-0.48371044
13	0xbe744a57	-0.23856483
14	0x3e1da228	0.15393889
15	0x3e881f8e	0.26586574
16	0x3e40c0b7	0.18823515
17	0x3d720148	0.059083253
18	0xbccc3527	-0.024927689
19	0xbe0fcf6a	-0.14043966
20	0xbe79c4d8	-0.24391496
21	0x3de643fd	0.112434365
22	0x3db73a00	0.089466095
23	0x3e365e71	0.17809464
24	0x3ecc74a3	0.39932737
25	0xbda0a055	-0.07843081
26	0xbe9420df	-0.2893133
27	0xbe2f2fa8	-0.17108023
28	0xbd7b6bb5	-0.061382014
29	0x3d9498ef	0.07255732
30	0xbdefca7c	-0.11708543
31	0xbde3b2f5	-0.11118118
32	0xbdeab231	-0.114597686
33	0xbea0a251	-0.31373838
34	0x3e223dd2	0.15843895
35	0xbe715525	-0.23567636
36	0x3de40161	0.111330755
37	0x3d694f14	0.05696018
38	0xbd673f12	-0.056456633
39	0xbe5ed5f4	-0.21761304
40	0x3dfe120f	0.12405788
41	0xbee9b54f	-0.4564614
42	0x3ed39ab8	0.4132898
43	0xbdd6e4f1	-0.10492886
44	0x3e494373	0.19654636
45	0xbf954cde	-1.1664083
46	0xbe306fe5	-0.17230184
47	0x3d3c93a0	0.046039224
48	0x3d368fc4	0.0445707
49	0xbf3c0eb3	-0.7345993
50	0x3e68ac84	0.2272206
51	0xbcc46f0a	-0.023978729
52	0xbe27e5fc	-0.16396326
53	0xbcd75e10	-0.02628997
54	0xbe143a1e	-0.14475295
55	0x3dc93fb9	0.09826607
56	0x3d8fc8f6	0.07020752
57	0xbdc89c6e	-0.097954616
58	0xbe2d5939	-0.16928567
59	0x3d49b963	0.049249064
60	0x3defe9f7	0.11714547
61	0xbc8309de	-0.015995916
62	0xbc66c02c	-0.014083903
63	0x3d59fb15	0.053217966
64	0x3dfcfd70	0.12353027
65	0x3d78e3eb	0.060764235
66	0xbe9e1f4d	-0.30883256
67	0xbd7e6ad9	-0.062113617
68	0x3dea718c	0.114474386
69	0x3e5b4261	0.2141204
70	0x3ebca574	0.3684498
71	0xbbc497c8	-0.005999539
72	0xbeac58e5	-0.3366157
73	0xbe253549	-0.16133608
74	0xbcbd15db	-0.02308171
75	0xbd393f7e	-0.045226566
76	0xbe696011	-0.22790553
77	0x3d5a2052	0.05325348
78	0x3e3a3f66	0.18188247
79	0xbc9c3161	-0.019066514
80	0x3c8d22c5	0.017228493
81	0xbe895919	-0.2682579
82	0x3ea011e0	0.31263638
83	0x3dfe1045	0.12405447
84	0xbdf24b55	-0.11830775
85	0xbf001d07	-0.5004429
86	0xbe9743ab	-0.29543814
87	0x3d5b261b	0.053503137
88	0x3de3f919	0.11131496
89	0x3db0d9e2	0.08635308
90	0x3e07daf5	0.13267119
91	0x3cb17da4	0.021666355
92	0xbec8d153	-0.39222202
93	0xbd433b17	-0.047663774
94	0x3ebd3ee0	0.36962032
95	0xbdd49f71	-0.103819735
96	0x3eabb5d1	0.33537152
97	0x3e805935	0.2506806
98	0x3daf55da	0.08561297
99	0xbe04c790	-0.12966752
100	0xbe576cf0	-0.2103765
101	0xbe1fefa2	-0.15618756
102	0xbd515fe1	-0.051116828
103	0x3dd068a0	0.10176206
104	0x3dca4081	0.098755844
105	0x3cc7e4c2	0.024401072
106	0xbbc36a49	-0.005963598
107	0xbde950fb	-0.11392399
108	0x3d255482	0.040363796
109	0xbeb7bc08	-0.35885644
110	0x3e12c965	0.14334638
111	0xbde766c1	-0.112988956
112	0x3e480bb9	0.19535722
113	0x3dcf97d5	0.101363815
114	0xbe81353e	-0.25235933
115	0x3dacd9a6	0.08439951
116	0x3dc51ac8	0.09624249
117	0x3e19dba5	0.15025194
118	0x3dfe6c95	0.12423054
119	0x3c3d0488	0.011536725
120	0xbec51a7f	-0.38496777
121	0xbea9e1a5	-0.33179966
122	0xbdbbfcf6	-0.09179108
123	0x3ecc858b	0.39945635
124	0xbe7681bd	-0.24072929
125	0x3d3f2afb	0.04667185
126	0xbe1e2dcc	-0.15447158
127	0x3e9d1054	0.3067652
128	0xbd96bd12	-0.07360281
129	0x3cead053	0.02866379
130	0xba7a77b7	-0.0009554582
131	0x3e33e52f	0.17567895
132	0x3dbaa4cc	0.09113464
133	0xbda6100a	-0.08108528
134	0x3c96c016	0.01840214
135	0xbe8ea75d	-0.27862063
136	0xbe33beaf	-0.17553209
137	0x3ded026d	0.11572728
138	0xbdbd48ab	-0.09242376
139	0xbd2ef6ff	-0.042716023
140	0xbecb4c7c	-0.3970679
141	0xbe088b38	-0.13334358
142	0x3dc26560	0.09491992
143	0xbd32b303	-0.04362775
144	0x3deaa595	0.114573635
145	0x3e20d66e	0.15706798
146	0xbd9c152a	-0.07621224
147	0xbe7a4481	-0.24440195
148	0x3de9ea3b	0.11421629
149	0xbe348d9e	-0.17632148
150	0x3e21a590	0.15785813
151	0xbd44273e	-0.047888987
152	0x3da98de1	0.082790144
153	0xbdd0af8b	-0.10189732
154	0x3e050837	0.12991415
155	0xbf879934	-1.0593629
156	0x3c983da7	0.018584086
157	0x3e8f7592	0.28019387
158	0x3cac8973	0.021061635
159	0x3c9c08fb	0.019047251
160	0xbe659d0b	-0.22423188
161	0xbd3174cc	-0.043324277
162	0xbf0d2d61	-0.5514737
163	0xbe2aaa68	-0.16666567
164	0x3da3cfab	0.07998594
165	0xbd3c385a	-0.04595218
166	0x3d795672	0.060873456
167	0xbda91c0b	-0.08257302
168	0xbe95a55f	-0.2922773
169	0x3cfe57ea	0.03104778
170	0xbdd74938	-0.10512012
171	0x3e1731e2	0.14765123
172	0x3c27999a	0.010229493
173	0xbd92afde	-0.0716245
174	0xbde264f8	-0.110544145
175	0x3e35a475	0.17738517
176	0x3de5a543	0.11213162
177	0x3eb3d92d	0.3512663
178	0x3dbda004	0.09259036
179	0xbc5f63f4	-0.0136346705
180	0xbe99e242	-0.30055434
181	0x3df84f61	0.12124515
182	0xbeac1114	-0.3360678
183	0x3d716b69	0.058940325
184	0x3e2496e1	0.1607318
185	0x3d9be2c0	0.076116085
186	0xbe8eca22	-0.2788859
187	0xbb2a89ba	-0.0026022033
188	0xbdf7a564	-0.12092093
189	0x3dbf5216	0.093418285
190	0xbd1b3d60	-0.03790033
191	0x3dd95316	0.106115505
192	0xbe84f799	-0.25970152
193	0x3cfcf09f	0.030876456
194	0xbd7785fa	-0.060430504
195	0xbd5e2e24	-0.054243222
196	0x3d810cba	0.063012555
197	0xbec5ed65	-0.3865768
198	0x3e25d039	0.16192712
199	0x3d9a0ae7	0.07521611
200	0x3d94f209	0.07272727
201	0x3e210880	0.15725899
202	0xbde6ac51	-0.112633355
203	0xbe0deffd	-0.1386108
204	0x3e6043d9	0.21900882
205	0xbe804377	-0.25051472
206	0xbdd039df	-0.10167288
207	0xbe999c43	-0.3000203
208	0xbe8884df	-0.26663873
209	0xbda25432	-0.07926215
210	0x3e8d77fb	0.276306
211	0xbeb64074	-0.3559605
212	0xbced7630	-0.02898702
213	0x3e5f0ae7	0.21781503
214	0x3d05799a	0.03258667
215	0xbe19942e	-0.14997932
216	0xbe5b49c3	-0.21414857
217	0xbddf1bd2	-0.10893978
218	0x3d99cdba	0.07509942
219	0x3edaf4eb	0.42764983
220	0x3c60b1c2	0.013714256
221	0x3dcb1dca	0.09917791
222	0xbe8f4955	-0.27985635
223	0x3e39a7a3	0.18130355
224	0x3cde351b	0.027124932
225	0x3d89718d	0.06711111
226	0x3e0d3c47	0.13792525
227	0x3dfe0261	0.124027975
228	0x3d5face6	0.05460825
229	0x3d6a7109	0.057236705
230	0xbe470c09	-0.19438185
231	0x3e5f7b6e	0.21824428
232	0xbdeb3e41	-0.11486483
233	0x3e62d36e	0.22150967
234	0xbd968d1c	-0.07351133
235	0x3daa01b3	0.08301105
236	0x3db50237	0.08838313
237	0xbe03ea8f	-0.12882446
238	0xbd8ffa25	-0.07030133
239	0x3d9c9060	0.07644725
240	0xbea53552	-0.32267243
241	0x3cdc2611	0.02687362
242	0x3d89798f	0.067126386

bias f4 [9]
0	0x3ea41de0	0.32054043
1	0x3ef81f46	0.4846136
2	0x3e3d763c	0.18502134
3	0x3eb7d18a	0.35902053
4	0x3f1cba49	0.6122175
5	0x3f14c98c	0.58120036
6	0x3eb19725	0.34685627
7	0x3e95b3f6	0.29238862
8	0x3e9161ff	0.28395078

weight f4 [3, 9]
0	0x3f1717ce	0.590207
1	0xbfa10218	-1.2578764
2	0xbcc4a022	-0.024002139
3	0x3ebb67d3	0.3660265
4	0xbe9a17c3	-0.30096254
5	0x3f58e1fe	0.84719837
6	0x3e233154	0.15936786
7	0xbec34a5f	-0.38142678
8	0xbef386cb	-0.47563776
9	0xbe78a6e4	-0.24282414
10	0xbf45e5fa	-0.7730404
11	0xbf17fe7e	-0.593727
12	0xbf4098f3	-0.7523338
13	0x3f49c82a	0.7882105
14	0x3eedea57	0.4646785
15	0x3ebff4ff	0.37491605
16	0xbe5d04da	-0.21583882
17	0x3e4e5b54	0.20152026
18	0x3f2f8a0c	0.6857002
19	0xbea91a08	-0.33027673
20	0x3e8372be	0.2567348
21	0xbedd2d75	-0.43198743
22	0x3f03f3d4	0.5154393
23	0xbf25feb5	-0.6484178
24	0xbf3e7878	-0.7440257
25	0x3f0de8cf	0.5543336
26	0xbf0a6cc9	-0.5407224

bias f4 [3]
0	0x3ea72216	0.32643193
1	0x3db66121	0.089052446
2	0x3dfb2f0e	0.12264834

weight f4 [9, 3]
0	0x3f3ec4c0	0.74518967
1	0x3ee35ae6	0.44405288
2	0x3f19bedf	0.6005687
3	0x3eb29166	0.34876555
4	0x3ebb382f	0.36566302
5	0xbe253115	-0.16132005
6	0x3e183e74	0.14867574
7	0xbf3782b9	-0.7168384
8	0x3e73ee99	0.23821487
9	0xbeba9757	-0.36443588
10	0x3f407418	0.75177145
11	0xbe607f59	-0.2192358
12	0xbe908812	-0.28228813
13	0x3d3f9ca3	0.04678024
14	0x3f335425	0.7005027
15	0x3f1c5964	0.610739
16	0xbab5babf	-0.0013864859
17	0xbf875988	-1.0574198
18	0xbf0dc139	-0.5537296
19	0xbed2700a	-0.41101104
20	0xbebed551	-0.37272123
21	0x3f87d729	1.0612537
22	0x3f0e093a	0.5548283
23	0xbccb5a2f	-0.024823276
24	0xbef42050	-0.47680902
25	0x3f3f5e8b	0.74753636
26	0xbe39b3ef	-0.18135045

bias f4 [9]
0	0xbdd33c44	-0.10314229
1	0x3fd02616	1.6261623
2	0x3f15c664	0.58505845
3	0xbe22647e	-0.15858647
4	0x3f48fa98	0.78507376
5	0xbe3b0d72	-0.18266848
6	0x3f551642	0.8323709
7	0xbd9c4063	-0.07629468
8	0x3ebbd9c3	0.36689577

weight f4 [27, 9]
0	0xbc85c58e	-0.016329553
1	0x3eeb6a7d	0.45979682
2	0x3e749efa	0.2388877
3	0xbdc57f14	-0.09643379
4	0xbee31f68	-0.443599
5	0x3a074156	0.0005159577
6	0x3ef7bfd4	0.4838854
7	0x3cb38ddd	0.021918232
8	0x3d7dc5d4	0.06195624
9	0xbdd1527d	-0.102208115
10	0x3e9f183e	0.31073183
11	0xbe99822d	-0.2998213
12	0xbeb16e08	-0.3465426
13	0x3e1c73c6	0.15278539
14	0xbe902884	-0.2815591
15	0xbefff0e2	-0.49988467
16	0x3e4419f4	0.19150525
17	0xbdbe3fa6	-0.09289484
18	0xbea503f4	-0.32229578
19	0x3f5dbb7b	0.866142
20	0xbe81710f	-0.2528157
21	0xbec5bba5	-0.38619724
22	0xbed1e0fc	-0.40991962
23	0xbe90cccb	-0.28281245
24	0xbde7a7e9	-0.11311323
25	0xbe8f1f7b	-0.27953705
26	0xbe2c7eda	-0.16845265
27	0xbe8afeac	-0.27147424
28	0xbf10efbd	-0.5661581
29	0x3f0286fa	0.5098721
30	0x3e053305	0.13007744
31	0x3f29017c	0.6601789
32	0x3d3ce4e6	0.046116732
33	0xbd6735e4	-0.05644788
34	0x3e0979ab	0.13425319
35	0xbec94541	-0.3931065
36	0x3d28589f	0.04110014
37	0x3ed7f440	0.42178535
38	0x3ecbba44	0.39790547
39	0xbe1dbfd1	-0.15405203
40	0xbeb5f610	-0.35539293
41	0xbe15df06	-0.14635858
42	0xbea5e340	-0.3239994
43	0xbe16f83c	-0.14743131
44	0xbf0d3ff9	-0.5517574
45	0x3df50079	0.11962981
46	0xbe91d865	-0.28485408
47	0x3d9fbde4	0.07799891
48	0xbda967af	-0.08271729
49	0xbe573462	-0.21016076
50	0xbe1cbcb7	-0.15306364
51	0xbe47698d	-0.19473858
52	0x3e740cea	0.23833051
53	0x3e507a1d	0.20359083
54	0x3d33565b	0.043783527
55	0xbe7445f9	-0.23854817
56	0x3c057b24	0.008147035
57	0xbdee7468	-0.116432965
58	0xbe5cdfe9	-0.2156979
59	0x3e033127	0.12811719
60	0xbe8fe0d4	-0.28101218
61	0xbe83777c	-0.25677097
62	0x3e9001d3	0.28126392
63	0xbee33e4b	-0.44383463
64	0x3f29722f	0.66189855
65	0xbef934c4	-0.4867307
66	0xbed7ccdf	-0.42148492
67	0x3dfaf1f5	0.12253181
68	0xbec795a0	-0.38981342
69	0xbebe9852	-0.37225586
70	0xbe9cc353	-0.3061777
71	0x3d962aae	0.07332359
72	0xbe86d29a	-0.2633255
73	0xbd9bca4a	-0.07606943
74	0x3db5b258	0.08871907
75	0x3d1729a0	0.03690493
76	0xbd809609	-0.06278617
77	0xbe9c3575	-0.30509534
78	0xbe38e107	-0.18054591
79	0xbe23190b	-0.15927522
80	0xbc63e6a0	-0.013909966
81	0xbd81f08b	-0.06344708
82	0xbe5e7d1a	-0.2172741
83	0xbea0eb0d	-0.3142933
84	0x3ed78d0b	0.42099795
85	0x3e0aca83	0.13553815
86	0x3e626c23	0.22111563
87	0x3f53ea83	0.8277971
88	0x3b4fae6e	0.0031689662
89	0x3c3ae4d2	0.011407094
90	0xbe886914	-0.26642668
91	0x3ed21a90	0.4103589
92	0xbf1c4f4c	-0.610585
93	0x3d1886c0	0.037237883
94	0xbe347146	-0.17621335
95	0xbe475ec1	-0.1946974
96	0x3e29f20a	0.16596237
97	0xbdbd5683	-0.092450164
98	0xbe05b8e7	-0.13058816
99	0xbe842282	-0.25807577
100	0x3e9510fe	0.29114527
101	0x3e3249e3	0.17410998
102	0x3db16a27	0.08662825
103	0xbea619dc	-0.32441604
104	0xbdad9b79	-0.0847692
105	0xbe488357	-0.19581352
106	0xbd599d30	-0.05312842
107	0x3e474369	0.19459309
108	0xbeb8d548	-0.3610022
109	0x3dd0cd76	0.101954386
110	0x3e89893d	0.26862517
111	0xbd3b1567	-0.045674708
112	0x3d89084f	0.06691038
113	0xbe72e3b9	-0.23719682
114	0x3c9b8bbb	0.018987527
115	0xbed94333	-0.4243408
116	0xbec8f7da	-0.39251596
117	0x3e1abf9d	0.15112157
118	0xbe9a51cc	-0.3014053
119	0x3e083eab	0.13305156
120	0xbd8c03a1	-0.0683663
121	0xbda978b4	-0.082749754
122	0x3e85c8cc	0.26129758
123	0xbe000373	-0.12501316
124	0x3e77aa82	0.24186137
125	0xbe48e2fa	-0.19617835
126	0xbf0a7fb1	-0.5410109
127	0x3f43b284	0.7644427
128	0xbc5d8a36	-0.013521722
129	0xbe9d3996	-0.30707997
130	0xbeedd657	-0.4645259
131	0xbe6b75c4	-0.22994143
132	0xbdaeb7df	-0.085311644
133	0xbe89c81a	-0.26910478
134	0xbecc2160	-0.39869213
135	0xbe44e5aa	-0.19228235
136	0xbdd03ead	-0.101682045
137	0x3cd59941	0.026074054
138	0xbdc530ad	-0.09628425
139	0x3d0af7f9	0.03392789
140	0x3d9914d4	0.07474676
141	0x3d985820	0.074386835
142	0x3ca0fa50	0.019650608
143	0x3de4c4e4	0.111703664
144	0x3ea45504	0.32096112
145	0xbe29903e	-0.1655893
146	0xbdb6c21a	-0.08923741
147	0x3e3d2d75	0.18474372
148	0xbd7b47f1	-0.061347906
149	0xbead4647	-0.3384268
150	0x3d3c0d1e	0.045910947
151	0x3e17252f	0.14760278
152	0xbb84470b	-0.0040367893
153	0xbece7df3	-0.40330467
154	0x3f131031	0.5744658
155	0xbe9b7dc9	-0.30369404
156	0xbef88639	-0.48539904
157	0xbda10dae	-0.07863937
158	0xbebb48c2	-0.36578947
159	0x3ec0ce9b	0.37657627
160	0xbedacefc	-0.42736042
161	0xbe2d5c37	-0.16929708
162	0xbc88ad0a	-0.016684074
163	0xbeaca0c4	-0.33716404
164	0x3e69bc80	0.22825813
165	0xbe95053c	-0.29105556
166	0x3eb45ee0	0.35228634
167	0xbe4d62cd	-0.20057221
168	0xbdf0b9c6	-0.117541835
169	0x3e84aae8	0.2591164
170	0x3d13e4cf	0.03610688
171	0x3e246ced	0.16057177
172	0x3e10b751	0.1413243
173	0xbdcb8a69	-0.09938509
174	0x3e911884	0.28339016
175	0x3e877d7e	0.2646293
176	0x3eafd21b	0.34339985
177	0xbe8530b3	-0.26013717
178	0x3ed72c40	0.42025948
179	0x3e790e14	0.24321777
180	0x3dd57798	0.10423201
181	0x3e6282b8	0.22120178
182	0x3e2430a5	0.16034181
183	0xbea47872	-0.32123142
184	0xbe1311c6	-0.14362249
185	0x3dbce031	0.092224486
186	0xbddd47ba	-0.108046964
187	0x3bc8b872	0.006125503
188	0xbe887ea8	-0.2665913
189	0xbe12d072	-0.14337328
190	0x3e4e487e	0.20144841
191	0xbef04f56	-0.4693553
192	0xbe5a25be	-0.2130346
193	0x3ddcc141	0.10779048
194	0xbec4a2d3	-0.38405475
195	0xbddab10f	-0.106783025
196	0xbe9d0ce2	-0.3067389
197	0x3d1079e4	0.035272494
198	0xbe8319ab	-0.2560552
199	0x3e815b95	0.25265184
200	0xbef3217c	-0.47486484
201	0xbc8d3151	-0.01723543
202	0x3d9aa25f	0.07550501
203	0xbe82222a	-0.2541669
204	0x3e5a249d	0.2130303
205	0xbf078405	-0.5293582
206	0x3925d512	0.00015815001
207	0xbe86ab3b	-0.26302513
208	0x3cf07fe4	0.029357858
209	0xbe997956	-0.29975384
210	0xbea1272c	-0.31475198
211	0x3e6cd43a	0.23127833
212	0xbed3f810	-0.41400194
213	0xbd83cc0a	-0.06435402
214	0xbeb19268	-0.34682012
215	0xbef50982	-0.47858816
216	0xbe956ae8	-0.29183125
217	0x3e9aba3d	0.30220214
218	0xbda32a68	-0.07967073
219	0x3d6761e4	0.05648984
220	0xbe002dc3	-0.12517457
221	0x3d33befb	0.043883305
222	0xbe1653b9	-0.14680375
223	0x3d322eb7	0.043501582
224	0x3dcd09d7	0.100116424
225	0x3e6a6448	0.22889817
226	0xbe6c91e5	-0.2310253
227	0x3e3898e7	0.18027078
228	0x3e9b49d7	0.30329773
229	0x3ec36b1c	0.38167655
230	0x3edea7dc	0.43487442
231	0x3ee6f42c	0.45108163
232	0x3eab9b8f	0.3351712
233	0x3ea22940	0.31672096
234	0xbec297ef	-0.3800654
235	0x3ef9a02d	0.48755017
236	0xbdb55937	-0.08854907
237	0xbe46626c	-0.19373482
238	0xbe40de84	-0.18834883
239	0xbf213e3f	-0.62985605
240	0xbf090006	-0.5351566
241	0xbed594da	-0.41715127
242	0xbf38cd5f	-0.7218837

bias f4 [27]
0	0xbe9d06db	-0.30669293
1	0x3f569803	0.838257
2	0x3e9e9284	0.30971158
3	0xbe87c136	-0.26514596
4	0x3f0940b7	0.5361437
5	0xbe91bff2	-0.28466755
6	0xbbd20e3a	-0.0064103873
7	0x3ef83d02	0.48484045
8	0xbde1185a	-0.10990973
9	0xbf372e5b	-0.7155511
10	0x3f1885c5	0.59579116
11	0xbda76c2b	-0.08174928
12	0x3f4a2630	0.7896452
13	0xbe4b4e7c	-0.19854158
14	0x3e9c4fd3	0.3052965
15	0xbeca6460	-0.39529705
16	0xbe4d700f	-0.20062278
17	0x3ec48f15	0.38390413
18	0x3f156d5c	0.58369994
19	0xbebe024c	-0.37111127
20	0x3c9c5a39	0.01908599
21	0x3f3b9920	0.73280525
22	0x3f465261	0.7746945
23	0x3fa19bc2	1.2625659
24	0xbe980b8c	-0.2969631
25	0xbec9bae1	-0.3940039
26	0x3fb1a002	1.3876956

weight f4 [30, 27]
0	0x3edb21ce	0.42799228
1	0xbecfc92a	-0.40583163
2	0xbdfbc5be	-0.12293576
3	0x3e127b85	0.14304931
4	0xbe7d51b4	-0.24738199
5	0x3d9abaf6	0.07555191
6	0xbda7a431	-0.08185614
7	0xbe80f679	-0.25188044
8	0xbe115056	-0.14190802
9	0x3dee1dc7	0.11626773
10	0x3e0a9ea7	0.13537084
11	0x3c7cc37d	0.015427467
12	0x3e9a8283	0.30177698
13	0xbe422d61	-0.18962623
14	0x3d7c250c	0.06155877
15	0x3c16d6f9	0.009206527
16	0x3e2510c1	0.16119672
17	0x3ef7c1e1	0.48390105
18	0xbde3c341	-0.11121226
19	0x3e39e3f5	0.18153365
20	0x3de4c233	0.11169853
21	0xbdda9400	-0.1067276
22	0x3ee79b60	0.4523573
23	0xbe864228	-0.26222348
24	0x3e9c69e5	0.3054954
25	0x3edfcce3	0.43711004
26	0xbf5a7c08	-0.85345507
27	0x3ed8fc13	0.42379817
28	0xbec14998	-0.3775146
29	0xbda2bca7	-0.07946139
30	0x3e1fda14	0.15610534
31	0xbe8e2bb1	-0.2776771
32	0x3d865794	0.06559673
33	0xbd86bce2	-0.06578995
34	0xbe5928d4	-0.21206981
35	0x3dda68b0	0.10664499
36	0xbb24865d	-0.00251045
37	0x3e2422f7	0.16028963
38	0x3d01dadd	0.031702865
39	0x3e64b1ba	0.22333422
40	0xbdd7d981	-0.105395325
41	0x3d6a2393	0.057162832
42	0x3e0a243c	0.13490385
43	0x3e3454c7	0.17610465
44	0x3ee587e8	0.4483025
45	0xbe38d98a	-0.18051735
46	0x3dd02471	0.10163201
47	0x3e09d0f9	0.13458623
48	0xbdfb26b9	-0.12263245
49	0x3ef0f20f	0.47059676
50	0xbe65e6d5	-0.22451337
51	0x3e2bcf8c	0.16778392
52	0x3ee4b118	0.44666362
53	0xbf38d608	-0.72201586
54	0x3eb54765	0.35406032
55	0xbec7a9be	-0.3899669
56	0xbbad901b	-0.0052967197
57	0x3dff458c	0.12464437
58	0xbe75b18e	-0.23993513
59	0x3e267744	0.16256434
60	0x3defc13a	0.11706777
61	0xbe2646e2	-0.16237977
62	0xbc76f34e	-0.015072657
63	0xbda5ad7e	-0.08089732
64	0x3e581dd5	0.2110513
65	0xbd3fa16f	-0.046784814
66	0x3e1b6307	0.15174495
67	0xbd0a2f0b	-0.03373627
68	0x3dcc4124	0.09973362
69	0x3da35efd	0.07977102
70	0x3e8b0f7b	0.27160248
71	0x3ed7d9b8	0.42158294
72	0xbe5d5be2	-0.21617082
73	0x3d3cd988	0.04610589
74	0x3dc1a9e9	0.09456236
75	0xbcd2d983	-0.025738483
76	0x3edb3c9f	0.42819688
77	0xbe2ce1b6	-0.16882977
78	0x3e23d190	0.1599791
79	0x3ea15523	0.31510267
80	0xbf1e9a84	-0.6195452
81	0x3e83b465	0.25723568
82	0xbec8235e	-0.39089483
83	0x3dbb0017	0.091308765
84	0x3d6c0fc5	0.057632226
85	0xbe97d669	-0.2965577
86	0xbd942d79	-0.07235236
87	0x3d7769a9	0.0604035
88	0xbdd9d940	-0.1063714
89	0x3dbce3f8	0.09223169
90	0xbe26c1cd	-0.16284867
91	0x3e90869f	0.28227708
92	0xbdf73adc	-0.120717734
93	0x3dffcc26	0.1249011
94	0x3e0b14fd	0.13582225
95	0x3e2cf4b9	0.1689023
96	0x3d9a061d	0.07520697
97	0x3e71e3d3	0.23622064
98	0x3eb5c000	0.35498047
99	0xbe5c2721	-0.21499301
100	0x3cd0764c	0.025447033
101	0x3db31661	0.08744503
102	0x3d066875	0.03281446
103	0x3ecefd4a	0.4042762
104	0xbe32556a	-0.17415395
105	0x3d5e74df	0.054310676
106	0x3dc61dbd	0.09673641
107	0xbeecfdef	-0.46287486
108	0x3dcb6790	0.09931862
109	0xbeb2015b	-0.3476666
110	0x3e8a5388	0.27016854
111	0xbc86c997	-0.016453547
112	0xbe689451	-0.22712828
113	0x3db5984c	0.08866939
114	0x3e2577e6	0.16159019
115	0xbcfc38b3	-0.030788755
116	0x3c9ccb8b	0.019140026
117	0xbe5203d2	-0.2050927
118	0x3e92a634	0.28642428
119	0xbdeb1240	-0.1147809
120	0x3d9869f6	0.074420854
121	0x3e5878f4	0.2113989
122	0x3e5733fc	0.21015924
123	0x3e2d3f61	0.16918708
124	0x3e2128b9	0.1573819
125	0x3eb6f2a8	0.35732007
126	0xbe6a8584	-0.22902495
127	0xbce2de96	-0.027694028
128	0xbd60bb67	-0.05486622
129	0x3e20af2e	0.15691826
130	0x3e985e03	0.29759225
131	0xbe23f4aa	-0.160113
132	0xbc210880	-0.009828687
133	0xbd31dd98	-0.04342422
134	0xbeb8baa4	-0.36079895
135	0x3ca40725	0.020022938
136	0xbe9ff8a4	-0.31244385
137	0x3e983456	0.2972743
138	0xbc1e63cd	-0.009667349
139	0xbe6cdd67	-0.23131333
140	0x3e37c29e	0.17945334
141	0xbd6cf528	-0.057850987
142	0x3dbb0c7d	0.09133241
143	0xbd00aace	-0.031412892
144	0xbe9cef0f	-0.30651137
145	0x3eaa8214	0.33302367
146	0xbd8172b5	-0.06320707
147	0xbdd72bdb	-0.10506412
148	0x3dac0da9	0.08401043
149	0x3e5fd705	0.21859367
150	0x3e0d58f0	0.13803458
151	0x3d393cb2	0.0452239
152	0x3ea288dc	0.3174504
153	0xbea7ab4a	-0.3274787
154	0xbda7a381	-0.08185483
155	0xbdb13ad0	-0.08653796
156	0x3e0edf01	0.13952257
157	0x3e6a7d2b	0.2289931
158	0xbd9bf627	-0.07615309
159	0xbe7e0325	-0.24805887
160	0xbe3b2eaa	-0.1827952
161	0xbe3053fd	-0.17219539
162	0xbd3dfe2d	-0.04638498
163	0xbe75cac8	-0.24003136
164	0x3edad82d	0.42743054
165	0xbdb473fd	-0.088111855
166	0xbe613095	-0.21991189
167	0x3cfe6dbf	0.03105819
168	0x3e266024	0.16247612
169	0x3e4cd548	0.20003235
170	0xbde61fa2	-0.11236502
171	0xbea3e99d	-0.3201417
172	0x3eac8b1b	0.3369988
173	0xbe354f7a	-0.17706099
174	0xbe17efc0	-0.14837551
175	0x3dfd0181	0.123538025
176	0x3e50b6dd	0.20382257
177	0x3e1bdf88	0.15221989
178	0xbca9adfa	-0.020712841
179	0x3e29a048	0.16565049
180	0xbea1453a	-0.31498128
181	0xbe17005e	-0.14746234
182	0xbe3fe82f	-0.18740915
183	0x3e2ee6f7	0.17080294
184	0x3e376a9e	0.17911765
185	0xbdbb9c96	-0.09160726
186	0xbe60cd04	-0.21953207
187	0xbe934e87	-0.2877085
188	0xbd1ca3fa	-0.038242318
189	0xbdafcf67	-0.08584481
190	0xbe0a0ad0	-0.13480687
191	0x3edadcac	0.42746484
192	0xbd90af12	-0.07064642
193	0xbe445e1e	-0.19176528
194	0xbe408ad6	-0.18802962
195	0xbe38ff9b	-0.18066256
196	0x3e993a7c	0.29927433
197	0x3d9406c1	0.07227851
198	0xbe6a92c2	-0.22907546
199	0x3e9bc8d7	0.30426666
200	0xbe364a42	-0.17801765
201	0xbe7cbca6	-0.24681339
202	0x3e310838	0.17288291
203	0x3e56d13c	0.20978254
204	0x3e17de6a	0.14830938
205	0x3e07e86c	0.13272256
206	0x3d690cd9	0.056897018
207	0xbea39049	-0.31946018
208	0xbe296efa	-0.1654624
209	0xbe819a0d	-0.25312844
210	0x3e682d7a	0.22673598
211	0x3de0265e	0.10944818
212	0xbd62b88a	-0.05535177
213	0xbe15221e	-0.14563796
214	0xbecef291	-0.40419438
215	0x3d3748e5	0.044747252
216	0xbe1adb09	-0.15122618
217	0xbcca09b0	-0.024662822
218	0x3ed56489	0.41678265
219	0xbd41b1c4	-0.04728867
220	0xbe6f3c24	-0.23362786
221	0xbb9c9e36	-0.0047796024
222	0xbe11d56c	-0.1424157
223	0x3ed47222	0.41493326
224	0x3e147d1d	0.14500852
225	0xbe183f52	-0.14867905
226	0x3e42c754	0.1902135
227	0xbe059181	-0.13043787
228	0xbea3d3ab	-0.31997427
229	0x3dd1ef69	0.10250742
230	0x3e0af120	0.13568544
231	0xbd5c6938	-0.053811282
232	0xbda1020c	-0.078617185
233	0x3d714307	0.058901813
234	0xbe84a37f	-0.25905988
235	0xbe0f9988	-0.14023411
236	0xbe64dae9	-0.22349133
237	0x3e2b4b2a	0.16727892
238	0x3d35bfa9	0.044372234
239	0xbe20016e	-0.15625545
240	0xbde8bfb7	-0.11364692
241	0xbedb768c	-0.42863882
242	0x3de4220c	0.111393064
243	0xbe1c03a6	-0.15235767
244	0x3e15a55d	0.14613862
245	0x3e8671b1	0.26258615
246	0x3c8e146b	0.01734372
247	0xbe871c70	-0.26388884
248	0x3d4e862c	0.050420925
249	0x3e0c154b	0.13679998
250	0x3ed6a017	0.41919014
251	0x3de2cb14	0.1107389
252	0xbd9f02b1	-0.07764185
253	0x3e649870	0.22323775
254	0xbd074cae	-0.03303211
255	0xbec2b188	-0.3802607

bias f4 [30]
0	0xbf12c794	-0.5733578
1	0xbf0aa401	-0.541565
2	0xbed2c853	-0.4116846
3	0xbe5f91be	-0.2183294
4	0xbdb8448c	-0.08997449
5	0x3e2668dc	0.16250938
6	0x3e9c61c3	0.30543336
7	0x3ed5529e	0.41664594
8	0x3f02ef78	0.5114665
9	0x3eec3688	0.46135354
10	0x3eade22f	0.33961627
11	0x3dd5b927	0.10435706
12	0x3caeace3	0.021322673
13	0xbe542442	-0.20716956
14	0xbe8f39f5	-0.27973905
15	0xbe939aa2	-0.28828913
16	0xbead0691	-0.33794072
17	0xbe3bf208	-0.18354046
18	0xbd6e95de	-0.058248393
19	0x3df8d989	0.121508665
20	0x3e817d19	0.25290754
21	0x3ecda8b2	0.40167767
22	0x3ef4c717	0.47808143
23	0x3f157fea	0.58398306
24	0x3ee37cf8	0.4443128
25	0x3e8f4f5c	0.27990234
26	0x3ce30a77	0.027714951
27	0xbe5ee2ea	-0.21766248
28	0xbea48fac	-0.32140863
29	0xbeeddcb3	-0.46457443
