knn/models/pretrained-autoencoder/autoencoder-in_features60-latent_size30.pt (torch, 369898 bytes, 12 tensors)

weight f4 [270, 60]
00000000: edb0 f93c e2c9 413d aefc ce3c f410 713a
00000010: 3d28 d5bd ae6f c43c d962 d03c 7567 aebd
00000020: ad97 8d3d 1da6 62bd 50e9 a3bd 8fa7 c23d
00000030: 3fda cabd 7b40 28bd 63ca 91bd 2afe 003e
00000040: 8348 843d 3cd9 b53d 1b1c c33d bc77 50bd
00000050: c1d4 2cbe 0c86 a3bd 725f eabd 4249 91bd
00000060: 17df 4b3d f938 42bd bc31 b2bd ac5a b83d
00000070: 7e7a 17be 7ecc e4bd feee 873d 4464 adbd
00000080: 84e9 2fbd bbd8 bcbc fde8 5e3d c2d2 513d
00000090: 4c90 98bd 4f3a 5cbd e616 053e bfa3 1dbc
000000a0: d818 6fbd 4cae e6bd 594e 77bb 3705 a0bd
000000b0: 943a dbbd 2013 443d 2ae3 3fbd 534e 17bd
000000c0: 8c95 723d 905e a5bd 0555 bfbd 9d55 1ebb
000000d0: e808 5c3d 45fa 933d 0c07 a13d 8938 113d
000000e0: 2e21 283d 26a4 1ebc 8ec9 b83d 07b9 7a3d
000000f0: e67f 0d3d 4dc0 1cbd f62f 763d f119 903c
00000100: 4ed7 febc b964 11be 717f 17be 6b3e 413c
00000110: 0dc9 2f3d 9c52 1b3d aee5 a33d d89d 553d
00000120: cf49 293d 2e8a 853d b923 963d c11b da3d
00000130: 9901 1e3e 5095 ca3d 15fb 77bd 3662 2b3d
00000140: 600d 92bc c611 6dbd 7e3c e93c eacf bfbc
00000150: 299e ccbc 00f6 b7bd fc8e ab3d 787e 8f3d
00000160: 7f5f 1e3d ab21 84bd 8e27 f2bc eddd f1bd
00000170: 7d08 09bd 57ab 37bc 063d 9ebc ce2a 0a3e
00000180: 839e 303e 752a 783d 897f 143d 9459 59bd
00000190: 4122 4d3d 5017 46bd 187c 89bd 0980 b43c
000001a0: bb76 043e 14b9 553d ffa8 a03d 0738 f5bd
000001b0: 6957 90bd ddb5 12be 19eb c53d 884c 173e
000001c0: fde1 a63d dba5 e53d e04f b2bd aeb3 c2bd
000001d0: 3ece 8dbd d16e 84bd 31dc 4a3d c9a2 0dbc
000001e0: 112a fabd c6d2 eebd f72d 953d 73f1 a7bd
000001f0: fb9e bf3b e223 343d 8895 8c3d 52e4 103e
00000200: d1ad abbd 7c2a 9abd f260 1c3b ee10 243d
00000210: 17e1 673d b83d fbbd 2188 be3d d329 3b3d
00000220: 9087 1c3d 8000 f6bc ffed cc3d 2caa 09bd
00000230: f471 f0bd c6e1 053c 63fb ac3d b21c c73d
00000240: b87d 213e 08de 233e 1018 263e d3fc 4abd
00000250: ff97 ddbd 5472 853d 74da 00be f900 a5bd
00000260: 1fef e93c 85eb c93d 7926 e43d cd26 d03d
00000270: 2657 963b 7516 2e39 ec25 7a3b 57bc e7bd
00000280: 50c3 393d 5d31 e03d e8f9 c63d 66cb 093e
00000290: c2a5 bcbd 7f5b 99bd 398c b03d b751 3c3d
000002a0: 6e81 263d 02fb 043e e93d 633c c8fd fb3d
000002b0: 0179 aebd e016 e6bd f667 0dbd 1404 473d
000002c0: fe28 853c 7e82 80bc f7be 873d 9cba 373d
000002d0: e75e a53d 05b6 393e 47a4 1a3e b41d 013e
000002e0: 543f 87bd c61a 3c3c dd82 f23b e9fa 03be
000002f0: 9891 443d 34ac d7bd 8fe2 afbd 27fd 183d
00000300: 9439 1d3c 6988 02be 0e1c 043c ace6 45bd
00000310: 6a0b 413c 1f6e ed3d 5df9 033e 037f f23c
00000320: d137 d93d dbb9 d9bd 6c81 9a3d bf89 353d
00000330: ce63 fcbd b328 9b3d 64ef 6c3c 2870 02bc
00000340: 07c4 363d e6e1 d53c 7531 aabc dfac 7d3c
00000350: d808 8abd a4f9 84bd 3903 91bd e609 88bd
00000360: 0e84 f33d 2732 1dbd ecd7 31bd 052e 333b
00000370: 28f1 e1bc 4558 3abc 23f8 923d 64bf 0a3e
00000380: 538b cc3d f65e 9e3d 8d0b 22bd f717 a93c
00000390: 82f8 99bd 2e94 0a3d 9c59 c93d 5c54 473a
000003a0: 6052 783c 320b 993d cb9e 98bd 478e 97bc
000003b0: eff2 bcbd 0f5b 813d 86ed 453d 3135 fbbc
000003c0: 2a2f f6bd 7606 c4bd c925 ddbd 95aa 01be
000003d0: c9a8 8d3d 009f 133d 2c82 b1bc 2826 263e
000003e0: b30e 4dbc effe 8eb9 18ee fabd 03d6 17bd
000003f0: 77d6 f2bd 1a40 63bd 823d 0a3e e1a4 883d
0.030479873 0.04731167 0.025266971 0.00091959466 -0.104080655 0.023979034 0.02543776 -0.085158266
0.069136955 -0.0553342 -0.08003485 0.095046155 -0.099049084 -0.04107712 -0.0711868 0.12596956
0.06459143 0.08879325 0.09526845 -0.050895438 -0.16878034 -0.07984552 -0.11443986 -0.07094051
0.049773302 -0.047417615 -0.08700892 0.09001669 -0.14792821 -0.11171816 0.06637381 -0.0846639
-0.042947307 -0.023052564 0.054421414 0.051226385 -0.074493974 -0.053766545 0.12997016 -0.00962156
-0.058373302 -0.11263713 -0.0037735908 -0.07813495 -0.10704532 0.0478698 -0.0468475 -0.03693993
0.05922465 -0.08074677 -0.09342388 -0.0024159916 0.05371943 0.072254695 0.07862672 0.035454307
0.041047268 -0.009682691 0.090228185 0.061211612 0.0345458 -0.03826933 0.060104333 0.017590495
-0.031108525 -0.14198579 -0.14794709 0.011794667 0.042916346 0.03792058 0.08002792 0.052152485
0.041330155 0.06520496 0.07331032 0.10649825 0.15430297 0.0989176 -0.060542185 0.041841708
-0.017828643 -0.05787828 0.028471228 -0.02341457 -0.02497776 -0.08982468 0.083768815 0.07006544
0.03866529 -0.06451734 -0.029559877 -0.11809907 -0.03345536 -0.011210284 -0.019316208 0.13492891
0.17247967 0.060587365 0.03625444 -0.053063944 0.050081495 -0.048362076 -0.06713122 0.022033708
0.12935917 0.052178457 0.078447334 -0.11973577 -0.07047922 -0.14327188 0.09663982 0.14775288
0.081485726 0.11213275 -0.08706641 -0.095069274 -0.06924103 -0.06466449 0.049526397 -0.008644768
-0.12215055 -0.116612956 0.07284158 -0.0820035 0.0058478094 0.043979533 0.06864458 0.14149597
-0.08382762 -0.075276345 0.0023861495 0.040055208 0.056611147 -0.12267631 0.09303308 0.045694184
0.03821522 -0.030029535 0.10006332 -0.033609554 -0.11740485 0.008171504 0.08446386 0.0972227
0.15770614 0.16002667 0.16220117 -0.04955752 -0.108200066 0.06515947 -0.12583333 -0.08056826
0.028556405 0.09859375 0.111401506 0.10163651 0.0045880256 0.00016602299 0.0038169576 -0.1131522
0.04535228 0.10946915 0.097156346 0.13456497 -0.09211303 -0.074881546 0.08620495 0.045976367
0.040650778 0.12986377 0.013869741 0.12304264 -0.085191734 -0.11234832 -0.034522973 0.048587874
0.016254898 -0.015687224 0.066282205 0.0448557 0.08074742 0.18135841 0.1510173 0.12608987
-0.06603876 0.011480993 0.007400854 -0.12888683 0.04799041 -0.10530892 -0.085881345 0.0373508
0.009596247 -0.12747349 0.008063329 -0.04831569 0.0117825065 0.115932696 0.12888093 0.02960158
0.10606349 -0.10631152 0.075442165 0.044320818 -0.12323724 0.07576122 0.014461372 -0.00796131
0.04462054 0.026108693 -0.020775536 0.01548311 -0.06739968 -0.06492928 -0.07080693 -0.06642513
0.11890422 -0.038377907 -0.04341881 0.0027340662 -0.027580813 -0.011373584 0.071762346 0.13549572
0.099875115 0.07732956 -0.039561797 0.02064131 -0.07518102 0.03383272 0.09831545 0.0007603818
0.0151563585 0.074728385 -0.07452162 -0.01850046 -0.092260234 0.06316196 0.048322223 -0.030665012
-0.120207146 -0.09571545 -0.107982226 -0.12662728 0.06916959 0.036040306 -0.021668516 0.16225493
-0.012515712 -0.0002727429 -0.12252444 -0.03706933 -0.11857312 -0.055481054 0.13500026 0.06672073

bias f4 [270]
00000000: 48f0 3f3c 8628 4e3d 99b4 a3bd 5e87 303e
00000010: 9db0 0bbb ea0b 593c e1e8 f0bd ec66 fc3d
00000020: 2020 87bc d297 c03c ebf5 a7bd fd51 98bd
00000030: 668f c83d ea5d c03d a8ab 6a3d 93c4 ff3c
00000040: c860 d1bc 20bd 2f3e c5b3 053d 2abf ef3c
00000050: 53af 413e 5e13 62bb 8344 d9bc b75f 1cbd
00000060: b956 9b3d 9539 553e b2f4 a03d 7fea 1e3e
00000070: 7eba 0f3d 9c12 3fbc a5a5 ff3d 6e36 a33d
00000080: 6343 213b 518c fb3d b8ce 913d f819 ed3d
00000090: b095 043e 496f 253c 402a 4a3d 689f d33d
000000a0: 543c 193d cf4f c33d 1478 9abc 0deb 08bd
000000b0: 0c0c f4bb 2d7d f43d 6c14 ddbd cef9 cd3d
000000c0: 4240 f93d ff40 b73d 84b2 d63d 014e 54bd
000000d0: ef9b b6bc c343 423e bb53 cf3d 50fb 5abc
000000e0: f77d 0f3e 7699 123e 83b7 c13d 5a7d 893d
000000f0: b020 28bb 09e8 4ebd df55 033e 78c2 79bd
00000100: 61a6 953d 4510 8c3d 6ad1 2b3d 2a9e 723d
00000110: 78b6 d43d f6d7 94bd b31e b33c 9127 4b3e
00000120: b333 2fbc d35c 0f3e e66f b33b 3465 d53c
00000130: 6ccf 9e3d 86e3 063e 18a2 37bd 8af4 523e
00000140: 7247 333d 968e 473d 2f66 60bd d443 c6bc
00000150: 8859 803e 0e76 9abd b300 403e 2c26 5ebc
00000160: 6744 f4bd adc7 053e ee57 583e 1738 113e
00000170: 9c22 883c 2433 033d a583 debd b0ed 263e
00000180: bf4f f43d 278b c33c b5b2 ff3b 906a d0bd
00000190: 1def 2f3d 7a63 b33d f4ae c13d f246 84bd
000001a0: 3aa3 1d3e 72c5 ab3d 3430 4b3e 845d 063e
000001b0: 8cf6 073e ffcf 96bc ed9c ce3c 29e9 de3d
000001c0: d82b d43b 514d dd3d ad5c 943d 0e77 9d3d
000001d0: 3d89 36bd 8a65 debd b946 003e e48f aabb
000001e0: 0a77 213d f82c c53d 8695 4b3d 6f3d 843d
000001f0: bac6 b43d 5114 9c3d 66f2 063e 88fc 053e
00000200: 1975 0b3e 419d 193e 85ea b9bc c920 6cbd
00000210: c255 2e3e 76c6 b63c 7f94 fa3d f7ff 87bc
00000220: ed99 c93d a2b3 8cbb 806e 223e b456 b23d
00000230: 0ef1 5e3c 1270 0ebd fb1e 033e 7095 abbd
00000240: 2e41 3b3d b655 343e 4299 313e f284 e33c
00000250: 5309 96bd 1610 173e bf9b 643d f345 14bd
00000260: 37a3 e93c ceb2 b3bd 5f80 9d3d 476f 8ebd
00000270: e89f 083e 0359 c7bd ce76 333e 88f8 eb3b
00000280: 2c6e 0ebc af1a 3ebd cd3b afbd 7b82 c33d
00000290: 6b9a 8ebc f0d9 f53d a3c2 393d a799 72bd
000002a0: 33da 233e b249 33bd 26e6 e53d 64f2 ec3d
000002b0: 58dd 4b3d 5261 133d 3ae0 1bbc f7d3 a93d
000002c0: 05a0 093e 3f50 613d 438b 923d d49f 0c3e
000002d0: f131 233d e4ac ccbc 4ac7 eb3d b069 b6bd
000002e0: 17e2 53bd 97ee fd3d 354d 683d 8fdd 2a3d
000002f0: 71b9 00bd 158b a03d 7457 36bd dc9b 893d
00000300: b7d7 e23d f5c9 be3c 9b7b c13d bf68 8cbd
00000310: 55e9 c73b 0638 ecbd c493 f03d 9f73 043d
00000320: 83df 993d e971 a33d e2c2 0d3e 5514 cc3d
00000330: 42b4 43bd e0a5 91bd 6b39 0dbd 90a5 df3d
00000340: d0ab e03d 3739 97bd a78b afbc 37e2 80bd
00000350: ff49 633d ac50 dd3c be27 853d 3501 8f3a
00000360: 26e7 69bd c233 4b3e 7fea 063e e24f 563d
00000370: db06 993c 0207 de3d b4be 883d d04d 1b3d
00000380: 830b 723d 9698 963d a1b8 e03d 727f 1a3e
00000390: 6b64 a03d 3979 c9bd 9863 92bd c2e9 eebc
000003a0: 9f68 1a3d f334 703e 6702 173e 96c0 9bbd
000003b0: 2a81 0c3d bf2b ebbc 384c 88bc 3165 633e
000003c0: 786c e43d 6f04 073e e191 db3d 0084 733d
000003d0: 6616 163e e2f3 aa3c 0077 c73d 0a45 1fbd
000003e0: 1505 14bd 67e4 8ebd c4e0 60bb 7a76 053e
000003f0: dccd fc3a 642b c43c 2687 1e3d 0483 cc3d
0.011715002 0.050331615 -0.07993431 0.17239138 -0.0021314987 0.013247469 -0.11763168 0.12324318
-0.01649481 0.023509894 -0.08201202 -0.07437513 0.09792976 0.09392913 0.05729261 0.031221664
-0.025558844 0.17161989 0.032642145 0.029265959 0.18914537 -0.0034496407 -0.026521927 -0.03817722
0.075849004 0.20822747 0.07859172 0.1551914 0.035089962 -0.011662152 0.12482766 0.07969366
0.0024606816 0.122826226 0.071195066 0.11577219 0.12947726 0.010097333 0.0493567 0.10333139
0.03741105 0.09536707 -0.018856086 -0.033427287 -0.007447725 0.11937938 -0.10794911 0.10057412
0.12170459 0.08947944 0.10483268 -0.051832203 -0.022291152 0.18971162 0.10123392 -0.013365582
0.14012896 0.14316353 0.0945883 0.06713362 -0.002565425 -0.050514255 0.12825726 -0.060976475
0.07307125 0.06839041 0.04194776 0.05923287 0.10386366 -0.07267754 0.021865224 0.19839312
-0.010693478 0.14000253 0.005475986 0.026049234 0.07754406 0.13172731 -0.04483232 0.20601097
0.043769307 0.048719965 -0.05478495 -0.024202265 0.25068307 -0.075420484 0.18750267 -0.013558906
-0.11927109 0.13064452 0.21127293 0.14181553 0.016618066 0.032031193 -0.10864953 0.16301608
0.11929273 0.023870064 0.007803286 -0.10176575 0.042952646 0.08759208 0.09457198 -0.06458844
0.15394297 0.08387269 0.19842607 0.13121611 0.13277644 -0.018409727 0.025221312 0.108843155
0.006474953 0.108057626 0.07244239 0.076887235 -0.044564474 -0.10859211 0.12526979 -0.0052051414
0.039420165 0.09627718 0.049703144 0.0645703 0.088269666 0.076210625 0.13178405 0.13084614
0.13618888 0.15001394 -0.022694835 -0.057648454 0.17024902 0.02231143 0.12235355 -0.016601546
0.09843812 -0.004293875 0.15862465 0.087079436 0.013607277 -0.034774847 0.12804787 -0.08378112
0.045716457 0.17610821 0.1734362 0.027773354 -0.07325997 0.1475223 0.055812594 -0.03619952
0.02852021 -0.08774339 0.076905005 -0.06954818 0.1334225 -0.097337745 0.17525789 0.007201258
-0.008693259 -0.046412166 -0.08556328 0.095463715 -0.017407617 0.12004459 0.045351636 -0.059228566
0.16001205 -0.043771453 0.11225538 0.1156967 0.049771637 0.035981484 -0.009513909 0.08292382
0.13439949 0.05500817 0.07155468 0.13732845 0.03984255 -0.024984784 0.11512621 -0.08906877
-0.051729288 0.12399023 0.056714255 0.0417152 -0.03142685 0.07839028 -0.044516996 0.06719181
0.110763006 0.02328966 0.09447404 -0.06855916 0.0061008134 -0.11534123 0.11746934 0.032336827
0.075133346 0.07980711 0.13843873 0.099648155 -0.04777933 -0.07111716 -0.034478586 0.109202504
0.10970271 -0.0738396 -0.021428896 -0.06293147 0.05549049 0.027016006 0.06501721 0.0010910394
-0.057105206 0.19843963 0.1317539 0.052322276 0.018680027 0.108411804 0.06676999 0.037916005
0.05909301 0.07353322 0.10972715 0.15087679 0.07831653 -0.098375745 -0.07147902 -0.029164199
0.03769743 0.23457699 0.1474701 -0.07605092 0.034302868 -0.028707383 -0.016637906 0.2220657
0.11153501 0.13185285 0.107211836 0.059452057 0.14656982 0.020868246 0.09739494 -0.0388842
-0.03613766 -0.06977158 -0.0034313658 0.13033476 0.0019287425 0.023946472 0.038703106 0.09985927

weight f4 [90, 270]
00000000: 3a58 7fbd d4a5 113d 3d62 943d 8301 943d
00000010: 8e4a 1dbd df1e 7a3d 6aca 4abc c659 013c
00000020: abfc e7bc d1d7 793d 9208 253d c8be ed3c
00000030: 7c58 f03b 7cd9 ba3d 30ef a03b 70c2 9fbb
00000040: 7069 9d3d efdf a73c 6f07 b23d 3394 853d
00000050: 8bce 07bd c994 c73d 5527 ab3d f929 273c
00000060: 4e36 7e3d 342a a03d f118 6d3c 16bf d9bc
00000070: f98f a0bb 0667 6cbd d2e5 ef3c 13c5 dd3b
00000080: 2e7b 1e3d ba06 3ebd 090e 483a b282 5ebc
00000090: d395 f73b 4f35 89bc c375 f4ba ff5e 283d
000000a0: 1ce0 193d 32ee d8bc 6742 2abc 8878 01bd
000000b0: 8562 723d 2fed 0cbd e5ae 01bd 95df 373d
000000c0: 2c1c 323d 274d 8fbc a961 8cbd 2549 6d3c
000000d0: de38 a03b b6e4 a63c c1c5 b9bc a574 393d
000000e0: f921 d03b 4bb6 09bd f27f 78bd 6947 953d
000000f0: 641f c7bc 9b3b 9c3d dabe c93c 5750 08bd
00000100: e816 7ebd d3ba c83c c9d9 dabb f720 c2bc
00000110: 0da5 3dbc ab0b 7b3d 186f 95bc 06a7 1e3d
00000120: bfbf c63d 78a0 1d3d a578 a43d a981 12bd
00000130: 0208 0d3d 1fce 17bd e44e 763d 51bb f1bc
00000140: 23a8 163c fc6d 883d 08ce c53c 120e aabd
00000150: f382 c0bd 0b5b 18bd 7f5e d13d a073 6b3c
00000160: 7319 313d 4fba 853d adac 76bd 4e9c 87bc
00000170: 7e20 d13d f7d1 31bd 9e34 e23c 6649 c83b
00000180: 41a7 9ebd bd05 d5bc 92fa 2ebd bb6d c7bc
00000190: 2489 f9bc a6d6 fe3c 3943 dd3d 6749 9f3c
000001a0: 028a 263d 8c3a c73b 6df5 5fbd 7e71 353c
000001b0: 2631 463d 56cc 0dbd a32f 243c ee0d 0abd
000001c0: 0348 72bc 73a0 f2bb 3fa6 a23d 49d1 d93c
000001d0: 6a75 10bd acbd 5f3c 6e79 b7b9 b233 e8bc
000001e0: cca2 8ebb 8443 ae3d a758 1ebd 2cd4 653d
000001f0: 3ced 5c3d 5e5d a53c 595c b33d 1cd3 033e
00000200: 16a2 68bd 0b5d 203d 2579 c03c cdad 98bd
00000210: c08d 643b aaf3 39bd e951 c53c 9866 923b
00000220: fec4 a8bc 8e68 003d c2d6 26bd cc93 afbc
00000230: e406 6d3c db0d 343c 0a1b 873d ca84 6bbd
00000240: a23e 493d 78dc aebc b2b8 ca3c b9e8 0b3d
00000250: 7590 49bd 0c83 74bd fb6a 29bd b12d 583c
00000260: bd44 613d 1a57 673d 3ea5 55bc 06ad 9cbd
00000270: 19df 393c d60b 063d 495c 8d3d 91e7 ad3b
00000280: c26e d83d 52fc fcbc da3d 573d 5fb7 a8bc
00000290: 2455 8dbd 6b2f 993d e7a9 d33c 67a9 623c
000002a0: 48ff 9dbc 0a52 84bd 4c80 8c3c c1d7 95bd
000002b0: 1bec d73c 9cc3 83bd eec6 e43c 22c5 9fbc
000002c0: 962b 543d e524 85bd 8d1f 38bd 0803 d33c
000002d0: 6ec0 4bbc 7015 01bc bfc4 0cbd a0ef 633d
000002e0: 4382 18bc aab5 a33c 421e d4bc c6af 53bd
000002f0: a469 16bc 0db5 013d 0ed9 0fbc 2c5e 2739
00000300: 784f 833d 4433 c8bc 117b c1bc 939d 413d
00000310: e583 58bd 3d09 473d 173b c53d c12b c2bc
00000320: 3fd4 533d e78b 853b a4cc c43b ee0c 2a3c
00000330: f01e 023b b17d edbc f030 ffbc 73c8 ea3c
00000340: da81 023d ab6b 233d 01e3 bc3d 0bfc 39bd
00000350: 6f06 a43b f652 c03c 022d 6c3d 6c0f 80bd
00000360: 2116 7c3c 4f6f a63c 2252 4abd 5749 afbb
00000370: ef2a 83bd 04cf 053d 5eaf 29bd 5fce 593d
00000380: 002c 993c a137 8f3d 6ef8 503d 2b4e 2c3d
00000390: ab7a db3c 64b9 2a3d f491 303d e76b 9dbc
000003a0: e084 893d 9f96 8e3d 8490 ab3d e554 a23c
000003b0: fd8b 01bd b6b1 893d 144d f73b af90 1a3d
000003c0: bdae af3d 851f 333c fa7a e9bb 9f4a 0c3d
000003d0: 0b23 1fbd d7c4 7ebb 5cb6 4d3d eac2 41bc
000003e0: ab04 0dbc 6b07 943c bf03 c5bc 8713 7c3d
000003f0: 2bb6 33bd 9765 053d 4ea8 4bbd 3a56 be3d
-0.06234 0.035558537 0.072453 0.07226851 -0.03840118 0.061064597 -0.012377361 0.007894939
-0.028318724 0.060996834 0.040291376 0.029021636 0.007334767 0.09123513 0.004911326 -0.0048754737
0.07686126 0.020492522 0.08692824 0.065224074 -0.03315596 0.097451754 0.08357111 0.010202878
0.062063508 0.078205496 0.0144712785 -0.026580375 -0.0048999754 -0.05771544 0.029284392 0.006767878
0.038691692 -0.046393134 0.0007631486 -0.013580965 0.0075557022 -0.016749052 -0.0018650818 0.04110622
0.037567243 -0.026480768 -0.010391808 -0.03160909 0.059175987 -0.034405883 -0.031660933 0.04489096
0.043483898 -0.017492844 -0.06854565 0.014482771 0.0048895916 0.02037273 -0.022677304 0.045277257
0.006351706 -0.033621114 -0.060668893 0.07289011 -0.02430696 0.07628556 0.024627138 -0.033279743
-0.062033564 0.024503147 -0.006678794 -0.02369736 -0.011574996 0.061290424 -0.01824145 0.038733505
0.097045414 0.038483113 0.080308236 -0.035768185 0.034431465 -0.037061807 0.06013383 -0.029508265
0.00919536 0.06661603 0.024146095 -0.08303465 -0.093999766 -0.0371962 0.10223102 0.014370829
0.04323716 0.06529676 -0.06022327 -0.016554024 0.102112755 -0.04341313 0.02761298 0.0061122654
-0.07746745 -0.026003713 -0.04271943 -0.024344316 -0.030460902 0.031108212 0.10803837 0.01944418
0.04065896 0.0060799774 -0.054677416 0.011074422 0.048386715 -0.034618698 0.010021123 -0.03370469
-0.014787677 -0.007404381 0.07941865 0.026589053 -0.035268225 0.013656061 -0.00034994952 -0.028344963
-0.004352903 0.08508971 -0.038658764 0.056110546 0.05393718 0.020186123 0.08757848 0.128735
-0.056795202 0.039151233 0.023495266 -0.07455025 0.0034874529 -0.04539839 0.02408691 0.0044677965
-0.020601746 0.03134971 -0.040732153 -0.02143278 0.014466975 0.0109896315 0.06596954 -0.057499684
0.049131997 -0.021345362 0.024746273 0.03415749 -0.04921003 -0.05969529 -0.04136179 0.013194487
0.054997195 0.05647955 -0.013039885 -0.07650189 0.0113446945 0.03272613 0.069023676 0.005307146
0.105680004 -0.030882034 0.05254922 -0.02059525 -0.06901005 0.074797474 0.025837852 0.013834334
-0.019286767 -0.0646096 0.01715102 -0.073165424 0.026357701 -0.06433794 0.027926888 -0.01950318
0.05179938 -0.06501178 -0.044951964 0.025758281 -0.0124360155 -0.007878646 -0.03436732 0.055648446
-0.009308401 0.019984085 -0.025893334 -0.051681302 -0.00918046 0.031666804 -0.008779777 0.00015961443
0.06411642 -0.024438508 -0.023618253 0.047269415 -0.05286016 0.048592795 0.09630411 -0.023702504
0.051716086 0.0040755155 0.0060058404 0.010379059 0.0019854866 -0.028990598 -0.031151265 0.028660035
0.031862117 0.039897602 0.09222985 -0.045406383 0.0050056498 0.023477059 0.05766011 -0.062529415
0.015386135 0.020316748 -0.049394734 -0.005349319 -0.06404673 0.03266813 -0.04142701 0.053175326
0.018697739 0.06993032 0.05101817 0.042066734 0.026791891 0.04168071 0.04310794 -0.01921649
0.06714797 0.069623224 0.083771735 0.019815871 -0.031627644 0.06723349 0.00754703 0.037735637
0.085782506 0.010932808 -0.0071252557 0.03425085 -0.03885178 -0.003887465 0.05022274 -0.011826256
-0.00860707 0.018069943 -0.024049638 0.06154206 -0.0438749 0.032567587 -0.049721055 0.0929379

bias f4 [90]
00000000: 3829 773c 2308 b7bc 6cbd 3c3d 9def a0bc
00000010: 17c7 833d 4b95 b4bc 10fc 1ebd bc3c ff3b
00000020: 7c6b c43c 7c3f 9c3d fad9 3fbc d94e c93d
00000030: 7044 3a3d 67df 6c3c b424 863c 6c9c 5e3d
00000040: 9e81 4fbd 63c1 603c 1a9c 8e3d 023a 613d
00000050: 7fcb 833d a5b2 8e3c ef4d 243b 8eb0 103d
00000060: a3ed 973d c7c3 3a3c 8889 583d 1712 833d
00000070: b43d ba3c aa9f c6ba 57a9 8e3b 707a 9a3c
00000080: 70f5 403d ef52 00bc 7613 583d 7354 393d
00000090: 9f53 8f3c 09a3 44bc f2f5 0dbc 75b3 0cbd
000000a0: 9447 343d 32f9 b83c f2a5 2ebd c53c 93bc
000000b0: 5fd3 b03c 158e 6ebc d55e df3c d3a8 90bc
000000c0: 61a0 a53c 4547 683d b184 2d3d 8720 bd3d
000000d0: 710b 5abc 54ac a03b 59c2 353c c98c f03c
000000e0: c188 b03d ece4 c33c 434c 353d 232b b13d
000000f0: 4e26 4fbc a0ed 83bc 71da 473d 952f c43d
00000100: 46ac 16bc 2256 02bd e919 813d 8fb0 22bd
00000110: d5b2 863d f0ee 8ebc d0ae ea3a 0f32 8a3d
00000120: 47ff 12bd 9e6d 453d 3bf9 0a3c e145 533d
00000130: 9cdb df3b bd6d 22bd 7609 f3ba 686c dd3c
00000140: fa8a c6bc 8f59 853d 515f 743d d757 28bc
00000150: a7ab 133d fc0e 583d 7746 a8bc 6e89 f93c
00000160: d5fb eebb 9a55 b43b
0.015085511 -0.022342747 0.046079084 -0.019645507 0.06434458 -0.022043845 -0.038814604 0.0077892225
0.023977034 0.07629296 -0.0117096845 0.09829492 0.045475423 0.01445756 0.016374923 0.054348394
-0.050660722 0.013717982 0.06963368 0.05498696 0.06435298 0.017419169 0.0025070866 0.035324626
0.074183725 0.011399216 0.052865535 0.06399935 0.0227345 -0.0015153785 0.004353683 0.01885721
0.047109067 -0.007832273 0.052752934 0.045246553 0.017495928 -0.012001761 -0.008664595 -0.03435083
0.044013575 0.022579763 -0.042638727 -0.017973313 0.021585165 -0.014560242 0.0272669 -0.017658627
0.020218076 0.056708593 0.042362873 0.0923472 -0.013308392 0.0049033556 0.011093699 0.029364007
0.08619834 0.02391287 0.044262182 0.08650806 -0.01264341 -0.01610452 0.048792306 0.09579388
-0.009196347 -0.031820424 0.0630377 -0.03971916 0.06577078 -0.017447919 0.0017904881 0.06747829
-0.035887983 0.048200242 0.008482273 0.051580314 0.0068315994 -0.039655436 -0.0018542248 0.027029231
-0.024236191 0.065112226 0.059661213 -0.010274849 0.036052372 0.052748665 -0.020541413 0.03046104
-0.0072932043 0.0055033686

weight f4 [30, 90]
00000000: a871 1f3e cdd4 823c 750f 2bbe 3b7d b43c
00000010: 2f44 683d 95f7 793d 6209 8d3c f3c7 1f3e
00000020: 02bf 6dbb 91d5 2d3e 24ab 623c 73b3 f8bd
00000030: 8b36 0d3d ac2b d2bd 74d1 d73d 691b 033e
00000040: 1bcd cc3d 1840 013e 0b15 d1bd 80a9 753d
00000050: 38cd c2bd f1f7 42be 8f72 c93d 7c18 c33d
00000060: af0d 213b 19c9 39be 9531 043e 8b1b 5c3e
00000070: c8e4 bebd b145 3fbd f735 0ebe bdc8 5abd
00000080: 2425 013d da46 663e 1235 f0bd 3440 bebd
00000090: 4a01 913b 691b 5ebd 2f52 c6bc 3b6e bd3c
000000a0: cb36 70bc ed16 58bd 33b6 883d 0f8d 4abe
000000b0: 9d16 653a 758c 65bd e9b1 a03d e1a2 26bd
000000c0: 1aa9 cc3d b5da cfba 427b d4bd 68c9 e4bd
000000d0: 19bc 2e3d 8886 23be 7257 d73b d515 37bd
000000e0: 73a4 01be 09d7 d03a 23c7 05bd f130 633d
000000f0: db44 c1bd 5073 bc3d d479 d1bd dcc8 a6bb
00000100: a07f 7c3d 0aaf ca3d 055a 62bd 6b0d d9bd
00000110: 2f51 e03b ef7a 20be ce8c f3bd 6d5f 7d3d
00000120: 256a 2dbe 31b3 59bc 0099 e0bd 15fd 4f3d
00000130: bccc 543e 350f 2c3e 9999 c13d 38e4 d2bd
00000140: 4310 f5bd 686b f43c 676d aabd afc8 51bd
00000150: 0200 a9bd 76fd edbc 7f40 623c b128 7e3d
00000160: 5ee6 fe3b 47ea c7bd 3972 e23d 2a61 3abd
00000170: 3b32 333e 0cbd a9bd 8428 54bd dd40 25be
00000180: dc25 b93d d7e3 c3bd 6573 cabc 20c9 bc3c
00000190: 2711 dd3d bb04 3d3d efba 3b3d a2f3 483c
000001a0: f089 363d 38b9 963c 3dcf 84bd 9cdc 35be
000001b0: 70e8 b83d 3881 a13c e836 f0bd 2d44 4cbd
000001c0: e3a2 33bd e659 59be 7a19 88bc 0cd3 fbbd
000001d0: da96 913d 2e33 94bd c8c8 4e3d e232 16bd
000001e0: 52cc 893e 6383 1bbe 5afc 263e 4a36 153d
000001f0: 5df1 ac3c f572 083d 14c4 06be e537 8bbb
00000200: af1c a63d 0099 a3bd 90d1 37bd 6a7f abbd
00000210: c7d5 033d 7213 783d ce77 bebd 948d c63d
00000220: 9af5 44be e287 9bbc 5091 d0bb 17f3 c83c
00000230: c993 de3d 27a3 1e3e 1ede c8bd c2d1 f5bd
00000240: 7faa 8ebc 8dba d03d 0760 b63d 8cdd eabd
00000250: d93d 19bc c5cf 9a3d d9e2 cb3c 4719 fcbd
00000260: 5e08 31be dddb fd3c 47e7 2e3e 9b22 5fbd
00000270: 189f 91bb 67a2 07be db29 debd d880 f9bc
00000280: 94ff 203a 71dd 2b3e 8580 ae3d 134c af3d
00000290: e6cb 33be 385b 1b3e 499a 39bd 70ce d93d
000002a0: c6eb 5cbd 96df faba 6fa5 06bd ef33 5f3d
000002b0: 2bbb 2f3e 0eb6 e5bd bc6b 3dbe 3949 973d
000002c0: 2f5c 80bc 507b 01be 231f 273e 6e6c ff3d
000002d0: db63 90bd 3e47 3ebe a86a edbd e050 9d3d
000002e0: ff2c 1d3e 1264 11be 7d60 3ebd 9e58 c2bc
000002f0: 74e4 e5bd 4698 7f3d 4304 d4bc e8fb c33d
00000300: 0869 0bbe 80df 543d 6433 20be 9944 1c3e
00000310: 8028 aabd 5350 9abc 7c9f 133c cc48 78bc
00000320: b14b 90bd 84aa ba3a fe8a 623c 9057 df3a
00000330: 8da2 bc3d dbee 233e 5372 c6bc 8b06 bcbd
00000340: d953 98bc f702 6cbe f587 283c e93a 283d
00000350: f59c 35be 025d 823d 8174 c23c 6167 edbc
00000360: ea85 68bd 40df 813d 15d4 df3d 4cf6 94bd
00000370: f85b 79bd 74a1 243b c33a 0a3e f926 a03d
00000380: 3545 b7bd d799 9e3d 09eb 4cbe ab73 733d
00000390: cffb 423e 4d29 0a3e c8cb 6f3c 3fbe 7a3d
000003a0: 1b3e 2d3d 21f9 09bd 57cd 14bb ee96 92bc
000003b0: bf1c 7dbb a478 413e 1242 47b9 5456 d43b
000003c0: 58da 6dbe f8a3 9d3b b6e9 c63d 9409 373d
000003d0: b99a 4e3e 4717 06bc ea98 1fbd f55e 0fbd
000003e0: 03b4 d2bc 781d c3bb 9ba7 d63d 87bf 0bbe
000003f0: 626c 2ebe 1dc9 4dbe 0306 51be a89e 273e
0.155707 0.015970612 -0.16705115 0.02203237 0.05670565 0.06102713 0.017216388 0.15603618
-0.003627718 0.16976 0.013834748 -0.12143602 0.034475844 -0.10262236 0.10537997 0.12803425
0.10000058 0.12622106 -0.10209092 0.0599761 -0.095117986 -0.19039895 0.098363034 0.095261544
0.0024574806 -0.18143119 0.12909539 0.21494882 -0.0932098 -0.046697322 -0.13887773 -0.053414095
0.03152956 0.22487965 -0.11728872 -0.092895895 0.0044252025 -0.05422536 -0.02420911 0.023123851
-0.014661501 -0.05275624 0.06675377 -0.19780372 0.00087390264 -0.056042153 0.07846434 -0.040682677
0.09993191 -0.0015858026 -0.10375072 -0.11171228 0.042659853 -0.15969288 0.0065717036 -0.044698555
-0.12660389 0.0015933226 -0.032660615 0.055466596 -0.09436961 0.092016816 -0.10228315 -0.0050898623
0.06164515 0.09896667 -0.05526163 -0.105982624 0.0068456153 -0.15671895 -0.11892091 0.061858583
-0.16935022 -0.0132873515 -0.109666824 0.050778467 0.20781225 0.16802676 0.094531246 -0.102974355
-0.11965992 0.029836372 -0.08321648 -0.051216777 -0.082519546 -0.029051524 0.013809322 0.062050525
0.0077789268 -0.09761482 0.110569425 -0.04550282 0.1749963 -0.08288011 -0.05179645 -0.16138025
0.09040424 -0.095649414 -0.024713228 0.023045123 0.10794287 0.04614709 0.04583257 0.012265118
0.04456514 0.018398866 -0.0648484 -0.17759937 0.09028709 0.019714937 -0.117292225 -0.049869705
-0.043856513 -0.212257 -0.01661371 -0.12296113 0.07108851 -0.07236324 0.05048445 -0.03666962
0.26913697 -0.15186839 0.16307202 0.036428727 0.021111185 0.033312757 -0.13160735 -0.0042486065
0.0811094 -0.07988167 -0.04487759 -0.08373912 0.032186296 0.06056542 -0.09300195 0.09694973
-0.19234315 -0.018985692 -0.006364979 0.024529977 0.108680315 0.15491925 -0.098079905 -0.12002899
-0.017415283 0.10191832 0.089050345 -0.11468038 -0.009353125 0.0755916 0.024888443 -0.12309509
-0.17288348 0.030988628 0.17080413 -0.05447636 -0.0044440143 -0.13245545 -0.10847827 -0.030456945
0.00061416 0.16783692 0.08520607 0.08559432 -0.1755825 0.15171516 -0.045313153 0.10635078
-0.05393579 -0.001914012 -0.032872614 0.054492887 0.17161243 -0.11216365 -0.18498129 0.07387013
-0.015668957 -0.12644696 0.16320471 0.12471853 -0.07050296 -0.18581864 -0.11592609 0.07681441
0.15349196 -0.1419833 -0.046478737 -0.023723897 -0.112252146 0.06240108 -0.025880938 0.09569532
-0.13614285 0.05197096 -0.15644604 0.15260543 -0.08308506 -0.01883713 0.009010192 -0.015154075
-0.07045687 0.0014241491 0.013827084 0.0017039645 0.092106916 0.16009085 -0.024224436 -0.091809355
-0.01859467 -0.23048006 0.010286321 0.041071806 -0.17735656 0.06365396 0.023737194 -0.028979959
-0.056768335 0.0634141 0.10929123 -0.0727354 -0.060878724 0.0025120648 0.13498978 0.078199334
-0.08948747 0.07744186 -0.20011534 0.05943648 0.1904137 0.13492317 0.014635988 0.06121659
0.042295557 -0.033684853 -0.00227054 -0.017894235 -0.003862187 0.18893677 -0.00019002732 0.0064800177
-0.23227823 0.0048108064 0.097125456 0.04468687 0.2017621 -0.008184261 -0.03896419 -0.035002667
-0.025720602 -0.0059544407 0.10481187 -0.1364728 -0.17033532 -0.2009625 -0.2041245 0.16369116

bias f4 [30]
00000000: 9637 e8bd 393d 5c3c 426e 79bd 027e c2bc
00000010: 9d84 c73c e612 3dbd 8687 8a3c 743f fe3d
00000020: 7bbf b1bc c386 38bd 54ba 113e 92cb 55bd
00000030: 5cd4 c8bd 9a67 de3d 6da7 da3d a744 87bd
00000040: 21de d5bc cef1 bd3d 10bf 353d 1e83 373d
00000050: 080a a73d 077e b83d e7d2 b93d 23c8 003e
00000060: e324 f3bd b06c 9d3d b5a6 8abb c369 6cbc
00000070: 0c9f 6b3c a7b9 4a3d
-0.11338727 0.013442331 -0.060896166 -0.023741726 0.024355227 -0.0461606 0.016910326 0.124144465
-0.02169775 -0.045050394 0.14231235 -0.052196093 -0.09806129 0.10859604 0.10676465 -0.06604891
-0.026106896 0.09274636 0.044371665 0.044802777 0.0815621 0.09008413 0.090734296 0.12576346
-0.1187227 0.07686746 -0.004231299 -0.014429512 0.014381181 0.049493458

weight f4 [90, 30]
00000000: d9f1 80bd 0ce9 e73d 954a 6abb f041 b93c
00000010: 7881 85bc 0c56 8b3d 008d ce3d 6358 cb3d
00000020: d70b 3e3e 106d bcbb 87a7 ed3c 2fff b93d
00000030: 79d1 2c3e 2457 aabd b4d5 be3d f9f3 55bd
00000040: b12b 64bd fd4c 6cbd 4dc2 25bd afb4 86bd
00000050: 8c84 f9bc 47f1 47bd 2e0f 45bd ea33 c4bd
00000060: 9e15 f63d 25bb cfbd ece1 f23d b581 223e
00000070: 9b21 313e 5dde 0abe a2b4 653d 183a 18be
00000080: af16 92bd 3e58 bf3d 9645 3f3c a352 b7bd
00000090: 2eb9 4e3c 8d63 303c 7193 bdbd 1d2a 2fbe
000000a0: 725b 1d3e a305 143e 2d1e 09bc baf9 b03c
000000b0: 27fe f73d aa76 873d 6391 85bd 7890 e739
000000c0: 775a 573e f98d f5bb 7761 e03c 0703 363e
000000d0: 08c3 aebd 82c8 7f3e 7034 f4bd c2bb 5bbe
000000e0: 4030 893e 1aeb 8fbc 3140 bf3d c275 4bbd
000000f0: a007 20be 77a4 d8bd 20d0 183e c881 923c
00000100: 5ea1 743e 5f35 26be 32dc ce3d 3939 753e
00000110: d575 09be ba1d f13d 3c79 2d3e 277e 69bd
00000120: b8bf 0bbd 9839 cb3d 4562 0a3e 60e1 fdbd
00000130: 4cc0 42be 34ff b23d 96f7 f93c 9eeb 48be
00000140: 62ee c7bc 822f 9dbd 97ec 83be e5e7 abbb
00000150: 99cf e4bd 3020 4a3d 9c0e 6bbe 7867 14bd
00000160: 4bfa 153e 3760 3e3d 52d7 5ebe 32d5 333d
00000170: de17 e13d 49cf 163e 2a96 933e f89e 0fbe
00000180: ab9e debc 73f6 c73a 38d0 6cbd 5f78 89bd
00000190: ac34 863c 4c76 e93d 0033 4abd 142a 393c
000001a0: 60ae 0c3e f3f3 4ebe 6c0a 13be 22df 4ebe
000001b0: a0f9 a53d d09c 623d 6ad5 023e 081c adbc
000001c0: 175f 163d b6e2 0a3d dd7b e5bc 2e4f 1d3e
000001d0: 8d52 e93d 695d 3a3d ffe9 edbd 48ea a3bc
000001e0: 66fa e83c 840d 93bd 1f17 283d 2883 233e
000001f0: f181 013e 5dd5 943d b3db 3d3d a814 a0bc
00000200: 7a31 3dbe 5bc2 2f3c 452b 04be 9163 853d
00000210: f818 7fbd b410 1bbe 51fc b9bc 945b 113d
00000220: 8c61 04bc 3f90 90bc 0461 c13d 2d7a 853d
00000230: 03f0 cfbd 5523 7a3d 0331 d0bd 4141 35bd
00000240: 6bc0 083d 2843 963d 1dfc c3bd 5c73 97bd
00000250: e805 2e3e 63e2 24be a0cd 7bbd 1156 ca3d
00000260: bb37 093d 8b95 073e 832d 1cbe 33a1 7abd
00000270: c63a 613c d32e aebd fc2c 7bbd b055 4c3e
00000280: d4ed 333d 498d 2b3e 2f3c bdbd 8740 833c
00000290: f10a e8bd cb9a 9f3d 9514 00be 0ae2 df3d
000002a0: be8b fc3d fe50 123e b440 e4bc 1348 4f3e
000002b0: 8a2f 69bd ad9b 19be 7561 023d abc0 72bd
000002c0: 7894 173e 5d6b 1cbe b72e 283e d1fa 073e
000002d0: 6c75 3cbe 3483 20bc d628 74bd 2aee 1cbd
000002e0: 24e3 3b3e 4b76 21be a9e6 5d3d 42ea 413e
000002f0: a654 12bd 3cea bb3d 4452 043d 77c5 493d
00000300: e013 973c ecdc 073d 5c15 a03d 95f3 03be
00000310: fd30 cf3d d710 04be 9902 3f3e f0cc 003e
00000320: 2dbe a7bd 92d2 8bbd 754a 13be 2c92 583e
00000330: 4f5e 15bb ad3a 1abd 534c 69bd 9dd1 2ebe
00000340: 4d15 b8bd 6590 9fbd d1d8 703d 877a 4cbd
00000350: 287d e23d 82b9 bbbd 83a6 683d c439 463d
00000360: 0017 f5bc 32ec 00bc ca95 0d3d 9e68 2b3d
00000370: 56ab cdbd 15b8 dcbd dedd 863d c632 debd
00000380: 1b01 84bb e173 cc3d cca5 33be 56f5 363d
00000390: a40a 883d 9655 8fbd c2ae 563d db07 013c
000003a0: b76b 7e3d 34ec 463d 94d1 1dbe 77dc 043e
000003b0: 8665 acbd 3f77 c7bc a1a8 6b3d 353b 43bc
000003c0: 9770 563c 69b3 033e 8135 0fbd b632 83bd
000003d0: b4b4 9d3d 5581 32be c5b3 9c3d ecc0 1d3d
000003e0: a262 053d afdd fa3d bd53 3f3d 4a3f 27bc
000003f0: 93bb c7bc f792 80bc 6964 703d 5c62 97bd
-0.06296129 0.11323747 -0.003575002 0.02261445 -0.016297087 0.068035215 0.10085487 0.09928968
0.18559204 -0.005750306 0.029010547 0.090818755 0.16876782 -0.08317402 0.093181044 -0.052234624
-0.05570573 -0.05769061 -0.040468503 -0.065774314 -0.030458711 -0.048814084 -0.04811018 -0.09580214
0.12015842 -0.10143117 0.118594974 0.15869792 0.17297976 -0.13561387 0.056080468 -0.14865911
-0.07133233 0.09343003 0.011674305 -0.089513086 0.012617392 0.010765922 -0.09256638 -0.17105909
0.15366915 0.14455275 -0.008369011 0.021603454 0.121090226 0.0661443 -0.06521871 0.0004416739
0.21030603 -0.007493731 0.027390225 0.17774592 -0.08533293 0.24978831 -0.11924064 -0.21458343
0.26794624 -0.01756816 0.093384154 -0.04967285 -0.15627909 -0.10578244 0.14923143 0.01788415
0.23889682 -0.16231297 0.10100593 0.2394761 -0.13423856 0.11773248 0.16940778 -0.057005074
-0.034118384 0.099230945 0.1351405 -0.123965025 -0.19018668 0.087400824 0.030513566 -0.19621131
-0.024405662 -0.07675077 -0.2576644 -0.00524615 -0.111724086 0.049347103 -0.22954792 -0.036231488
0.1464626 0.046478476 -0.21761826 0.04390449 0.109908804 0.1472751 0.28825504 -0.14025486
-0.027175268 0.0015255943 -0.05781576 -0.06712412 0.016382538 0.113995165 -0.049365044 0.011301536
0.13738394 -0.20210247 -0.14359444 -0.20202306 0.08104253 0.05532533 0.12776724 -0.02113153
0.03671178 0.033907615 -0.028013164 0.15362236 0.113926984 0.04549924 -0.11616897 -0.020009175
0.028439712 -0.07180312 0.041037675 0.15968001 0.12647225 0.07267258 0.0463521 -0.0195411
-0.18475905 0.01072749 -0.12907131 0.065131314 -0.06227967 -0.1514309 -0.022703322 0.035487726
-0.008079898 -0.017646907 0.094423324 0.06517444 -0.101532005 0.06106885 -0.10165598 -0.044251684
0.03338663 0.07337028 -0.09569571 -0.0739505 0.1699444 -0.16101985 -0.061475396 0.09879697
0.033500414 0.1324064 -0.15251736 -0.061188888 0.013746923 -0.08505025 -0.061322197 0.19954562
0.043927982 0.16753115 -0.09239995 0.01602198 -0.11330212 0.07793196 -0.12507851 0.109317854
0.12331341 0.14288709 -0.027862884 0.20242338 -0.056930102 -0.15000792 0.031831224 -0.059265774
0.1480273 -0.15275331 0.1642407 0.13279273 -0.18404168 -0.009796906 -0.059609257 -0.03831307
0.18348366 -0.15767781 0.054175053 0.18937019 -0.03572526 0.09175536 0.032305017 0.049260583
0.018442094 0.033169672 0.07816574 -0.12885888 0.10116766 -0.12897049 0.18653335 0.12578177
-0.0819057 -0.068272725 -0.14383872 0.2114951 -0.0022791808 -0.037653614 -0.056957554 -0.17072149
-0.08988438 -0.07791213 0.058800522 -0.04992154 0.11059028 -0.09166242 0.056799423 0.048394933
-0.029918194 -0.007868813 0.034566678 0.041847818 -0.10042445 -0.10777298 0.065852866 -0.10849528
-0.004028452 0.0998304 -0.17543715 0.044667564 0.066426545 -0.06998746 0.052412756 0.007875408
0.062114444 0.048565105 -0.15411979 0.12974726 -0.084178016 -0.024348853 0.057533864 -0.0119159715
0.013088367 0.12861408 -0.034963135 -0.06406157 0.07700482 -0.17432149 0.07651476 0.038514063
0.032564767 0.12249314 0.04671072 -0.01020796 -0.024381435 -0.015695078 0.05868951 -0.073918074

bias f4 [90]
00000000: 2e7a d1bd 1a79 e33c bc33 923e 500c 313b
00000010: eca3 7bbd 835e 6dbd e9e8 36bc 860e 04be
00000020: 4bf7 9f3d 62cb 833e 0bb9 c13b 3ad7 cd3d
00000030: e0e2 463e 7f8e 05be cc8d 843e 8c60 0a3e
00000040: c4e0 923e b9f0 d73d a14a 9e3e 29ac e0bb
00000050: 8318 39bd 83d1 46bc efda 02be 66d2 d53d
00000060: c20b c73d 50ac 293e 0aa0 aebd 5803 5fbd
00000070: 7eec 753e 516c 08bb f390 e5bd d546 593e
00000080: 40a7 7f3e b23a 7e3d e026 da3d 55e1 923c
00000090: fb6f 923e e553 aa3d 7cf0 b7bc bed1 8b3e
000000a0: ef53 183e a789 f6bd 430d 753d 2da9 b73d
000000b0: 104c bdbb 1028 963e b8ba 823e 20b4 03be
000000c0: 9310 743e a730 c63d 2f18 b2bd 2932 01be
000000d0: 92ae 533e ee51 913e e510 963e 7d76 033e
000000e0: a4ed d83d dfa4 3d3e 40d7 823e a187 2f3e
000000f0: 6771 153e 00e1 5bbd 91f5 a0bd f1e8 6e3e
00000100: 1a45 333e ef8a a33c deff 103e a510 843e
00000110: 4a1f ed3d 2ad2 723e a778 72bd 19d5 033e
00000120: b10f 2b3e a8ef 933e 33f6 97bd 7ab3 133e
00000130: 1998 333e 059e 063e 91d1 29bb 2d03 d83d
00000140: f5b1 253e 30a7 1bbe ff2e 843e 92aa 833d
00000150: a934 cb3d 81cb 803c 7a44 50bd eb34 8f3d
00000160: 8911 9d3e 409b a5bd
-0.10228382 0.027767707 0.28555095 0.0027015395 -0.061435625 -0.05795146 -0.011163929 -0.12896165
0.07810839 0.25741106 0.0059119514 0.10050817 0.19422483 -0.13042639 0.25889432 0.13513392
0.28687108 0.10543961 0.30916312 -0.0068564606 -0.04518939 -0.012134912 -0.12778829 0.10440521
0.097190395 0.16569638 -0.08526619 -0.05444655 0.24015996 -0.0020816515 -0.112092875 0.21218427
0.24966145 0.062067695 0.10651946 0.017929712 0.2860106 0.08316783 -0.02245354 0.27308458
0.14875768 -0.12037974 0.0598271 0.089678146 -0.0057768896 0.2932744 0.2553308 -0.12861681
0.23834448 0.096772484 -0.08696019 -0.12616791 0.20672062 0.2838282 0.29309765 0.12838168
0.10592201 0.18519925 0.25554848 0.17141582 0.14594041 -0.053681374 -0.07859338 0.23331048
0.17506829 0.01996371 0.14160106 0.2579395 0.115782335 0.23712984 -0.059197094 0.12874259
0.16705205 0.2889378 -0.07420006 0.14423934 0.1753849 0.13146217 -0.0025912265 0.10547481
0.16181166 -0.15200496 0.25817105 0.06429018 0.099221535 0.015722038 -0.050846554 0.06992515
0.3067744 -0.08086252

weight f4 [270, 90]
00000000: cd03 96bd 2035 98bd d580 113d 41cc 993c
00000010: 2e50 20bd b354 c7bc 8646 d9bd 5a41 4d3d
00000020: 0195 753c 3aa9 233d b82f a8bd c71c 78bd
00000030: a576 a03c b9f6 123e b069 c63d be09 ddbd
00000040: 806c 32bc 9e54 e43d 688f 393d 6712 b63d
00000050: 76ad ea3d 206d d83d 753b 64bd 7ab2 84bd
00000060: 13de f13d d54d abbd 5a37 79bd 8dab ac3d
00000070: b65c e83d 2f8d 85bd b858 59bd bda5 a2bb
00000080: b739 c93c f484 373d 7b67 073e b88f 87bd
00000090: 46b2 8f3d d1fc e5bc 4d8a bcbd 5d99 e9bd
000000a0: f960 5dbc 57a3 7c3d 1918 893d 478f c13d
000000b0: 1919 c2bb 41f9 53bc edb5 11bd 9eff c1bc
000000c0: a022 cdbc 725c 223e f204 2a3d af70 8fbd
000000d0: 816d 223d 9f21 783c 5526 043d 1c37 0bbd
000000e0: 3b59 38bd 1414 f33c b741 b03d 6cf1 a3bd
000000f0: cf31 123e 2882 2ebd 0a19 3539 dddd 2abd
00000100: b834 273e 6903 4d3d ef5c 68bd f3cc dfbc
00000110: 2739 893d b6d7 8dbd 6cfd 263c d03a 673d
00000120: 2ef8 91bd dd70 9a3d fc8b 8dbc 3801 85bd
00000130: dee0 163d 5ec0 80bc 3560 86bd 6ce2 23bd
00000140: e408 b3bc 9834 133d ce55 bcbb 031d 4bbd
00000150: 68b3 02bc a54d 4b3c b6bc a33c 3999 973d
00000160: a633 adbd 55c3 91bd 9351 843d 4b1c 26bd
00000170: b923 093e 1b6b ab3d 6785 83bd a80c 81bc
00000180: e806 7a3d 8e26 9ebd 7eed 16bd 1223 62bd
00000190: 8e04 cfbc 10f5 8c3c bb25 383d e534 1c3d
000001a0: 4738 cd3d e809 763c 24fb ca3d bab2 eebd
000001b0: 9eaf 693d f2cf 07bd 7054 173d 844d 1e3d
000001c0: c3d7 173d 774e 86bd 16e8 dbbc e3e5 09be
000001d0: f203 163d 1377 033d de3d 94bc 59ec 54bc
000001e0: 852f cbbd d418 e8bc 6d18 e83d 4cea 023d
000001f0: 6889 8dbd 9924 ca3d a8c5 803d c704 0dbd
00000200: adb7 2c3d f7f8 b63c 13dd f23d 57cb 773d
00000210: 8b0d 6fbb 55cd 013d 0524 bfbd 2241 4dbc
00000220: d4de ab3d e025 ed3c 3459 b13d 4ca3 e53d
00000230: 59bc 55bc f5dd a43b e2a5 2f3b 61bc ff3d
00000240: 031d 923d 5e13 993c cb8a 893b 80c1 273c
00000250: 9e41 aa3a 5cf5 d0bd 2fc2 2fbd 1988 d2bc
00000260: a55a e8bb f534 663d 0ad2 05bc bf1c a9bc
00000270: 0791 d1bc ee73 87bd eea7 72bd c2bc 4c3d
00000280: 23ab dc3d b185 cfbb 1405 9abd fa8d 33bd
00000290: d51b b5bd 2bdb f23d 872a 08bd 841f 14bc
000002a0: 0770 8bbd 6712 ed3c 8155 ccbc 1c1a 563c
000002b0: 5109 69bd 4545 c7bd 7367 993c e046 15bc
000002c0: a53a f1bc 8efc 85bc b509 bbbd d5b6 f63c
000002d0: 56b4 cc3d c649 d5ba a4f0 123d 14e8 dabd
000002e0: 9dc7 63bd d9df c23d fdb0 843d 649d 853d
000002f0: eae6 db3c e21c f4bc ec6e c3bc 5539 213d
00000300: 46a0 543d 9fdb 57bd 5ccd ea3d 5d8d 7f3d
00000310: ce8d 98bd 10d5 9fbd ada0 bc3d 9c30 42bb
00000320: 2198 63bd d94d d8bc c7b7 d13d 5eb6 55bd
00000330: cd1c bd3c 6006 6bbd 3660 afbd 90fe 4739
00000340: 0361 d0bc 583e 153d c43f babc e706 443d
00000350: 5a4a de3c 0163 f43d c89e 3c3d 1fac 963c
00000360: 3af4 2e3d f5db 8b3c af8b 6e3d a91c 10bd
00000370: 6291 2a3e 6735 2e3a 7324 0a3e b9d1 e13c
00000380: 048d 953d 4c2a 883d 7591 eebc e6d4 fe3c
00000390: 3be2 83bd 964c ea3c 80fc ffbc 9171 c5bd
000003a0: f62c 46bc 48cb 2fbc f41f 9f3d ff92 a83d
000003b0: c533 d1bc 0ad2 013d 8cd7 b33c 7223 4fbd
000003c0: 2487 613d 79ef 2fbd 3311 f6bc 6531 c73d
000003d0: 1d1f a3bd 3903 b7bd a3ff 88bd c621 a7bc
000003e0: a9a1 a03d ca65 303d b8e7 5c3d c3bf adbc
000003f0: c081 963d 460d 98bd aab0 d63c 0b82 bbbd
-0.07324944 -0.07432008 0.035523254 0.018774154 -0.039138965 -0.02433238 -0.106091544 0.050111152
0.014989139 0.03995631 -0.08212227 -0.06057432 0.019587824 0.1435193 0.09688127 -0.10792874
-0.010890126 0.11148952 0.04530278 0.08890229 0.11458866 0.10567689 -0.055720765 -0.06479354
0.118099354 -0.08364455 -0.060843803 0.08431158 0.11345808 -0.06521069 -0.053063124 -0.004963605
0.024563653 0.04480453 0.13223068 -0.06619209 0.07016425 -0.028074654 -0.09206066 -0.11406205
-0.01351189 0.06167921 0.066940494 0.09451156 -0.005923402 -0.012937845 -0.03557389 -0.023681458
-0.025040925 0.15855578 0.041508622 -0.070039146 0.039655212 0.015144735 0.03226312 -0.033988103
-0.04500697 0.02967266 0.08606284 -0.08005032 0.14276813 -0.042604595 0.00017270833 -0.04171549
0.16328704 0.05005208 -0.056729253 -0.027319407 0.06700354 -0.06925909 0.010192256 0.056452572
-0.07127415 0.07541058 -0.017278664 -0.06494373 0.036835544 -0.015716728 -0.06561319 -0.040010855
-0.021854825 0.03593883 -0.0057475334 -0.049588215 -0.007977344 0.012408649 0.019987445 0.07402272
-0.08457117 -0.07117335 0.064608715 -0.040554326 0.13392533 0.08370038 -0.06421929 -0.015753105
0.061041743 -0.077221975 -0.036847584 -0.055209227 -0.025270727 0.017206699 0.044957858 0.03813638
0.100205 0.01501701 0.099111825 -0.11655183 0.057052247 -0.033157296 0.03694576 0.038648143
0.037071 -0.06557935 -0.026844066 -0.13466601 0.036624856 0.03209598 -0.018095907 -0.012995803
-0.09921173 -0.028332151 0.11332784 0.031961724 -0.06910974 0.09870262 0.062877 -0.034428384
0.042167354 0.022335513 0.11858573 0.060496654 -0.0036476578 0.03168996 -0.09333042 -0.012527736
0.083921105 0.028948724 0.08659592 0.11212787 -0.013045394 0.005031342 0.0026801755 0.12487102
0.0713444 0.018685993 0.0041974536 0.010239005 0.0012989526 -0.102030486 -0.042909797 -0.025699662
-0.007090884 0.056202848 -0.008167753 -0.02064359 -0.02558185 -0.06613909 -0.05924218 0.0499847
0.10774829 -0.006333076 -0.075205 -0.04383657 -0.08843199 0.11858209 -0.033243682 -0.009040717
-0.06808477 0.028939439 -0.024943115 0.013067748 -0.05689365 -0.09730009 0.018726086 -0.009111136
-0.02944691 -0.016355779 -0.09132711 0.030116478 0.09995334 -0.0016272597 0.035874024 -0.10688797
-0.055610288 0.09515352 0.0647907 0.065241605 0.026843507 -0.029798929 -0.023856603 0.039361317
0.05191066 -0.05269968 0.114649504 0.062390674 -0.07448922 -0.0780431 0.09210334 -0.0029631024
-0.055565003 -0.026404308 0.10240131 -0.052175872 0.023085022 -0.057379127 -0.08563273 0.00019072951
-0.025436884 0.03643641 -0.022735484 0.047858145 0.027135063 0.11932946 0.046049863 0.01839262
0.04271338 0.017072657 0.05823868 -0.035183582 0.16657022 0.0006645531 0.13490467 0.027565824
0.07302287 0.066486925 -0.029122094 0.031107377 -0.064396344 0.028600972 -0.031248331 -0.09640802
-0.01209568 -0.010729618 0.077697664 0.08231162 -0.025537381 0.03169445 0.021953367 -0.050570913
0.05506052 -0.04295299 -0.030037498 0.09726218 -0.07964919 -0.089361615 -0.06689384 -0.020401847
0.07843334 0.043065824 0.05393192 -0.021209603 0.073489666 -0.07424407 0.026207287 -0.09155663

bias f4 [270]
00000000: be53 a63c 9ea8 25bc 80b2 9e3c c38e 833c
00000010: 00de bb3d aa49 113e 441a 263e 070d dcbd
00000020: a467 e33d fac2 8bbb 9fe2 9e3c bb89 3a3e
00000030: 0029 38bd 60f8 0dbd c8ec 18bd 2fa5 cd3d
00000040: 6470 ca3c a256 ea39 daed 173e c230 bf3d
00000050: 7dff 493d 47ce 56bd 4673 bf3d e9a0 903d
00000060: 282b 29bd 325b 333e fccc da3d 66ca 9ebc
00000070: 1c50 88bd 0808 d73d f04f fcbc 27b7 f1bc
00000080: 3589 1a3e 05d7 033d b55d d4bd dd8b 043c
00000090: fca2 c13d 8727 5c3d 5b09 0b3e d9b7 14bc
000000a0: 01d0 883d d2bf 0e3e e8bc babc e725 fdbd
000000b0: 7487 7a3c e995 9d3d 2917 933d 0785 ca3d
000000c0: 214e e43c 7e8c fd3d eb7b 813d 54cf 9b3c
000000d0: d350 ae3d dd3e 133e c570 ccbd 2f6b 9d3d
000000e0: 7aa5 1c3e b24c 0d3e aff7 b53d 1adf c8bd
000000f0: ed7b 05bc 3856 f93d 7a57 eb3d cd1b eb3c
00000100: 460a 81bd e724 2f3d c14a 9c3d 9cb3 f13d
00000110: a688 16bc 32a1 163e 756b 83bd 860b 83ba
00000120: f6c0 053c c9c8 98bd abb2 193c ccc6 bf3d
00000130: 33c7 6b3d ccf0 103d b901 45bd 92f1 02bd
00000140: eb3c 1abc 95cb 90bc 1381 623d 7d28 bdbd
00000150: 862f 9a3c d330 133e 41d3 63bd 1a9a b9bb
00000160: 40d3 bc3c 6392 d9bd 8db3 abbc 2952 293d
00000170: a25f c2bd f511 a4bc 6b33 573d dbb8 df3d
00000180: f6da 3b3d 29a4 7fbd fec3 3b3e 120e 83bd
00000190: 0a04 0bbc 2bd1 a7bd 7838 e53d 5686 75bd
000001a0: 76a3 dcbd 097c 1dbd d654 293c cbdf 843c
000001b0: d912 133d 8bcf 6c3b 0cfc 54bd cf7e e23d
000001c0: 5b77 bc3d d6e2 9dbd a38d 3f3e ab73 22bc
000001d0: 197d 41bd 5ee1 0b3e 09ca 27bd 050e f23b
000001e0: b536 38bb aa07 f5bc 49b7 793d f7b5 2f3d
000001f0: c1b2 183e ad13 00bd c2d5 213e afd1 9d3d
00000200: fd9c c8bd adc6 96bd fd12 bcbd 17b0 083d
00000210: 9387 fe3c e1fc 143d 739e 953d d773 a83d
00000220: d375 4c3d 72a8 febc 1913 023e cd2b 653c
00000230: d8d3 a33d f7b2 463d 7ba7 9c3d bf37 c73d
00000240: 3045 14bd f6ff a0bd 0f1f 8dbd 0503 b1bd
00000250: d148 3b3d 4728 2fbc c65e b73c 428b b73d
00000260: 7e7a e03d 0c34 6d3d 9546 41bd 0f9d fe3d
00000270: adb2 113c fba8 b2bd a105 fe3d 0dfc 17bd
00000280: b64a e73d bc59 3d3d 26ae 39bd 925d 4a3d
00000290: ec93 153e 52ee 43bd 78bc c93d ddcd ed3c
000002a0: d932 77bd f099 2f3e 576b 26bd eb40 543d
000002b0: 9003 783c 961d a0bd 1802 153c eb4b 3ebd
000002c0: e79e ba3d 69b2 8f3d 4d11 a43d 19c9 f23d
000002d0: a670 533e 1f7b 003d ac93 9b3c 80b7 9dbd
000002e0: a823 993d cc79 983d dfda 58bd 4f64 f33d
000002f0: e0c8 af3d 94fb 203d 4682 a13d ad4c d9bd
00000300: 8417 98bd 7973 f4bc 26d5 813d 9451 b43c
00000310: ea31 d53c e8ab df3d b8ea 003e b22f bc3d
00000320: d305 043e bc8a fe3b e60c 073e 71f0 e53d
00000330: 7e70 b13d 8198 cb3d 1c95 63bd 4ccc 9b3d
00000340: eaf8 4abd 6c4c 7cbd e5af dfbb ffcc 093e
00000350: b10e 9e3d 91a5 93bd fcc3 32bd 9e30 013e
00000360: d7ee 1fbc 6241 dfbc 1bf9 ea3d e33e 6d3d
00000370: 5ca2 4fbd d42b 963d e2ce 163e ee4c 9e3b
00000380: a24e ad3b 49f5 60bd 637c a43d 3c87 d3bd
00000390: b7e6 d2bd 281c ce3d b2eb 29bd 8d7a ea3c
000003a0: 6960 4d3e 991e 20bb 8bea d73d 75b7 89bc
000003b0: 1948 85bd 48c4 943d 266d 003d 8fab 433d
000003c0: 6650 053e 994e 423c 3c82 2e3c 425b 39bd
000003d0: 182e a9bd 7aff afbd 63de 71bd 749b 80bd
000003e0: aa7d a9b9 9f72 0c3a 4dfd 613d c666 94bd
000003f0: 86d9 a93d cf23 613c 56a9 523d 094d e0bc
0.020303603 -0.010111002 0.019372225 0.016059285 0.091732025 0.14188257 0.16220957 -0.10744672
0.11103752 -0.0042651864 0.01939517 0.18216603 -0.044960976 -0.034660697 -0.037335187 0.10041272
0.024711795 0.00044696504 0.14836827 0.09335472 0.04931592 -0.052442815 0.093481585 0.07061941
-0.041300923 0.17515257 0.10683629 -0.01938362 -0.06655905 0.10499579 -0.030799836 -0.02950628
0.15091403 0.03218748 -0.10369436 0.008089987 0.09454915 0.053748634 0.13577788 -0.009077036
0.066802986 0.13940361 -0.022795156 -0.12360745 0.015291084 0.07694609 0.07182152 0.09888654
0.027869286 0.123803124 0.063224636 0.01901976 0.0851151 0.14379449 -0.099824466 0.07686459
0.152975 0.13798788 0.088851325 -0.09808178 -0.008147222 0.12174648 0.11491294 0.02869978
-0.06300788 0.042759802 0.07631446 0.11801836 -0.009187853 0.14709929 -0.0641698 -0.0009997941
0.008163681 -0.07460172 0.009380977 0.09364089 0.057563018 0.03538589 -0.048097346 -0.03196866
-0.009413938 -0.0176752 0.055298876 -0.09236238 0.018821489 0.14374094 -0.05562139 -0.0056641223
0.02304995 -0.10623624 -0.02095964 0.04133812 -0.09490897 -0.020028094 0.05253927 0.1092393
0.045863114 -0.062412415 0.18336484 -0.06399168 -0.00848485 -0.081941925 0.11192411 -0.059942566
-0.10773365 -0.038448367 0.010335168 0.016219994 0.035906646 0.0036134447 -0.051998183 0.11059343
0.09202453 -0.07709281 0.18706374 -0.009915273 -0.047238443 0.1366019 -0.04096416 0.007386925
-0.002810878 -0.029910881 0.06096581 0.042898145 0.14911939 -0.031268764 0.15804198 0.077060096
-0.09795568 -0.07362113 -0.09183309 0.033371057 0.031070506 0.036373977 0.073056124 0.0822522
0.049917053 -0.03108618 0.12702598 0.013987494 0.0799939 0.048510518 0.07649132 0.097274296
-0.036198795 -0.07861321 -0.068906896 -0.08643154 0.04572374 -0.010690755 0.022384059 0.08962108
0.109608635 0.057910964 -0.047186453 0.124323 0.008892697 -0.08723637 0.124034174 -0.03710561
0.11293547 0.046228155 -0.045332097 0.04940564 0.14607209 -0.0478347 0.09850401 0.029028827
-0.060351226 0.17148566 -0.04062971 0.051819723 0.015137568 -0.07818143 0.0090947375 -0.04645912
0.091123395 0.07016451 0.08011112 0.118547626 0.2064844 0.031367417 0.018991314 -0.077010155
0.07477504 0.07445106 -0.052943107 0.11884367 0.08583236 0.039302424 0.07886176 -0.10610328
-0.0742636 -0.029840218 0.06339483 0.022011556 0.026024777 0.109214604 0.12589538 0.09188785
0.12892847 0.0077680033 0.13188514 0.11227501 0.08664034 0.09941197 -0.055562124 0.07607326
-0.04955379 -0.06159632 -0.006826388 0.13457106 0.07717646 -0.07209314 -0.043643937 0.12616202
-0.009761534 -0.027252857 0.11473294 0.0579213 -0.050691947 0.07332578 0.14727357 0.004830948
0.005288915 -0.054921422 0.080315374 -0.10328528 -0.102979116 0.10063964 -0.041484542 0.02862289
0.20056309 -0.00244323 0.105427824 -0.016811112 -0.06507892 0.07264 0.031354092 0.047771033
0.13018951 0.011859559 0.0106511675 -0.045253046 -0.08260745 -0.0859365 -0.059049975 -0.0627965
-0.0003232782 0.0005357656 0.055173207 -0.07246165 0.082934424 0.013741448 0.051431023 -0.027380483
