knn/models/pretrained-autoencoder/autoencoder-in_features150-latent_size3.pt (torch, 56432 bytes, 12 tensors)

weight f4 [27, 150]
000000 38 57 20 bd a4 10 9d bc 5f 70 22 bd ed 0e d0 3b
       -0.03914568 -0.019172974 -0.039657947 0.0063494355
000010 08 7a df bc 52 26 59 bd 04 ec 47 bc 61 b5 46 3c
       -0.027279869 -0.05301506 -0.012202267 0.012128205
000020 f8 43 7f 3b c5 6b 26 bd 3c 96 21 3c 0f 89 df 3b
       0.0038950425 -0.04063012 0.009862479 0.0068217586
000030 f2 84 01 bc 34 1a 55 3c d4 42 55 bb 51 42 66 3c
       -0.007905232 0.013006736 -0.0032541053 0.014053897
000040 73 9a 52 bc 76 d4 23 3c 64 68 79 bd f9 81 46 3c
       -0.012854206 0.009999385 -0.06089057 0.012115949
000050 a1 69 c9 3c fa 3e 2d 3d 97 4e e2 bc e3 09 6a 3c
       0.0245865 0.042296387 -0.027625365 0.014284584
000060 11 0b cc 3c 2f ba 8c b9 a8 58 0f 3d 60 2d b3 3c
       0.02490762 -0.00026841598 0.03499666 0.021872222
000070 4d 27 ab bc 7d cc 40 3d 8f 45 ae 3b b3 aa f1 3c
       -0.020892764 0.047070015 0.0053183506 0.029500341
000080 b2 f8 59 3d 25 76 05 bd d3 8d 3a 3d 01 be 31 3b
       0.05321569 -0.032583375 0.04554541 0.0027121308
000090 97 5b 94 bc bd 46 60 3d 9e 85 38 bb fe 51 1a 3d
       -0.01811008 0.05475496 -0.0028155814 0.03767585
0000a0 b6 5d 5c 3b 0d de 3c bc 1f 8c 5c 3d 26 19 c6 bb
       0.0033625192 -0.01152755 0.053844567 -0.0060454784
0000b0 57 b0 7d 3c 89 08 9e 3c ad 57 29 3d f9 9a df ba
       0.015483937 0.01929118 0.04134338 -0.0017059735
0000c0 c2 16 de ba 4f 84 87 3c ad f0 fe 3c a0 35 d1 3c
       -0.0016944038 0.016542582 0.031120623 0.025538266
0000d0 93 9c e6 3c 26 34 82 3b ed 99 c4 bc f4 27 10 bd
       0.028150832 0.0039735017 -0.023999179 -0.035194352
0000e0 a7 e2 2c 3c 4e 6a 07 bc 00 8e 7c bc 9e fd 83 3c
       0.010552085 -0.008265091 -0.015414715 0.016112145
0000f0 df 7e e5 bc 97 8d bf bc 3a fb 05 bd 50 c3 aa 39
       -0.028014598 -0.023382945 -0.03271029 0.00032570446
000100 56 93 3a bd 15 ba f7 3c e7 6a 28 bd ab a3 22 bd
       -0.045550667 0.030240098 -0.041117575 -0.039706867
000110 0a 66 86 bb 01 e2 a8 bd fb 58 13 bd 77 e0 b9 bc
       -0.0041015195 -0.08246232 -0.03597353 -0.022690041
000120 28 31 29 3b d0 0d 3b bd 30 59 e1 bc 3c 26 75 bd
       0.0025816653 -0.04566747 -0.027508348 -0.059850916
000130 47 75 08 bd 2a 70 6f bc 32 8c da bc 2a 0c 2a bd
       -0.03331497 -0.014614144 -0.026678178 -0.041515507
000140 4f 53 87 3b 34 d7 e8 bc e9 bf f5 3a fc ca 2f bd
       0.004129804 -0.02842293 0.001874921 -0.04291819
000150 bc d4 34 bd 0a c5 45 bb 2a 08 a2 ba 37 5c 32 bd
       -0.04414819 -0.003017726 -0.0012362052 -0.043544974
000160 7f 5c 47 bd 1d 5a ca bb 36 83 0b bc 19 d6 5b bd
       -0.048672196 -0.006175293 -0.00851517 -0.053670976
000170 8e 3b 10 3c 5b e7 44 3c 77 55 36 bc 62 d5 f6 bc
       0.008803261 0.01201805 -0.011128775 -0.030131046
000180 bb 99 7b ba ea 8b 9f 3c 0d 44 57 bd 41 99 2b 3c
       -0.0009597798 0.019475896 -0.052555133 0.01047355
000190 a5 dd bc 3b 1e 60 87 3d b6 9f 6f bd 97 bc 30 3c
       0.005763727 0.0661013 -0.05850192 0.010787151
0001a0 1c 2f ca 3c bb 5d e9 3c b8 bf 58 3c 4d b5 c9 bc
       0.024680667 0.028487077 0.013229303 -0.024622584
0001b0 79 b6 52 3d f4 20 1f bd 3f 7f 20 3d f2 54 e4 3c
       0.05144355 -0.038849786 0.03918385 0.027872536
0001c0 29 3c 32 3d 94 91 94 3a c9 de 82 3d 0c c3 2f 3d
       0.043514404 0.001133489 0.06390149 0.04291062
0001d0 d0 69 03 3c 89 a3 22 3d 1e 3d ee 3a cc ba 06 3d
       0.008020833 0.03970674 0.0018176173 0.032892987
0001e0 75 b7 5d 3d 9c 4b 75 3d 57 7a 09 3d 5f f6 c5 3c
       0.054130036 0.05988656 0.033563938 0.02416533
0001f0 92 1d 7c 3b 54 c3 9b 3d 6f d9 3e bd 1e 00 58 3d
       0.0038469774 0.07605615 -0.04659408 0.052734487
000200 2f 4b 7e b9 9c 14 15 3d c2 8c 44 3d 32 7a 9d bc
       -0.00024251336 0.036396608 0.0479858 -0.019223306
000210 6a 06 3d 3d 67 cc 53 ba d0 d4 b8 3b f6 cd 23 bc
       0.046148695 -0.00080794696 0.0056406036 -0.009997835
000220 f6 f2 f7 bc 5c a7 e2 bc 82 cb fc bc ab 2f 7c bd
       -0.03026722 -0.027667694 -0.030858759 -0.061568897
000230 be 55 a6 3b 66 6c 1c bd 38 8a cd bc f2 00 4d bd
       0.0050761392 -0.038189314 -0.025090322 -0.05004973
000240 ca b5 49 bc 07 68 97 bd 78 4e 8e bc c4 fb ad bd
       -0.012311408 -0.073928885 -0.017371401 -0.08495286
000250 7e 00 87 bd 7f 4f 82 bd f1 be 86 bd cb 64 c5 bd
       -0.06591891 -0.06362819 -0.06579388 -0.09638365
000260 2f 64 5f bc cf d2 6f bd 9e 42 65 ba 61 36 84 bd
       -0.0136347255 -0.058550652 -0.00087455835 -0.064556845
000270 ca 40 5e bd 06 18 92 bd 8e 4e 87 bd 71 db 4e bd
       -0.054261006 -0.07133488 -0.0660678 -0.050502244
000280 f7 a5 b5 38 7d 39 76 bd b0 d0 0d 3c 6e 5c 85 bd
       8.661666e-05 -0.06011342 0.008655712 -0.0651177
000290 bb 97 8c 3c fd 33 36 bd b7 3b d1 bc ed c8 16 bc
       0.017162194 -0.044483174 -0.02554117 -0.009203178
0002a0 62 26 73 bd a0 d7 aa bc 3b 8e 5e 3c aa 81 b2 bb
       -0.059362777 -0.020854771 0.013583715 -0.005447586
0002b0 ca cd 37 bd b7 b1 94 bb b1 a5 ce 3b f0 d9 03 3d
       -0.04487399 -0.004537787 0.006306373 0.032190263
0002c0 a3 27 32 bd 62 8e 9e 3d dc 4a 0e 3d 14 0b ef bb
       -0.04349483 0.07742001 0.03473936 -0.007295022
0002d0 c6 7c 5d 3d 96 df 0b bd e4 78 85 3b 2b ba e6 bc
       0.05407407 -0.034148775 0.004073249 -0.028164944
0002e0 27 62 4d 3d e4 84 43 bd da bf 9c 3d 27 22 37 3d
       0.050142433 -0.047734156 0.0765378 0.044710305
0002f0 88 a1 80 bc 98 54 f5 3c 1a 96 58 3d ad 93 0c bc
       -0.015702024 0.029947564 0.052877523 -0.0085801305
000300 01 0b a5 3d ca c2 28 3a 21 15 45 3d d4 b9 ea bc
       0.080587395 0.0006437717 0.048115853 -0.028653063
000310 33 97 29 3d 21 36 94 3c c5 39 5e 3a 39 01 7d 3d
       0.04140396 0.018092217 0.0008477236 0.061768744
000320 98 a6 05 3d a6 1f 67 3d b5 35 a3 3a 65 9d 92 3c
       0.03262958 0.056426667 0.0012451919 0.017897317
000330 be 19 5e 3d bd 16 a3 3c fa 57 68 3d df a8 0b 3b
       0.05422377 0.019908303 0.056724526 0.0021310372
000340 78 a6 5d 3d 60 30 e0 bb ef f0 06 3d 46 f0 0b 3d
       0.054113835 -0.0068417042 0.032944616 0.03416469
000350 ef d9 6c 3d b1 d1 e1 bc 1b 37 64 3d 53 3d a0 bc
       0.057825025 -0.027565809 0.055716615 -0.019560492
000360 8e 0a 45 3d 58 17 91 bb bb 38 76 3c 32 35 dc 3c
       0.04810577 -0.0044278316 0.015028174 0.026880834
000370 2c bf 93 3c 43 09 75 3d de 4f e7 bc 82 e7 a6 bc
       0.018035494 0.059823286 -0.028236326 -0.020374063
000380 5c 7b af 3a 9f 54 75 3d ca d8 36 3d a7 87 e2 b8
       0.0013388204 0.059895154 0.04464034 -0.00010801787
000390 4b 7f 90 bb 3c 82 05 3d f2 2a a9 3c ef 45 02 bd
       -0.0044097058 0.032594904 0.02065036 -0.031804975
0003a0 27 87 74 3d fc 73 48 bb 05 60 f4 3c d0 1e 2d 3b
       0.059699204 -0.003058671 0.029830942 0.002641607
0003b0 62 49 ef 3c a7 11 4c bb fa ee 42 3c 8f f3 65 bb
       0.029209796 -0.0031138451 0.011897797 -0.00350878
0003c0 33 6b 3a 3d 81 db fc bc 61 9a 04 bc ab 41 6b 3d
       0.04551239 -0.030866386 -0.008093447 0.057435673
0003d0 72 95 09 bd ed a9 16 3c 5b d5 6e 3d 96 71 24 bc
       -0.033589788 0.009195787 0.05830894 -0.010036847
0003e0 9d 5d a1 bc 3e fc 89 3d 4d 87 87 3c 4d 56 47 bd
       -0.019697959 0.067375645 0.016544009 -0.048666287
0003f0 8a 2b 35 3d 4a 79 8a bb a0 08 97 3d 0a 13 af bc
       0.044230975 -0.0042258846 0.07374692 -0.021371383

bias f4 [27]
000000 6e 0b 26 3e 18 31 8a 3d be ec 01 3e dc fa 7c 3e
       0.16215298 0.06747645 0.12687966 0.2470507
000010 df 80 a0 3d b5 03 59 bd 2e 34 25 bd 22 66 a4 3e
       0.0783708 -0.05298205 -0.040332966 0.3210917
000020 1b 49 f5 3d 25 fd 4d 3e 0b 2f 69 be 21 a5 8b 3d
       0.119768344 0.20116098 -0.22771852 0.06818605
000030 8c 06 18 be 30 de 8d 3e c5 2b e6 3d e8 69 39 3e
       -0.14846247 0.27708578 0.11238817 0.18106806
000040 c9 23 44 3e 44 dd 88 3d c8 71 e4 be 9a 55 86 3e
       0.19154276 0.06682828 -0.44618058 0.26237184
000050 c8 45 e9 3e b7 c5 2a 3e 8d 12 86 3e 08 45 52 3d
       0.4556105 0.16676985 0.26186028 0.051335365
000060 af dc b4 3d 7d b6 93 3e 42 92 dd bd
       0.088311546 0.28850165 -0.10818912

weight f4 [9, 27]
000000 c9 5f 0d 3e fa f8 e8 bd f7 28 0e 3e 27 d1 09 bf
       0.1380607 -0.113756135 0.13882814 -0.53834766
000010 9c a8 28 3d 9d 6f 18 3e 4e 88 84 bd 54 96 81 bd
       0.041176423 0.14886327 -0.064713106 -0.06327501
000020 85 63 e0 bb 6d 9d 8d 3d a0 b5 e6 bc 2b 0b 2a bd
       -0.006847801 0.06914792 -0.028162777 -0.041514557
000030 d4 c8 bb bd c3 71 2d bd 48 ec d5 bc 2e a2 00 3d
       -0.09169164 -0.04234482 -0.026113644 0.031404667
000040 96 77 3b 3e 99 22 2f bd d7 6a 8b bd b7 6f 55 bd
       0.18307337 -0.042757604 -0.068074875 -0.052108493
000050 89 c0 8a be 24 b8 a7 3d bc 04 fa 3d 69 39 dc bd
       -0.27100018 0.08189419 0.12207934 -0.107531376
000060 b2 4a 37 be 19 24 4d be c3 3a 70 3e 9f 1a 16 3d
       -0.17899588 -0.20033301 0.23459916 0.03664648
000070 87 e1 5e 3e 57 9b 42 bd 3b ae e7 bd 21 23 9b 3d
       0.2176572 -0.047511425 -0.11312529 0.0757506
000080 28 37 33 be 14 01 20 be ba 10 96 bd 12 71 2d be
       -0.17501509 -0.15625411 -0.07327409 -0.16937664
000090 c7 5f c8 bd 70 d2 f6 bd e7 ef 88 3d c0 77 3c be
       -0.09783893 -0.120518565 0.06686383 -0.18405056
0000a0 b0 87 4e 3e 78 af 26 3e a7 81 34 3e 6a 62 9d bd
       0.20168948 0.16277874 0.17627583 -0.076847866
0000b0 d2 a5 9d bd 60 9b ae be 31 09 e8 3d 9b 5c ed bc
       -0.07697643 -0.34102917 0.11329878 -0.028974822
0000c0 cf 10 f7 3d 67 f3 0a 3d 5c 4c 20 bd c6 6c a1 bd
       0.12063753 0.033923533 -0.039135322 -0.07882075
0000d0 c1 d3 0a 3e 28 f9 1f 3d 45 d0 3c 3e ce 67 ac 3d
       0.1355734 0.039055973 0.18438824 0.08418237
0000e0 b4 c2 6b be e8 67 b4 3c e2 01 b8 3d 29 b8 8e 3c
       -0.23023492 0.022022203 0.08984734 0.017421799
0000f0 22 c3 25 3d 6a a3 0a 3e 02 8c 0a bd ba 2b da 3d
       0.040469296 0.135389 -0.033824928 0.106528714
000100 c9 2e bf 3c ce 6e 07 be ac f4 40 be 3d 13 28 bd
       0.023337739 -0.13225862 -0.18843335 -0.041033972
000110 5d b9 e4 bd 29 6d 1d 3e b5 c4 d0 3c 0e 29 27 3e
       -0.11168168 0.15373673 0.025484422 0.16324255
000120 98 94 71 be 8c b5 3b 3d 62 92 c3 3e 72 71 f9 be
       -0.2359184 0.045827433 0.3819762 -0.48719364
000130 9c 65 64 bc b8 ec 81 3e 0d bd 4d bd 9f 6f 42 bd
       -0.013940241 0.25375915 -0.05022912 -0.04746973
000140 f9 dd 19 be e3 56 3b 3e c1 be 5d 3b ac f0 22 3e
       -0.15026082 0.18294863 0.0033835622 0.15912122
000150 b6 a2 d1 bd e3 75 d7 3b 71 8a 1b bd 97 3a 49 3e
       -0.10236113 0.0065753325 -0.037973825 0.19651257
000160 a0 b8 9c 3b 04 ae 1a 3e 47 60 34 be 1d dd f2 bd
       0.004782751 0.15105444 -0.17614852 -0.1185858
000170 b4 35 7a bd 22 96 52 be 5b a6 ad be 5e 73 f6 bd
       -0.06108637 -0.20565084 -0.33915982 -0.12033723
000180 87 65 99 3d cd 9c 19 bd 68 50 dd 3d dc e5 b1 3e
       0.07490068 -0.037503053 0.10806352 0.3474568
000190 a0 3d 1e 3e 6b c0 d8 bd 1b 27 33 bd b9 bb 4d 3e
       0.15453196 -0.10583576 -0.043738466 0.20091142
0001a0 74 a6 71 3d b4 55 6a 3e 1f 64 b2 3d e1 94 0b 3b
       0.058996633 0.22884256 0.08710503 0.0021298456
0001b0 70 fd 27 3e e2 1f 08 3e e6 b2 72 be 6e b2 9d bd
       0.16405272 0.13293412 -0.23701057 -0.077000484
0001c0 50 e9 16 bd 0d 5c 83 be 59 ca cb 3d 18 ad c1 3d
       -0.036843598 -0.25656167 0.09950704 0.09456843
0001d0 60 a5 3c be d8 c7 da 3d 55 9b ca bd 91 86 44 bd
       -0.1842246 0.106826484 -0.098929085 -0.047979895
0001e0 95 fa 32 3c ba 57 c5 3e e5 89 60 3e b3 e6 1c 3e
       0.010924001 0.38543493 0.21927603 0.1532238
0001f0 3b b6 0d 3e fb 37 89 bd 4f 83 65 be 04 1b 0b 3e
       0.13839047 -0.067001306 -0.22413372 0.13584524
000200 d3 a3 15 bd 42 a0 10 3d c4 0c 03 be 37 be 60 3e
       -0.036533188 0.035309084 -0.12797838 0.21947561
000210 a2 0e 5d 3c d5 c5 98 be 2d 30 7e bd 0c 6b e0 3c
       0.013492258 -0.29838434 -0.062057663 0.027394794
000220 f6 ca 7e 3d e9 74 04 3e 7f ab f6 bd b0 31 4b 3d
       0.062205277 0.12935223 -0.12044429 0.049607933
000230 87 0a b0 bd 5e fa c7 bd da e8 af 3c 52 f1 c7 bd
       -0.08595758 -0.097645506 0.021473337 -0.09762825
000240 61 e5 4d be 26 08 5b bd 44 8b 54 be 40 98 25 bf
       -0.20107032 -0.053474568 -0.2075625 -0.6468544
000250 67 31 9c bc bb 10 08 be 6e e4 9c bd ac 3f 78 be
       -0.019066526 -0.13287632 -0.07660757 -0.24243039
000260 6c 54 57 bd 49 68 53 be e5 dc 7a 3e 4f 07 a4 bd
       -0.052570745 -0.2064525 0.24498327 -0.080092065
000270 bd ca 1b 3c f6 3d b4 3e 59 15 ae 3d 5a 99 0b 3d
       0.009508786 0.35203522 0.085001655 0.034081794
000280 66 37 75 3d ff ee 91 bd ff 52 69 3c 76 a0 d6 3d
       0.059867285 -0.07125663 0.014240979 0.10479824
000290 02 bc 43 3e 7b 5c 52 bd 9b 1b 2f bd bf 85 2a 3c
       0.19114688 -0.051357727 -0.042750936 0.010407864
0002a0 cd 10 8a bd f3 45 cb be da 03 36 3d 27 41 41 be
       -0.06741486 -0.39701805 0.044437267 -0.1887251
0002b0 93 1a 8b 3c c2 7f 0b be 8c 10 eb 3c 3f 13 d8 bc
       0.016980445 -0.13622954 0.028694414 -0.026376365
0002c0 bd 52 77 bd 77 82 be bd 51 6f 4f be a1 0d 25 be
       -0.06038164 -0.09302228 -0.20257308 -0.1611848
0002d0 5c 91 1e 3e 2f fc 32 3e bf 52 bd 3c 2d 30 54 3e
       0.15485138 0.17479013 0.023110745 0.20721503
0002e0 d1 c3 a8 3e fd ab 25 bd 83 83 13 3e f1 a0 87 3e
       0.32961896 -0.040447224 0.14405636 0.26489976
0002f0 04 f3 2f bb fa 1d 7e 3e 30 f0 92 bd 3e 2f a6 bd
       -0.002684773 0.24816123 -0.071747184 -0.081144795
000300 23 30 50 bc cc a0 c1 3d 4e dc a9 bd 0b 22 4b 3e
       -0.012706789 0.09454498 -0.08293973 0.19837205
000310 40 58 aa 3e fd b4 04 3e 3e 08 c7 3d f8 f7 41 be
       0.33270454 0.12959667 0.09718369 -0.18942249
000320 7f 19 ba 3c e9 bb 5b be 34 4d e1 bd 53 73 30 3d
       0.022717236 -0.21458401 -0.110010535 0.04307873
000330 cc 58 05 3e fd c9 55 3d a8 f1 ad bd 79 16 7f bc
       0.13022155 0.052194584 -0.08493358 -0.015569323
000340 b3 f3 7a 3e 2a 69 0c be e3 9c 8c bd 6f 02 c7 3c
       0.24507026 -0.13711992 -0.06865861 0.024293153
000350 6c f8 b1 bd 06 ae dc 3b 1e 40 ad be d5 fb 6f be
       -0.08689961 0.0067346124 -0.3383798 -0.2343591
000360 7e 44 92 3d c9 71 37 bd b0 74 df 3d d0 98 a5 3e
       0.0714197 -0.04478625 0.10910928 0.3234315
000370 23 41 22 3d 8d b3 82 be 80 73 34 3d 4b 2c 8e 3d
       0.0396129 -0.2552761 0.044055462 0.06942042
000380 5a 60 c0 3d 1b ab 8b 3d 7d 03 b1 bb 79 b9 53 bd
       0.093933776 0.06819745 -0.005402027 -0.051690552
000390 91 b6 51 be 4a d2 d1 ba f4 6f d5 3c d8 2d 99 3d
       -0.204798 -0.0016008106 0.02605436 0.07479447
0003a0 7d 46 0a be c6 df 10 3e d2 e9 1d be af 2f 8b bd
       -0.13503452 0.14147863 -0.15421227 -0.06796204
0003b0 20 d6 8c 3e 16 1f bb bd dc 60 17 3d 77 0f 00 3d
       0.27507114 -0.091367885 0.036957607 0.03126475
0003c0 cf e6 37 be 1d 00 dc bc 6e 7b 74 3b
       -0.1795914 -0.026855523 0.0037305015

bias f4 [9]
000000 0a 3f 33 3f d2 8e 21 3f 6c e4 1a 3f 41 e8 da 3e
       0.70018065 0.6310855 0.60504794 0.4275532
000010 a7 0d fd 3e 18 08 85 3f 20 46 1f bf ea 31 e4 3e
       0.49424478 1.0393095 -0.6221638 0.4456933
000020 88 e8 9a 3e
       0.30255532

weight f4 [3, 9]
000000 92 a2 88 3e 9f ab f6 3d 76 48 46 be 3e 42 5c bf
       0.2668653 0.12044453 -0.19363579 -0.8603858
000010 8a 85 30 3f 8a 0b 49 bf db 94 29 3f 00 ce 17 3e
       0.68953764 -0.7853323 0.6624276 0.14824677
000020 1c cb 6f be a3 11 30 bf d3 9a 2e bf 11 8a 51 3f
       -0.23417324 -0.6877691 -0.68204993 0.818513
000030 37 4b 5b 3e 39 b4 71 be 35 1b 87 bf 30 57 19 3f
       0.21415411 -0.23603906 -1.0555178 0.5989866
000040 6c 7e fa 3e c4 03 3b bd c9 f0 63 3f 30 0a 24 bf
       0.48924577 -0.045657888 0.89039284 -0.64078045
000050 9e a5 a6 be 31 27 bd 3e 13 9e 5e be c6 cd ac be
       -0.3254823 0.36943963 -0.21739988 -0.33750743
000060 10 2e 1f bd 7c 01 02 3f 62 68 16 bf
       -0.038862288 0.50783515 -0.58753026

bias f4 [3]
000000 fc 2c be 3c 57 e4 b9 3d ce 6e 8c be
       0.02321481 0.090767555 -0.27428287

weight f4 [9, 3]
000000 7d b1 a8 bd 57 f1 09 3f d6 d3 10 bf 74 8c 09 be
       -0.08236978 0.5388388 -0.56573236 -0.13432485
000010 2a 06 0b bf 41 c3 0a be 07 4b 99 be fa 34 58 3e
       -0.5430628 -0.13551046 -0.29940054 0.21113959
000020 31 98 d6 3e 51 5b 3a 3f 94 d2 04 3f fd 97 a5 3d
       0.41912988 0.7279559 0.51883817 0.0808563
000030 b7 47 85 bf 18 17 58 bf 79 f1 ad be 8a 94 ec 3d
       -1.0412511 -0.8441024 -0.33973292 0.11551769
000040 89 7d 4d bf b8 3f 79 3f 83 d2 82 3e 28 06 28 bf
       -0.80269676 0.9736285 0.25551233 -0.65634394
000050 db 77 7c be 6b 86 f3 3e 81 d1 41 bf 54 7f 33 bf
       -0.24655096 0.4756349 -0.757103 -0.7011616
000060 ec 96 af 3e b5 fd f5 bb 27 d4 6d 3e
       0.34294832 -0.007507051 0.23225461

bias f4 [9]
000000 d0 de 38 3f 3b cc 0d 40 9f 37 4a 3f 55 cd 82 3f
       0.72214985 2.2155902 0.7899112 1.0218912
000010 7f 79 05 bf 35 fd c0 3d 75 b9 60 bf e7 c4 79 3e
       -0.52138513 0.094232954 -0.87782985 0.24391519
000020 df 9f 8e 3f
       1.1142539

weight f4 [27, 9]
000000 98 b7 f2 bc 26 c1 b9 3d d1 7d f2 bc 9d 18 69 be
       -0.02962856 0.09070043 -0.02960101 -0.22763295
000010 1e 66 c1 bd 32 16 ee bd 06 11 a1 3d cd 6a 3f bd
       -0.094433054 -0.11625327 0.07864575 -0.046732713
000020 72 dc 93 be 20 fc 1e 3c da f3 6b 3e 50 a4 a1 3c
       -0.28879124 0.009703666 0.2304224 0.01973167
000030 0e 48 ed 3c c5 25 cf be 43 fc f5 be 86 a8 40 be
       0.028965022 -0.40458503 -0.48044023 -0.18814287
000040 c5 25 c1 be 34 86 84 3e 18 04 76 be 78 d7 2f bd
       -0.37724128 0.2588364 -0.24024999 -0.042930096
000050 e6 f0 dc bd 86 4b 32 3e 00 11 d6 bb 0e 8e 86 be
       -0.10788135 0.17411622 -0.0065327883 -0.26280254
000060 8e b2 77 3e 7c e4 e0 bd 38 fc 72 be 93 8d 9d be
       0.24189207 -0.1098108 -0.23729026 -0.30772075
000070 36 f9 9d 3f 4d 67 54 bd 6c 5a 4c bf e0 05 a1 be
       1.2341678 -0.051856328 -0.7982547 -0.31449795
000080 17 64 2c bd 16 8e 14 bf 94 93 0b bd b1 fc 31 be
       -0.04208764 -0.58029306 -0.03407629 -0.1738155
000090 10 bb b5 be 6c d2 54 3f 61 91 60 3e 9c 2a 67 be
       -0.3549428 0.8313358 0.21930458 -0.22574848
0000a0 7a b6 0e bf 06 71 a4 be 85 e4 88 3d 3e 9e 21 bf
       -0.5574719 -0.3211748 0.06684212 -0.63132083
0000b0 b4 d0 f3 3d 2e dd b2 bd 3f f9 3b bd 4f 8d 2e be
       0.11905041 -0.08733593 -0.045891996 -0.17046092
0000c0 56 33 41 be f1 fa 06 be 8a 5d 28 3e 2a d5 7e bd
       -0.1886724 -0.13181664 0.16441932 -0.062215008
0000d0 9a e8 a1 bd 52 b2 9a be 1c be ea bd ff 1d 87 be
       -0.07905693 -0.30214173 -0.11462042 -0.26390073
0000e0 d0 f9 22 be ab 8d 54 be 50 3d ed 3d 7e cd 04 be
       -0.15915608 -0.20757167 0.1158396 -0.12969014
0000f0 e8 7a 52 bd d0 be cc bc 06 92 5e be 22 29 ac 3c
       -0.051386744 -0.02499333 -0.21735391 0.021015707
000100 37 bb d1 bd af bd 3c 3d 08 6b 38 be 84 aa f1 bd
       -0.102407865 0.046079334 -0.18009579 -0.118001014
000110 8b 73 e6 3d ba f9 2e be b4 7c 82 3d 44 e0 be bd
       0.11252507 -0.1708745 0.063714415 -0.09320119
000120 a3 0e 13 3f 52 32 13 bf 29 d5 d3 3e 06 c7 b9 3e
       0.5744421 -0.5749866 0.41373566 0.36284655
000130 02 c3 1c 3f 75 3a a7 3e 46 75 ce 3e 32 18 87 3e
       0.6123506 0.32661787 0.40323848 0.26385647
000140 ef 23 10 be 02 94 eb 3e c5 14 91 3e 1e ca d6 be
       -0.14076208 0.46011358 0.28336158 -0.41951078
000150 79 bd 93 bd af 37 9b be 7d e9 fb be 7d 48 88 3d
       -0.072138734 -0.3031592 -0.49201575 0.06654451
000160 22 a1 34 bc 72 ee 39 3e 3a d7 86 3e d7 18 fd 3e
       -0.011024745 0.18157366 0.2633608 0.49433014
000170 a4 cb a6 be 39 86 61 be c5 10 e4 be c0 b2 10 bf
       -0.3257724 -0.22023858 -0.44544044 -0.5652275
000180 c3 05 58 be 87 92 e9 bd 61 73 d8 3d 0f 3d f1 3e
       -0.21095948 -0.11404901 0.10568882 0.47116897
000190 fb 72 06 bf ae 17 a4 3e a0 23 f9 3e 8a 6d 3b 3f
       -0.52519196 0.32049316 0.48659992 0.7321402
0001a0 df cc 38 3f 5e b0 f2 bd 98 d1 5c 3f 72 2b f1 3e
       0.7218761 -0.118500456 0.86257315 0.4710346
0001b0 64 41 cb be c5 0c 51 3f 12 c7 e8 be f2 39 32 3d
       -0.39698327 0.8166011 -0.4546438 0.043512292
0001c0 38 31 38 bf b2 96 20 be 9c 86 4b bf a5 33 6f 3e
       -0.719501 -0.15682486 -0.7950227 0.23359545
0001d0 98 39 12 3f 37 8c 20 be 2a 1a 92 be f3 09 08 3e
       0.5711913 -0.15678488 -0.28535587 0.13285045
0001e0 c9 16 75 be 69 72 84 be a0 11 45 be c1 0a 47 3c
       -0.23934473 -0.25868538 -0.19245005 0.01214856
0001f0 56 1f 12 be b2 2f b8 3c 7e f3 17 be ee 92 83 3e
       -0.14269766 0.02248368 -0.14838979 0.25698036
000200 1e 9d 7d bc 1d b8 4b bc fa a7 32 be 72 11 3f bd
       -0.015479354 -0.012434033 -0.1744689 -0.046647497
000210 6b ec 29 3e f1 17 48 be ed 62 2f be 3c c5 34 bd
       0.16594093 -0.19540383 -0.17127581 -0.04413341
000220 f5 cd bf 3d 4f 5b ea 3c 7f 53 3f be f9 cd 38 bd
       0.09365455 0.028607992 -0.18684195 -0.045118306
000230 36 ab 6f be 37 2a b3 bd 49 57 80 be b4 b8 c7 bd
       -0.23405156 -0.08748286 -0.25066593 -0.09752026
000240 65 d3 8e bd 27 f0 4e be ea b0 6f bc fc d1 f7 bd
       -0.06973914 -0.20208798 -0.014629582 -0.12100598
000250 b4 96 9a 3d 64 55 f8 bc b9 d8 a3 3e 6c 0c 89 bd
       0.075482756 -0.030314155 0.32001284 -0.066918224
000260 1b 2a 47 be 82 97 89 3e d6 66 b9 3e 90 66 89 3e
       -0.19449656 0.26873404 0.3621127 0.2683606
000270 04 76 98 be 87 26 2d bd 29 c4 84 be 04 44 f2 bd
       -0.2977754 -0.04227307 -0.25930908 -0.11829379
000280 87 45 09 be bd 70 a7 be 65 fc 1b 3e 7b d3 2e be
       -0.13405429 -0.327032 0.15233 -0.17072861
000290 56 4d 76 3e 92 5c 5b 3e 11 75 8c 3e 6e 93 22 3e
       0.24052939 0.21422032 0.27433065 0.15876552
0002a0 47 a8 bb 3e 38 f6 d9 bc 3e d3 45 3d 7c d6 20 be
       0.36651823 -0.026606664 0.04829716 -0.1570682
0002b0 81 b6 10 be 0d f5 36 3f 3d 42 fa 3e 93 f5 77 3c
       -0.1413212 0.7146767 0.4887866 0.015134233
0002c0 15 a1 6e 3e 6b cb b9 3e a6 84 a3 be 4d 94 2d 3f
       0.23303635 0.36288008 -0.3193714 0.67804414
0002d0 d9 4b 5b be 7a 5a c7 3e d8 a7 c0 3e 68 10 32 be
       -0.21415652 0.38936216 0.37628055 -0.17389071
0002e0 ff bc 8f 3d fc 53 13 3e 9f 21 e6 3d 56 a7 9d be
       0.0701847 0.14387506 0.112368815 -0.3079173
0002f0 58 aa 7f be e8 39 69 be 16 87 34 be 2c 28 e2 bd
       -0.24967325 -0.22775996 -0.17629656 -0.110428184
000300 da 53 77 be da b3 b3 3d 23 e9 ec 3d fa 6d d2 3d
       -0.2415308 0.08774538 0.11567905 0.102748826
000310 33 b5 34 be 50 08 a6 3d 7d aa 33 3e e5 da b8 be
       -0.17647247 0.08107054 0.17545505 -0.36104503
000320 59 cc 0e bd ea 9c ba 3e 3e 92 7f bd 94 53 8a 3d
       -0.03486285 0.3644784 -0.062395327 0.067542225
000330 6a 50 83 3e a2 8d 5a 3e a4 e1 04 3d f2 de 5e 3e
       0.2564729 0.21343091 0.03244175 0.21764734
000340 88 22 50 3f af 5d ac 3e e2 62 ec be 69 8f b7 be
       0.8130269 0.33665225 -0.46169192 -0.358516
000350 20 fb 04 bf 89 ec 98 be 45 3b ce be 33 4e 06 bf
       -0.51945686 -0.29867962 -0.40279594 -0.5246307
000360 08 4d 01 be 67 6f ba be da 55 7d bd f2 a3 bb bc
       -0.12627041 -0.36413118 -0.061849453 -0.022905324
000370 36 e4 20 3e e1 dc 15 3e 90 13 8b 3e 3e 59 c0 3d
       0.15712056 0.1463504 0.27163363 0.093920216
000380 9e ce 46 be d7 e8 2d bd f0 71 6a bd 45 c2 6c bc
       -0.19414756 -0.04245838 -0.057237566 -0.014450614
000390 eb fa df 3d c2 a3 9a 3d d0 34 41 3c 35 72 b6 bd
       0.10936531 0.075507656 0.011792377 -0.08908502
0003a0 1a d0 51 3d 5b f4 8f be 8f 5b 29 be 66 df 93 be
       0.05122385 -0.28116116 -0.16538833 -0.28881377
0003b0 1a e9 f1 bc 7e aa 4d be 7d 25 d1 3d 13 90 cc 3d
       -0.029530097 -0.20084569 0.102122284 0.099884175
0003c0 44 e0 2c 3e 27 05 2f be c1 c3 a4 3d
       0.16882426 -0.17091809 0.080451496

bias f4 [27]
000000 ae d6 82 be ba 51 74 3f f6 db 87 be 92 80 44 bd
       -0.25554413 0.95437205 -0.26535004 -0.047974177
000010 a5 2e c5 3e 42 d3 cc bd 2c ba 8c bd 3e 15 0a bd
       0.3851215 -0.10001232 -0.06871447 -0.033711664
000020 6d e4 84 3d 14 2a 07 3f c3 0d 09 3f 03 6d 8a bf
       0.06488881 0.5279858 0.53536624 -1.0814518
000030 38 b0 49 3f 00 b5 cf bd 1b 09 ed 3d d5 cb 7a be
       0.78784513 -0.10141945 0.11574002 -0.24491818
000040 5a 6e 0b be 7b 96 a4 3e a8 eb a6 be 40 15 31 3f
       -0.13616315 0.32146057 -0.32601666 0.6917305
000050 5d 19 8f 3e 5b 05 24 be 10 6e d5 be 12 d6 38 3f
       0.27949038 -0.16017668 -0.41685534 0.72201645
000060 c2 51 ac be 26 30 45 bd 38 59 f9 bd
       -0.33656126 -0.04814162 -0.1217522

weight f4 [150, 27]
000000 e9 3a 24 3e c5 1c cc bd 34 52 50 3d 1d 60 c1 3e
       0.16038097 -0.09966425 0.050859645 0.3776864
000010 7f 41 77 3e 50 77 d6 bd 76 66 eb bd 14 d3 1c 3d
       0.24146079 -0.10471976 -0.11494152 0.038287237
000020 0e 39 fc bd 90 76 73 be 43 90 de ba ad 9d af be
       -0.1231557 -0.23775697 -0.0016980249 -0.34299985
000030 07 5e 83 be e0 e0 27 3e 42 ee 66 bc 38 18 0a be
       -0.25657675 0.16394377 -0.014094891 -0.13485801
000040 93 e8 98 3d 39 85 ed 3d f1 24 82 bd 0d 37 b5 bd
       0.07466235 0.11597676 -0.06354702 -0.08848391
000050 7d dd 58 3e 6d d0 1f 3d d9 b3 d9 bd 5b 71 d4 3e
       0.21178241 0.03901713 -0.10630006 0.41492733
000060 ee 9e 34 3e 8e 08 f1 3d 57 6e 95 bd 72 b9 24 3e
       0.17638752 0.1176921 -0.07296436 0.16086367
000070 0a 1f 9c bd 91 f8 e7 bd cd dd a4 3e af a4 7d 3e
       -0.07623108 -0.11326707 0.3220047 0.24769853
000080 1b f7 23 3e 00 97 38 ba 74 59 99 3c 37 b5 53 be
       0.16012232 -0.0007041544 0.018719412 -0.20674597
000090 c2 79 50 be cc e0 4f bd 87 ea 9e be 3b 4a 84 be
       -0.20358947 -0.050751492 -0.31038305 -0.25837883
0000a0 07 47 b2 bd 3c de 26 3c a0 3a 0b be c8 c4 87 bd
       -0.08704954 0.010184821 -0.13596582 -0.0662933
0000b0 71 9c 44 3e b0 20 a6 3b 86 5b 02 be a1 3d 84 3e
       0.19200303 0.0050698146 -0.12730226 0.2582827
0000c0 f8 f3 b3 bd cc c5 d3 bd 68 e8 c1 3e e3 13 aa 3d
       -0.08786768 -0.10340461 0.37872624 0.08304574
0000d0 ee 77 15 be f0 a0 aa bd de 8d b0 3d 9e f4 33 be
       -0.14596531 -0.08331478 0.08620809 -0.17573783
0000e0 dc 41 1f 3d 0f ee 82 3e a9 f1 b4 3e 65 0c a4 3d
       0.038881168 0.2557225 0.35340622 0.080101766
0000f0 c9 0b 17 3e 58 67 43 3d 74 2a 06 be 41 13 32 be
       0.1475059 0.04770598 -0.13102132 -0.17390157
000100 30 25 73 bd e8 5d 9a be 27 16 7d be 01 a1 21 bd
       -0.059361637 -0.3014977 -0.24715482 -0.039460186
000110 17 ff be bd ac 9b 1f be 11 ac c3 3d 86 1f 1e 3e
       -0.09325998 -0.15586728 0.095543034 0.15441713
000120 ad 8b fe bd 8c 98 16 be 18 00 9c 3e 6a ce a2 3d
       -0.12428985 -0.1470663 0.30468822 0.079495266
000130 f7 54 11 be df ac c1 3e 18 44 15 3e e2 54 44 be
       -0.14192568 0.37827203 0.14576757 -0.19173005
000140 f3 65 22 3c 40 51 08 bd 70 7b 45 be a4 11 01 3d
       0.009912002 -0.03328061 -0.19285369 0.031510964
000150 8a 22 9a 3e f3 56 3d 3e c0 09 a6 bd 29 6d 44 3e
       0.30104476 0.184902 -0.081073284 0.19182266
000160 ce 45 d6 bd c2 ae 21 be 3f 89 68 be 03 ed 40 3d
       -0.10462533 -0.15789321 -0.22708605 0.047101032
000170 50 9c b1 be 1d fd 82 be 8a be 08 be fd 25 82 3d
       -0.3468957 -0.25583735 -0.13353935 0.06354902
000180 5f 76 ba bd 2a e9 89 3d 96 07 88 3e 65 89 dc bd
       -0.09104609 0.06733926 0.26568288 -0.107683934
000190 25 e0 66 bd f2 f4 8f 3e 01 cf d4 3d f8 e7 6a bd
       -0.056366105 0.28116566 0.10391045 -0.05735013
0001a0 31 18 a0 3e 3b ba e4 3d 8c b9 0f 3e b1 e1 f8 bc
       0.31268457 0.11168333 0.14035624 -0.030381056
0001b0 6b d6 9a bd 4b 0a f9 bd 0e 6e 95 3d 75 68 9f 3e
       -0.07560428 -0.12160166 0.07296382 0.31134382
0001c0 ca 8f 78 3e 01 c9 bf 3d 14 d1 3d be c8 37 e0 3a
       0.24273601 0.0936451 -0.18536788 0.0017106468
0001d0 80 32 ef bd 7f 57 1c be 80 62 c8 bd a1 15 a3 be
       -0.11679554 -0.15267752 -0.097844124 -0.3185244
0001e0 e2 00 7f be f6 a9 3c 3e 3b 91 1d 3c 43 38 cd 3d
       -0.2490268 0.1842421 0.009617145 0.10020497
0001f0 29 1b 89 bd e1 26 5e 3e 32 c8 0e be bb ce 96 bd
       -0.066946335 0.21694519 -0.13943556 -0.073636495
000200 b9 01 7e 3e e2 b0 66 3d d8 d4 50 bd 6d f7 b6 3e
       0.24805345 0.056321032 -0.050984234 0.35735646
000210 86 34 c6 3d 23 fb 11 be 6a 59 a5 3d c5 8a 99 bd
       0.09677987 -0.14255957 0.08073695 -0.07497171
000220 b7 83 a5 bd cf e6 34 3e 07 12 b0 3e 62 0b c3 3d
       -0.08081763 0.17666171 0.34388754 0.095236555
000230 48 0b 08 3e 00 13 ed bb 5c 27 18 3e 5c d8 12 be
       0.13285553 -0.007234931 0.14858764 -0.14340347
000240 90 86 8b bd d5 41 2a be 9a e1 a7 be 8f 99 81 be
       -0.06812775 -0.16626675 -0.32789308 -0.25312468
000250 b9 66 0d 3e 12 a6 2a 3e 08 27 ee 3d 2f 98 2d bd
       0.13808717 0.16664913 0.11628538 -0.04238146
000260 8b 0b 2d 3e 44 db b8 bd 96 91 24 bc 6f 71 7b 3e
       0.16898935 -0.090261966 -0.010044476 0.2455499
000270 7f 08 7c 3d 8e fa e2 bd 83 3d d1 3e f1 d2 d1 bd
       0.06153154 -0.11082946 0.40867242 -0.10245312
000280 15 51 8f 3b 1e f6 fb bd 4f e1 fe bc d4 4c b7 bd
       0.0043736794 -0.123028025 -0.031113295 -0.08950201
000290 df 96 22 3e d9 6f 92 3e 12 2c 8f 3e e8 3a 09 3e
       0.15877865 0.28600958 0.2796331 0.13401377
0002a0 00 f8 2d 3b 42 85 fe 3c 87 67 b6 bd a2 bc 28 be
       0.0026545525 0.031069402 -0.08906465 -0.16478208
0002b0 f1 5a 8b bd 16 c1 9a be 3d bc 7e be a3 1d 30 bd
       -0.06804455 -0.30225438 -0.24876495 -0.042997014
0002c0 08 66 9c 3d 44 97 82 bd da ad 11 3e 25 4f 6a 3e
       0.076366484 -0.06376508 0.14226475 0.22881754
0002d0 27 ee 2b bb 94 3a ba bd 0d f2 65 3e dd aa e4 bd
       -0.002623448 -0.09093204 0.22455616 -0.11165402
0002e0 9c a2 6f bd 5a b8 9b 3e a3 c6 a1 3d 83 95 18 be
       -0.058504686 0.30414087 0.07899215 -0.14900784
0002f0 6b c9 02 bd 49 79 8d bd 9e b4 cb bd 9e 1c ae 3d
       -0.03193037 -0.06907899 -0.09946559 0.08501552
000300 7e 23 a6 3e df 9b d8 3d 97 1f d8 bd 34 01 44 3d
       0.32448953 0.10576605 -0.105529 0.04785271
000310 2d e1 22 be b3 35 1c bd 7d 1c 7f be 30 e8 33 3d
       -0.1590621 -0.03813715 -0.24913211 0.043922603
000320 8c 66 a6 be 1f 20 7d be ca 33 14 3e 56 1e 24 3e
       -0.32500112 -0.24719284 0.14472881 0.16027197
000330 9c 47 0d bc 04 1c a9 bd 4a 4e ed 3d 62 89 26 bd
       -0.00862303 -0.08257297 0.11587198 -0.040658362
000340 7b 16 b2 bb 50 81 4a 3e cd 16 dd 3c d1 63 02 bd
       -0.005434809 0.19775891 0.026988411 -0.031833474
000350 30 79 c4 3e 62 80 71 bd 6d d2 8e bd f6 a4 a8 bc
       0.3837371 -0.058960326 -0.06973729 -0.020586472
000360 6f 40 9a bd 22 3c 9c bd d5 4d 0b 3e 68 4b 7e 3e
       -0.07531821 -0.07628657 0.1360391 0.24833453
000370 4b d8 9c 3e e9 e4 3f be dc ee 1b 3d 4b 1b 5e 3d
       0.30633768 -0.18739666 0.03806959 0.054225247
000380 12 fc f7 3c 52 34 27 be 51 ff f7 bd 07 e0 a5 be
       0.030271564 -0.16328552 -0.121092446 -0.32397482
000390 2d 94 6f be 85 ba f3 bd c2 2c 58 3e 3a 1c c5 3d
       -0.23396368 -0.1190081 0.21110824 0.096245244
0003a0 5d ce 04 be b2 7a 63 3e ab cb d9 bc 60 01 e6 bd
       -0.12969346 0.22214773 -0.026586374 -0.11230731
0003b0 47 4c 51 3e c6 8f c5 bb 6a 1d 09 3d 5a 1b 79 3e
       0.20439254 -0.006029102 0.033475317 0.2432684
0003c0 e3 82 30 bd 31 54 0d 3e 14 72 42 3e 91 5d 8c bd
       -0.043093573 0.13801648 0.1898883 -0.06853784
0003d0 95 f3 92 bd c8 27 b7 bc bf 37 88 3e ce 4b 61 3e
       -0.07175366 -0.022357836 0.2660503 0.22001573
0003e0 f5 98 11 3d 0f 01 05 3e fa 16 06 be d8 aa cf bd
       0.03554626 0.12988685 -0.13094702 -0.10140008
0003f0 a0 02 e6 bd a4 6f 1e be ea 1e 73 be a7 86 98 be
       -0.112309694 -0.15472275 -0.23742262 -0.29790232

bias f4 [150]
000000 5b 5c f8 3d c3 eb 53 3e a6 62 69 3e e6 fc 4b 3e
       0.121269904 0.20695405 0.22791538 0.19920692
000010 2b c9 c7 3d 9c 2a af bb 51 46 94 3d 47 e3 57 3b
       0.097551666 -0.0053456556 0.07239974 0.0032941864
000020 6a e7 07 3e 92 02 dc 3d 95 70 1f 3d ee 34 a0 bb
       0.13271871 0.10742678 0.038925726 -0.004889122
000030 32 d8 4c 3e 04 7f c7 3d 25 b9 1b bd d8 fc 8b 3d
       0.20004347 0.09741023 -0.038018364 0.068353355
000040 df 61 a7 3d f0 5c 38 3d de aa a8 bd 46 05 9b bd
       0.08172964 0.045010507 -0.08235715 -0.07569365
000050 e7 25 06 bd a0 43 08 3c ae e8 eb bd 56 71 10 bd
       -0.03275099 0.008316904 -0.115189895 -0.035264336
000060 98 0c b8 bd b8 26 ca bd 07 70 04 bd 35 df 19 bd
       -0.08986777 -0.09870666 -0.0323334 -0.037566382
000070 df df 69 be 93 3a 31 be e3 5a a7 bd 30 1e 29 be
       -0.22839306 -0.173075 -0.08171632 -0.16515422
000080 ac 93 2b ba 0a 89 9e bd 31 8b 92 bd d5 b9 2d be
       -0.0006545137 -0.07740982 -0.07155455 -0.1696542
000090 ce 45 e3 bd ca 9c 97 bd af d0 f4 bd fd 41 c7 bd
       -0.110972986 -0.07402952 -0.11953866 -0.09729383
0000a0 76 36 96 bd 04 85 ae bd 36 f3 c8 bd 7b ee 6e bd
       -0.07334606 -0.085214645 -0.09812014 -0.0583329
0000b0 16 bb e0 bc c5 7b 4f bd 04 94 2f bd bd cf b4 ba
       -0.02743296 -0.050655145 -0.042865768 -0.0013794821
0000c0 88 b3 ba 3c eb 4e 9c bd 74 5e dc bc c6 28 14 bd
       0.022790685 -0.0763224 -0.026900508 -0.036171697
0000d0 a4 23 2d 3d cf 07 8a bd f1 49 0a 3e e8 b9 56 bb
       0.042270318 -0.067397706 0.13504769 -0.0032764617
0000e0 5a 3b a3 3d f1 3c 9e 3d 4b 0e 25 3d 69 c8 35 bc
       0.07970305 0.077264674 0.040296834 -0.011095145
0000f0 f7 43 11 3e d2 a3 27 3e 66 05 de 3d 0f d1 23 3e
       0.14186083 0.16371086 0.108408734 0.15997718
000100 2f 08 0e 3e 42 d0 2d 3e 2e d3 86 3d b4 95 99 3d
       0.1387031 0.16973975 0.06583248 0.07499257
000110 76 85 2b 3e e5 ee 57 3e 50 5e 3e 3e cb f4 17 3e
       0.1675013 0.21087225 0.18590665 0.14839475
000120 55 d8 25 3e e0 fa 37 3e 2b ae e5 3d a5 ae 30 3e
       0.16195805 0.17966795 0.112148605 0.17254122
000130 89 e8 64 3e 03 6e 37 3e 9d ef d6 3d 13 32 2f 3e
       0.2235433 0.1791306 0.10494921 0.17108946
000140 2a da 35 3e 84 0c 72 3d f1 e0 17 3e ef 04 46 3e
       0.17759004 0.059093967 0.14831902 0.1933782
000150 ab 04 f0 3d 98 b5 f2 3d e4 75 03 3e fd e9 c5 3d
       0.1171964 0.118510425 0.1283794 0.0966377
000160 a8 b7 65 3d d8 1e 25 3d 9a 6c c6 3d 60 48 b2 bd
       0.05608335 0.040312618 0.09688683 -0.08705211
000170 e1 ba 12 bd ae e7 7d bd 43 c2 80 bd 53 16 88 bd
       -0.035822753 -0.061988525 -0.062870525 -0.06644883
000180 5a 77 03 bd 36 33 7c bd 2e 15 c3 bd 91 dc ab bd
       -0.032096244 -0.061572276 -0.09525524 -0.08391679
000190 83 c2 16 be 4d 8d e2 bd 03 89 42 be 4b 3c ce bd
       -0.14722638 -0.11062107 -0.18997578 -0.10070094
0001a0 69 de 3b be cf 49 78 be 46 90 f2 bd 65 87 59 be
       -0.18346561 -0.24246906 -0.11843924 -0.21243055
0001b0 c0 03 45 be ad 20 16 be 79 79 4d be 26 90 bf be
       -0.19239712 -0.14660902 -0.2006587 -0.37414664
0001c0 73 e7 8b be e0 43 7f be 3e 38 3a be de 87 8e be
       -0.2732502 -0.24928236 -0.18185517 -0.27838033
0001d0 c9 d7 67 be a8 61 92 be 86 50 f6 bd 5e c4 3f be
       -0.22640909 -0.2859013 -0.120270774 -0.18727252
0001e0 88 7e 35 be 79 9e d6 bd 1c f0 05 be c6 7d 8f bd
       -0.17724049 -0.10479445 -0.13079876 -0.07006411
0001f0 6c 03 2e bd 5d b0 e5 bd c8 01 d8 bd ba d5 1e be
       -0.042483732 -0.11215279 -0.10547215 -0.15511218
000200 1f 94 b6 bc 96 2a b9 bc 19 05 a6 3b b3 e0 c4 3c
       -0.022287427 -0.022603314 0.0050665257 0.024032926
000210 41 36 90 3d 8b 8e ec 3c 63 19 ee 3d 02 3c 26 3e
       0.07041598 0.028876564 0.11625936 0.16233829
000220 67 9d e0 3d 61 c9 85 3d c3 f6 ad 3d fb 62 c6 3d
       0.10967522 0.065325506 0.08494332 0.09686848
000230 b2 a0 a2 3d 6b 3b 96 3d 02 40 36 3e 70 82 51 3e
       0.079408064 0.07335552 0.17797855 0.20459914
000240 8b 8e cd 3d dc 4a 26 3e 4e 40 3e 3e 29 36 29 3e
       0.100369535 0.16239494 0.18579218 0.16524567
000250 3e 7f 1c 3e a5 33 0c 3e
       0.15282914 0.13691576
