knn/models/pretrained-autoencoder/autoencoder-in_features180-latent_size6.pt (torch, 108586 bytes, 12 tensors)

weight f4 [54, 180]
000000 d5 55 08 3c fd 38 36 3d 34 83 0f bd cc 2c 9b 3d
       0.008321245 0.044487942 -0.035037234 0.07576904
000010 43 b0 40 3d ae a1 9a 3d 16 bf 7d bc dc a0 b3 3d
       0.047043096 0.07550369 -0.015487453 0.08770916
000020 cb b0 45 3c 60 82 56 3c f4 a2 66 3d 06 1f cc bb
       0.0120660765 0.013092607 0.056307748 -0.006229284
000030 85 8e 21 3d 2d 4d a0 3d a8 7f bb 3c ac 20 a6 3b
       0.039442558 0.0782722 0.02288802 0.0050698128
000040 9b b6 53 3d ab bb 0f 3d c6 02 51 3d 2e bc 3e 3d
       0.051687818 0.035091083 0.051028036 0.04656618
000050 4b ff 43 3d 9d 06 63 b8 22 c7 7c 3d fc c1 90 3d
       0.04785089 -5.4127177e-05 0.061713345 0.070682496
000060 f9 d1 df bb 26 6e 0a 3d 5d 46 5f 3d 3c 0d d8 3c
       -0.0068304506 0.033796452 0.054510463 0.026373498
000070 ee 2e 8c 3d 7a 8b 38 bc 4a 4b 47 ba 5b eb 67 3d
       0.06844889 -0.011263723 -0.00076024665 0.056620937
000080 1e 36 5c 3d b9 65 22 3d 33 ae 32 3d 02 9f 7a bb
       0.053762548 0.03964779 0.04362316 -0.0038241749
000090 8f 06 74 3a 32 e5 ee bc 40 54 16 3d e1 f1 9a bc
       0.00093088386 -0.029162023 0.03670144 -0.018914165
0000a0 2b 6b 5d bd ba 47 7d 3c 33 24 47 3d af 7a 85 bd
       -0.05405728 0.0154589955 0.048618507 -0.06517541
0000b0 0f 16 ff bc 98 4d da bc be ef 98 ba ae b8 13 3d
       -0.031138448 -0.026648328 -0.0011668128 0.036064796
0000c0 c9 cb e4 3b ca 60 50 bd 7e 17 db 3b 89 9b 93 bd
       0.006982301 -0.050873555 0.00668615 -0.072074
0000d0 c5 a6 e0 bd a7 cb b5 3c 64 4c c4 bd 2a 55 79 bd
       -0.10969309 0.022191836 -0.09584883 -0.060872234
0000e0 bc f4 05 bd 5d 81 5a bc 3d e8 a1 bd 03 2d a7 bd
       -0.0327041 -0.013336507 -0.07905624 -0.08162882
0000f0 04 78 9d bc 40 ad 87 bd 4e 9e 78 bd 27 d3 0e 3b
       -0.019222267 -0.06624842 -0.060697846 0.0021793337
000100 34 c3 ea bd bf 0e 8f bd 19 be fc bc a8 33 9c bd
       -0.11463013 -0.069852345 -0.030852364 -0.0762704
000110 46 99 26 bd 26 fb 01 bd c6 b1 d6 bd 13 1b bf bd
       -0.040673517 -0.031733654 -0.10483126 -0.09331336
000120 b1 6d 43 bb 2d 9c b1 bc 77 e9 6b bd 65 f0 a9 bd
       -0.002982002 -0.021680916 -0.057595696 -0.08297805
000130 3c b1 71 bc 6c 2b 7c bd c0 66 a1 bd 01 66 08 ba
       -0.014751729 -0.061564848 -0.07880926 -0.0005203188
000140 98 a2 36 bd 94 8e 36 3d f4 22 79 bd f5 1c 13 3d
       -0.044588655 0.044569567 -0.06082435 0.035916287
000150 c3 d8 05 bd ea 9e e6 bc c5 93 17 3d 8d 00 07 3d
       -0.032677423 -0.028151948 0.03700616 0.03295951
000160 76 ed 6d 3a 79 45 ec 3c 6a cc 06 3c 8b d5 e1 bb
       0.0009076217 0.02884172 0.008227447 -0.0068919114
000170 82 28 17 bd 4d f0 8a 3d 58 48 83 3d a7 35 ba 3b
       -0.036903866 0.06784115 0.06410283 0.0056826654
000180 a3 54 95 3d b6 c9 61 3d 06 33 87 3d 60 60 74 3d
       0.07291534 0.055124007 0.06601529 0.059662223
000190 bd 05 46 3b 24 4d 19 3d d3 9c c2 3c 7a 58 2a 3d
       0.0030215823 0.037427083 0.02375642 0.041588284
0001a0 bc c1 a7 3d 02 fe 8a 3d c3 3f cf 3d 7f 98 4a 3d
       0.08191249 0.067867294 0.101195835 0.049461838
0001b0 54 6e 7e 3d c4 8b a5 3d f9 37 0c 3d 3b 18 a1 3c
       0.062116936 0.08083299 0.034233067 0.019664874
0001c0 d3 8f cb 3d 65 a8 9b 3d 6f 9a 32 3c 31 c3 76 3d
       0.09939542 0.07600478 0.010901078 0.060244743
0001d0 05 b3 d7 3c 9b e6 42 3d 1d 09 99 3d ef c8 22 3c
       0.02633048 0.047583204 0.07472441 0.009935602
0001e0 0a 82 91 3d 81 82 0b 3d a4 c4 66 3d 9c c1 3b 3d
       0.07104881 0.034060005 0.056339875 0.045838937
0001f0 9f f6 64 3d ac ca 40 bd 00 6e 9b 3c 69 c2 ce 3b
       0.05589926 -0.047068283 0.01897335 0.0063097966
000200 3a b4 fa 3c 95 cc c3 3c d3 c4 b0 3c 0d 91 4d bd
       0.030603517 0.023901263 0.021578228 -0.05018716
000210 b1 81 de 3b 36 d0 b2 3c c4 a4 d2 bc 28 95 6f 3c
       0.0067903628 0.021827798 -0.025713332 0.014622964
000220 49 58 fe bc 9a 07 e7 3c b1 ce fd bc 5f 05 87 bc
       -0.031047957 0.028201867 -0.030982347 -0.016482053
000230 f2 f5 12 bd f7 46 5c bd 0b aa 65 bd 7e 88 49 bd
       -0.035879083 -0.053778615 -0.05607037 -0.049202435
000240 be af 42 3c 2d df e5 bc e8 c5 a2 bc 7b 5b c8 bc
       0.0118827205 -0.02806052 -0.01986976 -0.024457684
000250 b3 f2 82 bc 33 f6 62 bc eb 42 45 bd ee 90 9c bb
       -0.015984869 -0.013852644 -0.04815952 -0.004778019
000260 29 cb 26 bd 3c 1a 22 bd 27 e8 95 bd 06 20 04 3d
       -0.040721092 -0.0395758 -0.0731967 0.032257102
000270 84 8b 93 3a 63 d7 9c bd a9 71 b5 3b de b9 90 3c
       0.0011256789 -0.07658269 0.005537231 0.017666753
000280 22 50 84 3c df fa 80 bd e9 b7 37 ba 35 71 55 3d
       0.016151492 -0.0629785 -0.0007008301 0.052109916
000290 96 31 00 bd 86 85 ec 3c 8e ce c3 3b e3 27 12 3d
       -0.03129729 0.028872263 0.005975551 0.03568257
0002a0 7f 02 80 bc 43 eb fd bc de b9 a2 bc c6 ee ec 3c
       -0.01562619 -0.03099597 -0.019864019 0.02892245
0002b0 f3 57 41 3b e9 9c 67 3d 1b 5e 9f bb fa d7 43 3d
       0.0029501885 0.056546126 -0.004863513 0.047813393
0002c0 7a f4 48 3b c3 a4 0f 3d ec bc c0 3c f8 51 01 3d
       0.0030663298 0.03506924 0.023527585 0.031572312
0002d0 72 07 23 3b 09 93 19 bd 85 13 32 3d 72 a9 0c 3d
       0.0024876264 -0.03749374 0.043475647 0.034341283
0002e0 3a 9d fd bc 02 e1 31 bc 37 9b 77 3c 18 ac db bc
       -0.03095876 -0.010856869 0.01511269 -0.02681546
0002f0 46 a1 37 3c a4 1a b4 3c 1b fd 1c 3a 40 d3 22 3d
       0.011207884 0.02198536 0.00059886434 0.039752245
000300 9a 15 46 bd 99 0d 22 bd 14 4d 84 bc 33 d5 0b 3d
       -0.048360445 -0.03956375 -0.016150035 0.03413887
000310 94 8d f5 bc 50 7d 30 3d ef 49 2d 3d 44 6f 32 bd
       -0.029974736 0.043088257 0.042306837 -0.043563142
000320 ed 4c 23 bb a2 c2 8c bc c5 0f ba bc f9 0a 65 3b
       -0.0024917678 -0.017182652 -0.022712598 0.0034949167
000330 00 a0 0b bd da 12 e5 3c 2f a7 99 bc c1 1f 0b 3d
       -0.034088135 0.02796309 -0.018756477 0.03396583
000340 e8 c9 88 bc b2 cb 3f bc 4d cb 07 bd 91 c4 73 3d
       -0.016697839 -0.01170628 -0.033152867 0.059513632
000350 30 1d c2 bc a6 c1 bd bc 96 f4 3d 3d 52 48 ac bc
       -0.023695558 -0.023163628 0.046375833 -0.021030579
000360 ce 3e c3 bc 20 13 59 3c 8e 97 13 3c d3 a3 c5 bc
       -0.023833659 0.013249189 0.009008301 -0.024125969
000370 8d 65 5c 3c 54 1e 85 bb 6b 15 19 3d 5a 82 26 3d
       0.013451946 -0.0040624533 0.03737394 0.040651657
000380 6d 05 38 3d 3c 34 8c bc bb d8 5a 3b f4 d1 bc bc
       0.04492705 -0.017114751 0.0033393342 -0.023049332
000390 5b 77 3a 3d c7 61 26 3c dd af a5 bc 7a 70 4b 3d
       0.045523982 0.010155148 -0.02022546 0.049667813
0003a0 2d 28 3c 3c cf 08 22 bc cc 27 22 3c 01 ed 11 3d
       0.011484188 -0.009889795 0.009897184 0.035626415
0003b0 cc 9e d1 b9 3f f0 30 3c 6c 38 41 3d 46 0c 4c 3d
       -0.000399819 0.010799467 0.04717295 0.049816392
0003c0 75 f0 bf bb 5a 7c e4 3c 3e 3a 57 3c ab b7 b2 bc
       -0.005857522 0.027891327 0.013136445 -0.021816095
0003d0 73 70 74 3c bf c5 06 bc ca bf 23 3d 1d 1a 59 3d
       0.014919388 -0.008225857 0.039977826 0.05300342
0003e0 98 e6 2c 3d cb aa 4a 3d 5b 01 bf 3c f7 44 69 bc
       0.0422121 0.049479287 0.023316076 -0.014237634
0003f0 4e 2b 4c 3d 8f bb 67 3d 14 ef 4e ba dc 1a ef bb
       0.049845986 0.056575354 -0.0007893902 -0.007296903

bias f4 [54]
000000 6f 8d b3 3c 79 ea 4a be f8 31 15 3e e7 e5 26 bd
       0.021918027 -0.19816007 0.14569843 -0.040746596
000010 cc 5f 87 bd 8d 1a dd bc c3 d2 16 be c3 ce b5 bd
       -0.06610069 -0.0269902 -0.14728837 -0.08877327
000020 a1 4a 4d bd 00 c5 fb bd 96 65 be 3d a9 5c 88 bd
       -0.05012 -0.12293434 0.0929672 -0.066582985
000030 67 fb 43 bc 78 a6 1a 3e 8d 92 15 3c e7 40 60 3d
       -0.011961794 0.15102565 0.009129179 0.054749396
000040 b2 1d 7d 3c 95 60 1c 3d b5 88 91 bd 19 6e dd bc
       0.015448974 0.038178045 -0.07106153 -0.027030038
000050 67 67 cb bd 81 e7 58 be 8e 2d 07 be 55 02 a1 3d
       -0.09931832 -0.21182062 -0.13200971 0.07861773
000060 11 51 09 be 8d 8e 0d bd 0f 0d 0a be f9 7d 89 bd
       -0.1340983 -0.034559775 -0.13481544 -0.067134805
000070 93 bc df bc 6a 01 42 bc 7d 43 19 bc 4c 3b 71 bd
       -0.027311599 -0.011841157 -0.009354469 -0.05889444
000080 8a da ea bc 15 c3 b0 bc 27 4f d1 bd d6 c9 3c be
       -0.02866866 -0.021577397 -0.10220175 -0.1843637
000090 98 70 71 3c c4 de be bc ff ee 0e be 10 8d 65 3d
       0.014736317 -0.023299582 -0.13958357 0.05604273
0000a0 12 36 99 3d 7b e0 83 bd 1a 3e 50 bd 9c 79 30 be
       0.07481016 -0.064393006 -0.050840475 -0.1723389
0000b0 23 6e c4 3d 54 15 1d bd ac 5f 75 3c 77 a3 31 be
       0.095913194 -0.03835042 0.014976423 -0.17347513
0000c0 95 ed 9c 3c 82 a3 13 be a0 73 ee 3c ef f6 ac bd
       0.019156257 -0.14417842 0.029107869 -0.08445536
0000d0 97 9a b9 bd e6 2c b9 3c
       -0.09062689 0.022604417

weight f4 [18, 54]
000000 0a 1d 46 bc 1b ed 21 bd ae 48 ee 3d d3 e1 f3 bd
       -0.012091884 -0.039532762 0.11634956 -0.11908307
000010 44 a4 77 3e 5f 8c 73 bd 7b 61 ca 3d 37 c8 2c bd
       0.24183756 -0.05946004 0.09881874 -0.042183127
000020 25 3b 21 3e b6 cb da bd 50 16 46 3e 7a 0b 96 3d
       0.15745218 -0.10683386 0.19344449 0.07326408
000030 0a 66 05 be 0a ed 6a 3d 5f 75 4f bd bc 2c 0a bc
       -0.13027206 0.057354964 -0.050649043 -0.008433517
000040 2b b3 a8 bd a4 aa c6 3b 4b 42 81 3d 05 1f 23 3e
       -0.082372986 0.0060628224 0.063114725 0.15929802
000050 dc 83 c0 bd fc 51 71 3c 7a 09 bf 3d f3 fe a9 b9
       -0.0940015 0.014729019 0.093279794 -0.00032424144
000060 7d fe 2c be 51 48 02 be 2c f1 1a 3d 09 f9 ab bd
       -0.16893955 -0.12722899 0.037827656 -0.08397109
000070 c9 8b 83 3d 8a 0a e4 3c ae 3a db bd 08 38 ac 3c
       0.06423146 0.027837057 -0.10704552 0.021022812
000080 a8 2b 03 bd a2 15 03 be fd 84 0d be c1 24 e9 3d
       -0.032024056 -0.12801221 -0.13820262 0.113839634
000090 92 71 af bc 72 73 f3 bc c7 f6 75 bd b1 ea 73 3d
       -0.02141646 -0.029718135 -0.0600498 0.05954999
0000a0 7c 36 71 bd 49 3c 7e 3d 28 1a 16 3d a9 91 a9 3d
       -0.05888985 0.06206921 0.03664604 0.082797356
0000b0 48 db 21 bd e3 9d a1 bd 25 67 56 3d 54 61 bb 3d
       -0.039515764 -0.078914426 0.05234446 0.09149423
0000c0 88 e0 08 3d a8 ff 74 3d a5 0c bf 3c 6a 28 3e 3e
       0.033417255 0.059814125 0.02332146 0.18570104
0000d0 c4 71 a5 bd 0c 30 54 bd 74 be b9 3c 1d e2 cd 3d
       -0.0807834 -0.051803634 0.022673823 0.10052893
0000e0 f4 a2 b0 3a d4 76 8c 3d 28 cd 8d 3d 45 56 f1 bd
       0.0013476298 0.06858602 0.06923896 -0.11784033
0000f0 5f 91 39 bd bc 00 c6 3e 1b fd 5d bd 41 57 1e 3d
       -0.045304652 0.38672435 -0.05419646 0.03865743
000100 4f e3 17 3d 4a c6 82 bd 55 e2 56 3e 97 83 99 3d
       0.037082013 -0.06385477 0.20984776 0.07495802
000110 0d 40 b3 bc 80 99 a2 3e 14 9c b3 bd 43 c8 fe 3c
       -0.021881128 0.31757736 -0.08770004 0.031101352
000120 31 f7 7a bd a2 d9 8d bc ba c1 f9 3b ac cc e4 3d
       -0.061270896 -0.01731569 0.007621971 0.111718506
000130 91 70 c3 3d 38 44 9a bd c4 ba 0c 3e 81 35 b6 3c
       0.09542955 -0.07532543 0.1374312 0.02224231
000140 be d9 f6 3d 29 4a 9c 3d 1e b6 3b 3b 77 d5 53 3d
       0.1205325 0.076313324 0.0028642486 0.051717248
000150 28 ba 2f 3c 86 6a 84 3d 48 dc 92 3d 17 5c 99 bd
       0.010725535 0.0646563 0.071709216 -0.07488268
000160 ce b0 07 bc 0d 99 89 bd 41 52 a3 bd e0 ad e3 3d
       -0.0082819 -0.06718645 -0.07974673 0.111171484
000170 fa 4b 0b bc 09 15 bd bc 63 19 88 bd c0 a4 3a 3e
       -0.008502001 -0.02308132 -0.06645467 0.1822691
000180 e8 06 a5 bd 80 cd 80 3d 22 9b 3e bb 44 69 07 bc
       -0.08057958 0.06289196 -0.0029084166 -0.008264843
000190 09 a2 60 3d 61 f7 54 bc 4c a3 46 3d 75 8d 42 3d
       0.05484203 -0.012998433 0.048495576 0.047498185
0001a0 5c 15 94 3c e9 be 90 bc 15 2a 39 3d ba 0e df 3c
       0.018076591 -0.017669158 0.04520615 0.027228702
0001b0 90 3e af 3e da d5 8a 3c 4b 1f 9e bd 2b ed 3a 3d
       0.3422742 0.016947675 -0.077208124 0.045636337
0001c0 2d 03 70 3d 22 48 dd 3b 91 35 14 3e 39 29 4a 3d
       0.05859678 0.0067529837 0.14473559 0.04935572
0001d0 21 89 89 3d dd f2 85 bd b8 ad a0 3d 24 69 e5 bc
       0.067156084 -0.06540463 0.07845634 -0.028004237
0001e0 12 35 dc 3c 43 ce 15 3d 0b 42 72 bb f4 a7 d3 bd
       0.026880775 0.03657366 -0.0036965634 -0.10334769
0001f0 09 50 f9 3d 23 37 17 3e 52 65 8d 3e 88 69 ce bb
       0.121734686 0.14767127 0.27616364 -0.0062992014
000200 37 13 b2 3d 8e 57 77 bd 29 b1 81 3c 4f 87 27 3e
       0.08695071 -0.060386233 0.015831547 0.1636021
000210 d2 3c 3c bd 4a 6f 8a bc 3a 47 6f bd 78 c5 fe 3d
       -0.04595644 -0.01689877 -0.058417536 0.12440008
000220 82 34 28 bd ca 48 dd bc b6 3c ed bc a1 a4 f6 bc
       -0.0410657 -0.027012248 -0.028959613 -0.030107798
000230 04 29 04 3d a4 89 c3 3d fb 51 97 bc c8 56 a3 bb
       0.032265678 0.09547737 -0.018471709 -0.0049847104
000240 be fa 98 3b ad 9c 0f 3e 0d 6a 3e 3e 7e 13 4b bd
       0.0046685627 0.14024611 0.18595143 -0.049579136
000250 7c b5 3f 3d 94 18 08 3c d3 ba ee bd fd 3c 89 bc
       0.046803936 0.008306641 -0.11656728 -0.016752714
000260 e7 55 b4 bc 81 17 18 3c 97 9d be 3d b8 4d 54 bd
       -0.022013618 0.0092829475 0.093074016 -0.05183193
000270 69 f3 94 3d 22 5f 35 3e b5 e4 f9 3b 7a 4b 3b 3e
       0.07272989 0.17712072 0.007626141 0.18290511
000280 d5 01 94 3c 3b e3 96 bd eb c9 7b bd 1b 0b a8 bd
       0.01806728 -0.073675595 -0.06147186 -0.08205243
000290 bb 0b 93 3d 9f 34 f7 3c b8 93 8f 3d ff 20 76 bd
       0.07179972 0.030176459 0.07010597 -0.06009006
0002a0 1a ad 2e 3e 7e 46 0f 3e a5 6e a9 bd 81 39 b4 3b
       0.1705822 0.13991734 -0.08273057 0.005500019
0002b0 db 35 26 3e 8e a2 38 bd f6 63 cc bc 2f cf 48 3e
       0.16231482 -0.0450769 -0.024950009 0.19610284
0002c0 af 38 26 be d5 72 b7 3d a2 d7 d3 3c 41 78 8e bd
       -0.1623256 0.08957449 0.025859658 -0.0695653
0002d0 52 9b 3f 3d 68 59 58 3e 24 9f 36 bc c2 fd 1a be
       0.046778984 0.21127856 -0.0111463405 -0.15135863
0002e0 ec 7b b8 3a ca 68 10 3d 9f 35 0f 3d 42 eb 45 3c
       0.0014075018 0.035256185 0.034963246 0.012080016
0002f0 d1 7c 1c 3e 37 80 9d 3d 3d ea 90 3e 8f 90 96 bc
       0.15281989 0.07690471 0.2830371 -0.018379478
000300 92 1f 91 bd 5f 9a 19 bd 0e 0c 03 be d7 0f 07 3e
       -0.070861 -0.037500735 -0.12797567 0.13189636
000310 26 ff d9 bd a4 cd 8c bd 83 b6 f2 3c 18 a7 eb bd
       -0.10644369 -0.0687516 0.029628044 -0.1150648
000320 c0 06 8b 3d da 9d e7 bd 9c 76 05 be c3 c8 97 bd
       0.06788397 -0.11309405 -0.13033527 -0.07411339
000330 b0 a1 1e 3e e4 f0 85 3d a3 3d 2a bc 57 ed c8 3d
       0.15491366 0.06540087 -0.010390672 0.09810894
000340 4a 09 d3 bd fe 55 9f bb 40 b1 1a bd 3f 91 22 bc
       -0.10304506 -0.004862546 -0.037766695 -0.009922325
000350 3f 40 2d bc 79 b8 96 3d e6 36 08 3e 10 bb f6 3d
       -0.0105743995 0.07359404 0.13302192 0.12047398
000360 21 b9 2b be 2e f5 54 3e b5 5d 06 3d 00 be c2 3c
       -0.1676984 0.20796654 0.03280421 0.02377224
000370 e7 1a ae 3d 3f 69 74 3e 6b 84 43 3c 8c 40 3b 3d
       0.08501225 0.23868273 0.011933426 0.045715854
000380 2f c6 44 3e e6 5c 3d 3c 65 01 44 3e 87 df ad bd
       0.19216226 0.011557793 0.19141157 -0.084899
000390 31 0c 04 3e 06 4d 25 be 3d 83 5d 3c e8 6d 2d 3c
       0.12895276 -0.16142663 0.013520059 0.010585286
0003a0 96 3d 45 3e e3 c5 92 3a 0f d0 19 bd 85 67 84 bd
       0.19261774 0.0011197891 -0.037551936 -0.06465057
0003b0 bb 98 d4 3b 67 4b 52 3e da fa 2a bc 65 4e 01 be
       0.0064879335 0.20536576 -0.010435784 -0.12627561
0003c0 53 4e 1a bd 78 21 03 bd 79 4a 07 3e bb 1d 14 be
       -0.037672352 -0.03201434 0.13212003 -0.14464466
0003d0 59 57 9e 3d 4a 40 26 be 53 d9 86 be 34 10 f5 bd
       0.07731504 -0.16235462 -0.2633768 -0.11965981
0003e0 99 18 04 bd b8 fb 85 bd 6c ef ca 3d 7b 86 6a 3c
       -0.03225002 -0.06542152 0.09908947 0.014314289
0003f0 6c 4a d5 bb 87 b7 d4 bd ac 13 40 bd b2 a9 93 bd
       -0.006509116 -0.103865676 -0.04689376 -0.07210101

bias f4 [18]
000000 ae dc 8e 3c f8 51 21 be 2a 4c 3e bc 10 00 b2 3d
       0.017439213 -0.15753925 -0.011614839 0.08691418
000010 a7 86 92 3d 60 ec bf bd cd c4 05 bd 43 8a af 3e
       0.07154589 -0.09371257 -0.032658387 0.34285173
000020 e4 63 ed bd b1 bf 21 3e d5 ca 1e be ae 72 97 bd
       -0.11591318 0.1579578 -0.15507062 -0.0739492
000030 bd c6 09 3e 5b b4 c1 bd 03 17 38 be 58 4d 95 bd
       0.13454719 -0.09458228 -0.17977528 -0.07290143
000040 1b e9 4c bd 30 6a f1 bd
       -0.050026994 -0.11787832

weight f4 [6, 18]
000000 71 0c d9 3d 07 87 c3 3e 1b 8f 21 be d8 d9 c3 3e
       0.10598076 0.38188955 -0.15777247 0.3825214
000010 07 bf 06 3f 70 3b f7 3d d3 87 56 3d fa 29 f0 be
       0.52635235 0.12071884 0.052375626 -0.46907026
000020 f3 cc 9d be b0 79 5a bd f4 ff 00 3e be 33 20 be
       -0.30820426 -0.053338706 0.12597638 -0.15644738
000030 83 bb de 3e 45 45 55 3e 5c f8 e2 3d 40 0a 58 be
       0.43502435 0.20827205 0.11082527 -0.2109766
000040 31 c6 63 3e 69 fb 07 bf 82 97 4e 3e 16 3d 8a 3e
       0.22243573 -0.53117996 0.20174983 0.2699973
000050 15 21 04 be 0f f8 2a be 32 ac 80 be a7 10 6b be
       -0.12903245 -0.1669619 -0.25131375 -0.22955571
000060 1d d1 d3 3d 07 9d fc be 80 7a d5 3e bc 16 96 3e
       0.103426196 -0.49338552 0.41695023 0.2931422
000070 a2 d6 95 be b2 62 5c 3d c3 79 94 3d 1a 35 06 bd
       -0.29265314 0.05380506 0.07249787 -0.032765485
000080 c3 8c c9 3e 48 36 bc be 6c a5 ef be 89 ba 8b 3e
       0.39365205 -0.36760163 -0.46805894 0.27290753
000090 9e 99 9e be ce 5f 38 3e 98 01 02 3e ab 26 c2 be
       -0.30976576 0.18005297 0.1269592 -0.37920126
0000a0 ee 8d 39 3e a8 24 9e 3d b1 1f fe 3c 7c 14 ce be
       0.18120548 0.077218354 0.031020971 -0.40250003
0000b0 4a a8 d4 be 3b e9 4c 3c f8 59 8e 3e 6b cf 30 be
       -0.41534644 0.012506778 0.27803016 -0.17266624
0000c0 e5 67 d1 3e c5 79 fb 3d bb c3 12 bf cd a9 19 3f
       0.40899578 0.12279085 -0.5732991 0.6002472
0000d0 2d af ba be b1 14 47 3e de 5f 8d 3e 2f 7d 62 be
       -0.36461774 0.19441487 0.27612203 -0.22118066
0000e0 85 49 0c 3f b7 ba 5e be 46 2a 16 3d a7 67 8e bd
       0.5479968 -0.21750914 0.03666141 -0.06953364
0000f0 52 93 4e be ea 4b a8 be ec 47 95 be 65 15 df be
       -0.20173386 -0.32870418 -0.29156435 -0.4357101
000100 df 13 32 3e 32 78 7e bd 28 c4 9b be 4f 0e 26 3e
       0.17390393 -0.062126346 -0.30423093 0.16216396
000110 46 10 59 3e 92 b6 86 be f0 61 cd 3e 10 94 82 3e
       0.21197614 -0.26311165 0.40113783 0.25503588
000120 65 ae 51 3e 6b e9 9c 3d 4e db 8a be 66 90 55 be
       0.20476682 0.076617084 -0.2712044 -0.20855865
000130 f6 21 88 3e 27 e3 d2 3d 6c 2c f4 3e b2 34 9b 3e
       0.2658841 0.10297232 0.4769014 0.3031364
000140 12 eb 23 bf 03 76 ce 3e 6d 5a b8 3e 52 87 24 3d
       -0.64030564 0.4032441 0.3600649 0.040168114
000150 9f bf ce be 96 e3 a2 3e 5d 53 8a 3e 53 43 89 be
       -0.4038057 0.3181426 0.27016726 -0.26809177
000160 6a 56 92 be 95 36 43 3e 43 cd 93 be 9a d5 70 3e
       -0.28581554 0.1906379 -0.2886754 0.23518983
000170 24 a4 e0 be 6f 54 03 be f2 b9 ca bd 01 73 30 be
       -0.4387523 -0.12825178 -0.098987475 -0.1723137
000180 85 59 10 3e 35 66 95 3d 31 24 1c bd 79 55 54 be
       0.14096649 0.07294885 -0.038120452 -0.2073573
000190 12 8e 1b 3d c6 6d 01 3f 4e 68 08 bf b6 e3 a1 be
       0.037977286 0.50558126 -0.53284156 -0.31619042
0001a0 77 e2 af be f0 1a e3 3e 62 6b a3 3e 5e 0e fb bc
       -0.34352466 0.4435649 0.31917864 -0.0306465

bias f4 [6]
000000 98 b6 94 be 09 41 86 be dc b1 05 3e e3 15 80 be
       -0.29045558 -0.26221493 0.13056129 -0.25016698
000010 93 b3 d3 3c 94 9d bf be
       0.025842464 -0.3742491

weight f4 [18, 6]
000000 f1 21 99 be b7 c0 41 3d c7 ef ed be 56 d9 d7 3e
       -0.29908708 0.047302928 -0.46471998 0.42158002
000010 02 86 d1 3e 0a e6 8c 3e bc ec 9b 3d 0e 8f 62 be
       0.40922552 0.27519256 0.07613513 -0.22124884
000020 11 2c 93 bd 51 65 e1 bd a9 ae a4 3d a4 21 06 be
       -0.071861394 -0.11005653 0.08041126 -0.1309877
000030 37 df da bd ae ed 62 be da 38 9c 3c 51 a9 a7 be
       -0.10687106 -0.2216098 0.019070078 -0.32746366
000040 14 2a a1 bd 3e db b7 be 02 41 92 bb ec 9c 2a 3e
       -0.07869354 -0.35909456 -0.004463316 0.16661423
000050 b6 01 66 be 99 c2 9a be dc fe a9 be a6 43 94 3e
       -0.2246159 -0.3022659 -0.33202255 0.28957862
000060 81 73 16 3e 0e 5c 51 be ae 8e 4b be a7 36 5e be
       0.14692499 -0.20445272 -0.19878647 -0.21700536
000070 37 92 7b 3c 98 a8 96 bd 4f cb 75 be 25 00 89 3e
       0.015354685 -0.073563755 -0.24003337 0.26757923
000080 24 fb 74 3e f2 47 dd 3d 48 71 90 bd 0a 51 64 be
       0.23923928 0.10804738 -0.07052857 -0.22296539
000090 d4 7c 4d be ce 3a 17 be b8 b2 e9 bb d3 ba 8b bd
       -0.2006715 -0.14768526 -0.0071319006 -0.06822743
0000a0 7c 97 37 3d 13 f1 96 bd 5f e9 80 be 74 1f 35 3d
       0.0448222 -0.073702 -0.25178048 0.04421945
0000b0 c3 bf 30 be 9c 34 02 bd e9 3a 39 be c9 2c 6d be
       -0.17260651 -0.031788453 -0.18088879 -0.23161615
0000c0 01 ed 21 3e ba f3 60 be 66 ed 1a be ae 11 c8 bd
       0.15813066 -0.21967974 -0.15129623 -0.09768997
0000d0 de 7b ae 3d 4c fb 7c 3e 72 ca 25 3e c8 5f 69 bd
       0.085197195 0.24705237 0.16190508 -0.05697611
0000e0 33 f3 9e 3e 06 a0 1f be ca 46 5c be c8 b1 32 bc
       0.3104492 -0.15588388 -0.21511379 -0.010906644
0000f0 0e da 05 bf 91 7c dd 3d 15 54 82 3e 7a fe 8c be
       -0.5228585 0.10814775 0.25454774 -0.275379
000100 36 a0 2f 3e ae 5a 85 3e 87 e8 81 be 5a ce 0b bf
       0.1715096 0.26045746 -0.25372717 -0.5461174
000110 0c aa 70 3c 07 92 8e 3e dd 76 90 be 6b 1c 2b 3d
       0.01468898 0.27845785 -0.28215685 0.04177515
000120 78 d9 87 be bf 8f 13 bf f7 5e 82 be 59 42 06 bf
       -0.26533103 -0.57641214 -0.25463077 -0.5244499
000130 8b d1 2b 3e 97 f2 ca be a6 3f 2f bd e2 f9 67 be
       0.16779153 -0.39638206 -0.04278531 -0.22653916
000140 01 b1 5e 3e 50 4e 8f 3e f4 d5 b2 3e 3b 06 a3 be
       0.21747209 0.27989435 0.34928858 -0.3184069
000150 41 56 55 3d 5f c1 7c bc a4 15 85 3e 01 2f c5 b9
       0.05208421 -0.015426963 0.25993073 -0.0003760979
000160 56 83 b6 3e 62 fe 37 3e d7 87 97 3e ff 54 27 3f
       0.35647076 0.17968133 0.29595825 0.6536407
000170 1a fd 03 bc c5 c7 91 be cb f2 a1 3e 4d 40 a1 bc
       -0.00805595 -0.28472725 0.3163055 -0.019683981
000180 02 8b 8c 3e f8 87 72 bd 22 18 3e be 5e 4e 2e 3e
       0.27449805 -0.0592117 -0.18563893 0.17022082
000190 64 32 c0 bd 5d 14 4d be 81 95 05 3e 66 95 5c 3c
       -0.09384611 -0.20027299 0.13045312 0.013463354
0001a0 5e b8 e4 bd 74 cc 68 bd 5d ff af bd 28 4b e4 3d
       -0.11167978 -0.056835607 -0.085936286 0.111471474

bias f4 [18]
000000 48 bb b1 3e 7c 29 e5 3c 64 d1 39 3e 27 23 88 be
       0.34713197 0.027973883 0.18146282 -0.2658932
000010 1e ac e0 3e ff 27 11 be 63 2c 4b be f9 3a 33 3f
       0.43881315 -0.14175414 -0.19841151 0.7001186
000020 c9 55 21 3f 63 ac 22 3f 60 de 72 be 20 b4 27 bc
       0.6302152 0.6354429 -0.23717642 -0.010235816
000030 92 be 2a 3e 4a 1f c1 3d 46 83 25 3f 80 28 21 3e
       0.1667426 0.09429796 0.6465343 0.15738106
000040 86 ee de 3e 88 e6 c4 3e
       0.43541354 0.3845713

weight f4 [54, 18]
000000 27 a0 da bd 87 82 48 3e b8 c3 39 3e 23 d7 64 3e
       -0.10675078 0.19581042 0.18141067 0.22347693
000010 99 0c df 3e 41 bd 20 bd ba 46 26 be b8 79 7c 3c
       0.435643 -0.039242987 -0.16237918 0.015409879
000020 a8 f5 38 3e 55 5c 78 3e 7e 7d 37 3e 9f d4 67 be
       0.1806246 0.24253972 0.17918965 -0.22639702
000030 ed 0d 83 3e 38 5f 3f be 3d f8 d0 3d 40 cc 5c 3d
       0.25596562 -0.18688667 0.10203598 0.053905725
000040 12 a4 db bd 92 aa 09 3e 92 4e 24 3e 6f 56 c4 bd
       -0.10724653 0.13443974 0.16045597 -0.095867984
000050 6c fc e1 3d 54 fc e7 39 30 e4 d2 3d 47 41 40 3e
       0.11034474 0.00044247753 0.102974296 0.18774901
000060 b4 86 36 be 87 78 93 3e 1c 3b d6 3d 8c f8 dd bd
       -0.17824823 0.28802893 0.10460493 -0.10838422
000070 ea e5 31 bd 88 41 91 bd 1e 74 30 be 97 e5 0c 3c
       -0.043432154 -0.07092577 -0.17231795 0.00859966
000080 f0 82 b1 3d 32 61 a4 3e b3 8e 27 3e 5d 1d 19 3d
       0.086675525 0.32105404 0.16363029 0.03738152
000090 11 84 2f 3e 46 7b e2 bd 10 9e d3 3d c0 2d 51 3e
       0.17140223 -0.11058669 0.103328824 0.20427608
0000a0 a6 8a 46 3e 7c c6 52 3e 41 79 0d 3c 5b 7a 0e 3f
       0.19388828 0.20583528 0.008634866 0.5565545
0000b0 a2 5d ab 3d 7a 3f a2 bd b3 b4 ca bd a6 d0 7c be
       0.083674684 -0.079222634 -0.09897747 -0.24688968
0000c0 29 b0 47 bd a4 43 34 be f8 f6 61 3d 22 98 d0 3e
       -0.048751984 -0.17603928 0.05516717 0.40741068
0000d0 72 a2 cf 3e c3 38 78 3e e4 ec 93 3d c7 34 3c 3e
       0.40553623 0.24240403 0.07222918 0.18379508
0000e0 ae 14 38 bd 5d e3 23 3d 3b 34 41 3d 77 6e 4e 3a
       -0.044941597 0.040011752 0.04716895 0.0007874737
0000f0 fb 4a 3d bc 14 a6 5c bd f0 96 04 3e 07 46 d8 3d
       -0.011553521 -0.053869322 0.12948203 0.10560232
000100 9c b3 c3 bd a4 d8 95 bd fd 6d 3d be ff 09 1f 3e
       -0.09555742 -0.073167115 -0.18498988 0.15531157
000110 3e 73 3c 3e 1a 0b 1c bd 47 fe a1 3e 2f 86 a3 bc
       0.18403336 -0.038096525 0.3163931 -0.019961445
000120 19 16 03 3e 72 fd c8 3d 15 e6 50 3d 96 90 82 3d
       0.12801398 0.09813966 0.051000673 0.06375234
000130 df c3 44 3d bd 5b fa bd 01 62 53 bd a6 98 77 bc
       0.04803836 -0.12224529 -0.051607136 -0.015112078
000140 38 eb bc 3d c4 12 3c bd 8b be 81 bd a7 7c 46 3e
       0.09224552 -0.045916334 -0.06335171 0.19383489
000150 e9 ae 33 3e 63 61 a2 bd 12 2c 85 3b 9b b3 a7 bd
       0.17547192 -0.07928731 0.0040640915 -0.08188554
000160 b9 41 d7 3d a9 bc cd 3d ad b7 ef 3e 44 a7 f5 bd
       0.105105825 0.1004575 0.4681982 -0.11994794
000170 c7 28 cc bd b2 df 8e 3e ed f6 6a 3e bf 52 e4 3d
       -0.09968715 0.2790504 0.22945757 0.11148595
000180 ee ce 05 be b1 d5 c5 3e fb 71 e9 bd f5 ed 32 be
       -0.13067219 0.38639596 -0.11398693 -0.17473586
000190 da e1 6f 3d 67 17 33 3e 30 21 3f 3e b9 02 10 be
       0.058565 0.17489396 0.18665004 -0.14063539
0001a0 32 c8 9e 3d 0a 16 78 bd 48 d1 5f 3e 21 22 e8 bd
       0.07753028 -0.060567893 0.21857178 -0.113346346
0001b0 8f 67 ba 3d 07 73 16 3e f9 bd fb bd d2 af d4 bd
       0.091017835 0.14692317 -0.12292094 -0.103850976
0001c0 6e 55 f1 3d 87 1f 9a bd 18 81 22 3e 8c 39 f3 bb
       0.117838725 -0.075255446 0.15869558 -0.0074226316
0001d0 e0 40 c3 3c d2 aa fe bc 4b 21 1e bc 3f 6d 9e 3d
       0.023834646 -0.031087313 -0.009651492 0.07735681
0001e0 b0 ce 9a 3e da bd 5c 3d 3a 6a 9e 3c 29 df 2e 3d
       0.30235815 0.053891994 0.019337762 0.04269329
0001f0 ba be b0 3d 1a 2a 0d 3e 13 8f c5 bd 16 36 82 3d
       0.08630128 0.13785592 -0.0964643 0.06357972
000200 2b c6 a7 3d 78 5a 20 be 50 9f 08 bd a7 05 26 3d
       0.081920944 -0.15659511 -0.033355057 0.040532734
000210 ed 4d 98 bb ab 77 41 3d 9e 1f b5 3d 4d 66 92 3e
       -0.0046479614 0.047233265 0.08843921 0.28593674
000220 dd d0 c6 3d 17 d4 44 3b 39 f5 81 bb 45 57 75 3e
       0.09707806 0.0030033642 -0.0039660004 0.23959072
000230 24 2f 9c 3e 04 23 bc bd 35 af 2a be 55 8a d4 3d
       0.30504715 -0.09186366 -0.16668399 0.10377947
000240 21 7f 9b 3d 1a 2d 12 bd b2 aa 13 3d b8 89 8f 3e
       0.07592607 -0.035687543 0.03605146 0.2803476
000250 7f 47 a8 bc 75 be 3d 3e 05 f0 52 3e a4 93 62 3e
       -0.020541904 0.18529685 0.20599373 0.22126633
000260 51 10 3d 3c eb c8 a5 3e 20 d1 de 3e 78 05 57 3e
       0.011539535 0.3237985 0.43518925 0.2099818
000270 0f 1c ab bd 1a b9 16 bc 98 35 ae 3d 26 41 98 bd
       -0.08354961 -0.009199405 0.08506316 -0.07434301
000280 75 33 0d be ef 8d 44 3e 1a a4 95 bc 08 69 00 bb
       -0.1378916 0.19194768 -0.018266726 -0.0019593854
000290 7d e6 51 3e 99 93 bd bd 1c 96 7e 3c eb 34 f3 3d
       0.2049808 -0.09256668 0.015538719 0.11875328
0002a0 29 a0 fc bc a6 0b 9a bd 7a 16 5c bd 83 dc 0f 3e
       -0.030838089 -0.07521753 -0.053732373 0.14048962
0002b0 b7 3c b4 bc 4e c3 cb 3b 9f 01 8b bc 79 b8 25 3e
       -0.022001607 0.0062183505 -0.016968546 0.16183652
0002c0 25 af bb 3d a4 9f be 3c a1 5a 83 3e 57 1b 15 3e
       0.091642655 0.023269482 0.25655082 0.1456121
0002d0 51 b1 16 3d 9e 15 90 3d 34 9a 28 3d 39 05 3e 3d
       0.036790196 0.07035373 0.041162685 0.0463917
0002e0 02 ad 22 3d 05 d7 01 be a9 30 ce 3c 81 df eb bc
       0.039715774 -0.1267968 0.025169687 -0.028793098
0002f0 d3 6a 3b 3e 42 c0 9a bc 42 2a 0a bd 78 ee 31 bd
       0.18302469 -0.018890504 -0.033731706 -0.043440312
000300 98 94 22 be a9 7e 2c bc 1a a3 48 3e f4 fb 19 bd
       -0.15876997 -0.010528245 0.19593468 -0.037593797
000310 c6 b9 a9 3c 50 df 8b bd 56 3d 13 3e 28 99 10 be
       0.020718466 -0.06829703 0.14378867 -0.14120924
000320 1d ab 9a bc 50 30 1b be 97 a5 76 be 89 ae 77 3e
       -0.018880421 -0.15155149 -0.24086605 0.24187674
000330 5f 8b 1c 3e 1a 33 5a 3e b9 75 a3 3d dd 7d 37 3e
       0.15287541 0.21308556 0.07981438 0.17919107
000340 7d 52 8d 3e b8 fe 9d 3e f5 75 c3 bd 6a 17 b6 3e
       0.27601996 0.30858397 -0.09543983 0.3556474
000350 9b 08 84 3e 81 86 9f bd aa 99 75 3c 5a 80 ec bc
       0.25787815 -0.077893265 0.01499025 -0.028869797
000360 d4 cc a6 3e d8 a4 34 3e c2 10 1d be 64 b9 a8 bc
       0.32578146 0.17641008 -0.15338424 -0.020596214
000370 18 0b 97 3d 80 17 40 bd 3b b6 5f 3d 36 28 54 3e
       0.07375163 -0.04689741 0.054617148 0.20718464
000380 70 cb 54 3c 1a 6b a1 bd 26 9d 11 bd 8b d3 98 3d
       0.012987956 -0.07881756 -0.03555026 0.074622236
000390 bb 50 62 bd cc cb 39 3e 24 0c cf 3d 38 d0 b6 3c
       -0.05525277 0.18144149 0.101097375 0.022316083
0003a0 04 12 8f 3e 7a f2 cf 3c f9 60 85 3d a2 04 b7 bd
       0.27943432 0.025384177 0.06512637 -0.089364305
0003b0 2e d9 f4 bd ed ca 17 3d ed 3b b6 bd 1b ad 51 bc
       -0.11955486 0.03705876 -0.08898149 -0.012797619
0003c0 60 0f ee bc b1 a0 d6 3c a7 e8 44 be 4f c2 0f 3e
       -0.029060066 0.02619967 -0.19229375 0.14038967
0003d0 2f f1 7b bd 18 cc 1d be 96 98 4d bb 04 63 0e be
       -0.061509307 -0.15409887 -0.0031371466 -0.13904959
0003e0 6a 42 24 be 68 01 18 be 0a b6 48 be 3d b3 95 bd
       -0.1604096 -0.14844286 -0.19600692 -0.073095776
0003f0 4f 08 44 bd 91 8b f3 3d 0a 85 63 bd 5d a9 ce bd
       -0.047859486 0.118918546 -0.055546798 -0.10090897

bias f4 [54]
000000 1e 30 ba bc 76 cf 80 3e 4d 19 e7 3e ad e0 e8 3e
       -0.022728022 0.2515828 0.4513649 0.45483914
000010 fa f5 46 be 73 79 74 3e e0 42 f1 3c f6 52 b2 3e
       -0.1942977 0.23874454 0.029450834 0.3482892
000020 91 24 7f 3e 50 85 58 3b 27 f0 d7 bc 9c 37 e1 3e
       0.24916293 0.0033038445 -0.02635963 0.4398774
000030 ee ee 81 3e ad 3a f9 3d 37 38 68 be d4 c8 cf bd
       0.253776 0.12169395 -0.22677694 -0.10145727
000040 32 31 9b 3e 47 e3 40 3e c6 fa 48 be 56 d0 68 be
       0.3031097 0.188367 -0.19626912 -0.22735724
000050 d6 ff 9a 3e b6 67 01 be 47 ad 92 3e 98 82 bf bd
       0.30273312 -0.12637219 0.28647825 -0.09351081
000060 e6 7c 1b 3e 6c bb a1 3e 0d 1e 0c be ef 0b c5 3d
       0.15184364 0.31588304 -0.13683338 0.09621417
000070 f8 8f de 3d ab c7 72 3d b1 c1 18 3e 7b 84 83 be
       0.108673036 0.05927245 0.14917637 -0.25687012
000080 6f de 96 bd 9b 3d 88 bd bc 7b f8 bd 10 a4 c6 3d
       -0.073666446 -0.06652375 -0.121329755 0.09699261
000090 2b 90 c9 3d f9 79 88 3d 03 8a c5 3d c7 2e ac 3e
       0.09841951 0.066638894 0.09645464 0.33629438
0000a0 64 20 15 bd 79 39 bc 3e 80 8c ac 3c cd 0f 70 be
       -0.036407843 0.36762598 0.02106309 -0.23443528
0000b0 a2 80 52 3e 21 e8 3b bc f1 0e 92 bd ee 48 9f 3e
       0.20556882 -0.011468918 -0.07131756 0.31110328
0000c0 47 de ed bd 2c 11 19 bd 9c ff 44 3e f1 d4 a5 3e
       -0.11614662 -0.037369892 0.19238132 0.32389024
0000d0 2c e9 ea bd b6 60 08 bb
       -0.11470255 -0.0020809597

weight f4 [180, 54]
000000 b1 c1 d0 3d 41 4f 1c be 55 0f 85 be d5 1b a9 bd
       0.10193194 -0.15264608 -0.2598826 -0.08257262
000010 13 61 48 3d 03 cf 9d 3d fe 89 20 3e 95 c8 f2 bd
       0.048920702 0.077055 0.1567764 -0.11854664
000020 8a 36 be 3c 8c b4 59 3c c7 5a d3 3d fa ce a7 3c
       0.023219366 0.013287675 0.10320049 0.020484436
000030 0d 59 c0 3a 0e 40 07 bd 27 93 19 bc 5e 6d a8 3c
       0.0014674977 -0.03302007 -0.009373463 0.020559963
000040 10 fd d3 bd 04 a9 49 3e 4f 0f 7a 3c 30 68 24 bd
       -0.10351002 0.1969338 0.015262439 -0.040138423
000050 0c 3f 75 bc ac 8c 77 bd 52 3f bc bd 71 58 d9 bd
       -0.014968645 -0.06043689 -0.09191765 -0.10612572
000060 8b 22 90 be 5a 7e 87 bd e2 9d ac bd 91 cf a0 3d
       -0.28151354 -0.066158965 -0.08428551 0.0785209
000070 ea 5e 6b bd 25 7b d3 3b d9 07 9e bc 35 a2 af bd
       -0.057463564 0.006453889 -0.019290851 -0.085758604
000080 7e 27 9e 3c bd bc ba 3d c9 3a 8a 3e a3 f8 03 be
       0.01930594 0.0911803 0.26997975 -0.12887816
000090 d9 23 13 3e 25 34 c7 bd 37 a2 1b 3d 7c 05 85 be
       0.14369144 -0.09726743 0.037996497 -0.25980747
0000a0 64 0f 1f 3e 60 44 a9 3d b0 ad 3c bd 79 0d 4b 3d
       0.15533215 0.082649946 -0.04606408 0.049573395
0000b0 7b 7c f9 3d 83 1e 27 3d dc da 45 bc d5 0a a5 bd
       0.12181946 0.040800583 -0.012076106 -0.08058707
0000c0 41 0f e1 bc 3d 76 dd 3d c1 32 ef bc 7e 87 54 be
       -0.027473094 0.10813568 -0.029199006 -0.20754811
0000d0 19 b3 04 bd 0f c7 96 3d be 3c 47 bd 7b 4b 7a be
       -0.032397363 0.07362186 -0.048641913 -0.24442856
0000e0 f7 d0 5d be 6a 51 15 be 83 13 81 3d 57 b5 bc 3d
       -0.21661745 -0.14581838 0.0630255 0.09214275
0000f0 1c 8b da 3d 24 c8 5e 3c 81 58 55 3d 7d c2 f2 bd
       0.10671064 0.013597522 0.052086357 -0.11853502
000100 46 75 eb 3d 29 51 18 be d1 7d ec 3c 26 5c a6 3d
       0.114969775 -0.1487471 0.028868588 0.08123045
000110 06 7e f2 bd fd ea f8 3b ad 27 b9 3d 30 55 0a 3e
       -0.11840443 0.007596372 0.09040771 0.13509059
000120 32 1f e3 3d d4 e8 e4 3d fb 7f 9a 3d 29 b2 25 3c
       0.110899344 0.11177221 0.075439416 0.0101132775
000130 ed 64 2b be 9e f6 a4 bd 3f 33 62 be 65 3b 79 bd
       -0.16737719 -0.08054851 -0.22089861 -0.06084766
000140 59 02 0b be b3 ee df 3c 9c e1 9e 3d 91 fa ae 3c
       -0.13575114 0.0273355 0.07757875 0.021359714
000150 f7 32 d8 bd 75 b2 8a 3d 97 59 ea bd 83 5e b8 bd
       -0.10556596 0.06772319 -0.11442869 -0.09002402
000160 80 16 99 3e 93 a9 f1 bd dd 4c 05 3e cb e9 55 3c
       0.2989998 -0.11799922 0.13017602 0.013056229
000170 1c f7 69 3d 01 72 49 be 66 88 38 3e 8d 4d 13 3e
       0.057120427 -0.19672395 0.18020782 0.14385052
000180 b3 82 fb bd 5f 41 fb 3d 74 87 44 3d bc 31 06 3d
       -0.12280788 0.12268328 0.04798074 0.032762274
000190 3e 44 28 3d 4a 50 0e be 24 ce 17 bd 87 0f 44 bc
       0.041080706 -0.13897815 -0.037061825 -0.011966593
0001a0 b5 09 ad bc db 4d 23 be 73 17 86 bd f4 d1 27 3d
       -0.021122793 -0.15947668 -0.06547441 0.04097171
0001b0 89 e2 af 3d 62 52 56 be 9e ad 82 be 36 bd 91 3c
       0.0858813 -0.20929864 -0.25523084 0.017790418
0001c0 eb 80 07 3e b1 0d 70 bb 66 c7 67 3e 26 2d b4 bd
       0.13232772 -0.0036629254 0.22634658 -0.08797674
0001d0 b0 77 83 3c 11 ef bb bd 88 72 28 bd 09 54 97 bd
       0.016048282 -0.09176458 -0.04112485 -0.07389075
0001e0 b2 99 e6 bd 5b c7 71 bc b1 62 cf 3d 4c de f0 3d
       -0.11259784 -0.014757003 0.10126246 0.1176115
0001f0 78 ba 0c bc 19 d1 59 3e a9 0a 47 3d 4c 7a 43 bd
       -0.0085893795 0.2127117 0.04859415 -0.047724053
000200 6d e4 36 3c 18 91 03 be 11 a3 19 be 50 d4 8b bc
       0.011162859 -0.12848318 -0.15003611 -0.017069012
000210 c4 7c 78 be 8d 2d 8e bc 76 f9 04 be 29 fb 9e 3d
       -0.24266344 -0.017355705 -0.12985787 0.07762749
000220 18 de be 3d ed 39 b3 3c 67 5b 89 3d a5 6d 10 be
       0.09319705 0.021878207 0.06706887 -0.14104326
000230 58 e2 cd bd 09 e8 ca 3d 7a eb 98 3e 76 09 f9 bd
       -0.10052937 0.099075384 0.29867154 -0.12160008
000240 c6 32 08 3e 02 4a 0a 3b 6d 9d a6 bb 36 e5 0e be
       0.13300619 0.002110124 -0.0050846846 -0.13954625
000250 92 11 a3 3d 1b 4e f1 3d b4 ed cc 3c c7 9e 1c 3e
       0.07962336 0.117824756 0.02501569 0.15294944
000260 21 c5 ba 3d b0 da 94 3d f6 f1 c3 3d c0 45 18 bd
       0.091196306 0.07268274 0.09567635 -0.037175894
000270 b4 bc d4 bd 85 6b a4 bc bb 39 2e 3d 75 4a b5 bd
       -0.10387555 -0.0200708 0.042535525 -0.08852092
000280 99 56 b8 bd da e0 6a 3c 48 c5 ee 3c 6c 2d 6b be
       -0.09000892 0.014335835 0.029146805 -0.22966546
000290 c2 e0 5f be 33 fb 07 bc 6f 32 2d bd 38 89 d4 3d
       -0.21863082 -0.008299637 -0.042284425 0.10377735
0002a0 0d 1f 07 3e ef c5 6c 3b 65 d5 cb bc 1f d7 d1 bc
       0.13195439 0.003612872 -0.024882028 -0.025615273
0002b0 02 92 aa bd 29 94 06 3d cb 91 e0 bd 46 b2 1b ba
       -0.0832863 0.03285614 -0.10965308 -0.00059393456
0002c0 d7 cb a3 bc 2b 5d a2 bd f3 ac e8 bd 0b 97 2c 3e
       -0.01999466 -0.07927927 -0.113611124 0.16854493
0002d0 5f 02 48 3d 50 b0 0c 3d 77 c1 c3 3c 78 de f5 ba
       0.048830386 0.034347832 0.023895962 -0.0018758317
0002e0 37 cc 23 bd 0d 7c 89 3d 63 3a 1d be 8e eb dc bd
       -0.039989676 0.06713114 -0.15354304 -0.10787116
0002f0 43 5d 5b 3d 16 1b f6 3d 33 b5 28 bb 0c 01 03 be
       0.05355574 0.12016885 -0.0025742769 -0.12793368
000300 e0 5e c3 bd 89 fa 29 bd 07 9a 69 bd bc 15 34 bc
       -0.0953958 -0.041498695 -0.057031658 -0.01099151
000310 a9 b5 87 3e 35 0a 80 bd 94 5a 2b 3e 64 2d c5 bc
       0.26505783 -0.06251947 0.16733772 -0.024069495
000320 b8 7c 8d 3d 6f e9 fc bd e3 9b 0f 3e 59 88 d7 3d
       0.06908554 -0.123492114 0.1402431 0.10524053
000330 e2 0b ad bd 07 0d 02 3e b1 d6 0d 3e 58 16 33 be
       -0.08449532 0.12700282 0.1385143 -0.17488992
000340 d1 bd 40 bd db 60 36 be d3 8f c7 3d 91 b1 3a 3d
       -0.047056023 -0.17810385 0.09744229 0.045579497
000350 93 33 a8 3c d1 5c 6e be 2a 54 a8 bd a1 ff 21 3e
       0.020532405 -0.23277594 -0.08219178 0.15820171
000360 1e 21 56 3c e5 cc 55 be d0 ad 27 be 38 10 0e bd
       0.013069419 -0.20878942 -0.16374898 -0.034683436
000370 d3 62 5e bd 76 e4 5a bd 92 d4 37 3e d3 7a 5f bc
       -0.054293465 -0.053440534 0.17952183 -0.013640123
000380 da 70 db 3d 31 75 e8 bd a3 8e 4e 3b c6 97 06 3c
       0.10714884 -0.113504775 0.0031518124 0.008214897
000390 bf 33 f3 3c 6d b4 c5 3d f5 21 60 3d c2 b0 c3 bc
       0.02968776 0.09653554 0.054719884 -0.023887996
0003a0 72 e6 1d be 4a 40 bc 3a b5 74 8e bd 5e cb 18 3d
       -0.15419939 0.0014362421 -0.06955854 0.03730332
0003b0 a4 7c cd 3c df 26 5c bd 94 5f dd bd 5a 24 b6 bd
       0.025083847 -0.053748008 -0.10809246 -0.08893652
0003c0 ba 8d a9 bd d7 28 0a bd e7 6b e4 bd 44 91 27 3e
       -0.08278985 -0.033730354 -0.11153393 0.16364008
0003d0 c9 a8 86 3d d4 02 93 bd 6b 49 06 be b7 ff 17 bd
       0.06575162 -0.07178274 -0.13113944 -0.037109103
0003e0 47 94 44 be f8 dd 3e bd 52 a2 94 3e cb 44 69 bd
       -0.19197188 -0.046598405 0.2903009 -0.05695037
0003f0 ae 9e be 3d d1 59 a4 3d a4 40 88 3d 4e e1 6d be
       0.093076095 0.080249436 0.06652954 -0.23230478

bias f4 [180]
000000 98 69 f1 bd 4f ac 5d bd 23 07 47 be 3c 42 08 be
       -0.117877185 -0.054119404 -0.19436316 -0.13306516
000010 60 70 cd bd 54 48 cf bd 07 72 1c be 46 30 93 bd
       -0.100311995 -0.10121217 -0.15277873 -0.07186942
000020 fb 33 2b be ea 7d 5d bd a7 bb bf bd e9 30 d8 bd
       -0.16719048 -0.05407516 -0.09361964 -0.10556204
000030 1e 45 bd bd cd 72 9d bd 29 47 51 bd 12 8b e7 ba
       -0.09241699 -0.07687912 -0.051093254 -0.0017665348
000040 61 2d 61 bc 6a 34 5e 3d e1 56 63 3d c3 ac 92 3d
       -0.013743729 0.054249205 0.055502776 0.07161858
000050 2d 34 12 3e 94 bd ef 3d 26 68 19 3e 0c e0 dd 3d
       0.14277716 0.11706081 0.14981136 0.10833749
000060 bb 24 bf 3d 8c c7 1d 3e 24 64 cc 3d ed 0f 05 3e
       0.09333178 0.15408152 0.09980038 0.12994356
000070 cb d2 c2 3d 90 9e be 3d e8 9c 6e 3d 9e 92 ff 3d
       0.09512862 0.09307587 0.058255106 0.12479137
000080 39 c4 ca 3b 46 b6 cc 39 70 63 f6 3d fa f3 e9 3d
       0.0061879423 0.00039045716 0.12030685 0.11423488
000090 6a d4 cb bc 83 8d bd 3d 40 22 0f 3d bb fa 90 ba
       -0.02488156 0.09255507 0.034944773 -0.0011061052
0000a0 cf 3d bd bc de 12 7a bc 5f 6e 1b bd a0 47 1c 3c
       -0.023100762 -0.015263287 -0.037947055 0.009538561
0000b0 de 19 89 bd 9a cc 58 bd 76 c8 f6 bd 14 51 08 be
       -0.06694387 -0.0529295 -0.12049954 -0.13312179
0000c0 e6 bd 1c bd 52 18 92 bd 9e 48 6d bc 8d 84 b5 bd
       -0.03826704 -0.07133545 -0.014482645 -0.08863173
0000d0 9f a1 fc bd 34 c5 bd bd 76 f1 0a be e0 1a 96 bd
       -0.12335514 -0.09266129 -0.13568673 -0.07329345
0000e0 74 d3 39 bd 8d dc a0 bd 30 d4 db bd f3 56 33 be
       -0.045367673 -0.07854567 -0.10733831 -0.17513637
0000f0 e7 58 9e bd 11 09 6d bd 71 11 b9 bd 33 25 ec bc
       -0.077318005 -0.057869975 -0.0903653 -0.028826332
000100 98 15 88 bd a5 bb a6 bc 8f 8e ef bd cb ed a9 bd
       -0.06644744 -0.020353148 -0.11697113 -0.082973085
000110 21 93 0e 3d f5 32 40 bd 08 81 27 3d c8 8b 2e bc
       0.03480828 -0.046923596 0.04089454 -0.010653444
000120 a2 f1 0d bd 95 b4 40 3d 75 28 29 bd 84 85 57 bd
       -0.034654267 0.047047216 -0.04129835 -0.052617565
000130 b1 7e 43 bd 06 ed 06 3d 83 91 5a bd 21 e4 c7 3c
       -0.047728244 0.032940887 -0.053361427 0.024400773
000140 e7 d0 88 3c c6 a3 91 3d 6b a1 01 3d 8d 65 68 bd
       0.016701175 0.071113154 0.03164808 -0.05673747
000150 86 30 25 3c d8 8a 92 3c 3c 47 66 3d 02 c5 ca 3d
       0.01008237 0.017888471 0.05622028 0.099008575
000160 15 50 cc 3d b1 f9 a2 3d 3f bc 83 bd e6 61 27 3d
       0.09976212 0.07957781 -0.064323895 0.040864848
000170 61 72 8b 3b 92 f4 a4 3d 85 a6 37 3d 6c 01 0d 3e
       0.0042555784 0.080544606 0.04483654 0.13770074
000180 65 71 6f 3d aa 50 87 3c 49 52 22 3d 80 ee 0a bd
       0.05845775 0.016517956 0.039629254 -0.033918858
000190 18 c3 68 bc cd 21 2f 3b 50 18 1e 3c b0 f2 86 3d
       -0.01420667 0.0026723028 0.009649351 0.06589258
0001a0 94 62 12 bd 55 e4 87 bd 55 5c 5c bd 8f d3 a4 3d
       -0.035738543 -0.06635348 -0.053798992 0.08048164
0001b0 d0 1e 13 3d 8c 65 c0 3c 78 15 8f 3d b8 bb df bc
       0.035918057 0.023485921 0.06986517 -0.027311191
0001c0 5e 62 5d bc 8d 35 1d bd d9 6b 81 bd 8f 5e 98 bb
       -0.013512222 -0.038381148 -0.063193984 -0.004649944
0001d0 3d c2 a1 bd 52 22 a0 bc 79 05 87 bd 71 72 b6 bd
       -0.07898376 -0.019547615 -0.06592841 -0.08908547
0001e0 40 18 bb bc bb a5 d7 bc 17 5c b8 bb e2 ff a8 bd
       -0.022838712 -0.026324144 -0.0056262123 -0.08251931
0001f0 03 e4 34 bd 16 1d be bc 7e 00 80 bc 7e 26 bd bc
       -0.04416276 -0.023207229 -0.015625235 -0.023089644
000200 b6 f7 4c 3d e6 94 a4 bd 35 4f 23 bc 0e b8 38 bc
       0.050040923 -0.080362126 -0.009967615 -0.011274351
000210 74 25 e2 3c ab e1 a9 3d 1f b5 49 3d 97 8a 3d 3d
       0.02760575 0.08294996 0.049244996 0.046274748
000220 38 c1 e4 3b 82 1f df bc 90 fc 1d 3d fa fa c4 3d
       0.0069810413 -0.027236704 0.03857094 0.096181825
000230 e9 0b 70 3c d9 aa c5 3c 5a cd 95 3c 84 30 bc 3d
       0.014651277 0.024129318 0.018286396 0.09188941
000240 e6 64 cf 3c ae fc 9f 3d e6 f8 dd bb 19 29 cd 3c
       0.025316667 0.07811867 -0.006774056 0.025044011
000250 61 17 3e 3d cc ae 06 3e 1c 4d af 3c 15 b3 1b 3e
       0.046409015 0.13152617 0.021399073 0.15205033
000260 7d ff 4f 3d 17 07 eb 3c a0 9a e1 3d e1 74 8d 3d
       0.050780762 0.028689904 0.110158205 0.069070585
000270 14 c7 ae 3d 2f 7b c6 3d 63 0d 32 3d 69 e0 a4 3d
       0.08534065 0.09691464 0.043469798 0.08050615
000280 18 2d 8a 3d 27 78 02 3e ca 0a 10 3e 41 91 0e 3d
       0.06746882 0.12741147 0.14066616 0.034806494
000290 45 f6 7b 3d c9 e4 31 3d 09 50 31 3d c8 24 75 3d
       0.061514158 0.043431077 0.043289218 0.05984953
0002a0 0d f8 fc 3d 9e 72 cd 3d 8e 5c 11 3d bf a6 b9 3d
       0.123519994 0.10031627 0.035488658 0.090650074
0002b0 12 cd 6c 3d 36 f6 65 3d c5 64 62 3d cd e8 bd 3d
       0.057812758 0.05614301 0.055271883 0.09272919
0002c0 0d 8c a5 3d 0e 8b c1 3d 0c de c0 3d 3e e3 33 bb
       0.08083353 0.09450351 0.09417352 -0.002744868
