knn/models/pretrained-autoencoder/autoencoder-in_features90-latent_size2.pt (torch, 73403 bytes, 16 tensors)

weight f4 [54, 90]
0	0xbdc8591a	-0.0978262
1	0xbd819793	-0.063277386
2	0x3d7b04e8	0.061283976
3	0xbd489d46	-0.048978113
4	0x3d2fe880	0.04294634
5	0xbdd8fca1	-0.1059506
6	0xbdd16702	-0.10224725
7	0xbd883070	-0.06649864
8	0xbca10dd7	-0.01965992
9	0x3d410fb4	0.047134116
10	0xbcf0bfc3	-0.029388314
11	0xbd5ce953	-0.053933453
12	0xbb25c2dd	-0.002529315
13	0xbc9b21a0	-0.018936932
14	0xbdaea923	-0.08528354
15	0xbafccd62	-0.0019287283
16	0xbd980f37	-0.07424777
17	0xbdb8b7dc	-0.090194434
18	0x3cbf5228	0.023354605
19	0x3d050901	0.03247929
20	0x3d7bf966	0.06151714
21	0xbb90a8d3	-0.0044146567
22	0x3d943ec9	0.07238538
23	0xbce9f8ea	-0.028561074
24	0xbd566d0c	-0.05235009
25	0xbc8aec8b	-0.016958496
26	0xbc9a695b	-0.018849066
27	0x3b9e130e	0.004824049
28	0x3d835c20	0.06414056
29	0x3d9c2fed	0.076263286
30	0xbbd22942	-0.0064136097
31	0xbd574aaa	-0.05256144
32	0xbc4f6576	-0.0126584675
33	0xbd0f2a70	-0.03495258
34	0xba42d0fe	-0.0007431655
35	0x3d50fd45	0.051022787
36	0xbd389817	-0.04506692
37	0x3d5c4f3a	0.053786494
38	0x3d649879	0.05580947
39	0x3d029bfa	0.031887032
40	0xbad9bf39	-0.0016612775
41	0xbc9eba44	-0.019375928
42	0xbb123370	-0.0022308491
43	0x3dd9de73	0.10638132
44	0xbd793eae	-0.06085079
45	0xbd95bdc4	-0.073115855
46	0x3d0d2092	0.03445489
47	0x3d9bfd9f	0.07616734
48	0x3def0151	0.11670173
49	0x3ddc96fd	0.10770986
50	0x3dd73525	0.105081834
51	0x3dd5912a	0.104280785
52	0xbcfb28fc	-0.030659191
53	0xbcbf5ace	-0.023358729
54	0xbd63a1cc	-0.055574223
55	0x3d91d493	0.071206234
56	0x3dbfdce5	0.09368304
57	0x3d2a9ae9	0.04165164
58	0xbd795c33	-0.060878944
59	0x3b99e88d	0.0046969117
60	0x3dcbdfcb	0.099547945
61	0x3c6eed68	0.014582969
62	0xbd00d88b	-0.03145651
63	0x3d9f754c	0.077860445
64	0xbcdcd568	-0.026957229
65	0x3d201e00	0.03909111
66	0x3db418f9	0.08793826
67	0xbda9f949	-0.082995005
68	0x398ae575	0.0002649237
69	0x3c687f4d	0.014190507
70	0xbcfcf412	-0.0308781
71	0xbd6f9890	-0.058495104
72	0xbbdaf10b	-0.0066815666
73	0x3dd7d53e	0.105387196
74	0xbdd05698	-0.101727664
75	0x3ca35543	0.019938117
76	0x3c6198dc	0.013769355
77	0x3d734527	0.05939212
78	0xbd61816e	-0.055055074
79	0xbd14e207	-0.03634837
80	0xbc9398bf	-0.018017171
81	0xbd213aa3	-0.03936256
82	0xbd8a5779	-0.06754965
83	0xbd2bb7e8	-0.041923434
84	0x3cb5aebd	0.022178048
85	0x3d3e0591	0.046392027
86	0xbdb0b6b5	-0.086285986
87	0xbddeeb87	-0.10884767
88	0xbd96a781	-0.073561676
89	0x3d36e5d8	0.04465279
90	0xbdd54414	-0.104133755
91	0xbdc3a3e9	-0.09552748
92	0x3d77ccc1	0.060498003
93	0xbd70b72c	-0.058768436
94	0x3b7bf606	0.0038446202
95	0xbc1bc586	-0.0095075425
96	0x3ce319b1	0.027722212
97	0x3cd8b4c3	0.026453381
98	0xbcf0f30e	-0.029412773
99	0xbd763ae0	-0.06011474
100	0xbda5676a	-0.08076365
101	0xbdd19c40	-0.102348804
102	0x3d3e3126	0.04643359
103	0x3d8f4de9	0.06997282
104	0xbdda5722	-0.106611505
105	0x3d698811	0.05701453
106	0x3cc6eaa7	0.024281813
107	0xbd8a16df	-0.067426436
108	0x3c26672a	0.010156432
109	0x3d010156	0.031495415
110	0xbdc7f2de	-0.0976312
111	0x3d786728	0.060645252
112	0x3d306573	0.0430655
113	0xbd9daa53	-0.076985024
114	0xbd8afb33	-0.06786194
115	0x3d8bb731	0.0682205
116	0x3dbacf6e	0.09121595
117	0x3d97eb6e	0.074179515
118	0xbd79e3f9	-0.061008427
119	0x3da39363	0.07987096
120	0x3d68677d	0.05673932
121	0xbd06fa2f	-0.032953437
122	0xbd244d02	-0.040112503
123	0xbd986a54	-0.074421555
124	0x3d938057	0.07202213
125	0xbcb48aaf	-0.022038786
126	0xbdb9ce6e	-0.090725765
127	0xbdd53067	-0.10409623
128	0xbdd53cc4	-0.10411981
129	0xba92a873	-0.0011189118
130	0x3d726421	0.05917752
131	0xbd281d19	-0.041043375
132	0x3a8848bf	0.0010397657
133	0x3d23c5fe	0.039983742
134	0xbd75a156	-0.059968315
135	0x3ce52571	0.027971955
136	0x3d677747	0.056510236
137	0xbdbf2540	-0.09333277
138	0xbdecf7d6	-0.115707085
139	0x3dbb05b3	0.091319464
140	0xbd3d5a04	-0.046228424
141	0xbd9289a6	-0.071551606
142	0xbd43ab21	-0.047770623
143	0x3de3cb0b	0.11122712
144	0x3dced4fd	0.10099218
145	0xbdc56516	-0.09638421
146	0xbc5d1b46	-0.013495272
147	0x3d997870	0.07493675
148	0x3dce6212	0.10077299
149	0xbd86484c	-0.06556758
150	0x3cef3af0	0.029202908
151	0xbd0130cc	-0.031540677
152	0xbd9400d9	-0.07226724
153	0xbd78922c	-0.060686275
154	0x3db22036	0.0869755
155	0xbc2f51bf	-0.010700642
156	0xbd92d431	-0.071693785
157	0xbd7417ba	-0.05959294
158	0x3d189a89	0.03725675
159	0xbbec01f0	-0.0072023794
160	0x3c2ea2e4	0.010658953
161	0x3cc8b971	0.024502488
162	0xbd86c2b4	-0.065801054
163	0x3d6f7d6b	0.058469217
164	0xbcec873a	-0.028873075
165	0x3d81109a	0.063019946
166	0x3cd19db9	0.025587903
167	0x3d9a8a9d	0.0754597
168	0xbd73b782	-0.05950118
169	0x3de8eb90	0.11373055
170	0xbcb1c330	-0.021699518
171	0xbd84b40c	-0.06479654
172	0xbca7dc60	-0.020490825
173	0x3d2327a9	0.039832745
174	0x3d3f5de8	0.046720415
175	0x3c3b0432	0.011414574
176	0x3d7c6a78	0.061624974
177	0x3d8399d8	0.06425828
178	0xbd71fd1c	-0.059079275
179	0x3dd85fda	0.10565157
180	0xbda8113c	-0.08206412
181	0xbd70dafd	-0.058802593
182	0x3c667cae	0.014067812
183	0xbd559610	-0.052145064
184	0xbdaadd22	-0.08342959
185	0x3d96a6cd	0.073560335
186	0x3cdd534e	0.027017262
187	0xbd6f9f00	-0.058501244
188	0x393272d4	0.0001701818
189	0xbcbe3fea	-0.023223836
190	0xbd173c33	-0.036922645
191	0x3d25aa87	0.04044583
192	0x3d692cfd	0.05692767
193	0x3b429fbf	0.0029697267
194	0xbd9f3ad0	-0.077748895
195	0xbd1829da	-0.037149288
196	0x3d01e05a	0.0317081
197	0x3da6d9cc	0.0814701
198	0x3d97794f	0.07396185
199	0x3a173c7b	0.0005769205
200	0xbd98c77b	-0.07459923
201	0x3cd1a883	0.025593048
202	0xbcf0a277	-0.029374344
203	0x3cc1eff6	0.023673993
204	0x3cfcd5ee	0.030863728
205	0xbc8d918f	-0.017281322
206	0x3d1efd57	0.038815822
207	0x3c913a51	0.017728003
208	0xbd1afbb4	-0.0378377
209	0xbd2134cb	-0.039356988
210	0x3d4eada2	0.050458558
211	0x3b98136e	0.004640988
212	0x3d9a6b2a	0.07539971
213	0x3d78fd1e	0.060788266
214	0x3d86f0d8	0.06588906
215	0x3d5b50c1	0.05354381
216	0xbd620df6	-0.055189095
217	0x3d092223	0.03347982
218	0x3d8ec271	0.069706805
219	0x3dbaaa28	0.09114486
220	0x3cf39c79	0.029737698
221	0x3d8eb4df	0.06968092
222	0x3d606869	0.054787073
223	0x3c70bb9c	0.014693167
224	0x3d2e9683	0.042624008
225	0x3de30eee	0.11086832
226	0xbceea06c	-0.02912923
227	0x3d4995f5	0.049215276
228	0x3d5bea73	0.053690385
229	0x3ce363b4	0.027757503
230	0xbd5323b8	-0.051547736
231	0x3daf1301	0.085485466
232	0x3db5101d	0.08840964
233	0x3d95c9fe	0.073139176
234	0x3d6cc816	0.057808004
235	0xbd47567c	-0.048666462
236	0x3d925f05	0.0714703
237	0x3dd2ca18	0.102924526
238	0x3d6eeb4d	0.05832987
239	0xbd9045ac	-0.07044539
240	0xbd138250	-0.036012948
241	0xbd257d9a	-0.040402986
242	0x3d82c061	0.063843496
243	0xbb5f494c	-0.0034070788
244	0xbda65d65	-0.08123282
245	0x3d88e5de	0.06684469
246	0xbd832227	-0.064029984
247	0x3c8476d0	0.016169935
248	0xbc81c104	-0.015839107
249	0x3cb15740	0.02164805
250	0xbd8fea8b	-0.070271574
251	0xbda5f674	-0.08103648
252	0x3d2f3472	0.042774625
253	0xbd892298	-0.06696051
254	0x3bf72ba2	0.0075430432
255	0x3c7a5fca	0.015281627

bias f4 [54]
0	0xbd7a3704	-0.061087623
1	0xbb7bc6fa	-0.003841816
2	0x3c55ccaa	0.013049284
3	0x3dac60fb	0.08416935
4	0xbd95787c	-0.07298371
5	0x3d13cec3	0.036085855
6	0x3debdb7f	0.11516475
7	0xbca9bfd8	-0.020721361
8	0x3e05ccf9	0.13066472
9	0xbda2c229	-0.07947189
10	0x3e1934bc	0.14961523
11	0xbd4a3fe0	-0.049377322
12	0x3dc5ce7a	0.09658523
13	0x3da86c6b	0.08223804
14	0x3d32180e	0.04347997
15	0x3d4b5858	0.049644798
16	0x3c1a2d29	0.009410181
17	0x3d1d6e46	0.038435243
18	0x3d37d01b	0.0448762
19	0xbdb77795	-0.08958355
20	0x3d3e682f	0.046486076
21	0xbd68e659	-0.0568603
22	0xbdb886fb	-0.090101205
23	0x3df7df7f	0.12103175
24	0x3db45cbf	0.088067524
25	0xbd800e89	-0.06252772
26	0xbdf08c92	-0.11745562
27	0xbca1e168	-0.019760802
28	0x3db0d79a	0.08634873
29	0x3d1cdc40	0.038295984
30	0x3d3f71e2	0.046739466
31	0x3df377b3	0.11888065
32	0x3cbfd7cd	0.023418332
33	0x3e00a257	0.12561928
34	0x3e0636f1	0.13106896
35	0xbd8c4fad	-0.068511344
36	0xbe053bce	-0.13011095
37	0xbcf9d7f7	-0.030498488
38	0x3d4c5344	0.049884096
39	0xbd63b271	-0.055590097
40	0x3be96b7d	0.0071234093
41	0x3d48944b	0.04896955
42	0x3e051112	0.12994793
43	0x3e9206f9	0.28520945
44	0x3d99c8c4	0.07508996
45	0x3cec109e	0.028816517
46	0xbc4533c8	-0.012036271
47	0x3c227b69	0.009917119
48	0xbc9363dd	-0.017991954
49	0x3dc4b13c	0.09604117
50	0x3df806b8	0.121106565
51	0xbd013c5c	-0.031551704
52	0x3be9bc3c	0.007133035
53	0x3e09be0d	0.13451405

weight f4 [18, 54]
0	0x3db2421b	0.08704015
1	0x3d94a796	0.07258527
2	0xbe15dbaf	-0.14634584
3	0xbdf8dbf3	-0.12151327
4	0xbdab5dc2	-0.08367492
5	0xbdfdcbce	-0.12392388
6	0x3d76e6fa	0.06027887
7	0xbbb096be	-0.0053890636
8	0xbd9cfb8a	-0.07665165
9	0x3db0504e	0.08609067
10	0xbc48c90e	-0.012254966
11	0x3c8f721a	0.017510463
12	0xbb349fac	-0.0027560992
13	0xbdb5f9f3	-0.08885565
14	0xbd76083e	-0.060066454
15	0x3db19610	0.086712
16	0x3d6c75bb	0.057729464
17	0xbd5c07b9	-0.053718302
18	0xbc8a527a	-0.016885031
19	0x3dc36fb3	0.09542789
20	0xbdf272eb	-0.11838325
21	0x3d56d7d4	0.052451923
22	0x3cb6aacf	0.022298245
23	0x3ce84bec	0.028356515
24	0x3dee315e	0.1163051
25	0x3d8d8132	0.06909408
26	0xbd89a64e	-0.06721173
27	0xbc08eb06	-0.008356815
28	0xbdf80b81	-0.12111569
29	0x3da7d391	0.0819465
30	0x3d4b2633	0.049596976
31	0x3df43585	0.119242705
32	0x3c9395e0	0.018015802
33	0xbdc31f47	-0.0952745
34	0xbdf994e8	-0.12186605
35	0x3d3e7cc1	0.046505693
36	0xbe066ace	-0.1312668
37	0x3db713c4	0.08939317
38	0x3d2ab426	0.04167571
39	0x3dc383a9	0.095465966
40	0x3dbdc84e	0.09266721
41	0x3dee7b27	0.11644583
42	0xbcd74838	-0.026279554
43	0x3d97c54a	0.07410677
44	0x3dc9a559	0.09845991
45	0x3df7eeb6	0.121060774
46	0x3d08bd7b	0.033383828
47	0x3d069230	0.03285426
48	0x3dfc6af4	0.12325087
49	0xbe130272	-0.14356402
50	0xbe0c655d	-0.13710542
51	0xbd4fd05e	-0.050735824
52	0xbc6a2ee4	-0.014293406
53	0xbdc3cd56	-0.09560649
54	0xbd8f13d2	-0.06986202
55	0xbc3a9a8e	-0.011389388
56	0x3dea1b01	0.11430932
57	0x3dcb523e	0.09927796
58	0xbd4ff6f8	-0.050772637
59	0x3e2babc0	0.16764736
60	0xbc479321	-0.012181074
61	0x3d0995fb	0.0335903
62	0xbd2d7f56	-0.042357765
63	0xbd8344d8	-0.06409615
64	0x3e0c503c	0.13702482
65	0xba346af1	-0.00068823906
66	0x3e3e750a	0.18599334
67	0x3dd250b4	0.10269299
68	0x3e13a23d	0.14417358
69	0x3df4ad1a	0.11947079
70	0x3c4aaa4f	0.012369706
71	0x3ccf03a9	0.0252703
72	0xbd806791	-0.06269754
73	0x3d28dd57	0.04122671
74	0xbcc7b971	-0.024380418
75	0x3c51d51e	0.012807159
76	0x3d2d73d7	0.0423468
77	0x3d7adffc	0.061248764
78	0x3e698c08	0.22807324
79	0x3c2be556	0.01049169
80	0xbd800b97	-0.062522106
81	0xbd9cb574	-0.07651797
82	0x3dcb2201	0.09918595
83	0x3ce2b9de	0.027676519
84	0xbdb8a0a7	-0.09015017
85	0x3d4762a5	0.04867806
86	0x3cb6027f	0.022217987
87	0xbca71893	-0.02039746
88	0x3db96bfc	0.090537995
89	0xbd164ed9	-0.03669629
90	0xbc93dc88	-0.018049493
91	0x3e388686	0.18020067
92	0xbdcee213	-0.10101714
93	0x3e0e6167	0.13904344
94	0x3d405bd5	0.046962578
95	0xbdb2951e	-0.08719848
96	0x3e1bf189	0.15228857
97	0x3d614d77	0.055005517
98	0x3d9bcb63	0.07607152
99	0xbd516d7d	-0.051129807
100	0x3d901a41	0.070362575
101	0xbd56da35	-0.052454192
102	0x3df7afdf	0.120940916
103	0x3dc12abc	0.09431979
104	0x3d898ded	0.06716523
105	0x3cf3cd37	0.02976094
106	0xbd4c6cae	-0.049908333
107	0xbd10ec19	-0.03538141
108	0xbd1854f3	-0.03719039
109	0x3d496b30	0.049174488
110	0x3dcf8924	0.101335794
111	0xbdc04db3	-0.0938982
112	0xbd3a252a	-0.0454456
113	0xbcbe77cb	-0.023250481
114	0xbd21034d	-0.03930979
115	0xbde0f93d	-0.109850384
116	0x3da6294a	0.08113344
117	0xbd8c94b3	-0.068642996
118	0xbc16874d	-0.009187532
119	0x3e03ece6	0.12883338
120	0x3d871ab1	0.06596888
121	0x3d98f61f	0.07468819
122	0x3cdb3401	0.026758196
123	0x3de7cb21	0.11318041
124	0xbd8fb110	-0.07016194
125	0x3d9f64cf	0.077828996
126	0xbe04fc3f	-0.12986849
127	0xbd8ced97	-0.06881254
128	0xbc06e955	-0.008234342
129	0x3d7998a8	0.0609366
130	0xbd875b21	-0.06609178
131	0x3d60201e	0.05471813
132	0xbd3ccd9b	-0.04609452
133	0x3db2082f	0.08692967
134	0xbdc88060	-0.097901106
135	0x3d3ecf68	0.046584517
136	0xb9fcb3da	-0.00048199185
137	0x3d914ccf	0.07094728
138	0x3e07d5e2	0.13265184
139	0xbd11141e	-0.035419576
140	0xbdcdf000	-0.10055542
141	0xbd984991	-0.07435907
142	0xbcb7307a	-0.022361983
143	0xbd8fbc54	-0.070183426
144	0xbdf59f3a	-0.11993261
145	0x3d6f3935	0.058404166
146	0x3da87a57	0.082264595
147	0xbe001431	-0.12507702
148	0xbdbafd40	-0.09130335
149	0x3d92dc15	0.071708836
150	0x3dc61150	0.09671271
151	0xbd86af33	-0.06576385
152	0xbcbcd5da	-0.023051191
153	0x3cf3a427	0.02974136
154	0xbd100735	-0.035163123
155	0x3dbf91b0	0.093539596
156	0x3d93d148	0.072176516
157	0x3d41ee29	0.047346268
158	0xbda35fe1	-0.07977272
159	0xbd30c2fb	-0.043154698
160	0x3cf5df82	0.030013803
161	0x3d46a722	0.048499234
162	0x3d39e5c9	0.045385156
163	0xbca60f5b	-0.020270994
164	0xbdf29d79	-0.11846442
165	0x3d3b3058	0.0457004
166	0x3d0ed315	0.034869272
167	0x3e1d082d	0.1533515
168	0x3e28732e	0.16450188
169	0xbc681d73	-0.0141671775
170	0x3d84288f	0.064530484
171	0xbd8a459f	-0.067515604
172	0xbc16bd2f	-0.009200378
173	0xbd443eb8	-0.047911376
174	0xb76f5070	-1.4264238e-05
175	0x3dd9638d	0.10614691
176	0xbca74b1f	-0.020421563
177	0x3d4552b3	0.04817457
178	0x3d9822e7	0.07428532
179	0x3e242d22	0.16032842
180	0x3cb96c75	0.022634724
181	0xbdb7c2ec	-0.08972725
182	0x3d8d2d91	0.06893457
183	0x3db1f390	0.08689034
184	0xbd716314	-0.05893238
185	0x3de0aa15	0.109699406
186	0x3da703b4	0.08155003
187	0xbdfa0f25	-0.1220992
188	0x3b52369c	0.0032076007
189	0x3c942582	0.018084291
190	0x3daa88b2	0.08326854
191	0x3c52ca7e	0.012865661
192	0xbd974f71	-0.07388199
193	0x3d21a2d1	0.039461914
194	0xbd3ad2b4	-0.0456111
195	0x3dfaaa06	0.12239461
196	0x3d5460d0	0.05185014
197	0x3e066c47	0.13127242
198	0xbd48c3d9	-0.0490149
199	0x3e0a0136	0.13477024
200	0x3e09292f	0.13394617
201	0x3d588f85	0.052871246
202	0x3d3421b3	0.04397745
203	0x3d5e176b	0.054221552
204	0x3c3ac2d7	0.0113989925
205	0x3e42aced	0.19011278
206	0x3e337c6c	0.17527932
207	0x3e33c9f2	0.17557505
208	0x3d4b7708	0.049674064
209	0x3d8167c3	0.06318619
210	0x3dbdbecd	0.09264908
211	0x3e2ac045	0.16674908
212	0x3dd54bc7	0.10414844
213	0xbda83581	-0.0821333
214	0xbd32b58b	-0.043630164
215	0x3e204ed5	0.15655072
216	0x3e2ea846	0.17056379
217	0x3ce31ff4	0.027725197
218	0xbcee8b8d	-0.029119277
219	0x3d9df639	0.07712979
220	0x3e02d36d	0.12775965
221	0xbdc9e558	-0.09858197
222	0xbe06f1f3	-0.13178234
223	0x3d1455e3	0.03621472
224	0x3cfc3754	0.030788101
225	0x3e014aab	0.1262614
226	0xbdd4ce8d	-0.10390959
227	0xbd23d8d9	-0.040001724
228	0xbddfbde6	-0.10924892
229	0xbdd233c0	-0.10263777
230	0x3dd1f7a1	0.102523096
231	0xbddd3df6	-0.10802834
232	0x3c9afbab	0.018918833
233	0xbd15d8dc	-0.036583766
234	0xbc96016f	-0.01831123
235	0x3dc27fa8	0.09497005
236	0xbe1429e0	-0.14469099
237	0x3e24fb61	0.16111518
238	0x3e0953ad	0.13410826
239	0xbdbc0678	-0.09180921
240	0xbdb6287f	-0.08894443
241	0x3ddf23f4	0.108955294
242	0xbd774cd5	-0.060376007
243	0x3dde416e	0.108523235
244	0xbdc732da	-0.09726496
245	0x3d09f450	0.03368026
246	0xbd156b25	-0.036479134
247	0x3d97d753	0.07414117
248	0x3b42ebe9	0.0029742664
249	0x3cf8d9ee	0.030377354
250	0xbe168912	-0.14700726
251	0x3ddf04e5	0.108896054
252	0xbd0b11ba	-0.033952452
253	0x3d399131	0.04530448
254	0x3e11de53	0.14244966
255	0x3e0da57a	0.13832656

bias f4 [18]
0	0xbe06a57f	-0.13149069
1	0x3e92b4bf	0.28653523
2	0xbdd554d5	-0.10416571
3	0x3ef34a5e	0.47517675
4	0x3cf8c9f0	0.030369729
5	0x3da3544a	0.07975061
6	0x3a4f9a41	0.0007919409
7	0xbbef7528	-0.0073076673
8	0x3e93643a	0.28787404
9	0xbe1b4241	-0.15161993
10	0xbe17a7d5	-0.14810117
11	0xbc178a4e	-0.009249283
12	0x3e92a0fe	0.28638452
13	0xbdf0f9a6	-0.11766367
14	0x3ec1badc	0.37837875
15	0x3dca4aa1	0.098775156
16	0xbca7b543	-0.020472175
17	0x3e56c310	0.20972848

weight f4 [6, 18]
0	0xbe1f85c1	-0.15578367
1	0xbd768bf5	-0.060192067
2	0xbe3eb1ee	-0.18622562
3	0x3d8caf1e	0.068693385
4	0xbd9d33a8	-0.07675868
5	0xbdf60d08	-0.12014204
6	0xbd584a74	-0.05280538
7	0x3e45267a	0.19252959
8	0x3eaeafe2	0.34118563
9	0xbe116ae3	-0.1420093
10	0x3dcc41ad	0.09973464
11	0x3e8eb8af	0.27875277
12	0x3e2654df	0.16243313
13	0xbb588090	-0.0033035614
14	0x3edb4c9a	0.4283188
15	0x3d73fe58	0.059568733
16	0xbe1d757e	-0.15376851
17	0x3eead697	0.45866844
18	0xbc4245e8	-0.011857487
19	0xbe84ec26	-0.25961417
20	0x3e358352	0.17725876
21	0x3d700dcc	0.058606908
22	0xbd76f15c	-0.060288772
23	0x3e449c9c	0.19200367
24	0xbde7e488	-0.11322886
25	0xbe486112	-0.1956828
26	0x3e10134c	0.14069861
27	0xbd39ae16	-0.045332037
28	0xbe68f668	-0.22750247
29	0xbe68f669	-0.22750248
30	0x3e31c082	0.17358592
31	0x3b4f92ac	0.0031673117
32	0xbddfc40e	-0.10926066
33	0x3e055824	0.13021904
34	0x3e440a04	0.19144446
35	0x3d6f90e7	0.0584878
36	0xbe629214	-0.22126037
37	0x3ed12d82	0.40855032
38	0xbe5c581c	-0.21517986
39	0x3ed3e5ff	0.4138641
40	0x3db0668f	0.086133115
41	0x3de77472	0.11301507
42	0x3c96c0c6	0.018402468
43	0xbd52034d	-0.05127268
44	0x3d9ae969	0.07564051
45	0x3db38cd8	0.08767098
46	0x3de32488	0.11090952
47	0x3e6a7288	0.22895253
48	0x3ecd87d8	0.40142703
49	0xbdfd7b24	-0.12377003
50	0x3d3adfee	0.045623712
51	0x3e8e226a	0.2776063
52	0x3d5ef2f8	0.05443093
53	0xbe419677	-0.18905054
54	0x3dee525e	0.11636804
55	0x3dff71a7	0.12472849
56	0xbd8215dd	-0.06351826
57	0xbe67048d	-0.2256033
58	0xbd8b2af2	-0.067953005
59	0xbe311135	-0.1729172
60	0xbe7ad90e	-0.24496862
61	0xbc265a42	-0.010153355
62	0xbe2acf2c	-0.16680592
63	0xbd3c8a8f	-0.046030577
64	0xbe295341	-0.16535665
65	0xbd250d75	-0.040296037
66	0x3d07ec54	0.033184364
67	0x3c30eb5b	0.010798301
68	0xbe23132d	-0.15925284
69	0xbdbaacb0	-0.09114969
70	0x3cfb100d	0.030647302
71	0xbcae56df	-0.021281658
72	0x3e21c49e	0.1579766
73	0x3c4a017b	0.0123294545
74	0x3e1c82bb	0.15284245
75	0x3ea6613d	0.32496062
76	0xbe018a34	-0.12650377
77	0xbe1fcd54	-0.1560567
78	0xbcb1ca9c	-0.021703057
79	0xbe021477	-0.12703119
80	0x3eb8df9b	0.36108097
81	0xbe407fc3	-0.18798737
82	0xbe169862	-0.14706567
83	0x3e3ecabb	0.18632023
84	0x3e02fd9c	0.12792057
85	0x3be40c0a	0.006959443
86	0x3f002c6c	0.5006778
87	0x3d83baf2	0.06432141
88	0x3e187eeb	0.14892165
89	0x3e13c0d5	0.14429028
90	0x3d9c17e9	0.07621748
91	0x3e566e55	0.20940526
92	0xbda4ab4c	-0.08040485
93	0x3ed5b1e8	0.41737294
94	0xbe80aa58	-0.25129962
95	0x3e0a72f1	0.13520409
96	0x3d0e6f86	0.034774326
97	0x3e403b30	0.18772578
98	0x3e8d98b1	0.27655557
99	0x3e3fec62	0.18742517
100	0xbe5651cc	-0.2092964
101	0xbdd3318d	-0.103121854
102	0x3ed771ca	0.42079002
103	0x3d337712	0.043814726
104	0x3e8f01e9	0.27931145
105	0x3dbda909	0.092607565
106	0xbda8bcab	-0.082391106
107	0x3ce08fe6	0.027412366

bias f4 [6]
0	0x3e7a71bb	0.24457447
1	0xbe054fc0	-0.13018703
2	0x3db3bc7f	0.08776187
3	0x3e0644e6	0.1311222
4	0x3e30a274	0.17249471
5	0x3d59834f	0.05310374

weight f4 [2, 6]
0	0x3d49868b	0.049200576
1	0x3e4e9e79	0.2017764
2	0xbed1030f	-0.40822646
3	0x3e2d7278	0.16938198
4	0xbeccc594	-0.3999449
5	0xbf29a7c9	-0.66271645
6	0xbf461dd0	-0.7738924
7	0xbdd45352	-0.103674546
8	0x3f33dbad	0.70257074
9	0xbec47e08	-0.38377404
10	0xbf3a204b	-0.72705525
11	0x3ef5465b	0.4790524

bias f4 [2]
0	0xbdce247c	-0.100655526
1	0xbd12b9db	-0.035821777

weight f4 [6, 2]
0	0xbf62f52b	-0.88655347
1	0xbf236d59	-0.63838726
2	0xbf471865	-0.777716
3	0x3f1ac47f	0.6045608
4	0x3e8b761b	0.27238545
5	0x3f0d2024	0.5512717
6	0x3ecd9251	0.40150693
7	0x3f04f89d	0.51941854
8	0x3f07307a	0.52808344
9	0xbd5998b3	-0.05312414
10	0x3e3aaa83	0.18229108
11	0xbf45ec44	-0.7731364

bias f4 [6]
0	0x3efcbec1	0.49364284
1	0x3f5f1e3e	0.8715552
2	0xbb5f92f3	-0.0034114688
3	0x3e375d41	0.17906667
4	0xbe9573f1	-0.2919002
5	0xbe7bed41	-0.24602224

weight f4 [18, 6]
0	0xbe588489	-0.21144308
1	0xbe1e0716	-0.1543239
2	0x3cca1a20	0.02467066
3	0x3e937316	0.2879874
4	0x3e85ea0c	0.26155126
5	0xbd3e8d88	-0.046521693
6	0x3d6d4974	0.05793138
7	0x3f01ab0d	0.5065163
8	0xbdedc616	-0.116100475
9	0xbc88af9a	-0.016685296
10	0x3e741643	0.23836617
11	0xbc7b5909	-0.015341052
12	0x3e9749ef	0.29548594
13	0x3f1cf66e	0.6131352
14	0x3e842d04	0.25815594
15	0xbe6d1c10	-0.23155236
16	0x3e6a4adc	0.22880119
17	0xbeb3c093	-0.3510786
18	0x3db17f76	0.08666889
19	0x3e8d357f	0.27579877
20	0xbcfdcc0e	-0.03098109
21	0xbea2017c	-0.31641757
22	0xbe81206e	-0.25220054
23	0x3e81cd42	0.25351912
24	0xbeba4dd6	-0.3638751
25	0x3dcf3574	0.10117617
26	0x3e7673c5	0.240676
27	0x3dcb6c6e	0.09932791
28	0xbd3b4ee8	-0.045729548
29	0xbeb12139	-0.3459566
30	0x3ebcc657	0.3687007
31	0xbe8e473a	-0.27788717
32	0x3eb9f1ea	0.36317378
33	0x3e5b500c	0.21417254
34	0xbeb03c83	-0.34421167
35	0x3e87ed11	0.26548055
36	0xbe002bf6	-0.1251677
37	0xbeaabf69	-0.3334916
38	0xbe56430e	-0.20924017
39	0x3d9aacc9	0.075524874
40	0x3e04f604	0.12984473
41	0x3ce5b0a4	0.02803833
42	0x3e9cb379	0.30605677
43	0x3de62fbf	0.112395756
44	0xbec101d5	-0.3769671
45	0xbe103b60	-0.1408515
46	0xbd540fe1	-0.051772956
47	0x3d8a4a7e	0.067524895
48	0xbe957536	-0.29190987
49	0x3e0d6522	0.1380811
50	0x3e913ebe	0.2836818
51	0x3d8d8525	0.06910161
52	0x3e0b77e5	0.13619955
53	0x3ea9e83f	0.33185002
54	0xbe50fecb	-0.20409696
55	0x3f25ba24	0.64737153
56	0xbdb415c3	-0.08793213
57	0x3ed2e9e8	0.4119408
58	0x3e66079e	0.22463843
59	0x3e1925f7	0.14955889
60	0xbed06003	-0.4069825
61	0xbe12d65c	-0.14339584
62	0x3dc99a80	0.09843922
63	0x3dfe56f0	0.12418926
64	0x3e0ae100	0.13562393
65	0x3d256c78	0.040386647
66	0x3ea22141	0.31665996
67	0x3dca5a32	0.09880485
68	0x3d21143c	0.039325938
69	0xbe9a98e2	-0.30194765
70	0xbd3d69e5	-0.046243567
71	0x3e7e9f31	0.24865414
72	0x3ebb42fb	0.3657454
73	0x3ec55974	0.3854481
74	0xbc7556d7	-0.0149743175
75	0x3e950be0	0.29110622
76	0x3d5adabf	0.05343127
77	0x3e436dd3	0.19084863
78	0x3f1423d7	0.5786719
79	0x3e097df3	0.13426952
80	0xbe25e898	-0.16202009
81	0xbe9b518d	-0.30335656
82	0x3e11e9dc	0.14249367
83	0xbeb31682	-0.3497811
84	0x3f192473	0.5982124
85	0xbe934831	-0.28766015
86	0x3e2e0d8f	0.1699736
87	0x3e50f325	0.20405252
88	0x3d2f0905	0.04273321
89	0x3e9c4e5b	0.3052853
90	0xbda1ef22	-0.07906939
91	0xbe9aabfc	-0.3020934
92	0x3e6c689c	0.2308678
93	0x3e96deb6	0.2946679
94	0x3e0cc66e	0.1374757
95	0xbcbd5b69	-0.023114877
96	0x3ee6a346	0.45046443
97	0xbc576fad	-0.013149184
98	0xbe91f93c	-0.28510463
99	0xbdb9c85f	-0.09071421
100	0x3e41850e	0.18898413
101	0x3eb12dd0	0.34605265
102	0x3e9a203d	0.3010272
103	0x3dc8352a	0.09775765
104	0xbe5d826b	-0.21631782
105	0x3e022075	0.12707694
106	0xbeb8d5c2	-0.36100584
107	0xbe379f64	-0.17931896

bias f4 [18]
0	0x3c9795c0	0.018504024
1	0xbd25f826	-0.040519856
2	0xbdebeffc	-0.11520383
3	0xbe156256	-0.14588293
4	0xbea319cd	-0.31855622
5	0x3f3100cc	0.6914184
6	0x3f0dd4f3	0.5540306
7	0x3e9a628f	0.3015332
8	0x3f2081d0	0.6269808
9	0x3f0c6766	0.54845273
10	0xbe33d5ce	-0.17562029
11	0xbea54312	-0.32277733
12	0xbf26b8be	-0.65125644
13	0xbefd4047	-0.49463102
14	0x3eaf0a56	0.34187573
15	0x3d8172eb	0.06320747
16	0xbdf2e0fc	-0.118593186
17	0xbeab56a4	-0.3346454

weight f4 [54, 18]
0	0xbde43480	-0.11142826
1	0x3df33637	0.11875575
2	0x3e86cdd8	0.2632892
3	0x3e6bf62c	0.23043126
4	0x3e27e058	0.16394174
5	0x3cad2730	0.02113685
6	0xbe29fa42	-0.16599372
7	0x3d56cb6d	0.052440096
8	0xbe79e03a	-0.24401942
9	0x3d0f1190	0.03492886
10	0x3e4d5c55	0.20054753
11	0xbda461ad	-0.08026443
12	0x3e28d5ed	0.16487856
13	0x3e3455a6	0.17610797
14	0x3da757ff	0.08171081
15	0x3e41e38b	0.18934457
16	0xbd405ec7	-0.046965387
17	0xbd2c06f6	-0.041998826
18	0xbe5890c2	-0.2114897
19	0xbe2a7184	-0.16644865
20	0xbdd9ec7e	-0.106408104
21	0x3d7c4ef3	0.06159873
22	0xbe2522fd	-0.16126628
23	0x3e5415af	0.20711397
24	0x3e540554	0.20705158
25	0x3d9bd7cb	0.076095186
26	0x3cd32da0	0.025778592
27	0x3d9e80a9	0.07739384
28	0x3d89c64e	0.06727277
29	0xbe6a1ef2	-0.22863367
30	0x3e208de6	0.1567913
31	0xbe2193c5	-0.15779026
32	0xbdce313c	-0.100679845
33	0xbc1a9256	-0.009434303
34	0x3e80070f	0.25005385
35	0xbb5f5a06	-0.0034080758
36	0xbd308738	-0.043097705
37	0xbe1d1b83	-0.15342526
38	0x3d12a92f	0.035805877
39	0xbe3660ed	-0.17810412
40	0xbe1a4059	-0.15063609
41	0x3f04c7f8	0.5186763
42	0x3e92404b	0.28564677
43	0x3e84d1a9	0.25941208
44	0x3dd422bb	0.10358187
45	0x3cef6a65	0.029225538
46	0x3e5011c7	0.20319282
47	0x3db60b97	0.08888929
48	0xbe97089c	-0.29498756
49	0xbe98b101	-0.29822543
50	0x3de64578	0.11243719
51	0xbe2fce91	-0.17168643
52	0x3e2029c2	0.1564093
53	0xbe894e73	-0.26817665
54	0x3dd4180e	0.103561506
55	0x3dc2b4dd	0.09507153
56	0x3d2debf1	0.04246134
57	0x3c6c83a5	0.014435683
58	0xbe210e53	-0.1572812
59	0x3e33fb35	0.17576297
60	0xbe5c62e9	-0.21522106
61	0x3d879775	0.06620685
62	0xbded7dc7	-0.11596256
63	0x3e8f45a4	0.2798282
64	0x3c3f0270	0.011658296
65	0xbdd8a7d2	-0.10578884
66	0xbdf8e1f3	-0.121524714
67	0x3c5f70a6	0.013637697
68	0xbd4f73b3	-0.05064745
69	0x3e1f64e1	0.15565826
70	0xbe12b489	-0.14326681
71	0xbe363659	-0.1779417
72	0xbe057403	-0.13032536
73	0xbe383712	-0.17989758
74	0xbc2b5bea	-0.010458926
75	0x3e0c92b7	0.13727842
76	0x39a80677	0.00032048274
77	0x3eb18809	0.346741
78	0x3ebcd587	0.36881658
79	0x3e4b041c	0.19825786
80	0x3ddd5c1d	0.10808585
81	0xbb1b76a4	-0.0023721838
82	0xbdcf146e	-0.101113185
83	0xbe5473c4	-0.20747286
84	0xbe228dbb	-0.15874378
85	0xbdf27774	-0.1183919
86	0x3ef9c1c5	0.48780647
87	0x3e65ad6d	0.22429438
88	0x3d2061b7	0.039155688
89	0x3d8ade53	0.06780686
90	0xbe38ed56	-0.18059286
91	0x3cacbb31	0.021085354
92	0x3d641125	0.055680413
93	0xbdfdbd5e	-0.123896345
94	0x3e063851	0.1310742
95	0xbda86078	-0.08221525
96	0xbe478562	-0.19484475
97	0x3e487103	0.1957436
98	0xbe613ed8	-0.21996629
99	0xbc038d88	-0.008029349
100	0x3ca48e08	0.020087257
101	0xbe344df5	-0.17607863
102	0xbe2f289c	-0.17105335
103	0xbc56680a	-0.013086328
104	0x3e30fd6a	0.1728417
105	0x3e434f5d	0.19073243
106	0x3d30b563	0.043141734
107	0xbdc3fdb0	-0.095698714
108	0xbe078654	-0.13234836
109	0x3dbec1a1	0.093142755
110	0x3e3ea7a7	0.18618642
111	0xbdb02250	-0.086002946
112	0xbdbac955	-0.09120432
113	0x3ded4c13	0.11586776
114	0x3d2fd261	0.042925242
115	0x3e3e250c	0.1856882
116	0xbe2199cf	-0.1578133
117	0xbded6bd5	-0.11592833
118	0x3e6c2bdb	0.23063605
119	0x3d153801	0.036430363
120	0x3e20e52a	0.15712419
121	0x3e0112b9	0.12604798
122	0xbdf64f5b	-0.120268546
123	0x3e198552	0.14992264
124	0xbd830734	-0.06397858
125	0x3d834d40	0.06411219
126	0x3e55275b	0.20815794
127	0xbde931ef	-0.11386477
128	0x3e86bdd0	0.2631669
129	0x3cd59a0a	0.026074428
130	0x3e44fff3	0.19238262
131	0xbc229f41	-0.009925664
132	0xbcbe683f	-0.023243068
133	0xbd9aa1bf	-0.07550382
134	0x3e78df5d	0.24303956
135	0x3ebcd5cc	0.36881864
136	0xbdfc5f3a	-0.123228505
137	0x3dc704e3	0.09717729
138	0xbe02ef52	-0.12786606
139	0xbe92fb86	-0.28707522
140	0x3dc2e594	0.09516445
141	0xbe1649d8	-0.14676607
142	0xbd97ca84	-0.07411674
143	0x3e4631d9	0.19354953
144	0xbdcbf9b6	-0.09959738
145	0xbe17ad29	-0.14812149
146	0xbe0a5a7e	-0.13511083
147	0x3e4751a2	0.19464734
148	0xbe530c23	-0.20610099
149	0x3e8fcad4	0.28084433
150	0x3ea1feb8	0.31639647
151	0xbe04a8b2	-0.12954977
152	0x3e5ca8c4	0.21548754
153	0x3b9a81d3	0.0047151833
154	0x3d31be8c	0.04339461
155	0x3de6b3f3	0.11264791
156	0xbcf9376f	-0.03042194
157	0x3e10a549	0.14125551
158	0xbdaefac4	-0.085439235
159	0x3e1685a1	0.14699413
160	0x3e7d48bd	0.24734779
161	0x3dba6cf5	0.09102813
162	0x3e2facf7	0.17155825
163	0x3d4a30e5	0.049363036
164	0x3e99b08a	0.300175
165	0xbe08ec1a	-0.13371316
166	0xbb6451a7	-0.0034838708
167	0x3c8c25ac	0.017107807
168	0xbe5d5bef	-0.21617101
169	0x3e00f35b	0.12592833
170	0x3dd7db4f	0.10539877
171	0xbdc116b9	-0.09428162
172	0x3e054a89	0.13016714
173	0xbd8ceb4d	-0.068808176
174	0x3e88f7b3	0.2675148
175	0x3e9e3e31	0.30906823
176	0x3c3852c7	0.011250204
177	0x3b5f4a00	0.0034071207
178	0x3e34c16d	0.17651911
179	0xbaede635	-0.0018150272
180	0x3e54f29b	0.20795672
181	0x3e1711cb	0.14752881
182	0xbe02a84e	-0.12759516
183	0x3c8556e4	0.016276784
184	0xbd96149f	-0.07328152
185	0x3ec7187c	0.38885868
186	0x3de692ef	0.11258494
187	0xbd2fd0a5	-0.04292359
188	0x3e6f1ad4	0.23350078
189	0x3bccdf62	0.0062522152
190	0x3bfbbbe0	0.0076823086
191	0xbd9bdc32	-0.07610358
192	0xbd8fe007	-0.07025152
193	0xbe323c0e	-0.17405722
194	0x3e08a789	0.1334516
195	0xbdbb80aa	-0.091554
196	0x3e3ed57e	0.18636128
197	0xbe779082	-0.24176219
198	0xbe6f55bc	-0.23372549
199	0x3da291b5	0.07937948
200	0xbe737ded	-0.23778506
201	0x3e65e19b	0.22449343
202	0xbd2a7bec	-0.041622087
203	0xbe1740e8	-0.14770854
204	0xbe3359ef	-0.17514776
205	0x3e21214a	0.15735355
206	0xbde253d3	-0.110511445
207	0x3dc44e5b	0.095852576
208	0xbe58cfa6	-0.21172962
209	0xbdf476db	-0.119367324
210	0xbe687d0d	-0.22703953
211	0x3e5a2ffc	0.21307367
212	0x3a9d5874	0.001200451
213	0x3e17ec43	0.1483622
214	0xbe311f51	-0.17297103
215	0xbe0ee7f0	-0.13955665
216	0x3e238f3f	0.15972613
217	0x3dfae68b	0.12251004
218	0xbbbdb428	-0.0057892986
219	0x3e78bfac	0.24291867
220	0xbdfaa1ef	-0.12237918
221	0x3e235cc5	0.15953358
222	0xbe22e9b7	-0.15909468
223	0xbe5be285	-0.21473129
224	0xbe7313f9	-0.23738088
225	0x3e1a6ac5	0.15079792
226	0x3e0138a9	0.1261927
227	0x3e29c517	0.1657909
228	0x3d277d78	0.04089114
229	0x3e633dcf	0.22191547
230	0x3d152ed1	0.0364216
231	0x3cdaa366	0.026689243
232	0xbe4e4360	-0.20142889
233	0xbe34f1d1	-0.1767037
234	0x3e02118f	0.1270201
235	0xbe418187	-0.18897067
236	0xbe6f8c07	-0.2339326
237	0x3d278fbd	0.040908564
238	0x3ce67018	0.028129622
239	0xbe56833f	-0.20948504
240	0xbe175b0b	-0.14780824
241	0x3e3babad	0.18327208
242	0xbbfb3ecf	-0.0076673995
243	0xbe66760f	-0.22505973
244	0xbdc51d74	-0.09624758
245	0x3dc26e34	0.09493676
246	0x3e0dd198	0.13849485
247	0xbd935054	-0.07193056
248	0x3d144b3e	0.03620457
249	0x3d971e1a	0.07378788
250	0x3da98d6b	0.082789265
251	0xbe685214	-0.2268756
252	0xbe3250ec	-0.17413682
253	0x3d7e8d8a	0.0621467
254	0x3e9dde51	0.30833676
255	0xbe0c01f6	-0.13672623

bias f4 [54]
0	0xbe48c451	-0.19606139
1	0x3e871285	0.26381317
2	0x3f325ae9	0.6966997
3	0xbdeb1dc7	-0.11480289
4	0x3f1bdc02	0.6088258
5	0xbe284277	-0.16431604
6	0xbdb2392b	-0.0870231
7	0x3e2fca32	0.17166975
8	0x3e54c6e6	0.20778999
9	0xbea01082	-0.31262594
10	0x3f0ab62f	0.5418424
11	0x3ca2be29	0.019866066
12	0xbd066550	-0.032811463
13	0x3caeab18	0.021321818
14	0xbe9e0100	-0.30860138
15	0xbe96f1d8	-0.29481387
16	0x3ea998ff	0.3312454
17	0xbe699418	-0.228104
18	0xbdc4f90e	-0.09617816
19	0xbe1f2b09	-0.1554376
20	0x3ea5315a	0.32264215
21	0xbd91fe01	-0.071285255
22	0xbe20fb12	-0.15720776
23	0x3bfa178e	0.0076322025
24	0xbd105894	-0.035240725
25	0xbe996069	-0.29956368
26	0xbd019517	-0.031636324
27	0xbe4dbcb4	-0.20091516
28	0xbe6d8d51	-0.23198439
29	0x3e242765	0.16030653
30	0xbd652584	-0.05594398
31	0x3e396500	0.18104935
32	0x3ddd5770	0.10807693
33	0x3be79df8	0.007068392
34	0xbe1c9d42	-0.15294364
35	0x3effdc4c	0.4997276
36	0x3e0042c6	0.12525472
37	0x3d143108	0.036179572
38	0x3e8fa61a	0.28056413
39	0x3e877dfa	0.264633
40	0x3e5e7159	0.21722926
41	0x3ddf4bc6	0.109031245
42	0xbe28c95e	-0.16483065
43	0x3cbcd8a5	0.023052523
44	0x3f008688	0.5020528
45	0x3eec2b6a	0.46126872
46	0xbb31f500	-0.0027154088
47	0x3ee9dc3f	0.45675847
48	0x3d8221b2	0.06354083
49	0xbe46dd44	-0.19420344
50	0xbd9adf93	-0.07562175
51	0x3eaadf6f	0.3337359
52	0xbdd21d0e	-0.10259448
53	0xbe56e33c	-0.2098512

weight f4 [90, 54]
0	0x3d0bf175	0.03416582
1	0xbb7dcc9c	-0.0038726693
2	0xbe9b1a54	-0.30293524
3	0xbddc3ecf	-0.10754167
4	0xbe865e7f	-0.2624397
5	0x3d95a884	0.073075324
6	0x3cf59692	0.029979024
7	0xbd635e1f	-0.055509683
8	0xbd8748e0	-0.06605697
9	0x3dcb76ab	0.099347435
10	0xbda008b7	-0.07814162
11	0xbc6f34b4	-0.014599968
12	0x3e04c2ad	0.12964888
13	0xbda9c81a	-0.082901195
14	0x3e2c0478	0.1679858
15	0x3e10ab3d	0.14127822
16	0x3db92d56	0.0904185
17	0x3e006680	0.125391
18	0xbe03e40b	-0.1287996
19	0x3dd245e8	0.1026724
20	0xbb5d0e51	-0.0033730457
21	0xbdaa4731	-0.0831436
22	0x3e0134d2	0.12617806
23	0xbd5f5bca	-0.054530896
24	0xbe07f360	-0.13276434
25	0xbc1ea868	-0.009683706
26	0xbce189a5	-0.027531454
27	0x3cb2e15d	0.021835977
28	0x3de27720	0.110578775
29	0xbdada3f8	-0.0847854
30	0x3dfa5228	0.12222701
31	0xbd9b8f5f	-0.07595705
32	0xbd4caea3	-0.049971234
33	0x3e06f2f0	0.13178611
34	0x3e370654	0.17873508
35	0xbdbe75ec	-0.092998356
36	0x3db9c90d	0.090715505
37	0x3c8f059d	0.017458731
38	0x3d84d672	0.06486215
39	0xbd91c445	-0.071175136
40	0xbe023f54	-0.1271947
41	0x3dc1f3af	0.09470307
42	0xbd03eaa0	-0.032206178
43	0x3de24fa7	0.11050349
44	0xbdd80444	-0.105476886
45	0xbda4e5bc	-0.08051631
46	0xbd830da4	-0.06399086
47	0xbe005bb6	-0.12534985
48	0xbc447723	-0.011991295
49	0xbbb45c5b	-0.0055041737
50	0xbda34d65	-0.07973746
51	0xbc8e3d28	-0.017363146
52	0x3d2dc325	0.042422432
53	0x3dbd552e	0.09244762
54	0x3e886883	0.26642236
55	0xbdec5f71	-0.115416415
56	0xbe6fa32c	-0.23402089
57	0xbcc01726	-0.023448538
58	0xbdc68bfc	-0.09694669
59	0x3b4e73d1	0.0031502137
60	0x3e376f30	0.17913508
61	0x3dd43ca7	0.10363131
62	0xbd140ebb	-0.03614686
63	0x3b227bc6	0.0024793013
64	0xbe24928f	-0.16071533
65	0xbd190445	-0.037357587
66	0x3c403ac3	0.01173276
67	0x3da329f3	0.079669856
68	0x3e6564cd	0.22401734
69	0x3e61910f	0.22027992
70	0xbc907dba	-0.017638076
71	0xbcb39f26	-0.021926474
72	0xbd921467	-0.07132798
73	0xbdb50b02	-0.0883999
74	0x3d8b3406	0.06797032
75	0xbdb4ea3e	-0.08833741
76	0x3d021f0d	0.031767894
77	0x3d1bddbc	0.03805326
78	0xbdc73fc4	-0.09728959
79	0x3d767e57	0.06017908
80	0x3db62104	0.08893016
81	0xbce01b29	-0.027356701
82	0x3dec0b5a	0.11525603
83	0xbdc4c23f	-0.09607362
84	0xbe070885	-0.13186844
85	0xbe056d0b	-0.13029878
86	0x3df90176	0.12158482
87	0x3c8a0441	0.016847732
88	0x3e0d7f78	0.13818157
89	0x3c199f17	0.009376309
90	0x3d9414b6	0.07230513
91	0xbddbd213	-0.10733428
92	0xbe1b4c70	-0.15165877
93	0xbe36c867	-0.17849885
94	0xbc46c010	-0.012130752
95	0x3c98c791	0.018649848
96	0xbe0129b1	-0.1261356
97	0xbd8721c4	-0.06598237
98	0xbdcc1b21	-0.09966112
99	0xbe1bf381	-0.15229608
100	0x3d845a70	0.06462562
101	0xbbf7b71c	-0.00755967
102	0xbd8fbdd5	-0.070186295
103	0xbd92f47c	-0.07175538
104	0x3c3b43fd	0.011429784
105	0xbdff1acb	-0.12456282
106	0x3c8fd6f8	0.01755856
107	0x3de903b8	0.113776624
108	0x3e464bf8	0.19364917
109	0xbc0532e8	-0.008129813
110	0xbeab50ef	-0.33460185
111	0xbd0f6a4c	-0.035013482
112	0xbe799943	-0.24374871
113	0xbd5cb91f	-0.053887483
114	0x3d88a3f1	0.06671894
115	0x3ac0d26b	0.0014711147
116	0xbd3f6a38	-0.046732157
117	0xbd07f33d	-0.033190954
118	0xbdbf7404	-0.093483
119	0xbc7e7a93	-0.015532154
120	0xbd734b34	-0.05939789
121	0xbd38e20a	-0.045137443
122	0x3e00999f	0.12558602
123	0x3e269066	0.16266021
124	0x3c9d4df4	0.01920221
125	0x3d50820a	0.050905265
126	0x3e05a7f8	0.13052356
127	0xbdcbe632	-0.09956016
128	0xbca8ebe1	-0.020620288
129	0x3d4f6367	0.050631907
130	0x3dbc8f84	0.09207061
131	0x3cd7e09a	0.026352216
132	0xbaf9a800	-0.001904726
133	0x3d530948	0.051522523
134	0xbe0eebc2	-0.13957122
135	0xbe07c626	-0.13259181
136	0xbdf073fd	-0.11740873
137	0x3ca44394	0.020051755
138	0xbd8b3112	-0.06796469
139	0x3d9ced4b	0.076624475
140	0x3da18cd6	0.078881904
141	0xbb9ee83a	-0.004849461
142	0x3e3a6ccf	0.1820557
143	0xbdea473d	-0.11439369
144	0xbc8699cb	-0.016430756
145	0xbd443037	-0.047897544
146	0xbde87e5b	-0.113522254
147	0x3c8630e7	0.01638074
148	0xbcd8e71c	-0.026477389
149	0xbdb658de	-0.08903669
150	0x3da4df30	0.08050382
151	0x3dcddc25	0.10051755
152	0xbd0a9791	-0.03383595
153	0xbd683a8a	-0.056696452
154	0xbe048eba	-0.12945071
155	0xbdfcd374	-0.12345019
156	0xbcfd1d68	-0.030897811
157	0x3d8cf702	0.068830505
158	0x3cb2c0cb	0.021820446
159	0x3c7ad093	0.015308517
160	0x3ce5aa51	0.028035315
161	0x3ccff220	0.025384009
162	0x3e212d9d	0.15740056
163	0xbe2332e0	-0.15937376
164	0xbe990085	-0.2988321
165	0xbdd77728	-0.10520774
166	0xbe2f3537	-0.17110144
167	0xbd78a1af	-0.06070107
168	0xbd6c3c56	-0.05767473
169	0x3d0d28bc	0.034462675
170	0x3d0dfb61	0.03466356
171	0x3e200b2d	0.15629263
172	0xbdb14e00	-0.086574554
173	0xba6d9e56	-0.00090644264
174	0xbd4c08ce	-0.049813084
175	0x3d149c29	0.03628174
176	0x3da9f2b6	0.082982466
177	0x3e0b31e9	0.13593258
178	0xbc3278cc	-0.010893058
179	0xbdfe27de	-0.12409948
180	0x3d901d78	0.07036871
181	0xbdda3cce	-0.10656129
182	0xbe27ecd9	-0.16398944
183	0xbde22500	-0.110422134
184	0x3e2ead35	0.1705826
185	0xbdeb51a2	-0.114901796
186	0xbdf48fb6	-0.11941473
187	0x3cbc07ab	0.022952875
188	0xbd81cfab	-0.06338438
189	0xbc362c8f	-0.011119022
190	0x3d89b58e	0.06724082
191	0xbd6d621a	-0.057954885
192	0xbe0406ef	-0.1289327
193	0x3bf2434d	0.007393277
194	0x3d1e5532	0.038655467
195	0x3d008ddf	0.0313853
196	0x3e23c9c6	0.15994939
197	0xbe13c47b	-0.1443042
198	0xbd9c0ae8	-0.07619268
199	0xbbf1686e	-0.0073671853
200	0x3d8483e7	0.06470471
201	0xbd8a5eb9	-0.06756348
202	0x3db6d854	0.0892798
203	0xbdeec54f	-0.116587274
204	0xbdb1fca3	-0.08690765
205	0xbd5761d6	-0.052583538
206	0xbe05f7a9	-0.13082756
207	0x3d17b0fb	0.037034016
208	0xbd68b2a8	-0.056811005
209	0xbd88b59f	-0.066752665
210	0xbdaa1714	-0.08305183
211	0x3d6149a2	0.055001862
212	0xba8d61ec	-0.0010786629
213	0x3c51eead	0.012813252
214	0x3d69adba	0.057050444
215	0x3b4f8980	0.003166765
216	0x3e3060c5	0.17224415
217	0xbe3c9057	-0.18414436
218	0xbe8bab26	-0.27279013
219	0xbde10a37	-0.109882765
220	0xbe03c9d0	-0.12869954
221	0x3d95d711	0.07316411
222	0x3d2abf2d	0.041686226
223	0xbda5751a	-0.08078976
224	0xbe04e0f1	-0.12976433
225	0x3d7d2081	0.061798576
226	0xbde1fc2b	-0.11034425
227	0xbe0b2a1b	-0.1359028
228	0x3ddbb6cd	0.10728226
229	0x3dc425b3	0.09577503
230	0x3c1bd390	0.00951089
231	0x3d8eda10	0.06975186
232	0xbc6e950a	-0.014561901
233	0x3d941288	0.07230097
234	0x3d748464	0.05969657
235	0xbe07598c	-0.13217753
236	0x3d6f8cd8	0.05848393
237	0xbdc34bb4	-0.095359236
238	0x3e2730d9	0.16327228
239	0xbda3c3dd	-0.07996342
240	0x3e098a12	0.13431576
241	0x3e294475	0.1653002
242	0x3cb5a183	0.022171741
243	0xbd82273c	-0.063551396
244	0x3e1efb97	0.15525661
245	0x3d116c25	0.035503525
246	0x3d7fb7bc	0.062431082
247	0xbd224f53	-0.03962643
248	0xbd1868bf	-0.03720927
249	0x3d933102	0.07187082
250	0x3dca9c01	0.09893037
251	0xbb8f26db	-0.0043686456
252	0x3ceab13a	0.028648961
253	0xbc39a00e	-0.011329664
254	0x3dd4cf7f	0.10391139
255	0xbe0954d5	-0.13411267

bias f4 [90]
0	0xbdf2c6c9	-0.118543215
1	0xbe8cb24d	-0.27479783
2	0xbe6976bb	-0.22799198
3	0xbe3afa38	-0.18259513
4	0xbe388a04	-0.18021399
5	0xbe1727f9	-0.14761342
6	0xbdfb95ea	-0.12284453
7	0xbe92fe51	-0.28709653
8	0xbe599062	-0.21246484
9	0xbe2c01fa	-0.16797629
10	0xbe2555b8	-0.1614598
11	0xbe471e3f	-0.19445132
12	0xbdd2212e	-0.10260235
13	0xbd8e7bc9	-0.06957204
14	0xbe107b7b	-0.14109604
15	0xbdda237b	-0.106512986
16	0xbcf44192	-0.029816423
17	0xbe369ca5	-0.17833193
18	0x3d1edc81	0.038784508
19	0xbddfa841	-0.10920764
20	0xbded0975	-0.115740694
21	0xbd3263ba	-0.043552138
22	0x3b3cc98e	0.002880666
23	0xbe2c21fc	-0.16809839
24	0xbc88779c	-0.016658597
25	0xbc9d8dd3	-0.019232666
26	0xbd3ff89a	-0.046867944
27	0x3d361ebc	0.044462904
28	0xbda64cd7	-0.08120125
29	0xbcbf83e9	-0.02337833
30	0x3d587b2a	0.052851833
31	0x3bc7b344	0.006094368
32	0x3d48633e	0.04892277
33	0x3d51f219	0.051256273
34	0x3e1a4df5	0.15068801
35	0x3d25d508	0.040486366
36	0xbbef24d2	-0.0072980905
37	0x3e1e6731	0.15469052
38	0x3e22cdfd	0.15898891
39	0x3e4e8a78	0.20170009
40	0x3e3c4612	0.18386105
41	0x3e09d956	0.13461813
42	0x3de9eb9e	0.114218935
43	0x3e2cb371	0.16865326
44	0x3d6177d0	0.055045903
45	0x3e386d66	0.18010482
46	0x3dbe6ea8	0.0929845
47	0x3e424223	0.18970542
48	0x3df0deab	0.117612205
49	0x3ddd7ae7	0.108144574
50	0x3e286877	0.164461
51	0x3e517d33	0.20457916
52	0x3e18b768	0.14913714
53	0x3e4b5d12	0.19859722
54	0x3e2624fc	0.16225046
55	0x3d243383	0.040088188
56	0x3de9ac67	0.11409836
57	0x3e3dea44	0.18546396
58	0x3e1c4a15	0.15262635
59	0x3d2dd3e9	0.04243842
60	0x3dd73875	0.10508815
61	0x3d175268	0.036943823
62	0x3dd8d92b	0.105882965
63	0xbb159db2	-0.002282959
64	0x3e20827e	0.15674779
65	0x3d003044	0.03129603
66	0x3d91e214	0.07123199
67	0xbb1e0d65	-0.002411687
68	0xbd9faf32	-0.07797088
69	0x3dda0118	0.1064474
70	0xbd0f236f	-0.0349459
71	0x3b9f27ee	0.004857055
72	0x3d8cd8e8	0.06877309
73	0xbd7ebe91	-0.062193457
74	0x3af386f7	0.0018579651
75	0x3d9adbe6	0.075614735
76	0xbdf412af	-0.11917626
77	0x3c98a478	0.018633112
78	0xbd87ae86	-0.066250846
79	0x3ced3339	0.028955089
80	0xbd4ac1aa	-0.0495011
81	0xbd50265c	-0.050817832
82	0xbd8d44f9	-0.06897921
83	0xbd84950c	-0.06473741
84	0xbd86a0bb	-0.06573626
85	0xbd8cf477	-0.068825655
86	0xbe0e4450	-0.13893247
87	0xbd55fa75	-0.052240808
88	0xbdbda50d	-0.092599966
89	0xbe0ae8b5	-0.13565333
