knn/models/pretrained-autoencoder/autoencoder-in_features60-latent_size8.pt (torch, 71681 bytes, 12 tensors)

weight f4 [72, 60]
000000 61 ed 39 bd f8 76 9d 3d a4 d3 3e bd 39 b8 06 3d
       -0.045392398 0.07688707 -0.046588555 0.032890532
000010 4c 78 b0 bc 7e 38 4d 3d cf 89 50 bd ee 5f 0a bd
       -0.021541737 0.050102703 -0.050912675 -0.033782892
000020 ce b4 a7 bd 26 06 54 bd 50 11 70 3d 86 9e 8f bd
       -0.08188783 -0.051763676 0.05861026 -0.07012658
000030 60 1e ef 3c 92 5e 0e bc dc e1 cb bb 9f ef df 3d
       0.029189289 -0.0086895395 -0.006221993 0.10934376
000040 40 80 30 3d 18 5e c7 3a 0a c2 d7 bb b7 c2 c7 3d
       0.04309106 0.0015210537 -0.0065844106 0.09753936
000050 bc 41 ca bc 9b a1 5e bd 64 28 ae 3c 08 c5 13 be
       -0.024689548 -0.054353338 0.021259494 -0.1443063
000060 cb bb 95 bd 36 b5 8c bd b2 7d 23 bd 06 ac ea bd
       -0.07311209 -0.06870501 -0.039914794 -0.11458592
000070 90 4e 1f 3d e0 0d 9b 3b a6 a1 04 bd 38 ac c2 3c
       0.038893282 0.0047318786 -0.032380722 0.02376376
000080 2c 3c b2 3d ae 35 1c 3e 48 a1 22 3e d0 9d ec 3d
       0.08702883 0.15254852 0.15881836 0.11553538
000090 8d a9 c3 3d 74 b4 bb 3d ba 5b b1 3c 05 f8 c2 3d
       0.095538236 0.09165278 0.021650184 0.09519962
0000a0 b5 6b 56 bd 5d 5b 6d ba fc fc 07 bd 00 58 e4 bd
       -0.05234881 -0.0009054447 -0.03320025 -0.11149597
0000b0 5c c8 4e bd 0a e2 7e bc 59 73 b9 bd 6e a1 22 bd
       -0.050484046 -0.015556822 -0.09055204 -0.039704733
0000c0 fe 52 07 bc 23 93 05 3e eb 1d df 3d 22 5a 60 3d
       -0.008259533 0.1304441 0.10894378 0.054773457
0000d0 82 dc 3b 3e a3 72 b1 3d 08 ac ab 3d 2b 86 46 3d
       0.18345836 0.08664443 0.08382422 0.048467796
0000e0 9b 2b ff 3b ba 8e 0b bd 71 21 36 3d 14 ae 0d be
       0.0077871806 -0.03407166 0.044465486 -0.13835937
0000f0 9d ac 45 be 2a 5a e8 bd 6b 27 70 bd 4a f6 3b bc
       -0.19304128 -0.113453224 -0.058631342 -0.011472294
000100 51 f9 b7 bc 21 d6 f2 3c 67 6c 95 bc 8a 97 b1 bc
       -0.02245775 0.02964312 -0.018240167 -0.021678705
000110 d0 70 d0 3d 90 3c d8 3c d5 ad 8f 3c da b7 e4 3c
       0.10177767 0.026396066 0.017538944 0.027919699
000120 80 f5 79 3d f9 60 e2 bd 4c 60 d5 bc 3a 6c 68 bd
       0.061025143 -0.11053652 -0.026046894 -0.056743838
000130 f4 5a 04 be d7 d9 ae bd 67 8f d7 bb b9 b9 49 bd
       -0.12925321 -0.085376434 -0.006578374 -0.049249385
000140 e1 d6 56 bb b3 d3 85 3d 6f 1a 36 bd 3b 13 0a 3c
       -0.0032781886 0.06534519 -0.044458803 0.008427436
000150 cc 67 b8 3d e3 42 14 3e 81 d9 85 3d 79 35 e4 bc
       0.09004173 0.1447864 0.06535626 -0.027857529
000160 92 32 dc 3c 9a e3 a6 3d 6b 49 a3 bd 1e 5d c0 bd
       0.026879583 0.0814888 -0.07972988 -0.09392761
000170 5a 62 bc 3d 22 f5 6b bd 7f 95 a1 bd c9 89 ed bc
       0.091984466 -0.057606824 -0.07889842 -0.028996365
000180 b3 78 1c bd a8 0e 9d bc c1 c7 7d bc 39 e9 24 bd
       -0.038201045 -0.019172028 -0.01548952 -0.04026148
000190 2f 0a 63 3d d4 71 3a 3d aa d7 0a bd eb c4 c0 3d
       0.055429634 0.04551871 -0.03389708 0.09412559
0001a0 40 a7 07 3e 18 e8 5d 3c 9f 75 e1 bc a9 69 89 3c
       0.13247395 0.013544105 -0.027521906 0.016774016
0001b0 2d 24 0f 3d 30 6f a9 3d 08 5c cb 3c bd 62 0d 3e
       0.03494661 0.082731605 0.024824157 0.13807197
0001c0 75 3a 31 3d 45 87 a6 3d 0a 52 0e bc 87 cc 5f 3d
       0.04326864 0.08131269 -0.008686552 0.05463841
0001d0 b9 f4 04 3d 6c 7e 28 bc ea 2f 68 bd 61 74 56 bd
       0.03245995 -0.010284048 -0.05668632 -0.05235708
0001e0 2f 44 fb 3d 37 a0 31 3e fb af 41 3e b4 24 ba 3d
       0.12268864 0.17346273 0.18914787 0.09089032
0001f0 5b ab 29 3e 12 d8 0b 3e ed 72 8e 3d 7b 16 ad 3d
       0.16569273 0.13656643 0.06955514 0.084515534
000200 66 c5 83 3d a2 63 b2 3b d0 50 a6 bb c6 1a 0b bd
       0.06434135 0.005444006 -0.0050755516 -0.03396108
000210 ee d7 d6 bc d3 8c f8 bc 70 6c b8 bd 3c ef 31 3d
       -0.02622601 -0.030340588 -0.09005058 0.043441042
000220 c2 a9 4b bd 40 42 e8 3c 38 ec 3a bc db 09 d6 3c
       -0.04972244 0.028351903 -0.011408858 0.026127746
000230 4e 88 4c 3d 16 c6 a2 3d 54 80 c4 bb 8e 96 00 3e
       0.049934678 0.07947938 -0.005996743 0.12557432
000240 40 c8 cd 3d 2f 6d b9 3d 2a fc fb 3d 2e 34 86 3d
       0.1004796 0.09054028 0.12303956 0.06552921
000250 2f 88 81 3d 98 43 a4 3d 77 50 82 bc b0 09 8d bd
       0.06324803 0.08020705 -0.01590751 -0.06886613
000260 fe bb 94 bd e4 b9 f9 bd dd ec 1b bd 5f ea 02 be
       -0.07262419 -0.12193659 -0.038067687 -0.12784718
000270 66 9b 24 be e0 31 24 be 2d 09 ab bd e0 bd 90 bd
       -0.16074905 -0.16034651 -0.083513595 -0.07067466
000280 aa 75 90 bd 1c da 51 bd 27 fe 8d bd 93 55 99 3c
       -0.07053693 -0.051233396 -0.06933241 0.018717563
000290 63 e6 da 3c ee d8 ec bb 31 3e 62 bd 30 11 16 bd
       0.026721185 -0.0072280085 -0.05523509 -0.036637485
0002a0 09 bd b3 bd cc 5f 8b bd ff 7b 9b bd 0d 7c 31 bd
       -0.0877629 -0.06805381 -0.0759201 -0.043331195
0002b0 21 ea 95 bd f2 b2 ce bc 49 09 93 bd b2 4b 46 bd
       -0.07320047 -0.025231812 -0.071795054 -0.048412032
0002c0 88 d8 d4 3d 5d a3 ac 3c da 92 c0 3d 86 f7 bc 3c
       0.103928626 0.021073991 0.0940301 0.023067247
0002d0 52 8b 02 bd 59 fb 57 bb f5 92 d8 3d 4f 7d 22 3d
       -0.031871147 -0.0032956211 0.10574905 0.039670285
0002e0 65 f9 9c bb b9 81 5d bd 08 71 01 bd 30 6e 09 be
       -0.0047904723 -0.05407879 -0.031601936 -0.1342094
0002f0 0d 12 83 3d fc 88 27 be 92 96 3b 3d 5f 03 b5 3d
       0.06399927 -0.16360849 0.045797892 0.088385336
000300 fb 13 22 bd 65 ad 69 bd d3 5f 60 3d 98 d7 05 3d
       -0.039569836 -0.057050128 0.054778885 0.03267631
000310 d9 a9 21 bd 43 cd 39 3d e0 f6 58 bd 27 b2 cc bb
       -0.03946862 0.04536177 -0.052969813 -0.0062468234
000320 3c 6c c0 39 2e a8 13 be 1c ac 1b be b1 e8 93 bd
       0.00036701735 -0.14419624 -0.15202373 -0.07222117
000330 69 15 f1 bc 1a 46 f2 bc 84 fa 85 bd e8 94 30 bd
       -0.029429154 -0.029574443 -0.06541923 -0.043110758
000340 40 06 17 3d 21 cc 88 3d b9 e4 17 3d 4f 1f 63 3d
       0.036871195 0.066795595 0.03708336 0.05544978
000350 bd a4 bc 3d d7 08 ad bc 20 24 0e 3e 03 f4 0e bd
       0.09211109 -0.02112238 0.13880968 -0.034900676
000360 4c 25 21 bc 95 8c f3 bc eb d9 68 3d 21 4d 1e 3c
       -0.009835552 -0.02973012 0.056848448 0.009661944
000370 2a 10 ae 3c 0d 6b 26 bd 41 e7 05 3d 95 44 01 3e
       0.021247942 -0.040629435 0.032691244 0.12623818
000380 fd 9f 02 3e 11 7c 44 3d 5a 29 e6 3c 67 79 69 bd
       0.12756343 0.04796988 0.02809589 -0.057000544
000390 15 ec b7 bc 1c e4 73 3d 78 89 a9 3c af d0 bf bc
       -0.02245144 0.059543714 0.020695433 -0.023414938
0003a0 43 d5 3b bd 9a a6 b9 bd 8b cd 5b bd e7 ea d7 bc
       -0.04585768 -0.0906498 -0.053662818 -0.026357127
0003b0 b1 05 17 3e 7f 5c 71 bc f3 36 c7 3d d5 e1 18 3e
       0.14748265 -0.014731525 0.097272776 0.14929898
0003c0 4d 6e 29 3d 90 2c 0d 3d 75 0a ca bc c8 7c a2 bc
       0.041364957 0.034466326 -0.02466319 -0.019834891
0003d0 6c cc 08 bc 61 f6 1f 3d ce 97 c6 ba 08 56 1f 3d
       -0.008349519 0.039053325 -0.0015151442 0.038900405
0003e0 4b a6 1b bd 1b 26 b4 3b d7 09 7e bc 2b 28 cd 3c
       -0.038000386 0.0054977066 -0.015505276 0.025043568
0003f0 23 e4 88 3c e7 12 18 bd af 95 71 3d 8e 84 3a 3d
       0.016710347 -0.0371274 0.05898064 0.04553657

bias f4 [72]
000000 c3 0f ac bd 4c ae 02 3e 57 94 eb bd 06 94 77 3d
       -0.08401444 0.12761801 -0.11502903 0.0604439
000010 35 8e 9c ba 12 21 e3 bb 8e f7 63 3d 7a 64 f1 bc
       -0.0011944236 -0.0069314325 0.05565601 -0.029466856
000020 a8 d3 83 bc f6 e1 0f be c2 8e eb bd d6 4d fd 3c
       -0.016092137 -0.14051041 -0.11501838 0.030920904
000030 61 0e 6f 3c c4 3c 4a 3b b3 6b 12 3e bf 63 53 bd
       0.014590831 0.0030858973 0.14298896 -0.051608797
000040 9e a3 80 3e ff 28 0d 3d 5a 49 1c 3d 98 a0 c1 bd
       0.2512483 0.034462925 0.03815589 -0.09454459
000050 5e da 9a 3a e6 83 62 bd 94 70 c5 3b f6 b4 cc 3d
       0.0011814346 -0.05530157 0.0060253832 0.09995453
000060 f4 a9 71 bd 8a f2 ad bd 45 cc 1c 3d 77 c1 b3 bd
       -0.05899997 -0.08493526 0.038280744 -0.08777135
000070 ca 51 2d 3a bf ad dd 3d a0 bc 00 3e 96 71 9d bc
       0.0006611614 0.10824155 0.12571955 -0.019219201
000080 3b 8d 06 bd 08 8f 60 bb 6c 67 47 3c 67 a2 69 3a
       -0.03284953 -0.003426494 0.012170654 0.00089124445
000090 f6 88 16 be 37 ec 86 3c b3 a8 35 3e 51 02 a1 3d
       -0.14700684 0.016470058 0.17740135 0.0786177
0000a0 32 26 f0 bd 09 95 e4 bc 9e 16 e1 3d cd b8 9b bc
       -0.11726035 -0.027903097 0.10990642 -0.019009018
0000b0 93 90 89 3d 06 91 75 3d d3 df ca 3d 69 b3 a8 3d
       0.067170285 0.05995276 0.09905972 0.08237345
0000c0 c2 28 16 3e d3 2e 41 bc 0d 1f 4d 3d 47 e7 28 be
       0.14663985 -0.011790949 0.05007844 -0.16494475
0000d0 ca af 6e bc 40 86 23 3e 1c b9 44 3e 8e 33 57 3b
       -0.014568279 0.15969181 0.19211239 0.0032837125
0000e0 94 53 1b 3d d2 e7 26 bd cf 81 27 3d c2 b9 4f bd
       0.037921503 -0.040748425 0.04089528 -0.05071426
0000f0 23 a4 ae bd 6d 6d 6a bd e4 46 1a be c6 d8 48 bc
       -0.085274 -0.057233263 -0.15066105 -0.012258714
000100 88 cb 97 3c 28 84 3d 3b 8e 85 2d 3e e2 33 14 3e
       0.018529668 0.0028917883 0.16945478 0.14472917
000110 4d 19 44 3e 5d 21 a5 bd 85 91 48 bd 92 2f 0d bd
       0.19150276 -0.08063004 -0.048966903 -0.034469195

weight f4 [24, 72]
000000 a4 7d 80 bd 2c 7a 0f 3e 95 fa da 3d d7 74 81 3d
       -0.06273964 0.14011449 0.10692326 0.063211136
000010 72 50 f1 bb 87 e7 11 3e d3 46 81 bd 9b 98 33 bc
       -0.007364326 0.14248477 -0.06312337 -0.010961677
000020 8e a6 5e bd ff 9a cf bb 0e b6 59 3d 2e 0b 91 3d
       -0.054358058 -0.0063356156 0.053152137 0.070822105
000030 f4 10 37 3e c9 8f 0d 3d c4 28 51 3c cd 58 ec bb
       0.17877561 0.034560952 0.012766067 -0.0072127343
000040 f3 e2 0a 3e fa 2c 18 3e d9 70 45 bd bb 37 6f 3d
       0.13563137 0.14860907 -0.048203323 0.058402758
000050 ec 82 21 39 78 11 4e 3e c0 f1 3b bd 94 82 0e 3e
       0.00015402929 0.20123851 -0.045884848 0.13916999
000060 0d c8 21 3d b6 4b de bc 7e 0d 7d 3e 5a 4d d8 bc
       0.039497424 -0.027135711 0.24712178 -0.026404072
000070 b8 6e 84 3e 9c 4e b5 3d dd b6 a1 bd 08 b7 42 3b
       0.25865722 0.08852884 -0.078962065 0.0029711146
000080 8e b6 01 3e 99 a7 f8 bc 87 ef 32 3e 82 ea ec 3d
       0.12667295 -0.030353354 0.17474185 0.11568166
000090 60 40 a7 3d fb 21 27 bd a5 ee 23 3e 1d 2a 97 3d
       0.081665754 -0.04080389 0.16009004 0.07381079
0000a0 80 70 80 3e bc f1 ea 3c 9f a1 5c 3d 02 f3 0a 3d
       0.2508583 0.028679721 0.05386507 0.033923157
0000b0 b4 f5 08 3e af 69 89 3d 22 50 b1 3d bc 44 f7 bd
       0.13374978 0.06709611 0.08657862 -0.12073657
0000c0 0d aa 03 3e f2 35 0b 3d 12 51 bc ba ee 8b 0b 3d
       0.12857838 0.033986993 -0.0014367423 0.034068994
0000d0 82 db 5e 3b 00 24 93 3c f7 4e 35 3d 72 df 41 3d
       0.0034005349 0.017961502 0.04426476 0.047332235
0000e0 6a 9e cb 3a fd 85 43 3e 74 0d 8e 3e 92 d9 89 3d
       0.0015534882 0.19094081 0.2774464 0.06730951
0000f0 e4 f0 09 3e 0e e1 98 3b 21 ee 92 3d 00 c8 c4 3c
       0.13470799 0.0046655005 0.07174326 0.024021149
000100 ca 90 b1 3c ca 62 06 bd 93 d5 6a bd 1d fc 3e 3d
       0.021675486 -0.032809056 -0.057332586 0.046627153
000110 f9 f2 6c bd 2d ee c2 ba 94 e8 69 3d e8 8b b2 3d
       -0.057848904 -0.0014872007 0.05710657 0.08718091
000120 af 6f 30 bc eb d4 b2 3b c8 a5 bc 3e 30 f6 e4 3b
       -0.010768815 0.0054575107 0.3684523 0.0069873556
000130 46 a7 86 3e 09 bd dd 3c 3e fe ad bd d9 07 d5 bd
       0.26299495 0.027067678 -0.084957585 -0.104018874
000140 e2 4e 87 3e e6 79 e7 3c e0 d0 07 3e 8c e5 be bc
       0.2642737 0.028256368 0.13263273 -0.023302816
000150 fa 95 6d 3d d7 36 89 bd 9d 9a 0d 3e 85 5e df 3d
       0.058004357 -0.06699913 0.13828512 0.109067
000160 74 12 52 3b 3f ce c0 3d 77 82 b4 3d 39 25 11 3e
       0.0032054456 0.09414338 0.08813947 0.14174356
000170 57 dc d2 3c bb 77 ca 3c 74 76 ac 3b 28 ff 2b bd
       0.025739832 0.024715295 0.005263144 -0.041991383
000180 4d 66 37 3d 9f 10 7e 3e b9 c0 90 3d 6f fa 79 bd
       0.044775296 0.24811028 0.07068009 -0.061029848
000190 d9 55 23 bc 6a b4 80 bd 5c 5b a2 3a 6e e7 5b bd
       -0.009969198 -0.06284411 0.0012386846 -0.053687505
0001a0 35 57 ab 3d 02 f6 4e 3e 62 d9 6e bd a2 ff e8 bc
       0.08366243 0.20211032 -0.05831278 -0.028442208
0001b0 94 70 58 3e 83 f4 be bd bb 23 5a 3d 6f 07 79 3d
       0.21136695 -0.09323981 0.05325673 0.060798105
0001c0 3e fb d9 bc e6 65 35 3d 39 3b 41 3d 01 e2 4d 3e
       -0.02660906 0.04428663 0.04717562 0.20105745
0001d0 ef e0 95 bc b3 d6 b2 bc 19 dd be bc 9e 9b dd 3c
       -0.018295733 -0.021830892 -0.023298787 0.027051743
0001e0 75 dc 81 bd 2c 02 d3 3c 57 59 52 3b b3 ff e4 bc
       -0.06340877 0.025757872 0.0032096708 -0.027953958
0001f0 a5 5e 94 3d 7b c6 10 bd 9b fb b4 bc ef 9a 78 bd
       0.072446145 -0.035345536 -0.022092631 -0.06069463
000200 47 a5 80 bc 8a ab 64 3d 7a 96 18 3d ee 51 51 3c
       -0.01570381 0.055827655 0.03725288 0.012775881
000210 49 4c 71 bd 36 60 0d 3e 8f 88 04 bc a7 e7 20 3c
       -0.05891064 0.13806233 -0.008089199 0.009820855
000220 e9 11 a3 bd fb dc d3 3d ed d1 b7 3d f4 8b 21 3d
       -0.079624005 0.10344883 0.08975587 0.03944011
000230 05 83 6a 3d e1 b3 77 bc 70 3d 42 bc 30 3a d7 3d
       0.057253856 -0.01511857 -0.011855468 0.10509145
000240 1c a3 7f bd 9a dc 03 3d 97 57 46 bd a2 3a d6 3d
       -0.062411413 0.032192804 -0.048423376 0.10460402
000250 6b 7d 80 bd 0f 4e 82 bc c0 76 07 bd 3f f3 56 bd
       -0.062739216 -0.015906362 -0.033072233 -0.05247807
000260 a2 05 53 bb 40 c2 ac 3d ee 96 e4 bd cc a8 9d bd
       -0.0032199402 0.08435488 -0.111616 -0.07698211
000270 a8 73 93 bd bc cb b6 3c 81 19 b1 bd 08 ff 7e bd
       -0.07199794 0.022313945 -0.086474426 -0.062254936
000280 7e 89 17 bd 0c 25 06 3d e4 a0 ea bc 10 63 a9 b7
       -0.036996357 0.032750174 -0.028641172 -2.01925e-05
000290 39 cc 34 3d 9c fc ac bd de b5 1a bd 70 1f 3d 3c
       0.044140074 -0.08446619 -0.0377711 0.01154314
0002a0 80 60 f5 3c a6 7b cf bd 56 7f a5 bc ab 67 a3 bc
       0.029953241 -0.10131006 -0.02020232 -0.019946894
0002b0 a6 9d 71 3d d6 17 cf bd 6a 04 cc bd b9 e3 0c bd
       0.058988236 -0.10111968 -0.099617794 -0.03439686
0002c0 9b e2 06 3d 19 38 b0 bd 85 0d c8 bb 12 31 69 bd
       0.03293095 -0.0860445 -0.0061051273 -0.056931563
0002d0 fa a3 d2 3d c2 2f 81 bd c4 76 47 3d 93 1e ed 3c
       0.10285182 -0.06307937 0.048697248 0.028945243
0002e0 59 9e dc bd cd a8 8d bd e6 36 bf 3d 91 f9 09 3d
       -0.1077239 -0.06916962 0.09336643 0.03368527
0002f0 cc 3d ab bd f2 51 e1 3d 79 8d e9 bd 93 96 22 bc
       -0.08361396 0.11001958 -0.11403937 -0.009923595
000300 88 f4 6f bd 00 bc 71 bc aa 62 25 bd c1 99 2b bd
       -0.058582813 -0.014754295 -0.040377297 -0.041894678
000310 cc 3f a7 3d 59 c8 97 bd b7 31 f0 bd 94 c5 64 3a
       0.08166465 -0.0741126 -0.11728232 0.0008726951
000320 3b 72 46 bd 52 8d 1c bd 10 01 c7 3d 90 4d 66 bd
       -0.048448782 -0.03822071 0.097169995 -0.056226313
000330 8b 62 09 bd 42 ab 26 bd 84 bf 00 3d 6a 80 84 bd
       -0.033541244 -0.040690668 0.031432644 -0.064698055
000340 9a a1 62 bc c0 d6 22 3c e6 a5 df 3c db 60 8f bd
       -0.013832474 0.009938896 0.027300786 -0.070008956
000350 1d 7d 5c bd 05 5a a6 3d 9f 86 0c 3d 3f e6 ea bd
       -0.053830255 0.081226386 0.034308072 -0.11469697
000360 4a 82 9a 3d 51 69 3f bd 3a 75 2d 3e 01 56 0c 3c
       0.07544382 -0.046731297 0.1693925 0.008565427
000370 ce 60 79 bc 92 77 06 bd 31 82 b5 3d 1b 81 0e 3c
       -0.015220834 -0.032828875 0.08862723 0.008697773
000380 7b 68 6c 3c fe e9 36 bd 4e 55 22 bc 27 ee 12 3d
       0.014429207 -0.044656746 -0.009908034 0.03587165
000390 f5 bb c5 bd 9c 01 8c bd 14 36 05 bd be f3 b8 3c
       -0.096549906 -0.068362445 -0.032522276 0.022577163
0003a0 c2 d6 12 3d 10 57 e0 3d d1 ae 4d bd 9f 30 a0 3c
       0.03584934 0.10954106 -0.050215546 0.019554434
0003b0 95 c8 a0 bd cf e2 2d bd 4a 43 9e 3c 7f 0b c4 bd
       -0.07850758 -0.04245263 0.019319195 -0.09572505
0003c0 2f 27 34 bd 0d 2b 06 3e 1b 6f 76 bd 9d 0f 69 3d
       -0.04398268 0.1310236 -0.060164552 0.056899656
0003d0 4f 8a d5 3c 35 b7 13 3e 87 6f c0 3d 96 95 78 bd
       0.026066927 0.14425357 0.09396272 -0.06068953
0003e0 25 0b 2d 3d 43 53 9a 3c f9 e3 95 bc 37 56 de 3d
       0.042246956 0.01883853 -0.018297182 0.10856288
0003f0 46 81 36 3e 54 b6 b1 bd 07 e0 35 3d be bc c2 bd
       0.17822751 -0.086773545 0.044403102 -0.09508656

bias f4 [24]
000000 dd 1c 22 3d f1 e5 65 ba 97 a2 a2 3d ee 74 45 bd
       0.039578307 -0.00087699207 0.07941168 -0.048207216
000010 6f d5 0d 3e f8 02 21 bc 06 f1 7b 3e d8 c7 0c 3c
       0.1385095 -0.009827368 0.24603662 0.008592568
000020 47 99 cf bd 79 32 09 be 84 d6 26 3d 12 7a 9c bd
       -0.10136657 -0.1339816 0.04073192 -0.076404706
000030 c1 ba b2 bb d8 14 f7 3b b0 12 4f 3d 52 2d cd 3d
       -0.0054543917 0.0075403266 0.05055493 0.1001841
000040 0e 3c 99 3e b5 ba 86 bb ea 12 aa bd 12 b0 79 3e
       0.2992863 -0.0041116127 -0.08304389 0.24383572
000050 e9 8f 74 3d 24 ca 3b 3d 77 c3 72 be c1 22 96 3d
       0.059707556 0.045847073 -0.23707376 0.073308475

weight f4 [8, 24]
000000 8d d9 a0 3e d3 d7 0f bf 4c 4d f6 bb 7b 41 98 be
       0.31415978 -0.56188697 -0.0075165387 -0.29737458
000010 8e 3a 26 3e 29 0e b7 3e 5c 42 21 3e fc be ee bd
       0.16233274 0.3575299 0.1574797 -0.11657521
000020 c4 92 6e 3d 44 96 f2 3e df d8 16 3e 26 2b 3a bd
       0.058245435 0.4738027 0.14731167 -0.045451306
000030 46 7c 16 be 56 e5 1c bd 90 d5 1b be 9a 7c 25 be
       -0.14695844 -0.03830465 -0.15218186 -0.16160813
000040 fb f1 14 3e 85 1f a8 3e c7 91 3b be bf 5a 0c 3d
       0.14545433 0.32836547 -0.18317328 0.03426623
000050 4e 2f c7 be 0c 95 14 bf 31 41 f7 3e 12 90 91 bb
       -0.38903278 -0.5803993 0.48291925 -0.0044422233
000060 00 20 d2 be 65 3a 62 3e 05 8c 80 bd 18 51 9c bd
       -0.4104004 0.22092588 -0.062767066 -0.07632655
000070 c4 2e ef bd ee 9a ba 3e e1 f4 7e 3e 87 8b d2 3e
       -0.11678842 0.36446327 0.24898101 0.41122076
000080 f7 a8 03 3e e7 7b 16 3e cf ab ac 3c 0c f6 a6 3d
       0.12857424 0.14695702 0.021078018 0.081523985
000090 b3 20 fb 3d a6 7b a1 3a c5 81 91 bc 9f db ec bc
       0.12262096 0.0012320175 -0.017762074 -0.028913317
0000a0 fa 2f 02 bd 56 95 d5 3d a3 fd c5 be de 14 0c 3f
       -0.031784035 0.10428874 -0.38670072 0.5471934
0000b0 0b 7d 3b be 83 ac 82 3e 63 ff 28 be 94 00 c8 be
       -0.18309419 0.2552224 -0.16503672 -0.3906294
0000c0 62 e9 1e be a1 50 33 3e f2 cc 0b 3e bc 23 1b be
       -0.15518716 0.17511226 0.13652399 -0.1515035
0000d0 24 67 eb bd fa 1a 38 be 5e cc 0b 3f 3d 68 3a be
       -0.11494282 -0.1797904 0.54608715 -0.18203826
0000e0 cb 33 05 bf 2d 31 b5 bd 02 36 fa 3d dd d0 a9 3d
       -0.52032155 -0.0884727 0.122173324 0.08291791
0000f0 5d 5b 89 be 16 cf 3d 3e 84 67 af 3d d9 2f 2a be
       -0.26827517 0.18536028 0.08564666 -0.16619815
000100 7b 60 85 3d 7b 9c 81 bd 67 b8 59 3e d9 ba 40 3e
       0.06512543 -0.063286744 0.2126175 0.18821277
000110 cc 15 d5 3e 14 b0 69 be ef 2e 0e 3e ae 8e 16 3e
       0.41618192 -0.22821075 0.13885091 0.14702865
000120 f8 86 55 3e 2a d6 82 3e 18 4b 0c be 0f 74 ba 3e
       0.20852268 0.2555402 -0.13700521 0.3641667
000130 b0 73 c2 bd 5d 6d f8 3e 1c 70 cc 3e ca 9b 8f 3e
       -0.09494722 0.48520938 0.39929283 0.28048545
000140 75 8a 0e be 07 ca 97 be 24 83 33 3e 0a b5 94 bd
       -0.13920005 -0.29646322 0.17530495 -0.07261093
000150 35 d2 57 3e 68 82 7f 3c d0 27 b1 3d ff bf c8 3d
       0.21076281 0.015595056 0.08650172 0.09802245
000160 39 f3 a4 be d9 02 46 be 60 fe 3a bb 0b 48 90 be
       -0.32216814 -0.19337024 -0.0028532967 -0.28179964
000170 2c a4 20 bf ce 7f 0a be 8e 0a c6 3d b5 88 93 3d
       -0.62750506 -0.13525316 0.09669982 0.07203809
000180 98 d1 cd be e1 46 07 be c0 00 d0 bd ad 98 b3 3d
       -0.4019897 -0.13210632 -0.10156393 0.08769355
000190 72 eb b9 3e 54 fb 3d 3d 61 a3 2b 3e 67 4c 93 3e
       0.36312443 0.046382263 0.16761543 0.28769228
0001a0 ba 28 85 3d 90 fa 1c be c3 a5 f5 be ed 78 1e be
       0.065019086 -0.15329957 -0.4797803 -0.15475817
0001b0 aa 95 ba 3e e4 ad da bd 87 5e a6 3e 25 5a e6 3e
       0.3644231 -0.10677698 0.32493994 0.4499065
0001c0 9f b3 78 be 71 5b f1 3d f4 9d d3 3d 22 f0 25 be
       -0.2428727 0.11785019 0.103328615 -0.16204885
0001d0 96 75 36 3e c3 f8 c9 be 23 7d 9e 3e e1 05 94 be
       0.17818293 -0.39447603 0.30954847 -0.28910735
0001e0 11 5b cd be 89 3a b5 3e 7b 32 47 3e a1 09 44 3e
       -0.4010854 0.3539622 0.1945285 0.19144298
0001f0 36 99 59 3e 5d be d2 3d 40 f8 00 be 4e e7 85 bd
       0.21249852 0.10290215 -0.125947 -0.065382585
000200 ea 01 c4 3d 37 b1 b8 be 63 08 86 3e 81 27 57 bd
       0.095706776 -0.36072704 0.26178274 -0.05252791
000210 06 c0 c2 be 57 a7 31 be ca 4e ad 3b ac 2e c1 bc
       -0.38037127 -0.17348991 0.0052889334 -0.023581825
000220 51 14 2b 3f b8 50 41 be f8 57 e9 3d 1e fe 34 be
       0.66827875 -0.18878448 0.11393732 -0.17675063
000230 08 a7 1e be 33 d1 0e be a2 9c 0a 3e 13 99 91 bc
       -0.15493405 -0.1394699 0.13536313 -0.017773187
000240 3b 78 ec 3c b0 31 bb 3d 57 ca 5a bc 46 35 fa bd
       0.028865924 0.091403365 -0.013353906 -0.12217192
000250 71 60 c9 3e a7 37 ea 3d 2f 74 30 be fc e4 5c 3d
       0.3933139 0.11436396 -0.1723182 0.053929314
000260 53 72 ee be 13 56 28 be 18 5c 15 be c0 ef d1 bd
       -0.46571597 -0.16439085 -0.14585912 -0.10250807
000270 38 a3 e8 3d a1 07 e1 3d 64 0b 41 3e aa 8b e8 3d
       0.113592565 0.10987783 0.18852001 0.11354764
000280 08 ee e6 3d dc 67 9a 3c bc 8a 0a bf 93 fe c3 3d
       0.112758696 0.018848352 -0.5411794 0.095700406
000290 27 3b 11 3e 73 28 34 3e c8 2f f7 bd 49 a9 0e 3f
       0.14182721 0.17593555 -0.120696604 0.5572706
0002a0 a3 e4 f4 3e 1f 63 06 3d 7c e9 57 bd 75 0f 04 bd
       0.47830686 0.032809373 -0.052712902 -0.032241303
0002b0 ca b7 a0 be fa 02 d0 bd ef 6e 6a 3e ef ca 9d be
       -0.3139022 -0.10156818 0.2289388 -0.3081889
0002c0 69 c5 fb bd 7e c1 a6 be 84 23 c2 bd 94 10 d7 bd
       -0.122935124 -0.32569498 -0.0947943 -0.10501209
0002d0 ea a0 2a 3d 08 30 c3 bd c9 9d cb bd 1f c3 ff 3e
       0.041657366 -0.095306456 -0.099422045 0.49953553
0002e0 10 8e f3 3e ff 18 88 3e 1a a0 ef 3d 21 09 9b bd
       0.47569323 0.2658157 0.11700459 -0.075701006
0002f0 a8 52 a8 bd 90 81 30 3e 8e a5 f0 bd 40 35 24 bf
       -0.082188904 0.17236924 -0.11750327 -0.64143753

bias f4 [8]
000000 ca 9b ea 3d 3e 48 17 3e d6 09 61 3e c4 c5 a9 3d
       0.11455496 0.14773652 0.21976408 0.08289674
000010 dd c8 1d bd af 38 62 3e ba 2d 16 3e aa 76 75 3e
       -0.038521636 0.22091936 0.14665881 0.23971048

weight f4 [24, 8]
000000 9e 72 19 3e ce 52 86 3e 68 36 ea 3c 05 eb 0d bd
       0.14985129 0.2623505 0.028590396 -0.03464796
000010 ae bd 92 bd 85 bd 6a 3e f4 5c d6 3e 15 fe a8 3e
       -0.07165085 0.22923858 0.41867793 0.3300635
000020 e6 40 80 3d 1b d4 88 be 1a 74 e3 3c 3b 6f 9c be
       0.062623784 -0.26724324 0.027765322 -0.30553612
000030 f4 4c b5 be ac 3b d2 bd a4 73 46 be de b2 e5 3e
       -0.35410273 -0.10265288 -0.19380051 0.44863027
000040 52 fa 33 bc ff 9c a7 bd c6 1e 8c be de 2e 9e 3d
       -0.010984974 -0.081842415 -0.27367228 0.07723783
000050 0b 59 35 be 15 be f8 3d 8f dc 8b be 9d 84 59 bd
       -0.17709748 0.1214563 -0.2731671 -0.053104986
000060 59 33 7a 3e 42 ed bc 3e d1 17 95 be d8 de 3e 3d
       0.2443365 0.36899763 -0.29119733 0.04659924
000070 cf 74 78 be 5f 81 ff 3d c5 b7 7d be 54 cc 5a bd
       -0.24263309 0.124758475 -0.24777134 -0.05341752
000080 ab a6 66 be 4e d4 10 3b af 86 9f 3d f3 19 01 3e
       -0.22524516 0.00220992 0.07789361 0.12607555
000090 ef 6a 32 3d 3b 89 98 3e aa 09 a7 be 36 99 96 3c
       0.04355901 0.297922 -0.3262456 0.018383604
0000a0 63 7e 30 3e d6 b2 28 3e 61 c7 9b 3e 99 3b bf 3c
       0.17235713 0.1647447 0.30425552 0.023343848
0000b0 dc 62 97 3d 7b 78 01 bd 9f 2e b4 3e 99 7c 60 3e
       0.07391903 -0.03160904 0.3519182 0.2192253
0000c0 52 c1 ce 3c 01 d0 6c be 47 db f4 3d c5 aa 9b be
       0.025238667 -0.23126222 0.11955886 -0.30403724
0000d0 f4 d8 b6 3e d1 08 de bb 55 68 11 be 7e 19 12 be
       0.35712397 -0.0067759533 -0.14199956 -0.14267537
0000e0 4a 6f dc 3d f1 c3 a4 3d 8e 60 be 3d ae 19 73 bd
       0.10763414 0.08045185 0.0929576 -0.059350662
0000f0 6b 6f da 3d c6 92 6e 3e 4d a8 f7 bc 8c 25 8f 3d
       0.106657825 0.23298177 -0.03023162 0.069895834
000100 2d 17 e7 3d 7b b8 63 be 9d b6 84 3e a2 c0 9f bd
       0.11283717 -0.22238342 0.25920573 -0.07800414
000110 04 0d 75 be 40 6e b3 3e 60 a3 3c 3e e4 fe e7 be
       -0.23930746 0.35045052 0.18421698 -0.45311654
000120 99 77 90 3e 00 7d 81 3d 45 ab 10 be 2b 6e 8c be
       0.28216246 0.0632267 -0.14127834 -0.274278
000130 20 0b 03 bc 2b cf a4 be 4b b4 a6 3e 6f 53 a3 bd
       -0.007998258 -0.32189307 0.32559428 -0.07974898
000140 37 9e 12 3e 0a 06 a1 3d 6c de da 3e 9b b9 72 3e
       0.14318167 0.0786248 0.4274782 0.23703615
000150 6a 9f 8b bd ab 8f f9 bd 0c 27 bd 3d d3 7f d1 3d
       -0.06817515 -0.121856056 0.09235963 0.10229459
000160 57 2d 9c be 31 36 ef bd cd 45 16 3e 5d c5 a4 3e
       -0.30503342 -0.11680258 0.14675064 0.32181826
000170 a4 18 cc bc 4e 12 94 3e 05 ee a4 be f4 4d c5 3d
       -0.024914093 0.28920215 -0.32212844 0.09634009
000180 81 31 dd 3c b1 9b be 3d 3a 69 80 3e c5 68 42 be
       0.027001144 0.093070395 0.25080281 -0.18985279
000190 2d 0e 8e bd 39 72 40 3e 9d be 86 be 7e 66 13 be
       -0.069362976 0.18793572 -0.263173 -0.14394566
0001a0 97 c3 2d be d2 df 59 3e 13 e1 91 be 9a c6 59 be
       -0.16969143 0.21276787 -0.2849203 -0.21267167
0001b0 dc 40 07 be 8a cd 90 3d c9 91 2e be e8 0a 04 be
       -0.13208336 0.070704535 -0.170478 -0.12894785
0001c0 3a 87 b5 bd 1e 06 13 3e 85 c4 df 3d 45 29 33 bd
       -0.08863683 0.14357802 0.10926155 -0.04374053
0001d0 e0 5b 5b bd e1 00 81 bd 98 4f f9 3c 27 72 96 bd
       -0.053554416 -0.06298996 0.030433461 -0.073459916
0001e0 85 a4 20 bd fe 32 64 3e 71 81 06 be 27 c1 91 3e
       -0.039219398 0.22285077 -0.13135315 0.28467676
0001f0 85 13 ae be 0f dc 37 3b 7e b4 d7 3d 42 05 f5 3d
       -0.33999267 0.002805475 0.10532473 0.119638935
000200 61 fc ac 3e fc 86 a7 be 00 79 19 be 8a e0 82 3e
       0.337863 -0.32720172 -0.14987564 0.25561935
000210 74 24 90 3e 73 6f 6d 3e 27 cc 35 3e 5d e6 8a 3d
       0.28152812 0.23187046 0.17753659 0.067822196
000220 d7 ed fb bd 25 f2 72 3e a4 00 95 be 5b e6 a3 3d
       -0.12301224 0.23725183 -0.2910205 0.08002921
000230 12 a8 86 3e 69 1d bb be 91 5b 49 be 79 d4 f6 3e
       0.26300102 -0.36545876 -0.19663836 0.4820898
000240 ee f3 90 be 66 e7 8a 3e dc ea 14 3e aa 6a 50 be
       -0.28311104 0.27129668 0.14542717 -0.20353189
000250 52 f7 6e be 46 8a 51 be e7 0b 10 be bb 83 68 bd
       -0.23336533 -0.20462903 -0.1406704 -0.056766253
000260 f0 f6 2f 3e 34 5b a6 3e 31 8e 61 3d e4 72 18 be
       0.17184043 0.32491457 0.055067245 -0.14887577
000270 46 53 a6 3c 21 18 cf 3e 9a d4 ac 3e bd 97 38 3e
       0.02030338 0.40448096 0.33755952 0.18026634
000280 2b 44 70 be c7 59 a8 be 70 00 8d 3e 4f 73 67 bd
       -0.23463504 -0.32880995 0.27539396 -0.05650645
000290 b8 bd 6d 3e 26 85 c7 bd 72 2f 67 3e 29 33 45 3d
       0.23216903 -0.09742193 0.22576693 0.048144493
0002a0 ee fc 0a 3d bf b4 0c be ef 7d 17 be d1 70 0d 3e
       0.03393262 -0.13740824 -0.14794134 0.13812567
0002b0 2e 6f 1b be b7 bb 59 3c f2 36 eb 3e 2a 30 08 3e
       -0.1517913 0.013289384 0.45940357 0.13299623
0002c0 ef 3c 62 bd b0 2d 61 3e 12 8c 95 bc dc cb 86 3e
       -0.055233892 0.21990085 -0.018255267 0.26327407
0002d0 12 d8 9f 3e 28 11 bd 3d ee 00 25 3e de 49 d0 be
       0.31219536 0.09231788 0.16113636 -0.40681356
0002e0 a9 8a 43 3e 29 4a 49 be 45 45 5e be f7 cd ca 3d
       0.19095863 -0.19657196 -0.21706112 0.09902566
0002f0 ec 3a 1f 3e 84 aa 2d 3e 1e 37 56 bd f0 a1 dc 38
       0.1554982 0.16959578 -0.052298658 0.00010520581

bias f4 [24]
000000 98 fe 88 3e fb fa 72 bd 49 68 be 3d 7a ab 9b 3d
       0.2675674 -0.059321385 0.092972346 0.07601066
000010 a5 8e a2 bd ea 77 e4 3e 75 8d c9 3e 27 a9 22 3f
       -0.079373635 0.44622737 0.39365736 0.63539356
000020 6b bb 0d be 8c a3 81 3e 84 ef 72 3f 27 e4 73 be
       -0.13841026 0.2532009 0.9489672 -0.23817502
000030 55 3c ee bd 7d 04 d9 3d eb d8 3b 3f 36 a1 9c be
       -0.11632601 0.10596559 0.73377866 -0.30591744
000040 ac 77 ab be eb e0 2b 3e 69 2c 8f 3e e1 97 e5 3e
       -0.3348974 0.16785018 0.2796357 0.44842437
000050 f2 cb 81 bd 41 07 6d 3f df 49 85 3d 5d 5b 21 3e
       -0.063377276 0.92589194 0.065082304 0.15757509

weight f4 [72, 24]
000000 0b 10 23 3c 23 dc 0d be 10 32 1f bd 7e 77 9a bd
       0.009952555 -0.13853507 -0.038866103 -0.075423226
000010 56 f5 fc bd 99 30 9a 3e de 0b 93 3d be 37 fc 3d
       -0.123514816 0.30115202 0.07179998 0.123153195
000020 b2 45 43 bd e3 38 f0 bd 10 16 a1 bc fa 61 d1 3d
       -0.04767389 -0.117296 -0.01966384 0.10223766
000030 e3 13 a3 bd 6e 6b 88 3d 7d 32 98 3d 61 e0 0e be
       -0.079627775 0.066611156 0.07431505 -0.13952781
000040 6a bb ff bd 34 cc 94 bd 6b 71 d1 3d 6a d1 53 3d
       -0.12486918 -0.07265511 0.10226711 0.051713385
000050 3f 1f a0 3e f6 23 06 3e cd a8 ca 3c 82 f6 f8 bd
       0.3127384 0.13099656 0.024738694 -0.12156393
000060 c1 27 56 be eb ec 12 bc c8 3c 4f be bf ac 4e bd
       -0.20913602 -0.008967618 -0.2023803 -0.050457712
000070 da 7c e4 3b 55 b4 07 be ec e7 f5 bc a9 83 82 bd
       0.0069728913 -0.13252385 -0.030017816 -0.063727684
000080 28 ed f3 3d 7f c8 4b 3c e2 d5 0a be db 98 69 bd
       0.11910468 0.012437939 -0.13558152 -0.05703054
000090 e6 0b 00 3e fe 50 51 be 5f a5 1e 3d 50 97 32 be
       0.12504539 -0.20441052 0.03873193 -0.17440534
0000a0 ea de 00 be da a0 ce 3c 54 89 12 3c 23 9e 11 3e
       -0.12585035 0.025223184 0.008943874 0.1422048
0000b0 b7 bb 81 bc 72 24 dd 3c 07 c4 7e 3d 6f f5 4b bd
       -0.01583658 0.026994918 0.062198665 -0.04979461
0000c0 44 14 2b 3e 53 81 90 3e 71 71 33 3e f9 6b 96 bc
       0.1670695 0.28223667 0.17523743 -0.018362032
0000d0 dc 55 4e bd af 5a 19 be 0f f8 8d 3d 5a 0a 7d be
       -0.05037485 -0.14976 0.06932079 -0.2471098
0000e0 f2 d7 2e 3d 7b a1 e5 3b 67 2e 80 3e 14 6c 05 3d
       0.04268641 0.0070077754 0.25035402 0.032573774
0000f0 c5 be 6c bd 92 fb a3 3c f1 b2 c3 bd ed 09 ef 3d
       -0.05779912 0.020017419 -0.09555615 0.11671815
000100 a6 be 25 3e b7 d6 45 3a 8c 56 d8 bc 7c 47 1c be
       0.16186008 0.00075469486 -0.026408456 -0.15261644
000110 08 65 86 3d 89 d8 0b 3f b8 3b fd bd 9c b8 77 bd
       0.06562239 0.5462728 -0.12364906 -0.06047879
000120 31 14 6c bd ad 8e 19 be cb 5e 5a 3c db 52 d6 bd
       -0.057636444 -0.14995833 0.0133282645 -0.10465022
000130 4f 61 28 be 3f 65 d3 bd f4 c7 db bd c5 d6 98 bd
       -0.1644337 -0.103220455 -0.107314974 -0.07462839
000140 be 5a c6 3d 9f 32 f5 bd 38 2b ba 3d 30 d6 57 ba
       0.096852764 -0.11972546 0.090902746 -0.00082335155
000150 c3 77 2c 3e 04 50 be 3d bf 16 ef bd cc 8f 4e 3d
       0.1684256 0.092926055 -0.1167426 0.050430104
000160 9a a1 f2 3d d2 53 a8 bc a9 c1 1e bc 31 4f 68 3b
       0.11847229 -0.020547781 -0.009689727 0.0035447592
000170 44 99 4d be 71 e6 ee bd 19 e3 aa bd d5 a8 3a be
       -0.20077997 -0.11665047 -0.08344097 -0.18228467
000180 9b 4a ac 3d 01 80 2b 3e 61 a4 6b bc 38 96 2f bd
       0.08412667 0.16748048 -0.014382453 -0.04286787
000190 39 d2 70 3c 23 40 99 3e 61 f5 86 3d 35 6f 12 3d
       0.0146985585 0.29931745 0.06589771 0.035750587
0001a0 2a 25 de 3c 92 0c b3 3e ac 8a 79 be 41 2e e5 bd
       0.02711733 0.34970528 -0.24369305 -0.11190463
0001b0 a8 6d e7 bd b4 1a fd 3c 4d fa bc 3d 2c e8 6c bd
       -0.11300212 0.030896522 0.092274286 -0.057838604
0001c0 e3 7d 43 bd 86 82 fe bc ba 49 7c bd 6c ab 72 3d
       -0.047727477 -0.031068098 -0.06159375 0.059245512
0001d0 be d5 ba bd 1e 2a 20 3e e5 b7 51 bd 94 1a f0 3d
       -0.09122799 0.15641066 -0.051200766 0.117238194
0001e0 7e 4d 41 3d f8 78 48 bc 24 4c 11 be 73 bc 64 3c
       0.047193043 -0.012235872 -0.14189202 0.013960945
0001f0 6c 72 42 3e 5f 75 1d bd 72 62 96 3c 81 8a 8e 3e
       0.18988961 -0.038442012 0.01835749 0.27840045
000200 5c 61 46 bd 9d 62 6d bc 64 96 ab 3d e0 b6 80 3d
       -0.048432693 -0.014488843 0.08378294 0.06284881
000210 95 91 14 bd d3 2f bd 3c 32 d0 48 bd 22 ec 34 be
       -0.03627165 0.023094093 -0.049026676 -0.17668203
000220 18 ec 2f 3e cf a2 f2 3d 53 65 ae 3c ce d7 27 3a
       0.17179906 0.118474595 0.02128855 0.0006402702
000230 4d f8 f2 bd 9a 02 93 bd 42 c0 59 bd 25 7d b0 3b
       -0.11863766 -0.071782306 -0.053161867 0.005386012
000240 de 94 1d be 09 ee 49 be 41 1c 43 3e 4a 9e b6 bd
       -0.1538882 -0.1971971 0.19053747 -0.0891691
000250 38 52 d4 bd 4b 46 e0 bd bb 3b 1e 3e 10 ae bb 3b
       -0.103672445 -0.10950907 0.15452473 0.005727537
000260 5f a6 48 3e e1 a9 10 be 66 3b e5 bd 52 d8 d3 3d
       0.19594716 -0.14127304 -0.1119297 0.10343994
000270 96 d2 05 3d 98 9d 3d 3e 1c 2e 30 bd 42 2a 29 be
       0.032671534 0.18517148 -0.043012723 -0.16520026
000280 e2 84 fc 3d b9 c8 34 3e e9 ff 81 3d df 78 26 be
       0.12330033 0.17654695 0.06347639 -0.16257046
000290 d2 30 19 3d dc 27 8c bd 73 fc 0f be cb 2c 0d be
       0.037400074 -0.0684354 -0.14061145 -0.13786618
0002a0 0a 80 d1 bd 0e 47 b9 3d 95 4a 2b 3e 1c 9f 2d be
       -0.102295 0.09046756 0.1672767 -0.16955227
0002b0 3d bc c5 bb 0c 1e 2c 3e 77 68 fe bd 8c d6 34 3e
       -0.0060344026 0.16808337 -0.12422269 0.17659968
0002c0 83 db fc bd 6d 10 a3 3d d2 51 62 3d c4 e3 c8 bb
       -0.12346556 0.07962117 0.05525381 -0.0061306674
0002d0 68 f4 d4 3d 26 18 b3 bd 67 ed 3a be da 68 0b 3e
       0.10398179 -0.0874484 -0.18254624 0.13614216
0002e0 6f 48 79 3e a7 02 b0 3c 45 8a 84 bd bb de 9f 39
       0.24344037 0.02148564 -0.06471685 0.0003049279
0002f0 3f c8 aa 3d a0 16 a8 bd de 7f c8 bc 0c b6 05 3e
       0.08338975 -0.082074404 -0.024475034 0.13057727
000300 da 59 7e bd 1c c2 0e bd be d8 6a bd ff ab 63 be
       -0.062097408 -0.034853086 -0.057335608 -0.2223358
000310 64 e9 1f 3d e3 63 ce 3c bc fc c8 3d 1e 1b 18 bd
       0.039040938 0.025194114 0.0981383 -0.037135236
000320 38 b6 93 bd 66 d0 1b 3e 75 c3 91 be 91 d9 8a bd
       -0.0721249 0.15216216 -0.28469434 -0.06779779
000330 6b 88 66 bc 3c be f5 3d bb 1c 9c bc c3 d9 df 3d
       -0.0140706105 0.11999175 -0.019056669 0.109302066
000340 fd 62 47 3b 93 58 1e 3e 97 a1 df bd 50 d5 e2 bc
       0.0030423992 0.15463476 -0.10919493 -0.027689606
000350 56 86 7b 3d ff 04 c2 3e 37 86 66 3e a7 ff 42 3e
       0.06140741 0.37894437 0.22512136 0.19042836
000360 ab 00 4a be a1 e9 bb 3d e1 48 85 bd 61 8e cc 39
       -0.19726817 0.091754206 -0.06508041 0.00039015993
000370 41 28 0f 3d 8f ba 84 bc 2e 22 07 bd cf 8e fb bd
       0.0349505 -0.01620224 -0.03299158 -0.12283098
000380 81 fc d6 bd 27 31 c0 bd 90 0b b6 bc e4 ba 6e bd
       -0.1049738 -0.09384375 -0.02222231 -0.0582837
000390 3d 32 86 bc 83 b0 8c 3c ab b6 12 be 0e 84 ed 3d
       -0.016381377 0.017174011 -0.14327495 0.11597453
0003a0 86 b4 8e bb 48 4d eb 3d 0e 6a 6d bc 40 3a a2 bd
       -0.004355016 0.114893496 -0.014490617 -0.079212666
0003b0 6a 2d 2e 3d c3 f3 8e 3d c3 c9 26 be 11 db a8 3c
       0.04252378 0.069800876 -0.16287903 0.020612272
0003c0 4e df 09 3b 6d 90 02 be f0 76 9e 3d 10 87 1e bd
       0.002103764 -0.12750407 0.07737529 -0.038703024
0003d0 c6 5d 2f 3e c3 af 8b 3e 79 57 57 3e 1d fb 5e 3e
       0.17125615 0.27282533 0.21029462 0.2177548
0003e0 00 e7 86 bd ad 2d 8b bd e2 e7 f6 3b dd a7 2a be
       -0.065870285 -0.06795821 0.007534967 -0.16665597
0003f0 89 cb bd 3b ab 3b 86 bd e2 0e b0 3e 5b 09 c8 bd
       0.0057920855 -0.065543495 0.34386355 -0.097674094

bias f4 [72]
000000 94 7e 8e bd 89 30 8a be 0f a9 6d 3e b1 40 ab 3d
       -0.069577366 -0.26990154 0.23209022 0.08361948
000010 d6 b0 fe 3d 25 51 c6 bc c6 eb 54 be 06 d8 11 bd
       0.124360725 -0.024208615 -0.20793065 -0.035606407
000020 60 0f 8d 3e 8a 1f 49 be 03 f7 2f 3e 52 60 d7 bd
       0.27550793 -0.19640937 0.17184071 -0.105164185
000030 5a 44 cb 3d 9f 79 3c 3e 07 60 0e 3e 8e 3f c2 bc
       0.099251464 0.1840577 0.13903819 -0.023711946
000040 76 15 2b be 59 37 fd 3c 7c f6 e4 3e f0 d8 f9 bd
       -0.16707405 0.03091018 0.44719303 -0.12199581
000050 b2 71 bd 3e 65 c7 43 3e d5 dd 36 3e 97 ca 0c 3e
       0.37000805 0.19119032 0.1785806 0.13749157
000060 38 aa 5d be 8a 66 ea bd 4d d2 ef bd 6d 35 4c 3d
       -0.21646965 -0.11445339 -0.117100336 0.04985564
000070 5f e4 e9 3e 2c 90 19 be 4f 93 42 bd ec cf ea bd
       0.45682046 -0.14996403 -0.047503766 -0.11465439
000080 b9 6d bf 3e 76 b1 f4 bd 0d e7 4c bd 91 07 d2 bd
       0.373884 -0.119479105 -0.050025035 -0.102553494
000090 06 3f 2b be c4 e4 83 3e 0b b7 8a 3d 6a de ff bd
       -0.1672326 0.25760472 0.06773194 -0.12493594
0000a0 30 0f 79 3e de 68 bc 3e 84 88 e0 bd a6 ab 70 3e
       0.243222 0.36798757 -0.10963538 0.23502979
0000b0 af 35 50 3d f0 e0 6f bd b7 cf dd 3e 04 97 06 3e
       0.050832447 -0.058564126 0.43322536 0.13143545
0000c0 65 77 a8 bc 3f a9 04 be 0f f4 f1 bd 18 42 bd 3e
       -0.020564744 -0.12955187 -0.118141286 0.36964488
0000d0 2a 24 c6 3b 0b d8 2c 3e 13 98 9c 3e 58 62 9a 3e
       0.0060467916 0.16879289 0.30584773 0.30153155
0000e0 18 99 a0 bd 5b 23 a8 bd 67 af 30 3d 88 96 72 3d
       -0.078417 -0.082098685 0.043136027 0.05922559
0000f0 18 b5 2c 3e 25 80 20 3c e4 d2 a9 3d 1a d2 e3 bd
       0.16865957 0.009796177 0.08292177 -0.11124058
000100 99 b8 4a 3e b8 61 4b bd 39 1d da 3c 1b 55 1d 3e
       0.19796981 -0.04965374 0.026625263 0.15364496
000110 8d 20 54 bd d6 39 ab 3c 84 09 ea 3c b8 b5 a2 3d
       -0.051788855 0.020901602 0.02856899 0.07944816

weight f4 [60, 72]
000000 18 1a f2 3d c5 1f 2f 3d 61 e6 93 be 17 b2 0c bc
       0.11821383 0.042754907 -0.28886703 -0.008587382
000010 3a 2d cc be c1 d2 89 3d 14 42 a4 bd 99 47 33 bd
       -0.39878255 0.06729651 -0.08020416 -0.043769453
000020 98 63 37 be a5 1f 93 bd 52 55 2d 3e 4a a7 2d bd
       -0.17909086 -0.0718377 0.16927078 -0.042395867
000030 60 4b cd bd d4 76 f6 3d 79 99 46 be 50 a0 f2 bb
       -0.10024142 0.120343834 -0.19394483 -0.0074043646
000040 94 0c 9e bd 9d 1a 26 bd 24 d2 81 be fc 8b 69 3d
       -0.07717243 -0.040552724 -0.25355637 0.057018265
000050 24 75 fa bd 38 04 5d 3e d8 77 c2 bd 87 27 9e 3d
       -0.12229374 0.2158364 -0.09495515 0.07722383
000060 ef 60 c9 bd b8 dd b8 3d 7c 16 7d 3d 7a 2b f8 3c
       -0.09832942 0.090266645 0.06178902 0.030294169
000070 13 e3 9c bd 6f 0e 0f 3e 06 80 88 be cb ae 19 3a
       -0.076604985 0.1397035 -0.26660174 0.0005862533
000080 04 c9 a2 3e 54 8c c4 bd 20 1f e8 3c 0c 1f af 3c
       0.31793988 -0.09597078 0.028335154 0.021377109
000090 df e6 bf 3c f4 00 d7 3d c5 ec 31 3d 99 86 20 3e
       0.023425518 0.10498229 0.04343869 0.15676345
0000a0 29 47 17 be 56 45 bf 3d 30 45 68 3d bb 21 12 3e
       -0.14773239 0.09339397 0.056706607 0.1427068
0000b0 88 65 c2 bd 75 ab 22 bd 3b f2 c9 bb 4c c9 0b 3e
       -0.09492022 -0.039714295 -0.0061629093 0.13651007
0000c0 d4 4b cc bd 42 e6 95 bb 5a 61 01 bc bf 17 00 3d
       -0.099754006 -0.004574568 -0.007896746 0.031272646
0000d0 7b 13 e2 bd 95 38 d0 3d 0f 3f 7d bd c6 99 d4 3b
       -0.11038872 0.10167042 -0.061827715 0.006488058
0000e0 43 41 e3 3d 1d c0 9c 3e 0a 34 78 be c6 9d 65 3d
       0.11096432 0.3061532 -0.24238601 0.056058668
0000f0 c5 fe 8b 3d 5c db b7 3c a0 ad 34 bc b7 04 a3 3e
       0.06835703 0.022443466 -0.011027724 0.31839535
000100 cb 64 aa bd 11 03 05 be 54 64 cb 3d 2c ce 39 3d
       -0.08320006 -0.12989451 0.099312454 0.045362636
000110 6f 3f b6 bd 48 dd ae bb f8 3d 28 be 4d 34 f1 bd
       -0.08898818 -0.0053364374 -0.16429889 -0.11777554
000120 b5 14 a9 3d 8f a4 7b 3c 53 3e 5f be 0f 84 ac 3d
       0.08255903 0.015359058 -0.21801119 0.08423626
000130 67 6c b6 be 3a b0 63 3b 4d db 9a bd 3f c3 9f 3c
       -0.3562958 0.003474249 -0.075613596 0.01950228
000140 20 4c d3 bd cc dd 8c bd a2 6b f6 3d 49 b3 7b bd
       -0.10317254 -0.06878242 0.12032248 -0.061450277
000150 91 c9 af 3d b6 b3 00 3e f1 59 6b be 72 16 20 3d
       0.085833676 0.12568554 -0.22983529 0.039083906
000160 8a 7a 81 3d ce b5 a4 3c ad 34 94 be 11 c6 8a 3d
       0.063222006 0.020106222 -0.28946438 0.067760594
000170 c6 0c 4d be 9e 55 69 3e e2 c5 8a bd 76 b4 cf 3d
       -0.20024404 0.22786567 -0.067760244 0.10141842
000180 62 e9 b4 bd a8 fe 23 3d 0a c1 d5 3d e8 75 8d 3d
       -0.08833577 0.04003778 0.1043721 0.069072545
000190 00 82 4f bd 42 a8 96 3d 8f d5 5e be 80 ba e0 bd
       -0.050661087 0.073563114 -0.21761154 -0.10973072
0001a0 d9 37 8c 3e 12 c7 cd bd c4 38 ec bd 24 9a 9d bc
       0.27386358 -0.10047735 -0.11534265 -0.019238539
0001b0 dd 32 90 3c 00 6b d5 3d cb bd 1c 3c e1 d7 22 3e
       0.017602379 0.10420799 0.009566735 0.15902664
0001c0 f9 a7 23 be 2d 84 15 3d ac d3 0a 3a 90 8d 1c 3e
       -0.15982045 0.036503006 0.0005295824 0.15288377
0001d0 e5 68 f4 bd 2d 00 ad bd 34 e9 bd bd 3a 37 03 3e
       -0.119340695 -0.08447299 -0.092729956 0.12814036
0001e0 8e 04 76 3d ec a9 19 bd 64 54 68 3d 8f a8 a5 3d
       0.060062937 -0.037515566 0.056721106 0.080887906
0001f0 ea 4b e8 bd 5d 1c 69 3d 72 6e 98 bd b4 0c 63 3d
       -0.113426045 0.056911815 -0.07442941 0.055432037
000200 01 65 08 3d f8 87 82 3e 7f fb 7c be 60 56 f9 bc
       0.03329945 0.2549436 -0.24705313 -0.030436695
000210 3e f1 5e 3d 72 de 3a 3e e5 93 ce bd 08 f8 8f 3e
       0.054429285 0.18248919 -0.100868024 0.2811892
000220 ac e9 d1 bc 19 4c 92 bd 12 1c b6 3d cb eb 95 3d
       -0.025624119 -0.07143421 0.08892073 0.073203646
000230 47 4d f1 bc 67 76 3c bd 18 28 30 be bc 1c 2d bd
       -0.029455794 -0.046011355 -0.17202795 -0.04226373
000240 18 5f 03 3e 01 df 81 3c 77 f5 16 be 97 fc 59 bd
       0.12829244 0.015853407 -0.14742075 -0.053219404
000250 40 57 b0 be b3 62 17 3d 13 f1 21 bd e1 db 5e 3d
       -0.34441566 0.03695936 -0.039536547 0.05440891
000260 07 0b 5e bd 94 dc fd 3c 08 ba 0f 3d 7f 99 d5 bd
       -0.054209735 0.030988969 0.035089523 -0.10429668
000270 9b 23 50 bd 58 0a 09 3e f3 8b 40 be aa aa 93 bd
       -0.050815206 0.13382852 -0.18803386 -0.07210286
000280 2b ce 5f 3d b9 e8 b2 bd 68 2e 37 be 5e 8a bd bd
       0.054639976 -0.087357946 -0.17888796 -0.09254907
000290 4a 10 41 be 51 36 0f 3e 8b c4 bf bd 06 e2 32 3d
       -0.1885387 0.13985564 -0.093636595 0.043672584
0002a0 30 33 0f bd b5 9b 95 3d 60 02 90 3d 26 a4 4a bd
       -0.034960926 0.073050894 0.07031703 -0.04947295
0002b0 e4 24 9f bd 1f 41 71 3d 20 af 84 be 1d 13 24 3d
       -0.07770708 0.058899995 -0.2591486 0.04005729
0002c0 bf 2c 60 3e 5b 0a 43 3d cc 86 4b 3d 4e 1d 8b 3d
       0.2189207 0.047617298 0.0496891 0.06792699
0002d0 1f da dc bd 82 53 0d 3e fb 5b ba bb db ee 80 3d
       -0.10783791 0.13801387 -0.0056872345 0.06295558
0002e0 24 7e e4 bd d6 27 b2 3c 49 ed a9 3d 9c ff c9 3d
       -0.11156872 0.02174751 0.08297212 0.09863207
0002f0 a0 14 12 bd ef c3 d8 bc 47 82 81 3c 4f 55 eb 3d
       -0.0356642 -0.026460616 0.015809191 0.11490881
000300 6b 6a bd bd d6 12 e4 3c 94 f1 85 3d d5 0d db 3d
       -0.09248813 0.027841013 0.06540218 0.106959976
000310 88 d9 22 be 94 70 a3 3d 19 61 fb 3c 25 fe 26 bd
       -0.15903294 0.07980457 0.030685948 -0.040769715
000320 e5 c3 06 3d 74 e9 6e 3e ab f0 4b be 22 52 02 3d
       0.032901663 0.23331243 -0.19916026 0.03181661
000330 67 d9 1e 3d 6c 3a d9 3c ca 15 94 3c 18 c8 9b 3e
       0.03878155 0.026517116 0.018076796 0.30426097
000340 d4 de 1e bc ef a9 10 be 91 2f 24 3e 9c 2e bd 3d
       -0.009696681 -0.14127325 0.1603377 0.09237406
000350 6f 04 6c bd f8 0a c1 3c d6 ea 13 be 6d 3e 37 bd
       -0.057621416 0.0235648 -0.14445052 -0.04473727
000360 ec bc 44 3d 09 45 de bd 97 d6 8f bd bb 0b 89 bd
       0.048031732 -0.10853011 -0.07023352 -0.066916905
000370 05 86 6a be 4f cd e1 bb 0e 36 ed bc ae ac 10 3d
       -0.22902687 -0.00689093 -0.02895644 0.03532093
000380 2b f0 a7 3c 04 ad 2e 3d fd 63 1a 3d 7d 04 e4 3c
       0.020500263 0.04264547 0.037693013 0.027834171
000390 e7 06 a6 bd 6d 9e 0b 3d f3 b5 3f be e9 6c c7 bc
       -0.08106785 0.034086633 -0.18721752 -0.024343925
0003a0 a2 b7 95 3d 2e be 80 bd c6 dc 64 be 85 b8 ee 3d
       0.07310416 -0.06286274 -0.22349843 0.11656288
0003b0 1a 61 0c be 6a 19 a2 3d 33 a3 25 3c 63 5d 18 bd
       -0.13708916 0.079150036 0.0101097105 -0.037198436
0003c0 e1 5f 96 bd 42 94 c2 3d 08 91 dc 3d e7 5a ee bc
       -0.07342506 0.09500934 0.1076985 -0.02909608
0003d0 6a 3c 4e bd e9 91 96 3d 30 49 0c be ee ee e0 bd
       -0.050350584 0.07352049 -0.13699794 -0.10983072
0003e0 20 98 39 3e c4 c6 2f bd bc de f4 bc 7d f6 76 bd
       0.18124437 -0.042914167 -0.029891364 -0.060293663
0003f0 95 a1 7e bd b4 ed 18 3e 50 8f e6 bc 4d a2 0a 3e
       -0.062165815 0.14934427 -0.028144509 0.13538475

bias f4 [60]
000000 95 42 44 bd 65 80 a7 bc 2d 6f 31 bd 50 1e 92 3c
       -0.04791506 -0.020446965 -0.043318916 0.01783672
000010 4e 3a 83 3d f8 d8 96 3d e6 17 92 3d 67 6b 84 3b
       0.06407605 0.07365602 0.071334645 0.0040411237
000020 55 af c4 3d 90 37 84 3d db 45 b0 3d 93 77 38 3d
       0.096037544 0.0645591 0.08607074 0.04503591
000030 6d 9f a5 3c 1d e8 94 bd 7b 47 83 3c 5f e1 33 bd
       0.020217622 -0.072708346 0.016025295 -0.043916102
000040 fa a5 81 bd 09 c9 db bd 52 4e fb bd 46 c0 04 be
       -0.06330486 -0.10731704 -0.12270798 -0.12963971
000050 46 71 29 be cc 45 1b be f1 f3 2d be 82 55 22 be
       -0.16547117 -0.15163344 -0.16987588 -0.15852931
000060 ba 98 0c be 5a b8 fb bd 6c f6 2f bd 60 95 c9 3c
       -0.13730136 -0.12291022 -0.042959616 0.02460736
000070 44 a1 9b 3c df 80 ea 3d 84 b9 37 3e 72 3a 80 3e
       0.018997796 0.114503615 0.17941862 0.2504459
000080 57 d3 5c 3e b4 eb 22 3e 8f cf 86 3e ae 1c 2b 3e
       0.21564995 0.15910226 0.2633023 0.16710159
000090 47 d5 12 3e 5b 12 46 3b 34 db 4c bd 75 bc 06 be
       0.14339171 0.0030223343 -0.050013736 -0.13157828
0000a0 2f 3b 14 be 5b e4 79 be f4 67 4d be b3 74 b4 bd
       -0.14475702 -0.24403517 -0.20059186 -0.08811321
0000b0 e2 3b 9d bd 91 8a 8f 3d 49 72 0a 3e 74 ff 45 3e
       -0.07677437 0.07008851 0.13520159 0.19335729
0000c0 12 0b 38 3e 05 ac 46 3e 63 4b 60 3e f1 9c 24 3e
       0.17972973 0.19401558 0.21903758 0.16075493
0000d0 1d 63 30 3d ac ff e3 bc c2 fd 86 bd 52 52 43 bd
       0.04306327 -0.027831875 -0.06591369 -0.04768593
0000e0 4a ac ed bd 92 45 31 bd 1d 05 12 3d bf 11 6b 3d
       -0.11605127 -0.043279238 0.035649408 0.05738997
